Models_Testing/net_0_0_epoch_14.pth (torch, 57997 bytes, 25 tensors)

nnECG.0.weight f4 [128, 12]
000000 d5 b7 d0 bc f2 ca bd 3c ab b6 15 3e 58 dd 55 3e
       -0.025478283 0.02316806 0.14620464 0.20885217
000010 ae 73 af 3d f7 68 17 3d a6 81 65 bd ce a4 5a ba
       0.08566986 0.036965337 -0.056031846 -0.0008340598
000020 3a f9 ec bc 15 c9 9f 3d 76 cb 2c 3e d4 75 5a be
       -0.028927434 0.07802025 0.16874489 -0.2133401
000030 7b dd 5a 3d 0a d4 3d 3c 4a 34 1d 3e dd 6b 10 bd
       0.053433876 0.011586199 0.15351978 -0.035259116
000040 41 8b 30 3d 10 b9 3a 3e b1 83 e5 bd 80 08 3e be
       0.043101553 0.18234658 -0.11206759 -0.1855793
000050 25 9d 61 be 2d 78 e1 bd 0e 98 91 3b a8 7b 60 be
       -0.22032602 -0.1100925 0.004443175 -0.21922171
000060 06 6d 8f bd 6f d6 3f 3c 4c f6 57 3e 6c e2 14 3c
       -0.070032164 0.01170884 0.21090049 0.009087186
000070 b5 e6 c9 3d 86 d4 f6 3d 1b 0c 88 bd b1 d5 34 3e
       0.09858457 0.120522544 -0.06642934 0.17659642
000080 ed 4b 9e bd 42 fc a4 bb 94 3b 9a bd 04 6b d7 3d
       -0.077293254 -0.0050349543 -0.07530895 0.105184585
000090 de 18 93 bd 9d cd cc 3d 31 48 cc 3d f6 83 73 3b
       -0.071824774 0.10000155 0.09974707 0.0037157512
0000a0 6d 95 1e be 9d 5f 34 be f3 d0 d2 bd 3a a2 cb bd
       -0.15486689 -0.17614599 -0.1029376 -0.09943052
0000b0 ee 21 64 3c a5 a3 22 3d 65 43 38 bc 5f 7e ca 3c
       0.013924105 0.039706845 -0.011246537 0.024718462
0000c0 47 5d 9f 3d 02 eb 25 3e 8c 79 78 3d d7 09 ff bd
       0.07781463 0.1620293 0.06066279 -0.12453049
0000d0 00 9f 83 be d8 a8 f7 bd 53 06 8b bd 2c cc 2c 3e
       -0.25707245 -0.12092751 -0.067883156 0.1687476
0000e0 9b f3 0e 3d e0 5c 08 be a5 47 52 be 28 ba 9d 3d
       0.03490029 -0.13316679 -0.20535143 0.07701522
0000f0 4d 96 4f 39 f7 02 c7 bd 14 75 e7 3d 1a a5 88 3c
       0.0001979705 -0.097173624 0.11301628 0.016680289
000100 42 2d 09 be 43 b6 87 3d 9d cf b0 3d b0 19 ef 3c
       -0.1339617 0.066265605 0.08633349 0.029187053
000110 11 4d fc 3c 52 23 e3 3d be 3a 3b be 89 55 20 3e
       0.030798467 0.11090721 -0.18284127 0.15657629
000120 49 6d 8e bd ed 5f da bd 55 38 7c bd 85 3f 93 bd
       -0.06954438 -0.10662828 -0.06157716 -0.0718985
000130 1e 23 6f be 9d 11 01 be e9 f6 10 3e 7e 00 fa 3d
       -0.2335324 -0.12604375 0.14156689 0.12207125
000140 d0 00 40 3e 67 1f e6 bd 3e 6f 39 be 61 d2 91 3d
       0.1875031 -0.11236458 -0.18108842 0.07120205
000150 ff a6 8a 3d e8 ed d9 bc ed c4 2d be 60 cd f9 bd
       0.06770133 -0.0266027 -0.16969652 -0.12197375
000160 8d b6 3f 3d f2 55 ae bd ea 58 41 3e 74 8e 93 bd
       0.046804953 -0.085124865 0.18881574 -0.07204905
000170 50 91 2a be 6d 36 05 be 06 19 00 3e 40 74 1c 3e
       -0.16656995 -0.13009043 0.12509546 0.15278721
000180 36 a1 c3 bd cd d2 86 3d 29 71 66 bd ed 94 3c bd
       -0.09552233 0.06583176 -0.05626026 -0.046040464
000190 de 9c c4 3d 67 c1 01 be a1 9a f0 bd a0 cc b3 bd
       0.096002325 -0.12671433 -0.11748243 -0.087792635
0001a0 06 50 37 be 07 a3 c5 bd 17 91 e3 bd 55 fd 2e 3e
       -0.1790162 -0.096502356 -0.11111658 0.17088826
0001b0 fa 41 a7 bd dd 17 57 3e a9 d3 40 3e f7 a4 47 be
       -0.08166881 0.21005197 0.18830742 -0.19496523
0001c0 f4 7b 4b be d5 b6 a0 3d 55 b9 21 3e 7a c7 78 3e
       -0.19871503 0.078473724 0.15793355 0.24294844
0001d0 7f aa 9b bd 98 84 0e be b1 8b 86 bb 82 6a 03 bd
       -0.07600879 -0.13917768 -0.004106008 -0.032083996
0001e0 9a bb 58 bd 4c 8e c7 bd 19 1f 22 3e a4 33 35 3d
       -0.052913286 -0.09743938 0.15832175 0.0442387
0001f0 93 3a 34 3e bd 36 d4 bd 57 9f 58 bd 35 b9 87 3d
       0.1760047 -0.10362003 -0.052886333 0.06627122
000200 48 0a f2 bd 56 39 69 3e 2b e1 13 be ee 1f 11 be
       -0.11818367 0.22775778 -0.14441364 -0.14172336
000210 12 e4 d7 3c fd 7a 61 3e 30 5b 3b 3d 16 73 12 3e
       0.02635387 0.22019573 0.04574126 0.14301714
000220 3e 9b be 3d 6a 88 3c 3e 58 99 12 3e ef fd 38 3e
       0.09306954 0.18411413 0.14316308 0.18065618
000230 ad b0 6a 3d 15 c9 f6 bc 01 dc 90 3e 6b 49 77 bc
       0.057297397 -0.03012518 0.2829285 -0.015093188
000240 7d ec dd 3c aa b6 92 bd ac 6e ab bd 50 5f 1f be
       0.027090305 -0.07163747 -0.08370718 -0.15563703
000250 e2 f0 b6 bc 3b af fa 3d ae 36 1f be ce cc 0c be
       -0.022331659 0.12240454 -0.15548202 -0.13750002
000260 33 5a 3f 3c 4a 06 27 bd d9 fc 50 be 1f 5c 99 3c
       0.01167922 -0.040777482 -0.20408954 0.018720685
000270 37 db 2f 3e af 21 1b 3e 4d b4 37 bd df 3d 30 3e
       0.17173468 0.15149568 -0.044849683 0.17211102
000280 1b 6a c1 bd 67 9c 47 be 52 c8 c3 bb 64 ec d9 3d
       -0.09444066 -0.19493257 -0.005974808 0.10640791
000290 94 2e fb bd 48 b1 42 be 18 e3 bb bd 7a d1 3a 3e
       -0.122647434 -0.1901294 -0.09174174 0.18243971
0002a0 24 58 0f 3e 66 5e 14 be a8 0a 34 3d 10 c4 28 be
       0.13998467 -0.14489135 0.043955475 -0.16481042
0002b0 95 7b 8f 3d bb 8a 27 3e f9 15 04 be fd c7 12 3c
       0.07005993 0.16361515 -0.12899007 0.008958814
0002c0 55 65 62 be 75 ca 6c 3e f9 ec b6 3d 3b e9 13 bb
       -0.22108968 0.23124106 0.08931918 -0.0022569436
0002d0 aa d2 71 be 33 01 3c 3e 23 e2 74 3e e3 80 00 be
       -0.23615518 0.18359832 0.2391439 -0.12549166
0002e0 b2 b5 34 bd a0 51 c8 bd 8e 63 ec bd 3f 9d 04 be
       -0.04411859 -0.09781194 -0.11542426 -0.1295061
0002f0 34 bd a5 3c 90 e7 5e 3e 74 07 c8 3d f2 b0 e1 3d
       0.02023182 0.21768022 0.097670466 0.11020078
000300 9a f6 ea 3d 4b 50 03 3e 83 43 12 be f2 09 08 3e
       0.11472817 0.12823598 -0.14283566 0.13285044
000310 65 69 43 3e a3 ce 1f 3e 56 7d 11 3e 40 2e d6 bd
       0.19083174 0.1560617 0.14207968 -0.1045804
000320 6a ec 69 be 74 48 75 3d e5 1b 08 3e 8d 61 b8 bc
       -0.22844091 0.05988355 0.13291891 -0.022507453
000330 ca c6 81 3e ea 9c a4 bd 65 8c 2e be ee 81 95 bc
       0.25346977 -0.080377415 -0.17045744 -0.018250432
000340 1e ec 81 3e 90 d8 6d 3d bb aa 0e be 61 3e f4 bc
       0.25375456 0.05806786 -0.13932316 -0.0298149
000350 54 05 9a bd 32 0d a9 3d 8c e7 b6 bc 3f 50 01 3e
       -0.075205475 0.0825447 -0.022327207 0.12628268
000360 66 0a 78 3e 9e b4 1c be 57 24 09 be e3 66 79 3d
       0.24222717 -0.15303275 -0.13392769 0.060889136
000370 90 1d 80 be c5 08 4b 3e 2f 56 14 3e 69 22 dc bd
       -0.25022554 0.19827564 0.14486001 -0.10748751
000380 ab f4 6c 3e 20 20 8f 3d fc c7 37 be 49 97 92 3e
       0.23140208 0.06988549 -0.17947382 0.28631046
000390 dc 83 9d bd 72 05 78 3d 78 7c 4d 3c 07 2f 3a be
       -0.07691166 0.060552068 0.012541883 -0.18182002
0003a0 ce 11 3c 3b 3d 7c 30 be 9e 91 e1 bd 57 77 01 3e
       0.0028697136 -0.17234893 -0.110141024 0.12643181
0003b0 f7 8b 44 3d 6e cc 2a be bd 27 cf bc b1 6b dc bd
       0.047985043 -0.16679546 -0.025287503 -0.10762728
0003c0 b0 b6 c4 3d a5 54 0a be c6 1a 4f 3e d8 a1 9f bd
       0.096051574 -0.13508852 0.20225057 -0.07794541
0003d0 1b 9f 74 3e 9c 7e 4a bd f1 f2 0d be 73 82 45 3e
       0.23888819 -0.04943715 -0.13862206 0.19288044
0003e0 35 ed 1c be 6a 22 75 3e 08 97 4e bd b1 1e 0d be
       -0.15324862 0.23938909 -0.050437003 -0.13781239
0003f0 fc 93 03 be 1e c5 fb bd 75 fc 5d 3e a0 9a 13 be
       -0.1284942 -0.122934565 0.21678336 -0.14414454

nnECG.0.bias f4 [128]
000000 f6 be 5d 3c a8 62 99 bb 49 4f 3a bc 4d 12 d2 bc
       0.013534298 -0.00468095 -0.011371442 -0.025643492
000010 89 05 6b 3d 0b f2 20 3d 31 81 37 3d 7c c3 42 3d
       0.057378326 0.03929333 0.04480094 0.04754971
000020 1a 67 48 3c 71 2f 92 3d f7 15 c1 3d 39 62 db 3d
       0.012231613 0.07137955 0.094280176 0.10712094
000030 b9 8c ed bc 37 d0 2e bd 8f 1a 98 3c 96 ec 16 3d
       -0.028997766 -0.042679038 0.018567352 0.03684672
000040 74 57 1c bb 0d cf 14 3c 90 39 44 3d 5c d2 27 3d
       -0.0023855837 0.009082568 0.04790646 0.0409721
000050 40 aa f1 3c 45 fb 45 3d 2e ad c4 bb 8b 5d 14 3d
       0.029500127 0.048335332 -0.00600209 0.036222022
000060 79 d0 30 3c 9c bc d3 3c ed bb 80 3d b2 b7 fc 3c
       0.010791891 0.025846772 0.06285844 0.030849312
000070 e8 8f 29 bc 1f b2 ba bc 52 06 0b bd 5a 5c 5a bc
       -0.010349251 -0.022790013 -0.033941574 -0.013327682
000080 d8 09 1d bd dc 32 80 3d e4 00 81 3d 4d 20 a1 3d
       -0.038339466 0.06259701 0.06298998 0.07867489
000090 20 64 04 3c 9f e1 2b 3d 51 a0 46 bd 29 fb 99 3d
       0.008080512 0.041963216 -0.048492733 0.07518608
0000a0 1f d5 6d 3d 39 ef 66 3d 23 70 94 3d c7 b8 23 3d
       0.058064576 0.056380484 0.07247951 0.03997114
0000b0 8e c7 90 3d 5d c0 d0 bc 31 37 8a bc 72 11 89 3d
       0.07069312 -0.025482351 -0.01687202 0.066927806
0000c0 f3 f6 53 3d e0 fe 56 3d a1 5a 17 3b fe a7 77 3d
       0.05174918 0.05248916 0.002309479 0.060462944
0000d0 3c 79 80 3b de 68 83 3c 4d 6c e7 bc 77 8f ad 3b
       0.0039207023 0.016041216 -0.028249884 0.0052966434
0000e0 77 16 22 3d 17 78 8c 3d 30 41 d4 bc 87 a2 26 bc
       0.039572205 0.06858843 -0.02590999 -0.0101705855
0000f0 71 47 0a 3d 15 f2 00 3d cc 67 3f 3d 03 8a 6c 3d
       0.033759538 0.031480867 0.046729848 0.057748806
000100 ff bf b3 3c b5 74 d8 3d 80 c3 3b bc bb 8a ed bb
       0.021942137 0.10569135 -0.011460185 -0.007249204
000110 db c7 84 3c 34 dc a6 3d 6d ce 79 3d 47 d3 6d 3d
       0.01620858 0.08147469 0.06098788 0.058062818
000120 6f 9c 15 3d c4 86 0b 3d 38 e1 ac 3b 91 65 5a 3d
       0.03652614 0.03406407 0.0052758716 0.053319518
000130 a2 ab 8a 3d 05 c0 28 3d 0a 19 81 3b 1a 46 85 3d
       0.067710176 0.04119875 0.0039397525 0.065075114
000140 88 6c 5e 3d 4d 3c 33 3c 3d 90 7f 3c 21 03 e5 3c
       0.054302722 0.01093967 0.015598354 0.027955594
000150 bc 6c ac bb ec 5b 65 3d 69 58 ae 3c 79 a9 3a bc
       -0.0052619856 0.055995867 0.021282392 -0.0113929445
000160 8d da 2a bc 4d e4 32 3d 3f 5f 91 3c 6b ca 62 3d
       -0.010428083 0.043674756 0.017745612 0.055368822
000170 fd 6a 18 3d 4e 12 60 3d e8 cc 8b 3d 6b 1e 29 bd
       0.037211407 0.054704957 0.06826192 -0.041288774
000180 8b 47 28 3d 6a 89 3d bd c0 62 02 3d dc 13 06 bc
       0.041083854 -0.046273626 0.031832457 -0.008183446
000190 3c 55 9c bc 2a 0c 82 3d 40 b4 28 3d b8 73 15 3b
       -0.019083612 0.06349976 0.041187525 0.002280457
0001a0 3d 5b c1 3c ed 58 81 3d e8 9e 5f 3d 48 12 62 3d
       0.023603076 0.06315789 0.054594904 0.055193216
0001b0 8d 68 cc bc 29 21 b9 3b 5b fe dc 3d e7 15 0a 3d
       -0.024952197 0.005649705 0.10790702 0.033712294
0001c0 e2 95 6e 3d a2 9d a1 bc e7 39 86 3d 3d 8f 58 3c
       0.05824841 -0.019728485 0.06554013 0.013217744
0001d0 a0 eb b8 3c 20 43 7f 3d 30 65 dd 3c 00 54 f6 3c
       0.022573292 0.062319875 0.027025789 0.030069351
0001e0 3b b0 79 3d 85 4d 46 3d cd 35 91 3d de d7 1d 3c
       0.060959082 0.048413772 0.0709034 0.009633986
0001f0 0a 33 a3 3d 52 cb 94 bc 37 f6 56 3d 74 30 51 3d
       0.07968719 -0.018163357 0.052480903 0.0510716

nnECG.1.weight f4 [128]
000000 d5 2e 83 3f 63 b4 83 3f cf 7a 87 3f 19 5c 82 3f
       1.0248667 1.0289425 1.0584353 1.0184356
000010 08 04 8b 3f 5a 60 82 3f 58 b9 88 3f 5c 1d 82 3f
       1.0860605 1.0185654 1.0681562 1.016521
000020 8c f3 80 3f fe 20 81 3f 99 70 7e 3f ef 18 8b 3f
       1.0074325 1.0088193 0.9939056 1.0866984
000030 39 39 80 3f 09 0a 84 3f f9 46 8e 3f 44 da 8c 3f
       1.0017463 1.0315562 1.1115409 1.1004109
000040 93 62 8b 3f f1 21 8d 3f 8f 57 89 3f ef 29 7a 3f
       1.0889457 1.1025983 1.0729846 0.97720236
000050 e5 f3 85 3f 81 6d 89 3f 55 42 7f 3f b4 ef 80 3f
       1.0465056 1.0736543 0.9971059 1.0073152
000060 ab 1c 7d 3f 79 d5 8b 3f c8 4c 87 3f 91 8c 83 3f
       0.9887187 1.0924522 1.0570307 1.0277272
000070 99 59 7b 3f fe 7e 7b 3f db 57 80 3f dc 8d 82 3f
       0.9818359 0.9824065 1.0026811 1.0199542
000080 1a 79 82 3f b4 df 84 3f 77 2b 85 3f 2d da 7d 3f
       1.0193207 1.0380769 1.040389 0.99161035
000090 27 a9 87 3f e2 35 7f 3f 4c 34 84 3f ad 71 86 3f
       1.0598496 0.99691594 1.032846 1.0503441
0000a0 c3 9b 8a 3f d9 38 82 3f 1d 62 83 3f f6 0d 8b 3f
       1.0828785 1.0173599 1.0264317 1.0863636
0000b0 c7 54 8a 3f fe c2 80 3f 90 94 7e 3f 89 2e 87 3f
       1.0807122 1.0059507 0.9944544 1.0561076
0000c0 0a b2 85 3f 4d 1b 8a 3f 43 58 87 3f 57 cb 8b 3f
       1.0444958 1.0789582 1.057381 1.0921429
0000d0 7d 85 91 3f a4 0e 8b 3f 3c 29 87 3f 1a a5 82 3f
       1.1368862 1.0863843 1.0559459 1.0206635
0000e0 52 e6 89 3f 54 fb 88 3f ef 0a 7e 3f 31 b2 84 3f
       1.0773413 1.0701699 0.99235433 1.036688
0000f0 eb 5b 8b 3f 33 49 8d 3f 6e b0 85 3f 17 f2 85 3f
       1.0887426 1.1037964 1.0444467 1.0464505
000100 ed 0e 87 3f b2 b7 8b 3f ca 74 87 3f 56 14 81 3f
       1.055143 1.0915434 1.0582516 1.0084331
000110 4d d9 81 3f bd 32 86 3f e1 47 80 3f 35 99 84 3f
       1.014444 1.0484234 1.0021936 1.0359255
000120 df f6 83 3f d3 fe 82 3f 42 97 82 3f 48 bd 83 3f
       1.0309714 1.0234016 1.020241 1.0292139
000130 b1 24 83 3f d8 de 81 3f 5c ec 81 3f ab e7 8b 3f
       1.0245572 1.0146132 1.0150256 1.0930074
000140 1c 58 83 3f 15 fb 88 3f 44 7e 7d 3f ba 87 79 3f
       1.0261264 1.0701624 0.9902079 0.9747273
000150 6d cf 7b 3f b4 f3 86 3f 62 1e 84 3f 5b c1 86 3f
       0.9836338 1.0543122 1.0321772 1.0527757
000160 56 fc 7c 3f 76 e0 86 3f 69 e4 8b 3f 92 23 8a 3f
       0.98822534 1.053725 1.092908 1.0792105
000170 98 29 8a 3f 3b 4a 7c 3f 88 63 83 3f 5e 7b 81 3f
       1.0793943 0.98550767 1.026475 1.0115774
000180 b2 95 88 3f 36 9a 82 3f e2 c5 8e 3f 5c 61 7e 3f
       1.0670683 1.0203311 1.1154139 0.9936731
000190 ea 3c 7b 3f 20 0e 8a 3f df 0b 8a 3f 67 2c 85 3f
       0.9813982 1.0785561 1.0784873 1.0404176
0001a0 34 06 8d 3f c2 ee 84 3f c5 4f 89 3f 6e f4 83 3f
       1.1017518 1.0385363 1.0727469 1.0308969
0001b0 51 1f 7c 3f 53 0d 8f 3f 33 70 88 3f b1 dd 86 3f
       0.98485285 1.1175941 1.065924 1.0536405
0001c0 61 c3 84 3f 3e ac 7d 3f 8b 6d 85 3f 22 8a 88 3f
       1.0372125 0.99090946 1.0424055 1.0667155
0001d0 bd d0 85 3f 40 79 86 3f a2 59 7e 3f de 15 7e 3f
       1.0454327 1.0505753 0.9935552 0.99252117
0001e0 b8 31 84 3f 6e a0 88 3f 0f a6 89 3f e0 c3 83 3f
       1.0327673 1.0673959 1.0753802 1.0294151
0001f0 e3 bb 88 3f b5 ab 7e 3f ce 43 87 3f 60 e4 85 3f
       1.0682338 0.99480754 1.0567567 1.046032

nnECG.1.bias f4 [128]
000000 fb 86 96 bb b9 b6 42 bc c9 74 94 bc f5 63 16 bd
       -0.0045937276 -0.011884385 -0.018122094 -0.03671642
000010 1f 62 78 3d c4 d5 21 3d f2 68 40 3d 9c b0 8b 3c
       0.06064045 0.039510503 0.046975084 0.017051987
000020 86 77 e0 3b 1a d8 78 3d ac 0c 26 3d aa 9f b3 3d
       0.006850186 0.060752966 0.04053943 0.08770688
000030 05 68 f7 bc 9f b7 12 bd 4b ec a1 3c 21 2c dc 3c
       -0.030200968 -0.035819646 0.019765994 0.026876511
000040 e2 51 f3 39 80 0d 36 bc 66 46 37 3d 3e 78 7f bb
       0.0004640958 -0.011111617 0.04474487 -0.0038981582
000050 c5 d1 08 3d f1 17 15 3d 1c b7 e2 bc 30 34 16 3d
       0.033403177 0.036399785 -0.027675204 0.036670864
000060 1d 27 6e bc 73 2a 99 3b 4a 81 35 3d 01 9d ea 3b
       -0.0145356925 0.00467425 0.044312753 0.0071598296
000070 17 67 00 bd 75 03 cd bc d2 f2 d7 bc 2d bc fb bc
       -0.031348314 -0.025026063 -0.026360903 -0.030729378
000080 97 92 15 bd 7e 17 54 3d 29 f6 88 3c 23 bb c0 3c
       -0.036516752 0.051780216 0.01671894 0.023526734
000090 0d 73 57 ba c0 9f e1 3c 04 51 52 bd 7b 36 5c 3d
       -0.0008218743 0.027541995 -0.051346794 0.053762894
0000a0 31 ab 3d 3d 46 cd eb 3c 43 51 15 3d ee ec b1 3c
       0.04630584 0.028784405 0.03645445 0.021719422
0000b0 93 1b 8d 3d 57 9e 0e bd 67 40 ae bc c5 e3 6c 3d
       0.06890025 -0.034818973 -0.021270944 0.057834405
0000c0 39 cc 42 3d b1 ac 44 3d 00 35 73 bc 48 3a 80 3d
       0.047558043 0.048016254 -0.014844179 0.06261116
0000d0 ae a5 7c bc 69 57 2d 3c c9 8e a2 bc 47 ad fd 3b
       -0.0154203605 0.010579922 -0.019843476 0.0077416035
0000e0 a2 ee 47 3d 5c 46 81 3d 38 41 3b bd 0a 71 ed bb
       0.048811562 0.06312248 -0.045716494 -0.0072461413
0000f0 ab a5 a2 3c 9c b9 09 3d 4d 6f 36 3d 2b 45 10 3d
       0.019854387 0.033624277 0.04453974 0.035222214
000100 5e dd 0a 3b 9b 44 cb 3d ff 48 ab bc e7 a7 be bc
       0.0021189074 0.09925195 -0.02090883 -0.023273421
000110 21 67 2d 3c 3d 9a 5b 3d ff eb eb 3c a3 c3 0d 3d
       0.01058367 0.05361389 0.028799055 0.0346104
000120 31 0d 24 3c 4c b3 a8 3c 9d 6e 88 3b 55 90 20 3d
       0.010012911 0.020593308 0.0041635768 0.039200146
000130 18 a0 5b 3d 1d 45 7e 3c 9e d0 c3 bc ee 8d 74 3d
       0.053619474 0.015519408 -0.023903187 0.059705667
000140 cd d7 ba 3c b3 5d 2c 3c 2b 5d 80 ba 16 93 00 3c
       0.02280798 0.0105203865 -0.0009793391 0.007847568
000150 3b c2 01 bd 11 b5 7e 3d 52 d4 5a 3c 52 42 a3 bc
       -0.031679373 0.062184397 0.013356285 -0.019929085
000160 9d 45 00 bd db e9 36 3d 67 d6 76 3c 0c 6f 69 3d
       -0.03131639 0.044656616 0.015065766 0.05699067
000170 a6 fd 21 3d e4 d9 a1 3c 42 67 24 3d 31 70 33 bd
       0.03954854 0.019757219 0.040137537 -0.043808166
000180 6b 84 2c 3d e5 83 50 bd f7 48 9c 3c 2a 3a e0 bc
       0.04211847 -0.050907034 0.019077761 -0.027371485
000190 9c c8 23 bd 34 34 80 3d c2 aa 18 3d 8f ff d5 3b
       -0.039986238 0.06259957 0.037272222 0.006530709
0001a0 99 d9 25 3c 22 b1 2f 3d 22 5d 65 3d 5b b0 e9 3c
       0.01012268 0.042893536 0.05599702 0.028526476
0001b0 c9 fb 13 bd 31 1f 4b bb 05 2b b9 3d 62 5f b6 3c
       -0.036128793 -0.0030993933 0.090414084 0.022262279
0001c0 cc 9e 3f 3d 35 cf b4 bc 4e 6d 13 3d 7e 06 57 3c
       0.0467823 -0.02207146 0.035992913 0.013124106
0001d0 2e b9 d2 3c 41 c1 80 3d c1 02 0a 3c b8 e3 9f 39
       0.025723066 0.0628686 0.008423508 0.00030496507
0001e0 71 c1 34 3d 39 5c 52 3d 04 7f 8b 3d 91 57 58 bc
       0.044129793 0.05135748 0.06811336 -0.013204471
0001f0 79 ac 90 3d 97 c3 17 bd b5 b8 50 3d 54 cb 0f 3d
       0.070641465 -0.037051763 0.0509574 0.03510602

nnECG.1.running_mean f4 [128]
000000 35 bf 39 3e 87 10 48 be 9b 2c 7b bc b7 ca fd bd
       0.18139346 -0.19537555 -0.015330459 -0.123921804
000010 ee ca a7 be 04 f7 ef bc c6 3a 88 be e2 cb 31 bd
       -0.3277201 -0.02929259 -0.2660734 -0.04340733
000020 0e 42 08 bf fd ee 18 be fb 6f 8a be aa 94 39 3e
       -0.5322579 -0.14934917 -0.2703856 0.18123117
000030 07 46 8f be 5d 4d a9 bd d4 d8 10 3e ab e0 8b bd
       -0.27983114 -0.08266709 0.14145213 -0.068299614
000040 fe 95 2b 3e 64 f5 00 bd e4 a0 45 3e 7c a6 c1 be
       0.16756436 -0.031484023 0.19299656 -0.3782233
000050 0a 22 9c 3c 74 62 ee 3c 34 b1 70 3e 20 91 bc bd
       0.0190592 0.02909968 0.23505098 -0.09207368
000060 c0 56 8d bd 27 07 d0 3c c2 87 7d 3e c1 a7 47 be
       -0.06901312 0.025394036 0.24758819 -0.19497587
000070 6f 00 e7 3d cc ca 03 be 90 bf ec bd 5d e4 16 3e
       0.112793796 -0.1287033 -0.11559975 0.14735551
000080 0b c2 27 3c 08 83 33 3e 48 f2 cc be e3 b9 d1 3d
       0.010239135 0.17530453 -0.40028596 0.10240533
000090 41 86 d1 bd 3e 3a e9 3c b4 0c 50 be 83 ac 05 ba
       -0.10230685 0.028470155 -0.20317346 -0.00050992536
0000a0 a5 30 96 3e 98 b7 22 3e 9f 83 c6 3e 5d a1 84 bc
       0.29333988 0.15890348 0.38772294 -0.016190225
0000b0 e5 6a a8 3e 79 a3 9d be df e7 bb bd 74 65 80 3e
       0.32894054 -0.30788782 -0.09175085 0.25077403
0000c0 82 37 fe bc d9 f0 9d 3e 37 92 f6 3e e6 5c 8e 3e
       -0.031032328 0.30847815 0.48158428 0.2780525
0000d0 4f 06 11 3e 4a e8 4c 3e 18 a8 de be c6 c0 dc be
       0.14162563 0.20010486 -0.4348762 -0.43115824
0000e0 eb 4d ad 3d 45 be c9 bd 66 5d f5 bc bf 68 17 3e
       0.08462127 -0.09850744 -0.029951762 0.14786051
0000f0 1c 47 d8 bd 7c fb 97 3e 9f c1 56 be a4 1a 8c 3e
       -0.10560438 0.29684055 -0.20972298 0.27364075
000100 9a 6b 03 bd f7 7c f7 3d c4 a1 16 3e 4a d5 46 ba
       -0.03208504 0.12084382 0.14710146 -0.0007584883
000110 5f cc db be 9d 67 32 bd a5 ba c4 3e 93 f1 01 be
       -0.4292936 -0.043555845 0.38423648 -0.1268981
000120 b9 50 f8 3c fb 2b 07 be ba 62 08 3e b7 48 ba 3d
       0.030311929 -0.13200371 0.13318911 0.090959005
000130 7e e9 a3 3d 20 98 23 3e eb a9 80 3d 41 da 45 3d
       0.080035195 0.15976 0.06282409 0.048303846
000140 15 bb ed 3e 5f cd 2a bd 66 6c 42 be 68 b6 5a 3e
       0.46431795 -0.041699763 -0.18986663 0.21358645
000150 38 99 bc be 1c 18 70 be b7 ea 00 3d 6a b9 d8 bd
       -0.36835647 -0.23446697 0.03147384 -0.1058224
000160 b3 b8 7b be ce 61 c3 be e9 f9 5e 3e 96 4b 75 bd
       -0.24582176 -0.38160557 0.2177502 -0.059886537
000170 6d 77 a6 bd ae f7 e6 bc 29 7d 4c be a5 7c dd 3e
       -0.081282474 -0.028194275 -0.1996962 0.4325916
000180 a8 43 5a 3d d9 f1 8e be b4 11 91 bd 50 3f a0 be
       0.05328718 -0.2791889 -0.07083455 -0.31298304
000190 8f 3d 27 3c 33 17 55 3e 9e 6f 90 be 35 40 5a bd
       0.010207548 0.20809631 -0.28210157 -0.05328389
0001a0 9c a9 97 3d f6 b1 ce 3e de b9 42 be d7 2c ef bd
       0.07405397 0.40370148 -0.19016215 -0.116784744
0001b0 d7 26 00 3d 63 f5 a4 3e 16 49 b9 3c a5 45 ae bd
       0.03128704 0.32218465 0.022617858 -0.085093774
0001c0 48 94 ee 3d f3 c1 9f bd f6 8b 7a 3e 03 8d 80 3e
       0.11649376 -0.07800665 0.24467453 0.25107583
0001d0 2f d0 3d 3e 5c 2b 70 be f4 50 d7 3e 75 02 02 3d
       0.18536447 -0.2345404 0.4205395 0.031740624
0001e0 90 d1 2f bd 1c 14 2e 3d 92 d4 3d 3d 5c a9 5c 3e
       -0.042924464 0.042499647 0.0463453 0.2154898
0001f0 28 4a 9b 3e 10 f1 29 bc 6d e9 92 be 36 eb c7 3d
       0.30330014 -0.010372415 -0.28693715 0.0976166

nnECG.1.running_var f4 [128]
000000 d8 50 6c 3e d3 63 6b 3e 5a b7 71 3e 4a 5f 6c 3e
       0.23077714 0.22987299 0.236051 0.23083225
000010 73 91 6d 3e a6 ab 6d 3e 24 dd 77 3e 9a dc 6b 3e
       0.23200016 0.2321001 0.24205452 0.23033372
000020 c3 e6 6b 3e 7e 86 7b 3e 62 00 6c 3e f1 9a 6f 3e
       0.23037247 0.24563023 0.23047021 0.23398949
000030 bc 45 6b 3e af 9a 6d 3e db ab 73 3e 50 e4 6d 3e
       0.2297582 0.23203538 0.23796026 0.23231626
000040 46 d2 6d 3e 85 e7 71 3e 61 68 6e 3e 53 44 6e 3e
       0.23224744 0.23623474 0.23282005 0.23268251
000050 16 b6 6f 3e 41 47 6f 3e 77 10 6d 3e 22 36 6b 3e
       0.23409304 0.23367025 0.23150812 0.22969869
000060 37 ee 6a 3e 88 84 6c 3e 2b c4 78 3e 79 f5 6b 3e
       0.22942434 0.23097432 0.24293582 0.23042859
000070 5c 4b 6e 3e ec 3f 6b 3e 5f de 6a 3e 9d 25 6c 3e
       0.23270935 0.22973603 0.2293639 0.23061223
000080 2e 46 6c 3e 85 85 6e 3e 2c bc 6b 3e c7 dc 6e 3e
       0.23073646 0.23293121 0.23021 0.23326407
000090 63 8c 6c 3e 7e 6e 6d 3e 74 32 6f 3e fc 54 75 3e
       0.23100428 0.2318668 0.2335909 0.239582
0000a0 c0 63 6d 3e 35 f9 6c 3e 92 0e 6d 3e 1b 41 6c 3e
       0.23182583 0.2314194 0.2315009 0.23071711
0000b0 eb 8d 75 3e bf a8 6c 3e 45 c9 6a 3e ae 65 6d 3e
       0.23979919 0.23111247 0.2292834 0.23183319
0000c0 3a b0 72 3e 2c 9d 6b 3e 2c 28 6c 3e bb 8e 74 3e
       0.23700038 0.23009175 0.230622 0.23882572
0000d0 70 ae 6c 3e 3d 71 6e 3e a1 f7 6a 3e 21 80 6c 3e
       0.23113418 0.23285384 0.22946025 0.23095752
0000e0 fc b3 6e 3e 68 bb 6c 3e d2 c5 6e 3e 57 e1 70 3e
       0.23310846 0.23118365 0.2331765 0.2352346
0000f0 c0 f3 6b 3e ff e3 6d 3e eb 83 7b 3e a0 49 6c 3e
       0.23042202 0.23231505 0.24562041 0.2307496
000100 79 7d 6c 3e c2 c0 6c 3e 91 0d 6f 3e 6f a3 6d 3e
       0.23094739 0.23120406 0.23345019 0.23206876
000110 81 49 6d 3e 60 3d 6f 3e 4d e5 6b 3e 83 43 86 3e
       0.23172571 0.23363256 0.2303669 0.26223382
000120 ac d6 6b 3e 99 f6 6c 3e 80 73 6c 3e de 7a 6c 3e
       0.2303111 0.23140945 0.23090935 0.23093745
000130 f6 87 6e 3e e9 d3 6b 3e e0 58 72 3e 75 5a 6b 3e
       0.23294052 0.23030056 0.23666716 0.22983725
000140 7b 2a 6b 3e 4f ab 6c 3e 46 0e 78 3e 03 90 71 3e
       0.22965424 0.23112224 0.24224195 0.23590092
000150 e3 12 6b 3e 0b e2 6f 3e 19 d9 6d 3e 8a d5 6b 3e
       0.22956423 0.23426072 0.23227347 0.23030677
000160 b7 0e 6e 3e 84 5f 71 3e 31 7d 6b 3e 80 72 6d 3e
       0.23247801 0.23571593 0.22996975 0.2318821
000170 d7 2c 6b 3e 75 80 6e 3e 82 62 78 3e 75 14 6f 3e
       0.22966324 0.2329119 0.24256328 0.23347647
000180 c7 30 70 3e 78 f6 6d 3e 00 a5 6d 3e 02 88 6b 3e
       0.23456107 0.23238552 0.23207474 0.23001102
000190 2b ef 6d 3e 9d 79 6c 3e d1 19 6c 3e c5 dd 6e 3e
       0.23235767 0.23093267 0.23056723 0.23326786
0001a0 cf 64 6c 3e 75 dc 6e 3e dc 08 6e 3e 59 ab 6c 3e
       0.2308533 0.23326285 0.23245567 0.23112239
0001b0 77 48 6c 3e ba 49 6f 3e 95 48 70 3e d8 0d 72 3e
       0.23074518 0.23367968 0.23465188 0.23638093
0001c0 8e 82 6c 3e 99 d5 6f 3e 92 7f 6e 3e a6 fd 6b 3e
       0.23096678 0.23421325 0.23290852 0.23045978
0001d0 ce 17 6f 3e 1b ac 72 3e 71 5c 6f 3e 9a c0 6d 3e
       0.23348925 0.23698466 0.23375107 0.23218003
0001e0 af 30 6e 3e 19 ef 77 3e 94 d2 6c 3e 7a b2 71 3e
       0.23260759 0.24212302 0.23127204 0.2360324
0001f0 2c 27 6f 3e 6c 48 6d 3e ef 56 6d 3e 59 aa 6b 3e
       0.23354787 0.23172158 0.23177694 0.23014201

nnECG.4.weight f4 [64, 128]
000000 18 96 32 bd b4 28 0c 3d 85 21 3a bc c3 88 00 bc
       -0.04360017 0.034218505 -0.011360531 -0.007845107
000010 45 12 59 bd 53 a8 22 3e e6 9f ed 3c 71 90 d3 3c
       -0.05299594 0.15884523 0.02900691 0.025825711
000020 b1 6f 75 3d 8c fd be bd bd 87 a6 3d 17 2d 27 3d
       0.05992097 -0.09325704 0.08131359 0.040814485
000030 51 5a 5c bc 0a 84 2c be df 29 eb bd 91 5b 03 3d
       -0.0134492675 -0.16847244 -0.11482596 0.032069746
000040 6e e6 c4 3d 40 62 41 bd 0a 54 93 3d 5c 89 04 3e
       0.096142635 -0.04721284 0.071937636 0.12943023
000050 3b ff e4 3c e2 aa b4 3d 8c b0 65 3d 4e 6d 18 be
       0.027953735 0.08821656 0.05607657 -0.14885446
000060 4a 88 70 bd b4 53 cb bc 6a f7 3f 3e c6 b8 44 bd
       -0.058723725 -0.024820186 0.18746725 -0.048027776
000070 27 d1 bd 3d ae 99 88 3c fd 46 bb 3c b5 58 1e 3e
       0.09268408 0.016674843 0.022860998 0.15463527
000080 6e e4 f0 bc dc ce bf bd b0 29 af bc 45 e2 e3 3d
       -0.029405799 -0.09365627 -0.021382183 0.11127142
000090 79 03 5f 3e 17 2e dd 3d 9c 07 b7 3d 15 e5 51 3d
       0.21778668 0.107998066 0.08936998 0.05124386
0000a0 e5 b2 9e 3d d3 bb e6 bd c7 bb 1f 3e 08 d4 a7 bb
       0.07748965 -0.112662934 0.15598975 -0.0051217116
0000b0 8a 27 79 3c de 2e c6 bd 1f e4 d1 bd 3e 8c 40 3d
       0.015207181 -0.09676908 -0.10248589 0.047008745
0000c0 8d a9 cb bc 8c 09 e1 3d e3 f6 2e 3d b3 25 9b 3d
       -0.024861122 0.10988149 0.04271592 0.0757555
0000d0 f2 c5 4b be a3 b9 4a be 44 a3 e1 3d 63 53 91 bd
       -0.19899729 -0.19797377 0.110174686 -0.07095983
0000e0 f1 72 11 3e 1a 8f 19 3e 85 57 43 bd 51 5d ab bd
       0.14204003 0.14995995 -0.047690887 -0.08367408
0000f0 18 26 1b be ea 4f 34 3d dc ce 1a be 84 8d c8 3c
       -0.1515125 0.044021524 -0.15117973 0.024481542
000100 c2 81 e0 3d 67 1f 4c be d8 a3 4e bd 39 a1 ab 3c
       0.10962249 -0.19933854 -0.050449222 0.0209509
000110 72 37 1c 3d 3c 67 d9 bd e5 9e e3 3d dc 50 a9 bd
       0.038138814 -0.106153935 0.11114291 -0.08267376
000120 55 c6 1b 3c 11 65 5b bd 9f 00 b8 3c 44 09 ea 3b
       0.009507735 -0.05356318 0.022461234 0.007142218
000130 ca e3 0f 3e a6 9c ce 3b 18 1c df 3d 59 f0 33 3e
       0.14051738 0.006305295 0.1089403 0.17572154
000140 be 37 62 bd 96 eb f4 3d 03 a8 f7 3d c8 9f 0b 3d
       -0.05522894 0.11958997 0.120925926 0.034087926
000150 ac e2 1d 3e ed ae 05 be 37 e4 da bd b7 68 2a 3e
       0.154185 -0.1305501 -0.1068806 0.16641508
000160 7f f4 3d 3e bb 68 1a 3d 96 25 d8 3d 13 44 79 bd
       0.18550299 0.037697535 0.10554044 -0.060855936
000170 03 01 64 3d 79 e5 30 3c a8 5f 37 be 7b 63 a9 3d
       0.055665027 0.010796898 -0.17907584 0.082709275
000180 7f 6a 19 3e d7 1f f9 bd 9d f7 34 be bd 90 9a 3d
       0.14982031 -0.12164276 -0.17672582 0.07547138
000190 e9 25 68 bd 42 28 92 bd d8 08 72 3c 92 60 15 3e
       -0.05667678 -0.07136585 0.014772616 0.1458762
0001a0 ec 68 02 3e 59 bb 9e bc 68 1b 56 bd 81 34 2b bd
       0.12735337 -0.019376444 -0.05227223 -0.04179812
0001b0 da a1 14 be f0 11 8e bc 43 2d e5 3c 9d a9 e2 bd
       -0.14514866 -0.017342538 0.027975684 -0.110675074
0001c0 18 04 15 3e dc 9b 15 3e d0 b6 96 bd 82 d5 2c 3d
       0.14552343 0.14610237 -0.073590875 0.042195804
0001d0 9d 9e fe 3d bb 88 09 3e 4c 6a 4e bd 05 09 8d 3d
       0.12432597 0.13431065 -0.05039434 0.06886486
0001e0 22 a1 68 be 6d d9 22 3e 9a fc 2a 3d 86 bb 23 be
       -0.22717717 0.15903254 0.041744806 -0.15989503
0001f0 83 1f 21 3c e6 7e 0a be 8f 35 b8 bd eb 2f 35 bd
       0.009834173 -0.1352497 -0.089945905 -0.04423515
000200 4f a9 57 3d 3b fc 4d be 8a f1 24 bd 38 68 01 3e
       0.0526517 -0.2011575 -0.040269412 0.12637413
000210 f1 a8 32 3e 75 11 82 3d c1 a5 0b 3e 2a bd 7e 3a
       0.17447259 0.06350986 0.13637449 0.00097175187
000220 e0 be 2e 3e a3 49 07 3e b3 4e 8c bd 55 d2 ac 3c
       0.17065 0.13211684 -0.06850948 0.021096388
000230 1c be 61 3d 74 8f e1 3d 8b fc 69 be 91 58 84 be
       0.055112943 0.1101369 -0.22850244 -0.2584882
000240 53 d8 85 3d 98 cc 38 be 6e af f7 bb f7 55 2f 3e
       0.06535401 -0.18046796 -0.0075587546 0.17122637
000250 f8 aa 92 bd f3 3a a4 3d f5 6b a3 bd 14 d5 0a bd
       -0.07161516 0.08019056 -0.079795755 -0.033894613
000260 99 ad c8 bd ae f8 97 3c 3d a0 30 3e 14 70 15 be
       -0.09798736 0.018551197 0.17248626 -0.14593536
000270 e4 ea ad bd 03 a2 bd bc 4e df a4 3d 61 4a 26 be
       -0.084920675 -0.023148542 0.080504045 -0.16239311
000280 d1 8f 9d 3d 1a 7f 30 3d 81 ee aa bd 6b 76 b4 3d
       0.076934464 0.043089963 -0.08346272 0.08811649
000290 ad 0c 0c 3e 97 a7 f6 bd f2 71 f4 bc f5 52 15 3c
       0.1367671 -0.12043684 -0.02983949 0.009114017
0002a0 02 81 ff 3d 15 ef 30 bc e7 12 39 be d4 d0 bb bd
       0.12475778 -0.010799189 -0.18073617 -0.0917069
0002b0 f8 ce 50 bd d6 0f b6 bd a1 3f 04 be 82 4b 3c bd
       -0.05097863 -0.08889739 -0.12914898 -0.045970447
0002c0 49 e2 da 3d 95 73 e9 bd 2e 33 a6 bd 95 51 50 bd
       0.10687692 -0.11398999 -0.081152305 -0.050859053
0002d0 62 67 48 be ed 44 7d 3d 9c a5 1f 3e 39 52 74 bd
       -0.19570687 0.06183331 0.15590519 -0.059648726
0002e0 e5 e0 ac bd 2b af 08 3e fe 72 f2 3c 15 c3 11 bd
       -0.08441333 0.13348071 0.029595848 -0.035586435
0002f0 ee ce 3b be d8 ec 5e be 64 83 de bd e1 f5 53 bc
       -0.18340656 -0.21770036 -0.108649045 -0.01293704
000300 02 f5 ee bd 03 b8 ec 3d 75 ff 59 bd fb 77 ea 3d
       -0.11667825 0.11558535 -0.05322214 0.11448666
000310 8e f6 11 be 60 ef 57 3d 59 fb c0 3d de a6 0c bd
       -0.1425421 0.05271852 0.09422941 -0.034338824
000320 9b 32 67 3e ee 4c 7e 3d de 5f 1a be 4a 04 c2 3d
       0.22577898 0.062085085 -0.15075633 0.09473474
000330 05 73 00 3e 3b 3a 5c ba 07 32 1e be 67 bf 15 3d
       0.12543876 -0.0008401011 -0.15448771 0.03655949
000340 cd ec 1a be 4c cc 37 be 19 8a 14 be 13 58 03 be
       -0.15129395 -0.17949027 -0.14505805 -0.12826566
000350 5c 67 11 3e aa 9b cb bd ac 01 db 3d db c8 99 bd
       0.14199585 -0.099418 0.10693678 -0.07509013
000360 36 2c b5 bd 57 87 f9 3d cb 7e 0a 3d 69 ea 32 3e
       -0.08846323 0.12184017 0.033812325 0.17472233
000370 99 e4 f0 bd ed 3d 3d be e9 25 ee bd fa 1f ba bc
       -0.117623515 -0.18480654 -0.116283245 -0.022720326
000380 18 3f 2d 3e 3b c1 1c be c4 54 3c be da 14 2a bd
       0.169186 -0.15308087 -0.1839171 -0.04152379
000390 ee e0 4d 3d bf 05 0d 3e 9b 8f be 3c d1 68 ab bd
       0.050263338 0.13771723 0.023261836 -0.083696015
0003a0 9e f9 be 3c c3 1d 84 bd e2 c3 55 be cb 71 60 bd
       0.023312386 -0.06450989 -0.20875505 -0.05479602
0003b0 1c 22 35 bd 91 46 6a be 31 1e cc bc 00 55 a5 bd
       -0.044221982 -0.22878481 -0.02491674 -0.08072853
0003c0 a8 9d e8 3d 97 98 c1 3c b0 75 75 3d bf f9 fa 3d
       0.113581955 0.02363233 0.05992669 0.122546665
0003d0 c2 72 e2 3d 9c 36 0e 3e a9 e1 21 3c dd 60 0c 3d
       0.110570446 0.1388802 0.009880462 0.034272064
0003e0 1b e3 37 be fc 21 0f 3e 8c fa 00 3e eb 33 24 3e
       -0.17957728 0.13977808 0.12595576 0.1603543
0003f0 6e af 83 3c 8f 20 d5 bc 8a 17 12 be a7 1b 1a 3e
       0.016074862 -0.026016502 -0.14266792 0.15049611

nnECG.4.bias f4 [64]
000000 ec 23 f9 bb 53 d9 d7 3c fd f7 2d bd cc 1d e8 3c
       -0.007603159 0.026348745 -0.04247283 0.02833452
000010 ba fe 85 3b 21 71 67 bc 3c fa 29 3d 46 c8 93 3d
       0.0040892037 -0.014126093 0.041498408 0.072159335
000020 06 f9 f2 bc bd f2 66 3d 8e d8 a1 3d 38 fd 05 bd
       -0.02965976 0.056383837 0.07902633 -0.03271219
000030 8e 0a 97 3c 9c 1d 72 3d c6 fa 1d 3b 6e d3 96 3d
       0.01843765 0.05911027 0.0024105771 0.07364546
000040 19 92 85 3d 24 17 33 3d 12 64 12 3d b7 85 36 bd
       0.065220065 0.04372324 0.035739966 -0.044561114
000050 34 6f 3b bd af be 07 bd d2 2f 26 3d 63 5d 2b 3d
       -0.04576035 -0.033140834 0.04057295 0.041837107
000060 36 b7 87 3d 73 3b 93 bc 36 1f df 3c 4b 9a 33 3b
       0.066267416 -0.017972684 0.027236562 0.0027405198
000070 c8 d2 3c 3d c3 0f a1 3d 35 6d 6c 3d 68 38 76 3d
       0.046099454 0.078643344 0.057721335 0.060112387
000080 d6 fb 28 3d 58 8c 9b 3d ef 59 f9 3c d2 e9 cc 3d
       0.041255794 0.07595128 0.030438391 0.10005535
000090 8b a8 f5 bc 4b 3d 76 3c a1 c1 13 3d 87 6e a7 3d
       -0.029987594 0.015029262 0.03607333 0.08175378
0000a0 c1 96 c9 3c 60 1c b2 3d 3d d0 81 3d 53 9a 81 bd
       0.024608018 0.08696818 0.063385464 -0.06328263
0000b0 21 ab b5 3d 0e 1f 0e 3c 5e 00 00 3d 78 67 f5 3c
       0.08870531 0.008674396 0.03125035 0.029956564
0000c0 f6 62 17 bd 19 47 90 bc 9f 9c c5 3b ec 1e c0 3c
       -0.03695961 -0.017612027 0.0060306336 0.023452245
0000d0 45 a8 04 3c d4 5e 6b bd 93 0d f3 3b 27 6e 83 3d
       0.008096759 -0.057463482 0.0074173897 0.06417494
0000e0 3f 93 fb 3c ac 39 08 3c 1e 53 dc bc 72 97 60 3d
       0.03070986 0.008314531 -0.026895102 0.05483193
0000f0 77 11 83 3d a6 75 b4 3b 23 e4 ed 3c 8e dc cc bc
       0.063998155 0.005507189 0.029039448 -0.025007512

nnECG.5.weight f4 [64]
000000 53 fc 81 3f ca be 8a 3f 15 94 83 3f 2c a0 88 3f
       1.0155128 1.0839474 1.0279566 1.067388
000010 d8 09 8b 3f a4 7f 82 3f 11 39 82 3f c0 c7 8d 3f
       1.0862379 1.0195203 1.0173665 1.1076584
000020 2c 9f 7c 3f 1b f6 87 3f 32 29 7e 3f 55 dc 81 3f
       0.98680377 1.062198 0.9928161 1.0145365
000030 35 27 8a 3f 08 8c 88 3f 20 cf 80 3f e4 91 87 3f
       1.0793215 1.0667734 1.006321 1.0591397
000040 ef aa 8b 3f e4 38 8b 3f 56 b5 84 3f 14 35 81 3f
       1.091154 1.0876737 1.0367839 1.0094323
000050 d8 b7 79 3f 39 46 80 3f ea d2 89 3f f6 61 88 3f
       0.9754615 1.002143 1.0767491 1.0654895
000060 98 32 85 3f a4 e9 7d 3f e4 51 8a 3f 26 08 8b 3f
       1.0406065 0.9918463 1.0806241 1.0861862
000070 38 db 86 3f 45 4e 8a 3f ce 14 89 3f ed ca 89 3f
       1.053565 1.0805136 1.0709474 1.0765053
000080 58 bd 88 3f d4 32 8c 3f d9 8b 8d 3f 72 5c 85 3f
       1.0682783 1.0953012 1.1058303 1.0418837
000090 11 91 85 3f 6a 6f 87 3f 94 ed 8a 3f 0f 06 88 3f
       1.0434896 1.0580876 1.0853753 1.0626849
0000a0 1a 87 82 3f 0a 4e 8b 3f b4 ed 7f 3f 77 02 8a 3f
       1.019748 1.0883191 0.9997208 1.0782002
0000b0 51 ae 8d 3f f5 c4 82 3f 52 37 8a 3f 65 a3 8c 3f
       1.1068822 1.0216357 1.0798132 1.0987364
0000c0 92 43 87 3f 78 83 7a 3f f1 f1 81 3f 17 22 8a 3f
       1.0567496 0.97856855 1.015196 1.0791653
0000d0 a3 46 8c 3f f9 43 83 3f 0d ca 8a 3f 15 2d 86 3f
       1.0959057 1.0255119 1.0842911 1.0482508
0000e0 71 1e 88 3f d3 43 86 3f c4 2c 79 3f bb 2d 84 3f
       1.063429 1.0489448 0.9733393 1.0326456
0000f0 f5 4c 84 3f 83 d6 7a 3f 34 4b 8b 3f 30 64 80 3f
       1.0335985 0.9798357 1.0882325 1.0030575

nnECG.5.bias f4 [64]
000000 d6 c6 de bc 05 3d fa 3c ff 65 a2 bc 08 c9 ef 3c
       -0.027194422 0.030546675 -0.019824026 0.029270664
000010 c4 c8 21 3c 6c 68 97 bb ee e7 ac 3c cb 7d 85 3d
       0.009874526 -0.0046206024 0.021106686 0.06518134
000020 e1 ce d9 bc 77 6a 12 3d 02 47 ba 3c 39 4a 2f bd
       -0.026587905 0.035746064 0.022738937 -0.042795394
000030 b5 60 ba 3c 42 a1 75 3d ac 89 87 bc ab d1 42 3d
       0.022751192 0.05996824 -0.01654514 0.047563236
000040 ed ee 51 3d 72 8a 3e 3d 49 00 17 3d 1b 39 7e bd
       0.051253248 0.04651875 0.036865506 -0.06206618
000050 11 08 5f bd e8 4b 4a bd 05 5a fa 3c 57 6f 31 3d
       -0.054451052 -0.049388796 0.030560503 0.043319073
000060 71 8e 73 3c 89 9a 9a bc 49 46 3f 3c d2 50 36 3c
       0.014865504 -0.018872516 0.011674472 0.0111276675
000070 36 e9 38 3d a9 b2 69 3d 44 cf 50 3d e8 60 69 3d
       0.045144282 0.05705515 0.050978914 0.056977183
000080 28 8d f3 3c ad 84 8c 3d 82 f7 4f 3c 1e b1 91 3d
       0.029730394 0.068612434 0.012693288 0.071138605
000090 eb 70 27 bd c0 18 a0 bb 75 ef 15 3d 16 3f 5d 3d
       -0.04087917 -0.004885763 0.036605317 0.05401524
0000a0 4b 47 dd 3a 84 08 97 3d 59 81 82 3c d3 a3 72 bd
       0.0016882209 0.07374671 0.015930818 -0.059238266
0000b0 ed 45 90 3d 6e 3a 5d bc 27 08 0e 3d dc 15 08 3d
       0.07044587 -0.0135027 0.034675743 0.03322397
0000c0 c3 3a 3f bd 02 41 02 bd 6c 8d 7f bc 5b 96 ce 3c
       -0.0466869 -0.031800278 -0.015597682 0.02521818
0000d0 80 54 8a 3b 8f 61 50 bd b7 7b bd bb 44 e4 0d 3d
       0.004221499 -0.05087429 -0.00578257 0.03464152
0000e0 7e 9b 94 3c 01 7e da b9 d9 14 41 bd 16 51 24 3d
       0.01814055 -0.0004167408 -0.047139022 0.040116392
0000f0 39 85 05 3d 6f ef 72 bc d8 24 e9 3c 22 48 0f bd
       0.032597754 -0.014827593 0.028459951 -0.0349809

nnECG.5.running_mean f4 [64]
000000 4a c4 11 3f 3b 56 1a be 21 21 ee 3e e0 43 2f 3d
       0.5694014 -0.15071957 0.4650965 0.04278934
000010 d1 db 34 3d f4 0a 09 3f 90 96 4b be e4 12 ad be
       0.044154946 0.5353234 -0.19881654 -0.33803475
000020 73 fc ca 3d 8a c3 82 3c 2e ea 71 3d c7 6e cf bd
       0.09911432 0.01596238 0.05906122 -0.10128551
000030 47 06 f7 3c fb a0 b9 3e e9 03 b7 bd 92 18 2e bd
       0.03015436 0.3625563 -0.08936293 -0.0425039
000040 5e 02 80 bd 71 59 84 be 1e 97 b6 3e 43 84 50 3d
       -0.062504515 -0.25849488 0.35662168 0.050907385
000050 52 b6 ef 3e 52 b9 1a 3e 41 77 a8 3e e2 25 56 be
       0.46818787 0.15109757 0.32903484 -0.20912889
000060 51 d2 0d 3f 24 a0 11 3e 86 f8 e5 be 4d 48 c4 3e
       0.5539904 0.14221245 -0.4491617 0.3833641
000070 0b cb ce be d3 77 a8 3c b5 f2 8c 3e c7 cd 1f 3e
       -0.40389284 0.02056495 0.2752892 0.15605842
000080 41 d2 59 3d ff c7 3d 3e ba 8d 16 be fe e1 1a 3f
       0.05317903 0.18533324 -0.14702502 0.60501087
000090 d5 70 8c be db af e7 bd e0 84 5f 3d dd c0 3c 3e
       -0.27429834 -0.11312839 0.05457008 0.18432947
0000a0 a0 f1 05 3e 9e 7f 2e bc 0e ac 38 3c b0 58 97 3e
       0.13080454 -0.0106505435 0.01127149 0.2955985
0000b0 48 cc 46 be 92 b1 41 be 0b fb f0 3b 0b ad 98 3e
       -0.19413865 -0.18915394 0.0073541454 0.2981952
0000c0 34 4b 82 3d 99 fa f9 be 21 8f 47 be f2 58 4f bf
       0.06362 -0.48824003 -0.19488193 -0.80995095
0000d0 ef 85 17 be 13 2d a1 3e fb e6 df bd bc 31 b2 bd
       -0.14797185 0.314797 -0.10932728 -0.08700892
0000e0 e2 f5 58 3b 05 96 fa be de bf e6 be 3d 9b 88 be
       0.0033105542 -0.4894258 -0.45068258 -0.26680937
0000f0 88 41 b0 3d f2 ca c6 be 33 eb a4 3d 3f 76 d6 3c
       0.08606249 -0.3882671 0.08052673 0.026179431

nnECG.5.running_var f4 [64]
000000 a6 bd cc 3f 63 7f 9f 3f 16 c4 d4 3f ac 58 b6 3f
       1.5995376 1.246075 1.6622341 1.424581
000010 a0 10 bd 3f a6 b2 8d 3f 0f 55 63 3f 2c c8 9d 3f
       1.4770699 1.1070144 0.88801664 1.2326713
000020 e0 bb a4 3f a1 e1 6f 3f 52 fe 5f 3f 17 0d 7a 3f
       1.2869835 0.9370366 0.87497437 0.97676224
000030 fc ad b5 3f 9f 24 9b 3f f6 3a 80 3f 59 8b 94 3f
       1.4193721 1.2120551 1.0017993 1.1605026
000040 98 98 a3 3f 36 ed ce 3f 7b 84 fa 3f c1 12 66 3f
       1.2780943 1.6166141 1.957168 0.89872366
000050 d3 3f b4 3f 10 52 8d 3f 16 61 8f 3f c4 5c b2 3f
       1.4081978 1.1040668 1.1201503 1.393456
000060 8f 8d 99 3f 37 cb 83 3f 2e f6 64 3f 9e 27 94 3f
       1.1996325 1.0296391 0.8943814 1.157459
000070 99 8a ab 3f d8 ea 63 3f 30 f6 b2 3f 66 26 93 3f
       1.3401672 0.8903022 1.398138 1.1496093
000080 f9 62 a5 3f 40 f8 b0 3f 75 45 99 3f 56 b5 94 3f
       1.2920829 1.382576 1.1974322 1.1617839
000090 63 f6 86 3f d3 7e 94 3f f8 0c 9c 3f 46 b1 8d 3f
       1.0543941 1.1601204 1.2191458 1.1069725
0000a0 9f 4b 54 3f 8b 22 60 3f a7 58 d0 3f 54 a3 83 3f
       0.8292789 0.8755271 1.6277055 1.0284219
0000b0 4b d7 9d 3f 4d f2 ac 3f d9 b1 b3 3f 20 75 a6 3f
       1.2331327 1.3511444 1.403865 1.3004494
0000c0 ab 4e 83 3f 00 5c 86 3f ac a0 69 3f 59 d7 03 40
       1.0258383 1.0496826 0.9126079 2.0600188
0000d0 fa 55 c2 3f 67 6d 96 3f 61 f1 84 3f 76 35 82 3f
       1.5182488 1.1752137 1.0386163 1.0172565
0000e0 e5 4a 7f 3f cd 9c ea 3f 49 03 86 3f 9a 62 bb 3f
       0.99723655 1.8329102 1.0469753 1.4639466
0000f0 79 5f 84 3f 02 38 d8 3f 8c 9c ac 3f 45 e3 7e 3f
       1.0341636 1.6892092 1.3485274 0.99565536

nnECG.8.weight f4 [16, 64]
000000 2a 59 46 3e f6 0c 0c be c4 18 b4 bc 9c 4f cf 3d
       0.19369951 -0.13676819 -0.021984465 0.10122606
000010 a4 07 82 3e 9b 22 21 bd 13 af 35 be b3 d5 3c 3e
       0.25396454 -0.039339643 -0.17742567 0.18440895
000020 c5 cf 04 bd 19 e8 3c 3e 51 d4 1d 3e 2a d5 94 3d
       -0.032424707 0.18447913 0.15413024 0.0726722
000030 48 92 0c be 45 6e 26 be 56 3d 7e be 6b 85 c3 3d
       -0.13727677 -0.16253002 -0.24828085 0.09546932
000040 a9 49 b7 bd ec 15 1b be 88 3c 1d 3e 5f 35 40 be
       -0.089495964 -0.15145081 0.15355122 -0.1877036
000050 d1 2a 88 3e ac 0b db 3d 32 b1 44 3e c0 87 2b bd
       0.26595166 0.106955856 0.1920822 -0.04187751
000060 9d d2 84 3d 07 de 81 be 67 58 af bd 86 82 e7 3c
       0.06485484 -0.25364706 -0.08561783 0.02826048
000070 b8 bc 80 bd 67 45 8b be 17 df df bc 2a bf 30 3e
       -0.06285995 -0.27201387 -0.027328057 0.17260423
000080 09 c1 50 bd 57 b8 e4 bd 72 50 3c 3e a4 10 1c 3d
       -0.050965343 -0.111679725 0.18390062 0.038101807
000090 5e 7b 13 be fb eb 79 be db fe 53 be 54 4e d1 3d
       -0.1440253 -0.24406426 -0.20702688 0.10220018
0000a0 e8 b9 7a be 77 00 a6 bd 05 54 fd 3d 54 2a f5 bc
       -0.2448498 -0.081055574 0.12369541 -0.02992741
0000b0 a6 48 e9 3c cd a5 7a 3e 97 77 9b 3c ba 2c 26 3e
       0.028477024 0.2447731 0.018977923 0.16228
0000c0 a9 bb 6b 3e 34 7f 45 be da 52 71 3c b6 42 84 3d
       0.23020805 -0.19286805 0.014729226 0.064580366
0000d0 b1 7e 11 3e d7 fa 8f be b2 51 20 be 1f 88 b1 bd
       0.14208485 -0.28121063 -0.15656164 -0.08668541
0000e0 f4 1e 85 be 5a 98 3b bd c3 fd 4f 3e 43 33 67 be
       -0.26000178 -0.04579959 0.20311646 -0.22578149
0000f0 77 a1 d5 bc 2b b6 4c 3e 19 d1 7a bd dc 28 b2 3d
       -0.026077969 0.19991367 -0.061234567 0.086991996
000100 ac 5e bf 3d 17 e1 41 3d 83 8f 88 bc da 8f 46 bd
       0.09344229 0.047333803 -0.016669994 -0.04847703
000110 01 e4 3c be b1 eb 03 be 36 d5 e8 bd 42 c5 59 3e
       -0.18446352 -0.12882878 -0.11368792 0.21266654
000120 73 f1 5c be 4a 5b 2c 3e 60 f9 8a 3e a0 52 24 be
       -0.2157648 0.16831699 0.27143383 -0.16047144
000130 76 a7 4b 3a ba 48 af 3e 75 85 80 3e 70 3f f8 bc
       0.0007768789 0.34235173 0.2510182 -0.030303687
000140 0a 2f 94 3e 50 07 45 3c 2b 30 61 bc 45 26 e4 bd
       0.28942138 0.012025669 -0.013744394 -0.11140112
000150 4a ab e7 bd 34 9b 95 3d 0d e7 06 be 0e ad 71 3c
       -0.11311968 0.07304993 -0.13174076 0.014750732
000160 7d 86 56 be c1 3a cd 3d 3e 16 78 bd cc 06 a0 3e
       -0.2094974 0.10020972 -0.060568087 0.31255186
000170 8d 53 25 3d 4e e7 94 3e c3 02 7b 3e d5 29 f7 bd
       0.040362883 0.2908272 0.24512772 -0.12068526
000180 b5 4b 99 3e 8b d6 76 3e 49 35 36 bd ea d5 1f 3e
       0.29940572 0.24105279 -0.04448441 0.15608945
000190 50 81 a8 be 70 87 2c be e2 0d 2a 3d 40 ab 91 3e
       -0.32911158 -0.1684854 0.041517146 0.28450966
0001a0 db c0 ab bd 01 c8 bd 3e 04 f7 53 3d 69 91 3d be
       -0.08386394 0.37066653 0.051749244 -0.18512501
0001b0 76 4b c5 3e a3 79 33 3d 70 4b 6d be 23 19 84 3e
       0.38534135 0.043817174 -0.23173308 0.25800428
0001c0 87 5e 80 bd 80 42 4b bd 20 e1 63 3e 9f 63 53 3e
       -0.0626803 -0.049623966 0.22253847 0.20643471
0001d0 b9 00 01 be 1d c4 26 be 9e d3 1d be 0a 65 11 3d
       -0.12597932 -0.16285749 -0.15412757 0.03549675
0001e0 fc 38 45 3e 18 14 78 3e f4 55 fe bd 1e c7 9a 3e
       0.19260019 0.24226415 -0.12418738 0.3023004
0001f0 65 8c a6 3e 86 67 bf 3d ac 0f 99 bd a5 77 f9 3d
       0.32528988 0.093459174 -0.07473692 0.121810235
000200 70 13 2c 3e 35 05 6e be 44 a0 09 be b5 36 4e 3e
       0.1680429 -0.23244174 -0.13440043 0.20138057
000210 89 75 e9 b9 99 af 69 be d0 37 ec bd 14 5b 24 3d
       -0.00044528794 -0.22820891 -0.11534083 0.04012592
000220 a9 b3 d1 bd 4e d7 12 bd 11 dc 1b be da 65 09 be
       -0.102393456 -0.03584986 -0.15220667 -0.1341776
000230 2f 20 8b 3d 51 d2 86 3e 0e f8 ad bd ec d4 67 bd
       0.06793248 0.26332334 -0.08494578 -0.056599542
000240 56 27 49 3e 01 b6 73 3e 44 3c b8 3d 9e 08 76 be
       0.19643912 0.23799898 0.0899587 -0.24026725
000250 6f fa 83 3e 81 4e 0d 3e aa ea 16 3e 80 0e e4 bd
       0.25777003 0.13799478 0.14737955 -0.11135578
000260 b6 2c d2 bc 8a aa 33 be 02 fb fe bd fa c7 70 3e
       -0.025656085 -0.17545524 -0.1245022 0.23513785
000270 65 80 bd 3d ff b7 aa 3b 6b c2 57 3d 3f 3c 83 3d
       0.09253005 0.0052099223 0.052675646 0.064079754
000280 8b 86 80 3e a1 59 aa 3e 87 3d 9d 3e 63 c3 e1 bd
       0.25102648 0.33271506 0.30711004 -0.11023595
000290 60 91 bd 3d 6b dd bc 3d f1 9e 93 bd 84 49 80 3e
       0.09256244 0.092219196 -0.0720805 0.25056088
0002a0 ed 20 05 3d 38 29 65 3e 2d 00 11 3e 18 1b 38 3e
       0.032502104 0.22379005 0.14160223 0.17979085
0002b0 42 af 9c 3e a8 6f a4 3d 2f d2 41 3e 35 43 90 3c
       0.3060246 0.08029109 0.18927835 0.017610172
0002c0 f7 75 2d be 1b 98 8b be b8 49 e0 bd 62 6d 97 bd
       -0.16939531 -0.27264485 -0.10951561 -0.0739391
0002d0 5e 01 59 bc b5 36 75 be e8 03 06 bd 61 26 71 bd
       -0.013244955 -0.2394665 -0.03271857 -0.05887449
0002e0 51 d3 90 3e 9b f0 5b 3e c1 85 77 be 32 f5 e1 bd
       0.28286222 0.21478502 -0.24172117 -0.110330954
0002f0 3b ee 18 3e 72 3b 08 be f3 b6 1f 3e ca cb 27 3c
       0.14934628 -0.13303927 0.15597133 0.010241458
000300 a1 b6 53 be 9e 2e 1a be 92 6d 73 3e 30 7a 17 be
       -0.20675136 -0.15056846 0.23772267 -0.14792705
000310 97 1f 96 bd a0 27 1d be e1 40 49 be af 39 19 3e
       -0.07330244 -0.15347147 -0.19653656 0.14963411
000320 ca 36 3d 3e 6b 9f b3 bd 63 6b 7e be 39 0c a2 3d
       0.18477932 -0.08770641 -0.24845652 0.079124875
000330 25 39 80 be 4a 81 48 3d 54 c5 0a be 80 09 02 be
       -0.25043598 0.048951425 -0.13551837 -0.12698936
000340 06 6f f1 3d 0e c6 94 be 20 11 17 be 3d 18 e0 3c
       0.11788754 -0.29057354 -0.14752626 0.027355308
000350 02 7a 26 3e e7 76 66 3c d7 39 ed bd 53 25 81 be
       0.1625748 0.014066434 -0.11583298 -0.2522379
000360 c7 eb 0b 3e 54 3e 36 be f8 d0 5a 3e 5b 5c 15 3e
       0.1366416 -0.17797214 0.21368778 0.14586012
000370 3d b5 89 be 64 05 32 3e ed 61 85 be c0 b9 19 be
       -0.26896086 0.17384869 -0.26051274 -0.15012264
000380 e1 d7 c6 3d 4a eb 9a be d7 fa 31 3e 33 a9 c5 3d
       0.097091444 -0.30257636 0.17380844 0.09651413
000390 6e 79 50 be bb 78 1f 3e 04 47 ab bd 43 3d 02 3e
       -0.20358822 0.15573399 -0.083631545 0.12718682
0003a0 58 2b e1 bd 8d 63 5c be 92 2c 88 be 06 6a 57 3e
       -0.10994595 -0.2152235 -0.26596504 0.21036538
0003b0 4f 96 7a be 6a 5c 5a be 99 5b 7a 3a bb 0f 59 3e
       -0.244714 -0.21324316 0.0009550392 0.21197407
0003c0 4b 34 6c 3e 29 39 19 bd 38 f9 70 3e 38 45 8b bd
       0.23066823 -0.037408028 0.2353257 -0.06800312
0003d0 08 09 2e 3e 73 a0 08 be 86 b5 51 bd 39 d7 88 be
       0.16995633 -0.13342457 -0.051198505 -0.26726702
0003e0 bd 31 12 be 84 5e 43 3e 62 94 40 be 1a 03 05 be
       -0.14276786 0.19079024 -0.18806604 -0.12989464
0003f0 87 74 9a bd 4c 3e f2 bd 87 d4 60 3e 4e d0 6b 3e
       -0.07541757 -0.118282884 0.21956073 0.2302868

nnECG.8.bias f4 [16]
000000 f5 08 bc bc 19 60 db 3d 1b 1b 7a 3d 5a 99 41 bd
       -0.02295349 0.107116885 0.061061006 -0.047265388
000010 9c 2c b5 3c b2 8e cd 3d d4 5c a5 3d 50 9d ed 3c
       0.022115998 0.100369826 0.08074346 0.029005677
000020 e4 57 42 3b 05 c4 1c 3d f5 a2 23 3d ad cf f9 b8
       0.0029654438 0.038272876 0.03995033 -0.00011911928
000030 68 31 e6 3c 07 e2 5a 3d ce 17 45 bd e3 94 b0 3b
       0.02809973 0.053438213 -0.048118405 0.0053888424

nnECG.9.weight f4 [16]
000000 0b 52 84 3f d3 0a 90 3f 4a f4 87 3f cc f2 83 3f
       1.0337538 1.1253303 1.0621426 1.0308471
000010 ee f5 87 3f eb 7f 90 3f 9e 33 8b 3f 2f 82 86 3f
       1.0621927 1.1289037 1.0875127 1.0508479
000020 12 5f 79 3f 57 49 85 3f 7a 09 87 3f ad 00 7c 3f
       0.9741069 1.0413007 1.0549767 0.9843853
000030 f8 eb 8a 3f c1 2f 8e 3f fb 9a 81 3f 8e 04 89 3f
       1.0853262 1.1108323 1.0125421 1.0704515

nnECG.9.bias f4 [16]
000000 2c 9f 62 bc 74 bf c9 3d 96 9c 22 3d 50 ce 28 bd
       -0.013831895 0.0985097 0.039700113 -0.04121238
000010 1b 14 0f 3c 25 af bd 3d 9b 55 9d 3d 94 f6 34 3c
       0.008732821 0.09261922 0.076823436 0.011045117
000020 88 a5 c9 bc 99 91 44 3c e2 d2 91 3c 91 a8 9d bc
       -0.024615064 0.011997604 0.017800752 -0.019245418
000030 bb 77 dc 3c 23 42 76 3d c3 9d 45 bd 77 5a 45 bc
       0.02691256 0.060121667 -0.048246156 -0.012045494

nnECG.9.running_mean f4 [16]
000000 d8 2c c3 3d b4 00 36 3d 4d 3b 93 3d 26 43 de bd
       0.09530038 0.044434264 0.07189045 -0.10852651
000010 5c 03 c2 3e e3 0b 21 be 13 78 b1 be 5e 1e fb bd
       0.37893188 -0.1572719 -0.34661922 -0.122616515
000020 ac f8 63 bd 65 82 0e 3e 38 c6 2d be 95 9d 02 3f
       -0.055657074 0.13916929 -0.16970146 0.510217
000030 a1 d4 b5 3a bd a9 3d be eb 2f ba 3e 2f f6 bb be
       0.0013872572 -0.18521781 0.36364684 -0.3671126

nnECG.9.running_var f4 [16]
000000 96 7c b8 3f 08 b9 9e 3f cf 91 a4 3f 54 12 f9 3f
       1.4413021 1.2400217 1.2856997 1.9458718
000010 be ec ca 3f da db 9c 3f 8f 7a ee 3f d3 8f b8 3f
       1.5853498 1.2254593 1.8631152 1.4418892
000020 14 a2 b9 3f 4e 5d c1 3f f4 3c 03 40 79 7f af 3f
       1.4502587 1.5106599 2.0505953 1.3710777
000030 7c a1 eb 3f 56 fb 18 40 6d 96 cb 3f 4f fc a0 3f
       1.8408656 2.3903403 1.5905281 1.2576998
