Models_Attention/net_1_0_epoch_17.pth (torch, 267633 bytes, 31 tensors)

embedding.weight f4 [32, 1]
0	0x3e44fb0c	0.19236392
1	0xbdd44520	-0.10364747
2	0x3e99f725	0.3007137
3	0x3dc47eb5	0.0959448
4	0xbe39e82d	-0.18154974
5	0xbd863126	-0.06552343
6	0xbd459899	-0.04824123
7	0x3e7b0a5f	0.24515675
8	0xbcbb53a5	-0.022867033
9	0x3e92744c	0.28604352
10	0xbd9887e7	-0.07447796
11	0x3db7835c	0.08960602
12	0x3ea679cc	0.325148
13	0xbcd4f81e	-0.025997218
14	0xbe2067e4	-0.15664631
15	0xbd7107e2	-0.05884541
16	0x3da455c9	0.08024175
17	0x3e535e9e	0.20641562
18	0x3ea702fb	0.3261946
19	0x3e1d01f8	0.15332782
20	0xbdfa4f2a	-0.122221306
21	0xbc4149b9	-0.011797362
22	0x3e4f77b4	0.20260507
23	0x3e109eb6	0.14123043
24	0x3d4310bf	0.047623392
25	0xbeb2eb30	-0.3494506
26	0x3d06fb84	0.032954708
27	0x3d610c9b	0.054943662
28	0x3ea8afe4	0.32946694
29	0xbc03c8ee	-0.008043511
30	0xbe615586	-0.22005281
31	0xbbfa7ac3	-0.007644029

embedding.bias f4 [32]
0	0xbc27ebe9	-0.010249116
1	0x3c6f1100	0.014591455
2	0xbbba0a2c	-0.005677482
3	0x3cd18820	0.025577605
4	0x3d45a53b	0.04825328
5	0x3cc98b38	0.024602517
6	0xb9d8eb67	-0.0004137412
7	0xbb6a7530	-0.0035775416
8	0x3cd511e0	0.0260095
9	0xbbd899ac	-0.006610116
10	0x3aff916b	0.0019498294
11	0x3b5d9cba	0.003381534
12	0xbcbd95e3	-0.02314276
13	0x3ce6dfee	0.02818295
14	0x3d6ee340	0.05832219
15	0x3cd960d7	0.026535435
16	0xbd7522b5	-0.059847552
17	0xbcec9b13	-0.028882539
18	0xbc9844ef	-0.018587558
19	0x3ab4727a	0.0013767027
20	0x3d5c90c6	0.053849004
21	0xbd14fafa	-0.036372162
22	0x3c5bbb6a	0.013411382
23	0xbca9c722	-0.020724837
24	0xbb66c834	-0.0035214545
25	0x3d3fbfec	0.04681389
26	0xbca4d9c3	-0.020123368
27	0x3cd53623	0.026026791
28	0xbceb6de1	-0.028738918
29	0x3ceb9233	0.028756237
30	0x3cee5767	0.029094411
31	0xb92b5cdb	-0.00016342422

attention.in_proj_weight f4 [96, 32]
0	0x3e3aad89	0.18230261
1	0x3e1b2fe2	0.15154985
2	0x3e450797	0.19241177
3	0x3dc78ebb	0.097440206
4	0xbda160f9	-0.07879824
5	0xbd722fac	-0.059127495
6	0xbe1840e4	-0.14868504
7	0x3d824ce3	0.06362321
8	0xbe0075c2	-0.12544921
9	0x3dc61e93	0.096738
10	0x3e2389c9	0.1597053
11	0x3e5039cb	0.20334546
12	0xbe45491e	-0.19266173
13	0x3e4dbc09	0.20091261
14	0xbe1afe1c	-0.15135998
15	0xbd0e5393	-0.03474767
16	0x3e49b77c	0.196989
17	0x3e0cb503	0.13740925
18	0xbd412a84	-0.047159687
19	0x3e174fc2	0.14776519
20	0xbe6f05c7	-0.23342048
21	0x3e2ee1e4	0.17078358
22	0x3e73faab	0.23826091
23	0x3c03450b	0.008012067
24	0x3d58dee0	0.052946925
25	0xbd93c145	-0.072145976
26	0xbe0aaee7	-0.13543282
27	0xbd8a28a2	-0.06746031
28	0x3bdf1878	0.006808337
29	0xbe01e730	-0.12685847
30	0xbe4a66d4	-0.19765788
31	0x3c010f12	0.007877128
32	0xbe1ae59d	-0.15126653
33	0xbdbf6437	-0.09345286
34	0xbc07e0a1	-0.008293302
35	0xbe016d1c	-0.12639278
36	0x3e4aa0e4	0.19787937
37	0xbdb8fc2d	-0.09032474
38	0xbdb0a19d	-0.08624575
39	0xbd74d814	-0.05977638
40	0xbe5b47e6	-0.21414146
41	0x3dde16e0	0.10844207
42	0x3e5e15e9	0.21688046
43	0xbdfc49b1	-0.12318743
44	0xbdab1d02	-0.08355142
45	0x3e2e0ba2	0.16996625
46	0xbe261acb	-0.16221158
47	0x3d3fe374	0.046847776
48	0xbe259f7d	-0.16174121
49	0xbe452955	-0.19254048
50	0xbb1656d1	-0.002293993
51	0xbdfdff17	-0.1240217
52	0x3df8264a	0.12116678
53	0xbd435cfe	-0.047696106
54	0xbbe2cd87	-0.0069214734
55	0xbde635e0	-0.112407446
56	0x3dc4740c	0.09592447
57	0x3e4f7e80	0.202631
58	0xbc8f83b4	-0.017518856
59	0xbe179234	-0.14801866
60	0xbe5a97a7	-0.21346913
61	0x3e37ba74	0.1794222
62	0x3dbfa3f9	0.09357447
63	0x3db7247f	0.08942508
64	0x3d2c4046	0.042053483
65	0x3db3a794	0.08772197
66	0x3d9dfc88	0.07714182
67	0x3deb36e1	0.11485077
68	0x3e112c47	0.14177047
69	0x3d395f0f	0.04525667
70	0x3e20d3f1	0.15705849
71	0x3e06b7d1	0.13156058
72	0x3ca5b3ed	0.020227397
73	0xbdcb0cd7	-0.099145584
74	0xbc1aabc0	-0.009440362
75	0x3e25a2d0	0.1617539
76	0x3e0a82d9	0.13526477
77	0xbd858d57	-0.06521099
78	0xbd16afe6	-0.036788844
79	0x3dce79ea	0.10081847
80	0x3d8eb6d8	0.069684684
81	0x3e4dfb19	0.20115317
82	0x3dd1edc8	0.10250431
83	0x3d843d4c	0.06457004
84	0x3d5140ea	0.051087297
85	0xbe606f40	-0.21917439
86	0xbd9d0ca5	-0.076684274
87	0x3c9357a9	0.017986136
88	0xbe257ec1	-0.16161634
89	0xbe3f1b6d	-0.18662806
90	0x3e086759	0.13320674
91	0x3da98ee8	0.0827921
92	0xbe35c27f	-0.17749976
93	0x3d1a0b0e	0.0376082
94	0x3e05e0db	0.13074057
95	0x3dfcc1cd	0.12341652
96	0x3e62b479	0.22139157
97	0xbdd8e951	-0.105913766
98	0x3df5132d	0.11966548
99	0xbe11b49b	-0.14229052
100	0xbd374254	-0.04474099
101	0xbe217a76	-0.15769371
102	0xbd56e39f	-0.05246317
103	0x3e160741	0.14651205
104	0x3dd9ab72	0.10628404
105	0xbdbb163a	-0.09135099
106	0xbd88870f	-0.066663854
107	0xbca87ee6	-0.020568322
108	0xbd710354	-0.058841065
109	0xbdf40f1a	-0.11916943
110	0x3e119f0a	0.14220825
111	0x3e011d9d	0.12608953
112	0x3e401586	0.1875821
113	0xbdc91375	-0.09818164
114	0x3e39c660	0.1814208
115	0xbd2d19ce	-0.042260937
116	0xbd904768	-0.0704487
117	0xbd6b3353	-0.057421993
118	0x3c85c83e	0.016330834
119	0xbd9b670d	-0.07588015
120	0x3d607de6	0.054807566
121	0xbe257648	-0.16158402
122	0x3dcc393b	0.09971853
123	0xbe19a9ce	-0.15006182
124	0xbd63fd68	-0.05566159
125	0xbdff6356	-0.12470119
126	0x3e016c0a	0.1263887
127	0x3e1960a6	0.14978275
128	0xbe080fe1	-0.13287307
129	0xbe19e222	-0.15027669
130	0x3e6f2bdc	0.23356575
131	0x3dda770b	0.10667237
132	0x3deb06ba	0.11475892
133	0xbe4d12d1	-0.20026709
134	0x3d9ed0f7	0.07754701
135	0x3e3270bb	0.17425816
136	0xbd9035ed	-0.070415355
137	0x3cdeab37	0.027181251
138	0x3e2f4998	0.17117918
139	0x3dc11e91	0.09429658
140	0x3dc9b216	0.0984842
141	0xbc9003dc	-0.017579965
142	0xbdfa5ac9	-0.12224347
143	0xbe2a764e	-0.16646692
144	0x3e7756d1	0.24154212
145	0x3c9a3b29	0.018827038
146	0x3e6a5a7f	0.22886084
147	0x3e5a233d	0.21302505
148	0xbe1772e0	-0.14789915
149	0x3d1ea6aa	0.038733162
150	0xbc62c2ec	-0.013840418
151	0x3cf811bf	0.0302819
152	0x3e3460e8	0.17615092
153	0x3da8854a	0.08228548
154	0xbdc15b00	-0.09441185
155	0xbd841674	-0.06449595
156	0xbdf02569	-0.117258854
157	0xbe0f17b4	-0.13973886
158	0x3dd059a7	0.1017335
159	0xbe07ece2	-0.13273957
160	0x3cd690d0	0.026192099
161	0xbcdd14dc	-0.026987486
162	0x3d672388	0.05643037
163	0x3c87744b	0.016534945
164	0x3dcd00a7	0.1000989
165	0x3ca2d840	0.019878507
166	0x3df86709	0.121290274
167	0x3d8a509f	0.067536585
168	0x3cbf5747	0.023357047
169	0x3d4d0cd3	0.05006106
170	0x3e1189c2	0.14212707
171	0x3d55ae4d	0.05216818
172	0x3e31d3e7	0.1736599
173	0x3b20b611	0.0024522583
174	0xbc39f97b	-0.011350985
175	0x3e263b3a	0.1623353
176	0xbe57129c	-0.21003193
177	0x3d1d05dc	0.038335666
178	0x3e5f18de	0.2178683
179	0xbdb3e7b3	-0.087844275
180	0xbd746c32	-0.059673496
181	0xbca69aef	-0.02033755
182	0x3dc27282	0.09494497
183	0x3dc6d6cd	0.09708939
184	0x3d95819f	0.07300114
185	0x3d8a4dbe	0.067531094
186	0xbdbd1e46	-0.0923429
187	0x3dfc3ed6	0.123166725
188	0xbd47eb5d	-0.048808444
189	0x3e2ea230	0.17054057
190	0xbd9ea685	-0.07746605
191	0xbe3db60a	-0.18526474
192	0x3b5a004c	0.0033264337
193	0x3e016e3a	0.12639704
194	0xbcaafabb	-0.02087151
195	0xbc75dda5	-0.015006457
196	0x3bcc4075	0.00623327
197	0x3df3207c	0.1187143
198	0x3cebfe94	0.028807916
199	0xbe4f7d7b	-0.20262711
200	0xbe28c686	-0.1648198
201	0x3b3a8d0d	0.002846542
202	0x3b96c74a	0.004601394
203	0x3e4c16c9	0.19930567
204	0xbd7605d8	-0.060064167
205	0x3e1ff6e2	0.15621522
206	0xbe38e12a	-0.18054643
207	0xbe503e7b	-0.20336334
208	0xbc8e58b3	-0.01737628
209	0xbe144286	-0.14478502
210	0xbd9471ff	-0.072483055
211	0x3c8134ef	0.015772311
212	0xbe39e50d	-0.18153782
213	0x3e1e738b	0.15473764
214	0xbe15a51a	-0.14613762
215	0x3e23ef55	0.16009267
216	0x3d888d81	0.06667615
217	0xbd01bf6d	-0.0316767
218	0xbe3fb07d	-0.18719669
219	0x3c958a03	0.018254286
220	0xbe0511de	-0.12995097
221	0x3e294b37	0.16532598
222	0xbe31386d	-0.17306681
223	0xbd6ed7e6	-0.058311366
224	0xbe22e949	-0.15909304
225	0xbde633c2	-0.11240341
226	0xbe1ed787	-0.15511905
227	0xbd8161f7	-0.063175134
228	0x3d4e5539	0.050374243
229	0x3d8a9fac	0.06768736
230	0x3e08770f	0.13326667
231	0xbe044972	-0.12918642
232	0xbe141ea1	-0.14464809
233	0xbdb18c84	-0.08669379
234	0x3e5073d1	0.2035668
235	0xbd85c90f	-0.065324895
236	0xbe6346b2	-0.22194937
237	0x3e2203a2	0.15821698
238	0x3daab855	0.0833594
239	0x3d91a8ae	0.07112251
240	0x3cde7d3a	0.027159322
241	0x3de48c45	0.11159567
242	0xbe0e764d	-0.13912316
243	0x3df00fc3	0.11721756
244	0x3e79a957	0.24381004
245	0xbd7d8aee	-0.06190007
246	0x3dbfe749	0.09370286
247	0x3da8c989	0.08241565
248	0x3e2a1afd	0.16611858
249	0xbc316185	-0.010826473
250	0xbe176ddf	-0.14788006
251	0xbdfddc02	-0.12395479
252	0xbe3fc154	-0.18726093
253	0xbd1f3ac7	-0.038874414
254	0x3e7ddac5	0.24790485
255	0x3e563391	0.20918109

attention.in_proj_bias f4 [96]
0	0x3d018b64	0.031627074
1	0xbc72b698	-0.014814042
2	0x3bf31588	0.007418338
3	0x3ca5debd	0.020247811
4	0x3d0a4b76	0.03376337
5	0x3d052a5a	0.032511093
6	0xbc1f0d5e	-0.009707777
7	0xbd30f017	-0.043197718
8	0x3cbc7b8d	0.023008132
9	0xbcce1857	-0.02515809
10	0x3d07ae76	0.033125363
11	0x3d0a04ca	0.033695973
12	0x3ce99886	0.028515112
13	0xbcf30210	-0.02966407
14	0x3d01c188	0.031678706
15	0x3c6ae93b	0.014337833
16	0x3ceb67d5	0.028736034
17	0xbd3bb535	-0.04582711
18	0xbbf1f6b1	-0.0073841442
19	0x3b6e0f31	0.0036324973
20	0x3d4a29d9	0.049356315
21	0x3d301032	0.042984195
22	0x3cd15630	0.025553793
23	0xbb90d914	-0.004420409
24	0xbbf820b3	-0.0075722574
25	0x3c8a5522	0.016886298
26	0xbbf097f0	-0.007342331
27	0x3c5beb71	0.013422833
28	0x3a0170ba	0.0004937757
29	0xbc58fa57	-0.013243279
30	0x3c90a7d6	0.017658155
31	0xbbde80ac	-0.006790241
32	0xbb9ad8da	-0.0047255578
33	0x3b9c30d3	0.0047665625
34	0xbbc138f3	-0.0058966815
35	0x3ae35d26	0.0017346486
36	0xbb8bf953	-0.004271665
37	0xbbe18820	-0.0068826824
38	0x3b804c7f	0.003915369
39	0x3b68c189	0.0035515747
40	0xbb89b627	-0.0042026225
41	0xbc025e04	-0.007956985
42	0xbbeeb81c	-0.007285131
43	0xbbf751f5	-0.007547612
44	0xbbecf7f9	-0.007231709
45	0x3bbe17bd	0.0058011697
46	0xbbfa3ec2	-0.007636876
47	0x3adabe00	0.0016688704
48	0x3c43cab0	0.01195018
49	0xbc4036a5	-0.011731778
50	0x3c401f65	0.011726235
51	0x3c410deb	0.011783103
52	0xbc478b46	-0.0121792015
53	0x3c46c0fb	0.012130971
54	0x3c346aa9	0.011011758
55	0xbc426cd2	-0.011866765
56	0x3af02017	0.001832011
57	0xbaebba0c	-0.0017984523
58	0x3aeadd1c	0.0017918679
59	0xbae8742a	-0.0017734815
60	0xbaff6818	-0.0019485978
61	0xbb214884	-0.0024609873
62	0x3b3b7030	0.0028600805
63	0x3ae1f708	0.0017239759
64	0xbc54e28e	-0.012993468
65	0xbc9e9c65	-0.019361684
66	0x3bb58d26	0.005540508
67	0x3cbc03ce	0.022951033
68	0xba0e1a74	-0.0005420812
69	0x3cfff42b	0.031244358
70	0x3c368ed1	0.0111424485
71	0xbc9543f3	-0.018220877
72	0xbb952c4c	-0.0045523997
73	0xbc068737	-0.008210949
74	0xbcaba629	-0.020953255
75	0x3bedeb3c	0.007260708
76	0x3c057cf2	0.008147465
77	0x3d316aaa	0.043314613
78	0x3bdae6a2	0.0066803256
79	0xbbc659de	-0.0060531935
80	0x3cd964e4	0.026537366
81	0x3cfafa1e	0.030636843
82	0xbcbe0f8b	-0.02320077
83	0xbbb6e3ed	-0.00558137
84	0xb968825c	-0.00022173807
85	0xbc869166	-0.016426753
86	0xbc407688	-0.01174701
87	0x3b9e914b	0.0048390976
88	0xbc6bd31a	-0.014393592
89	0x3b9b1a39	0.0047333506
90	0x3c8a2e43	0.016867762
91	0xbce73452	-0.02822319
92	0x3cb0cfa2	0.021583382
93	0xbb8c50cd	-0.004282093
94	0xbbbc4e49	-0.005746637
95	0x3c8cf1f5	0.017205218

attention.out_proj.weight f4 [32, 32]
0	0xbe017b90	-0.12644792
1	0xbc92b7cc	-0.017909907
2	0x3c8b307e	0.016990896
3	0xbc0dc778	-0.008653514
4	0xbdebe639	-0.11518521
5	0xbdffb813	-0.12486281
6	0x3ddb3897	0.10704153
7	0xbd043a7d	-0.03228234
8	0x3df5d7ef	0.12004077
9	0xbc40b4a5	-0.011761819
10	0x3d8d0878	0.06886381
11	0x3d02f7a3	0.031974446
12	0x3d3cdad1	0.046107117
13	0x3d971821	0.07377649
14	0xbe1bc2ed	-0.15211077
15	0x3dc681d7	0.09692734
16	0xbddb56ee	-0.1070994
17	0xbe0f1db1	-0.1397617
18	0x3cb0d309	0.021585004
19	0xbd761d19	-0.060086343
20	0x3db2fa18	0.08739108
21	0xbdd30fc3	-0.10305741
22	0xbe06b0a6	-0.13153324
23	0x3de04d1b	0.10952207
24	0xbc908785	-0.017642746
25	0x3dd7ad44	0.10531095
26	0x3d2da1ee	0.042390756
27	0xbdb25005	-0.08706669
28	0x3c850fa1	0.016242804
29	0x3d48273d	0.048865546
30	0xbdf2dd37	-0.118586
31	0xbdd34377	-0.10315602
32	0x3c9ff427	0.0195256
33	0x3d1eca1e	0.038766973
34	0xbd98ad67	-0.07454949
35	0xbda0180b	-0.07817086
36	0x3e2deeb9	0.16985597
37	0xbd24b86a	-0.040214933
38	0x3de45ff0	0.11151111
39	0x3daa3b9e	0.08312152
40	0xbd9c4151	-0.076296456
41	0xbe134942	-0.14383414
42	0x3e3c8287	0.18409167
43	0xbb5c992f	-0.003366064
44	0x3dc89037	0.09793132
45	0x3cc6e783	0.024280315
46	0x3da244b2	0.07923259
47	0x3e0c3cab	0.13695018
48	0x3e38b5fe	0.18038175
49	0xbe0591f4	-0.13043958
50	0x3d3aa3aa	0.04556624
51	0x3daf77e9	0.08567793
52	0x3dccdb7f	0.10002803
53	0x3dc9fc56	0.098625824
54	0xbdc244a3	-0.09485748
55	0xbe241d09	-0.16026701
56	0xbde72150	-0.11285651
57	0x3d048039	0.032348845
58	0x3e1ab179	0.15106763
59	0xbdae1fd5	-0.08502165
60	0x3dbf0b58	0.093283355
61	0xbda3e0b7	-0.08001845
62	0xbe1c577b	-0.15267746
63	0xbd6f0bf8	-0.058361024
64	0x3db10991	0.08644403
65	0x3e0acc8d	0.13554592
66	0xbdc826d1	-0.09773029
67	0x3dce8df8	0.10085672
68	0x3e498907	0.19681178
69	0x3dda397b	0.10655495
70	0x3df81461	0.12113262
71	0x3dc74421	0.097297914
72	0x3e0695d0	0.13143086
73	0x3d288476	0.04114195
74	0xbe0bf366	-0.13667068
75	0xbddd1b1c	-0.10796186
76	0xbd721551	-0.05910236
77	0xbb4c0ae4	-0.003113442
78	0xbdddbe3c	-0.108273
79	0x3d34fc3d	0.044185866
80	0x3d2aad64	0.041669264
81	0xbd00b9a9	-0.03142706
82	0x3d8df6fe	0.06931876
83	0x3cc2453f	0.02371466
84	0x3dcb3265	0.09921721
85	0x3dcc1202	0.09964372
86	0xbda17c4b	-0.07885035
87	0x3e0d51f0	0.13800788
88	0xbd981f12	-0.07427801
89	0x3b32cd1c	0.00272829
90	0xbe2540c0	-0.16137981
91	0xbe19e4f9	-0.15028752
92	0xbdd9519a	-0.106112674
93	0xbd7cda8e	-0.061731867
94	0x3e3ea6ff	0.18618391
95	0xbd24745c	-0.04015003
96	0xbde0e6d4	-0.10981527
97	0x3d911cab	0.07085546
98	0x3cff8afa	0.031194199
99	0x3dcf182f	0.101120345
100	0xbc9a7928	-0.0188566
101	0x3d2dfed3	0.042479347
102	0xbdd393aa	-0.10330899
103	0xbd0a34e9	-0.033741865
104	0xbe0348c2	-0.12820724
105	0xbdab9e93	-0.08379855
106	0xbd3b083d	-0.045662154
107	0x3d739921	0.059472207
108	0x3c275ac5	0.010214512
109	0x3d0ac394	0.033877924
110	0x3e3d9231	0.18512799
111	0x3e305b66	0.17222366
112	0x3db3fe2b	0.08788713
113	0x3a2940a2	0.00064564694
114	0xbde49f52	-0.111632004
115	0x3db91833	0.09037819
116	0xbd73e3ee	-0.059543543
117	0xbd0d19dd	-0.034448493
118	0xbe011d10	-0.12608743
119	0xbd0eaca7	-0.034832623
120	0xbda4b9fa	-0.08043285
121	0x3e2286ef	0.15871786
122	0xbe294140	-0.16528797
123	0xbde0345b	-0.10947486
124	0xbcea1589	-0.028574722
125	0xbd51aeb0	-0.051191986
126	0x3dcade73	0.0990571
127	0xbdac98fa	-0.084276155
128	0xbdaaf18a	-0.08346851
129	0xbbb3ad7f	-0.005483329
130	0x3e044ff9	0.12921132
131	0xbd9596f8	-0.07304186
132	0x3e0af59f	0.1357026
133	0x3dde4a30	0.10853994
134	0x3e35618e	0.17712995
135	0xbe0c3a04	-0.13694006
136	0x3d49a5d4	0.04923041
137	0xbdfadeac	-0.122495025
138	0x3e122471	0.14271714
139	0xbd1e80a3	-0.038696896
140	0x3df78590	0.12086022
141	0x3c68839e	0.014191536
142	0xbc603f29	-0.013686934
143	0xbc855f21	-0.016280713
144	0x3c87d448	0.016580716
145	0x3db95c10	0.09050763
146	0x3cf32d87	0.029684795
147	0x3ca61eae	0.020278301
148	0xbe299548	-0.16560853
149	0x3dd7512a	0.10513528
150	0x3e130850	0.1435864
151	0x3df56c8a	0.11983593
152	0x3dde0311	0.108404286
153	0xbdff958a	-0.12479694
154	0xbd80a962	-0.06282307
155	0x3e083037	0.13299643
156	0xbe1399cd	-0.14414139
157	0x3e3db3d4	0.1852563
158	0xbd9eb152	-0.07748665
159	0xbdf0635e	-0.11737703
160	0x3dbd1a05	0.092334785
161	0xbe0115f5	-0.12606032
162	0xbd8c8e96	-0.068631336
163	0x3d96ec8f	0.07369339
164	0x3e11fa06	0.14255533
165	0x3e30ee73	0.17278461
166	0xbd9342cf	-0.07190477
167	0xbe08123b	-0.13288204
168	0x3e221d43	0.15831475
169	0xbca72bd8	-0.020406649
170	0xbd90265a	-0.07038565
171	0x3d39c202	0.045351036
172	0xbe095b50	-0.13413739
173	0x3ddc60c2	0.107606426
174	0x3de5bd50	0.11217749
175	0xbe133ae9	-0.14377941
176	0xbe2104c2	-0.15724471
177	0xbbf6d3e7	-0.007532585
178	0x3da2b475	0.07944576
179	0xbd54c7b3	-0.05194826
180	0xbdc80c39	-0.09767956
181	0xbcc21819	-0.023693131
182	0xbe180f76	-0.14849648
183	0xbdd36c8e	-0.103234395
184	0xbd3db4bb	-0.046314936
185	0x3dc6f6da	0.09715052
186	0x3e1a9824	0.150971
187	0xbcf0d349	-0.029397624
188	0xbba1b962	-0.0049354294
189	0x3e005893	0.12533788
190	0x3d1e27b9	0.0386121
191	0xbdd2042e	-0.102547035
192	0x3d89088a	0.06691082
193	0x3debc0bf	0.11511373
194	0xbb36961f	-0.0027860475
195	0xbd24be7c	-0.040220723
196	0x3e27abe8	0.16374171
197	0x3e1f06f6	0.15529999
198	0xbd9ee76b	-0.07758983
199	0x3e362eed	0.17791338
200	0x3d8fd75e	0.070235
201	0xbe02ee04	-0.12786108
202	0x3ddd4aa0	0.10805249
203	0xbe0cef7f	-0.13763236
204	0x3e15163e	0.14559266
205	0xbdfcc2d0	-0.12341845
206	0x3d876af8	0.066121995
207	0x3d63e579	0.055638764
208	0x3d41ad09	0.04728416
209	0x3e0a9bfc	0.13536066
210	0xbd63fbea	-0.055660166
211	0xbdc69f28	-0.096983254
212	0xbe31e03d	-0.17370696
213	0xbc782c47	-0.015147275
214	0xbd734d39	-0.059399817
215	0xbbd53115	-0.006506095
216	0xbd017068	-0.03160134
217	0x3d7adfc6	0.061248563
218	0x3e093a7f	0.1340122
219	0x3d9e1b30	0.07720029
220	0xbd79e27a	-0.061007
221	0xbdb59999	-0.08867187
222	0xbe286b8f	-0.1644728
223	0x3e06dc8b	0.13170068
224	0xbd1a4e66	-0.037672423
225	0x3d7be20d	0.061494876
226	0x3c49957f	0.012303709
227	0xbe33a76b	-0.17544334
228	0x3d7085bf	0.0587213
229	0x3de33506	0.11094098
230	0x3c35ef82	0.011104466
231	0xbd9f99c3	-0.077929996
232	0xbdaedc1b	-0.085380755
233	0xba9ef675	-0.0012127893
234	0xbdb329ff	-0.087482445
235	0xbe018c96	-0.12651286
236	0xbd3cb8fc	-0.046074852
237	0xbd8968d2	-0.06709446
238	0x3d3b50aa	0.045731224
239	0xbcec45a7	-0.028841807
240	0xbbf7b4dc	-0.007559402
241	0xbd8be039	-0.068298765
242	0xbe250d40	-0.16118336
243	0x3e2c4ece	0.16826937
244	0x3d1bbbb0	0.03802079
245	0x3e2cd24b	0.16877095
246	0xbc2147f2	-0.009843813
247	0xbcf3b8a5	-0.029751131
248	0xbde8fbe5	-0.1137617
249	0xbd98292e	-0.074297294
250	0x3dde4246	0.108524844
251	0xbe099deb	-0.13439147
252	0xbd963163	-0.073336385
253	0x3dd3fd79	0.103510804
254	0x3d7159af	0.05892342
255	0x3d432da6	0.047650956

attention.out_proj.bias f4 [32]
0	0x3cd49bb3	0.02595315
1	0x3b23e51f	0.0025008393
2	0x3a6c342e	0.0009010461
3	0x3c256e5f	0.010097115
4	0xba2325ca	-0.00062235876
5	0xbc3e7574	-0.011624683
6	0x3ca9a580	0.0207088
7	0x3a1a80f9	0.0005893852
8	0xbbb7b7a2	-0.0056066075
9	0x3a18616c	0.0005812857
10	0xb9caea41	-0.00038702975
11	0xbc00aa6a	-0.00785313
12	0x3c708e22	0.014682325
13	0x3bbf66df	0.0058411206
14	0xbad089ea	-0.0015910242
15	0xbb56105b	-0.0032663557
16	0x3c7a7e28	0.015288867
17	0x3baab5be	0.0052096536
18	0x3b502279	0.0031758829
19	0x3ca2732f	0.019830314
20	0x3b7e3762	0.0038790335
21	0x3c290ae9	0.010317543
22	0x3b372bed	0.0027949766
23	0x3cff5e54	0.031172909
24	0x3bf08a20	0.0073406845
25	0x3c4792ab	0.012180964
26	0x3c797f2a	0.015228072
27	0x3ba2562d	0.0049541206
28	0xbc317171	-0.010830269
29	0xbb11311b	-0.0022154513
30	0xbbd3c261	-0.0064623808
31	0x3bc7e967	0.006100822

nnECG.0.weight f4 [128, 384]
0	0xbc6a9c07	-0.014319426
1	0x3aeaab62	0.0017903859
2	0xbdb1e604	-0.0868645
3	0xbc03f952	-0.008055048
4	0xbdb887b8	-0.09010261
5	0xbdb0fba9	-0.0864175
6	0x3db31273	0.08743753
7	0x3d4dc6f8	0.05023858
8	0x3d0a3947	0.03374603
9	0xbd31c8d4	-0.043404415
10	0xbd5c9dd0	-0.05386144
11	0xbc23932f	-0.009983822
12	0xbd8bcb57	-0.06825893
13	0xbdb2dea5	-0.08733872
14	0xbc1eafba	-0.009685451
15	0x3dd89c0b	0.10576638
16	0xbd268c7b	-0.040661316
17	0xbd10638d	-0.03525119
18	0x3d94c0ac	0.07263312
19	0xbd21c2b4	-0.039492324
20	0x3ddec270	0.1087693
21	0xbda42d81	-0.08016492
22	0xbda9a373	-0.082831286
23	0xbcec6fa5	-0.02886183
24	0x3cc12d2f	0.023581116
25	0xbc94f16e	-0.018181529
26	0xbca42694	-0.020037927
27	0xbacbab9b	-0.0015538813
28	0xba065234	-0.00051239436
29	0x3da2cd86	0.07949357
30	0xba916442	-0.0011092501
31	0x3a51cc13	0.0008003127
32	0x3cad038e	0.02111986
33	0x3b6bd149	0.0035982898
34	0xbdaec5e2	-0.08533837
35	0xbd2407d1	-0.040046517
36	0xbc8cbefc	-0.017180912
37	0xbc83f9bc	-0.016110294
38	0x3d68c756	0.056830727
39	0xbd4f031d	-0.05054008
40	0x3d9060d3	0.07049718
41	0x3dc3480c	0.09535226
42	0x3d268280	0.0406518
43	0x3d932626	0.071850106
44	0x3c3125f5	0.010812272
45	0x3c822cc3	0.015890485
46	0xbdb22603	-0.086986564
47	0xbd37051e	-0.044682615
48	0xbd879f9e	-0.066222414
49	0x3cc59ca1	0.024122538
50	0xbcf1300a	-0.029441852
51	0x3d2c4274	0.042055562
52	0x3d92ed0d	0.0717412
53	0xbbe042bb	-0.0068438924
54	0xbd74f469	-0.0598034
55	0xbc3d78d1	-0.011564449
56	0x3d84313e	0.06454705
57	0xbcc50c22	-0.024053637
58	0x3d67884b	0.056526463
59	0xbd3b872a	-0.0457832
60	0x3da6ea79	0.08150191
61	0xbd5894c1	-0.052876238
62	0xbceb5394	-0.028726377
63	0xbd1c478b	-0.038154166
64	0x3c42925c	0.011875715
65	0xbdda98fe	-0.10673712
66	0x3d6639e8	0.056207567
67	0x3ccfe0a0	0.025375664
68	0xbddf7549	-0.10911042
69	0x3d9c093a	0.07618947
70	0x3cf5651a	0.029955436
71	0x3d87d758	0.066328704
72	0xbd174e32	-0.036939807
73	0x3d3f8d2f	0.046765503
74	0xbca4d4b6	-0.02012096
75	0x3dbb571d	0.09147475
76	0x3deef29e	0.11667369
77	0xbe0f80f9	-0.14014043
78	0xbc32b3b6	-0.010907104
79	0xbbbddf34	-0.00579443
80	0x3df04ad7	0.117330246
81	0xbd509cb7	-0.050930705
82	0x3b1e8fd7	0.0024194622
83	0x3c9b2aa0	0.018941224
84	0xbadbdad7	-0.0016773593
85	0xbc73ee5a	-0.01488837
86	0x3dcf411c	0.101198405
87	0x3d14ed2f	0.03635901
88	0xbd606ea3	-0.05479301
89	0xbd8de5b5	-0.06928579
90	0x3db9ae22	0.09066416
91	0x3da09fa9	0.07842953
92	0x3d9dcf9e	0.077056155
93	0x3bfc54d8	0.007700544
94	0x3c7a6413	0.015282649
95	0x3da3cbd4	0.079978615
96	0x3d64db69	0.05587331
97	0xb90f9b00	-0.00013695285
98	0xbe03be0e	-0.12865469
99	0xbda589aa	-0.08082898
100	0xbdb5e3e3	-0.088813566
101	0xbda753a6	-0.081702515
102	0xbddeb92a	-0.10875161
103	0xbd3f70c3	-0.046738397
104	0xbd55a573	-0.052159738
105	0x3d7a4552	0.061101265
106	0xbc42ec4f	-0.011897161
107	0x3d79243f	0.060825583
108	0x3ddee354	0.10883203
109	0xbc9e3777	-0.019313557
110	0xbd162f17	-0.036666002
111	0x3de2faf2	0.1108302
112	0x3c315caf	0.01082532
113	0x3d99e333	0.07514038
114	0x3ca4ae96	0.02010278
115	0xbcf318af	-0.029674856
116	0xbd2d1c32	-0.042263217
117	0x3bf82e82	0.0075739035
118	0xbd799d56	-0.060941063
119	0x3d413187	0.047166374
120	0xbd09a0f0	-0.033600748
121	0xbddf9aa6	-0.10918169
122	0xbc764e45	-0.015033309
123	0x3cbd4e23	0.023108548
124	0x3d5fe76c	0.05466406
125	0x3c9f7191	0.019463332
126	0x3df19d7a	0.117976144
127	0xbddc9b48	-0.10771805
128	0xbe010f5e	-0.12603518
129	0xbdfa0edb	-0.12209865
130	0x3db09109	0.08621413
131	0xbd14f8b6	-0.03637
132	0x3d6d63e9	0.05795661
133	0xbcd0b16a	-0.025475223
134	0xbcf17c88	-0.029478326
135	0x3bdbc546	0.0067068664
136	0x3dd964c0	0.1061492
137	0xbcb82131	-0.022476764
138	0xbde0f956	-0.10985057
139	0xbdb467dd	-0.08808873
140	0x3b5972af	0.003317993
141	0xbd7871cb	-0.060655396
142	0xbdb7e2d2	-0.089788094
143	0x3dfad47c	0.122475594
144	0xbd9a4af4	-0.075338274
145	0x3d9e2065	0.077210225
146	0xbd6f00d4	-0.0583504
147	0x3cfcaa25	0.03084285
148	0x3df042f1	0.11731518
149	0x3d4036cd	0.046927262
150	0x3d9c6e8b	0.07638272
151	0x3c722af3	0.014780748
152	0x3da1e4b8	0.07904953
153	0x3dae4ab6	0.08510344
154	0x3d7fb64a	0.062429704
155	0xbc9765e2	-0.018481199
156	0xbc347cd1	-0.011016087
157	0xbd4c0eb2	-0.049818702
158	0x3c4f85d4	0.012666184
159	0x3dc80409	0.09766395
160	0xbd451e7b	-0.04812477
161	0xbd61304f	-0.05497771
162	0xbdd0b2df	-0.10190367
163	0xbddcccc0	-0.107812405
164	0xbd9bd35a	-0.076086715
165	0x3c5ce37b	0.01348197
166	0xbc9f49d2	-0.01944438
167	0x3d91aced	0.07113061
168	0xb8cb30fe	-9.68892e-05
169	0xbcd4e068	-0.025985911
170	0xba31fb83	-0.00067894923
171	0xbd869715	-0.06571785
172	0xbd61ea77	-0.055155244
173	0xbddc9ae4	-0.107717305
174	0xbdf21a6e	-0.11821447
175	0x3bb27cd4	0.0054470096
176	0xbd3c453c	-0.045964465
177	0xbcd2a6ad	-0.025714243
178	0x3c628747	0.013826198
179	0xbda3344e	-0.07968961
180	0x3dc69b65	0.09697608
181	0x3ad37087	0.0016131558
182	0x3da4e0d1	0.08050693
183	0xbdd55603	-0.10416796
184	0x3d895480	0.0670557
185	0x3d442264	0.04788436
186	0xbd1a08eb	-0.03760616
187	0xbc8aa2d0	-0.016923338
188	0xbce9b7d8	-0.028530046
189	0x3b26d93b	0.002545907
190	0xbced73a4	-0.028985806
191	0xbd8b6bb8	-0.06807655
192	0x3caa2dce	0.020773795
193	0xbce1d2d0	-0.027566344
194	0x3d56bff7	0.052429166
195	0xbe03ca1b	-0.12870066
196	0xbd6f5b7f	-0.058436867
197	0x3d51543c	0.051105723
198	0xbcf9bdec	-0.03048607
199	0x3d9894b7	0.0745024
200	0x3d8265ed	0.06367097
201	0xbd2d9520	-0.042378545
202	0x3da9ac48	0.08284813
203	0xbdc47786	-0.0959311
204	0x3b08e383	0.002088756
205	0xbd4425a4	-0.04788746
206	0x3d5ef598	0.054433435
207	0xbcea4c22	-0.028600756
208	0xbdb09784	-0.08622649
209	0xbe05ff46	-0.1308566
210	0xbccd5dd7	-0.02506916
211	0xbdbd5833	-0.09245338
212	0x3d09f517	0.033681
213	0x3d3f394d	0.046685506
214	0x3dec96b9	0.115521856
215	0xbd91ea07	-0.07124715
216	0xbd61af0b	-0.055098575
217	0xbd2e571e	-0.04256355
218	0x3c8bef1e	0.017081793
219	0x3d0325dd	0.03201853
220	0x3b6fe304	0.0036603818
221	0xbe0487d9	-0.12942447
222	0x3dd3570b	0.103193365
223	0x3d4dd743	0.050254118
224	0xbb0badd3	-0.0021313324
225	0xbda9fbb5	-0.082999624
226	0xbd17917c	-0.03700398
227	0xbcaf14d6	-0.02137224
228	0x3d24f89f	0.040276166
229	0xbd4b11b3	-0.049577426
230	0xbbd13f68	-0.0063857324
231	0x3dc53e86	0.09631066
232	0x3dcba532	0.09943618
233	0xbd2f9f28	-0.042876393
234	0xbdba26e1	-0.09089447
235	0x3c21b681	0.0098701725
236	0x3dd553a8	0.10416347
237	0xbc010756	-0.007875284
238	0x3d4ad13b	0.049515944
239	0x3dd857cc	0.10563621
240	0x3d8b8b22	0.06813647
241	0xbd10c053	-0.035339665
242	0x3d897a0d	0.067127325
243	0x3d9397fb	0.07206722
244	0x3c9bb04d	0.019004965
245	0xbdc5d9b6	-0.09660666
246	0x3c87ad65	0.016562173
247	0xbabe7a1d	-0.0014532242
248	0xbbcf8049	-0.0063324315
249	0x3b56086d	0.003265883
250	0x3d9ca941	0.0764947
251	0x3d847b67	0.0646885
252	0xbd3a267e	-0.045446865
253	0xbd1f1022	-0.038833745
254	0x3b6b1a91	0.003587399
255	0xbd5ca242	-0.05386568

nnECG.0.bias f4 [128]
0	0xbcc8ae63	-0.024497217
1	0x3c1b29bb	0.009470399
2	0x3cba0135	0.022705654
3	0xbb328861	-0.0027241933
4	0x3bd9b81b	0.0066442615
5	0x3b28f2e7	0.0025779547
6	0x3d44fa1f	0.048090097
7	0x3b906150	0.004406132
8	0x3c13a6e8	0.0090119615
9	0x3c2e186a	0.010625938
10	0xba9fba54	-0.0012186267
11	0x3c5f9339	0.01364594
12	0xbbf990f4	-0.0076161567
13	0xbd27c3f8	-0.040958375
14	0xbd006390	-0.03134495
15	0xbd04b6da	-0.032400943
16	0xbc6ca26f	-0.014443024
17	0x3d13cb23	0.0360824
18	0xbb4494bd	-0.0029995881
19	0xbb352d05	-0.0027645242
20	0xbc0d8cee	-0.008639557
21	0xbc6afb6c	-0.01434217
22	0xbc234bcf	-0.009966805
23	0xbd006ac9	-0.03135184
24	0x3c703d71	0.014663086
25	0xbc59a793	-0.013284582
26	0xbacb345e	-0.0015503278
27	0xba0e11ce	-0.0005419523
28	0xbc2ed748	-0.010671444
29	0x3c3d15e3	0.011540863
30	0x3be11894	0.006869385
31	0xbcd4db37	-0.025983436
32	0xbc4b4f15	-0.012408991
33	0x3ccaa440	0.024736524
34	0x3b311a89	0.0027023873
35	0xbb8aff85	-0.004241886
36	0xbd8919d3	-0.06694379
37	0xbb838f54	-0.004014889
38	0xbc300f88	-0.01074589
39	0xbd220455	-0.039554913
40	0xbd07f470	-0.0331921
41	0x3c9d6b9a	0.019216347
42	0x3bf497d6	0.0074643893
43	0xbc8547b4	-0.016269542
44	0xbba8ef86	-0.0051555065
45	0xbcce942f	-0.025217144
46	0x39d7bbcc	0.00041147915
47	0x3bacfa39	0.0052788523
48	0xbabc334e	-0.0014358552
49	0x3c8192aa	0.015817005
50	0xbbd684a2	-0.006546573
51	0xbce93a9c	-0.02847033
52	0xbcb87167	-0.022515012
53	0x3cab01f9	0.020874964
54	0xbc8db431	-0.017297836
55	0x3d34ffc2	0.044189222
56	0xbcf0c178	-0.029389128
57	0xbcbd4978	-0.023106322
58	0x3bfeb031	0.0077724685
59	0x3c40ab0a	0.011759529
60	0xbb0e4952	-0.0021711183
61	0x3b94659e	0.0045287153
62	0xbbf6ac66	-0.0075278757
63	0xbc9520af	-0.018204061
64	0x3b6d59dd	0.0036216893
65	0xbce03c00	-0.02737236
66	0x3c1584bb	0.009125884
67	0x3c264732	0.01014881
68	0xbce0cd64	-0.027441688
69	0xbb07fa90	-0.0020748712
70	0x3a25532c	0.0006306644
71	0x3c6e76c4	0.014554683
72	0xbcf16a10	-0.02946952
73	0xbd30ce57	-0.04316553
74	0x3c299d43	0.0103524355
75	0xbcb1b632	-0.021693323
76	0xbc6555ad	-0.0139974775
77	0xbc89b1ff	-0.016808508
78	0x3b5af938	0.0033412706
79	0xbd029b17	-0.031886186
80	0x3c5bd37b	0.01341712
81	0x3cbe2ad1	0.023213776
82	0xbbf1a800	-0.0073747635
83	0xbb300a4f	-0.0026861613
84	0x3c2d9e68	0.010596849
85	0x3c8df66d	0.017329419
86	0xbc7c4bf9	-0.015398973
87	0xbd6ee146	-0.058320306
88	0xbbc3e216	-0.0059778793
89	0x3d072fab	0.033004444
90	0xbbed6c97	-0.007245611
91	0xbd65d443	-0.05611063
92	0xbcbbac56	-0.022909325
93	0xbd0158e1	-0.031578902
94	0x3a87cc77	0.0010360618
95	0xbb95d968	-0.004573036
96	0x3cfe00e3	0.031006282
97	0x3cccddee	0.025008168
98	0x3c5c1368	0.013432361
99	0x3a3506dc	0.0006905624
100	0x3b17e5b9	0.0023177697
101	0xbc4a5e3d	-0.01235157
102	0x3c941d9e	0.018080529
103	0xbcbe1d15	-0.023207227
104	0x3bee7fed	0.0072784335
105	0x3c2f6b50	0.010706738
106	0x3d118b0a	0.03553299
107	0x3c7ebdf5	0.015548219
108	0xbb9363db	-0.0044979877
109	0x3c07e701	0.008294822
110	0x3c364211	0.01112415
111	0xbc7a1372	-0.015263425
112	0xbc785606	-0.015157228
113	0xbc074f71	-0.008258686
114	0x3cf4f94b	0.029904028
115	0x3b624a99	0.0034529327
116	0xba4fcc6f	-0.00079268863
117	0x3c2322a2	0.009956988
118	0xbd2107e2	-0.03931416
119	0xbc4c6f12	-0.012477653
120	0x3af5b5f7	0.0018746246
121	0xbcbd188f	-0.023083
122	0x3b04f998	0.002029037
123	0xbc37e4f7	-0.011224023
124	0xbc9004b8	-0.017580375
125	0xbd2ca903	-0.04215337
126	0x3bde7ad6	0.0067895455
127	0xbd19b2c5	-0.037524004

nnECG.1.weight f4 [128]
0	0x3f79af17	0.9753279
1	0x3f73e16a	0.9526583
2	0x3f7667b0	0.96251965
3	0x3f75d1ce	0.9602326
4	0x3f7bda8f	0.9838037
5	0x3f78a601	0.971283
6	0x3f7c5650	0.985692
7	0x3f75b1aa	0.9597422
8	0x3f7ccd4c	0.9875076
9	0x3f73c64e	0.95224464
10	0x3f753463	0.9578306
11	0x3f77a01f	0.967287
12	0x3f75f5b0	0.96078014
13	0x3f742124	0.9536307
14	0x3f72d83a	0.94861186
15	0x3f70ebfb	0.9411008
16	0x3f783d68	0.969687
17	0x3f781c95	0.9691861
18	0x3f75df6b	0.96044034
19	0x3f7b99a9	0.9828134
20	0x3f6fa992	0.9361812
21	0x3f764bce	0.9620942
22	0x3f7e0665	0.9922851
23	0x3f710147	0.94142574
24	0x3f7156e9	0.9427324
25	0x3f74703e	0.9548377
26	0x3f77f4a7	0.96857685
27	0x3f7304d7	0.9492926
28	0x3f74f658	0.9568839
29	0x3f7a528d	0.9778221
30	0x3f76e6ec	0.9644611
31	0x3f705c66	0.9389099
32	0x3f72cd20	0.94844246
33	0x3f78639f	0.9702701
34	0x3f70896d	0.93959695
35	0x3f7b1b53	0.9808857
36	0x3f765c69	0.96234757
37	0x3f774b41	0.96599203
38	0x3f7557a3	0.9583685
39	0x3f734cd5	0.9503911
40	0x3f6aed73	0.9176857
41	0x3f77590e	0.9662026
42	0x3f75d0ee	0.96021926
43	0x3f7bbf2c	0.9833858
44	0x3f7ca4ee	0.9868916
45	0x3f6f861f	0.9356403
46	0x3f785319	0.97001797
47	0x3f7cfe69	0.988257
48	0x3f79e267	0.9761109
49	0x3f738988	0.9513173
50	0x3f76411a	0.9619309
51	0x3f79175e	0.9730128
52	0x3f73d017	0.95239395
53	0x3f7d30be	0.989025
54	0x3f70fe8e	0.9413842
55	0x3f80242e	1.0011041
56	0x3f71e7d2	0.94494355
57	0x3f6e6839	0.9312778
58	0x3f70077d	0.93761426
59	0x3f7ac9fb	0.9796445
60	0x3f76fd9e	0.9648074
61	0x3f7b726f	0.98221487
62	0x3f717fa3	0.94335383
63	0x3f76b60a	0.9637152
64	0x3f7bbdbf	0.98336405
65	0x3f74b36d	0.9558628
66	0x3f7ca081	0.9868241
67	0x3f758555	0.95906574
68	0x3f7d9575	0.9905618
69	0x3f7a452b	0.9776179
70	0x3f73d4e3	0.95246714
71	0x3f7b907c	0.9826734
72	0x3f75cd09	0.96015984
73	0x3f6c4323	0.9228994
74	0x3f77f6cc	0.9686096
75	0x3f73e025	0.9526389
76	0x3f7e5b2a	0.99357855
77	0x3f75b049	0.95972115
78	0x3f7a3683	0.9773943
79	0x3f7693c8	0.96319246
80	0x3f7c084c	0.9845016
81	0x3f7ae70d	0.98008806
82	0x3f741b81	0.9535447
83	0x3f7b62e0	0.98197746
84	0x3f787a4b	0.97061604
85	0x3f784179	0.96974903
86	0x3f796277	0.9741587
87	0x3f7fa443	0.9986002
88	0x3f7b6e9e	0.98215663
89	0x3f77e199	0.9682861
90	0x3f787bec	0.9706409
91	0x3f6e2455	0.9302419
92	0x3f70475f	0.93858904
93	0x3f7afafe	0.98039234
94	0x3f78dfe9	0.9721666
95	0x3f77e568	0.9683442
96	0x3f7a7b12	0.9784404
97	0x3f765bb6	0.9623369
98	0x3f72567b	0.9466321
99	0x3f7a336d	0.9773472
100	0x3f77f7d4	0.9686253
101	0x3f7a61fb	0.97805756
102	0x3f7807f1	0.9688712
103	0x3f7953a1	0.9739323
104	0x3f736b35	0.9508546
105	0x3f7f5490	0.9973841
106	0x3f74ff68	0.9570222
107	0x3f81aa66	1.0130126
108	0x3f71f360	0.94511986
109	0x3f7db7ee	0.9910878
110	0x3f78e36a	0.97222006
111	0x3f6ed0c6	0.93287313
112	0x3f735473	0.95050734
113	0x3f70c365	0.9404815
114	0x3f756d64	0.9587004
115	0x3f76cae8	0.9640336
116	0x3f73507d	0.9504469
117	0x3f7e4338	0.9932132
118	0x3f70c7c7	0.94054836
119	0x3f79eacb	0.9762389
120	0x3f79bc83	0.9755327
121	0x3f78b4d0	0.971509
122	0x3f766a78	0.9625621
123	0x3f78327e	0.96952045
124	0x3f707a76	0.9393686
125	0x3f75774a	0.95885146
126	0x3f74decd	0.95652467
127	0x3f7d12be	0.98856723

nnECG.1.bias f4 [128]
0	0xbd0bf884	-0.03417255
1	0xbb1eede0	-0.0024250671
2	0x3ad5401a	0.0016269714
3	0xbcbb2c1a	-0.022848178
4	0xbb138c99	-0.0022514223
5	0xbbcfa6cf	-0.006337024
6	0x3d351fb0	0.044219673
7	0x3aed1021	0.0018086472
8	0x3b7b5f73	0.0038356453
9	0xbba7b0a4	-0.0051174928
10	0xbc825592	-0.015909944
11	0x3b524df6	0.0032089925
12	0xbc62046a	-0.013794998
13	0xbd2bda3c	-0.04195617
14	0xbd3c0142	-0.045899637
15	0xbd552b6c	-0.052043363
16	0xbced4870	-0.028965205
17	0x3d03611e	0.03207504
18	0xbc89e4d3	-0.016832745
19	0xbc278bbd	-0.010226187
20	0xbca96fa0	-0.02068311
21	0xbc9573ed	-0.018243754
22	0xbcc3f7eb	-0.023921927
23	0xbd3bfa17	-0.0458928
24	0x3b561bd4	0.0032670395
25	0xbcb6b946	-0.022305142
26	0xbc8aaa33	-0.01692686
27	0x3ab414c6	0.0013739101
28	0xbd161c1b	-0.036647897
29	0x39a3239d	0.00031116317
30	0xbbbaeae4	-0.0057042707
31	0xbd1631d3	-0.03666861
32	0xbc9c4aec	-0.019078694
33	0x3bfc4b74	0.0076994244
34	0xbc85249e	-0.016252812
35	0xbbf12641	-0.0073592965
36	0xbd72585a	-0.05916629
37	0xbc89d39a	-0.016824532
38	0xbca7bb52	-0.020475063
39	0xbd2f63c3	-0.04281975
40	0xbd47ab26	-0.048747204
41	0xbc5b3cb0	-0.013381168
42	0xbc00f3d6	-0.007870635
43	0xbca0582d	-0.019573295
44	0xbc140a0d	-0.009035599
45	0xbd0052f1	-0.0313291
46	0x3b4c211a	0.003114766
47	0xbbc6ccd1	-0.0060668965
48	0xbb1e1ec6	-0.002412723
49	0xbbf51268	-0.007479001
50	0xbc91c2b5	-0.017793039
51	0xbcade225	-0.021225998
52	0xbd3edc4d	-0.046596814
53	0xbb576fa3	-0.0032872937
54	0xbd19e1dc	-0.037568912
55	0x3ce9806c	0.02850362
56	0xbd2d0ad9	-0.042246673
57	0xbced923e	-0.029000398
58	0xbc23ccb1	-0.009997533
59	0x3a1e5105	0.00060392945
60	0xbcac1443	-0.021005755
61	0xbc2fdf2f	-0.010734363
62	0xbd08d64d	-0.0334075
63	0xbcb4a27e	-0.022050139
64	0xbbde2610	-0.0067794397
65	0xbca1a06d	-0.019729817
66	0xbbeebd50	-0.0072857514
67	0xbc4e4119	-0.012588763
68	0xbbdda540	-0.006764084
69	0xbc2d3383	-0.010571363
70	0xbc881b25	-0.016614506
71	0x3bd00aa0	0.006348923
72	0xbd299052	-0.0413974
73	0xbd416776	-0.04721781
74	0xbc8500ca	-0.016235728
75	0xbd34c350	-0.044131577
76	0xbd1e29e4	-0.03861417
77	0xbcca3938	-0.024685487
78	0x3b977037	0.0046215313
79	0xbd6d3641	-0.05791307
80	0x3b5076fd	0.0031809204
81	0xba7a3d1a	-0.0009545848
82	0xbc8b643b	-0.017015567
83	0xbbe30b13	-0.0069288104
84	0xbb87f078	-0.004148539
85	0x3b5fabe3	0.0034129552
86	0xbcd48b99	-0.025945472
87	0xbd601a0b	-0.054712337
88	0xbca3ed75	-0.02001069
89	0x3cce7e75	0.025206784
90	0xbc6e0a41	-0.014528812
91	0xbd852c1c	-0.06502554
92	0xbd310fad	-0.04322784
93	0xbd1f67e5	-0.03891744
94	0xbcaddbac	-0.021222912
95	0xbc36e645	-0.011163299
96	0x3ca3dcd6	0.020002764
97	0xbadf3033	-0.0017027914
98	0xbb920ce8	-0.004457105
99	0xbc862131	-0.016373249
100	0xbc280486	-0.010254985
101	0xbc391bbe	-0.011298118
102	0x3ba78925	0.0051127844
103	0xbcaa88b8	-0.020817146
104	0x3acb766d	0.0015522965
105	0x3a85571b	0.0010173054
106	0x3c633429	0.013867416
107	0xbb863e1e	-0.0040967604
108	0xbca48b78	-0.020086035
109	0xbc34ef21	-0.011043341
110	0x3c0e77fa	0.008695597
111	0xbd0a58ca	-0.033776082
112	0xbd07a774	-0.03311868
113	0xbc8b4009	-0.016998308
114	0x3b1c8314	0.002388184
115	0xbc9328a7	-0.01796372
116	0xbc742c41	-0.014903129
117	0xbc0637ce	-0.008192016
118	0xbd673933	-0.056451034
119	0xbc698d51	-0.014254884
120	0xbca8fc83	-0.02062822
121	0xbd014706	-0.031561874
122	0xbc44eb18	-0.012018941
123	0xbc93b46b	-0.018030366
124	0xbcf353c3	-0.029703027
125	0xbd480f9b	-0.048843008
126	0xbba9fa10	-0.0051872805
127	0xbd22d505	-0.039753933

nnECG.1.running_mean f4 [128]
0	0xbe045f03	-0.12926869
1	0x3d6126db	0.054968696
2	0x3d8e7ec2	0.06957771
3	0xbe04fd36	-0.12987217
4	0x3dd9fb0d	0.10643587
5	0x3ddd7fb2	0.108153716
6	0x3d8bd200	0.06827164
7	0x3dc3ca31	0.09560049
8	0x3d8858d7	0.0665757
9	0xbcb1f277	-0.021722062
10	0x3d3aa535	0.04556771
11	0x3e09be91	0.13451602
12	0xbd1e705e	-0.03868138
13	0xbdee8be6	-0.11647777
14	0xbd4f1408	-0.050556213
15	0xbe414411	-0.18873622
16	0xbd1a026e	-0.037599973
17	0x3d8c1087	0.0683909
18	0x3d59d05a	0.053177215
19	0x3db59864	0.08866957
20	0x3b0ab112	0.002116267
21	0x3dcf6e3c	0.101284474
22	0x3dcd5443	0.10025837
23	0x3d84810d	0.06469927
24	0x3cd32d7e	0.025778528
25	0x3d87ac39	0.06624646
26	0xbdfc82f0	-0.12329662
27	0x3d2417eb	0.040061872
28	0xbc4a84af	-0.012360736
29	0x3dc4ba44	0.0960584
30	0x3e01a717	0.12661396
31	0xbc692151	-0.014229135
32	0x3e41739f	0.18891762
33	0x3e54cd9d	0.2078156
34	0x3ddbdb38	0.10735172
35	0x3df748ca	0.1207443
36	0xbe47cb0b	-0.19511048
37	0xbdd97222	-0.10617472
38	0x3dab466c	0.08363041
39	0xbdf0c043	-0.11755421
40	0xbd2dfca5	-0.04247727
41	0x3d8a2329	0.067449875
42	0x3df5fe09	0.12011344
43	0x3c503e6b	0.012710194
44	0x3e079964	0.13242108
45	0xbd58a08c	-0.052887484
46	0x3df27302	0.11838342
47	0x3df410e2	0.11917283
48	0x3e003f59	0.12524165
49	0x3d92cb3f	0.07167672
50	0xbc81a9e8	-0.015828088
51	0xbe3ead58	-0.18620813
52	0xbcee6558	-0.029101059
53	0x3e065832	0.13119581
54	0xbe0f5b8a	-0.13999763
55	0x3e19deb0	0.15026355
56	0xbc0d01e2	-0.008606406
57	0x3cdff64d	0.027339125
58	0xbc86d6f1	-0.016459914
59	0xbdebf1da	-0.11520739
60	0x3d84a282	0.064763084
61	0x3e02b6fe	0.12765118
62	0x3d5debc6	0.05417993
63	0x3cbd33b2	0.02309594
64	0x3e308927	0.1723982
65	0xbdf117b6	-0.117721006
66	0xbd7751a5	-0.060380597
67	0x3d1274ce	0.035755925
68	0xbe1c661f	-0.15273331
69	0x3e077c17	0.1323093
70	0xbddc41f2	-0.107547656
71	0xbdcb98ef	-0.09941279
72	0xbdb918f8	-0.090379655
73	0xbd9f0b6d	-0.07765851
74	0xbd0904dd	-0.033451904
75	0xbcb21941	-0.021740558
76	0x3c475692	0.012166636
77	0xbdedd251	-0.1161238
78	0x3d9b9315	0.07596413
79	0x3a7a8be4	0.00095575885
80	0x3de6fd14	0.112787396
81	0x3db3bd2c	0.08776316
82	0x3df382e9	0.118902035
83	0x3df8f0a3	0.12155273
84	0x3df85850	0.12126219
85	0x3cc77a0d	0.02435019
86	0x3dbae3e9	0.09125502
87	0xbdafb440	-0.08579302
88	0x3d471e38	0.048612803
89	0x3d93b61d	0.0721247
90	0xbdb5f407	-0.08884435
91	0xbdc33b0e	-0.09532748
92	0xbd691271	-0.056902353
93	0xbdb284c7	-0.087167315
94	0xbc29f2b7	-0.010372809
95	0xbc9206ac	-0.017825447
96	0x3b31b818	0.0027117785
97	0x3c7c38e5	0.015394424
98	0x3cb07599	0.02154045
99	0xbdafcfbf	-0.08584546
100	0xbc4a6c6b	-0.01235495
101	0x3b1f7851	0.0024333189
102	0xbcf5b967	-0.029995633
103	0x3da1a90c	0.07893571
104	0xbbf578a9	-0.0074911905
105	0x3e0a40d7	0.13501297
106	0x3d5bd6d7	0.053671684
107	0x3e78013f	0.24219225
108	0x3d6a0f05	0.05714323
109	0x3de8b94f	0.1136347
110	0xbc4f4d6b	-0.012652735
111	0xbd933984	-0.071887046
112	0x3e1b311d	0.15155454
113	0x3d2cd313	0.042193484
114	0x3e0bfd37	0.13670813
115	0x3d177e55	0.036985714
116	0x3d16010b	0.03662209
117	0x3de96a12	0.113971844
118	0xbe19bef0	-0.15014243
119	0x3d4c3586	0.04985573
120	0x3da927d9	0.082595535
121	0x3cdbe1e3	0.02684111
122	0x3e1ee9f4	0.15518934
123	0xbe32ed33	-0.17473297
124	0xbda6644f	-0.08124601
125	0xbe070ddb	-0.13188879
126	0x3d8f0f3b	0.06985327
127	0x3d620e7e	0.055189602

nnECG.1.running_var f4 [128]
0	0x3d9367ca	0.071975306
1	0x3d931471	0.07181633
2	0x3d931fe0	0.07183814
3	0x3d938f27	0.072050385
4	0x3d933fd9	0.07189912
5	0x3d934929	0.071916886
6	0x3d9317bc	0.07182261
7	0x3d934355	0.07190577
8	0x3d93244b	0.07184657
9	0x3d930f32	0.07180633
10	0x3d930ef2	0.07180585
11	0x3d936a1e	0.071979746
12	0x3d931317	0.071813755
13	0x3d936748	0.07197434
14	0x3d931db7	0.07183402
15	0x3d93e70f	0.07221805
16	0x3d9319e5	0.07182673
17	0x3d9320f2	0.07184018
18	0x3d9311c8	0.07181126
19	0x3d93226e	0.07184301
20	0x3d93074b	0.071791254
21	0x3d9333bf	0.07187604
22	0x3d93397f	0.07188701
23	0x3d931676	0.071820185
24	0x3d9307dd	0.07179234
25	0x3d932003	0.0718384
26	0x3d9369e4	0.071979314
27	0x3d9317af	0.07182252
28	0x3d930a05	0.071796454
29	0x3d933c35	0.07189218
30	0x3d9368ef	0.07197749
31	0x3d930845	0.07179312
32	0x3d93cc86	0.07216744
33	0x3d93f323	0.07224109
34	0x3d93546d	0.07193837
35	0x3d936700	0.0719738
36	0x3d93e67a	0.07221694
37	0x3d93578e	0.07194434
38	0x3d932532	0.07184829
39	0x3d93666f	0.07197272
40	0x3d931634	0.07181969
41	0x3d932636	0.071850225
42	0x3d9348d1	0.07191623
43	0x3d931046	0.07180838
44	0x3d935bb7	0.071952276
45	0x3d931603	0.07181933
46	0x3d93654a	0.07197054
47	0x3d934de6	0.07192592
48	0x3d934f10	0.07192814
49	0x3d9329f1	0.07185734
50	0x3d931556	0.07181804
51	0x3d93b4ca	0.07212217
52	0x3d931ceb	0.0718325
53	0x3d936607	0.071971945
54	0x3d9392fe	0.07205771
55	0x3d9385bd	0.07203243
56	0x3d930daa	0.071803406
57	0x3d93072b	0.071791016
58	0x3d930950	0.071795106
59	0x3d937050	0.07199156
60	0x3d9310d3	0.07180943
61	0x3d9351a8	0.07193309
62	0x3d931790	0.071822286
63	0x3d930895	0.07179371
64	0x3d93a888	0.07209879
65	0x3d93711f	0.071993105
66	0x3d933239	0.071873136
67	0x3d93080a	0.07179268
68	0x3d937d25	0.07201604
69	0x3d936c01	0.071983345
70	0x3d934ed9	0.07192773
71	0x3d933cac	0.071893066
72	0x3d934711	0.07191289
73	0x3d932e33	0.07186546
74	0x3d930d9c	0.0718033
75	0x3d9310d0	0.07180941
76	0x3d9309c8	0.071796
77	0x3d935340	0.07193613
78	0x3d932c7f	0.07186221
79	0x3d9306da	0.07179041
80	0x3d933a17	0.07188814
81	0x3d932306	0.071844146
82	0x3d93517f	0.071932785
83	0x3d9361ab	0.07196363
84	0x3d934623	0.07191112
85	0x3d9309a2	0.07179572
86	0x3d9325aa	0.07184918
87	0x3d9333a8	0.07187587
88	0x3d9313da	0.07181521
89	0x3d932128	0.071840584
90	0x3d934576	0.07190983
91	0x3d934e00	0.07192612
92	0x3d931db5	0.071834005
93	0x3d9332b6	0.07187407
94	0x3d930b10	0.071798444
95	0x3d93072e	0.07179104
96	0x3d9307fe	0.07179259
97	0x3d930890	0.071793675
98	0x3d930afb	0.07179829
99	0x3d934362	0.071905866
100	0x3d930c75	0.0718011
101	0x3d930954	0.071795136
102	0x3d930b6c	0.07179913
103	0x3d9328a8	0.07185489
104	0x3d930ca3	0.07180145
105	0x3d935d06	0.07195477
106	0x3d930960	0.071795225
107	0x3d944a0b	0.07240685
108	0x3d9313f4	0.0718154
109	0x3d935db2	0.07195605
110	0x3d930a26	0.0717967
111	0x3d933279	0.07187361
112	0x3d938886	0.07203774
113	0x3d9310bf	0.071809284
114	0x3d934c0b	0.071922384
115	0x3d930e38	0.071804464
116	0x3d930b7b	0.07179924
117	0x3d935a1a	0.0719492
118	0x3d939166	0.07205467
119	0x3d93188e	0.07182418
120	0x3d933fbc	0.07189891
121	0x3d930a3f	0.07179689
122	0x3d937b56	0.07201259
123	0x3d93a1a0	0.07208562
124	0x3d9341e1	0.071903
125	0x3d937964	0.07200888
126	0x3d931cdf	0.07183241
127	0x3d932135	0.07184068

nnECG.4.weight f4 [64, 128]
0	0x3d998605	0.07496265
1	0x3ddd5f75	0.108092226
2	0xbe1219c9	-0.14267649
3	0xbcb0f0ff	-0.02159929
4	0x3d7480b2	0.059693046
5	0xbe1bf0cd	-0.15228577
6	0xbcb5948f	-0.022165565
7	0xbd5b362d	-0.053518463
8	0xbdec280e	-0.11531077
9	0x3b0ff721	0.0021967369
10	0xbe0b6ad5	-0.13614972
11	0xbe2400ae	-0.16015884
12	0x3d344fb0	0.04402131
13	0x3e0b80d5	0.13623364
14	0x3d2f02b8	0.042727202
15	0x3e0ae4ac	0.13563794
16	0xbe19dc50	-0.15025449
17	0xbde4ddd6	-0.11175124
18	0xbdb4d885	-0.0883036
19	0x3da90cb8	0.08254379
20	0x3dc96588	0.09833819
21	0x3ddd62f6	0.10809891
22	0x3d844834	0.06459084
23	0x3d81c3ac	0.063361496
24	0xbda26c25	-0.07930783
25	0x3e1db703	0.15401845
26	0x3e15044a	0.14552417
27	0xbdf4a676	-0.119458124
28	0xbe0e1764	-0.1387611
29	0xbe0e5d0b	-0.1390268
30	0xbdf154ab	-0.11783727
31	0xbdb47844	-0.08812001
32	0xbd168a5d	-0.036753047
33	0x3d83af14	0.06429878
34	0x3db10780	0.08644009
35	0xbe300afb	-0.17191689
36	0x3dcc68ce	0.099809274
37	0x3d49f697	0.049307432
38	0x3d6a5a74	0.05721517
39	0x3c282002	0.0102615375
40	0x3e44c6d5	0.19216473
41	0xbd1bcf23	-0.038039338
42	0xbe2056e7	-0.1565815
43	0xbe02a492	-0.12758091
44	0x3de18129	0.110109635
45	0x3de2b157	0.11068981
46	0xbd8c5276	-0.06851666
47	0x3e173d5d	0.14769502
48	0xbe2b62d3	-0.16736917
49	0x3d5b6a14	0.05356796
50	0x3d79249c	0.06082593
51	0x3d2a6ed1	0.04160959
52	0xbdd08721	-0.10182024
53	0xbd769fdd	-0.06021105
54	0xbdb67c08	-0.08910376
55	0xbdfebaed	-0.12437997
56	0x3c30e917	0.01079776
57	0x3dd766e9	0.105176754
58	0xbdadf45c	-0.084938735
59	0x3e235027	0.15948544
60	0xbd83dedc	-0.064389914
61	0x3d3b6898	0.045754045
62	0xbe24f95d	-0.1611075
63	0x3d95f728	0.07322532
64	0xbdea05ad	-0.11426864
65	0x3e151ce9	0.1456181
66	0xbda712b3	-0.081578635
67	0xbdd69b05	-0.104787864
68	0x3d8a80a6	0.06762819
69	0x3d74f950	0.059808075
70	0xbded5d25	-0.115900315
71	0x3e163055	0.14666875
72	0x3c861580	0.016367674
73	0xbd0781bc	-0.03308271
74	0xbcca1c08	-0.02467157
75	0xbe0c1072	-0.13678148
76	0x3dfa6f19	0.122282214
77	0x3df2d2e7	0.11856633
78	0xbdb5c4b2	-0.08875407
79	0x3c78f71f	0.015195637
80	0xbe2ce16a	-0.16882864
81	0xbd1b2595	-0.037877638
82	0xbe12f29b	-0.14350359
83	0xbe0fbf65	-0.14037855
84	0xb9855e5c	-0.0002543804
85	0xbde24824	-0.11048916
86	0x3d01dd20	0.03170502
87	0xbd4c5c70	-0.049892843
88	0xbcac69ce	-0.021046545
89	0xbd9d9939	-0.076952405
90	0xbd9b90cd	-0.07595978
91	0xbda5e8fd	-0.081010796
92	0x3dfb83e3	0.12281015
93	0x3d2a4865	0.041572947
94	0x3dfae85c	0.1225135
95	0x3d1ea501	0.03873158
96	0x3e1fe877	0.15616022
97	0xbda0ce93	-0.07851901
98	0xbe1633ce	-0.146682
99	0x3d30927b	0.043108445
100	0x3dbe9c92	0.09307207
101	0x3dba9236	0.09109919
102	0x3c218ccd	0.00986023
103	0xbc917bfa	-0.017759312
104	0xbd902044	-0.07037404
105	0x3ddcdba8	0.107840836
106	0xbd3431b8	-0.043992728
107	0x3d61dd61	0.055142764
108	0x3df47ca4	0.11937836
109	0xbe1bb576	-0.1520594
110	0x3dbc6859	0.0919959
111	0xbd9196c6	-0.07108836
112	0x3de7ac6a	0.11312182
113	0xbceb1ace	-0.028699305
114	0x3e183f37	0.14867865
115	0xbda96789	-0.08271701
116	0xbdc7b1fc	-0.09750745
117	0x3d7b80a8	0.061401993
118	0x3e1f7a21	0.15573932
119	0xbd708389	-0.05871919
120	0xbe099c04	-0.13438421
121	0xbe1aa9fc	-0.15103906
122	0x3e08ed30	0.1337173
123	0x3da4278f	0.08015358
124	0x3ce8cc56	0.028417747
125	0x3db2ea9d	0.08736155
126	0xbda49e3d	-0.08037994
127	0x3e1a382f	0.15060495
128	0xbd8fae91	-0.07015718
129	0x3db2dc67	0.08733445
130	0xbe28e5b8	-0.16493881
131	0xbdd21c28	-0.10259277
132	0xbd825b2f	-0.06365048
133	0x3dfddfc4	0.123961955
134	0xbcfbceff	-0.030738352
135	0xbd244ae6	-0.04011049
136	0x3e212414	0.15736419
137	0x3e02e7ee	0.12783787
138	0xbe1bb05f	-0.15203999
139	0x3da3e19d	0.08002017
140	0xbe2481a6	-0.16065082
141	0xbe0867da	-0.13320866
142	0xbd553068	-0.052048117
143	0x3d92bc30	0.071648
144	0xbd86cd38	-0.06582111
145	0xbe24f0a4	-0.16107422
146	0xbd31405f	-0.04327428
147	0xbd5c6c74	-0.053814366
148	0x3e1fba3d	0.15598388
149	0x3cfdf717	0.03100161
150	0x3d3d4792	0.046210833
151	0xbdce08c5	-0.100602664
152	0x3dc701cf	0.09717142
153	0x3dbd091e	0.092302546
154	0xbe42dbbe	-0.19029137
155	0xbd56d945	-0.052453298
156	0x3e298a58	0.1655668
157	0xbdfba204	-0.122867614
158	0x3e0c29ad	0.13687773
159	0xbd0c75a8	-0.034291893
160	0xbe0aa6f6	-0.13540253
161	0x3d0a6759	0.033789966
162	0xbd3fd32e	-0.046832256
163	0xbd86b3e3	-0.065772794
164	0x3d173e1a	0.03692446
165	0xbe12f606	-0.14351663
166	0xbcb16084	-0.021652468
167	0xbe0cb1bf	-0.1373968
168	0x3de1bc95	0.11022297
169	0x3df980ea	0.121827915
170	0x3df7df85	0.1210318
171	0x3cd62593	0.026140964
172	0x3d0cb804	0.03435518
173	0xbd065b0a	-0.032801665
174	0xbde46474	-0.111519724
175	0xbd7a0bae	-0.061046295
176	0x3c94390f	0.018093614
177	0x3bc9577a	0.006144461
178	0x3e17f50a	0.14839569
179	0x3e10bda2	0.14134839
180	0x3de9d2ff	0.114171974
181	0x3d70cfb3	0.058791827
182	0x3e229624	0.15877587
183	0xbd54d930	-0.05196494
184	0x3d14f684	0.036367908
185	0xbd85e957	-0.06538647
186	0x3d4b3fd1	0.049621407
187	0xbe4cdc4b	-0.2000591
188	0x3dc7c6cf	0.097547166
189	0x3d504e1c	0.05085574
190	0xbe251185	-0.16119964
191	0xbd7cb8c0	-0.06169963
192	0x3e241a3c	0.16025633
193	0x3dcd0c93	0.10012164
194	0xbd513425	-0.05107512
195	0xbe08f924	-0.1337629
196	0x3e08da3d	0.13364501
197	0x3c42f734	0.011899758
198	0x3db9604d	0.09051571
199	0xbe2ca2d4	-0.16858989
200	0xbd114a00	-0.035470963
201	0xbd712ae1	-0.058878783
202	0x3d003c24	0.031307355
203	0x3e33e61d	0.1756825
204	0x3e1fa04b	0.1558849
205	0xbe2d4c1d	-0.16923566
206	0x3e153e23	0.14574485
207	0xbd4fd2d5	-0.050738174
208	0xbd839f1c	-0.06426832
209	0xbdb7db4e	-0.08977376
210	0xbdbaac70	-0.09114921
211	0xbab3481f	-0.001367811
212	0xbd8999a3	-0.06718757
213	0x3e14466d	0.1447999
214	0x3dab6a73	0.08369913
215	0x3dde36dd	0.10850308
216	0x3d0106a0	0.03150046
217	0x3d2fa731	0.042884056
218	0x3b427d53	0.002967675
219	0xbe1a5df0	-0.15074897
220	0xbd0c4b25	-0.03425135
221	0xbd2fa50d	-0.042882014
222	0xbe2aedd7	-0.16692291
223	0x3db7b7fb	0.08970638
224	0xbd00e53b	-0.03146861
225	0xbdd4334a	-0.10361345
226	0xbe0b07f9	-0.1357726
227	0xbd6e27a4	-0.058143273
228	0xbdd49f81	-0.103819855
229	0x3dda9f67	0.10674935
230	0xbe0fc787	-0.14040957
231	0x3e530cf4	0.2061041
232	0x3d3c96b4	0.04604216
233	0x3e021576	0.12703499
234	0xbe0bb991	-0.13645007
235	0x3dae44bc	0.08509204
236	0x3dec579f	0.1154015
237	0xbe0bc8c5	-0.13650806
238	0x3e41bd7a	0.18919936
239	0x3d825c7e	0.06365298
240	0xbdf72195	-0.12066952
241	0x3dfc6a77	0.12324994
242	0xbc89d94a	-0.016827244
243	0xbd6de5fb	-0.058080655
244	0xbd5eca45	-0.054392118
245	0x3d434e3b	0.04768203
246	0x3a87a719	0.0010349482
247	0xbcdf9e9d	-0.027297312
248	0x3d9cdcdb	0.07659312
249	0xbca53c6c	-0.020170413
250	0x3c8b26e2	0.016986314
251	0xbdcfdd3b	-0.10149618
252	0x3e02546d	0.12727518
253	0x3dcf38ec	0.10118279
254	0x3ba02f74	0.0048884694
255	0xbd712a60	-0.058878303
