Models_Attention/net_3_2_epoch_31.pth (torch, 267633 bytes, 31 tensors)

embedding.weight f4 [32, 1]
00000000: 5bd3 b93e 75dc ac3e 38be bc3d 2b7b 073e
00000010: 90b4 92be a3d2 813e 20ab 833d 8455 83be
00000020: 2901 af3e f3ff b33e 08ef 96bc 6393 82be
00000030: c965 1ebe c3c6 80bd f3db 9fbe ddd8 f53d
00000040: 4638 9a3b b01a 95be d097 14be b6ac 0bbe
00000050: 8bf2 833e 725b 72be dd4f 923e 17d0 833e
00000060: 8165 b7be 90ed a4be cdef 143d 567c 823e
00000070: b174 8ebd d441 3abe 045b 85be b95c 493d
0.36294064 0.33761945 0.09215969 0.13230579 -0.28653383 0.25356016 0.06429124 -0.2565118
0.34180573 0.3515621 -0.018424526 -0.25503072 -0.15468515 -0.06287911 -0.31222495 0.12004254
0.0047064153 -0.29121923 -0.14511037 -0.13640103 0.25770983 -0.23667696 0.28576556 0.25744697
-0.3581963 -0.32212496 0.036361504 0.25485486 -0.06955851 -0.18189174 -0.26046002 0.049160693

embedding.bias f4 [32]
00000000: 1fd5 36bd 744a 59bc 9e98 f6bb e6f7 513c
00000010: 7ec5 b73c 3e0d 0fbc c033 f43b 5cc4 ba3c
00000020: 95ac 91bc 580e be39 5ef3 103a 3a77 bd3c
00000030: 7976 1e3d e1cf 773c fac5 ab3b a93b 343c
00000040: 596a 17bc adb2 e13c 7d50 2c3c d624 f13c
00000050: 1e7e cbbc b19c 463d 87ff d8bc 780f a5bc
00000060: f438 d73b 851e a53c 9f12 88bb 8f48 efbb
00000070: 0e14 fe3c d879 933b ea19 903c b7dd 0cbb
-0.044636842 -0.01326238 -0.0075255176 0.012815451 0.022433039 -0.0087311845 0.007452458 0.02279871
-0.017782489 0.0003625031 0.00055294286 0.02312814 0.038687203 0.015125246 0.0052421065 0.011000552
-0.009241664 0.02755102 0.010517237 0.02943651 -0.02484041 0.048489276 -0.026489032 -0.020148978
0.0065680686 0.020156154 -0.0041526104 -0.007302351 0.031015422 0.004500609 0.017590482 -0.0021494457

attention.in_proj_weight f4 [96, 32]
00000000: bdcf 39be f7b9 01be 8f91 07be 4e0f 423c
00000010: b0a1 863d 6add 41bd 2920 d63d ed2b 623d
00000020: 5532 dfbd 4781 f03c d20c 4cbe af14 1fbe
00000030: 5ef6 673d 3b41 fbbd 33c4 c13d bcfa 2fbe
00000040: 20a9 703d 3e12 32be 9446 6abe 4881 cb3d
00000050: c460 943d 2d59 89bd 345a 3f3b 116e 11be
00000060: 9116 483e c846 ed3d 1fd1 963d 5b4f 25bd
00000070: e9c6 3abe 04de 9e3d e81f fc3d df7e bdbd
00000080: 6b07 c9bd f248 c73c acf8 44be d4e1 40be
00000090: 9f94 10bd 8d24 89bb 412a 533e a6a0 02be
000000a0: 94b2 7ebd 6183 193e 646d a33d 0bde 393e
000000b0: ff6f 36be 7a0e f7bd 8be6 4b3d e645 71bd
000000c0: 70e0 0cbe 32eb c23d d201 073d 9911 323e
000000d0: 4499 9d3d d3f4 7e3d 5da8 363e bb99 e73d
000000e0: b995 edbd 5dcb 7b3c 9e07 223d 1c6a d93d
000000f0: 7abb cfbc 8cf0 0b3e e2ee 1bbe 7185 96bd
00000100: ca91 6c3c 2d2c 373d c6a6 8ebc d2ae 50be
00000110: 6b8f e3bc a6df 2b3e b8ff 4f3e 8550 84bd
00000120: a4ef 493e 9a2b a1bd 3611 0fbe fa6d 19be
00000130: 4651 523e dd40 74bc e87b a13d ddf7 4b3e
00000140: 44db 3bbe d0d2 4f3e d13f 233e 331b dc3d
00000150: 9754 023e cdb8 bcbd 72fe 0b3e e692 03bd
00000160: 9fa8 9cbd f7d1 1bbe b25b 49bd 2685 df3c
00000170: f1d6 a13c b387 be3d 0377 3c3e 1761 ffbd
00000180: bda3 d2bd 7b23 5ebb 6b88 50be c92f ad3c
00000190: 50b6 1c3e 4690 4b3e 80a3 6dbd 0721 673d
000001a0: f498 35be 24dc 873d 31e2 45bd 19e4 1dbe
000001b0: c4a2 cd3d 8286 323d a6c8 b93d 8d1a e9bc
000001c0: 27f1 a5bd 87c1 a63d f560 e43d 8792 0dbe
000001d0: a28f 163e dc6d 1cbe 3701 2fbe 8394 4dbe
000001e0: be0d f8bc ca72 07be a0cf 993d b38f 0c3e
000001f0: 0c17 22be e514 d6bd 7369 b23c d61c 6dbd
00000200: 27ab 083e 50cd 023a 877e fe3d 2223 423c
00000210: 4526 04be 35db c13d a9e7 22be ae2d 84bd
00000220: ca38 e73d c9a7 69be 8356 1cbe daea 0a3e
00000230: e86c 42bd 0900 1c3c afd6 efbd 04c7 593d
00000240: dbeb 30be 4709 41bc a858 463e bbb7 dc3c
00000250: 9041 273d c109 a13d bbb4 05be 2df9 833d
00000260: e95e 3d3e 6436 123e d9df e43d b1e5 31be
00000270: 4a51 533e fb30 213e db5b 683d 2c4d d7bd
00000280: 4b0c 3fbe 7c9b 31be d40f 14be 8940 5ebe
00000290: 4b2e b53d 0140 153e 69c2 d63d c193 e33d
000002a0: 79cd 23be 3280 0d3e 8b78 1d3e e0aa 49be
000002b0: e7bf 45be c7df 81bd cec3 1cbe 186f bd3c
000002c0: 0ece 2a3e 1f4c 7c3d 137b b0bc 0cdd 52be
000002d0: 0579 b53c b47d 473e 8bc9 32be 9df3 a13d
000002e0: 999d 9c3c 5e10 54bd f9fe f9bc 5fb2 d63c
000002f0: 61b8 303e ebf0 1cbc caaa 41be 6b79 09be
00000300: 9753 23be 1bc3 193d d82d 44bd a4e0 1a3e
00000310: d761 53bd 76ac 93bd b5c9 2c3e 462a 043e
00000320: d10a 053e 4c10 a93d 07fc 4a3e d828 c4bd
00000330: a330 a13c 45ba ebbd e600 da3c 94a6 01be
00000340: 04b6 62be 8be7 5fbd 38d9 9abb 520a d5bc
00000350: ee25 013e b980 02be 52c1 2d3e 8344 2c3e
00000360: b0d7 553d a460 40be a7cf 76bd 3156 ddba
00000370: d89c fbbd ae5a 03be e391 05bc 5e28 45be
00000380: 085a 89bd 30b0 f0bd 4600 843d d4fa 103e
00000390: 1e71 11be a279 ad3b 2d52 093e 7022 22be
000003a0: 5a88 b53d 706a 39be 6433 d4bd c30a 263d
000003b0: 6bbc 1cbd 4b2a dfbd 7fc4 b23d f488 d03d
000003c0: 21ca 8f3c 23d3 1fbe ed00 48be 15ca c2bd
000003d0: 1851 92bd 72be 753d f456 843c 026c fabd
000003e0: e903 2ebb 7479 4f3e 8375 85bd 7323 99bd
000003f0: 2475 103e e2e3 4b3e 4028 173e 665a 9d3d
-0.18145652 -0.12668596 -0.1323912 0.011844469 0.06573808 -0.047330298 0.10455353 0.055217672
-0.10898272 0.02935852 -0.19926766 -0.15535234 0.05663144 -0.12268301 0.0946125 -0.17185491
0.05875504 -0.17389771 -0.22878486 0.09936768 0.07245019 -0.06706462 0.0029198052 -0.14202143
0.19539858 0.11585766 0.073641054 -0.040358882 -0.1823994 0.0775719 0.12310773 -0.09252714
-0.09815868 0.024326775 -0.19235486 -0.18836147 -0.035297986 -0.0041852654 0.20621587 -0.12756595
-0.062182024 0.14991523 0.07979849 0.18151109 -0.1781616 -0.12063308 0.04978041 -0.05890455
-0.13757491 0.09517516 0.03296072 0.17389525 0.07695249 0.0622452 0.17837663 0.11308619
-0.11600823 0.01536831 0.039558046 0.10615942 -0.02535795 0.1366598 -0.15227845 -0.07349671
0.014439056 0.044719864 -0.017413508 -0.20379189 -0.027778348 0.16784534 0.20312393 -0.064606704
0.19720322 -0.078696445 -0.13971409 -0.14983359 0.20538816 -0.014908043 0.07884961 0.19918771
-0.18345362 0.20295262 0.15942313 0.10747375 0.12727581 -0.092149355 0.13671282 -0.032122515
-0.076493494 -0.15216814 -0.049159713 0.02728517 0.019755812 0.09303226 0.18404774 -0.1246969
-0.10285137 -0.003389566 -0.2036454 0.02114095 0.15303922 0.19879255 -0.058017254 0.05642798
-0.17734128 0.06633785 -0.048311416 -0.15419044 0.10040811 0.043585308 0.09071474 -0.028455043
-0.08102637 0.08142381 0.111513056 -0.13825427 0.14703229 -0.15276283 -0.17090307 -0.20076184
-0.03027999 -0.13227382 0.075103045 0.13726692 -0.15829104 -0.10453204 0.021778798 -0.05788883
0.1334654 0.00049897004 0.12426477 0.011849197 -0.12905224 0.094656385 -0.15908684 -0.06454025
0.112901285 -0.22817911 -0.15267377 0.13566151 -0.047467142 0.009521493 -0.117108695 0.05316831
-0.17277472 -0.011781997 0.19369757 0.026943078 0.04083401 0.078631885 -0.13057224 0.06444011
0.18493237 0.14278561 0.11175508 -0.17372777 0.20636478 0.15741341 0.056728225 -0.10512766
-0.18657033 -0.17344469 -0.14459163 -0.21704306 0.0884672 0.14575197 0.104862995 0.11112166
-0.1599635 0.13818434 0.15378015 -0.1969409 -0.19311486 -0.0634151 -0.15309069 0.023124263
0.16680166 0.061596032 -0.021543061 -0.20592135 0.022152433 0.19481546 -0.17459695 0.07907794
0.019118117 -0.05177342 -0.030517088 0.0262081 0.17257835 -0.009578924 -0.18912807 -0.13425224
-0.15949856 0.037539583 -0.047895283 0.15124756 -0.05160698 -0.07210629 0.1687382 0.12906751
0.12992407 0.082550615 0.19822703 -0.09578103 0.019676512 -0.115101375 0.026611757 -0.12661201
-0.22139746 -0.054664176 -0.0047256015 -0.026005898 0.12612125 -0.12744416 0.16968277 0.1682301
0.05220765 -0.18786865 -0.060256626 -0.0016886649 -0.12285775 -0.1282756 -0.008152458 -0.1925368
-0.06706625 -0.11752355 0.06445365 0.14158183 -0.14203307 0.005294041 0.13410254 -0.1583345
0.088638976 -0.18107009 -0.103613645 0.040537607 -0.038265627 -0.108967386 0.08728885 0.10182372
0.017552437 -0.15607886 -0.19531603 -0.095112 -0.07144374 0.059996076 0.016154744 -0.12227632
-0.0026552624 0.20261174 -0.06516554 -0.074774645 0.14107186 0.19911149 0.14761448 0.07683258

attention.in_proj_bias f4 [96]
00000000: 0fae 993c 0ac6 953c 14ec 97bc 3be0 8ebc
00000010: 96e7 93bc 6ff8 6ebc 90ef 23bc f557 88bc
00000020: c693 16bc 52a3 8ebc 29d5 253c 37fa 453c
00000030: e0ea ddba 6192 d53c 7133 a83c 7e79 9e3c
00000040: 0047 093b f39e 813c ce38 b4bc e208 b8bc
00000050: 673a b73c bbc6 94bc 889b b83c 96c6 a53c
00000060: 9c6b 17bc c627 a4bc 5395 06bd 592b 943c
00000070: 0d10 7ebc 2279 89bb 690f 033d 0464 8bbc
00000080: 011d 90bb 17f4 95ba 553c 933b dc91 0c3b
00000090: 585d 60bb 8268 bfbb e6d3 833b eed2 81bb
000000a0: 0f30 81bb 74d1 a6bb f6de 40bb 3411 9b3b
000000b0: 8140 8cbb 6d77 973b 887f 9d3b ec5f a43b
000000c0: 0f8e 833c 5d50 823c f2bd 89bc b3bd 82bc
000000d0: 646b 8f3c 4dcb 87bc 8ff7 7c3c 85f3 6e3c
000000e0: c730 24bb a77a dbba e860 1b3b 510f 26bb
000000f0: 0093 283b 431d 3abb 8e11 1fbb 3ebe 5e3a
00000100: e647 213b 0aa6 a33c 9ad4 263b fa78 6fbc
00000110: 1304 4f3c 1f14 8b3c b1c3 803c 561b 79bc
00000120: 41f5 7b3c 8a41 e8bb 5760 4a3c 9082 433c
00000130: 867c 64bc a994 dabc 4100 95bc 1e12 04bb
00000140: 8184 d23c 0824 f6bc 1313 383c cba8 233b
00000150: 094f 8a3b c3e1 1ebc 7175 ae3c fd5e 64bb
00000160: 18c8 33bb 738f 7a3b 6bb3 46bc 2356 ff3b
00000170: 25ce 963a e1bd 0abc 3cfb 8b3a 6a71 983c
0.018759755 0.018282909 -0.018545188 -0.017440906 -0.018054765 -0.014585598 -0.010005847 -0.016643504
-0.009190505 -0.017411862 0.010121622 0.012083582 -0.001693096 0.026070775 0.020532342 0.019345041
0.002094686 0.015822863 -0.021999743 -0.022465173 0.022366716 -0.018161168 0.0225351 0.020236295
-0.009241965 -0.020038497 -0.03285725 0.018087076 -0.0155067565 -0.0041953484 0.03199712 -0.017015465
-0.004397989 -0.0011440542 0.004493276 0.0021449244 -0.0034235325 -0.0058413157 0.004023063 -0.0039619124
-0.0039424966 -0.0050908867 -0.002942977 0.0047322754 -0.0042801504 0.004622391 0.0048064627 0.0050163176
0.01605895 0.01590746 -0.016814206 -0.015959596 0.017507263 -0.016576434 0.015439882 0.014584427
-0.0025053488 -0.0016744927 0.0023708884 -0.002533872 0.0025722384 -0.002839879 -0.0024271938 0.0008496976
0.0024609505 0.019976635 0.002545631 -0.014616245 0.012635249 0.016977368 0.015718313 -0.015204271
0.015378297 -0.007087891 0.012352071 0.011932984 -0.013945704 -0.026682215 -0.018188598 -0.00201524
0.025697948 -0.030046478 0.011235016 0.0024972435 0.0042208475 -0.0096973805 0.021296235 -0.0034846656
-0.0027432498 0.0038232475 -0.0121277375 0.0077922507 0.0011505528 -0.008468122 0.0010679732 0.018608768

attention.out_proj.weight f4 [32, 32]
00000000: 1cab ec3d d03b 503d 7857 123d 1826 f5bd
00000010: 83f1 b73d f766 973d 9bbb 00bc 1b5c 373e
00000020: 7e0c 51bd 05d8 823c 61b3 8d3d 4a39 abbd
00000030: f684 3f3b 5117 ebbd 9868 183e ecb0 13be
00000040: d5ba bbbd 42b0 0c3e ccb3 fd3d a4c8 973d
00000050: 268c 6dbd 20ac 1bbe a216 ddbd c573 01bc
00000060: e5a7 163d e068 263e 92be 1abe 2dc8 15bd
00000070: 5e44 2e3c 3ade f6bc 9e79 babd 969a 08be
00000080: 052b 27be f280 2bbe 161c 03be 0fa8 55bd
00000090: 1aaf 343d eede bbbd 9e90 c5bd 0e36 9a3c
000000a0: 2082 8fbb 75a6 323d 23cb 94bc ce68 f0bd
000000b0: ad94 443e 0d88 f8bd 4b12 cf3d 039e 02be
000000c0: f5c0 983d 15fc 84bb ef4b d83d cbee 1a3e
000000d0: 75bc 183e fadc fdbd 37f6 0f3e 8de0 a03d
000000e0: 6bb8 fc3d 859d d1bd 0e25 51bd c808 813d
000000f0: 153b 2b3e 41bc 343d 95bb bfbd 353d edbd
00000100: 5b2e 013e ed74 b7bc ef49 0d3e 0c9d e73d
00000110: ff3b 12be ff7a af3d 166f abbc f6c2 2a3e
00000120: f64f 1f3e 3947 01bc a50e 77bd 1f17 c43c
00000130: ef3d 66bd b1e7 e3bc 97dd 683d e9eb ffbc
00000140: b178 6bbd 51ba d33d c1ac 22be fe36 9abd
00000150: d02c 803c c075 9cbd 75da e9bd 943a 04bd
00000160: fb8d 33bd 2abf 66bc fdb7 563c 1b9a 803d
00000170: 6b42 683d 2976 133d bc12 adbd de72 85bd
00000180: 7669 2d3c 6a34 843d 543f de3d 09f8 e73d
00000190: 1a0a 173e 46d0 a83d 9271 133e cb68 f53d
000001a0: 2ef2 023e 1169 3f3e fa07 15be bb13 05bd
000001b0: 62c2 8dbb 5847 bf3d ffd2 013e eb20 233e
000001c0: d36e 78bd 495b c53d b9df a3bc 6fe3 0abe
000001d0: cc4a 4dbd db36 ce3d e70d 76bb ada0 08be
000001e0: 806f 013e 7dd1 efbc 771d 01be 7a0e d03d
000001f0: 500f 1f3e 79a2 ce3d a020 4abd 31fb 823d
00000200: 1e42 56bd d808 e8bd 01f6 293e f1a1 56bc
00000210: 7d29 5d3d 3289 89bd 427b 9bbc a4ed 1c3e
00000220: c222 12be 97c1 103d adde c8bd 2545 663d
00000230: bbb2 ce3d 4a13 54bd 0ef3 49bd f692 093e
00000240: 5ad5 1d3e 1435 29be afde f83d 39c5 1dbd
00000250: ba11 333e 080c 11be 6e83 6f3c 6ae3 ea3d
00000260: e984 e93c 9d8b 9a3d 261e 9cb9 dd4f 07be
00000270: bfd4 413d 214a cd3d 06a1 473e bd3e 673c
00000280: 660d 643d 2e6f 1c3e 4d34 83bd d5ab 9c3c
00000290: 6fd9 d7bd b417 943d 683f 51be 6be8 fbbd
000002a0: ee6c 2e3e 9d7e 6e3b 05cc ed3c 9fad 343c
000002b0: ec04 29be 0ac0 21bd 5715 49bd d640 cd3d
000002c0: 9fde 133e e570 6cbd 586d dfbc 8f46 313d
000002d0: b99e 193e 28e9 98bd d8c1 dd3c 6d69 b0bd
000002e0: dea2 143d b907 863d 17bc 843d 2649 b23b
000002f0: f81b 84bc e671 cd3d 8ff3 813b f53a 873c
00000300: 2c01 e7bd 47b4 973d e4b5 cdbd 9129 96b9
00000310: 88d3 a83d e29d d3bc 165f dabc 1888 02bb
00000320: c365 fd3d 9272 82bd e77c 29be b6c6 193e
00000330: 4801 aa3d 23ad 0bbd b9e8 40bc 09f0 683c
00000340: 03c2 1abe b234 2f3c 994e be3c 5314 95bd
00000350: 30e3 32ba 5e00 123e 63ee a6bc 258a 273e
00000360: ac57 24bc 21dc 1b3e 42c0 68bc a2f5 d5bd
00000370: 3f92 f5bd 721a 1fbe 5bd6 ac3c b086 363c
00000380: 7247 c6bd f9ec 6a3d e457 f73d 3f9a d8bd
00000390: a7df 48bd 184f c0bd 23d2 f73d e222 34be
000003a0: 0c35 f6bd 35c2 21be 5497 923d d77a 06be
000003b0: 4fbb be3d f16f 40bd e000 2fbe 4407 8f3d
000003c0: 62a5 22be 0674 1bbd 6f56 97bb a71f 9a3d
000003d0: 3edd 81bd aced 293d f28b df3d 2d45 323b
000003e0: 2b78 233e 2c81 973d 8ccb 023e 1d80 023e
000003f0: eb68 bebd 6ec7 dfbd 4316 53bd 08bb 2dbd
0.11556074 0.05083829 0.035727948 -0.119701564 0.089816116 0.07392686 -0.007857229 0.17906229
-0.051037304 0.015972147 0.069189794 -0.083605364 0.0029223538 -0.114790566 0.1488365 -0.14422959
-0.09166495 0.13739112 0.12387809 0.07411316 -0.057994984 -0.15202379 -0.107953325 -0.007901137
0.03678121 0.16250944 -0.1511176 -0.036567856 0.010636417 -0.030135263 -0.09105228 -0.1334022
-0.16325004 -0.16748407 -0.12803683 -0.052162226 0.044112302 -0.0917338 -0.09646724 0.018824603
-0.004379526 0.043615777 -0.01816327 -0.1173874 0.1919734 -0.121353246 0.10110911 -0.12755589
0.07458679 -0.004058371 0.10561358 0.15130155 0.1491564 -0.123956636 0.14058767 0.0785533
0.123398624 -0.102351226 -0.05106073 0.06300503 0.16721757 0.044124845 -0.0936195 -0.1158394
0.1261534 -0.022394622 0.13797735 0.11309251 -0.14280699 0.085683815 -0.020926993 0.16675934
0.15557846 -0.007890516 -0.0603167 0.023936806 -0.05621141 -0.02782044 0.05685195 -0.03124042
-0.057488147 0.103382714 -0.15886213 -0.0753002 0.015646368 -0.076396465 -0.114186205 -0.032282427
-0.043836575 -0.014083663 0.01310539 0.06279393 0.056703966 0.03600136 -0.08450839 -0.0651605
0.010584226 0.0645531 0.10851923 0.11326606 0.14749947 0.0824285 0.14398792 0.11982878
0.12787697 0.18692423 -0.14553824 -0.03248952 -0.0043261508 0.093397796 0.12678145 0.15930526
-0.060652565 0.09636552 -0.02000414 -0.13563322 -0.05012016 0.100690566 -0.0037544908 -0.13342543
0.1264019 -0.029274696 -0.12608896 0.10159011 0.15533185 0.10089583 -0.04934752 0.06395567
-0.052309148 -0.11329812 0.1659775 -0.013100133 0.053994644 -0.06715621 -0.018979672 0.15325028
-0.14271072 0.03534087 -0.09808097 0.056218285 0.10092684 -0.051776208 -0.04930406 0.13434967
0.15413418 -0.16524154 0.121518485 -0.038518164 0.17487231 -0.14164746 0.014618738 0.11469157
0.02850576 0.0754616 -0.000297771 -0.13214059 0.04732203 0.100239046 0.1949502 0.014114079
0.05567684 0.15276787 -0.0640646 0.019124905 -0.10539519 0.072310835 -0.20434344 -0.123001896
0.17033741 0.0036391385 0.029027948 0.011027723 -0.16505784 -0.039489783 -0.049092617 0.10022132
0.14440392 -0.057724852 -0.027273819 0.04328018 0.15001954 -0.07466346 0.027069971 -0.08613858
0.036288135 0.06544442 0.06481188 0.005440849 -0.016126618 0.1003149 0.003965802 0.016507605
-0.112795204 0.07407432 -0.100444585 -0.000286412 0.082434714 -0.02583212 -0.026656669 -0.0019917544
0.12372925 -0.06369509 -0.16551553 0.15017208 0.08301026 -0.034100663 -0.011774235 0.014217385
-0.15113072 0.010693716 0.023230838 -0.07279267 -0.00068240147 0.14257953 -0.020377344 0.16361292
-0.010030668 0.15220691 -0.014205994 -0.10447241 -0.11990785 -0.15537432 0.021098306 0.01114051
-0.09681596 0.0573549 0.12077311 -0.10576295 -0.049041416 -0.09390086 0.12100627 -0.17591432
-0.12021837 -0.1579674 0.0715777 -0.13132797 0.0931307 -0.046981756 -0.17090178 0.06983808
-0.15883401 -0.037952445 -0.004618458 0.075255685 -0.06341027 0.041486427 0.10915364 0.0027201877
0.15963809 0.073976845 0.1277296 0.12744184 -0.09297355 -0.1092671 -0.051534902 -0.042414695

attention.out_proj.bias f4 [32]
00000000: 0845 0abc 7377 363b f1ba 34bb b2c7 14bc
00000010: 9a18 6e3b f546 053a 8786 e23b 6379 9c3c
00000020: fed0 133c 5eaf 93bc 0115 babc b089 843c
00000030: 8ae4 ec3b d62e 5abc 2adb fe3b 0948 fcb7
00000040: 508a 013a a1a8 bf3b 579c 0cbb 9ebd cbbb
00000050: 9512 b23c 22b1 b4b9 b26c 8ebb c5cc d73b
00000060: 4451 46bc d96b bf3b 83cb dcbb 25e3 59bc
00000070: 63eb 5a3c 3c9e 513c 3fc5 77b8 6135 c4bb
-0.00843931 0.0027842193 -0.0027577246 -0.009080814 0.0036330582 0.0005084121 0.0069130096 0.01910085
0.009021996 -0.018027958 -0.022715094 0.016178936 0.0072293924 -0.013316831 0.0077775912 -3.0074285e-05
0.00049415696 0.0058489596 -0.002145549 -0.0062176725 0.021737376 -0.0003446425 -0.0043464536 0.0065856897
-0.012104336 0.005841714 -0.0067381277 -0.013298784 0.013361785 0.012794074 -5.907309e-05 -0.0059878086

nnECG.0.weight f4 [128, 384]
00000000: 53e6 a43d 3f13 8d3d 1267 cbbd e909 7b3d
00000010: 57c4 bfbb 4db4 44bb 129f abbd f5a1 b13d
00000020: d913 863d fe64 643a a699 b8bd f2bb 1cbd
00000030: 68dc 76bd 6f19 e1bd e8e8 4c3d e66f 3c3c
00000040: 1a06 bfba c539 d13d 7908 9fbb b065 af3a
00000050: b03d f53d 5c88 3fbd 94da 81bd b403 903d
00000060: 50ce ae3d 2931 8d3c 57f3 3fbd c9a2 993d
00000070: fcf9 4b3d 6d0b 903d 9d7b 8cbd d5f7 c8b8
00000080: c3d4 ac3d 7f8b ba3d 4429 963a cb88 13bc
00000090: b52b 00be 7e5f d2bd 894a acbd 9647 a23c
000000a0: 3ab1 bfbd 1c9e 18bd d1e8 5fbd 432c 30bc
000000b0: 1276 e13d 8c6d a3bd ae5f 52bd 3795 203c
000000c0: cc44 8e3d a815 b93c b437 8fbc e64a 18bd
000000d0: a1fd 113d 3a64 7b3d 31c1 30bd cce6 273d
000000e0: 7c5e 5ebd 88b3 90bd 6341 cc3d ef0a 813d
000000f0: b05d ac3d 015d aa3d 9370 d3bd 4359 8abd
00000100: a7fb dbbd 5860 0abc 9546 153d 67af 363d
00000110: da54 e33c 2a24 fe3a 42c2 7b3d 90e4 3a3c
00000120: aae9 ab3d 3404 8e3d 04d7 d23d 58ad 163d
00000130: 563a 203d c896 9ebb 9070 523b 721c bb3c
00000140: 8144 89bd 3887 163d 9844 41bd 2494 b9bd
00000150: 300c 79bd 5a22 00bc 7cc8 813d 66ec 153d
00000160: 9831 5d3d 1adf 86bd 0fa9 0abd a0e1 a1bd
00000170: 106c 0abc 6311 1f3d 1b61 a63d 11f4 4dbd
00000180: c7ba 44bd 337e 293d b3e8 6a3d af33 523c
00000190: ad0d 48bd 5adb d23d a0f2 91bd 1f68 503d
000001a0: 0b17 63bd d2b9 b83d b035 98bd 5b75 e8bd
000001b0: b7ae 383c 34f0 c8bd 75dd bebd 6f52 af3c
000001c0: 09b3 9bbc 5bf6 043c 8a9e 73bd 7260 65bd
000001d0: 6234 b73d 373a 3fbd b37f 3b3d afd3 56bc
000001e0: 2dae bb3d c4cb c23d 9c9d b2bd 20a1 843d
000001f0: 5462 043d ef1b 383d 2e44 6f3d 70de 353d
00000200: d322 35bb 55d3 85bd 81f8 c6bd 03c0 d23d
00000210: 6dcb 713d 11e3 693d 7fe2 533d 11cc abbd
00000220: 6bb7 59bd dc39 993d 1d8a 8b3d a699 e9bd
00000230: c9e7 31bd 4ee1 153c a04a d7bd 4793 603c
00000240: 30f3 a3bd f985 79bd 3819 303c 37fa 93bd
00000250: 203b a0bd 7f95 9c3d bd3d f23c 83b4 59bd
00000260: 06da aabd 85ea 7b3d 6d17 3fbd 559e 8e3d
00000270: aa96 93bd 3c14 66bd 7c10 333d 1960 c73d
00000280: 97ea 02bd 7676 913c efb2 ca3d a45b a23d
00000290: 6801 6dbd 9754 b7bb 2054 09bd 286a 853d
000002a0: cdab 80bd 0193 b9bd 897e 5dbd 1ddb 51bd
000002b0: 48b5 08bd 8429 cf3d 9a04 793c 96d0 76bd
000002c0: 7520 94bd 9703 bfbd 8272 553d 9989 b13d
000002d0: 649d 50bd 8953 e43d 63d3 363d df00 973d
000002e0: 49ae 2a3d fb24 8fbd a4ae d33d f0f9 96bd
000002f0: 2d00 c8bd 8188 763d acd9 b2bc 435e d4bd
00000300: d7cb 9f3d fc7e d1bd b2b9 e9bd a3ec d33c
00000310: f8b3 90bd fe33 d5bc 8ce8 85bc 45c5 c83d
00000320: cbd9 cebd d762 79bd 772e e53d f18d a73d
00000330: 4d6c db3d 4071 b6ba e258 a8bd b5d4 9cbd
00000340: 69f1 833d a689 7d3c 52f5 853d 6405 eabc
00000350: acf1 1b3d c34e c83d 1e43 d3bc 59ab 0a3c
00000360: bc3e 853d ff97 3e3d dca1 693d 8f06 a93d
00000370: fbeb 26bd 7a83 aa3d aecf 983d 492b 65bd
00000380: 3b16 8c3d 5b62 a73d ca33 ccbd 7865 6cbd
00000390: ddb7 103d 33f8 89bd 00fc e1bc a647 8b3d
000003a0: 2208 8bbd 2979 5e3d fa0e 31bd 97e9 a53d
000003b0: 2e6e 603d c8f9 1fbc c30b 4f3d 714c 2d3d
000003c0: 1b62 b43d 0f29 5e3c c0cc 05bd 64e8 47bd
000003d0: 7845 c43d 36ae ec39 7d93 773d b490 5a3c
000003e0: 9a25 7b3c 5222 d53d f441 3dbd 1399 4f3d
000003f0: 5232 aa3d cb4d 9ebd a655 3d3d 9725 24bd
0.08051743 0.068884365 -0.099317685 0.061288748 -0.005852263 -0.0030014694 -0.0837995 0.08673469
0.065467544 0.0008712559 -0.09013681 -0.038265176 -0.06026879 -0.10991179 0.050026804 0.011501288
-0.0014573962 0.10216097 -0.004853305 0.0013381746 0.119746566 -0.0467609 -0.063405186 0.07031956
0.08535445 0.017235355 -0.046862926 0.07501752 0.04979895 0.07033429 -0.06859515 -9.5829055e-05
0.084390186 0.09108638 0.001145639 -0.009004782 -0.12516673 -0.1027212 -0.08412654 0.019809525
-0.09359975 -0.03726016 -0.05466539 -0.01075274 0.11008848 -0.07979879 -0.05136078 0.009801201
0.06946716 0.022593334 -0.017482616 -0.037180804 0.03564227 0.06137488 -0.04315299 0.04099159
-0.054289326 -0.07065493 0.09973409 0.063009135 0.08416307 0.0831852 -0.10324206 -0.067553066
-0.10741358 -0.008445822 0.036444265 0.04460087 0.027750421 0.001938944 0.061464556 0.011407033
0.08394177 0.069343954 0.10294917 0.036786407 0.039118133 -0.004839752 0.003211055 0.022840712
-0.06702519 0.03675005 -0.047184557 -0.09061459 -0.06080264 -0.00782069 0.063370675 0.0366024
0.054002374 -0.06585522 -0.033852633 -0.07904363 -0.008448616 0.03883494 0.0812399 -0.050281588
-0.048029687 0.04138012 0.057350826 0.012829705 -0.048841167 0.10295744 -0.07126355 0.050880548
-0.055441897 0.090198174 -0.07432115 -0.11350509 0.011272124 -0.0981144 -0.09319583 0.021401612
-0.019006269 0.008115376 -0.059477367 -0.05600018 0.08945538 -0.046686377 0.04577608 -0.013111993
0.09164081 0.095115215 -0.08721468 0.06476045 0.032320336 0.044948515 0.05841463 0.044401586
-0.0027639165 -0.06534449 -0.09715367 0.102905296 0.059031893 0.057101313 0.051729675 -0.08388532
-0.053153437 0.07481739 0.068134524 -0.11406259 -0.04343394 0.009147955 -0.105122805 0.013706989
-0.08005369 -0.060918782 0.0107482 -0.07225459 -0.07823777 0.076457016 0.029570455 -0.053150665
-0.08342366 0.061502952 -0.0466532 0.06963793 -0.07206471 -0.05617164 0.043716893 0.09735126
-0.031962004 0.017756682 0.0989741 0.07927635 -0.05786267 -0.0055948007 -0.033527493 0.06514388
-0.062827684 -0.09061242 -0.05407575 -0.051234353 -0.03337601 0.1011534 0.015198851 -0.060257517
-0.07232753 -0.093268566 0.052111156 0.08668823 -0.05093135 0.111487456 0.044635188 0.07373213
0.041670118 -0.06989475 0.103360444 -0.073718905 -0.097656585 0.060188774 -0.02183231 -0.103695415
0.07802551 -0.102292985 -0.11412372 0.025869673 -0.07065576 -0.026025768 -0.016346239 0.09803251
-0.101001345 -0.060885277 0.11190503 0.0818137 0.10714016 -0.0013919249 -0.08220078 -0.07657758
0.0644253 0.0154747125 0.06540932 -0.028567024 0.038072273 0.097806476 -0.02578884 0.008463704
0.06506106 0.046531674 0.057039127 0.08253204 -0.040752392 0.083258584 0.07461487 -0.055949483
0.068401776 0.08173057 -0.099708155 -0.057713956 0.035331596 -0.06736793 -0.027585983 0.06800775
-0.067886606 0.054314766 -0.043227173 0.08101194 0.054792576 -0.009764142 0.050548326 0.04230923
0.08807775 0.013559594 -0.032665968 -0.04880561 0.095835626 0.00045143225 0.06044339 0.013340164
0.015328789 0.10406937 -0.046205476 0.050683092 0.08310379 -0.077296816 0.04622426 -0.04007491

nnECG.0.bias f4 [128]
00000000: 89c9 c13c a7cd b13c 8168 9e3c ae2d 793c
00000010: 13de 5b3a 36c9 8b3c 751e 37bc 195f 273a
00000020: 83ef bd3b 7688 d33c 3bef 5e3c c8f6 2bbc
00000030: 0d47 28bc baaa d0bc 8285 a6bb 9040 0b3d
00000040: 310a 92bc 6db0 acbc f55a e6bb fb2c 033c
00000050: 133d b9bb 17b8 963c 58f1 d43c 73f5 533b
00000060: 101b 843b 61c3 043d 5714 d53c 1a53 443c
00000070: 9998 3d3c c656 d93c dce1 2ebc 9392 d23c
00000080: 284a 423d 9c86 1abc 4d01 25bb 1f40 3fba
00000090: 81ff 53b9 de07 a43c 085b 8aba 1dba 0b3b
000000a0: 4f41 073b 1749 2d3b 8f5d b8bc 76ae d7ba
000000b0: 692c 9e3b 3a60 203c 8b43 7ebc 296e 153d
000000c0: 5dcf 3d3c 5b31 173d f605 1e3c 002c 00bd
000000d0: f028 933c d4c1 38bc 6de4 203c ac50 2abc
000000e0: ba8f a73c 6986 7d3b 2973 1bbd 720a 883b
000000f0: 5a35 0a3b e489 103c 974f e83b 432a 2ebc
00000100: 4461 ad3c fa50 3f3b 8472 f43b 10e2 c53a
00000110: 133a 6abb 5a9b b1bb cd08 b63c 88db 143c
00000120: 2ef1 7e3c e72a 423c 525c d3ba 9a12 413c
00000130: ce0b 363c ff22 efbb 5407 753c 5b69 dd3c
00000140: 98f2 fa3c ac5b b838 b41b 9c3c af38 99bc
00000150: 2f2a 393d 9729 4b3d 1638 ae3c 0ff2 b13c
00000160: f874 f63c 19fa 4c3d 8374 903c 0db0 563c
00000170: 46d2 ea3c 4273 9fbc b0b4 7e3c 0f94 9ebc
00000180: 1ac4 103d 7318 ba3c c88e 3ebc 09a3 013d
00000190: 439d ae3c 591c 4fbc ca6d 2a3b dd7f a03c
000001a0: f4dd a93c da37 a73c 1bc5 8f3a b079 9ebb
000001b0: af2e 263c 0094 c0bc 0921 a7bc 319d 3c3c
000001c0: 4820 f8b9 036a 15bc fb3c b4bc 6c0d 063d
000001d0: 6e0c 283d 8e1e f83b 0cf7 f639 b49e c03c
000001e0: 7e5c abbb 0e43 663c 8386 2a3c 6ba8 0f3d
000001f0: c6be 823c 841e c4ba 7f4b 863c 946b e2bb
0.02365567 0.021704508 0.01933694 0.015208645 0.00083872786 0.017063718 -0.011176695 0.0006384715
0.0057963743 0.025821906 0.013606842 -0.010495849 -0.010270846 -0.025472034 -0.0050818333 0.03399712
-0.017827125 -0.02108022 -0.007029886 0.00800633 -0.0056530326 0.018398328 0.025993988 0.0032342344
0.0040315464 0.03241289 0.026010675 0.011982704 0.011572027 0.026530635 -0.010673966 0.025704658
0.047434002 -0.009431507 -0.0025177777 -0.00072956266 -0.0002021771 0.020023283 -0.0010555694 0.002132065
0.0020638292 0.002644127 -0.02250555 -0.0016455192 0.0048270714 0.009788567 -0.015519033 0.03648201
0.011585084 0.036912303 0.009644976 -0.03129196 0.017963856 -0.011276681 0.009820086 -0.01039521
0.020454276 0.003868485 -0.037951622 0.004151636 0.002108893 0.008821938 0.007089566 -0.010630193
0.021164544 0.0029192553 0.0074599404 0.0015097279 -0.0035740181 -0.0054201307 0.022220993 0.009085543
0.015560431 0.011851049 -0.0016125536 0.01178422 0.011111213 -0.007297873 0.01495536 0.027027776
0.030633256 8.790879e-05 0.019056179 -0.018703787 0.045206245 0.04960021 0.021266978 0.021721868
0.030085072 0.0500432 0.017633682 0.013103497 0.02866472 -0.019464139 0.015546009 -0.01935771
0.035343267 0.022716736 -0.011630721 0.031649623 0.021315223 -0.012641036 0.002600538 0.01959222
0.020735718 0.020412374 0.0010968776 -0.0048362836 0.010142966 -0.023508072 -0.020401495 0.011512087
-0.00047326297 -0.009119513 -0.022001734 0.032727644 0.04102748 0.007572002 0.0004710484 0.023513176
-0.005229532 0.014054073 0.010408047 0.035072725 0.015960108 -0.0014962708 0.016393421 -0.006909797

nnECG.1.weight f4 [128]
00000000: b24e 7c3f 0a85 813f a7a8 7b3f b60f 7d3f
00000010: 00d9 7a3f 91ae 7b3f f766 7b3f 3fd3 793f
00000020: 46f8 7d3f 4ac8 773f 3911 7c3f 0d8d 7d3f
00000030: 9b47 793f ab83 773f d262 7f3f 1821 7e3f
00000040: e413 7d3f e060 793f f033 7b3f 5baf 7a3f
00000050: b747 733f 7bec 793f bdab 7a3f 04d3 7d3f
00000060: 097d 803f 20eb 7a3f 4309 7f3f 13cf 783f
00000070: cec9 803f c335 7d3f 3852 7a3f 8bd5 7b3f
00000080: 0450 7e3f d293 7a3f 3385 803f ed4c 7d3f
00000090: 9748 7d3f bf40 7c3f 3058 793f e2c9 7f3f
000000a0: e965 7c3f a1cc 7e3f d6fb 7a3f 9a76 7b3f
000000b0: 8069 743f 9729 7f3f d7cb 7a3f 4075 7c3f
000000c0: bacf 773f b117 7e3f 2869 7a3f 7f56 7c3f
000000d0: eef5 7b3f 9de9 7b3f d913 803f e8c6 773f
000000e0: b164 803f 854c 7a3f d03b 7c3f 8c06 773f
000000f0: 73a7 793f 7d5c 7c3f 598c 7a3f b365 793f
00000100: 00f1 7e3f 3ef8 793f 8d6f 7c3f 3776 773f
00000110: f203 773f a946 7b3f 0399 803f fcca 7b3f
00000120: 9340 7b3f 15e5 7b3f 7370 783f 3aa0 783f
00000130: a7ad 793f e042 7e3f 8080 7d3f de2c 803f
00000140: 13f9 7a3f 88ae 793f cbf4 783f da76 7b3f
00000150: 5459 813f 0149 833f 3845 813f e9aa 793f
00000160: 93d2 803f 2aae 7b3f 0356 823f 7db2 7a3f
00000170: 476d 7c3f 91a6 783f 0e6d 753f 2f34 7f3f
00000180: 502e 7c3f 2f68 7e3f 320c 783f fff8 7b3f
00000190: b398 7e3f 7041 793f c645 703f 43b0 7d3f
000001a0: c929 7b3f 8490 793f a37d 733f 78c7 783f
000001b0: 4a07 7f3f f274 793f d284 753f 5597 793f
000001c0: f665 743f 7be8 773f c149 7a3f 1bb9 7e3f
000001d0: b76f 7e3f 960e 7b3f a454 793f cbe0 7c3f
000001e0: 05a5 7a3f a444 7e3f 3f57 7f3f b04d 803f
000001f0: 588b 783f 0467 7f3f d74f 783f 64df 763f
0.9855758 1.0118725 0.9830422 0.988521 0.97987366 0.9831324 0.98203987 0.9758796
0.9920696 0.9678999 0.9846378 0.9904335 0.97374886 0.96685284 0.9976016 0.9926925
0.98858476 0.97413445 0.98126125 0.9792382 0.95031303 0.97626466 0.979183 0.9915011
1.0038158 0.9801502 0.9962351 0.9719097 1.0061586 0.9891016 0.97781706 0.98372716
0.99340844 0.97881806 1.0040649 0.98945504 0.9893889 0.98536295 0.9740019 0.99917424
0.98593 0.9953099 0.9804052 0.98227847 0.9547348 0.99672836 0.97967285 0.9861641
0.9680134 0.992549 0.97816706 0.9856948 0.98422134 0.9840334 1.0006057 0.9678788
1.0030729 0.9777301 0.98528767 0.96494365 0.9752113 0.98578626 0.97870404 0.97420806
0.99586487 0.9764441 0.98607713 0.96664757 0.96490395 0.98154694 1.0046695 0.98356605
0.9814541 0.98396426 0.97046584 0.97119486 0.975306 0.99320793 0.990242 1.0013692
0.9803631 0.9753194 0.97248524 0.9822823 1.0105386 1.0256654 1.0099249 0.97526413
1.0064262 0.9831263 1.0182499 0.979286 0.98604244 0.9712916 0.9586953 0.99689
0.9850817 0.9937772 0.9689361 0.9842681 0.9945175 0.97365475 0.93856466 0.9909708
0.98110634 0.9748614 0.9511358 0.97179365 0.996205 0.9744407 0.9590579 0.9749654
0.9546808 0.9683911 0.9776879 0.995012 0.99389213 0.9806913 0.97394776 0.98780507
0.9790805 0.9932349 0.997425 1.0023708 0.9708762 0.99766564 0.96996826 0.9643462

nnECG.1.bias f4 [128]
00000000: cd21 bc3c 5940 c73b 1b68 0f3c b627 29b9
00000010: 5a3b 67bc 911d cd3b 0396 f1bc 52c1 18bc
00000020: f1a6 b83b 9373 723c b9e8 993a 982b 28bc
00000030: 6b76 58bc b083 19bd 5ad4 f9bb e2b0 843c
00000040: bfee d4bc b1ba 9abc f217 bbbc 8b1e bcba
00000050: 1c53 c4bc 579e 1c3c 71a4 9b3b 08b2 abba
00000060: afc7 9ebb ca8c b63c fdbb 8a3c 7dc1 aebb
00000070: ceb2 853c 9816 b43b b52e d6bc 273b 873c
00000080: fb01 c83c af7d b2bc 428e b6bc 64bc 4cbc
00000090: 577b 90bc 1c69 0e3c cac2 57bc 11c4 3dbc
000000a0: 0f37 36ba 652d 06bb fa8e cbbc 7bb3 9ebc
000000b0: 4004 8abc 99a4 e3ba 94ed 04bc 6ee8 7e3c
000000c0: ef8b 8fbc ba16 0a3d 7dea 20bc 2eb8 d6bc
000000d0: 9e2d 1c3c d392 a4bc cd41 f13b 4559 0abd
000000e0: 3054 413c 53d5 bebc b5fb 05bd 0e8c 62bc
000000f0: 5fbb 7fbc f492 69bc d3f0 89bc d797 04bd
00000100: 5b70 273c 6cbf acbc 436e c8bb 3465 a0bc
00000110: 1761 febc 0dbc acbc 728f 973b 3790 063b
00000120: 07c4 443b b842 0d3b 9114 62bc af7f 47bb
00000130: a6f4 32bc 45c3 e0bb 04f1 d63b cc41 973c
00000140: 1bc4 9c3c 25a1 6abc 29f3 893b d83e 78bc
00000150: ab7e 433d 59fb 373d cc22 803c 5650 813c
00000160: e316 133c 59c4 063d de66 d53b 94b0 8d3b
00000170: 5a07 513c f79c d3bc 6ac9 c73b d0ed 91bc
00000180: 7a7c c53c 47b6 af3c 0d4e f0bc c33d 323c
00000190: 6ae3 453c 1ee2 8fbc f15a bebc bd21 ddba
000001a0: 089c eabb 13a2 083c eb98 17bc 30b6 9abc
000001b0: b91f 1a3b 577d 15bd f750 0ebd 47e7 a53b
000001c0: 852b acbb 3499 eabc 4932 f2bc 0a96 fb3c
000001d0: fe4a 9c3c ca5a 74bb 3e93 9bbc 7c88 993c
000001e0: 5a39 62bc 625b 263b fd8f 363c 9575 f13c
000001f0: ec4c c63a 515b 60bb f763 f239 3be2 c5bc
0.022965336 0.006080669 0.008752848 -0.0001613189 -0.014113272 0.006259628 -0.029490476 -0.009323435
0.0056351353 0.014798063 0.001174233 -0.0102643 -0.013211827 -0.037479103 -0.007624191 0.016197626
-0.02599275 -0.01888785 -0.022838566 -0.0014352364 -0.02396541 0.009559236 0.0047498276 -0.0013099322
-0.0048455815 0.02228393 0.016935343 -0.005333124 0.016320612 0.0054958574 -0.026145319 0.016507698
0.024415007 -0.021788446 -0.02228463 -0.012496088 -0.017636938 0.008692052 -0.013169 -0.01158239
-0.00069509534 -0.0020473835 -0.02484845 -0.019372692 -0.01684773 -0.001736778 -0.008113284 0.015558345
-0.01752278 0.03371308 -0.009821531 -0.02621087 0.00953236 -0.020089542 0.0073625804 -0.03377654
0.011799857 -0.02329508 -0.03271075 -0.013827337 -0.015608638 -0.014256228 -0.016838467 -0.03237137
0.010219659 -0.02108737 -0.00611666 -0.019579507 -0.031052155 -0.021085763 0.0046252543 0.0020532736
0.0030024068 0.002155466 -0.013798849 -0.0030441096 -0.010922587 -0.0068592154 0.006559493 0.018463992
0.01913648 -0.014320646 0.004209895 -0.015151702 0.047728222 0.04491744 0.015641592 0.015785377
0.008977625 0.032902095 0.006512507 0.0043240283 0.0127581 -0.025831683 0.0060970085 -0.017813593
0.024107207 0.021449221 -0.029334093 0.010878983 0.0120781455 -0.017563876 -0.023236724 -0.0016871017
-0.0071597137 0.008339423 -0.009252767 -0.018885702 0.0023517443 -0.036496487 -0.034745183 0.005062971
-0.0052542114 -0.028637506 -0.029564993 0.030711193 0.019078728 -0.003728556 -0.018991109 0.018741839
-0.013807619 0.0025384058 0.011142728 0.029475013 0.0015129126 -0.0034234116 0.00046232317 -0.024155727

nnECG.1.running_mean f4 [128]
00000000: b669 203e 57bf c0bd 1f1e 873d 507c 0dbe
00000010: aa11 d9bd 37b8 493d 0d34 113e fc94 9abb
00000020: c60e 2f3e c1ba 9a3d b1ba d63d 8bcd 3fbe
00000030: f5e6 59be 26e0 6a3d 77b7 263e 2872 ef3d
00000040: 08b6 a7bd 138b c2bd daae 733c c600 153e
00000050: 1522 49be 622d 873d b89b 44bd b649 cdbd
00000060: 90de 153e 384d 1b3e bcb1 2a3e d92b 093e
00000070: 4d23 2abe 18d9 f63d 8e2b d3bd 4614 023e
00000080: cfa9 ff3d 4fbf bbbc 39dc bebd 9392 71bc
00000090: 329c 16bd 096c 103e b31e 083e 5902 813e
000000a0: 47dd 123e c591 053e 8e55 413c 3e3f 0b3e
000000b0: 28de e2bc 059c ab3d ef4d dbbd 56dd 083e
000000c0: 753f 09bc 410e 2a3e 377f bf3d 4ca9 293c
000000d0: 0efa ac3d 8033 0fbe ad16 d73d 4ec8 da3d
000000e0: 4402 ad3d c6fc 7bbd baaf 12be c601 91bc
000000f0: 8566 ccbd adbc 043e f845 a0bd 7c41 61bd
00000100: a4ac 7a3d 61d1 f13d 253a d4bd 64de 1f3e
00000110: d083 15be 3fb2 d9bd cd4f 98bd 9c6d 383e
00000120: 55e7 d4bd 9374 773d 6d50 6e3d 66b6 e03d
00000130: c21c 3f3d 8761 02be e5c0 f83d 01a0 52be
00000140: 00ed 2e3e 746b b5bd 90f5 8539 812e 95bd
00000150: 7b79 c63c 0b6e 05be 0677 abbd 0f16 75be
00000160: de37 09be 74c5 e2bd d838 10be f9c5 c0bd
00000170: 2048 fc3d 5764 23be b25d b83d d429 d6bd
00000180: 69b3 d6bd 827f 443e 0d5a 0a3d 5dcc 013e
00000190: 186e 243e 1aae 00be 361e d9bc f145 da3d
000001a0: 7af3 a2bd 8d42 833d 602d eebd 3e13 8dbd
000001b0: 5288 08be b1f1 9abd 5103 c4bd a277 11bd
000001c0: a8fb 29be fe49 4cbe a65b 11be a3f9 0f3e
000001d0: e849 f63d fa87 073e 37b8 03bd 401b 803d
000001e0: b2b3 283e 77d7 773e e0f1 61be b4c6 0b3e
000001f0: 7111 a0bd f111 313e 1c2e 6dbd dac1 05be
0.15665326 -0.09411495 0.06597542 -0.13816953 -0.10599072 0.049247947 0.14180012 -0.0047174674
0.1709548 0.07555152 0.10484827 -0.18730752 -0.2127951 0.05734267 0.16280924 0.116916955
-0.081890166 -0.094991826 0.014873231 0.14551076 -0.19641908 0.06600453 -0.048000067 -0.10023825
0.14635682 0.15166175 0.16669363 0.13395633 -0.16615029 0.12053126 -0.10311042 0.12703046
0.1248356 -0.022918371 -0.09319348 -0.014744419 -0.036770053 0.14103712 0.13292961 0.25197104
0.14342223 0.13043888 0.011800183 0.13598344 -0.027693823 0.08379368 -0.10708224 0.13365683
-0.008376946 0.16607 0.09350436 0.010355305 0.08446132 -0.1398449 0.10502372 0.10682736
0.08447698 -0.06152036 -0.14324847 -0.017701041 -0.099804915 0.12962599 -0.078258455 -0.05499409
0.0611998 0.11807514 -0.10362653 0.15612179 -0.14601064 -0.10629701 -0.07437096 0.18010563
-0.103956856 0.06041391 0.05818217 0.1097229 0.046658285 -0.12732516 0.12146167 -0.20568849
0.17082596 -0.08858386 0.00025550695 -0.072842605 0.024227848 -0.1303026 -0.08372311 -0.23934196
-0.13400218 -0.110728174 -0.14084184 -0.0941276 0.12318444 -0.15956245 0.09002246 -0.10457197
-0.104834385 0.19189265 0.033777285 0.12675615 0.16057622 -0.12566414 -0.026503664 0.106578715
-0.07956596 0.06409178 -0.11629748 -0.06888436 -0.13333252 -0.0756563 -0.09570945 -0.03551448
-0.16599905 -0.19950101 -0.14195117 0.14060073 0.12025815 0.13235465 -0.032158103 0.062551975
0.16474798 0.24203287 -0.22064924 0.13650018 -0.07815827 0.17292 -0.0579053 -0.1306223

nnECG.1.running_var f4 [128]
00000000: d974 933d a035 933d 8f1e 933d b48f 933d
00000010: f260 933d fc11 933d 0d62 933d d112 933d
00000020: d79d 933d fa18 933d d638 933d 77c9 933d
00000030: 6eec 933d 0819 933d c96f 933d 9545 933d
00000040: 2437 933d 162a 933d c807 933d 508e 933d
00000050: 64c8 933d 851e 933d 3a14 933d a939 933d
00000060: 866c 933d 9b64 933d fe96 933d 4348 933d
00000070: 4991 933d e44a 933d ad3d 933d 2b57 933d
00000080: fe56 933d 870e 933d 124b 933d a913 933d
00000090: 7428 933d fa6c 933d 8d6c 933d 753b 943d
000000a0: 365d 933d 786b 933d 3108 933d 2859 933d
000000b0: a20a 933d f829 933d ca43 933d ad54 933d
000000c0: b40b 933d 5c85 933d 3b24 933d 3308 933d
000000d0: b826 933d 166f 933d 6531 933d d03e 933d
000000e0: 5f1d 933d d828 933d 2f82 933d 140b 933d
000000f0: 7c46 933d a143 933d 5051 933d 5925 933d
00000100: c415 933d 4a5c 933d fa49 933d 9261 933d
00000110: 326f 933d 144d 933d a329 933d c1bb 933d
00000120: 535a 933d d21e 933d fd15 933d 9a35 933d
00000130: 2b31 933d 8963 933d 934f 933d ae06 943d
00000140: c5a7 933d 1f41 933d 5f08 933d 041f 933d
00000150: c70e 933d 9869 933d ed4c 933d 727d 943d
00000160: 5e69 933d 3258 933d 4488 933d 7e3e 933d
00000170: 8140 933d e5b3 933d 3921 933d 854d 933d
00000180: a566 933d 50a6 933d d10c 933d 4e62 933d
00000190: 8e8a 933d bc50 933d 0911 933d 4c36 933d
000001a0: e836 933d 021f 933d 9257 933d 732b 933d
000001b0: ec7c 933d 722e 933d 483a 933d 7016 933d
000001c0: 86a4 933d b806 943d f591 933d 2565 933d
000001d0: 8538 933d 1158 933d 9512 933d 0220 933d
000001e0: 3595 933d 0617 943d 3c2a 943d 7c6e 933d
000001f0: f427 933d fe7b 933d 2022 933d 7470 933d
0.07200021 0.071879625 0.07183563 0.072051436 0.07196225 0.071811646 0.07196436 0.07181323
0.0720784 0.07182498 0.07188575 0.07216161 0.0722283 0.07182509 0.07199056 0.07191006
0.071882516 0.07185762 0.071792185 0.07204878 0.07215956 0.071835555 0.07181592 0.07188732
0.071984336 0.07196923 0.07206534 0.07191517 0.07205445 0.07192019 0.07189498 0.0719436
0.07194327 0.07180505 0.07192053 0.07181484 0.0718545 0.0719852 0.07198439 0.07237903
0.07195513 0.071982324 0.07179297 0.071947396 0.071797624 0.07185739 0.07190664 0.07193885
0.071799666 0.07203171 0.07184645 0.07179298 0.071851194 0.07198922 0.07187156 0.07189715
0.071833365 0.07185525 0.07202565 0.07179847 0.07191178 0.071906336 0.071932435 0.07184858
0.07181886 0.07195337 0.07191844 0.071963444 0.07198943 0.07192436 0.07185676 0.072135456
0.07194962 0.07183613 0.07181928 0.07187958 0.071871124 0.07196719 0.07192912 0.072278365
0.07209734 0.07190155 0.07179331 0.0718365 0.07180553 0.07197875 0.07192407 0.07250489
0.071978316 0.07194556 0.07203725 0.07189654 0.071900375 0.072120465 0.07184071 0.0719252
0.07197312 0.07209456 0.07180179 0.071964845 0.072041616 0.07193133 0.071809836 0.07188091
0.07188207 0.07183649 0.07194437 0.07186022 0.07201561 0.07186593 0.07188851 0.07182014
0.07209115 0.07227844 0.072055735 0.07197026 0.071885146 0.07194532 0.071812786 0.071838394
0.07206193 0.07230954 0.07234618 0.071988076 0.07185355 0.07201384 0.07184243 0.07199183

nnECG.4.weight f4 [64, 128]
00000000: d77b 233e 0659 c5bd 5393 313e a638 b7bc
00000010: 075d 4dbc 4fee 5dbc 38a3 94bd a068 833d
00000020: 47c8 6cbd 5a30 b53c bf10 bfbd 0bb4 b1bd
00000030: 51c2 07be b33f 0dbc 7249 18bd 9df6 9bbd
00000040: 8aa6 c6bd 16f8 dcbc 460e b03d 3b0a 31be
00000050: bd64 20bd 73d5 183e b3ab ebbc dee8 fc3d
00000060: e31c 5abd dcc4 313e 1cbf 9a3d 0fc6 33be
00000070: b964 203e 6f6a 8e3d f2a3 cabd 0156 15bd
00000080: 5d78 babd 2bb9 4f3d eab2 a33c ba28 bb3d
00000090: d055 b7bd e0da 3a3d 8897 2d3d 0012 e7bd
000000a0: faac fd3d 6488 3b3e 24f2 183c a01b 183e
000000b0: 3bad a73d 8ee0 7abd cf7d 2dbe e013 55bd
000000c0: 4c1d 193d d95e 0a3e 89eb 193e 33cb 3bbd
000000d0: 2121 29be 2a06 3abe 10f6 473d 6e7a 12be
000000e0: 36ab 423e 86af 483d 9479 9fbc 3895 cb3c
000000f0: 4289 163e 8300 293e f39d 153e a983 233e
00000100: 3387 b83c 5b15 423d a3e6 efbd 7abd e13d
00000110: 1c6a 34bd a885 ebbc 310b d53d 7bed 11bd
00000120: 65ac a23d 26cb e3bd f728 213d f71e ec3d
00000130: 1f43 74bd 1286 333e e78f 54bd 32f3 993d
00000140: 5d4e 203a 6386 d23d d553 bdbd 0446 14be
00000150: 5f0d dd3d 26a8 233e e127 6cbd d288 f63d
00000160: ba00 babd c3af eb3d 4ea5 3e3e 3fda 743d
00000170: 225c 183e d7ac 0b3e 9a07 b23d 73f9 f8b7
00000180: d345 2dbe d2f1 a1bd 7d86 a53c f652 e73c
00000190: 57ae a9bc a823 5f3d 1c4d a93d d718 073e
000001a0: bffc 14be d80d 0ebd 8274 bc3d cde1 d43d
000001b0: 946a 383e a4a0 053e e9b1 99bd f2b5 bdbd
000001c0: f4d7 4b3b bca4 223e 1403 e33c 5c8d 883c
000001d0: 710e 3dbd d336 0a3d 2ef9 3c3e 3d44 24bd
000001e0: 3161 9c3d ec9a 89bd 4c6d 4fbd a34e f5bd
000001f0: c412 563d 803c 11be 7255 62bc f1b1 043e
00000200: 854a 1a3e 8140 14be 0134 5dbd 5c7e 743d
00000210: 6ea8 993d ba3f 15be 8e41 7f3d bcd4 19be
00000220: f2ce 3a3c 4915 c23d b5b6 053e 73ed c13d
00000230: 659b 8c3d 43b2 a83c bf30 d73a 05ca fa3b
00000240: be8f 4d3d 4622 b4bd d912 3ebd 6cb8 40bc
00000250: 208e 553d bba7 293e fbd6 b23c 7958 16be
00000260: a044 a93d d52f f63b 0598 2dbe 8e4d 1b3e
00000270: 3ac2 11be a239 9bbd 1abf d9bc 6bdf b23d
00000280: a7db 45bd 2615 01bb dbdd 7e3d 0688 303e
00000290: f6ab 143e eede ca3c 1487 ed3c d82a b8ba
000002a0: f1ba dd3d 69da a23d 62f8 ee3c 8ddf 4b3d
000002b0: 256a e03d 2f8a 2abe 504f af3d 906e 20be
000002c0: 28dc 51bd d648 bbbd 4c05 ab3d b830 5b3d
000002d0: 4c36 e8bc fb97 a33d bdbd b13d 185c 1cbe
000002e0: 125c d3bc 053c c13d 60ab dc3d 949f 05be
000002f0: 38a9 873d 165b 5039 8a0c 793d 2883 113e
00000300: f124 373d a539 873d b6ee 033e 1dbf 2b3d
00000310: 1c3f 913d 577a f3bc 18cf 10bd a195 2ebe
00000320: e56d 1b3e 9ada 9fbd a21a 0ebe bbde 873d
00000330: 3060 163d 4853 be3d a5a4 0f3d 757f dcbd
00000340: e228 633d df3d 6d3d 913a bdbd 7e13 8a3d
00000350: 05dc 8dbd 8301 02bd d0d4 d2bd a372 f23d
00000360: 1721 68bd c4e5 24be d99b 30bc e143 fabd
00000370: 5e3e 10be da72 3ebe 6041 7f3d e351 41be
00000380: d2f4 1bbe d2c3 babd f054 2a3c 6191 8c3d
00000390: 20ce 0e3e 8a9d 64bd f3ac 94bd 2c46 093e
000003a0: 7cd0 9abd d9bf b73d 09f2 d8bd 17c2 043d
000003b0: 46fe e9bd e9d3 d3bd 5e0f 7c3d d776 ec3c
000003c0: 50e6 883d 6a78 37be f4c8 09bd fc3e c8bd
000003d0: 5788 abbd a79d 2c3c a986 623c 6721 6f3d
000003e0: 869a 1cbe 4866 253e ea06 1b3d 29c1 2cbe
000003f0: 1011 b3bd a372 873c d50e bc3d 367f 0cbe
0.1596521 -0.096361205 0.17341356 -0.02236588 -0.0125343865 -0.013545587 -0.07257694 0.0641644
-0.057808187 0.022117782 -0.09329366 -0.086769186 -0.1325772 -0.008621144 -0.037179418 -0.07615397
-0.096997336 -0.026973765 0.085964724 -0.17289059 -0.03915857 0.14925174 -0.028768396 0.123491034
-0.053250205 0.17360252 0.075559825 -0.17556022 0.15663423 0.06953894 -0.09894551 -0.036458973
-0.09104989 0.0507137 0.019982774 0.09138627 -0.08951914 0.04561889 0.04238084 -0.1128273
0.12386508 0.18313748 0.009335075 0.14854288 0.08187338 -0.06124931 -0.16942523 -0.052020907
0.037381455 0.13512744 0.15031256 -0.045848083 -0.16516544 -0.18166414 0.048818648 -0.14304516
0.19010624 0.048995517 -0.019467153 0.024851426 0.14700797 0.16504101 0.14611034 0.15968193
0.022525406 0.047383647 -0.11713912 0.11022468 -0.044046506 -0.028750256 0.10402525 -0.03562687
0.07943038 -0.11122732 0.039345708 0.115293436 -0.059634324 0.17531613 -0.05189505 0.07517089
0.00061151927 0.102795385 -0.09244505 -0.14479834 0.10793566 0.15982112 -0.05765522 0.12037815
-0.0908217 0.11508133 0.18617746 0.05977845 0.14878896 0.13640152 0.08692856 -2.9680063e-05
-0.16921167 -0.07907452 0.02020573 0.028237801 -0.020713015 0.054477364 0.082666606 0.1319307
-0.1454954 -0.03468117 0.092019096 0.103946306 0.18009406 0.13049561 -0.07504637 -0.09263219
0.003110406 0.15883154 0.027711429 0.016668968 -0.04615635 0.03374369 0.1845443 -0.04010414
0.07635725 -0.06719002 -0.050641343 -0.119778894 0.05226399 -0.14183235 -0.013814317 0.12958504
0.1506749 -0.14477731 -0.054004673 0.05969082 0.075028285 -0.14575091 0.062318377 -0.15022558
0.011401879 0.09476716 0.13057978 0.09469118 0.06865577 0.020592814 0.0016417726 0.007653477
0.05018591 -0.087956 -0.046404693 -0.01176272 0.052137494 0.1656789 0.021831026 -0.14682187
0.08265042 0.0075130262 -0.16952522 0.15166304 -0.14234248 -0.07579352 -0.026580382 0.0873402
-0.04830518 -0.0019696443 0.062223297 0.17239389 0.14518723 0.024764504 0.028995074 -0.0014050854
0.10826672 0.07951815 0.029171173 0.04977374 0.109577455 -0.16654275 0.085600495 -0.15667176
-0.051235348 -0.09144752 0.0835062 0.05351326 -0.028346203 0.07987972 0.08678768 -0.15269506
-0.025800738 0.09435276 0.10774875 -0.13049155 0.06624073 0.00019870358 0.060802974 0.14210188
0.044712964 0.06602792 0.1288403 0.041930307 0.07092115 -0.029721422 -0.03535375 -0.17049266
0.1517864 -0.07805367 -0.13877347 0.06634279 0.036712825 0.092932284 0.035069127 -0.10766498
0.05545891 0.057920333 -0.09239686 0.06741999 -0.06926731 -0.031739723 -0.10294497 0.118382715
-0.056672182 -0.16103274 -0.0107793445 -0.12219978 -0.14086291 -0.185985 0.062318206 -0.18878894
-0.1523011 -0.09119381 0.010396227 0.06863666 0.13945818 -0.055814303 -0.0725955 0.13405675
-0.075592965 0.08972139 -0.105930395 0.03241166 -0.11425452 -0.10343153 0.061538093 0.028865261
0.066845536 -0.17917028 -0.03363891 -0.09777638 -0.08375614 0.010535634 0.013826051 0.058381464
-0.15293321 0.16152298 0.03784839 -0.1687056 -0.08743489 0.016534155 0.091825165 -0.13720402

nnECG.4.bias f4 [64]
00000000: 42e0 d03c 6a57 20bc a5af 96bb 8785 4ebc
00000010: 66c0 79bc 8b2c 0bbc c2a3 1abc 3bba b63a
00000020: 1f9e 7d3c 0ca1 873c c454 ccbc 8238 e13c
00000030: 69b7 3e3c ad93 163d 9f59 8dbb 72f3 2cbc
00000040: 7f57 bb3c 36e9 a73b e602 ff3c d32e 9fbc
00000050: dc54 2a3c d0d4 aebc e00a f83c a276 d9bb
00000060: 6840 0cbc 8295 b2b9 1350 7e3c 003d 133d
00000070: 61f4 e6bc d6eb 7e39 9301 7abc 04cc 0d3c
00000080: d71a 87bb 88d8 543c 9233 4d3b c961 843c
00000090: 5834 6ebb 0df1 483d 8a98 1d3d c260 92ba
000000a0: 92c5 8e3c 6911 943c 7620 b7bc 6039 513c
000000b0: 1ab9 163d c151 633c b5e8 143b 4b1c 59ba
000000c0: de19 c7bc a0b5 67bc 0bea 65bb 1181 7cbb
000000d0: 0a56 553c 0b81 633b 24ab 01bc 948c f5b9
000000e0: 62e5 26bc 5e41 82bc 4bc8 073c 44d6 ab38
000000f0: 2982 d83c e2fe 203c 46d6 f93c 8a83 55bc
0.02549756 -0.009786466 -0.004598575 -0.012605078 -0.015243625 -0.008494507 -0.009438457 0.0013940999
0.015479594 0.016556285 -0.024942763 0.027492765 0.011640408 0.03676193 -0.004313662 -0.010556089
0.02286887 0.0051242365 0.031129312 -0.019431507 0.010396209 -0.021341711 0.030278623 -0.0066364566
-0.0085602775 -0.00034062198 0.015522021 0.035946846 -0.0281927 0.00024311183 -0.015259164 0.008654598
-0.0041230726 0.012991078 0.0031311256 0.016159909 -0.0036347117 0.04905801 0.03847555 -0.0011167752
0.017428193 0.018074708 -0.022354346 0.012770027 0.03679762 0.013874472 0.0022721712 -0.0008282109
-0.024304327 -0.014142424 -0.0035082127 -0.0038529078 0.013021002 0.0034714367 -0.007914338 -0.0004683478
-0.010186525 -0.01590031 0.0082875 8.1938255e-05 0.026429253 0.009826394 0.030497681 -0.01303185

nnECG.5.weight f4 [64]
00000000: 970e 773f d690 773f e25f 7a3f d0e8 783f
00000010: c3f7 753f ef05 7e3f c5e2 733f bd0d 803f
00000020: 5014 773f 61e3 753f fa83 7a3f 317a 7b3f
00000030: 5614 7c3f a2a8 823f c4be 7e3f c71e 783f
00000040: 6667 783f 66a2 793f 2cba 813f 5bb6 793f
00000050: ebc3 773f 0eef 7a3f 880b 803f 6021 7d3f
00000060: 74fb 7b3f 4003 7a3f d31a 803f 487f 793f
00000070: 28c9 763f 16bd 743f 3959 7b3f 279f 7f3f
00000080: 48c9 7b3f e5a7 703f c96b 823f 3cc7 7c3f
00000090: 2497 7b3f b78c 833f 82b3 7c3f 7ade 7d3f
000000a0: 5648 7c3f 4469 7e3f 68b8 7f3f 2a5c 753f
000000b0: 3109 773f ca42 773f b6be 7a3f 8836 7a3f
000000c0: 9727 7a3f 6ae4 753f a08e 783f adcf 7e3f
000000d0: 51af 7a3f d5ef 7c3f 5568 7e3f caec 7e3f
000000e0: a297 783f ba9b 773f 4dab 793f 0d60 773f
000000f0: 935c 7e3f cb28 7a3f d061 7f3f 66a7 7e3f
0.9650664 0.9670538 0.97802556 0.97230244 0.9608118 0.99227804 0.952679 1.0004193
0.9651537 0.9605008 0.9785763 0.98233324 0.9846853 1.0207713 0.99509835 0.9692196
0.97032773 0.97513425 1.013494 0.9754388 0.9678332 0.9802102 1.0003519 0.9887905
0.9843056 0.9766121 1.0008186 0.9745984 0.9640069 0.9560102 0.9818302 0.9985222
0.98354006 0.94006187 1.0189143 0.9874151 0.982775 1.0277318 0.9871141 0.991676
0.98547876 0.9937937 0.99890757 0.95843756 0.964984 0.9658629 0.9794725 0.9773946
0.9771666 0.9605166 0.9709263 0.9953564 0.9792376 0.98803455 0.9937795 0.9958006
0.97106373 0.96721995 0.9752701 0.96630937 0.9936001 0.97718495 0.99758625 0.9947418

nnECG.5.bias f4 [64]
00000000: 5724 813c 4dc4 adbc f507 7abc a7bb c5bc
00000010: c08d 01bd 3e86 adbc df0c b8bc 4f9f 32bb
00000020: 1641 663c ff44 ab3a c648 16bd 65ed 483c
00000030: 349e 7bbb c201 933c 9f2d dfbb 51e1 b8bc
00000040: 0f29 8e3c 9856 15bb 7c3d 813c cd89 c4bc
00000050: 055f 183b d019 0dbd 7950 e33c 2571 8ebc
00000060: 6a18 c7bc 46e0 12bc 105e d83b 0efa c53c
00000070: d950 1dbd fc99 57bc c8b1 b1bc 0133 4c3c
00000080: adb7 49bc e3a3 bf3b 802b 2fbb e704 373b
00000090: 39d4 ebbc d756 493d 669e db3c 97c0 d4bb
000000a0: 8704 bc3b 1777 cc3c 2ea2 b3bc 13b6 99bc
000000b0: a47d 713b 6aa0 993b d17d d2bc ebe2 b3bb
000000c0: af02 c4bc 4588 d0bc 6d52 d0bc e535 b6bc
000000d0: b0a4 3e3b 5080 7dbc abfd 93bc 6181 1abc
000000e0: 71e9 d8bc 5e5a afbc a381 8abc 3a86 45bc
000000f0: 5eaa c43c b7b9 5fbb ff24 a43c fbca 54bc
0.015764399 -0.021211768 -0.015260686 -0.024137331 -0.031629324 -0.021182176 -0.022467075 -0.00272556
0.014053604 0.0013066827 -0.036690496 0.0122636305 -0.0038393857 0.017945174 -0.0068108584 -0.022568377
0.017353563 -0.002278721 0.015776388 -0.02399149 0.0023249995 -0.034448445 0.027748333 -0.017387936
-0.024303634 -0.008964604 0.00660301 0.024167087 -0.03840718 -0.013159271 -0.021691218 0.012463332
-0.012311858 0.0058483942 -0.002672881 0.0027926506 -0.02878772 0.049155083 0.026808929 -0.006492685
0.0057378444 0.02495913 -0.02192792 -0.018763578 0.003684857 0.0046883123 -0.02569476 -0.005489697
-0.02392706 -0.025455603 -0.025429929 -0.022242496 0.002908986 -0.015472487 -0.018065294 -0.00943026
-0.026478501 -0.021405395 -0.016907519 -0.012055928 0.024007019 -0.0034137794 0.020037172 -0.012987847
