Models_Attention/net_1_0_epoch_52.pth (torch, 267633 bytes, 31 tensors)

embedding.weight f4 [32, 1]
000000 5c e1 43 3e 0c 54 cc bd d3 24 94 3e 48 c6 b8 3d
       0.19128937 -0.09976968 0.28934345 0.09022194
000010 24 54 38 be be 3d 89 bd 50 3f 22 bd 9a 00 7a 3e
       -0.18000847 -0.067012295 -0.03961116 0.24414292
000020 c1 22 b0 bc 7c 7c 90 3e 0b 24 95 bd f1 bb b2 3d
       -0.021500947 0.28219974 -0.07282265 0.08727253
000030 a4 13 a6 3e f6 73 e3 bc 79 fe 27 be c7 d4 82 bd
       0.3243686 -0.027765255 -0.16405667 -0.0638824
000040 5b 49 a9 3d fa 82 54 3e 9e f8 a6 3e e2 50 1d 3e
       0.082659446 0.20753089 0.32611555 0.15362886
000050 da e0 f9 bd 3f ea 27 bb 7e 59 44 3e 9b 16 05 3e
       -0.1220109 -0.00256218 0.19174764 0.12996905
000060 b5 7c 56 3d a6 ad b0 be dd 04 08 3d 33 cf 53 3d
       0.052365024 -0.34507483 0.033207763 0.051711272
000070 d1 d5 a6 3e 71 5d 99 bc 10 04 50 be 89 0f 47 bc
       0.32585004 -0.018721314 -0.2031405 -0.0121497

embedding.bias f4 [32]
000000 69 6e 47 bc ce 01 a3 3c 03 b7 73 bc 0b f4 a0 3c
       -0.01217232 0.019898321 -0.014875176 0.019647619
000010 04 94 4b 3d 71 c2 d3 3c 59 ef 2c 3c c2 3e 8a bb
       0.049701706 0.025849553 0.010555112 -0.004218907
000020 9a 70 d7 3c e9 e7 29 bc 52 91 68 3b a2 ce 9c 3a
       0.02629881 -0.010370233 0.0035487008 0.0011963437
000030 5e d9 ca bc d0 6a ec 3c 53 be 5f 3d 9b b4 ba 3c
       -0.024761852 0.028859526 0.054624867 0.022791198
000040 8d cc 75 bd ea bd e7 bc c9 5f 9b bc 0f 6d 18 3b
       -0.060009528 -0.0282888 -0.018966572 0.0023258363
000050 1f 6b 5f 3d 60 3f f0 bc b6 74 54 39 49 17 f4 bc
       0.054545518 -0.029327095 0.00020261374 -0.02979626
000060 33 b9 fd 39 73 ad 52 3d e8 a5 a8 bc 79 3f a7 3c
       0.00048393905 0.051434945 -0.020586923 0.020416008
000070 f0 4d 04 bd 4f 63 9c 3c 1e f2 3f 3d 6d b3 78 bb
       -0.03230089 0.019090323 0.04686176 -0.0037948743

attention.in_proj_weight f4 [96, 32]
000000 e9 78 82 3e 45 bf 77 3d 64 f2 8c 3e 20 41 22 3e
       0.25482872 0.060485143 0.2752868 0.15845156
000010 da d5 30 be 88 5e f4 bd 2c 80 60 be 7a f3 07 3e
       -0.17269078 -0.11932093 -0.21923894 0.13276473
000020 9e 6b 15 be 28 89 2c 3e 47 02 3e 3d 2e 4d 82 3e
       -0.14591834 0.16849196 0.04638889 0.25449508
000030 74 c3 f2 bd a5 8d 35 3e 89 b5 80 be 66 78 af bd
       -0.11853686 0.17729814 -0.251385 -0.08567886
000040 f6 3c 8b 3e 9c df 59 3e 34 c1 db 3c 9d 0b 57 3e
       0.27194947 0.21276706 0.026825525 0.21000524
000050 f7 ff 9c be e5 ff de 3d ec d0 9c 3e eb 0a aa 3d
       -0.30664036 0.10888652 0.30628145 0.08302864
000060 b8 09 c4 3d 08 bf 24 be ad 93 c7 bd 79 b0 8d bc
       0.09572166 -0.16088498 -0.09744964 -0.017296063
000070 47 17 ad 3d 0a 83 06 be 5f bd 98 be 80 01 bd bd
       0.084517054 -0.13135925 -0.2983198 -0.09228802
000080 da 37 49 be f9 36 18 bd e3 cc 76 bd 7c 58 2d be
       -0.19650212 -0.0371618 -0.06025399 -0.16928285
000090 b5 05 81 3e eb 2e 43 bd cc 56 2c bd 15 b7 d9 bd
       0.25199667 -0.047652166 -0.042074963 -0.10630623
0000a0 4a 98 53 be a8 0b 7e 3d 16 e9 99 3e b1 35 24 be
       -0.20663562 0.062022835 0.30060643 -0.16036107
0000b0 d9 bd 07 be ac cf 35 3e d8 09 cc bd 6c 92 b2 3d
       -0.13256015 0.17755002 -0.09962815 0.08719334
0000c0 83 04 41 be 71 c3 75 be 9c fd 4f bd 66 23 2b be
       -0.18849377 -0.24000336 -0.05077897 -0.16712722
0000d0 c1 a7 27 3e 9a 20 c9 3b 6f 73 54 bd 63 15 22 be
       0.16372587 0.0061379196 -0.0518679 -0.15828471
0000e0 84 ef 77 3d 9a 51 84 3e d2 bb 14 bd f1 62 3c be
       0.060531154 0.25843507 -0.036311932 -0.18397118
0000f0 16 4b 87 be be 55 36 3e 21 a6 1b 3e 26 f0 d6 3d
       -0.26424474 0.17806146 0.15200092 0.104950234
000100 d9 b4 99 3d 0e 51 1e 3d c2 0b e6 3d 7e 63 1b 3e
       0.07505197 0.03865152 0.112327114 0.15174672
000110 2e 74 e0 3d ab 47 a9 3c 5e 3e f7 3d e4 f9 25 3e
       0.109596595 0.020664057 0.120724425 0.16208607
000120 a8 c4 6f 3c f9 75 8d bd 6d dd a3 bd 40 0d 3d 3e
       0.014634289 -0.06907267 -0.08001218 0.18462086
000130 fe 4d 2c 3e ab 70 91 bd 00 f7 97 bd ec 03 99 3d
       0.16826627 -0.07101568 -0.074201584 0.07471451
000140 0a 8b ad 3d 6d 04 6c 3e 6d 8e 09 3e 8a 4e bd 3d
       0.08473785 0.23048563 0.13433237 0.09243496
000150 46 ad b7 3c fe 0f 84 be 6f 95 32 bd 8c 78 3b 3d
       0.02242149 -0.2579345 -0.043599542 0.04576926
000160 a1 f0 0d be 08 59 64 be 8a 0f 13 3e 0f 22 e6 3d
       -0.13861324 -0.22299588 0.14361396 0.11236965
000170 03 82 13 be 1d 56 17 3d 61 6b c1 3d 51 66 ed 3d
       -0.14405064 0.03694736 0.09444309 0.11591781
000180 b9 d1 93 3e 1c 18 54 be 94 17 42 3e 7c eb 8f bd
       0.28870943 -0.20712322 0.18954307 -0.07027337
000190 38 dc e5 bd 22 7e 59 be 51 fd 01 be 79 9b 55 3e
       -0.11223644 -0.21239522 -0.12694289 0.2086009
0001a0 96 5d b3 3d 14 93 fa bc 16 d0 50 be d8 1a d3 3c
       0.087580845 -0.03058771 -0.20391878 0.025769636
0001b0 75 e9 12 3c 96 a9 0e be 59 fc 7d 3d b7 73 81 3d
       0.008966793 -0.1393188 0.062008236 0.06320899
0001c0 fc 03 66 3e d9 b0 19 bd bb 46 7c 3e c8 25 72 3c
       0.22462457 -0.03752217 0.24636357 0.014779516
0001d0 a3 40 09 be d7 77 d9 bd 09 03 a8 3d c7 ba 97 bc
       -0.13403563 -0.10618561 0.08203704 -0.01852168
0001e0 5e ff d9 3d 09 92 71 be 6a 45 00 3e e3 9f bf bd
       0.106444106 -0.23590864 0.1252648 -0.09356668
0001f0 68 bf 51 3c 01 23 0e be b9 c2 5c 3d f4 16 0a 3e
       0.012801982 -0.1388054 0.05389664 0.13485318
000200 5c 40 e1 bd b5 1a 48 be 45 08 84 3e 4d 58 06 3e
       -0.10998604 -0.19541438 0.2578756 0.13119622
000210 33 ca c2 3d f4 4e 58 be 8b f4 21 3d ba 97 43 3e
       0.09511223 -0.21123868 0.039539855 0.19100848
000220 55 02 97 bd 9e f4 38 3d 10 05 0b 3e 70 5c d8 3d
       -0.07373492 0.04515516 0.1357615 0.10564506
000230 c1 6d ef 3d 09 6d ac bc 5b bc 10 be 18 bc 33 be
       0.11690856 -0.021048086 -0.14134352 -0.17552221
000240 f1 45 81 3e 46 1d 12 3d e3 f2 7c 3e fc e6 68 3e
       0.25248674 0.03567245 0.24702029 0.22744364
000250 a0 57 28 be 74 39 bb 3b ef 24 04 3c d4 8f 3f 3d
       -0.16439676 0.005713636 0.008065446 0.046768025
000260 3c 09 3d 3e 17 42 77 3d df 6e b5 bd 9a b6 39 bd
       0.18460554 0.060365763 -0.088590376 -0.045340158
000270 78 3c c9 bd 3f 3e 0d be 21 c3 9a 3d 67 62 13 be
       -0.098259866 -0.13793276 0.07556749 -0.14393006
000280 70 65 d8 3d 3d 35 04 be f8 4b 14 3e 7f da b1 3d
       0.10566223 -0.12910934 0.14482105 0.08684253
000290 2b ec 90 ba 6a b3 8c bd 3d 6e 44 3d a1 a6 18 3e
       -0.0011056712 -0.06870158 0.047956694 0.14907314
0002a0 38 16 ea 3a 2a 95 05 3e 72 d5 3f 37 d8 26 f1 3d
       0.0017859405 0.13045183 1.1434184e-05 0.11774987
0002b0 0f a0 85 3e 72 23 b2 bc 68 e0 10 be 48 1c 87 3d
       0.26098678 -0.021745417 -0.14148104 0.06597191
0002c0 ba bd 19 be b2 a1 fd 3d a8 54 9b 3e e8 c7 46 bc
       -0.15013781 0.123843566 0.30338025 -0.012132622
0002d0 e3 17 18 be 41 e2 a7 bd b4 7b 2f 3e 3b 2e 38 3e
       -0.14852862 -0.081974514 0.17137033 0.17986386
0002e0 58 fd 13 3e 59 b6 04 bd 8f bc 59 bd 8f 42 39 3e
       0.14452112 -0.032400463 -0.05315834 0.18091796
0002f0 11 47 2a 3d 3a f6 25 3e 18 65 37 be 28 99 56 be
       0.04157168 0.16207209 -0.17909658 -0.20956862
000300 e1 ef 79 bd 21 f5 59 3e d4 81 b5 bd 70 53 a4 bd
       -0.061019782 0.21284916 -0.088626534 -0.08023727
000310 a6 3b 92 3d f3 6b 2b 3e af e8 d1 3d fd e2 86 be
       0.07140283 0.16740398 0.10249459 -0.26345053
000320 fe 55 15 be 52 2c 69 bd 75 b4 fb 3d 96 fe 1e 3e
       -0.14583585 -0.056927033 0.12290279 0.15526804
000330 f1 59 00 be 60 59 34 3e 30 d8 df bd 6c aa 18 be
       -0.1253431 0.17612219 -0.10929906 -0.14908761
000340 77 8c 5c bd a3 42 51 be 60 f5 0a be 6a c8 27 bd
       -0.053844895 -0.20435576 -0.13570166 -0.040962614
000350 29 cb 00 be 04 b1 4f 3e a6 7c 54 be 12 2b d4 3d
       -0.125775 0.2028237 -0.20750675 0.103597775
000360 1c 17 8e 3c 50 b9 20 3d 88 8d 5b be e0 9c 08 bd
       0.017345004 0.039239228 -0.21440709 -0.033352733
000370 c5 99 48 be 98 eb 35 3e db 5a d3 bd c7 14 27 bd
       -0.19589908 0.17765653 -0.10320064 -0.0407913
000380 17 8f 68 be 62 cc 07 bd 0b d8 70 be 78 ed f4 bd
       -0.22710834 -0.0331539 -0.23519914 -0.11959356
000390 f4 b6 1b 3e 6e 9f 13 3e bb c9 47 3e 08 63 4f be
       0.1520651 0.14416286 0.19510548 -0.20252621
0003a0 d5 c0 00 be d1 9d 24 be 18 f0 a1 3e e7 d8 fd bd
       -0.1257356 -0.16075827 0.3162849 -0.123948865
0003b0 d7 e9 98 be 95 ff 37 3e 48 4f 4c 3e c5 b6 0e 3e
       -0.29865906 0.1796859 0.19952118 0.13936909
0003c0 9b 40 63 bd 6b 30 f7 3c 9e 6a 5d be 7f 91 47 3d
       -0.055481534 0.030174455 -0.21622702 0.04872274
0003d0 db 42 a2 3e 92 48 01 3a 1f 86 ee 3c 94 73 8a 3a
       0.31691632 0.00049317733 0.029116688 0.001056301
0003e0 4f c8 e1 3d e1 9d a3 3d b9 b5 4b be 3a 22 2f be
       0.11024534 0.079890974 -0.1989354 -0.171029
0003f0 13 47 89 be ba c5 12 bd e2 c9 b1 3e 17 dd 8e 3e
       -0.26812038 -0.035833098 0.34724337 0.27903053

attention.in_proj_bias f4 [96]
000000 56 68 61 3d 38 0c 0a bd 5e 61 9e 3c f1 ba 18 3d
       0.055031143 -0.03370306 0.019333538 0.037287656
000010 04 9a 2a 3d f1 03 68 3d b0 79 e1 bc 38 ba 8a bd
       0.041650787 0.056644384 -0.027523845 -0.067738
000020 ac 04 f2 3c 43 63 cb bc 61 f2 1c 3d 5a fd 1f 3d
       0.029543243 -0.024827605 0.038317088 0.039059974
000030 2b 72 13 3d 1c 09 10 bd 54 9d 2b 3d 78 a9 a7 3c
       0.03599755 -0.035164937 0.041898087 0.020466551
000040 ea 3c f0 3c a3 bb 3d bd b3 72 90 3b 0d 0d 4a 3c
       0.029325921 -0.046321522 0.0044082045 0.012332213
000050 f4 81 50 3d 06 a5 2f 3d c5 f3 ce 3c 08 a0 e5 bb
       0.050905183 0.042881988 0.025262723 -0.0070076026
000060 6e 01 36 bc d9 da 9a 3c b5 a5 38 bc b4 df 86 3c
       -0.011108739 0.018903183 -0.011269976 0.016464092
000070 6f 48 0a 3b 87 67 4f bc ab 16 99 3c e4 11 37 bc
       0.0021100303 -0.01265896 0.018687567 -0.011173699
000080 eb bc 99 bb c0 66 9b 3b 37 9c c0 bb eb f3 eb 3a
       -0.00469171 0.0047424734 -0.0058779973 0.001800177
000090 d9 33 8a bb 2b 2e e0 bb 30 f8 7d 3b 6d 7d 65 3b
       -0.0042176065 -0.006841441 0.0038752668 0.0035017387
0000a0 ce 4c 8d bb f7 5d 02 bc f8 4f f1 bb f9 94 f9 bb
       -0.0043121343 -0.007956973 -0.0073642693 -0.007616636
0000b0 01 48 f0 bb 76 15 c1 3b 38 38 fd bb e8 87 d0 3a
       -0.0073328023 0.005892451 -0.007727649 0.0015909644
0000c0 1e aa 42 3c 90 07 3f bc ca 8f 3f 3c b3 f4 41 3c
       0.011881379 -0.011659518 0.011691997 0.011838126
0000d0 62 69 48 bc 2d 30 46 3c 7b 52 33 3c 73 46 3f bc
       -0.0122321565 0.012096447 0.010944958 -0.011674511
0000e0 ee 5f f2 3a 95 09 ed ba da d4 ed 3a f1 69 eb ba
       0.0018491724 -0.0018084521 0.00181451 -0.001796065
0000f0 12 55 01 bb ba 63 21 bb 2a ae 3a 3b a6 1d e5 3a
       -0.0019734544 -0.0024626092 0.0028485158 0.0017480149
000100 57 3e 09 bc 8e 62 96 bc 80 25 58 3b cc 81 80 3c
       -0.008376679 -0.018357541 0.0032981336 0.015686892
000110 e3 9d 9c 3b 78 13 01 3d 6c bd b9 3b ae a5 75 bc
       0.0047795638 0.031512707 0.005668333 -0.014993114
000120 47 f1 7d bc fa f3 f3 bb 46 33 a9 bc 4e fe 59 3b
       -0.0154994195 -0.0074448558 -0.020654332 0.003326315
000130 fd 1e d2 3b ab 82 eb 3c fc 95 43 35 e0 75 fc bb
       0.0064123855 0.02874883 7.2861417e-07 -0.0077044815
000140 63 1a 9a 3c cc 5a d4 3c 9e bb f3 bc ec 88 c8 ba
       0.01881141 0.025922202 -0.029752549 -0.0015299595
000150 2b ad 3f 3b 61 9b 82 bc 8c a3 1f bc e0 b6 0d 3c
       0.0029247503 -0.015943231 -0.009743582 0.008649558
000160 09 bc b6 bb 85 a8 0f bb ed 97 9b 3c 9b 0f b7 bc
       -0.0055766148 -0.0021920514 0.018993342 -0.022346308
000170 4c d9 be 3c 6a ba 80 bc 44 5f 11 bc d1 f0 6f 3c
       0.023296975 -0.01571389 -0.008872811 0.014644817

attention.out_proj.weight f4 [32, 32]
000000 c5 ad e0 bd ab e2 80 bc 63 7e 43 3c 17 04 85 bc
       -0.10970644 -0.015733084 0.011931988 -0.016237302
000010 b2 bd e2 bd 6c 2c 00 be f7 56 d1 3d b4 14 09 bd
       -0.11071338 -0.12516946 0.10221665 -0.03346701
000020 12 6e ee 3d 65 83 4b bc f7 9c 86 3d b4 ba d9 3c
       0.11642088 -0.012421464 0.065729074 0.026578285
000030 ac 6d 39 3d d6 6d 89 3d bb 3f 22 be e6 14 c5 3d
       0.045270607 0.06710403 -0.15844624 0.09623127
000040 ae e2 f6 bd f6 ac 0c be 5b 1c 57 3c fe f1 6e bd
       -0.120549545 -0.13737854 0.013129319 -0.05833625
000050 ab dc c1 3d 76 7c d1 bd f1 6f 09 be 5e 20 f3 3d
       0.09465917 -0.10228817 -0.13421609 0.11871408
000060 21 db e4 bb 4f 49 d8 3d e6 7d 57 3d 20 cc 97 bd
       -0.00698413 0.105608575 0.0526103 -0.07411981
000070 b5 eb 57 3c 80 b4 4f 3d 73 62 fd bd 7b 24 d0 bd
       0.0131787555 0.050709248 -0.12372293 -0.10163208
000080 3f 24 be 3c 30 6c 14 3d a8 6d 9e bd 27 cc 9c bd
       0.023210643 0.03623599 -0.07735759 -0.076561265
000090 c0 2e 37 3e 86 3d 2d bd 1b bf e3 3d 81 60 a2 3d
       0.17888927 -0.042295 0.11120435 0.07928563
0000a0 ec cd 95 bd 7b 67 13 be ec ab 3a 3e 2b 6e 93 ba
       -0.07314667 -0.14394943 0.18229645 -0.0011248043
0000b0 16 80 c7 3d b7 7b b2 3c 8b 43 a1 3d 59 e7 08 3e
       0.09741227 0.021787507 0.07874211 0.13369502
0000c0 69 32 2d 3e f7 e4 05 be ea fe 39 3d 48 a3 aa 3d
       0.16913761 -0.13075624 0.04540912 0.08331925
0000d0 16 ce ca 3d 91 c1 c3 3d b6 8c c4 bd da 22 22 be
       0.09902589 0.09558404 -0.09597151 -0.15833607
0000e0 11 40 df bd e8 ce 02 3d 3e 78 1d 3e 9b 77 a6 bd
       -0.109008916 0.031935602 0.153779 -0.08128282
0000f0 67 e7 ba 3d f8 7f 9f bd 59 c8 1b be 74 d5 6d bd
       0.09126168 -0.0778808 -0.15213145 -0.058064893
000100 b9 01 9f 3d 6f 41 05 3e cd 6f c3 bd 1d 46 e2 3d
       0.077640004 0.13013242 -0.09542809 0.11048529
000110 c0 cd 41 3e cb 4d d6 3d 3a 15 03 3e 40 d1 ba 3d
       0.18926144 0.104640566 0.12801066 0.091219425
000120 0c 46 0f 3e 45 28 27 3d cb 29 0d be 08 65 d1 bd
       0.13991565 0.04080989 -0.13785474 -0.10224348
000130 64 3c 68 bd 9c b9 03 3c 02 4b d5 bd 98 8a 27 3d
       -0.056698218 0.008039858 -0.10414697 0.040903658
000140 55 46 4b 3d 97 fe fc bc 09 bd 95 3d c6 90 7e 3c
       0.04962762 -0.030883117 0.07311446 0.015537446
000150 cf 82 c4 3d c6 c1 c1 3d dd 69 a1 bd ac 5f 08 3e
       0.09595262 0.094607875 -0.0788152 0.13317746
000160 5c a6 ab bd d9 d7 92 3b d4 36 28 be 62 40 20 be
       -0.0838134 0.0044812975 -0.16427165 -0.1564956
000170 20 a2 da bd 40 92 01 bd fc b5 45 3e 6e c6 1c bd
       -0.10675454 -0.031633615 0.19307703 -0.038275175
000180 62 fc c6 bd 95 32 93 3d a7 cf dd 3c cc 52 bf 3d
       -0.09716107 0.07187382 0.027076555 0.09341964
000190 4b 71 b8 bc 8f 55 23 3d cd cb d9 bd 3b 05 12 bd
       -0.02251496 0.039876517 -0.10634575 -0.03564952
0001a0 11 e6 05 be 6c 4a b0 bd db e1 44 bd f7 d4 5d 3d
       -0.13076045 -0.08607945 -0.048066955 0.054158177
0001b0 6e 15 1e 3c f4 a4 ef 3c 9d da 37 3e 66 92 2f 3e
       0.009648664 0.02925346 0.17954488 0.1714569
0001c0 c8 c6 92 3d 90 71 f8 3a 84 75 f3 bd 67 d0 b9 3d
       0.07166821 0.0018954743 -0.11887649 0.09072953
0001d0 be a8 59 bd cb aa 0c bd bf db 02 be c4 13 d8 bc
       -0.05313944 -0.03434257 -0.12779139 -0.026376612
0001e0 b9 40 86 bd da 5c 23 3e cd c7 20 be 16 41 ca bd
       -0.065553136 0.15953389 -0.15701218 -0.098756954
0001f0 de 2b fd bc c5 dd 3f bd 05 be bd 3d 0d 84 aa bd
       -0.030904707 -0.046842355 0.09264759 -0.08325968
000200 d0 f3 a3 bd ff 89 d8 bb c9 2a 03 3e fd 45 96 bd
       -0.08005488 -0.0066082473 0.1280929 -0.07337568
000210 ed e8 06 3e 51 80 dc 3d 7f 34 37 3e fb cf 0e be
       0.13174792 0.10766662 0.1789112 -0.13946526
000220 07 83 47 3d 6c 93 fd bd e1 78 10 3e 35 00 1f bd
       0.04870894 -0.12381634 0.14108612 -0.038818557
000230 b7 8d f9 3d 0f a6 69 3c 46 6a 76 bc b7 a7 90 bc
       0.12185233 0.014260783 -0.015039986 -0.017658098
000240 9b a7 31 3c 2b 3c ba 3d 29 3d e2 3c 21 5e 94 3c
       0.010843183 0.090935074 0.027617054 0.01811129
000250 25 32 28 be 7f df d1 3d 58 f5 11 3e 34 12 fc 3d
       -0.16425379 0.102477066 0.14253747 0.123081595
000260 dd 27 e8 3d f6 df ff bd 87 b0 76 bd 5a f9 09 3e
       0.11335728 -0.12493889 -0.060226943 0.13474026
000270 49 ce 15 be e5 7d 42 3e 69 2d a0 bd 36 24 ee bd
       -0.14629473 0.18993337 -0.07821161 -0.116280004
000280 78 e6 c4 3d 02 37 f4 bd b9 40 8e bd 7b a4 84 3d
       0.09614271 -0.119245544 -0.069459386 0.06476685
000290 4f 26 12 3e c3 d7 2f 3e ee 87 9a bd f3 e2 01 be
       0.14272426 0.1717215 -0.07545458 -0.1268423
0002a0 ee 1a 0b 3e 7e 2d b4 bc 24 f6 8b bd dd 88 26 3d
       0.13584492 -0.021994349 -0.06834057 0.040657867
0002b0 7e 8b 0a be e6 cd cb 3d 65 43 dd 3d 1f 1b 0d be
       -0.13529775 0.099513814 0.1080387 -0.13779877
0002c0 a0 c4 21 be 4f 3d 01 bc 0e 01 9a 3d 13 e2 30 bd
       -0.15797663 -0.007888152 0.075197324 -0.04318435
0002d0 45 ba bd bd 61 57 74 bc 63 74 17 be b8 31 cd bd
       -0.09264044 -0.014913411 -0.14790492 -0.10019249
0002e0 9b ab 26 bd e3 0c c1 3d 37 74 1c 3e 26 ed cb bc
       -0.040691 0.09426286 0.15278707 -0.024893355
0002f0 26 05 8e bb 26 38 d0 3d c2 29 0b 3d be d5 d4 bd
       -0.00433411 0.101669595 0.03397537 -0.103923306
000300 39 42 81 3d 8e 18 de 3d ce fd 01 bb 58 f1 ef bc
       0.06311459 0.10844527 -0.0019835117 -0.029289886
000310 80 de 1d 3e 29 50 1c 3e da 5b 8f bd 02 c9 2d 3e
       0.15416908 0.15264954 -0.06999941 0.1697121
000320 6a 49 ac 3d 13 40 01 be 90 3f d7 3d dc c0 04 be
       0.0841244 -0.12622099 0.105101705 -0.12964195
000330 5a 11 18 3e fc 24 e4 bd c3 11 8f 3d 44 2b 52 3d
       0.14850369 -0.11139867 0.0698581 0.051310793
000340 65 19 48 3d 70 65 0c 3e 27 ff 54 bd 3c 5d d6 bd
       0.048852343 0.1371057 -0.052001145 -0.10467002
000350 cd ee 35 be ae 92 b4 bc 69 09 79 bd 3f b0 34 bc
       -0.17766877 -0.022042599 -0.06079999 -0.0110283485
000360 b3 b9 13 bd c2 61 83 3d 96 98 08 3e d3 5f 94 3d
       -0.03606577 0.0641513 0.13339457 0.072448395
000370 63 1a 81 bd ac 6e 89 bd 8a a7 20 be 57 83 09 3e
       -0.06303861 -0.06710562 -0.15688911 0.13429008
000380 e8 71 13 bd f6 2f 83 3d ee 48 43 3c e4 fb 37 be
       -0.0359973 0.06405632 0.011919243 -0.17967182
000390 5c 2c 81 3d 8f 25 e5 3d 21 4f 05 3c af 8c 97 bd
       0.06307289 0.11188804 0.008136542 -0.0739988
0003a0 96 e5 b7 bd 67 27 ad b9 e0 6a b0 bd 14 20 04 be
       -0.08979337 -0.00033026488 -0.08614135 -0.12902862
0003b0 b6 1b 41 bd 0b 74 93 bd 81 6b 37 3d a9 8c da bc
       -0.047145568 -0.07199868 0.044780258 -0.0266784
0003c0 7c d2 f3 bb 80 3a 8e bd e0 03 25 be b9 2c 30 3e
       -0.007440863 -0.06944752 -0.1611476 0.1720456
0003d0 11 11 1c 3d 78 37 2e 3e 23 d1 19 bc 36 5f ef bc
       0.038102213 0.17013347 -0.009388241 -0.029220205
0003e0 d0 71 e5 bd 60 ca 99 bd a2 82 dd 3d de 52 08 be
       -0.11203349 -0.07509303 0.10815932 -0.13312861
0003f0 4c c8 93 bd 52 2f bc 3d 38 11 63 3d da 98 3d 3d
       -0.07215938 0.09188713 0.055436343 0.04628835

attention.out_proj.bias f4 [32]
000000 6d aa 80 3c 00 60 b6 39 2d ec e5 3b 4f 2f 45 3a
       0.015706265 0.0003478527 0.0070166797 0.0007522003
000010 66 1b a4 ba 6e ac 86 bc 8b 6c c2 3c 7b b5 b3 b9
       -0.0012520372 -0.016439643 0.023733398 -0.00034276754
000020 a6 d4 13 bb 07 c6 e5 ba 86 0a 79 3b 3b ef 8a bc
       -0.0022557168 -0.001753033 0.0038000657 -0.016959777
000030 da 8d 70 3c f6 8c 8f 3b 22 e6 c3 3b 1c bb 5b 3a
       0.014682258 0.0043808175 0.0059783617 0.00083820685
000040 cc 80 83 3c e3 cb 07 3b 1f 1d de 3a 1c 49 83 3c
       0.016052626 0.0020720891 0.0016945935 0.016026072
000050 6f c2 1e 3b cd aa fd 3b 30 69 f4 ba 6f f5 a7 3c
       0.0024224778 0.0077413083 -0.0018647071 0.020502774
000060 5e 38 26 3c 1e 49 9e 3c f3 a8 3e 3b 41 09 81 3b
       0.010145275 0.019321974 0.00290924 0.0039378707
000070 3f 3c 1e bc 4d bc 56 bb d7 7f df bb 27 cf 42 3c
       -0.0096579185 -0.0032766045 -0.0068206596 0.011890209

nnECG.0.weight f4 [128, 384]
000000 91 1c 84 bc 2c 55 60 3b c8 d0 b4 bd 80 f4 3a bc
       -0.016126903 0.0034230454 -0.08828884 -0.011410832
000010 2b 32 bb bd b7 61 b7 bd ba 0d b9 3d 70 44 4f 3d
       -0.09140428 -0.089541845 0.09035821 0.050602376
000020 a4 76 06 3d a6 b1 22 bd ef 57 61 bd ca 52 25 bc
       0.03282799 -0.0397202 -0.0550155 -0.010090539
000030 73 28 7b bd c0 96 b8 bd b1 c1 0d bc 41 94 de 3d
       -0.061317872 -0.09013128 -0.008652137 0.10868121
000040 69 ae 15 bd 93 a2 18 bd 60 fb 9a 3d 25 33 35 bd
       -0.036543284 -0.037264418 0.07567477 -0.04423823
000050 dd d9 e3 3d f5 6e a5 bd 71 c4 9c bd 80 e4 03 bd
       0.111255385 -0.08077804 -0.07654656 -0.032200336
000060 7e d1 bd 3c ff 55 58 bc c4 42 a5 bc 95 85 95 bb
       0.023171183 -0.013204097 -0.020173438 -0.0045630434
000070 36 5c ee 39 72 80 a0 3d 74 df 16 ba 0c bc 02 3c
       0.000454636 0.07836999 -0.0005755343 0.007979404
000080 6f f8 a2 3c 94 47 ab 3b 26 a7 b3 bd db bc 33 bd
       0.019893853 0.0052270386 -0.087721154 -0.04388128
000090 95 2a 99 bc a9 79 a7 bc 16 cd 77 3d ed 6c 4b bd
       -0.018697063 -0.020443754 0.06049832 -0.049664427
0000a0 b0 da 8b 3d 73 68 cb 3d 07 ec 1f 3d af 8d 93 3d
       0.06828821 0.099320315 0.039043453 0.072047584
0000b0 49 fc 93 3c 36 f0 4c 3c 72 8d b0 bd 1b 4e 28 bd
       0.018064635 0.012508443 -0.086207286 -0.041090112
0000c0 f5 aa 7a bd 54 0d b1 3c 31 7b e0 bc 86 41 17 3d
       -0.061198194 0.0216128 -0.027402492 0.036927722
0000d0 20 dc 97 3d 96 6a df bb 87 02 56 bd 74 06 70 bc
       0.074150324 -0.006818126 -0.052248504 -0.014649976
0000e0 5c b5 82 3d b0 3d 96 bc 31 9c 65 3d ba a6 48 bd
       0.06382248 -0.018339962 0.05605716 -0.048987128
0000f0 d3 37 a5 3d e9 3c 5e bd 43 53 e6 bc 2e ee f8 bc
       0.08067288 -0.054257307 -0.028115874 -0.03038701
000100 91 d0 2f 3c 6a 4c d7 bd 6f 10 5c 3d 10 1d b0 3c
       0.010730878 -0.10512622 0.05372661 0.021498233
000110 83 a1 e2 bd 31 d5 92 3d b5 d1 09 3d e0 c5 89 3d
       -0.11065962 0.07169569 0.033647258 0.06727195
000120 ce 17 21 bd cd da 4f 3d 90 69 b2 bc 85 e7 bb 3d
       -0.039329343 0.050745774 -0.021778852 0.09175018
000130 2e cb fd 3d 4b 0c 13 be 53 a3 26 bc 24 b8 0b bb
       0.12392269 -0.14360158 -0.0101707755 -0.0021319473
000140 13 c6 fa 3d 72 1c 5b bd d8 ea 8a 3b 0c 0c 61 3c
       0.12244811 -0.053493924 0.0042394213 0.013735782
000150 dc 26 37 3a 78 16 72 bc b4 11 df 3d 15 6d 08 3d
       0.00069866865 -0.014775865 0.108920485 0.033307154
000160 d8 96 63 bd 40 10 82 bd 76 b7 b8 3d fc 14 9a 3d
       -0.055563778 -0.06350756 0.090193674 0.07523534
000170 70 9d 9b 3d 95 df cd 3b c4 aa 82 3c 18 ce b3 3d
       0.07598388 0.0062827566 0.015950568 0.08779544
000180 c8 2f 60 3d 70 03 c3 3a 4b 50 06 be 11 83 ad bd
       0.054733068 0.0014878344 -0.13116567 -0.084722646
000190 b4 0e b9 bd 15 83 b0 bd 6f 09 d7 bd a9 94 3b bd
       -0.090360075 -0.08618752 -0.10499846 -0.04579607
0001a0 dc 74 5f bd 53 52 85 3d b2 40 5e bc 34 26 7a 3d
       -0.054554805 0.06509843 -0.013565229 0.06107159
0001b0 60 cb ed 3d 08 92 ba bc 59 25 13 bd 71 83 ea 3d
       0.11611056 -0.022774711 -0.03592429 0.11450852
0001c0 e4 bd 82 3c cb 9c 94 3d 22 11 b4 3c 62 c8 0e bd
       0.015959688 0.072564684 0.021980826 -0.03485907
0001d0 4f 52 23 bd 98 e9 fb 3b b5 f7 59 bd 08 b2 34 3d
       -0.039873417 0.0076877587 -0.053214747 0.044115096
0001e0 1c ca 0c bd 08 b9 d3 bd 40 9f 7e bc 4a ee a2 3c
       -0.034372434 -0.10338026 -0.015540898 0.019889016
0001f0 fb 78 5b 3d 5e d6 93 3c 0d e6 f2 3d 7f 91 cc bd
       0.053582173 0.018046554 0.11860285 -0.09988689
000200 29 3a 02 be 00 bb f6 bd 29 6c ab 3d f5 eb 24 bd
       -0.12717499 -0.12047386 0.08370239 -0.04026409
000210 3b 0e 67 3d bc 70 f5 bc f0 bb d2 bc ef a8 fa 3b
       0.056410056 -0.029960983 -0.025724381 0.007649533
000220 a0 7c d4 3d 22 62 97 bc 0c 64 e4 bd c4 e6 b3 bd
       0.10375333 -0.01847941 -0.11151895 -0.087842494
000230 40 9e 2d 3c bf 4f 83 bd 01 5e b6 bd a7 2e 01 3e
       0.010596812 -0.06411695 -0.089046486 0.12615453
000240 d4 c6 8f bd cb d9 98 3d 3f 50 67 bd b3 31 d2 3c
       -0.07020345 0.07463416 -0.056473013 0.025658464
000250 cd 27 f5 3d 92 ae 40 3d a2 41 ac 3d fb 2d 40 3c
       0.11970482 0.047041483 0.08410956 0.011729713
000260 f4 4f a0 3d a9 2c ba 3d b3 a1 7d 3d 12 c6 b1 bc
       0.0782775 0.090905495 0.061921787 -0.021700893
000270 4a 3b 46 bc 61 dc 51 bd ee c9 59 3c 0a 0e d8 3d
       -0.012099097 -0.05123556 0.013292773 0.10549553
000280 ab b6 49 bd b1 a1 5a bd 7b d5 d5 bd 7c c5 e4 bd
       -0.04924647 -0.053376857 -0.10441109 -0.1117048
000290 19 05 9f bd d3 50 12 3c 5c 1b 81 bc ea a8 93 3d
       -0.07764644 0.008930403 -0.015760116 0.07209952
0002a0 3c b5 26 bb de 3f b4 bc d9 3c 1a bb ef f4 85 bd
       -0.0025437614 -0.02200311 -0.0023534803 -0.06540858
0002b0 00 3e 44 bd a0 c1 e3 bd 90 a1 f0 bd f8 a3 15 3c
       -0.04791069 -0.111209154 -0.117495656 0.0091333315
0002c0 bc 2f 27 bd 47 ca e7 bc 4c f8 7e 3c de ec ad bd
       -0.040817007 -0.028294696 0.015562128 -0.084924445
0002d0 13 74 cb 3d e0 da e5 3a 55 d0 b4 3d 03 91 db bd
       0.09934249 0.0017536543 0.08828799 -0.10721018
0002e0 99 b7 87 3d e3 e1 5b 3d 20 ee 1b bd 7f c3 a4 bc
       0.06626815 0.05368222 -0.03806889 -0.020112751
0002f0 8f 1c f3 bc ec 5a 92 3a 33 be e7 bc 1c be 76 bd
       -0.029676704 0.0011166013 -0.028288936 -0.060239896
000300 ff 25 a0 3c 98 ca d4 bc 7c 72 4d 3d 8d a2 07 be
       0.019549368 -0.02597551 0.05015801 -0.13245602
000310 f9 9e 75 bd 09 78 3f 3d b8 48 dd bc 6e 58 9a 3d
       -0.05996606 0.046745334 -0.027012214 0.07536398
000320 d0 be 7b 3d 9c a0 1d bd 2c 7d a6 3d 54 de c3 bd
       0.06146127 -0.038483247 0.081293434 -0.0956389
000330 f4 18 17 3c 39 e1 51 bd b2 1b 62 3d 10 7d cd bc
       0.009222258 -0.05124018 0.055202194 -0.025084049
000340 a1 7f a6 bd 14 82 08 be 47 81 be bc 86 04 c8 bd
       -0.08129812 -0.13330871 -0.023255004 -0.09766488
000350 69 85 13 3d 0f 54 3f 3d 7c 01 fc 3d 21 37 98 bd
       0.0360159 0.046711024 0.123049706 -0.0743239
000360 bc 9c 64 bd 92 53 17 bd 3a 25 89 3c 9a 00 ed 3c
       -0.055813536 -0.036944933 0.016741384 0.02893095
000370 b7 ba 39 3b d6 f3 05 be 90 de d4 3d 5e 58 6d 3d
       0.002834005 -0.13081297 0.10394013 0.0579456
000380 d3 62 56 bb 45 b1 a6 bd be c1 21 bd 8a e2 ce bc
       -0.0032712712 -0.0813928 -0.039491408 -0.025254507
000390 70 9d 1e 3d d0 88 5d bd b7 f7 30 bb 05 31 c7 3d
       0.038724363 -0.054085553 -0.0027003118 0.097261466
0003a0 98 b9 c6 3d 02 52 1f bd 29 8f bd bd e5 64 26 3c
       0.09703368 -0.038896568 -0.09255821 0.010155891
0003b0 55 2b e4 3d c0 e7 39 bc df cf 4d 3d 68 dc df 3d
       0.111410774 -0.011346757 0.05024707 0.10930711
0003c0 50 0a 96 3d 92 45 1b bd bb 28 8d 3d 29 eb 88 3d
       0.07326186 -0.037908144 0.06892534 0.06685478
0003d0 cc 23 af 3c 38 9b c5 bd 00 14 c7 3c 55 91 93 bb
       0.021379374 -0.09648746 0.024301529 -0.004503409
0003e0 e4 ee e8 bb d2 42 14 3c 77 b4 9b 3d 7c e1 7b 3d
       -0.007108556 0.009049134 0.0760278 0.061494336
0003f0 f4 9b 3e bd f7 e1 24 bd 64 bf 8b 3b 8d 98 3c bd
       -0.046535447 -0.04025456 0.004264759 -0.04604392

nnECG.0.bias f4 [128]
000000 33 44 0d bd da 50 07 3b 59 d6 8f 3c 7e 69 9d bc
       -0.034488868 0.0020647557 0.017558264 -0.019215342
000010 90 c9 9e 3c 14 4a f6 ba c5 6e ae 3c f7 e8 a1 3c
       0.019383222 -0.0018790388 0.021293053 0.019764407
000020 e8 f9 bd 3c a8 f1 11 3b 26 60 a6 3b 05 fb 2e 3c
       0.023190454 0.0022269282 0.0050773798 0.010679965
000030 d1 48 07 bc ac 9a 1e bd ef dc d3 bc 68 47 31 bd
       -0.008257107 -0.038721725 -0.025862185 -0.04328099
000040 f1 d3 55 bc c5 83 33 3d d0 dc b1 3b c1 4d f2 3c
       -0.013051019 0.043826837 0.005427934 0.029578092
000050 bd d9 e2 bb cd 0e 7c b9 8f a1 a9 3c 00 b9 ae bc
       -0.006922929 -0.00024038106 0.02070692 -0.02132845
000060 7e 34 90 3c 08 82 f0 bb b0 ba a3 bc 20 86 c5 3c
       0.017603155 -0.0073397197 -0.01998648 0.024111807
000070 30 c6 7c bb a8 6d da 3c e1 12 e7 3c 7c 24 c2 bc
       -0.0038570277 0.026663616 0.028207244 -0.023699038
000080 9e 3b 46 bc d7 fd 00 3d 71 7b ae 3c a4 23 02 3c
       -0.012099175 0.03149208 0.021299096 0.007943068
000090 c7 0b 87 bd cd f1 c5 bc c6 2d 92 3c c5 f5 43 bd
       -0.06594043 -0.024163151 0.017844092 -0.047841806
0000a0 b6 1e 12 bd c2 12 11 3d a9 44 f8 3c 52 79 4a bc
       -0.03567382 0.03541828 0.030306177 -0.012358027
0000b0 53 98 42 3a d1 ed d4 bc 0e 3b bf 3c 30 10 b9 3c
       0.0007423211 -0.025992306 0.02334359 0.022590727
0000c0 d2 18 5c bb 9a a2 ff 3b c9 92 3e bb 6c 69 7e bd
       -0.003358413 0.007801366 -0.002907919 -0.062112257
0000d0 64 24 a5 bc f3 dd 0c 3d 04 ee d8 bc 36 1a 5a 3d
       -0.020158954 0.034391355 -0.026480682 0.053247653
0000e0 73 4c c4 bc 20 74 91 bc f0 66 6f bb ac 16 ff bb
       -0.023962235 -0.017755568 -0.0036529861 -0.007784685
0000f0 09 26 35 3b 88 f4 fe 3b 33 2d 82 3b 09 12 70 bc
       0.002764108 0.0077806152 0.0039726733 -0.014652737
000100 01 e1 24 3c 95 ad 17 bd 4c 62 28 bc c0 58 8d 3c
       0.010063411 -0.037030775 -0.010277342 0.017254233
000110 4e f4 4e bd f4 2b be 3c 03 b6 6a bc db 7d 84 bc
       -0.050525956 0.023214318 -0.014325622 -0.016173294
000120 2b 7e d0 bc a7 c2 07 bd 1c 42 af bb e3 3b 52 bc
       -0.025450787 -0.03314462 -0.005348457 -0.012831661
000130 12 b7 c1 ba 55 92 06 bd ae ad 6f 3a 61 94 c6 bc
       -0.0014779291 -0.032854397 0.0009143007 -0.024240674
000140 69 98 97 3c b5 3d 9d 3c 26 bf a8 3c d5 97 f6 3c
       0.018505292 0.019194463 0.02059896 0.030101696
000150 a8 01 fe 3c a8 26 f4 3c ab 17 93 bb 06 2b 5a bd
       0.03100665 0.029803589 -0.0044889054 -0.053263687
000160 1b d5 1e 3c 17 70 6a 3c 51 19 d3 bc 9f b1 75 bd
       0.009694363 0.014308951 -0.025768908 -0.059983846
000170 a9 3e 92 bc bb b0 dc bc 6c 28 9c 3a 47 1c 8a bb
       -0.017852144 -0.02693974 0.0011913902 -0.0042147967
000180 83 cb 82 3c f4 81 d0 3c 08 c4 af 3c 58 e5 86 bc
       0.015966183 0.025452591 0.02145578 -0.016466781
000190 f8 21 67 bb dd 0b bb bc 08 f5 41 3b c6 64 49 bb
       -0.003526805 -0.022832805 0.0029595513 -0.0030730232
0001a0 05 f4 26 3c ed 0a 73 3c b2 a8 aa 3c f4 22 ed 3c
       0.010190015 0.014834148 0.020832393 0.028947331
0001b0 97 87 82 3b 53 f2 34 3c c2 b9 06 3c a8 7c 3e bc
       0.0039834487 0.011044103 0.008222999 -0.0116264
0001c0 aa 81 86 3c 8f a8 24 bc a4 fc 12 3d a2 fa 69 3b
       0.01641925 -0.010049953 0.035885468 0.0035702367
0001d0 22 34 11 3c 51 28 a2 3c c9 d8 46 bd af 37 40 3b
       0.008862527 0.019794615 -0.048546586 0.0029330065
0001e0 dd ee 1d 3c 91 86 4e bb 9c c2 91 3b 88 ed 0c bd
       0.009639469 -0.0031513313 0.004448248 -0.034406215
0001f0 07 cc b8 bc 52 b4 56 bd ae 30 a4 3c 3d ef fa bc
       -0.022558225 -0.05241806 0.020042744 -0.030631656

nnECG.1.weight f4 [128]
000000 3f dc 77 3f 72 b6 6f 3f c4 0c 75 3f a9 65 73 3f
       0.96820444 0.93637764 0.95722604 0.95076996
000010 82 ef 7a 3f d8 48 78 3f 39 5a 77 3f 29 c7 6f 3f
       0.9802171 0.9698615 0.96622044 0.9366327
000020 63 45 7c 3f 59 ed 72 3f 93 a3 74 3f 4b ef 76 3f
       0.98543376 0.94893414 0.95562094 0.9645888
000030 05 5a 6e 3f 13 e3 71 3f c5 9c 72 3f 39 d8 6f 3f
       0.9310611 0.9448711 0.9477046 0.93689305
000040 91 e8 77 3f 84 b5 74 3f 8f 96 72 3f 9e 5e 70 3f
       0.96839243 0.9558947 0.94760984 0.93894374
000050 b8 41 6f 3f fb 84 70 3f f7 c3 71 3f c1 02 68 3f
       0.93459654 0.9395291 0.94439644 0.906292
000060 d3 05 6f 3f cc f5 73 3f 55 2b 6d 3f 20 7b 6f 3f
       0.9336826 0.9529693 0.92644244 0.9354725
000070 4e c6 74 3f ec 8e 78 3f 4d af 72 3f 89 80 6f 3f
       0.9561509 0.9709308 0.9479874 0.93555504
000080 b4 0c 72 3f 27 80 75 3f 3f 8f 6c 3f 33 cb 78 3f
       0.94550633 0.9589867 0.92406076 0.9718506
000090 75 a9 74 3f 36 26 75 3f 0c 12 6f 3f e5 be 73 3f
       0.9557107 0.9576143 0.9338691 0.95213157
0000a0 fa 3f 6b 3f 66 20 6d 3f 77 3c 74 3f 5a e2 76 3f
       0.91894495 0.9262756 0.9540476 0.96439135
0000b0 9a f8 7a 3f 9d 07 68 3f a4 19 74 3f 9f 4b 77 3f
       0.98035586 0.90636617 0.95351624 0.96599764
0000c0 ef be 79 3f 31 5b 6e 3f f3 1b 73 3f 0c b4 75 3f
       0.97556967 0.931079 0.9496452 0.95977855
0000d0 2e 34 73 3f c4 d2 7b 3f 49 71 6f 3f b7 8a 7f 3f
       0.95001495 0.9836848 0.93532234 0.9982104
0000e0 e8 3b 71 3f 2f 2b 6c 3f 03 0c 6a 3f 91 36 78 3f
       0.94232035 0.9225339 0.9142458 0.9695826
0000f0 94 d0 76 3f 50 bd 78 3f 55 d6 6f 3f 8a 55 74 3f
       0.96412015 0.9716387 0.9368642 0.9544302
000100 84 69 7a 3f 0b dc 72 3f 87 a3 78 3f 41 10 75 3f
       0.97817254 0.9486701 0.9712452 0.95727926
000110 08 4d 79 3f 10 b2 74 3f 66 e2 70 3f 03 c1 77 3f
       0.97383165 0.955842 0.94095457 0.9677889
000120 f8 ee 73 3f 5d f4 6a 3f 0d 43 72 3f c7 2f 70 3f
       0.9528651 0.9177912 0.9463356 0.938229
000130 b0 4b 7b 3f bc 16 73 3f 7c ef 77 3f a5 cc 6d 3f
       0.98162365 0.94956565 0.968498 0.9289039
000140 b4 f5 7a 3f d4 d0 79 3f 01 ff 6d 3f 45 1b 72 3f
       0.98031163 0.9758427 0.9296723 0.9457286
000150 c6 76 77 3f dd 2c 77 3f b1 51 72 3f ec 0c 7e 3f
       0.9666561 0.9655283 0.946559 0.9923847
000160 96 58 73 3f 3c 38 6f 3f c0 c1 70 3f 36 47 6d 3f
       0.95057046 0.9344518 0.9404564 0.92686784
000170 c9 d8 6c 3f 37 01 78 3f f2 9b 78 3f 5c 80 76 3f
       0.9251829 0.96876854 0.97112954 0.9628961
000180 2b 73 74 3f ea 4f 74 3f 8e 92 6b 3f 48 bc 74 3f
       0.9548823 0.9543444 0.920205 0.95599794
000190 47 a4 77 3f eb 67 72 3f c2 47 74 3f 8d bc 71 3f
       0.9673504 0.94689816 0.95421994 0.9442833
0001a0 c5 95 71 3f b4 e2 7e 3f e5 8b 71 3f 52 00 81 3f
       0.94369155 0.9956467 0.9435409 1.0078223
0001b0 4a 6f 70 3f b2 74 7a 3f 0b fd 77 3f 87 36 6e 3f
       0.93919814 0.9783431 0.9687049 0.9305195
0001c0 8b 41 6b 3f 7f b2 6f 3f 03 42 75 3f 78 30 76 3f
       0.91896886 0.9363174 0.9580385 0.9616771
0001d0 d4 f5 72 3f 0c c8 7a 3f 59 44 6e 3f ca 5d 76 3f
       0.94906354 0.979615 0.9307304 0.9623686
0001e0 05 aa 77 3f 0b f1 77 3f 67 b1 75 3f ae ed 75 3f
       0.96743804 0.9685218 0.9597382 0.96065795
0001f0 bb 83 6f 3f 7a 61 75 3f a5 e9 72 3f 6f 04 79 3f
       0.9356038 0.9585186 0.94887763 0.9727239

nnECG.1.bias f4 [128]
000000 fa 6c 35 bd ea 86 2a bc fc a8 6a bb bc e3 22 bd
       -0.04429338 -0.010408143 -0.003580629 -0.039767966
000010 7a 5c 2e 3c 72 93 34 bc c3 ae 8c 3c 25 37 90 3c
       0.010642165 -0.011021482 0.017173177 0.01760442
000020 b7 c2 94 3c 33 4b 61 bc 8c 09 1b bc 06 47 06 39
       0.018159254 -0.013750839 -0.009462725 0.00012805694
000030 c7 6d 68 bc 40 13 22 bd 53 24 25 bd 5d ac 81 bd
       -0.014186329 -0.03956914 -0.040317845 -0.06331704
000040 ea af e1 bc 7d 8b 23 3d 4a c7 08 bc 3c 8f b9 3c
       -0.027549703 0.03992795 -0.008348295 0.022651307
000050 32 e4 9a bc 25 e1 8c bb b0 f1 c0 3b 7f 1e 14 bd
       -0.01890764 -0.0042993003 0.0058881864 -0.036161896
000060 e3 b8 cc 3b 47 6c 84 bc c8 f7 11 bd cd cc db 3c
       0.006247626 -0.016164912 -0.035636693 0.026831055
000070 12 98 f2 bc 0a 87 77 3c d7 72 7e 3c 9c a0 0c bd
       -0.029613528 0.015107879 0.01553031 -0.034332857
000080 0c 64 9a bc 9e a4 68 3c 27 4d 30 3b 65 38 9f 3b
       -0.018846534 0.014199404 0.0026901455 0.0048590177
000090 9f f1 6d bd 09 2c 19 bd c9 cc 0f 3c 5a 1f 52 bd
       -0.058091756 -0.03739551 0.008776852 -0.05129943
0000a0 fc 2a 52 bd 9c 18 60 3b c4 ac 80 3c 13 56 82 bc
       -0.051310524 0.0034194356 0.015707381 -0.015910184
0000b0 28 59 50 bb f0 e0 01 bd 49 37 d7 3c 64 c9 3a 3c
       -0.0031791423 -0.031708658 0.02627148 0.011400554
0000c0 34 e2 8f bb 05 64 7d bc a1 d6 65 bc 43 cf 63 bd
       -0.004390979 -0.015465741 -0.014028222 -0.055617582
0000d0 da fa 34 bd d2 26 29 3c 5d e6 40 bd 8c 0b 1a 3d
       -0.044184543 0.010324197 -0.04709469 0.03760867
0000e0 7d 2b 16 bd 22 2f c0 bc ea 7e b0 bc e3 4c 9f bc
       -0.036662567 -0.023459975 -0.021544892 -0.019445842
0000f0 04 6c 82 bc e9 d2 01 bc 1e c7 b0 bc b7 cd 96 bc
       -0.015920646 -0.00792382 -0.021579321 -0.01840864
000100 4e 1f 74 b9 3c e1 f3 bc f0 53 dc bc e3 72 af bb
       -0.00023281315 -0.029770486 -0.026895493 -0.0053542717
000110 f7 59 f5 bc c9 b3 7a 3c 2a 5e 03 bd 8b e3 ca bc
       -0.029950125 0.015301653 -0.032072224 -0.024766704
000120 a1 7f 18 bd 6d f7 16 bd c8 08 04 bd b8 75 0f bd
       -0.03723109 -0.036857057 -0.032234937 -0.035024375
000130 59 a9 d5 bc 0e f9 27 bd 8a fc 01 3b 67 8f 4d bd
       -0.026081728 -0.041009 0.0019834363 -0.050185587
000140 c3 c6 06 3c 5f 1e a5 bb 28 59 3d 3c 29 be db 3c
       0.008226099 -0.005039021 0.011556901 0.026824074
000150 a9 c7 88 3c 8c 0a 83 3c 08 a2 7c bc 52 8e 4b bd
       0.016696768 0.01599624 -0.015419491 -0.049696274
000160 6d 3a 79 bb da a4 ca 3b 42 d1 07 bd d7 86 8d bd
       -0.003802921 0.0061842026 -0.03315855 -0.06910484
000170 7c 9e 1b bd 08 b5 0c bd dd 8b ac bc 74 cd 31 bc
       -0.03799294 -0.034352332 -0.021062786 -0.0108522065
000180 8c 95 a7 3b 05 fd 9b ba 3d 12 82 3b 13 a4 0a bd
       0.005114263 -0.0011900967 0.0039694593 -0.03384788
000190 61 3d 84 bc 4e 13 b0 bc 31 d2 26 bc 4c 03 ed b9
       -0.016142549 -0.02149358 -0.0101819495 -0.0004520662
0001a0 61 9b 93 3b c1 84 a8 3b 14 ad 96 ba 2c bb 1a 3c
       0.0045046066 0.0051427786 -0.0011495673 0.009444039
0001b0 0d 90 3a bc 82 d2 0d bc b7 f7 bc 3b 23 b5 f5 bc
       -0.011386883 -0.008656146 0.0057668346 -0.0299936
0001c0 96 8e 15 ba e4 fd 9b bc dc 14 0c 3c a2 55 92 bc
       -0.0005705146 -0.019041963 0.008549895 -0.017863099
0001d0 eb f3 a6 bb 5d 2f c1 3a 54 2e 87 bd 67 a6 a4 3a
       -0.0050949953 0.0014738847 -0.06600633 0.0012561799
0001e0 0f 5d 53 bc 20 81 38 bc fb 9a 1d bc 95 b9 2a bd
       -0.012900605 -0.011261255 -0.00961947 -0.04168089
0001f0 a1 b3 0e bd f3 3e 73 bd c3 fa 08 3c 8c 61 06 bd
       -0.034839276 -0.059386205 0.0083605675 -0.03280787

nnECG.1.running_mean f4 [128]
000000 03 5f 04 be db 26 61 3d c2 7e 8e 3d 36 fd 04 be
       -0.12926869 0.054968696 0.06957771 -0.12987217
000010 0d fb d9 3d b2 7f dd 3d 00 d2 8b 3d 31 ca c3 3d
       0.10643587 0.108153716 0.06827164 0.09560049
000020 d7 58 88 3d 77 f2 b1 bc 35 a5 3a 3d 91 be 09 3e
       0.0665757 -0.021722062 0.04556771 0.13451602
000030 5e 70 1e bd e6 8b ee bd 08 14 4f bd 11 44 41 be
       -0.03868138 -0.11647777 -0.050556213 -0.18873622
000040 6e 02 1a bd 87 10 8c 3d 5a d0 59 3d 64 98 b5 3d
       -0.037599973 0.0683909 0.053177215 0.08866957
000050 12 b1 0a 3b 3c 6e cf 3d 43 54 cd 3d 0d 81 84 3d
       0.002116267 0.101284474 0.10025837 0.06469927
000060 7e 2d d3 3c 39 ac 87 3d f0 82 fc bd eb 17 24 3d
       0.025778528 0.06624646 -0.12329662 0.040061872
000070 af 84 4a bc 44 ba c4 3d 17 a7 01 3e 51 21 69 bc
       -0.012360736 0.0960584 0.12661396 -0.014229135
000080 9f 73 41 3e 9d cd 54 3e 38 db db 3d ca 48 f7 3d
       0.18891762 0.2078156 0.10735172 0.1207443
000090 0b cb 47 be 22 72 d9 bd 6c 46 ab 3d 43 c0 f0 bd
       -0.19511048 -0.10617472 0.08363041 -0.11755421
0000a0 a5 fc 2d bd 29 23 8a 3d 09 fe f5 3d 6b 3e 50 3c
       -0.04247727 0.067449875 0.12011344 0.012710194
0000b0 64 99 07 3e 8c a0 58 bd 02 73 f2 3d e2 10 f4 3d
       0.13242108 -0.052887484 0.11838342 0.11917283
0000c0 59 3f 00 3e 3f cb 92 3d e8 a9 81 bc 58 ad 3e be
       0.12524165 0.07167672 -0.015828088 -0.18620813
0000d0 58 65 ee bc 32 58 06 3e 8a 5b 0f be b0 de 19 3e
       -0.029101059 0.13119581 -0.13999763 0.15026355
0000e0 e2 01 0d bc 4d f6 df 3c f1 d6 86 bc da f1 eb bd
       -0.008606406 0.027339125 -0.016459914 -0.11520739
0000f0 82 a2 84 3d fe b6 02 3e c6 eb 5d 3d b2 33 bd 3c
       0.064763084 0.12765118 0.05417993 0.02309594
000100 27 89 30 3e b6 17 f1 bd a5 51 77 bd ce 74 12 3d
       0.1723982 -0.117721006 -0.060380597 0.035755925
000110 1f 66 1c be 17 7c 07 3e f2 41 dc bd ef 98 cb bd
       -0.15273331 0.1323093 -0.107547656 -0.09941279
000120 f8 18 b9 bd 6d 0b 9f bd dd 04 09 bd 41 19 b2 bc
       -0.090379655 -0.07765851 -0.033451904 -0.021740558
000130 92 56 47 3c 51 d2 ed bd 15 93 9b 3d e4 8b 7a 3a
       0.012166636 -0.1161238 0.07596413 0.00095575885
000140 14 fd e6 3d 2c bd b3 3d e9 82 f3 3d a3 f0 f8 3d
       0.112787396 0.08776316 0.118902035 0.12155273
000150 50 58 f8 3d 0d 7a c7 3c e9 e3 ba 3d 40 b4 af bd
       0.12126219 0.02435019 0.09125502 -0.08579302
000160 38 1e 47 3d 1d b6 93 3d 07 f4 b5 bd 0e 3b c3 bd
       0.048612803 0.0721247 -0.08884435 -0.09532748
000170 71 12 69 bd c7 84 b2 bd b7 f2 29 bc ac 06 92 bc
       -0.056902353 -0.087167315 -0.010372809 -0.017825447
000180 18 b8 31 3b e5 38 7c 3c 99 75 b0 3c bf cf af bd
       0.0027117785 0.015394424 0.02154045 -0.08584546
000190 6b 6c 4a bc 51 78 1f 3b 67 b9 f5 bc 0c a9 a1 3d
       -0.01235495 0.0024333189 -0.029995633 0.07893571
0001a0 a9 78 f5 bb d7 40 0a 3e d7 d6 5b 3d 3f 01 78 3e
       -0.0074911905 0.13501297 0.053671684 0.24219225
0001b0 05 0f 6a 3d 4f b9 e8 3d 6b 4d 4f bc 84 39 93 bd
       0.05714323 0.1136347 -0.012652735 -0.071887046
0001c0 1d 31 1b 3e 13 d3 2c 3d 37 fd 0b 3e 55 7e 17 3d
       0.15155454 0.042193484 0.13670813 0.036985714
0001d0 0b 01 16 3d 12 6a e9 3d f0 be 19 be 86 35 4c 3d
       0.03662209 0.113971844 -0.15014243 0.04985573
0001e0 d9 27 a9 3d e3 e1 db 3c f4 e9 1e 3e 33 ed 32 be
       0.082595535 0.02684111 0.15518934 -0.17473297
0001f0 4f 64 a6 bd db 0d 07 be 3b 0f 8f 3d 7e 0e 62 3d
       -0.08124601 -0.13188879 0.06985327 0.055189602

nnECG.1.running_var f4 [128]
000000 ca 67 93 3d 71 14 93 3d e0 1f 93 3d 27 8f 93 3d
       0.071975306 0.07181633 0.07183814 0.072050385
000010 d9 3f 93 3d 29 49 93 3d bc 17 93 3d 55 43 93 3d
       0.07189912 0.071916886 0.07182261 0.07190577
000020 4b 24 93 3d 32 0f 93 3d f2 0e 93 3d 1e 6a 93 3d
       0.07184657 0.07180633 0.07180585 0.071979746
000030 17 13 93 3d 48 67 93 3d b7 1d 93 3d 0f e7 93 3d
       0.071813755 0.07197434 0.07183402 0.07221805
000040 e5 19 93 3d f2 20 93 3d c8 11 93 3d 6e 22 93 3d
       0.07182673 0.07184018 0.07181126 0.07184301
000050 4b 07 93 3d bf 33 93 3d 7f 39 93 3d 76 16 93 3d
       0.071791254 0.07187604 0.07188701 0.071820185
000060 dd 07 93 3d 03 20 93 3d e4 69 93 3d af 17 93 3d
       0.07179234 0.0718384 0.071979314 0.07182252
000070 05 0a 93 3d 35 3c 93 3d ef 68 93 3d 45 08 93 3d
       0.071796454 0.07189218 0.07197749 0.07179312
000080 86 cc 93 3d 23 f3 93 3d 6d 54 93 3d 00 67 93 3d
       0.07216744 0.07224109 0.07193837 0.0719738
000090 7a e6 93 3d 8e 57 93 3d 32 25 93 3d 6f 66 93 3d
       0.07221694 0.07194434 0.07184829 0.07197272
0000a0 34 16 93 3d 36 26 93 3d d1 48 93 3d 46 10 93 3d
       0.07181969 0.071850225 0.07191623 0.07180838
0000b0 b7 5b 93 3d 03 16 93 3d 4a 65 93 3d e6 4d 93 3d
       0.071952276 0.07181933 0.07197054 0.07192592
0000c0 10 4f 93 3d f1 29 93 3d 56 15 93 3d ca b4 93 3d
       0.07192814 0.07185734 0.07181804 0.07212217
0000d0 eb 1c 93 3d 07 66 93 3d fe 92 93 3d bd 85 93 3d
       0.0718325 0.071971945 0.07205771 0.07203243
0000e0 aa 0d 93 3d 2b 07 93 3d 50 09 93 3d 50 70 93 3d
       0.071803406 0.071791016 0.071795106 0.07199156
0000f0 d3 10 93 3d a8 51 93 3d 90 17 93 3d 95 08 93 3d
       0.07180943 0.07193309 0.071822286 0.07179371
000100 88 a8 93 3d 1f 71 93 3d 39 32 93 3d 0a 08 93 3d
       0.07209879 0.071993105 0.071873136 0.07179268
000110 25 7d 93 3d 01 6c 93 3d d9 4e 93 3d ac 3c 93 3d
       0.07201604 0.071983345 0.07192773 0.071893066
000120 11 47 93 3d 33 2e 93 3d 9c 0d 93 3d d0 10 93 3d
       0.07191289 0.07186546 0.0718033 0.07180941
000130 c8 09 93 3d 40 53 93 3d 7f 2c 93 3d da 06 93 3d
       0.071796 0.07193613 0.07186221 0.07179041
000140 17 3a 93 3d 06 23 93 3d 7f 51 93 3d ab 61 93 3d
       0.07188814 0.071844146 0.071932785 0.07196363
000150 23 46 93 3d a2 09 93 3d aa 25 93 3d a8 33 93 3d
       0.07191112 0.07179572 0.07184918 0.07187587
000160 da 13 93 3d 28 21 93 3d 76 45 93 3d 00 4e 93 3d
       0.07181521 0.071840584 0.07190983 0.07192612
000170 b5 1d 93 3d b6 32 93 3d 10 0b 93 3d 2e 07 93 3d
       0.071834005 0.07187407 0.071798444 0.07179104
000180 fe 07 93 3d 90 08 93 3d fb 0a 93 3d 62 43 93 3d
       0.07179259 0.071793675 0.07179829 0.071905866
000190 75 0c 93 3d 54 09 93 3d 6c 0b 93 3d a8 28 93 3d
       0.0718011 0.071795136 0.07179913 0.07185489
0001a0 a3 0c 93 3d 06 5d 93 3d 60 09 93 3d 0b 4a 94 3d
       0.07180145 0.07195477 0.071795225 0.07240685
0001b0 f4 13 93 3d b2 5d 93 3d 26 0a 93 3d 79 32 93 3d
       0.0718154 0.07195605 0.0717967 0.07187361
0001c0 86 88 93 3d bf 10 93 3d 0b 4c 93 3d 38 0e 93 3d
       0.07203774 0.071809284 0.071922384 0.071804464
0001d0 7b 0b 93 3d 1a 5a 93 3d 66 91 93 3d 8e 18 93 3d
       0.07179924 0.0719492 0.07205467 0.07182418
0001e0 bc 3f 93 3d 3f 0a 93 3d 56 7b 93 3d a0 a1 93 3d
       0.07189891 0.07179689 0.07201259 0.07208562
0001f0 e1 41 93 3d 64 79 93 3d df 1c 93 3d 35 21 93 3d
       0.071903 0.07200888 0.07183241 0.07184068
