Models_Attention/net_3_0_epoch_42.pth (torch, 267633 bytes, 31 tensors)

embedding.weight f4 [32, 1]
000000 5a cd 63 be 76 64 a3 3e 48 21 91 3e 4e 39 32 be
       -0.22246304 0.31912583 0.28345704 -0.17404673
000010 ad 27 58 be 38 89 09 bc ad db 8a bd 6b 26 98 be
       -0.21108885 -0.008394532 -0.06780181 -0.2971681
000020 c3 da 03 3e 93 51 3c 3e 79 b9 0a be b0 e3 54 3e
       0.1287642 0.18390493 -0.13547315 0.20789981
000030 3d b8 41 bd 4e 87 da bc 9e 2d cd 3d 2c d9 20 be
       -0.047294844 -0.026675846 0.100184664 -0.15707844
000040 f4 a1 57 3e a4 f1 ca 3d 9f cf 65 be 76 fb 1f 3e
       0.21057874 0.099093705 -0.22442482 0.15623268
000050 5a c3 8d 3d f4 0c 6b 3e 9f 33 ee 3d 6f 00 2a be
       0.06922026 0.2295416 0.1163094 -0.16601728
000060 3b 98 cd bc e8 68 b4 be ff e7 39 bd 59 d4 05 3e
       -0.025097003 -0.35236287 -0.045387264 0.13069285
000070 66 52 44 be 2c 05 af be 61 4f 61 be 39 3b 4d be
       -0.19172058 -0.34183633 -0.22002937 -0.20042123

embedding.bias f4 [32]
000000 53 25 b2 3d 1f 55 01 bd 76 c3 36 bd ed ca a1 3d
       0.08698525 -0.03157532 -0.04462 0.07900033
000010 e2 5c 1f 3d 29 03 de 3c 4a 24 32 3d bf 59 c7 3c
       0.03890694 0.027101116 0.04349164 0.024334786
000020 14 cf 96 bb e4 36 53 bd c8 80 79 3d e3 f8 58 bd
       -0.0046023224 -0.05156602 0.06091383 -0.052971732
000030 0e ab ab 3b 5e b3 a4 3b a5 76 2b bd 8e d9 53 3d
       0.005238897 0.005026265 -0.041861195 0.05172115
000040 0c 5e ae bc 2b 07 51 3c 7a b3 9f 3d e0 01 e2 bc
       -0.02128508 0.012758057 0.07797904 -0.027588785
000050 52 4f 29 3c 20 ac 23 bd b3 19 7e bd be 85 18 3d
       0.010333853 -0.039959073 -0.062036227 0.03723692
000060 25 67 37 3d 33 8f 42 3d d0 8b 14 bb f2 40 51 bd
       0.0447761 0.047499847 -0.0022666343 -0.051087327
000070 69 d9 74 3d 27 c9 95 3d 7a d6 7a 3d a2 02 9b 3d
       0.05977765 0.073137574 0.061239697 0.075688615

attention.in_proj_weight f4 [96, 32]
000000 44 21 a6 3d cc 02 fe 3c 52 8c 5d 3e b1 4b f4 bd
       0.08111814 0.031007193 0.21635559 -0.119284995
000010 71 ee 76 3d c3 61 1e bd 95 43 b4 3d fb 47 06 bd
       0.06028599 -0.03866745 0.08801953 -0.03278349
000020 cf ce c7 3d ea fa c4 bd 9e da 50 3e 5d 14 08 be
       0.097562425 -0.096181706 0.20395896 -0.13289018
000030 05 4b 3f 3e 8b 25 d0 bd d7 ea d3 3c ed f1 52 bd
       0.18680961 -0.10163411 0.025868816 -0.05150025
000040 1e 85 16 be 00 80 d2 3d 17 17 3e 3e ab 86 0f 3d
       -0.14699218 0.1027832 0.18563496 0.03504054
000050 38 22 27 be b1 02 8a bd 33 78 38 3e 83 fd 3c bd
       -0.16321647 -0.067387946 0.18014602 -0.046140205
000060 07 59 72 3b 8f 35 59 be 7b d3 11 3e 96 ee 82 bd
       0.0036979334 -0.21211837 0.1424083 -0.06393163
000070 c9 f0 27 be 44 32 fb 3b c9 6a 38 3e 4d 59 bb bc
       -0.16400446 0.0076659042 0.18009485 -0.02286973
000080 6e b0 00 3d f8 0c 1b 3a 64 c5 9c 3d ca c2 db bd
       0.031418256 0.0005914713 0.07654837 -0.107305124
000090 6f 8e 22 bd 03 7f 0f 3b e7 67 56 3e 0e 43 7e bd
       -0.039686617 0.0021895773 0.20938073 -0.062075667
0000a0 50 0d 4d be fd b8 d4 bd a0 c5 19 3c e8 d9 6a be
       -0.2002461 -0.10386846 0.009385496 -0.22934687
0000b0 25 d1 fc 3b 2e 59 fb bd 16 d8 55 be 09 1a 58 3e
       0.0077153617 -0.12272869 -0.20883211 0.21103682
0000c0 e0 5c 35 be 8f f6 db 3d 00 2f 9e bd 1a 57 9d bd
       -0.1771121 0.10740387 -0.07723808 -0.07682629
0000d0 96 d9 00 3e 05 96 ba bd c0 94 57 be f3 37 2a 3e
       0.12583002 -0.09110645 -0.21052837 0.16622905
0000e0 86 3e c2 bb 12 df 4e 3e ff 7a ec 3d 2f 55 7e be
       -0.0059278635 0.20202282 0.11546897 -0.24837182
0000f0 a3 ac 8f 3d cc 9a 05 bd e1 0a 80 3e c8 1c f8 bc
       0.0701535 -0.03261833 0.250083 -0.030287161
000100 00 30 00 3e 82 85 6b 3e 0b 35 03 3e 79 19 ed bd
       0.1251831 0.23000148 0.12813203 -0.11577124
000110 87 43 f3 3d 54 05 26 3e 2d 71 d6 3d 7c a2 25 3e
       0.11878114 0.1621297 0.10470805 0.16175264
000120 75 1c d4 3d 3d 62 74 bd ab 16 40 be ba 00 df 3c
       0.1035699 -0.059664 -0.18758647 0.027222026
000130 21 38 ad bc 23 34 9b 3c 36 41 2a 3d f2 8f b4 3d
       -0.021144928 0.01894576 0.041566096 0.08816518
000140 f3 1e 17 3e f2 a5 fc 3d 62 85 aa 3c b0 33 2e 3e
       0.147579 0.12336339 0.020815555 0.17011905
000150 8a e7 5e 3e 6e 83 c7 bd d9 b1 8a 3d 6f 47 be 3d
       0.21768013 -0.09741865 0.06772203 0.092909686
000160 ee 06 05 be c3 0e 01 3e bf aa 0c bb da 24 7a 3d
       -0.12990925 0.12603287 -0.0021464077 0.0610703
000170 ff 38 06 bd 7d 23 24 3e 08 33 52 be 64 51 e5 3c
       -0.0327692 0.16029163 -0.2052728 0.027992912
000180 39 7b d9 3d 17 1c b6 3d cc c2 05 be 07 df 34 3b
       0.10619206 0.088920765 -0.1306259 0.0027598755
000190 96 76 5e be 48 fd 3d 3b 0e 77 f4 3d 98 23 07 bd
       -0.21724924 0.0028990079 0.119367704 -0.03299293
0001a0 a8 52 c1 3d 02 04 41 3e f6 00 dc bd 5d 9c 5f 3e
       0.094395936 0.18849185 -0.10742371 0.21836992
0001b0 6f 75 08 3d f7 b2 39 bd 04 c6 42 3e 48 bf 62 be
       0.03331512 -0.04533669 0.1902085 -0.2214328
0001c0 6a 98 29 be 16 97 4d 3c 89 e2 85 bd 9f 99 d4 3d
       -0.16562048 0.012548229 -0.06537349 0.103808634
0001d0 a2 4e 4c 3e 29 94 94 3d ca 7d 1e 3d fa ad 27 3e
       0.19951871 0.07254822 0.03869418 0.1637496
0001e0 dc 1a f0 3d 32 65 1a 3e fe 52 50 be 76 39 34 3e
       0.11723873 0.15077665 -0.20344159 0.17600045
0001f0 d6 4b bc bb 14 e4 97 3c 30 7c e0 3d d1 5e 87 bd
       -0.005746345 0.018541373 0.10961187 -0.06609882
000200 5e ce 54 3e e3 ab 02 bd f8 67 7c be 57 73 3a 3e
       0.20781848 -0.031902205 -0.24649036 0.18208061
000210 df 40 5b 3e 12 a7 60 3b b5 1d 9a bd cf f2 50 3e
       0.21411465 0.003427927 -0.075251974 0.20405124
000220 b8 ca 0b be b9 5a c3 bd f4 78 2b be e8 6a 9c bb
       -0.1365155 -0.09538788 -0.16745359 -0.0047734864
000230 78 94 6f 3d 2c 17 1b bd 7e 26 3c be 39 13 94 bd
       0.0584912 -0.037863895 -0.18374059 -0.07230229
000240 b2 32 3b be 65 5c ea 3d 7d 2d 10 bc ac 2b e6 3d
       -0.18281057 0.11443404 -0.008799908 0.112387985
000250 91 5b d8 3d 99 34 90 bb fd 0b 37 3d 7c a1 7f 3e
       0.1056434 -0.0044008014 0.044689167 0.24963945
000260 0c 68 41 be c5 9f 39 3e 55 26 3f 3e c0 e2 19 be
       -0.18887347 0.18127353 0.18666966 -0.15027905
000270 0c 2c 34 3e 45 b3 77 3e 82 51 96 bd d7 12 b0 3d
       0.17594928 0.2418948 -0.07339765 0.085973434
000280 d4 3a 10 3c 63 5f 19 3e 1e 1b 89 bc 64 13 83 bd
       0.008803088 0.14977793 -0.016736563 -0.06400183
000290 ce b6 34 bd b4 e4 38 3b 88 1f 3e bd bf 3a 6e b8
       -0.04411965 0.002821249 -0.04641679 -5.6798333e-05
0002a0 e3 fe 36 be 06 87 90 bd 56 fd 9b 3d d8 87 f8 bd
       -0.17870669 -0.07057004 0.07616679 -0.12135285
0002b0 2f 16 39 be f2 1d 3a be 4b 4f 13 3e 7e 18 09 3e
       -0.18074869 -0.18175486 0.14385717 0.1338825
0002c0 19 ed 38 bd 4d 63 0e be 3a 32 87 bd ab d4 9d bd
       -0.04514799 -0.13905068 -0.06601377 -0.07706579
0002d0 47 95 ec 3d 52 10 14 3e a1 06 32 3e 75 c5 4f be
       0.1155191 0.1445935 0.17385341 -0.20290168
0002e0 54 41 20 3e 05 64 2c be 33 c9 00 bc 69 a1 53 be
       0.1564992 -0.1683503 -0.00786047 -0.20667042
0002f0 5b cc 2b bd 69 ce be bc 3e 73 db 3c ef af 94 3d
       -0.041942935 -0.023291783 0.02678835 0.07260119
000300 ca 11 4c be 60 ea 01 3e 41 53 19 3e 34 7c 00 be
       -0.19928661 0.12687063 0.14973165 -0.1254738
000310 10 fc a2 3c e0 53 43 3e c0 de 9a bd 1a 71 b2 bd
       0.019895583 0.19074965 -0.075620174 -0.08712979
000320 b8 ac d9 3d cb 7d 0e 3e 1a 21 c4 3c f6 8a a0 3d
       0.106286466 0.13915174 0.023941565 0.07839005
000330 cc af e7 3d ac 30 10 be b9 04 14 be 33 4f f5 bd
       0.113128275 -0.14081067 -0.14454927 -0.11977997
000340 79 4c 14 3d 98 bb e0 3d 1a 58 cf bd bb 55 37 3e
       0.036205743 0.10973281 -0.10124226 0.17903797
000350 4a da ea 3d 56 f7 be 3b c2 c1 42 be e3 63 8f 3d
       0.114674166 0.0058278246 -0.19019225 0.07001474
000360 a6 c5 6b 3e d1 5c 4e 3e d4 17 4d 3d 3d ea 46 3e
       0.23024616 0.20152594 0.050071552 0.19425292
000370 c5 bb b4 bd ce 50 16 ba e3 3f e1 bd 6a 05 dd 3b
       -0.08824877 -0.0005734087 -0.109985135 0.00674503
000380 fb 33 08 be 3e 2f 13 be 1d ff 23 3c ce 62 94 bd
       -0.13301079 -0.1437349 0.010009554 -0.07245408
000390 74 46 33 be f1 f5 d9 bd ad 2e 8d bd a3 23 72 3d
       -0.17507344 -0.10642613 -0.06893668 0.059116017
0003a0 cc 7a 13 3e d4 c0 00 bd 44 b2 c2 3b 8c 25 08 3e
       0.14402312 -0.031433895 0.005941661 0.13295573
0003b0 dc be 37 be 2a 5b e4 bd da eb 68 bd cd eb ef bd
       -0.17943901 -0.11150201 -0.05686555 -0.11714897
0003c0 e0 7c 44 bc 79 6c f6 bd a2 16 1e 3e c0 3c 2c be
       -0.011992663 -0.12032408 0.15438321 -0.1682005
0003d0 59 16 af 3d 6e c6 03 3e 8e d6 fc 3d cb 91 64 3e
       0.08549184 0.12868664 0.123456106 0.2232124
0003e0 f7 b1 8d 3d 4d 71 ee 3d ac ca 32 be ac eb 29 3e
       0.0691871 0.11642704 -0.17460126 0.16593808
0003f0 f2 34 4e 3e 2b d6 69 3e 58 91 97 bd 4c b6 a7 3d
       0.20137385 0.22835605 -0.07400769 0.08189067

attention.in_proj_bias f4 [96]
000000 47 38 06 3d dc 5a 83 bd 87 77 55 3d 7c be 52 3d
       0.032768514 -0.064138144 0.052115943 0.05145119
000010 01 3d 0d bd 2c f2 eb bc cc 52 aa 3b 7a 98 6d bd
       -0.034482006 -0.028802 0.0051978584 -0.05800674
000020 c2 cd e7 bb e1 9d d1 bc c3 f3 31 3c 59 70 8c 3d
       -0.007074089 -0.025587978 0.01086134 0.06857366
000030 bc 53 83 3d d1 a8 8b 3d b4 de 64 bd c0 2d 30 bd
       0.064124554 0.068193085 -0.05587645 -0.04301238
000040 d3 35 cd 3c 1d 54 11 bd 02 55 c5 bd e9 44 b1 3d
       0.02505008 -0.035480607 -0.096353546 0.08655722
000050 4b c4 06 3d 8b 70 f9 bc 52 de 64 3c 44 14 b3 bd
       0.032902043 -0.030449172 0.013969021 -0.087441
000060 d8 d6 75 3d e1 e1 e1 3b e5 3b 9b bd 12 bb ba bd
       0.060019344 0.006893382 -0.07579783 -0.09117712
000070 66 0a 12 3d 7f 08 aa 3d e1 ca d9 3d b3 62 b2 3d
       0.035654448 0.08302402 0.10634399 0.08710232
000080 73 ee 6a 3a 53 82 3a 3a e5 1d 51 3b 25 3e f0 3b
       0.00089619233 0.0007114757 0.0031908688 0.007331627
000090 9d 85 81 3a 65 e6 80 ba b7 28 90 39 00 c9 6a 39
       0.0009881739 -0.0009834288 0.00027496155 0.00022390857
0000a0 ac 91 29 3c 1f cf 3d bc 08 3c 37 3c 94 6e 2f bc
       0.010349672 -0.011585026 0.011183746 -0.010707516
0000b0 86 ec 25 bc 86 24 32 bc fd 50 3f bc d8 e1 4b bc
       -0.010127192 -0.010872966 -0.011677024 -0.012443982
0000c0 5d 04 5a 3c ac ca 5b 3c 17 f9 4a 3c 87 06 4d bc
       0.013306704 0.01341502 0.012388489 -0.012513763
0000d0 ac 2d 58 3c 28 28 51 bc c5 6f 4c 3c 02 cc 51 3c
       0.013194483 -0.012765922 0.01247782 0.012804987
0000e0 0c 08 c1 39 a6 4e 8c ba 28 d6 a1 b8 6d d4 00 3b
       0.00036817824 -0.0010704591 -7.716968e-05 0.0019657866
0000f0 af 57 5b 38 1a e3 3e ba 27 79 f6 39 6c c1 2f ba
       5.229533e-05 -0.00072817656 0.00047011042 -0.00067045423
000100 35 65 bc 3c 1e 21 09 3d cf 7a 11 3c 34 ea 8f 3c
       0.022997478 0.03347885 0.0088793775 0.017567731
000110 04 41 09 bd 5c 38 c1 bc f0 54 db bc 7b f3 a0 3c
       -0.03350927 -0.023586445 -0.0267739 0.01964735
000120 41 3f 5f 3c 00 d3 54 bb 1c d2 ff 3c 1d d0 a2 bb
       0.013625921 -0.0032474399 0.031228118 -0.0049686567
000130 e6 5a 08 bc 5f 7b 23 3c 94 23 e1 3c 61 f1 2d 3c
       -0.008322453 0.009978144 0.027482785 0.010616631
000140 39 40 ba bb 75 f3 fc 3c c6 41 dd bb 2c d0 6f 3c
       -0.0056839255 0.030877808 -0.0067522256 0.014637034
000150 de 57 92 bc c2 3c 93 bc 00 1c 4e 3b 74 4e 0d 3c
       -0.017864164 -0.017973308 0.0031449795 0.008624662
000160 30 f0 4b bc df 91 f5 3c 87 21 c7 bc 99 55 73 bc
       -0.012447402 0.029976783 -0.02430798 -0.014851951
000170 ec b2 d6 3b 57 99 cb 3c a7 c3 7e bc 64 02 b4 3c
       0.006552091 0.024853392 -0.015549577 0.021973796

attention.out_proj.weight f4 [32, 32]
000000 dd 48 84 3d 94 1d 85 3d b2 d0 b0 bd 4e c7 00 3c
       0.0645921 0.06499782 -0.086335555 0.007860018
000010 68 9d f2 bd 0f 98 b9 3d 40 38 01 3e b1 a1 53 3c
       -0.11846429 0.09062206 0.12619114 0.012916968
000020 59 fd 41 be 5b 09 05 be 4b a0 e4 bd 02 36 d8 bd
       -0.189443 -0.1299185 -0.11163386 -0.10557176
000030 17 44 cf bd 92 90 a3 3c 88 80 f4 bd 0b b8 f8 3c
       -0.10120409 0.019966397 -0.11938578 0.030361196
000040 55 d8 31 3e 34 2b 0e bd 5f 74 62 bd 08 62 15 be
       0.1736768 -0.03470917 -0.05528676 -0.14588177
000050 05 78 29 bb 35 02 13 be e4 c3 02 bc 2e ce 98 3d
       -0.002585889 -0.1435631 -0.007981274 0.07461201
000060 2b 6b a5 3d 58 37 1b 3e 7c 98 3e 3e 8c 9d 07 3d
       0.08077081 0.1515783 0.18612856 0.033109233
000070 14 e7 19 be 69 2d d2 bc 01 c5 c4 bc 18 ad 06 be
       -0.15029556 -0.025656419 -0.02401972 -0.13151968
000080 50 6c fc bd f4 92 bd bd bd cb d8 bd 9b 11 74 3d
       -0.123253465 -0.09256545 -0.10585735 0.059587102
000090 b2 31 5f 3d 2e 0e 1a 3d a4 82 05 be 05 c2 62 bd
       0.054490753 0.03761118 -0.13038117 -0.055360813
0000a0 ab 35 e4 3d 92 dd 36 be 38 d5 4b bd df 08 08 3e
       0.11143049 -0.1785796 -0.049763888 0.13284634
0000b0 7a 7f ec bc 19 e2 b3 3d d9 be cf bc ee b4 bd 3d
       -0.02886938 0.08783359 -0.025359558 0.09263025
0000c0 84 2f 46 3e 71 50 b8 bc 9e 18 2a be 97 44 a0 bd
       0.19354063 -0.022499295 -0.16610953 -0.078255825
0000d0 80 3d 88 3d a4 fe 03 bd 28 2a 15 3e 66 c9 0d 3d
       0.06652355 -0.032225266 0.14566863 0.034615897
0000e0 d8 25 ec 3d 8f 50 6a 3d b6 32 78 ba 95 6d 04 bd
       0.115306556 0.057205733 -0.0009468006 -0.032331068
0000f0 f8 f9 a4 3d 89 63 4a 3d 3a 41 4d bd 46 28 6e 3e
       0.0805549 0.04941133 -0.050111033 0.2325755
000100 19 09 ae 3d 28 16 24 3d 13 48 a9 bd a9 96 04 3d
       0.08497829 0.040060192 -0.082657 0.032370243
000110 82 15 2e 3d 96 08 62 3b 18 ad 36 bd 68 10 b3 bd
       0.04250098 0.003448998 -0.04459867 -0.087433636
000120 09 bd 0a 3d f6 60 2f bd c9 72 8d bd aa 16 b0 bd
       0.033871684 -0.04281708 -0.06906659 -0.08598073
000130 7d 81 aa 3c d4 88 ac 3d 3d 39 cd bd f7 2f 83 3d
       0.020813698 0.084245354 -0.10020683 0.06405633
000140 50 6f 8c bd 0f 0e 75 3a 7f d1 53 3c 57 a7 b3 bc
       -0.06857169 0.0009348103 0.012928366 -0.02193038
000150 ca 08 2c bd 64 ce f5 3d 62 cb 02 bd 08 51 4a 3d
       -0.04200057 0.120022565 -0.031932242 0.049393684
000160 4b a1 33 bd b1 89 10 3e ce 44 ba bb c1 9e 8e bd
       -0.043854993 0.14115025 -0.0056844717 -0.06963874
000170 be b5 90 bc 77 1e 77 3d 13 e8 0b 3e 59 c2 21 3e
       -0.017664786 0.060331788 0.13662748 0.15796794
000180 d3 ba f6 bc 7f 59 a6 3d 7f 13 27 bd 4e 3a f9 3d
       -0.030118382 0.08122539 -0.040790077 0.12169324
000190 75 a0 16 3e 23 ba 19 be 24 9d 84 3d fe d5 99 3d
       0.14709647 -0.15012412 0.06475285 0.07511519
0001a0 01 ff 19 bc 7e 52 bf bc dc 66 68 bc 69 15 ad 3d
       -0.009399177 -0.023354765 -0.01418468 0.08451349
0001b0 19 df 51 3d fe 30 a8 3d 87 23 a0 3d 25 1d f7 3d
       0.051238153 0.082124695 0.07819276 0.12066106
0001c0 53 ab b7 3d ab 00 95 bd 65 ec c9 3d 5a 5c b1 3d
       0.089682244 -0.07275518 0.09859542 0.08660193
0001d0 46 9d a6 3c 37 4f 00 3e a2 80 6e 3c 31 a9 85 bd
       0.020338666 0.12530218 0.014557036 -0.06526411
0001e0 d6 ef fa 3d da 24 98 3d d5 f0 77 3b 1b c8 9e bd
       0.12252776 0.07428904 0.0037832756 -0.07753011
0001f0 c4 4d eb bc c5 8a 18 39 89 c0 89 bd ea 6a 27 be
       -0.028723605 0.00014547545 -0.06726176 -0.16349378
000200 87 a8 0b 3e bd 79 de 3d b4 59 32 be dd 95 12 be
       0.13638507 0.108630635 -0.17417032 -0.14314981
000210 84 69 b3 bc 80 38 0e bd 61 15 ed bb 61 04 0e 3e
       -0.0219009 -0.03472185 -0.0072352146 0.13868858
000220 28 03 42 3d 68 94 56 bc 8f 52 0f 3e de 4a 7b bd
       0.04736629 -0.013096906 0.13996337 -0.061350696
000230 ec ed c0 bd b3 06 ed bd 52 40 10 3e f4 34 04 be
       -0.0942038 -0.115735434 0.14087036 -0.12910825
000240 3e e1 b2 bd 75 34 6c bd c7 9a d8 3d 65 f6 24 bd
       -0.08734368 -0.057667214 0.105763964 -0.040274043
000250 6a a2 cc 3c a3 1c 34 3e ba e2 f9 3d 63 b4 0f be
       0.024979789 0.17589049 0.12201448 -0.14033656
000260 fb 97 90 3b 6d db 88 bc e1 c2 70 bd b8 7a 2b 3d
       0.0044126487 -0.016706193 -0.0587796 0.04186508
000270 1a df 15 3e ef fb bf 3d f9 a2 d7 bc 4c ca ca bc
       0.14635888 0.093742244 -0.026322829 -0.024754666
000280 af 00 85 bd 78 69 c0 bd 59 c3 21 be 8f e7 7b 3d
       -0.06494271 -0.093951166 -0.15797175 0.06150013
000290 55 ff d3 bd 79 64 ec 3d 4f 58 a3 3d c9 5e 43 be
       -0.10351435 0.11542601 0.07975828 -0.19079126
0002a0 73 47 09 3e a5 25 29 3e a8 29 8d 3d c6 ad b8 bc
       0.13406162 0.16518266 0.06892711 -0.0225438
0002b0 82 a3 12 3c 1f 71 75 bd 4d 52 e1 ba 45 85 04 3e
       0.008950116 -0.059922334 -0.0017190665 0.12941463
0002c0 bb f1 07 be 7d 7c c5 3d 4c 45 c7 3d d2 62 8a 3d
       -0.13275807 0.09642885 0.09730014 0.0675713
0002d0 a2 f7 a0 3d 4d f2 0f 3c d6 16 10 be 93 39 cd 3b
       0.07859732 0.008785796 -0.14071211 0.006262967
0002e0 6b ca 03 bd 82 88 06 be 79 cd 25 be 68 28 2f 3e
       -0.032175463 -0.13138011 -0.16191663 0.17105258
0002f0 80 e3 98 3c 27 f0 5d bd e2 73 58 bd 2d 4d ad 3d
       0.018663168 -0.054184105 -0.05284489 0.08461986
000300 68 88 0f 3d 04 b5 51 be 82 0f fd bd 6f 0a d9 3d
       0.035042197 -0.20479208 -0.123564735 0.10597693
000310 c4 15 5d bc 75 67 a9 3d a1 7c 12 bd e4 8a 78 be
       -0.013493959 0.08271686 -0.035763387 -0.24271733
000320 f7 aa 45 bc 4e 43 80 3d c5 af 92 3d 67 c4 32 bd
       -0.012064687 0.06262837 0.07162432 -0.043644335
000330 8c ea cf 3d 1a e0 2f 3e a0 e8 08 bd 3d 04 ff 3d
       0.10152158 0.17175332 -0.033424973 0.1245198
000340 fe 8e ae 3c 91 1c 75 bd 1b f5 e0 3d 7f da 20 3d
       0.021308418 -0.059841696 0.1098425 0.039270874
000350 92 c8 67 bc c7 10 20 3e 2b 1d d7 bd 38 3d 3c be
       -0.014146941 0.156314 -0.1050361 -0.18382728
000360 e5 84 eb bb 74 6a 29 be 81 72 20 be 36 d5 44 3e
       -0.007187473 -0.16544515 -0.1566868 0.19221959
000370 7d 34 47 3e 8a bc 89 3a 3b 6a 1e be 2f 84 90 bd
       0.19453616 0.001050846 -0.15470211 -0.07056462
000380 94 d5 72 3c 85 4e 13 bd a0 7a 37 3e c0 dc fa bc
       0.014821429 -0.035963554 0.17917871 -0.03062284
000390 2e 14 c9 3d fa c8 00 be 22 a9 d8 3d 72 ea 11 3e
       0.09818302 -0.12576666 0.105791345 0.1424959
0003a0 e6 41 24 3d 02 6c 06 3d 2f 53 17 3e be b9 ca bd
       0.04010191 0.032817848 0.14777826 -0.09898709
0003b0 22 1c f6 3a 5f 6f ab 3c b5 68 25 bd a0 90 79 3d
       0.0018776695 0.02092713 -0.04038306 0.06092894
0003c0 e6 f7 2e bd bc ea 65 bd 92 a4 14 be c4 7f 09 3e
       -0.042716883 -0.056132063 -0.14515904 0.13427645
0003d0 74 01 ac ba ed ca ae 3d 2e ae b3 3c ae 1a 26 bd
       -0.0013122992 0.08534799 0.021933641 -0.040552787
0003e0 60 07 c1 3d a9 67 1d be 6d fd 20 3d 63 d8 b7 3d
       0.09425235 -0.15371574 0.039304186 0.08976819
0003f0 d7 af ce 3c 7a e3 de 3d d2 b6 c7 3d c3 6c b5 bd
       0.025230331 0.108832315 0.09751667 -0.08858635

attention.out_proj.bias f4 [32]
000000 62 11 f9 3b af 13 9f bb 3e 3f f1 bb bd a3 cc 3b
       0.007600949 -0.0048546414 -0.0073622754 0.006245105
000010 94 90 77 3a f4 14 9c 3c 8f 63 95 bb be cf 50 bc
       0.0009443846 0.01905296 -0.0045589874 -0.012744842
000020 6d 34 60 3c e8 c8 21 3b de 1d 86 bb b9 33 57 3c
       0.013684374 0.00246864 -0.004092916 0.01313489
000030 07 a6 1f ba 1c ac e7 3b 39 e9 eb 3b c2 a9 4e bc
       -0.00060901087 0.0070700776 0.007199433 -0.012613716
000040 19 9b 33 3c 61 6c 9b bc 97 6d a7 bb 3a 1f f4 ba
       0.010962271 -0.018972578 -0.0051094997 -0.0018625029
000050 2d dd 87 bb 2a 5b 8f 3b 1c 25 65 bc 05 2e f6 3b
       -0.0041462393 0.0043748813 -0.013985898 0.00751281
000060 72 1a 91 3b 60 37 bf 3b ee c5 6c 3c 49 e4 bd 3a
       0.0044282014 0.0058354586 0.014451487 0.001448759
000070 a8 37 9d bb e9 e6 a0 3b 1a 7f 03 3c 56 2a 7c bc
       -0.0047978945 0.004910339 0.008025909 -0.015390953

nnECG.0.weight f4 [128, 384]
000000 29 83 c2 3d 11 00 a2 3c 48 ae ee bd 3d 61 86 bb
       0.09497673 0.019775422 -0.11654335 -0.004100947
000010 58 1a ad bd 0e 68 fd 3d a2 b0 0e bd fe 1f e5 3d
       -0.0845229 0.123733625 -0.03483642 0.11187743
000020 7e a6 bb bd 9b 4c b9 3d 4a 40 78 bd 44 14 02 bb
       -0.09162615 0.090478145 -0.060608186 -0.0019848505
000030 bb 05 d6 3b c7 0a b9 bd 8f 46 06 3c 95 23 7c 3d
       0.006531445 -0.09035259 0.008195533 0.06155737
000040 56 a3 64 bd 5d 0b f9 3d 80 6d 02 3d 6f 43 3c bd
       -0.05581983 0.121603705 0.03184271 -0.045962747
000050 fa 71 03 3d c4 e5 97 bc a8 06 76 bd 49 77 56 bc
       0.03209112 -0.018542178 -0.06006494 -0.013089963
000060 99 c3 95 bd 4b a3 6b bd 8c b7 c3 3c 14 c8 b0 3d
       -0.07312698 -0.057528775 0.023891233 0.08631912
000070 e0 ac 00 3b 6a 61 d0 bd 81 f5 a1 bc 15 3a 9a 3d
       0.0019634292 -0.1017483 -0.019770386 0.075306095
000080 98 b5 96 3d 50 3a 25 bd b3 35 a9 3c 67 02 fd 3c
       0.07358855 -0.040338814 0.020655489 0.030884935
000090 cb d0 97 3c a7 37 02 bd 48 b2 8d 3d 52 53 a2 bb
       0.018532177 -0.031791355 0.0691877 -0.00495378
0000a0 5e 22 28 bb f7 9e ec bd ee 76 54 bd 8f f7 31 bd
       -0.002565525 -0.11553758 -0.051871233 -0.04344898
0000b0 22 d6 80 3d 86 ed 9b 3d 97 9d 90 3c f9 86 8a 3d
       0.062908426 0.076136634 0.01765327 0.06764025
0000c0 ef 8a 9a 3c cf c2 46 bd 05 fc 93 bd 5d c3 91 bd
       0.018865077 -0.048525628 -0.07225803 -0.07117341
0000d0 32 fc 57 bd f9 e3 01 ba a7 47 5e 3d e2 20 7e 3d
       -0.052730747 -0.000495493 0.05426755 0.06204308
0000e0 00 b7 6f bd 29 0f 30 bc 4f 4a 98 3d 34 a2 68 3b
       -0.05852413 -0.010745802 0.07436048 0.0035497071
0000f0 f5 37 9c 3d 4e 0f b7 bd 79 11 25 bd bb ec 60 3c
       0.076278605 -0.08938466 -0.040299866 0.013728316
000100 40 ce ba 3d 56 de 23 3c ef a8 7a 3d 89 ba a4 3d
       0.0912137 0.0100017395 0.061196264 0.08043391
000110 64 54 4a bc 0e 62 ea 3d 43 b0 9d bd b9 5e 99 3c
       -0.012349222 0.11444484 -0.07699635 0.018721925
000120 b8 01 8e 3d 69 c7 70 bc 31 f8 ed bd a1 95 db bb
       0.069339216 -0.014695981 -0.116196044 -0.0067011868
000130 5d 9b b6 3d 7f e9 c7 3b e5 2a ee bb 5a 7a d2 3d
       0.08916352 0.006100833 -0.007268297 0.10277243
000140 88 e4 bc bd 49 2f 23 3c ef b8 c9 3d 67 54 6e 3b
       -0.092232764 0.009960004 0.098497264 0.0036366226
000150 54 09 93 bd 35 9a f8 3b 5b 7a a8 3d 0a 22 76 3d
       -0.071795136 0.0075867423 0.082264625 0.060091056
000160 6e f5 10 bd 3e 56 16 3c 84 b9 db 3c 3c 9c 48 3a
       -0.03539031 0.009175835 0.02682186 0.0007652675
000170 5c c1 96 bc 5a c2 fa 3c d8 43 0d bd 9c 5c da 3d
       -0.018402748 0.030610252 -0.03448853 0.10662195
000180 35 2b 5e bd 09 fa 31 bd de 4d 53 3d 48 15 c6 3d
       -0.054240424 -0.043451343 0.05158793 0.09672028
000190 a0 f7 42 3d 72 09 83 bd 55 41 fc 3c cf 80 27 bd
       0.047599435 -0.06398286 0.030792871 -0.040894326
0001a0 df 33 e0 bb f6 9d 7e bb 67 ab d3 bd f0 00 cb bd
       -0.006842121 -0.0038851476 -0.10335427 -0.09912288
0001b0 f7 21 f0 3d 4b 3b 24 3b bc f1 be bd 0b 3a 0a 3e
       0.11725228 0.0025059755 -0.09323451 0.13498704
0001c0 06 b9 b4 3b da 31 df 3c 3b 34 a5 bd 75 d0 d0 bc
       0.0055152206 0.02724545 -0.08066603 -0.025490025
0001d0 c8 bc 71 bd 19 6e 18 3d 5f c6 0e 3e 77 e8 cf 3c
       -0.059017926 0.037214372 0.1394286 0.025379403
0001e0 d4 24 05 be be 06 0f bd 2a 53 a3 3d 4d ba 8b bd
       -0.1300233 -0.03491854 0.07974847 -0.068226434
0001f0 38 74 7a 3d 27 08 e1 bd 9a 40 f0 bc 2d 27 92 3c
       0.06114599 -0.10987883 -0.02932768 0.017840946
000200 87 8e 30 3d 91 cd 08 3d 3b 2c f5 bd a7 c6 a6 3d
       0.043104675 0.03339917 -0.11971327 0.08143359
000210 d1 f7 8b bd 1f 5b 01 bd 21 34 4a 3d 98 c7 25 3d
       -0.068343766 -0.03158104 0.04936612 0.04047355
000220 b2 f2 06 be d1 60 b4 bd 95 d2 bd 3c 16 fa b1 3d
       -0.13178518 -0.08807529 0.023171702 0.08690278
000230 ad f7 ba 3d e2 8c f6 3c b3 bf bc 3d b6 2a 85 3d
       0.09129272 0.030096475 0.09216251 0.06502287
000240 9a 79 c6 3d 02 90 d8 3d 44 97 4b 3d 94 e5 97 bd
       0.096911624 0.10574342 0.049704805 -0.074168354
000250 2e 0f e9 3c d9 03 75 3d 1a 19 0a bd 5b 6f 18 bb
       0.028449621 0.059818123 -0.033715345 -0.0023259732
000260 6d 4b f6 bd 5e 6a 26 3d 92 48 a9 3d a1 56 07 3c
       -0.12026105 0.040628783 0.08265795 0.0082604
000270 5d d3 57 3d 73 af 2c bc 79 dc 94 3b d2 13 1e 3d
       0.052691806 -0.010539877 0.004542884 0.03859312
000280 a0 4f d8 bd a8 e0 a3 3d e7 ef bf bc 01 13 7e 3d
       -0.10562062 0.08001834 -0.023429824 0.062029842
000290 dd 7d dd 3c b7 5f 24 bc a5 5c e0 3c 36 4d 99 bd
       0.027037555 -0.010032586 0.027387926 -0.0748543
0002a0 5f db 80 3d 76 b9 02 bc 8e c3 62 bd a3 77 e8 bd
       0.06291842 -0.007978788 -0.055362277 -0.11350944
0002b0 c2 f5 ee 3d ad ba a9 3c 53 df 8e 3d 2f 9b 8e bd
       0.11667968 0.020718897 0.069761895 -0.06963193
0002c0 a9 b5 a8 bd 32 9f c3 3d 6d c1 9a 3c d1 33 7c bd
       -0.08237774 0.095518485 0.01889106 -0.061572853
0002d0 d3 b4 27 bd cf 8e 2f 3d 82 c9 d5 3b 3f d0 10 3d
       -0.04094393 0.042860802 0.0065242657 0.03535485
0002e0 a7 17 f2 3c 54 8a 08 3d d6 ca ad 3c 27 db 7a 3a
       0.029552294 0.033335045 0.021214884 0.00095693994
0002f0 13 7a 53 bd 10 15 d6 3c 8b 37 99 3c 7a 13 8e 3d
       -0.05163009 0.02613309 0.018703243 0.069373086
000300 74 09 87 bd 05 b1 75 3d 22 90 af 3d a1 b6 ae 3d
       -0.065936 0.059983272 0.08572413 0.085309274
000310 af 1b c5 bd 07 54 4d 3c b8 9d a5 3d e7 99 e1 3d
       -0.09624421 0.012532241 0.08086723 0.11015683
000320 37 ee ab bd 66 e2 a9 bd c6 1b 8f 3d a5 b8 c3 bd
       -0.08395045 -0.08295135 0.06987719 -0.095567025
000330 ee 82 e4 3c 58 4b c7 3d 20 fd 5c bd 56 2e 84 bd
       0.027894463 0.097311676 -0.053952336 -0.064541504
000340 76 45 c5 bd a9 f0 3c bd a2 ca 6d bd 8d 93 86 bc
       -0.09632389 -0.04612795 -0.058054574 -0.01642778
000350 f7 81 4e 3d 9c be 57 3c a3 24 ec 3b e9 34 e3 bd
       0.050416913 0.013168003 0.007206516 -0.11094076
000360 b6 d6 4f bd c0 d7 bf bd 05 3b 13 bd 3f 65 c1 bc
       -0.050741874 -0.09367323 -0.035944957 -0.023607848
000370 2c 5f d6 bd 73 41 80 bd 36 fa df 3d 7c ed 87 3d
       -0.10467371 -0.062624834 0.10936396 0.066370934
000380 24 02 c4 bd 44 19 65 3d dd 36 8d 3d b2 6d 9b bc
       -0.09570721 0.0559323 0.0689523 -0.018973205
000390 2a fe 1b 3d cc 21 e3 3d f8 f3 82 3d 16 1b 6a bd
       0.038084187 0.110904306 0.063941896 -0.057154737
0003a0 bb 0f a3 3d 6d 64 97 bd 3f d5 1b bd 17 09 96 3d
       0.07961985 -0.073922016 -0.038045164 0.073259525
0003b0 a4 c9 2b bc 8a 2e 0c 3d 23 63 12 bc 3c 06 38 3d
       -0.010485087 0.03422407 -0.008934769 0.04492782
0003c0 8d 82 94 3d 5e 44 b2 bd 6a b7 5d bb c5 cd 3c 3c
       0.07251463 -0.08704446 -0.0033831247 0.011523669
0003d0 27 4f 15 3b c4 55 93 3c 7e 11 bc 3d 55 57 21 3c
       0.0022782774 0.017985232 0.09183024 0.009847482
0003e0 ef a8 e0 3c 39 bd 84 bd 72 af 1b bc 39 19 9c ba
       0.027424304 -0.06481404 -0.009502279 -0.0011909372
0003f0 64 f0 94 3c 52 a5 70 bd 6d 14 02 3c 55 41 53 3a
       0.018181033 -0.05875141 0.00793944 0.00080587465

nnECG.0.bias f4 [128]
000000 c0 0f 7e ba 8b 33 07 3b 18 91 54 bb 67 cb 82 3c
       -0.0009691678 0.0020630087 -0.0032435115 0.01596613
000010 f0 b1 23 bd a4 fd f5 3c 49 0c 09 bd 07 8b bb bc
       -0.039964616 0.030028172 -0.03345898 -0.022893442
000020 2b 27 db 3c 6f 7c c2 3c dd c6 ef 3c 79 14 a5 3b
       0.026752075 0.023740975 0.02926963 0.005037841
000030 c3 63 2e 3b 5b e2 8a 3c 97 6d a8 3c c3 9d 83 bb
       0.0026609756 0.016953638 0.020560069 -0.0040166094
000040 70 f1 6e 3c 62 2e fc bc d2 e0 7d 3c 4a f6 77 bb
       0.01458393 -0.030783836 0.015495496 -0.0037836009
000050 0a ff d3 bc ff a5 18 bd aa 0e e0 bc e7 26 0d bd
       -0.025878448 -0.03726768 -0.027350742 -0.03446093
000060 20 ba 04 3d 9f ca 2d bc a9 7d 61 3c 90 bb 9c 3c
       0.032404065 -0.010607391 0.01376287 0.019132406
000070 93 ae f5 3c af 2a ba 3c 70 f5 f8 bb bd d1 4f 3d
       0.02999047 0.022725431 -0.007597618 0.05073713
000080 2a d7 5e 3c 3f 7b 3a bc f4 b5 33 bd f0 30 b5 bc
       0.013601104 -0.011381923 -0.043874696 -0.022118062
000090 91 1b 9b bb 22 4b d0 bc a3 34 27 ba 44 39 fb bc
       -0.004733511 -0.025426451 -0.0006378388 -0.030666955
0000a0 ce 8c 3b 3c b1 23 da bc 83 40 62 bd 67 7b 01 3d
       0.011447145 -0.026628347 -0.055237304 0.031611826
0000b0 b0 70 08 3d b7 20 27 bc 18 86 f2 bb 36 59 c4 3b
       0.033310592 -0.010200671 -0.007401239 0.00599208
0000c0 a7 75 4e bd 31 4f 2e 3c f9 5a c9 bc 1c 87 7b bd
       -0.05040517 0.010638998 -0.024579512 -0.061408147
0000d0 87 2f 7b bd 64 b8 54 bb 10 2a 2a 3c 0d 6b c6 bc
       -0.061324622 -0.0032458538 0.010386005 -0.024220968
0000e0 7a 5a 63 bc 9f ff 98 bd 42 8c af 3c 1a 61 c7 bc
       -0.013876552 -0.07470631 0.021429185 -0.024338294
0000f0 fa ef d4 3a 49 ca d5 bc d5 6b 51 3c 41 c0 ea bc
       0.0016245835 -0.026097434 0.012782057 -0.028656127
000100 f3 5f 30 3c 26 81 96 3c 49 d1 0f bc 48 ec 63 3c
       0.010765064 0.01837213 -0.008777925 0.013911314
000110 b0 fd 84 ba f7 81 20 3c a8 ce 43 bc 0f f4 71 bd
       -0.0010146406 0.009796611 -0.011951126 -0.059070643
000120 9c c4 04 bd 15 1a 00 3d 5d 87 44 bc 6c 34 a5 ba
       -0.032414064 0.031274874 -0.011995164 -0.0012604124
000130 66 d5 dc bc 6e 16 36 bd 1f eb a8 bc 1e 02 fa bc
       -0.026957225 -0.044454984 -0.020619927 -0.030518588
000140 b2 11 10 bc ff 78 b5 bc e4 3e 7f bc 4c d6 0d 3d
       -0.008793281 -0.022152422 -0.015578959 0.034628198
000150 f4 73 15 bc e9 f4 e8 bc e6 7b 70 bd bd 2c 41 bc
       -0.009121884 -0.028437095 -0.05871191 -0.011790452
000160 d5 dd e3 bc 99 4f 96 3c e8 eb cd 3c 63 8a 22 bd
       -0.027815739 0.018348502 0.025136903 -0.039682757
000170 5b 05 c9 bc e1 12 0c 3d a2 e6 1b bd 26 9b f4 3c
       -0.024538686 0.03419769 -0.038061745 0.029859137
000180 03 6c b8 bb e0 3c 90 bc dd 50 97 3c 55 f7 e5 3c
       -0.0056281104 -0.017607152 0.018471176 0.028072039
000190 b1 d1 ab 3c f4 83 4d 3c 29 6e 25 3d cf 37 4f bd
       0.020974012 0.012543667 0.04038826 -0.050590333
0001a0 95 fd 01 bd ec fe 34 bb 1a 43 a4 3c a5 a2 4e bc
       -0.031735975 -0.0027617766 0.020051528 -0.01261202
0001b0 e5 04 b0 bb 89 d8 75 3b ae b9 e5 3a 53 20 4d 3d
       -0.005371677 0.0037513098 0.001752665 0.050079655
0001c0 30 4c c9 bc cb 1c a6 3c 39 a5 a6 bc dd c8 69 bd
       -0.024572462 0.020277401 -0.020342456 -0.057076324
0001d0 42 94 de 3c 58 71 0c bd e3 3d 2d 3c 4e 54 d5 bc
       0.027170304 -0.03428778 0.010573837 -0.026041176
0001e0 9a 0a e0 bc bb 3c 04 3d dc c2 5a bd 69 33 a7 3c
       -0.027348805 0.03228448 -0.05340849 0.020410256
0001f0 62 0a 2b 3b 12 d8 9d bc 2f a1 14 3d 76 8a 40 3d
       0.0026098718 -0.01926807 0.03628653 0.047007047

nnECG.1.weight f4 [128]
000000 26 27 75 3f ad c2 76 3f ca c8 76 3f cf 21 72 3f
       0.9576286 0.963908 0.9640013 0.9458284
000010 c6 8a 76 3f b8 e2 7c 3f 76 84 76 3f bb 65 74 3f
       0.963055 0.98783445 0.9629587 0.9546773
000020 df 79 73 3f a7 23 76 3f b1 b9 7c 3f 75 91 70 3f
       0.95107836 0.9614815 0.9872084 0.9397195
000030 0e 86 75 3f ba 13 6a 3f 84 51 68 3f de f1 6a 3f
       0.95907676 0.9143635 0.9074938 0.9177531
000040 9f 4c 7d 3f fa e4 71 3f ba 5f 77 3f 74 2c 74 3f
       0.9894504 0.94490016 0.9663044 0.9538033
000050 0a 2e 75 3f 37 35 6c 3f e5 7c 70 3f 1e 70 77 3f
       0.95773375 0.922687 0.93940574 0.9665545
000060 9e fc 6f 3f 71 36 74 3f 29 18 6c 3f aa ed 79 3f
       0.9374484 0.9539557 0.92224365 0.9762827
000070 37 e9 72 3f 9d ca 77 3f 41 23 74 3f 3b 57 6f 3f
       0.9488711 0.9679354 0.95366293 0.9349248
000080 c2 00 77 3f 4c 95 6b 3f 06 61 72 3f d1 84 73 3f
       0.9648553 0.92024684 0.94679296 0.95124537
000090 44 28 6c 3f ff df 65 3f 65 56 80 3f 19 db 68 3f
       0.9224894 0.89794916 1.0026366 0.90959316
0000a0 4d 4e 75 3f f7 58 75 3f c1 7c 70 3f 19 bb 7f 3f
       0.958226 0.95838875 0.9394036 0.99894863
0000b0 36 70 75 3f df f1 71 3f c7 45 7d 3f b4 a5 71 3f
       0.95874345 0.9450969 0.98934597 0.9439347
0000c0 17 79 6a 3f c2 98 74 3f b6 2f 77 3f 99 92 69 3f
       0.9159102 0.9554559 0.96557176 0.91239315
0000d0 b4 11 6a 3f ae d9 71 3f 5a 47 73 3f a1 a4 67 3f
       0.9143326 0.9447278 0.9503075 0.9048558
0000e0 ab 0d 76 3f f2 75 6b 3f a7 7b 6b 3f 1b 06 79 3f
       0.96114606 0.91976845 0.91985554 0.9727494
0000f0 be a9 76 3f a2 44 6e 3f 00 11 76 3f 69 33 6f 3f
       0.96352756 0.93073475 0.9611969 0.9343782
000100 c5 92 7a 3f 24 27 72 3f 45 50 7b 3f c4 3b 7b 3f
       0.978802 0.94590974 0.98169357 0.9813807
000110 fd 16 75 3f 44 cc 68 3f 9c 16 6b 3f fa 05 6b 3f
       0.957382 0.90936685 0.91831374 0.91805995
000120 30 07 71 3f 4c 7e 6f 3f fd 4e 74 3f 1b 8c 70 3f
       0.9415159 0.9355209 0.95433027 0.93963784
000130 1e cb 72 3f e5 51 6e 3f da 37 6a 3f 2c 73 69 3f
       0.9484118 0.9309371 0.9149147 0.91191363
000140 d6 52 70 3f f0 67 6d 3f f4 e8 73 3f cb 49 7d 3f
       0.938764 0.9273672 0.95277333 0.98940724
000150 7b 83 78 3f d3 2c 82 3f 7b 0c 6c 3f 00 e3 6b 3f
       0.97075623 1.0169929 0.92206544 0.9214325
000160 80 5c 6c 3f 8b 1a 6f 3f 92 96 81 3f d2 aa 74 3f
       0.92328644 0.93399876 1.0124075 0.9557315
000170 de 0b 6a 3f 33 1b 77 3f ba e4 6d 3f ee 23 77 3f
       0.9142436 0.9652588 0.92927134 0.965392
000180 17 bd 77 3f 7d 1f 74 3f 11 d7 7b 3f 0d b2 79 3f
       0.96772903 0.9536055 0.9837504 0.9753731
000190 1a f2 7d 3f 21 28 7e 3f b2 a1 6a 3f 36 ff 74 3f
       0.9919754 0.9927998 0.9165298 0.9570192
0001a0 b6 8e 74 3f 0f 90 6f 3f a7 d9 76 3f 7d ac 7a 3f
       0.9553026 0.9357919 0.9642586 0.97919446
0001b0 a3 90 76 3f ab 49 75 3f 85 9a 6e 3f 15 67 7c 3f
       0.9631445 0.95815533 0.9320453 0.9859479
0001c0 10 ca 6a 3f 5e e1 76 3f 37 96 69 3f ff c0 76 3f
       0.9171457 0.96437633 0.91244835 0.9638824
0001d0 d7 f8 82 3f f1 8c 6f 3f 30 22 6f 3f 01 08 6a 3f
       1.023219 0.93574435 0.9341154 0.91418463
0001e0 49 5b 70 3f 25 ff 75 3f 4e c1 6c 3f 96 f5 79 3f
       0.9388929 0.96092445 0.9248246 0.9764036
0001f0 6e e1 74 3f d7 c6 7c 3f 14 d2 76 3f 8f 0b 6c 3f
       0.9565648 0.98740906 0.96414304 0.92205137

nnECG.1.bias f4 [128]
000000 2f c0 73 bc 01 fc 4d b9 59 3a 21 bb 5a 60 92 3c
       -0.014877363 -0.00019644202 -0.0024601428 0.01786821
000010 db 8c 18 bd e1 62 82 3c 57 c7 5a bd 76 5a 2a bd
       -0.037243705 0.01591629 -0.05341276 -0.041590177
000020 ee 12 ef 3b b5 db 02 3b 6e 70 6e 3c f8 e2 d2 bb
       0.0072959578 0.0019967381 0.0145531725 -0.006435748
000030 05 3a 64 bb a3 34 4f bb 02 39 df 3b e6 fd 18 bd
       -0.0034824621 -0.0031617067 0.006812216 -0.03735151
000040 48 72 b5 39 76 71 53 bd 2d c4 50 bc 7e 0f 3a bc
       0.00034608156 -0.051621877 -0.012742084 -0.011356233
000050 f3 f6 6e bc d4 05 20 bd a5 c4 36 bd 37 b9 1c bd
       -0.0145852445 -0.039068058 -0.04462113 -0.038262572
000060 51 da 7a 3c 1f 24 f5 bc ae b8 a6 bc 2b c0 f1 3c
       0.01531084 -0.02992445 -0.020351734 0.029510578
000070 db 25 21 3c 45 7d 18 bb 16 1f 1a bd 24 68 10 3d
       0.009835686 -0.0023268026 -0.037627302 0.035255566
000080 32 9d 60 bb 77 37 11 bd 32 4a 61 bd 37 18 24 bd
       -0.0034273383 -0.035453286 -0.0550024 -0.040062156
000090 ff 16 da bb 16 73 2d bd ec 7b 33 bc ba b5 ae bc
       -0.0066555734 -0.042346083 -0.010954838 -0.021326888
0000a0 f9 2e 0f bc 37 e8 0e bd 64 c0 87 bd 11 75 94 3c
       -0.0087392265 -0.034889426 -0.066284925 0.018122228
0000b0 37 a0 f1 3b 0d cc d5 bc 4e e7 ce ba 6a cc 3a 3a
       0.0073738354 -0.026098276 -0.0015785487 0.0007125797
0000c0 af fc 81 bd 71 46 2e 3b e7 fb 63 bd 45 e6 86 bd
       -0.06347024 0.002659228 -0.055660155 -0.06586889
0000d0 bf d2 80 bd 69 22 f4 bc 9c 3d e5 b9 9a b8 20 bd
       -0.062901966 -0.029801564 -0.00043724186 -0.03923855
0000e0 0e 05 c0 bc 75 99 bb bd 9b 4b d9 3b 2f b3 f9 bc
       -0.02343991 -0.09160129 0.0066313273 -0.03048095
0000f0 49 66 fb bb 47 47 e8 bc ae 67 25 38 12 22 11 bd
       -0.0076721055 -0.0283543 3.9435625e-05 -0.035432883
000100 dd f8 02 3c 1f ac d4 3a aa 83 e0 bc 44 d7 f5 3b
       0.007993904 0.0016225612 -0.027406532 0.0075024683
000110 63 b4 f4 bb ef a0 82 bc fb 04 e1 bc 9a d6 83 bd
       -0.007467793 -0.01594588 -0.027468195 -0.064374164
000120 55 81 29 bd a4 e6 82 3c e8 fb db bc 63 cd 17 bc
       -0.041383106 0.015979119 -0.026853517 -0.009265277
000130 2d 16 6c bd b5 c3 55 bd c8 7d 31 bd 33 1c 2e bd
       -0.057638336 -0.052188594 -0.043332845 -0.04250736
000140 9f 2e c4 bc 9d ca 2c bd 0a 7a b9 bc 58 20 a2 3c
       -0.023948012 -0.042185415 -0.0226412 0.019790813
000150 66 62 a3 bc 32 ec b7 bc df 42 8a bd 63 06 19 bd
       -0.019944381 -0.022451494 -0.06751036 -0.037359606
000160 4f cc 6d bd 29 8d cd ba 0c d5 02 3d 09 5d 0e bd
       -0.058056172 -0.0015682328 0.03194146 -0.034756694
000170 61 f3 25 bd 17 fa 9a 3c 6f be 74 bd 59 e8 85 3c
       -0.040515307 0.01891808 -0.059751924 0.016346144
000180 d9 63 a1 bc 8b 88 d3 bc d5 8f 1d 3c a1 2a c6 3c
       -0.019700931 -0.025821945 0.009616812 0.024190249
000190 d5 d0 4a 3c 39 03 92 3c e0 92 c9 3c 4f 14 6b bd
       0.012378891 0.017823802 0.024606168 -0.057392415
0001a0 2a bb 40 bd 81 c5 05 bc c9 5e 47 3c 39 0b 4e bc
       -0.047053494 -0.008164764 0.012168595 -0.012575918
0001b0 40 70 97 bc 91 60 9c bb d8 2f f9 bb 5a 8a 3b 3d
       -0.018486142 -0.004772254 -0.0076045804 0.04578624
0001c0 31 d1 02 bd 4d e9 2d 3c e8 14 05 bd 8e 7e 61 bd
       -0.03193778 0.010614705 -0.03249064 -0.055052333
0001d0 17 42 08 3d 29 b9 2b bd f4 75 c4 bb aa c3 31 bd
       0.033266153 -0.04192463 -0.0059955064 -0.04339949
0001e0 4a 8f 53 bd da 6b bc 3c 53 2d 76 bd 7a 72 36 bc
       -0.051650323 0.023000646 -0.06010182 -0.011135692
0001f0 50 f2 a1 bc 60 e2 ec bc 9f d7 c1 3c 36 b5 04 3d
       -0.019768864 -0.028916538 0.023662386 0.03239938

nnECG.1.running_mean f4 [128]
000000 b6 47 aa bc be bb 06 be 2b 4b c2 bd 97 10 1c 3e
       -0.020786148 -0.13157555 -0.094869934 0.15240704
000010 74 f6 2b be 99 45 c6 3d a9 ef fa 3c d7 ec d6 bd
       -0.16793233 0.096812434 0.030631857 -0.10494392
000020 8a 0b 80 3d 68 96 45 3e 08 ad 38 3e a4 7e af 3c
       0.06252201 0.19295657 0.18034756 0.021422692
000030 e0 4f 00 3e 35 c5 99 3d ab 01 d3 3d c6 ad 0a 3c
       0.1253047 0.075083174 0.103030525 0.008464282
000040 9b af 3b 3e cc 72 19 3d 16 7a 2e 3c 98 c9 ce 3d
       0.18328707 0.037462994 0.010649225 0.10097045
000050 29 a6 23 be be 76 e5 bd 1f 56 b5 bc 6e 52 73 bd
       -0.15981354 -0.11204289 -0.022135792 -0.059404783
000060 10 27 45 3e 4e 0f b5 bd a5 8c 51 bb be 08 cb 3d
       0.19253182 -0.0884081 -0.00319747 0.09913777
000070 41 f7 f1 3d 92 d8 55 3e 6e 09 d8 3d 5b a4 1c 3e
       0.11814738 0.20883396 0.105486736 0.15297072
000080 34 d3 bf 3d 7f c3 80 bd 9f b8 d7 bd 10 5f 80 be
       0.09366456 -0.06287288 -0.105332606 -0.25072527
000090 5f 6f cb bd 21 8b a0 bd 73 fc 2e 3e 7d cb bf bd
       -0.09933352 -0.07839037 0.17088489 -0.09364984
0000a0 85 85 be 3d 4b 5f 09 be 68 6b 47 be 39 ce 30 3e
       0.093028106 -0.13415258 -0.19474566 0.17266168
0000b0 cf 45 91 3d 1a 14 20 be 6e 33 d3 3d bc d9 2d bd
       0.07093393 -0.15632668 0.10312544 -0.042443976
0000c0 58 1b 21 be 61 83 fc 3d c0 19 58 3d 9c f5 81 bd
       -0.15733087 0.12329746 0.052758932 -0.063456744
0000d0 b7 07 5a be d6 f0 1f 3d c2 ba a5 3d 4f 67 a8 bd
       -0.21292005 0.03904804 0.08092262 -0.082228296
0000e0 92 2d bd 3d ec 81 f3 bc 4f 72 27 bd 66 35 99 bd
       0.092372075 -0.029725038 -0.040880498 -0.07480888
0000f0 52 e9 b1 3d 72 fe da bd 4d 47 92 3c 57 4a f9 bd
       0.086870804 -0.10693063 0.017856264 -0.12172382
000100 4d 5f 3e 3e d4 ec 11 3e 16 8a 93 3d 1f 2e 0c 3e
       0.18591042 0.14250499 0.07204072 0.13689469
000110 a3 5c cd bd 66 87 05 3d da 0c fe bd 25 b5 06 be
       -0.10027435 0.03259983 -0.12404795 -0.13155039
000120 cd 24 19 be 05 cc 7a 3d da 15 d3 3c 72 e5 db bd
       -0.14955445 0.061229724 0.025767256 -0.107371226
000130 2c 87 55 bd b3 b8 97 bd 63 18 30 3d 1f 48 d7 3d
       -0.052130863 -0.074082755 0.042992007 0.10511803
000140 27 3d a4 bd 4c 98 2e 3d 7a 8b d5 bd 57 10 0c be
       -0.080194764 0.04262571 -0.10426994 -0.13678108
000150 da 42 81 3d c7 be f6 3d 17 92 06 3d fa 8a d2 bd
       0.06311579 0.12048107 0.032854166 -0.10280414
000160 f7 4e a3 bd 1c 05 e1 bb 2c aa bf bd 2e c4 2e be
       -0.07974046 -0.006867064 -0.093586296 -0.17067024
000170 3e c0 e3 bd da de 11 3e 70 9e 73 bd b7 73 56 3e
       -0.11120652 0.14245167 -0.05947727 0.20942579
000180 a7 e7 04 3e a6 3b ce bd 5c 42 3f 3e fb 0b 29 3e
       0.12978993 -0.10069971 0.18677658 0.16508476
000190 c7 88 00 3e 91 af 10 3e 05 f5 df 3d c9 e8 39 be
       0.12552176 0.14129473 0.10935406 -0.18155207
0001a0 ff aa 78 be 81 09 fd bc b9 71 bb bd 46 99 20 3e
       -0.2428398 -0.03088832 -0.0915255 0.15683469
0001b0 5d 52 6e 3d 2f 8d 3d 3e 77 3d 08 bd 1d 00 12 3e
       0.058184016 0.18510889 -0.033261742 0.14257856
0001c0 87 3b af bd 50 ea cb 3d 30 6d 06 bd 10 d8 2d be
       -0.08556276 0.09956801 -0.032818973 -0.16976953
0001d0 c3 a2 38 3e 3a ce 41 3d b0 b7 b6 3d 27 20 11 be
       0.18030839 0.047315814 0.08921754 -0.14172421
0001e0 f2 55 2f 3e 33 d7 8d bd 5b 10 d6 bc f1 31 10 3d
       0.1712263 -0.069258116 -0.026130846 0.035203878
0001f0 42 bc d5 3d d5 39 d7 3d 0c 97 95 3d 69 c6 d9 3d
       0.10436298 0.105090775 0.073042005 0.10633547

nnECG.1.running_var f4 [128]
000000 f8 09 93 3d 2c 6f 93 3d a7 5c 93 3d 6a be 93 3d
       0.07179636 0.07198939 0.071954064 0.07214053
000010 5d a4 93 3d 5d 2a 93 3d 37 07 93 3d ea 67 93 3d
       0.07209084 0.071858145 0.071791105 0.071975544
000020 30 13 93 3d 2b f2 93 3d 91 b7 93 3d 68 07 93 3d
       0.07181394 0.07223924 0.07212747 0.07179147
000030 60 56 93 3d b0 31 93 3d 8e 34 93 3d 14 08 93 3d
       0.07194209 0.071872115 0.071877584 0.07179275
000040 c2 c0 93 3d f6 32 93 3d 55 08 93 3d 95 36 93 3d
       0.072145 0.071874544 0.071793236 0.07188145
000050 e2 af 93 3d 40 68 93 3d 36 0b 93 3d 1d 24 93 3d
       0.07211281 0.071976185 0.07179873 0.071846224
000060 2f ab 93 3d 55 2f 93 3d e7 09 93 3d 59 42 93 3d
       0.07210385 0.07186762 0.07179623 0.07190389
000070 d4 3a 93 3d 6d c8 93 3d 71 36 93 3d e7 7c 93 3d
       0.07188955 0.072159626 0.07188118 0.072015576
000080 49 2b 93 3d 1f 2b 93 3d 7a 5b 93 3d 6d 8f 94 3d
       0.0718599 0.07185959 0.07195182 0.07253919
000090 81 4a 93 3d c2 44 93 3d 28 b0 93 3d 12 38 93 3d
       0.07191945 0.07190849 0.072113335 0.07188429
0000a0 84 2e 93 3d d1 98 93 3d 43 ee 93 3d 11 c4 93 3d
       0.071866065 0.07206882 0.07223179 0.07215131
0000b0 f6 1f 93 3d 9e c8 93 3d 50 52 93 3d b3 11 93 3d
       0.071838304 0.07215999 0.07193434 0.0718111
0000c0 2b 90 93 3d e0 61 93 3d ea 1f 93 3d 38 26 93 3d
       0.07205232 0.071964025 0.071838215 0.07185024
0000d0 64 05 94 3d 7d 0e 93 3d 57 27 93 3d 05 41 93 3d
       0.07227591 0.07180498 0.07185238 0.07190136
0000e0 5d 18 93 3d 75 0c 93 3d 42 19 93 3d 7f 34 93 3d
       0.07182381 0.0718011 0.07182552 0.07187747
0000f0 4c 2c 93 3d c1 5b 93 3d 0c 08 93 3d 90 7b 93 3d
       0.07186183 0.07195235 0.07179269 0.07201302
000100 34 02 94 3d 71 76 93 3d ed 35 93 3d 52 62 93 3d
       0.07226983 0.07200325 0.0718802 0.071964875
000110 f7 44 93 3d e3 0c 93 3d 03 67 93 3d 45 76 93 3d
       0.071908884 0.07180192 0.07197382 0.072002925
000120 a0 8d 93 3d 4e 18 93 3d e4 10 93 3d c8 66 93 3d
       0.07204747 0.0718237 0.07180956 0.07197338
000130 c4 1e 93 3d 03 1f 93 3d fb 0f 93 3d d3 35 93 3d
       0.071836025 0.071836494 0.071807824 0.071880005
000140 ec 33 93 3d 7f 0a 93 3d 87 63 93 3d 1f 6e 93 3d
       0.07187638 0.07179736 0.07196718 0.07198738
000150 94 2a 93 3d fd 64 93 3d f8 14 93 3d 86 5f 93 3d
       0.071858555 0.07196996 0.07181734 0.07195954
000160 ce 49 93 3d bc 08 93 3d 60 48 93 3d 77 9f 93 3d
       0.071918115 0.071794 0.07191539 0.0720815
000170 61 5b 93 3d 74 62 93 3d 57 17 93 3d 92 d7 93 3d
       0.071951635 0.07196513 0.07182186 0.07218851
000180 72 5c 93 3d f7 74 93 3d 8d d4 93 3d 20 b3 93 3d
       0.07195367 0.07200044 0.07218275 0.072119
000190 18 60 93 3d 94 6b 93 3d 3b 37 93 3d b5 cd 93 3d
       0.07196063 0.07198253 0.07188269 0.0721697
0001a0 9c a7 94 3d e2 1f 93 3d cd 55 93 3d 0a 8c 93 3d
       0.072585315 0.071838155 0.071940996 0.07204445
0001b0 57 19 93 3d 09 af 93 3d 03 0f 93 3d 34 8e 93 3d
       0.071825676 0.0721112 0.07180598 0.072048575
0001c0 8d 33 93 3d d0 43 93 3d 6a 23 93 3d 02 bb 93 3d
       0.07187567 0.071906686 0.07184489 0.07213403
0001d0 18 bb 93 3d f4 1b 93 3d bd 22 93 3d a6 8c 93 3d
       0.0721342 0.07183066 0.0718436 0.07204561
0001e0 14 91 93 3d ba 29 93 3d d7 0a 93 3d d6 10 93 3d
       0.07205406 0.07185693 0.07179802 0.071809456
0001f0 3c 37 93 3d 65 56 93 3d 5c 22 93 3d 46 39 93 3d
       0.071882695 0.07194213 0.07184288 0.071886584
