Models/net_2_1_epoch_26.pth (torch, 57997 bytes, 25 tensors)

nnECG.0.weight f4 [128, 12]
0.12871686 0.0649205 -0.11858916 0.1320945 -0.057996184 0.03161655 -0.21859796 -0.022932976
-0.14346579 0.020263646 0.0034296457 0.030863274 -0.059466206 0.026044477 0.18973766 0.16095589
0.010172141 -0.12329819 -0.16901593 0.05390112 -0.006334185 0.20788667 0.13639118 -0.15614218
-0.094426766 -0.13646811 -0.031428445 0.03341388 0.011905968 -0.13071328 0.13778631 0.13829991
-0.050329972 -0.20251645 -0.16717353 -0.16586007 0.21319759 0.17709574 0.008095096 -0.090321966
0.05289503 -0.18340854 -0.027637035 0.1662058 -0.10156494 0.16313645 -0.022440247 0.15369955
0.15180768 -0.18824004 0.10045291 0.044268813 -0.13140635 0.16366807 -0.23497552 -0.10304214
0.12320492 0.0983099 0.09781527 -0.18325722 0.130854 -0.13647331 0.14495529 -0.098569155
0.056524605 -0.056828503 0.07365038 0.0058305548 0.071320914 0.19652896 0.09239775 -0.22687395
0.038853057 -0.13337846 0.00370604 0.020476477 -0.15039381 0.14841978 0.15848275 -0.16592665
-0.012753227 0.10211674 -0.115163155 0.19236754 0.18359433 0.21518981 0.10479533 0.18126114
0.06674388 0.139231 -0.20397678 -0.04715986 -0.18550849 0.056497842 -0.113156416 0.10970079
-0.005236621 -0.05900116 0.04631285 -0.14442366 0.0347735 -0.0017271402 -0.08742243 -0.075594604
0.07202829 -0.1494265 0.13045247 0.009528224 0.053630084 -0.07246493 0.08041599 0.11722963
-0.13037682 -0.056426316 -0.041296925 0.010943606 0.14679414 0.034063596 0.12966213 0.0712435
-0.04727054 0.058005672 -0.19707386 -0.0030203313 -0.20680924 -0.1958762 0.03017161 -0.034988858
0.017348588 -0.06457815 0.15441796 0.09646229 0.19380529 -0.14360727 -0.022854872 -0.14842562
-0.17291574 0.16312537 0.11109335 -0.1738066 -0.047327667 0.20922695 -0.012715511 0.1718799
0.17482549 0.14852458 -0.10777115 -0.1290875 0.21999805 0.020825181 -1.06279995e-05 -0.1399017
-0.040831435 0.12939447 0.15572925 -0.08923903 -0.008466835 -0.0010474604 0.11871583 -0.045020532
-0.12770437 0.04332624 -0.09900088 0.11767108 -0.09051994 0.22870284 -0.04696878 0.058381096
-0.09939628 0.107659325 -0.05358421 -0.017515164 0.15415215 -0.19141673 -0.022022327 -0.08527912
0.22005925 -0.04862794 0.075652905 -0.07388033 0.12244095 -0.0008857802 0.022471279 0.08506465
0.07889497 -0.014993618 0.0915379 -0.03294135 0.03584415 -0.052849505 -0.1480391 0.015026782
0.11157508 0.08926552 0.15425545 -0.055811748 -0.0038243113 -0.13655342 0.06625341 0.02875656
0.12710354 -0.040336266 -0.22873545 -0.058548015 -0.03559537 0.070299596 0.084051065 -0.05916903
-0.049293388 0.20183572 -0.17162405 0.011613999 0.09236796 0.044186387 0.14889455 -0.22032091
0.049897477 0.008962683 -0.08216134 -0.2094785 0.16100316 0.068711825 0.15667543 0.16686013
-0.14634669 -0.035510406 0.08316553 -0.0066560768 0.061429195 0.023435602 -0.22063455 -0.040347178
-0.14244603 -0.16836369 0.013579405 -0.020322237 -0.09863894 -0.20769782 -0.18820031 -0.038989417
0.11178676 -0.03147223 0.11919526 -0.075176924 0.24599065 -0.06235577 -0.20252128 0.021100424
-0.13728254 0.07586157 0.14079686 0.21296895 -0.075531624 -0.124583125 -0.1872861 0.0672483
00000000: 5ace 033e 0af5 843d e0de f2bd c843 073e
00000010: 688d 6dbd 5b80 013d 25d8 5fbe f0dd bbbc
00000020: b2e8 12be f2ff a53c e8c3 603b fad4 fc3c
00000030: d692 73bd 3a5b d53c 974a 423e 9fd1 243e
00000040: 0da9 263c c383 fcbd 8312 2dbe 6cc7 5c3d
00000050: ff8e cfbb 3ee0 543e 21aa 0b3e bce3 1fbe
00000060: d262 c1bd 4cbe 0bbe 1dbb 00bd fedc 083d
00000070: 4011 433c b4d9 05be db17 0d3e 7e9e 0d3e
00000080: cd26 4ebd 7960 4fbe 8a2f 2bbe 39d7 29be
00000090: 7850 5a3e 9658 353e 4ba1 043c b9fa b8bd
000000a0: 75a8 583d 73cf 3bbe 1067 e2bc da31 2a3e
000000b0: 4701 d0bd 3e0d 273e 9cd4 b7bc 6a63 1d3e
000000c0: 7973 1b3e ffc1 40be 41ba cd3d 3753 353d
000000d0: 638f 06be 9a98 273e 6c9d 70be c207 d3bd
000000e0: dc52 fc3d b356 c93d 5f53 c83d c8a7 3bbe
000000f0: 97fe 053e a9bf 0bbe 296f 143e a0de c9bd
00000100: 5886 673d 01c5 68bd 03d6 963d 3d0e bf3b
00000110: b310 923d e33e 493e 083b bd3d a551 68be
00000120: 6224 1f3d 5d94 08be 09e1 723b 49be a73c
00000130: d600 1abe 5bfb 173e 4d49 223e ade8 29be
00000140: e9f2 50bc 9522 d13d a9da ebbd fffb 443e
00000150: 2700 3c3e b85a 5c3e ef9e d63d 859c 393e
00000160: 04b1 883d 9292 0e3e 4adf 50be b32a 41bd
00000170: f0f5 3dbe 486a 673d 8dbe e7bd cfaa e03d
00000180: f697 abbb 33ab 71bd 8bb2 3d3d cce3 13be
00000190: a86e 0e3d 3561 e2ba 880a b3bd 58d1 9abd
000001a0: 9183 933d 4303 19be 5595 053e 451c 1c3c
000001b0: 38ab 5b3d 7e68 94bd 23b1 a43d 1716 f03d
000001c0: 8081 05be 481f 67bd f726 29bd cf4c 333c
000001d0: 3451 163e 4586 0b3d 26c6 043e 1de8 913d
000001e0: c19e 41bd 5b97 6d3d bbcd 49be c0f0 45bb
000001f0: cdc5 53be c593 48be 742a f73c 7a50 0fbd
00000200: a01e 8e3c 8d41 84bd be1f 1e3e 058e c53d
00000210: e574 463e c90d 13be 243a bbbc e3fc 17be
00000220: d310 31be 560a 273e e984 e33d 5bfa 31be
00000230: a8da 41bd 973f 563e b854 50bc 4901 303e
00000240: 7405 333e d416 183e 1fb7 dcbd 832f 04be
00000250: 2b47 613e 9299 aa3c e94e 32b7 6442 0fbe
00000260: dd3e 27bd fc7f 043e 7d77 1f3e f4c2 b6bd
00000270: 7bb8 0abc f04a 89ba 4921 f33d 7367 38bd
00000280: efc4 02be db76 313d f9c0 cabd 89fd f03d
00000290: 8562 b9bd 1431 6a3e 5662 40bd 0421 6f3d
000002a0: 4790 cbbd 7e7c dc3d 1e7b 5bbd f67b 8fbc
000002b0: 10da 1d3e bf02 44be 2b68 b4bc d2a6 aebd
000002c0: 3657 613e 172e 47bd e9ef 9a3d 924e 97bd
000002d0: 52c2 fa3d b433 68ba b015 b83c 6036 ae3d
000002e0: b093 a13d cba7 75bc 3978 bb3d 82ed 06bd
000002f0: 51d1 123d b978 58bd 9097 17be e432 763c
00000300: 7a81 e43d d7d0 b63d 24f5 1d3e dc9a 64bd
00000310: 4ca1 7abb a9d4 0bbe deaf 873d e192 eb3c
00000320: 6e27 023e a437 25bd a039 6abe 0bd0 6fbd
00000330: 73cc 11bd 3cf9 8f3d f722 ac3d 3a5b 72bd
00000340: dde7 49bd 06ae 4e3e 37be 2fbe a448 3e3c
00000350: 6a2b bd3d c9fc 343d d077 183e ce9b 61be
00000360: 4c61 4c3d 38d8 123c 3444 a8bd 8881 56be
00000370: 03de 243e c9b8 8c3d 866f 203e 62dd 2a3e
00000380: e8db 15be 5c73 11bd b052 aa3d 381b dabb
00000390: 2e9d 7b3d 05fc bf3c 06ee 61be 1543 25bd
000003a0: 5fdd 11be 8867 2cbe 277c 5e3c d27a a6bc
000003b0: 3603 cabd bdae 54be 95b7 40be 5eb3 1fbd
000003c0: 75f0 e43d 06e9 00bd a51c f43d 5cf6 99bd
000003d0: f9e4 7b3e c468 7fbd bd61 4fbe ccda ac3c
000003e0: cb93 0cbe 505d 9b3d 0d2d 103e 8814 5a3e
000003f0: 53b0 9abd 7025 ffbd edc7 3fbe 7ab9 893d

nnECG.0.bias f4 [128]
0.010055575 0.016435577 0.027936168 0.0018582154 0.0053059505 -0.0069444226 0.0009810684 -0.0020157248
0.013000426 -0.003320173 0.01198779 0.0072625387 -0.002269898 0.014501752 0.015306319 0.019760594
0.011897053 -0.0031103035 -0.00051853055 0.013956821 0.009438309 0.00832871 0.016848695 0.019088065
0.019279629 0.004410555 0.011315956 0.01174486 -0.0036854886 0.00333822 0.0017598171 0.013240664
0.021950038 0.00016232026 0.011711676 0.016582066 0.00042663183 0.00975177 0.027005604 0.005603913
0.012864 -0.0017250747 0.011710498 0.0067539336 0.0039749844 0.005078765 0.009029385 0.008162993
0.019510783 -0.00084690703 -0.004289761 0.02980964 0.018109564 0.018539969 0.016728349 0.009661137
0.013951826 -0.00869561 0.017321525 0.021179928 0.008837794 0.0069701844 0.019517817 0.007981204
-0.002063107 0.00797641 0.0197483 0.008487325 0.002537999 0.002767037 0.004513845 0.014583501
-0.007538932 0.005755388 0.016354142 0.01586586 0.0102449125 -0.0015566925 0.010954512 -0.0016519773
0.016417878 0.034313653 0.0278103 -0.00080500817 0.013250413 0.0066359662 -0.0021563976 0.014496676
0.0018163136 0.016875502 0.0056060767 0.0050482536 0.011931823 0.0025566462 0.009812672 0.027104955
0.010242373 0.02415201 0.0077644195 0.02605413 0.023074212 0.007437654 0.0129057 0.0073204683
0.0010905543 0.004817831 0.028927136 0.028614605 0.00929781 0.01647129 0.021835672 -0.013495595
0.0024944572 0.0014877195 0.008898287 0.019375578 0.028617775 -0.009349024 0.018516917 0.008151774
-0.004928921 0.01261176 0.018962182 -0.00044383755 0.0010140237 0.013884394 0.0140420925 0.0009817951
00000000: 23c0 243c e7a3 863c 64da e43c 5d8f f33a
00000010: 8add ad3b 0a8e e3bb 3197 803a 401a 04bb
00000020: bdff 543c 4297 59bb 7068 443c 97fa ed3b
00000030: 92c2 14bb c298 6d3c 5bc7 7a3c f8e0 a13c
00000040: dbeb 423c 3cd6 4bbb ffed 07ba 26ab 643c
00000050: 23a3 1a3c 2475 083c 4606 8a3c 935e 9c3c
00000060: 50f0 9d3c 6b86 903b 8f66 393c 836d 403c
00000070: 3d88 71bb 0ac6 5a3b aaa9 e63a 5fef 583c
00000080: 91d0 b33c 8334 2a39 54e2 3f3c 1dd7 873c
00000090: 8ead df39 e3c5 1f3c db3a dd3c 08a1 b73b
000000a0: 87c3 523c e71b e2ba 63dd 3f3c 1a50 dd3b
000000b0: 9640 823b c56b a63b fcef 133c 13be 053c
000000c0: 14d5 9f3c f802 5eba 2091 8cbb 5933 f43c
000000d0: 825a 943c 22e1 973c e409 893c bf49 1e3c
000000e0: 3396 643c 0878 0ebc dfe5 8d3c 8781 ad3c
000000f0: 65cc 103c 2566 e43b d4e3 9f3c 99c3 023c
00000100: 3135 07bb 7daf 023c 30c7 a13c 6c0e 0b3c
00000110: 8f54 263b 2d57 353b e0e8 933b a3ef 6e3c
00000120: 2509 f7bb b297 bc3b 1ff9 853c 1ff9 813c
00000130: 47da 273c ef09 ccba 8e7a 333c 2987 d8ba
00000140: c97e 863c 798c 0c3d 6dd2 e33c 2f07 53ba
00000150: 4318 593c 8572 d93b 5952 0dbb 7783 6d3c
00000160: 5f11 ee3a 7e3e 8a3c 2eb3 b73b d26b a53b
00000170: b17d 433c 688d 273b 54c5 203c 360b de3c
00000180: a0cf 273c 70da c53c ac6c fe3b 796f d53c
00000190: 2106 bd3c 90b7 f33b 6e72 533c 8ae0 ef3b
000001a0: eef0 8e3a e5de 9d3b 9af8 ec3c 2d69 ea3c
000001b0: d755 183c ccee 863c b9e0 b23c a11c 5dbc
000001c0: 0c7a 233b 95ff c23a 1fca 113c 88b9 9e3c
000001d0: d36f ea3c a62c 19bc cab0 973c 058f 053c
000001e0: c982 a1bb 8ea1 4e3c 9456 9b3c deb2 e8b9
000001f0: fde8 843a 5f7b 633c ce10 663c 94af 803a

nnECG.1.weight f4 [128]
1.0553411 1.0691316 1.0277091 1.0170916 1.0112245 0.96668667 0.99245256 1.0454897
0.9600832 0.95711786 1.0018023 1.0430272 1.0321072 0.99851406 0.9965582 1.0399557
1.0143709 0.95832145 0.9771537 1.1056472 1.1026077 0.96672285 1.0519528 1.0179838
1.0650513 0.972615 1.0561153 1.0719858 0.9783774 1.0454953 0.98714143 0.9971191
1.0969958 0.989091 1.0463442 1.0898935 1.0359217 0.98415196 1.0450344 1.018557
0.98556256 1.0419044 1.0262051 0.96995944 0.9579885 1.0622374 1.0139749 1.025599
1.139461 1.0161896 1.0290797 1.0674134 0.98582256 1.0379846 1.0247447 1.0324938
1.0234189 1.0995121 1.0594192 1.0759063 0.96026784 1.019026 1.0201604 1.0047942
1.043695 0.98566127 0.9882297 1.010306 1.0465431 1.0379003 0.9769226 0.990245
1.0436875 1.0447507 1.0373793 1.0605125 0.9959864 1.0356662 1.0452553 0.9578535
1.1225504 1.0732843 1.0276711 1.030758 1.0288239 1.0998502 1.0438743 1.00181
1.0467392 1.0370269 1.0043055 1.0181813 1.031641 0.9985019 0.96767306 1.0820599
1.0483786 1.0418295 0.98584557 1.0864403 1.0323873 0.97711587 1.0338551 1.0381365
0.9806487 1.0178242 1.0519102 1.0668215 0.98293424 1.0549093 0.9971635 0.9918631
0.98298895 1.0189791 1.0630877 1.088647 1.0234393 0.9577726 1.0162296 1.057324
0.9930543 1.0619358 1.0111737 1.0738734 1.0362567 1.0097928 0.99155974 0.99603
00000000: 6b15 873f 4ed9 883f f98b 833f 0f30 823f
00000010: ce6f 813f c778 773f 5f11 7e3f 9bd2 853f
00000020: 03c8 753f ad05 753f 0f3b 803f ea81 853f
00000030: 171c 843f 9e9e 7f3f 701e 7f3f 451d 853f
00000040: e8d6 813f 8e54 753f bf26 7a3f d985 8d3f
00000050: 4022 8d3f 267b 773f 64a6 863f 4b4d 823f
00000060: 9a53 883f 4cfd 783f c92e 873f d536 893f
00000070: f176 7a3f cad2 853f 4db5 7c3f 3343 7f3f
00000080: 5c6a 8c3f 1135 7d3f 9bee 853f a181 8b3f
00000090: 1599 843f 62f1 7b3f b0c3 853f 1360 823f
000000a0: d44d 7c3f 205d 853f b05a 833f 434f 783f
000000b0: bc3e 753f 65f7 873f eec9 813f d446 833f
000000c0: dcd9 913f 8012 823f e2b8 833f 01a1 883f
000000d0: de5e 7c3f aedc 843f d62a 833f c228 843f
000000e0: 64ff 823f d0bc 8c3f 0c9b 873f 4cb7 893f
000000f0: 1dd4 753f 726f 823f 9e94 823f 199d 803f
00000100: cc97 853f 4c54 7c3f 9ffc 7c3f b551 813f
00000110: 20f5 853f ebd9 843f 9917 7a3f b280 7d3f
00000120: 8d97 853f 64ba 853f d8c8 843f e0be 873f
00000130: f7f8 7e3f b690 843f edca 853f e335 753f
00000140: bbaf 8f3f 6161 893f ba8a 833f e1ef 833f
00000150: 80b0 833f e4c7 8c3f ac9d 853f 4f3b 803f
00000160: 8dfb 853f 4cbd 843f 158d 803f c453 823f
00000170: d00c 843f d29d 7f3f 6cb9 773f f080 8a3f
00000180: 4531 863f ab5a 853f 6060 7c3f 7a10 8b3f
00000190: 4425 843f 4424 7a3f 5d55 843f a8e1 843f
000001a0: cb0b 7b3f 1048 823f fea4 863f 9b8d 883f
000001b0: 94a1 7b3f 4507 873f 1b46 7f3f bdea 7d3f
000001c0: 2aa5 7b3f e86d 823f 4213 883f c958 8b3f
000001d0: 0f00 833f 9630 753f d013 823f 6556 873f
000001e0: ce38 7e3f 83ed 873f 246e 813f af74 893f
000001f0: 0fa4 843f e440 813f dcd6 7d3f d2fb 7e3f

nnECG.1.bias f4 [128]
-0.0031330541 0.008806622 0.023050927 0.00096834823 -0.013789602 -0.01121887 -0.004517883 -0.0153308725
-0.014507198 -0.013620483 -0.008909129 -0.008467446 -0.021521265 0.007971823 -0.0077072443 -8.5979984e-05
0.0063309507 -0.008233864 -0.019161372 0.01606325 -0.0001092043 -0.0061912853 0.013443275 0.008921734
0.0044803335 0.0008871067 -0.014548738 -0.003357591 -0.01368977 -0.0018675865 -0.003006613 0.0014401774
0.0135400165 -0.011713731 0.0011562963 0.021136452 -0.00270552 0.0026527282 0.01380748 -0.009732082
0.001876893 -0.014564028 0.0043481123 -0.00016536351 -0.008416626 0.00520509 -0.011728963 -0.0068038073
0.02397173 -0.0042232485 0.0032368668 0.025005259 0.018782234 0.015488925 0.00019018339 0.00864811
0.0028805071 -0.020348826 0.00559532 -0.00035211505 -0.0010268898 -0.006359659 0.0127197495 0.002264736
0.0048740874 0.0024854206 0.00387938 0.010606082 -0.01039149 -0.0039212154 -0.010059762 0.0054263263
0.0032558362 0.009387868 -0.002389107 0.005727543 0.0014459696 -0.0008381066 -0.003997508 0.0051172874
0.011183835 0.028844744 0.015228369 -0.006750467 -0.0021706936 0.008338098 -0.0062432936 0.0021867305
0.002191223 0.0040087006 0.0105622765 -0.0050975806 0.0051149097 -0.01013078 -0.014782336 0.017110739
-0.0012526837 0.012125945 -0.002769048 -0.00047415946 0.021580731 0.0063171727 0.00762925 -0.0044702515
0.0009704344 -0.019367702 0.0144164665 0.0023641665 0.004395868 0.014471571 0.012756221 -0.016577877
-0.0071835085 -0.0038079193 -0.010908094 0.009348062 0.018917132 -0.026140131 0.00070796855 0.004361278
-0.006290441 -0.007845962 0.008443603 -0.016521705 -0.007378659 0.007869979 0.010086558 -0.008810089
00000000: ed53 4dbb a649 103c 4cd5 bc3c c0d8 7d3a
00000010: c8ed 61bc 5acf 37bc c00a 94bb 572e 7bbc
00000020: 99af 6dbc 7228 5fbc 98f7 11bc 0bbb 0abc
00000030: 5d4d b0bc 409c 023c 0d8d fcbb 2750 b4b8
00000040: dd73 cf3b 54e7 06bc 4ff8 9cbc 1497 833c
00000050: 9d04 e5b8 44e0 cabb 2f41 5c3c 772c 123c
00000060: c3cf 923b b98c 683a d45d 6ebc 080b 5cbb
00000070: 0f4b 60bc cec9 f4ba 990a 45bb 56c4 bc3a
00000080: f2d6 5d3c f3ea 3fbc de8e 973a 5a26 ad3c
00000090: 184f 31bb 65d9 2d3b c538 623c 4f73 1fbc
000000a0: 1402 f63a f69d 6ebc 9c7a 8e3b 6e65 2db9
000000b0: e3e5 09bc 768f aa3b d62a 40bc 79f2 debb
000000c0: 5d60 c43c 2d63 8abb 9d21 543b d4d7 cc3c
000000d0: 33dd 993c 43c5 7d3c f76b 4739 cdb0 0d3c
000000e0: e4c6 3c3b 95b2 a6bc f258 b73b 159c b8b9
000000f0: b498 86ba b064 d0bb 7f66 503c f76b 143b
00000100: cfb6 9f3b 70e2 223b 323d 7e3b 22c5 2d3c
00000110: 1141 2abc 8a7d 80bb b3d1 24bc 53cf b13b
00000120: de5f 553b 93cf 193c 9092 1cbb 1dae bb3b
00000130: b086 bd3a 62b4 5bba 87fd 82bb ebae a73b
00000140: 673c 373c d04b ec3c 6980 793c 0533 ddbb
00000150: 3242 0ebb 859c 083c 8b94 ccbb 404f 0f3b
00000160: 9f9a 0f3b 6b5b 833b 660d 2d3c 9b09 a7bb
00000170: f99a a73b 92fb 25bc 9c31 72bc d22b 8c3c
00000180: 1731 a4ba e6ab 463c eb78 35bb 9b98 f8b9
00000190: 13ca b03c 4900 cf3b cafe f93b 307b 92bb
000001a0: c064 7e3a 04a9 9ebc 0b33 6c3c 22f0 1a3b
000001b0: 370b 903b 2b1a 6d3c 78ff 503c 54ce 87bc
000001c0: a363 ebbb 498e 79bb ddb7 32bc 9d28 193c
000001d0: 1af8 9a3c d423 d6bc f796 393a 0de9 8e3b
000001e0: 0b20 cebb 5a8c 00bc 0a57 0a3c 8758 87bc
000001f0: aec8 f1bb 16f1 003c 1742 253c 3158 10bc

nnECG.1.running_mean f4 [128]
-0.23666453 0.076556064 -0.46597165 0.21761397 0.28373897 0.56073415 0.17853746 -0.08239293
-0.026987674 0.3218214 -0.06314814 0.3947251 0.33717364 0.087469384 0.00018769798 0.026929263
-0.008007261 0.32191965 0.22288796 -0.5912885 -0.002975818 -0.30930847 -0.1857421 -0.3736831
-0.114080764 -0.10701308 0.19503324 0.13839905 0.06614192 0.27806622 0.43015927 -0.58636403
-0.24460557 -0.28474358 0.104681104 -0.16312616 -0.2723062 -0.024876073 -0.2192262 0.30697328
-0.21079311 0.30164796 0.3598701 -0.07392509 0.086529516 -0.12890273 -0.3194608 -0.25393862
0.017007936 0.1639337 0.1249305 -0.16009027 -0.47693673 -0.26853454 0.24717943 -0.10837788
-0.07136015 0.391642 0.08237209 -0.27504942 0.068557665 -0.30445394 -0.24058825 -0.1783743
0.27294186 0.36713514 -0.08725519 -0.32191393 0.21489379 0.06579524 -0.1842147 0.11357317
-0.36058748 -0.021743052 -0.07791721 -0.16906744 0.15214862 0.031560935 0.31338966 -0.13297945
0.19879834 -0.08817991 0.16968915 0.36981267 0.22043936 0.050731312 0.09954545 -0.28361827
-0.087328315 0.07499697 -0.46091783 0.42337328 0.17471668 -0.28112617 0.41981885 -0.31048912
-0.11347164 -0.18874753 -0.09155749 0.16367844 0.121176705 0.01010741 -0.25530794 -0.19558054
0.16639602 -0.081918836 -0.45556617 -0.2035506 0.035172183 -0.14006372 -0.17758046 0.26972917
-0.16868457 0.33122548 -0.12774034 -0.16524556 -0.10896124 0.014244177 -0.079566725 -0.36561042
0.26876563 -0.055853464 -0.13391207 0.25129053 -0.2832101 0.36715156 -0.34177798 -0.21739691
00000000: 3058 72be 6dc9 9c3d d693 eebe 32d6 5e3e
00000010: 3c46 913e 468c 0f3f 86d2 363e a0bd a8bd
00000020: 4115 ddbc c6c5 a43e d053 81bd 6919 ca3e
00000030: 06a2 ac3e 2623 b33d cbd0 4439 c29a dc3c
00000040: e330 03bc a7d2 a43e be3c 643e af5e 17bf
00000050: f105 43bb ae5d 9ebe 2d33 3ebe 6453 bfbe
00000060: 2da3 e9bd ac29 dbbd cbb6 473e 7bb8 0d3e
00000070: 6a75 873d b25e 8e3e d63d dc3e f41b 16bf
00000080: e279 7abe e9c9 91be 0c63 d63d 8b0a 27be
00000090: b86b 8bbe e8c8 cbbc d57c 60be 9a2b 9d3e
000000a0: 26da 57be 9a71 9a3e e540 b83e 0a66 97bd
000000b0: 6336 b13d 14ff 03be 5e90 a3be 3e04 82be
000000c0: 3a54 8b3c 3cde 273e 90db ff3d b4ee 23be
000000d0: 0d31 f4be 5c7d 89be 9b1c 7d3e 39f5 ddbd
000000e0: 4525 92bd 4d85 c83e b3b2 a83d 47d3 8cbe
000000f0: f667 8c3d 63e1 9bbe c45c 76be c1a7 36be
00000100: 09bf 8b3e 23f9 bb3e d9b2 b2bd e7d1 a4be
00000110: 1e0d 5c3e a8bf 863d c7a2 3cbe 0d99 e83d
00000120: ec9e b8be 7c1e b2bc 0f93 9fbd 0420 2dbe
00000130: d9cc 1b3e 0a46 013d 9c74 a03e c42b 08be
00000140: cb91 4b3e ab97 b4bd fec2 2d3e 1658 bd3e
00000150: dbba 613e a3cb 4f3d 7cde cb3d 6a36 91be
00000160: 30d9 b2bd 0398 993d 6cfd ebbe 62c4 d83e
00000170: eee8 323e c5ef 8fbe 7ff2 d63e 6ef8 9ebe
00000180: d263 e8bd 0847 41be 7e82 bbbd 529b 273e
00000190: 7e2b f83d 8d99 253c b9b7 82be 4446 48be
000001a0: b863 2a3e 10c5 a7bd f83f e9be 926f 50be
000001b0: b510 103d dd6c 0fbe a7d7 35be f119 8a3e
000001c0: a6bb 2cbe 6396 a93e 5dce 02be 2236 29be
000001d0: 1227 dfbd 6960 693c e1f3 a2bd 4a31 bbbe
000001e0: a69b 893e 9ac6 64bd 3f20 09be 27a9 803e
000001f0: ea00 91be 4afb bb3e 86fd aebe 4c9d 5ebe

nnECG.1.running_var f4 [128]
0.07442831 0.07354323 0.074657775 0.07674441 0.07345926 0.072879046 0.07272595 0.07632025
0.072291836 0.07268059 0.07499843 0.0727144 0.07711274 0.07466253 0.074737504 0.0721045
0.07349243 0.075713865 0.07356725 0.07463875 0.07507601 0.07561756 0.073327266 0.07420316
0.07655174 0.07326825 0.07345436 0.07325972 0.07330589 0.07799417 0.07561661 0.07645764
0.0795761 0.07350926 0.07240537 0.07389069 0.07246066 0.07320829 0.077035055 0.07425305
0.0724745 0.0760791 0.07753928 0.07248513 0.072159246 0.075437255 0.07260583 0.07315819
0.07326243 0.07661735 0.07894191 0.074197955 0.072223045 0.0736985 0.07824761 0.072948076
0.07249722 0.07657602 0.074443385 0.074337766 0.07689828 0.080689505 0.07428747 0.07693016
0.07422647 0.07410858 0.07267284 0.07568232 0.073301554 0.07439354 0.07357967 0.074499175
0.07480864 0.072726786 0.079842135 0.07458001 0.07368331 0.07380757 0.07488878 0.07244827
0.07479493 0.07542132 0.07279286 0.07444152 0.07417943 0.07565022 0.07407772 0.07294169
0.079989165 0.07333023 0.07364322 0.081032746 0.07437987 0.07254956 0.07310724 0.072736636
0.075036876 0.07506491 0.07307401 0.07475682 0.0733704 0.07227971 0.07517108 0.08028231
0.07373934 0.07513644 0.07339568 0.07452097 0.07359922 0.072957456 0.0730668 0.073410414
0.0722678 0.07361846 0.075480476 0.07472033 0.0748742 0.085803114 0.07269458 0.0755775
0.07507806 0.0739631 0.07290415 0.07629255 0.07391286 0.07573818 0.072756715 0.07597008
00000000: df6d 983d d59d 963d 2de6 983d 2c2c 9d3d
00000010: cf71 963d 9c41 953d 58f1 943d cb4d 9c3d
00000020: be0d 943d 90d9 943d c798 993d 4aeb 943d
00000030: 49ed 9d3d abe8 983d fa0f 993d 86ab 933d
00000040: 3383 963d df0f 9b3d 6daa 963d 33dc 983d
00000050: 73c1 993d 61dd 9a3d 9b2c 963d d4f7 973d
00000060: 29c7 9c3d aa0d 963d 3d6f 963d 3109 963d
00000070: 6621 963d 68bb 9f3d e2dc 9a3d d395 9c3d
00000080: cbf8 a23d 068c 963d 4449 943d 0154 973d
00000090: 4166 943d 3aee 953d 8ec4 9d3d fc11 983d
000000a0: 836d 943d 5ccf 9b3d eacc 9e3d 1573 943d
000000b0: 3ac8 933d d97e 9a3d 5eb2 943d f6d3 953d
000000c0: 9d0a 963d 8fe9 9c3d 4cac a13d 19f5 973d
000000d0: ade9 933d 3def 963d 4840 a03d cd65 953d
000000e0: 6c79 943d e3d3 9c3d c675 983d 663e 983d
000000f0: d87c 9d3d 8a40 a53d 0724 983d 8f8d 9d3d
00000100: 0c04 983d 3dc6 973d 7fd5 943d 55ff 9a3d
00000110: 201f 963d a45b 983d f0b0 963d 0693 983d
00000120: 4635 993d c8f1 943d 4684 a33d 67bd 983d
00000130: 46e7 963d 6c28 973d 4a5f 993d c25f 943d
00000140: 162e 993d 7e76 9a3d 6c14 953d cc74 983d
00000150: 63eb 973d 81ee 9a3d 0fb6 973d 7462 953d
00000160: 5cd1 a33d 292e 963d 42d2 963d 7ff4 a53d
00000170: 7954 983d dd94 943d 40b9 953d f2f6 943d
00000180: efac 993d a2bb 993d d4a7 953d 1b1a 993d
00000190: 3843 963d 6207 943d 4cf3 993d 0d6b a43d
000001a0: a704 973d 22e1 993d 7950 963d 739e 983d
000001b0: 30bb 963d b86a 953d 0ca4 953d 3358 963d
000001c0: 2401 943d 46c5 963d 8295 9a3d f906 993d
000001d0: a557 993d 8bb9 af3d e5e0 943d 60c8 9a3d
000001e0: 87c2 993d f779 973d c54e 953d 453f 9c3d
000001f0: a05f 973d 9e1c 9b3d 7901 953d 3496 9b3d

nnECG.4.weight f4 [64, 128]
-0.09558561 -0.10539114 -0.0044704336 -0.16678558 0.02612943 0.15456331 0.098618254 -0.070163965
-0.12276132 0.03133955 -0.14563307 -0.06416509 -0.020748101 0.014064187 -0.09251914 -0.08060453
-0.17545661 -0.08408462 0.09459428 -0.06955131 -0.18897334 -0.020035494 -0.09038227 0.09186208
0.13346948 -0.16235603 0.1434857 0.016547283 0.15174194 0.015025377 0.13622391 0.04885906
0.07132172 -0.012542343 -0.04180444 0.056260496 -0.12338433 -0.17894784 0.007812579 0.15508051
-0.013811869 -0.046565287 0.025412353 0.0025313164 -0.15031289 0.005876084 0.01905069 -0.059395444
0.13829575 0.08417792 -0.111314066 -0.012667146 0.10835888 0.14737096 0.16367997 -0.12808934
-0.107058026 0.17049639 -0.17634149 0.16492888 -0.1733377 0.10269019 -0.005344209 0.17010346
0.1412385 0.03600899 0.11620398 -0.0501708 -0.05995765 0.13740417 0.17059028 -0.08264576
-0.08791024 -0.047755808 -0.08887677 -0.033619832 0.019040626 -0.11588596 -0.08096189 0.049390562
0.03367486 -0.15032554 -0.09666315 -0.13928005 -0.012895414 0.10509243 0.016541952 0.09825478
-0.013460434 -0.056178223 0.13002498 0.042845845 0.0039112438 0.07344058 0.12410576 -0.07728912
-0.0880438 0.064003855 -0.1646511 -0.05752556 0.16955872 0.18278211 0.0027909346 0.012190632
-0.14229111 0.07361523 -0.0115617225 -0.006288615 0.12563421 -0.064214006 -0.10351623 -0.071933866
-0.021514745 -0.027228368 -0.20151763 -0.099936694 0.09506472 0.09157707 0.031044735 0.14406027
-0.11206381 -0.18949364 -0.01185382 0.043526072 -0.07282726 -0.05227708 -0.093062736 0.00016152998
0.0028458275 -0.026655516 0.12082013 0.14512664 0.20039609 0.12364463 0.0031942439 -0.09280068
-0.047613323 -0.03923117 0.05935185 0.005074955 0.007690358 0.11646353 -0.005191958 -0.18082485
-0.19909137 -0.04271464 -0.04549941 -0.029991584 0.12735896 0.12934954 -0.16000736 0.04895432
0.008508365 -0.003755621 -0.074452564 -0.13438377 -0.088692464 0.057938937 -0.09884052 0.0668236
0.13347737 0.058810253 -0.15317735 0.05586622 0.029559346 -0.09979373 0.069537684 -0.1902604
0.104934 -0.03729901 -0.0865933 -0.16695827 -0.14167327 0.11781361 -0.15908875 -0.049156424
0.1051634 -0.18156423 0.18213494 -0.1325028 -0.05603408 -0.079590045 0.16943395 0.055641476
-0.18760505 -0.055957906 0.08485511 0.010211265 -0.059813634 0.11502274 -0.08843295 -0.18002142
-0.08880698 0.10351015 -0.1915059 0.03895664 0.043074984 -0.012447752 -0.06787775 -0.0075555705
-0.053224374 -0.039779767 0.07579451 0.01704326 -0.15857361 0.14212906 0.16276196 -0.033913586
0.1021045 -0.22701803 0.12408616 -0.19646145 -0.13905142 0.12224317 0.1318275 -0.032185793
0.11810954 0.13889399 0.06477976 -0.01096354 0.11295401 0.12544334 -0.03820828 -0.0811775
-0.13150737 0.026844582 0.011372948 0.03317142 0.10283367 0.07793854 -0.14964302 -0.0071068625
-0.08701225 0.0065083425 -0.1518147 0.115738 -0.04091701 -0.114531465 -0.14175156 0.088323705
0.15505065 0.12189426 0.085786626 0.20904286 -0.039095644 -0.009359747 0.070734784 0.022186602
0.05531943 0.07697325 0.023348015 0.07430437 -0.05411339 -0.008609791 -0.110312246 0.060759187
00000000: 63c2 c3bd 4fd7 d7bd b77c 92bb d7c9 2abe
00000010: 630d d63c d845 1e3e 5ef8 c93d 20b2 8fbd
00000020: 496a fbbd e65d 003d d620 15be fd68 83bd
00000030: ecf7 a9bc 7a6d 663c ad7a bdbd fd13 a5bd
00000040: e6aa 33be 8f34 acbd a5ba c13d eb70 8ebd
00000050: 3a82 41be 7a21 a4bc 571a b9bd 3022 bc3d
00000060: 39ac 083e a940 26be eaed 123e 2b8e 873c
00000070: 3d62 1b3e 002d 763c 487e 0b3e 7020 483d
00000080: 1f11 923d 667e 4dbc 223b 2bbd 6871 663d
00000090: ecb0 fcbd 1a3e 37be 5500 003c 6dcd 1e3e
000000a0: 2d4b 62bc 3ebb 3ebd 912d d03c 71e4 253b
000000b0: 9feb 19be 2a8c c03b 3110 9c3c a348 73bd
000000c0: 679d 0d3e 7965 ac3d a1f8 e3bd dc89 4fbc
000000d0: 43eb dd3d 6ae8 163e b99b 273e da29 03be
000000e0: 3d41 dbbd 9b96 2e3e dd92 34be 1ee3 283e
000000f0: 707f 31be 3c4f d23d 791e afbb 9a2f 2e3e
00000100: d3a0 103e 2a7e 133d 5afc ed3d e67f 4dbd
00000110: 2796 75bd aeb3 0c3e 38af 2e3e 2e42 a9bd
00000120: 490a b4bd 989b 43bd 0605 b6bd f3b4 09bd
00000130: 16fb 9b3c 9e55 edbd 59cf a5bd c24d 4a3d
00000140: a6ee 093d f0ee 19be 54f7 c5bd 6e9f 0ebe
00000150: 4947 53bc b33a d73d fd82 873c cd39 c93d
00000160: 2789 5cbc 231b 66bd 4525 053e 207f 2f3d
00000170: e429 803b 0468 963d 292b fe3d c249 9ebd
00000180: 4f50 b4bd 7414 833d 4c9a 28be ec9f 6bbd
00000190: cda0 2d3e 3c2b 3b3e 1de8 363b 37bb 473c
000001a0: c3b4 11be 95c3 963d 616d 3dbc ba10 cebb
000001b0: 41a6 003e a282 83bd 5100 d4bd 1052 93bd
000001c0: b13f b0bc 070e dfbc a35a 4ebe 9cab ccbd
000001d0: 4bb1 c23d c28c bb3d 8751 fe3c 8984 133e
000001e0: b681 e5bd 9f0a 42be 8636 42bc 6548 323d
000001f0: 7526 95bd 7e20 56bd ad97 bebd 6060 2939
00000200: 1081 3a3b ab5c dabc 8b70 f73d 149c 143e
00000210: a234 4d3e 6539 fd3d 8556 513b 480e bebd
00000220: 3006 43bd ddb0 20bd ed1a 733d cf4b a63b
00000230: 66ff fb3b 6e84 ee3d 4d21 aabb 262a 39be
00000240: 9cde 4bbe 8cf5 2ebd 975d 3abd e9b0 f5bc
00000250: 636a 023e 3574 043e f8d8 23be 5384 483d
00000260: ab66 0b3c dd20 76bb 967a 98bd e69b 09be
00000270: 65a4 b5bd 6151 6d3d e66c cabd d0da 883d
00000280: 4bae 083e 05e3 703d 86da 1cbe fad3 643d
00000290: 7126 f23c a860 ccbd c669 8e3d 9fd3 42be
000002a0: a3e7 d63d d9c6 18bd d457 b1bd 1cf7 2abe
000002b0: cc12 11be 4348 f13d 29e8 22be 3f58 49bd
000002c0: e95f d73d f9eb 39be 9581 3a3e d0ae 07be
000002d0: fe83 65bd 1b00 a3bd 1880 2d3e 51e8 633d
000002e0: 8a1b 40be 1e34 65bd 84c8 ad3d 264d 273c
000002f0: 24ff 74bd 0b91 eb3d 561c b5bd 8957 38be
00000300: 6fe0 b5bd 21fd d33d 1f1a 44be ff90 1f3d
00000310: 656f 303d a8f1 4bbc 7d03 8bbd b894 f7bb
00000320: cd01 5abd 1cf0 22bd 273a 9b3d 4f9e 8b3c
00000330: 1f61 22be 488a 113e 12ab 263e f9e8 0abd
00000340: 2a1c d13d 6a77 68be e220 fe3d 312d 49be
00000350: 7f63 0ebe a15a fa3d cafd 063e 40d5 03bd
00000360: 6ae3 f13d 3a3a 0e3e 40ab 843d 6ba0 33bc
00000370: 6f54 e73d 3874 003e 4980 1cbd 6440 a6bd
00000380: dea9 06be 2be9 db3c 9a55 3a3c c1de 073d
00000390: 769a d23d 3e9e 9f3d 053c 19be afe0 e8bb
000003a0: 7b33 b2bd ef43 d53b 5075 1bbe 0b08 ed3d
000003b0: 9898 27bd 798f eabd 5227 11be 0fe3 b43d
000003c0: 99c5 1e3e b3a3 f93d e6b0 af3d 550f 563e
000003d0: c122 20bd a059 19bc 66dd 903d adc0 b53c
000003e0: a096 623d 27a4 9d3d 5644 bf3c e42c 983d
000003f0: 01a6 5dbd 1510 0dbc 63eb e1bd a0de 783d

nnECG.4.bias f4 [64]
-0.0057578054 -0.025035286 0.019631207 0.015611994 -0.016288582 0.014130923 0.03390881 0.010461037
0.017397892 0.031798027 0.00938163 0.03753793 0.026219487 0.045384508 0.0013997796 0.024389016
0.018992597 0.014499771 -0.01116071 0.03927583 0.051434286 0.026639393 0.029855166 0.00148012
0.014307681 0.0013666037 0.025093054 0.033400506 -0.040488068 0.025501424 -0.012150845 0.018852117
0.010253271 0.013673983 0.014299313 0.02508147 0.04349787 0.015443039 0.015055945 0.03731731
0.023357034 -0.0048210877 -0.01696966 -0.02933859 0.028141268 0.036445208 0.033868384 0.014721093
-0.0355382 -0.015216055 0.009907782 0.02013371 0.020028425 0.010611871 0.017080368 0.024442544
0.022639249 0.020692017 0.01639458 -0.027433429 -0.008885934 0.01603977 7.15805e-06 0.0031675019
00000000: f9ab bcbb cd16 cdbc a0d1 a03c 73c9 7f3c
00000010: a26f 85bc 6385 673c f7e3 0a3d c564 2b3c
00000020: 0686 8e3c a63e 023d 69b5 193c 5fc1 193d
00000030: 40ca d63c 1be5 393d cf78 b73a 79cb c73c
00000040: 5d96 9b3c 7390 6d3c 69db 36bc b1df 203d
00000050: c2ac 523d db3a da3c d292 f43c 9600 c23a
00000060: c36a 6a3c 9c1f b33a f38f cd3c f8ce 083d
00000070: d1d6 25bd 5de8 d03c 5614 47bc c16f 9a3c
00000080: 56fd 273c d708 603c aa47 6a3c a877 cd3c
00000090: d32a 323d cd04 7d3c 36ad 763c 09da 183d
000000a0: 4057 bf3c 37fa 9dbb f503 8bbc 7c57 f0bc
000000b0: 8488 e63c 9247 153d 93b9 0a3d bd30 713c
000000c0: 8190 11bd c34c 79bc 4054 223c 73ef a43c
000000d0: a712 a43c 6add 2d3c 21ec 8b3c bb3b c83c
000000e0: f275 b93c 4e82 a93c ed4d 863c 12bc e0bc
000000f0: 4f96 11bc d665 833c 2e2f f036 dd95 4f3b

nnECG.5.weight f4 [64]
1.0090071 1.0229558 1.0408422 1.029368 0.995565 1.0242032 1.0865437 1.0504953
1.0972822 1.1103349 1.1131463 1.0592612 1.075901 1.0662271 1.0530697 1.040128
1.0013988 1.0469704 1.0629858 1.0807575 1.112664 1.0762607 1.1002535 1.0138427
0.98604506 1.0348239 1.0181429 1.0788189 1.00498 1.0171378 1.0079727 1.0233068
1.0466136 1.1017812 1.0522075 1.0241086 1.0665035 1.072016 1.089861 1.0094744
1.0783088 0.9791876 0.96518445 1.0035795 0.97259885 1.0675238 1.0304934 1.0218804
0.9845445 0.9922431 1.1061543 1.1113402 1.0387208 1.0028387 1.1066616 1.0608302
1.0498855 1.0921767 0.96405244 0.96320206 1.0094044 1.0365313 1.0123922 1.0614674
00000000: 2527 813f 37f0 823f 513a 853f 55c2 833f
00000010: 59dd 7e3f 1719 833f dd13 8b3f a176 863f
00000020: be73 8c3f 741f 8e3f 947b 8e3f df95 873f
00000030: 20b7 893f 217a 883f fdca 863f ea22 853f
00000040: d62d 803f 2003 863f eb0f 883f 4356 8a3f
00000050: c66b 8e3f e9c2 893f 1bd5 8c3f 99c5 813f
00000060: 736d 7c3f 1c75 843f 8252 823f bd16 8a3f
00000070: 2fa3 803f 9231 823f 4005 813f b8fb 823f
00000080: 6ff7 853f 2b07 8d3f bcae 863f fe15 833f
00000090: 3083 883f d237 893f 9180 8b3f 7536 813f
000000a0: 0606 8a3f 0aac 7a3f 5416 773f 4b75 803f
000000b0: 3dfc 783f 9fa4 883f 35e7 833f facc 823f
000000c0: 1c0b 7c3f a503 7e3f 7796 8d3f 6540 8e3f
000000d0: cef4 843f 055d 803f 16a7 8d3f 49c9 873f
000000e0: a662 863f 72cc 8b3f 24cc 763f 6994 763f
000000f0: 2a34 813f 0fad 843f 1196 813f 2ade 873f

nnECG.5.bias f4 [64]
-0.015556445 -0.03491208 0.0063055763 0.00434686 -0.024554746 0.0053735715 0.028512003 -0.002906156
0.014930158 0.018730495 0.007843833 0.027153324 0.021729855 0.034047533 -0.0028355543 0.00076271844
0.0044247545 0.014604509 -0.011367109 0.03747554 0.049760625 0.013820141 0.026058063 -0.008588661
0.0063027795 -0.013922159 0.024271553 0.019208768 -0.053362235 0.007307204 -0.015059803 0.001304773
0.0008829901 0.0011379331 0.011486717 0.024399437 0.022011427 0.0036116166 -0.00040567433 0.013634391
-0.004203071 -0.015111216 -0.024140017 -0.037058078 0.008576608 0.02418588 0.021812802 0.0007243866
-0.05460608 -0.03226602 0.0045614294 0.014684483 0.005175074 -0.004505444 0.009890319 0.01643159
0.0033928456 0.009148337 0.005674533 -0.05115305 -0.024976358 0.007678885 -0.0020314504 0.0005193927
00000000: 76e0 7ebc f8ff 0ebd 029f ce3b 1b70 8e3b
00000010: 0927 c9bc c914 b03b 0192 e93c 3575 3ebb
00000020: 9f9d 743c b270 993c 6c83 003c a670 de3c
00000030: cf02 b23c 6d75 0b3d b5d4 39bb 2bf1 473a
00000040: 88fd 903b c047 6f3c 1c3d 3abc f47f 193d
00000050: ccd1 4b3d df6d 623c b877 d53c 75b7 0cbc
00000060: 8c87 ce3b c419 64bc 23d5 c63c b55b 9d3c
00000070: 5c92 5abd 4571 ef3b 64bd 76bc eb04 ab3a
00000080: 7678 673a b326 953a c832 3c3c 54e1 c73c
00000090: 4f51 b43c dfb0 6c3b b0b0 d4b9 c862 5f3c
000000a0: eab9 89bb 0995 77bc 49c1 c5bc 36ca 17bd
000000b0: e784 0c3c 7721 c63c c3b0 b23c c3e4 3d3a
000000c0: a0aa 5fbd 6029 04bd 0b78 953b 3097 703c
000000d0: ab93 a93b 67a2 93bb 010b 223c 8b9b 863c
000000e0: 815a 5e3b e8e2 153c 6ff1 b93b dc85 51bd
000000f0: 389b ccbc 289f fb3b 1522 05bb db27 083a

nnECG.5.running_mean f4 [64]
0.12568605 0.17053962 0.050047126 0.10440542 -0.34733412 0.15021221 -0.30231294 0.0500072
0.09857969 0.12344617 0.0493517 0.25800785 -0.24498574 0.08482683 0.064642034 -0.50138944
0.21462253 -0.17344439 -0.17193691 0.10147429 -0.13103251 -0.21354118 -0.2041124 -0.4998224
0.18539262 -0.3092472 -0.37652883 0.13799071 -0.12229587 0.03468903 -0.17229569 -0.020183021
-0.044951823 -0.40059978 -0.0078053004 -0.08555039 0.08099548 0.081705384 -0.031373877 0.43277505
0.0719758 0.45917913 -0.41971454 0.45698217 -0.13431993 -0.23207535 -0.17382056 0.17657754
0.1446695 -0.06418326 0.31195658 0.38801157 -0.15510084 -0.40208828 0.06468367 0.6762576
-0.38743624 0.12085331 0.7698531 -0.2778788 -0.35016713 -0.44431236 0.34929335 -0.33679077
00000000: d8b3 003e f0a1 2e3e 37fe 4c3d 82d2 d53d
00000010: c7d5 b1be 3bd1 193e c3c8 9abe 5ad4 4c3d
00000020: 26e4 c93d 58d1 fc3d 0225 4a3d 9b19 843e
00000030: 8bdd 7abe b0b9 ad3d 0b63 843d 0f5b 00bf
00000040: 02c6 5b3e 689b 31be 3b10 30be c1d1 cf3d
00000050: 632d 06be 8aaa 5abe d702 51be b9e8 ffbe
00000060: 90d7 3d3e a655 9ebe 63c8 c0be 704d 0d3e
00000070: 4276 fabd 1616 0e3d 486e 30be dd56 a5bc
00000080: 671f 38bd 6a1b cdbe 9bc3 ffbb 0b35 afbd
00000090: f5e0 a53d 2755 a73d e581 00bd b194 dd3e
000000a0: 0c68 933d 8719 eb3e d3e4 d6be 91f9 e93e
000000b0: 2a8b 09be 29a5 6dbe 04fe 31be bed0 343e
000000c0: 3e24 143e 8372 83bd c6b8 9f3e 74a9 c63e
000000d0: c1d2 1ebe 84de cdbe df78 843d 381f 2d3f
000000e0: 0b5e c6be f181 f73d 1815 453f 2146 8ebe
000000f0: 1b49 b3be e97c e3be 94d6 b23e d76f acbe

nnECG.5.running_var f4 [64]
1.0620118 1.2362362 1.0459021 1.7472792 0.84548295 1.2927915 1.140681 0.89474773
0.98178494 1.3954654 1.0590777 1.5044814 1.1088043 1.6560571 0.92753273 1.298622
0.9389188 1.5750346 0.93943745 0.9798866 1.1747017 1.4354656 2.1993098 1.3393629
1.4138206 1.5044006 0.91686285 0.9707448 1.5517746 0.86703074 1.5275108 1.2139797
1.6423467 1.6579634 1.0319389 1.2845347 1.2845023 0.9769129 1.0285778 0.9097269
1.1407479 1.5630926 0.8847626 0.892418 0.8683485 0.98738074 1.0186356 1.1299587
0.85632575 1.0766363 0.8467147 1.1495663 1.5709833 1.7147273 1.0490248 1.7270435
1.0813465 1.0028793 0.93255895 1.5868442 1.5405363 1.1373717 0.8514465 0.76526994
00000000: 01f0 873f fd3c 9e3f 1fe0 853f d8a6 df3f
00000010: 9271 583f 317a a53f d601 923f 300e 653f
00000020: 4256 7b3f 9c9e b23f dc8f 873f d992 c03f
00000030: 4ded 8d3f aef9 d33f c972 6d3f 3f39 a63f
00000040: fc5c 703f bc9a c93f f97e 703f d9d9 7a3f
00000050: a05c 963f 56bd b73f 7ec1 0c40 3e70 ab3f
00000060: 13f8 b43f 3390 c03f 86b7 6a3f bb82 783f
00000070: 8da0 c63f baf5 5d3f 7985 c33f b063 9b3f
00000080: 6b38 d23f 2538 d43f 9316 843f a26b a43f
00000090: 926a a43f f716 7a3f 70a8 833f dde3 683f
000000a0: 0704 923f 6b13 c83f cd7f 623f 8275 643f
000000b0: 164c 5e3f fcc4 7c3f a762 823f 7da2 903f
000000c0: 2a38 5b3f 38cf 893f 4bc2 583f fd24 933f
000000d0: fb15 c93f 2f7c db3f 7246 863f c30f dd3f
000000e0: 9069 8a3f 595e 803f 2fbc 6e3f b61d cb3f
000000f0: 4b30 c53f 6595 913f 66f8 593f bbe8 433f

nnECG.8.weight f4 [16, 64]
0.24093227 0.06515181 -0.18298711 -0.1904464 -0.16856116 -0.26029354 0.08206856 -0.059535637
-0.09460491 0.2645379 -0.033421837 0.022828186 -0.112533905 0.2134677 0.20107284 -0.084636144
-0.21431826 0.10197614 -0.08395716 0.2680652 -0.14723551 0.016259957 0.037044376 0.21710953
-0.15355895 0.17910187 0.19795278 0.19307357 0.22875234 -0.02549708 -0.11805176 -0.12850401
0.17168914 0.11163915 0.15282492 0.014092888 -0.07777096 0.13884674 -0.31077087 -0.17204763
0.1703501 -0.034924 -0.28366363 0.17663628 -0.19109471 0.03869935 -0.13126501 -0.27329686
-0.28168926 -0.07429629 -0.027149355 0.0117324 -0.014984202 -0.14282201 -0.010440498 0.14337265
0.21659301 -0.17383112 -0.03260779 0.110530905 0.06911489 -0.0010619749 0.23552158 -0.21735571
-0.11599894 -0.21591824 -0.1351281 0.14802322 -0.19245815 0.12528384 0.035073172 -0.21863523
-0.26484752 0.24012767 -0.32171047 0.3238537 0.18489306 0.13022892 0.25118583 0.23830543
0.14632826 0.012048898 -0.19180033 0.14923847 0.16976027 0.10578549 0.31735018 -0.23889892
-0.10899873 -0.0971477 0.24729934 0.14093685 -0.061009757 0.1882645 0.0119697545 -0.025238622
0.08171676 -0.0514194 0.11210087 0.2605349 0.33857414 -0.14977886 0.029102175 0.24043244
-0.20700446 -0.12123009 -0.25074816 -0.26571313 0.20776175 0.16856876 0.2407099 -0.0025005678
-0.21116446 -0.19439536 -0.01652026 -0.25667295 -0.043004125 0.15329094 -0.10480244 -0.31138164
0.15502143 0.07698908 0.05835094 -0.13223995 0.031483635 0.030458158 -0.1825315 0.044624377
-0.07574633 0.11500171 -0.27380452 0.11541947 0.19411507 0.1516593 -0.32662928 0.28654698
0.1330011 -0.22147137 0.38044277 0.06403282 -0.23288879 -0.23442103 -0.28548655 -0.018191675
0.0027883835 0.17366041 -0.09550119 -0.22792812 0.19726343 0.35179535 -0.16409045 0.09210589
0.06685676 -0.014721318 -0.0072834007 -0.24814971 -0.23268494 -0.20869327 0.062300034 0.056587655
0.21291149 -0.008933397 -0.016562287 -0.19903187 -0.10821338 0.33648324 0.30895287 -0.08958279
-0.040649645 0.015939659 -0.12860419 -0.1060876 -0.17836663 0.2676533 0.11178931 0.0076570325
-0.21675731 0.009970525 0.19056946 0.11592348 0.13628502 -0.15115644 0.1926621 0.10301243
-0.16480595 0.3392136 -0.267972 -0.19220366 0.14871095 -0.04743213 -0.06818116 0.3446237
0.14021799 0.1690889 0.062071644 -0.0891928 0.10718877 -0.059168767 -0.14950426 -0.052458547
0.07126334 -0.03736362 -0.08875725 0.14778686 0.0076883025 -0.06061127 -0.15469773 -0.0907568
0.10741926 -0.1934277 0.15885165 -0.06601537 0.22419645 -0.1790979 -0.34870502 -0.19562049
0.22428854 -0.18788852 -0.25081596 -0.11626589 0.19549182 0.07858657 0.16968548 -0.09912918
0.24787505 -0.080534056 -0.124298215 -0.20470625 -0.20686369 0.24878368 -0.25593606 0.26327667
-0.06683607 0.25252137 -0.14043888 -0.1028612 0.12574935 0.21442115 0.19588281 0.07656115
-0.16071141 -0.07771819 0.031989265 0.30427974 -0.19892909 -0.16804737 0.23285797 -0.015526659
-0.17468844 0.050607327 -0.14205202 -0.09732297 0.106169075 -0.2440679 -0.15686405 0.044927303
00000000: f3b6 763e 506e 853d f960 3bbe 6204 43be
00000010: 4c9b 2cbe 3245 85be 9013 a83d a4db 73bd
00000020: 38c0 c1bd 8371 873e 56e5 08bd 2d02 bb3c
00000030: 2d78 e6bd 4797 5a3e 0ae6 4d3e b755 adbd
00000040: 3f76 5bbe ded8 d03d bbf1 abbd d83f 893e
00000050: e8c4 16be 9a33 853c d8bb 173d f651 5e3e
00000060: 8f3e 1dbe 7b66 373e 22b4 4a3e 14b5 453e
00000070: 0e3e 6a3e 41df d0bc 1fc5 f1bd 8e96 03be
00000080: 47cf 2f3e 11a3 e43d 237e 1c3e dbe5 663c
00000090: 6246 9fbd d72d 0e3e 5c1d 9fbe 412d 30be
000000a0: 4270 2e3e 780c 0fbd 5c3c 91be 24e0 343e
000000b0: 55ae 43be 3683 1e3d 566a 06be 91ed 8bbe
000000c0: 9339 90be a728 98bd 5368 debc 4139 403c
000000d0: 4c80 75bc ef3f 12be 9f0e 2bbc 48d0 123e
000000e0: 8fca 5d3e c900 32be bf8f 05bd 075e e23d
000000f0: 1c8c 8d3d f731 8bba 922c 713e 7f92 5ebe
00000100: da90 edbd ac19 5dbe 055f 0abe 6693 173e
00000110: c013 45be 684a 003e e3a8 0f3d eae1 5fbe
00000120: 189a 87be 07e4 753e 3cb7 a4be 27d0 a53e
00000130: 9b54 3d3e bb5a 053e 6e9b 803e 5706 743e
00000140: 13d7 153e be68 453c 4e67 44be f8d1 183e
00000150: a3d5 2d3e 10a6 d83d b97b a23e eba1 74be
00000160: ba3a dfbd 60f5 c6bd 0a3c 7d3e c051 103e
00000170: 5ee5 79bd 69c8 403e ca1c 443c 3ac1 cebc
00000180: 1e5b a73d 269d 52bd 2495 e53d d564 853e
00000190: 9759 ad3e a15f 19be af67 ee3c ec33 763e
000001a0: faf8 53be 7b47 f8bd 1062 80be 8d0b 88be
000001b0: 7fbf 543e 4a9d 2c3e a87c 763e 91e0 23bb
000001c0: 7f3b 58be 940f 47be 7f55 87bc a36a 83be
000001d0: 1825 30bd 4df8 1c3e a9a2 d6bd 6a6d 9fbe
000001e0: f0bd 1e3e 73ac 9d3d 6501 6f3d e969 07be
000001f0: fcf4 003d 6383 f93c 8ae9 3abe 0dc8 363d
00000200: e420 9bbd 0486 eb3d 1b30 8cbe 0b61 ec3d
00000210: 1ac6 463e 934c 1b3e f43b a7be 49b6 923e
00000220: 7131 083e 64c9 62be 65c9 c23e a423 833d
00000230: 667a 6ebe 110c 70be 4b2b 92be b506 95bc
00000240: 50bd 363b 09d4 313e 2196 c3bd fd65 69be
00000250: 6dff 493e 851e b43e 5407 28be 03a2 bc3d
00000260: 32ec 883d af31 71bc 98a9 eebb f51a 7ebe
00000270: f644 6ebe b0b3 55be 522e 7f3d 75c8 673d
00000280: 7805 5a3e 625d 12bc a2ad 87bc 03cf 4bbe
00000290: fa9e ddbd 8847 ac3e 122f 9e3e 2f77 b7bd
000002a0: 3e80 26bd e393 823c d1b0 03be 7544 d9bd
000002b0: bea5 36be da09 893e cbf1 e43d d8e7 fa3b
000002c0: a1f5 5dbe 6a5b 233c a424 433e 4a69 ed3d
000002d0: 4d8e 0b3e c1c8 1abe 3749 453e 2ef8 d23d
000002e0: e4c2 28be 68ad ad3e a033 89be 09d1 44be
000002f0: af47 183e 3148 42bd 90a2 8bbd 8572 b03e
00000300: 4e95 0f3e a425 2d3e d63e 7e3d b7aa b6bd
00000310: c985 db3d f35a 72bd a517 19be c6de 56bd
00000320: 84f2 913d 980a 19bd 5cc6 b5bd 7055 173e
00000330: 28ee fb3b 8643 78bd 1569 1ebe b3de b9bd
00000340: a1fe db3d e911 46be 02aa 223e 1133 87bd
00000350: c193 653e 7165 37be 7789 b2be bd50 48be
00000360: e5ab 653e d965 40be f36a 80be d01c eebd
00000370: 022f 483e fff1 a03d 08c2 2d3e 3d04 cbbd
00000380: f5d2 7d3e 0aef a4bd 1090 febd 849e 51be
00000390: 13d4 53be 26c1 7e3e 0d0a 83be 33cc 863e
000003a0: 59e1 88bd 7b4a 813e 36cf 0fbe e5a8 d2bd
000003b0: 70c4 003e 3891 5b3e 8195 483e 18cc 9c3d
000003c0: 8891 24be b72a 9fbd 2d07 033d 8eca 9b3e
000003d0: 11b4 4bbe 9c14 2cbe 5272 6e3e 8763 7ebc
000003e0: 87e1 32be a149 4f3d 1676 11be 4451 c7bd
000003f0: 2c6f d93d f0ec 79be f8a0 20be b105 383d

nnECG.8.bias f4 [16]
-0.006103091 0.033293594 0.028340543 -0.017154664 0.06743261 0.007326448 -0.0038272701 0.038571868
-0.009302678 0.0015102318 -0.014307708 0.046767034 0.011999483 0.0355202 -0.032661058 0.023141036
00000000: 70fc c7bb dd5e 083d 6d2a e83c f087 8cbc
00000010: 1c1a 8a3d b312 f03b f0d2 7abb 89fd 1d3d
00000020: 426a 18bc f8f2 c53a e06a 6abc ca8e 3f3d
00000030: 7b99 443c a17d 113d 9ac7 05bd 4592 bd3c

nnECG.9.weight f4 [16]
0.9922433 1.0587637 1.0996345 1.0413455 1.104279 1.0803362 0.9790032 1.0890473
1.0453452 1.0081861 1.0778056 1.0744153 1.0037253 1.0501933 1.0415647 1.0719292
00000000: a803 7e3f 9285 873f d3c0 8c3f cf4a 853f
00000010: 0459 8d3f 7548 8a3f f49f 7a3f e765 8b3f
00000020: dfcd 853f 3e0c 813f 89f5 893f 7186 893f
00000030: 127a 803f bc6c 863f fe51 853f fa34 893f

nnECG.9.bias f4 [16]
-0.017757298 0.016600713 0.027397705 -0.014266149 0.053454503 -0.008466582 -0.010138081 0.015933992
-0.023710933 -0.011197229 -0.014337094 0.032845717 -0.01912519 0.015736083 -0.04629954 -0.0036237172
00000000: c177 91bc 38fe 873c 2771 e03c 91bc 69bc
00000010: 1cf3 5a3d 6bb7 0abc 321a 26bc 0188 823c
00000020: 6e3d c2bc 9574 37bc 21e6 6abc 3b89 063d
00000030: 6eac 9cbc f5e8 803c 96a4 3dbd e37b 6dbb

nnECG.9.running_mean f4 [16]
-0.057594135 0.034844555 -0.07153334 -0.072662435 -0.045806278 0.3613243 -0.0762481 -0.053340707
-0.09170852 -0.026482148 0.24656571 -0.20733534 0.2012556 0.13565068 0.045139864 -0.06901768
00000000: d4e7 6bbd 2ab9 0e3d 1280 92bd 0bd0 94bd
00000010: 5d9f 3bbd 80ff b83e f727 9cbd c97b 5abd
00000020: add1 bbbd 17f1 d8bc b97b 7c3e b74f 54be
00000030: f315 4e3e 03e8 0a3e 94e4 383d 2459 8dbd

nnECG.9.running_var f4 [16]
1.4906573 1.3393703 1.5800017 1.2873385 1.3012136 1.2518958 1.8385005 1.5110787
1.071332 1.2825263 1.5555863 1.4254556 1.2138435 1.3236939 1.542178 1.3843572
00000000: dccd be3f 7c70 ab3f 7f3d ca3f 82c7 a43f
00000010: 2b8e a63f 1f3e a03f fc53 eb3f 076b c13f
00000020: 6821 893f d229 a43f 741d c73f 5475 b63f
00000030: 395f 9b3f cd6e a93f 1766 c53f 9e32 b13f

nnECG.12.weight f4 [4, 16]
-0.0031832308 -0.22063912 0.30064318 0.3031351 -0.23647061 0.3158378 0.49200985 0.3700143
-0.24442656 0.004494772 -0.35607165 0.39717177 0.28743687 0.05917182 0.20079832 -0.52592355
0.12840176 -0.461364 0.57734525 -0.13151667 0.3033836 0.37231 0.0009649505 -0.635105
-0.1339441 0.17022584 -0.5249208 0.4273902 -0.09863859 0.3903303 -0.5454647 0.2949156
0.1366428 0.4503893 0.27613598 -0.568037 0.2795897 -0.4330317 -0.36368886 -0.12950665
-0.29282153 0.098859504 -0.11020837 0.5713766 0.31744787 0.55400735 -0.4616651 -0.079963
-0.24912313 0.3087667 0.5080534 0.2738457 0.047619894 0.08899856 0.34878454 -0.24408048
0.013260737 -0.2457569 -0.20848764 0.06645171 0.17367105 -0.58097905 -0.028954117 0.32654062
00000000: c09d 50bb 39ef 61be e7ed 993e 8634 9b3e
00000010: 5a25 72be 7eb5 a13e b7e8 fb3e 8472 bd3e
00000020: f54a 7abe e148 933b 064f b6be 195a cb3e
00000030: ed2a 933e 265e 723d 139e 4d3e eda2 06bf
00000040: c07b 033e e737 ecbe e6cc 133f 4eac 06be
00000050: 1855 9b3e 6b9f be3e bbf4 7c3a 3e96 22bf
00000060: a428 09be af4f 2e3e 3661 06bf e3d2 da3e
00000070: 0703 cabd 60d9 c73e 93a3 0bbf 2dff 963e
00000080: 17ec 0b3e 6d99 e63e b261 8d3e df6a 11bf
00000090: 6226 8f3e 55b6 ddbe 6d35 babe 649d 04be
000000a0: b4ec 95be da76 ca3d edb4 e1bd bd45 123f
000000b0: 8788 a23e 6dd3 0d3f 5e5f ecbe a4c3 a3bd
000000c0: 221a 7fbe ab16 9e3e ca0f 023f 8135 8c3e
000000d0: 140d 433d e144 b63d e393 b23e 3cf0 79be
000000e0: 9043 593c b2a7 7bbe c97d 55be d617 883d
000000f0: d3d6 313e 0bbb 14bf 2f31 edbc 5530 a73e

nnECG.12.bias f4 [4]
0.018639417 0.008827702 0.024560813 0.017037895
00000000: b1b1 983c 11a2 103c c233 c93c 0e93 8b3c

nnECG.13.weight f4 [4]
0.9981407 1.0471528 1.0328257 1.0956037
00000000: 2686 7f3f 1a09 863f a233 843f be3c 8c3f

nnECG.13.bias f4 [4]
-0.0003306667 -0.0019047145 0.010621985 0.0053773355
00000000: 555d adb9 9da7 f9ba d607 2e3c 5c34 b03b

nnECG.13.running_mean f4 [4]
0.31749198 0.012941691 0.08405673 0.13861805
00000000: 4f8e a23e 6309 543c ef25 ac3d e4f1 0d3e

nnECG.13.running_var f4 [4]
1.3663262 1.9364414 1.9318585 0.9159731
00000000: c7e3 ae3f 50dd f73f 2447 f73f 377d 6a3f

nnECG.16.weight f4 [1, 4]
-0.6253173 0.6813848 -0.64632255 0.41174784
00000000: cb14 20bf 3c6f 2e3f 6575 25bf 9dd0 d23e
