Models/net_3_2_epoch_24.pth (torch, 57997 bytes, 25 tensors)

nnECG.0.weight f4 [128, 12]
000000 66 3f 3f be fb 37 de bb a7 74 81 bd 55 24 dd bd
       -0.18676528 -0.0067815757 -0.06321078 -0.107979454
000010 b0 ed 6b 3e 27 f5 db bd 59 91 70 bd 7c b7 3f 3e
       0.2303989 -0.107401185 -0.058732364 0.18722337
000020 76 3f 0c be 97 38 4c 3e 42 34 b7 3c 63 7e 71 3c
       -0.13696083 0.19943462 0.022363786 0.014739606
000030 79 99 3f bd 36 4a 31 be 7a ec 18 be 52 f8 d9 3d
       -0.046777222 -0.17313465 -0.14933959 0.106430665
000040 7f 07 97 be 94 6e 5b be ce 9a ac bc 8a 75 9a 3c
       -0.29497907 -0.21428901 -0.02106991 0.018854875
000050 dd 37 5c 3e 96 c7 09 be 75 86 0b 3e 7f 38 93 bd
       0.21505685 -0.13455042 0.1362551 -0.0718851
000060 9e a4 b2 bd 0d 99 03 be 6b e3 07 bd 73 bd 0a be
       -0.087228045 -0.12851353 -0.033175867 -0.13548832
000070 8b 38 0e 3e 5e 82 b9 3d 7f 2b 57 3e e9 2b 46 3e
       0.13888757 0.09058069 0.21012686 0.19352688
000080 61 15 64 bd cc 80 57 be b2 98 32 3e ad a8 3d be
       -0.05568445 -0.21045226 0.17441061 -0.18521376
000090 18 be e3 3a 35 34 d5 bd 2c 2c 6b 3d 61 7f 24 be
       0.0017375378 -0.10410348 0.057415172 -0.16064216
0000a0 50 07 05 3e 88 80 41 3e 14 65 30 3e e4 0d 3b 3e
       0.12991071 0.18896687 0.17226058 0.18267018
0000b0 74 16 ea 3c 24 ac 70 bd 96 dd a1 bc 87 b5 32 3d
       0.02857516 -0.058757916 -0.01975898 0.04363015
0000c0 08 57 5b be 6a 11 65 bc b2 50 51 3e 20 62 d2 bc
       -0.21419919 -0.013981203 0.20440939 -0.025681555
0000d0 e3 c9 43 3e 57 5c 1a 3d 6d d8 55 be f0 6c 2e be
       0.19119982 0.03768572 -0.20883341 -0.17033744
0000e0 59 4e 44 bd 63 3c 20 3d 1c 13 d8 bd 2a 9c 02 3e
       -0.04792628 0.03912009 -0.1055052 0.12754884
0000f0 c0 7e f7 bd 55 ff 23 be e0 18 d8 bd a4 22 62 3e
       -0.120847225 -0.1601537 -0.105516195 0.22083527
000100 ec b2 4b 3e 5e 84 0a 3e ab c8 67 be f5 88 f5 3d
       0.19892472 0.13527057 -0.22635143 0.11989013
000110 b7 f0 fb bd 51 3f 0e bd ee 60 f3 3d 5e 4b 2d 3e
       -0.12301772 -0.034728352 0.11883722 0.16923282
000120 c7 73 79 3d 95 26 47 3e 9a db 9b 3d 90 49 0f 3e
       0.06090143 0.19448312 0.07610245 0.13992906
000130 a6 e6 a3 3d 47 6e 85 3c 44 d1 fe bd 5c 80 0d be
       0.08002977 0.016287936 -0.12442258 -0.13818496
000140 a0 12 2d 3e 66 71 18 be 66 b3 73 bd 2d ad 4e 3e
       0.16901636 -0.14887008 -0.05949726 0.20183249
000150 09 c1 98 3d 3a e7 6a 3d 63 62 16 be bc cb 8d bc
       0.074586935 0.05734942 -0.14685969 -0.017309062
000160 7f 13 75 3e 5b 2c 38 3d 68 b5 f2 bd 20 e9 a2 bd
       0.23933218 0.044964176 -0.11851007 -0.07954621
000170 95 19 3f 3d 4b 76 45 3e 7a f1 01 3e e3 f5 34 3d
       0.046655256 0.19283406 0.12689772 0.04417981
000180 f8 b2 38 be 23 0c 4e 3b c6 49 40 be ed fe d6 3d
       -0.18037021 0.003144034 -0.18778142 0.10497842
000190 0c 81 c4 bd af 51 1a bd 6c e7 5a 3e 57 0b c6 bd
       -0.09594926 -0.037675556 0.21377343 -0.09670132
0001a0 00 50 99 bd 70 75 21 bd 19 b4 1e 3d 5a 71 1a 3e
       -0.07485962 -0.039418638 0.038745973 0.15082303
0001b0 ce 8a 5e be 7b 15 3e be 6e da 4c 3d e8 e6 0a be
       -0.21732637 -0.18562882 0.050013 -0.13564646
0001c0 d0 01 40 3e 43 39 8a bd 4c 0d 18 bd 20 aa 3b 3e
       0.18750691 -0.06749203 -0.037122056 0.18326616
0001d0 f1 a3 64 3d a4 ac 67 3e 5d 94 93 3d 74 48 d0 bc
       0.05582041 0.22624451 0.072060324 -0.025425173
0001e0 e1 cc 44 3e c9 1b 58 3c aa 8e 9c bd 80 fe 7a 3d
       0.1921878 0.013190218 -0.076443985 0.061277866
0001f0 25 94 60 3d c5 b1 36 3e 57 fe e2 3d 98 9e 4f 3e
       0.05482878 0.17841251 0.11083668 0.20275342
000200 86 f3 f8 3d a9 82 ef 3d b1 db 8f 3d 1b ba 1c be
       0.121558234 0.11694843 0.07024325 -0.15305369
000210 b4 e4 73 bd 3e df 69 3d 19 8a 41 be e6 26 76 bd
       -0.05954428 0.057097666 -0.18900336 -0.06009569
000220 87 16 33 3d 48 2d 2d bd 35 a0 9e bd 8d 25 f9 3c
       0.043722656 -0.04227951 -0.07745401 0.030413413
000230 70 a5 a6 bd c8 32 47 3e ce ef 5d 3d 16 a9 cc 3d
       -0.081370234 0.19452965 0.054183774 0.09993188
000240 80 68 e1 3c 3e 5d 6b bd 63 6b da bd b7 3d ee 3c
       0.02751565 -0.05746197 -0.10665014 0.029082162
000250 18 5f 10 be 35 34 50 bb 40 b3 3b be cb aa c5 3d
       -0.14098775 -0.00317694 -0.18330097 0.09651717
000260 49 fa 6b 3d 47 be 7a 3e 38 42 d8 bd 7d 35 07 3d
       0.057611737 0.24486648 -0.10559505 0.033009995
000270 02 da 17 3e 55 f6 4d 3e da 29 aa 3d cb 66 be bd
       0.14829257 0.201135 0.08308764 -0.0929695
000280 36 a7 f6 3d e8 16 05 bd f9 8e 3b bd 48 b6 d1 3d
       0.12043612 -0.03249255 -0.045790646 0.102398455
000290 3d 31 47 be 44 fe 0d 3d 31 f5 0e 3e 19 05 fa 3d
       -0.19452377 0.034666315 0.1396072 0.122080036
0002a0 2c 20 bc bc a1 f8 bb 3d cf 80 e5 3d 51 77 53 bb
       -0.02296456 0.091782816 0.11206209 -0.0032267163
0002b0 e1 23 36 be e3 ce f7 3d 7a 5d 13 bd b3 27 b1 bd
       -0.17787124 0.121000074 -0.035977818 -0.0865015
0002c0 89 fa 2d 3e 5d 64 0f be ad b6 ef 3d 8d 95 68 3d
       0.16990103 -0.1400313 0.117047645 0.056783248
0002d0 7b f4 01 3e 36 4d 17 3d bd fe 83 3d 39 2d 2e bd
       0.12690918 0.03693887 0.06445072 -0.042523596
0002e0 67 cd f0 bd cc 29 4b bc e4 9a bf 3d 22 ce c1 bc
       -0.117579274 -0.012400102 0.09355715 -0.023657862
0002f0 45 32 cd bd 96 d8 46 3e 72 76 52 3e b4 39 9a bd
       -0.10019354 0.19418558 0.20552996 -0.07530537
000300 4d 3e ae bd 64 dc 01 3e 6e 14 47 be ab 39 47 3d
       -0.08507977 0.12681729 -0.19441387 0.04863898
000310 e7 2c c7 3d 7e 53 64 be 66 4c 62 bd 3e 8c 3e be
       0.09725361 -0.22297475 -0.05524864 -0.18608186
000320 46 7f b2 3c f2 b7 0a be d3 31 3c bd 45 1f 2a 3e
       0.021789204 -0.13546732 -0.045945954 0.16613491
000330 66 6d a9 bd 7d bf 38 3e 7f c4 80 bd f3 eb e4 bb
       -0.08272819 0.18041797 -0.06287479 -0.006986135
000340 1d 81 1e be 26 9e 8e 3d 06 7a 44 be e0 6f f4 bc
       -0.1547894 0.06963758 -0.19187173 -0.029838502
000350 d2 ee 33 bd db c6 f0 bd ad a8 82 3d 14 b1 26 be
       -0.04392893 -0.11756679 0.063798286 -0.16278487
000360 8c 04 62 3e 6b 88 e1 bd 38 c5 47 be 28 0c 83 bd
       0.22072047 -0.11012348 -0.19508827 -0.06398803
000370 7c af d8 3d 73 1a b7 3d 70 e4 12 be f7 7a 48 be
       0.10580346 0.08940592 -0.14344954 -0.19578157
000380 a9 5c f6 bd fe 0c 81 3c cf 61 3d be b3 5b 05 3e
       -0.12029392 0.015753265 -0.18494342 0.13023262
000390 2e c1 e1 3c 5c ce d8 bd 3a 63 17 3d 64 78 05 3e
       0.027557936 -0.10586235 0.036959864 0.13034207
0003a0 79 14 65 be 1b d1 67 be b9 33 47 3e ec 26 00 bd
       -0.22371091 -0.22638361 0.19453324 -0.03128712
0003b0 60 db 56 3e 91 53 2f bc e3 b0 ea 3d 8c 34 50 bd
       0.20982122 -0.010701076 0.1145952 -0.050831363
0003c0 ba 37 af bb c4 ab 0b 3e 5f fa 15 3e 4b 9a 28 bd
       -0.0053472193 0.13639742 0.1464629 -0.04116277
0003d0 3a b6 1b 3e 89 a2 61 3c 79 82 ad bd 99 fd 25 3c
       0.15206233 0.013771662 -0.08472151 0.010131263
0003e0 3b 07 10 3e ad 46 ba bb e6 25 d1 bd c7 71 c8 3d
       0.14065258 -0.0056846947 -0.10212307 0.09787326
0003f0 25 b2 17 3e b7 a9 1b 3e 02 82 d1 bd 37 93 05 3d
       0.1481405 0.1520146 -0.10229875 0.0326111

nnECG.0.bias f4 [128]
000000 6c 51 a2 3c 9d bf 2b 3c 64 61 29 3b a1 a6 13 bb
       0.019814216 0.010482696 0.0025845403 -0.0022529738
000010 4e 97 8c 3c e2 c8 8b 3c 4d ea 58 3c 05 2f 3b 3c
       0.017161991 0.017063562 0.013239455 0.011424785
000020 ef 46 98 3c cd 12 8b 3c 8f 9a 3f bc 24 f3 30 3c
       0.018588511 0.016976738 -0.0116945645 0.010800157
000030 23 af 30 3a 58 5e 9d 3b 62 be 58 ba 5d db 8a 3b
       0.00067399646 0.0048025064 -0.00082681153 0.004237576
000040 a2 01 be 3c 73 2f 88 3b d4 ff 89 3c bd 37 a1 3b
       0.023194138 0.004156047 0.016845621 0.0049199746
000050 be 14 9f 3b 90 13 9e 3c 14 6c 84 3c d3 d0 b4 3a
       0.0048547676 0.019296438 0.016164817 0.0013795145
000060 1b 3a 9a 3c f8 a7 0f 3c 53 c6 d4 3b 95 26 a1 3c
       0.018826535 0.008768074 0.0064933687 0.019671718
000070 76 d0 83 3b 73 6f 23 3c 37 82 97 3b 0a d8 c2 3c
       0.004022653 0.009975302 0.004623677 0.023784656
000080 a2 b5 6b 3c 94 99 0f 3d 8c 28 7c 3c c4 f3 9b b9
       0.014386566 0.035058573 0.0153905265 -0.00029745523
000090 7f 38 74 3c 7a 9f 52 3b ef c5 b1 ba c0 91 6e 3c
       0.014906048 0.0032138512 -0.0013563017 0.014561117
0000a0 f2 0f 40 3c 5b 9c 5b bb ae 0c 36 3c e1 49 05 3b
       0.011722552 -0.0033509943 0.0111114215 0.0020338225
0000b0 f3 04 19 3c ec da cb 3c 59 fc c5 3c 02 a1 d4 3b
       0.009339559 0.024884664 0.02416818 0.00648892
0000c0 43 00 48 bb e3 db e0 3c df c1 80 3a 07 05 71 3c
       -0.0030517734 0.0274486 0.0009823403 0.014710671
0000d0 f4 91 00 3c a2 7e ae 3c 94 03 ff 3b ca e9 3d bb
       0.007847298 0.021300618 0.007782409 -0.002897846
0000e0 e3 55 b2 3c cf 7d 78 3b ff 17 3d 3c fa 53 27 3b
       0.02176947 0.0037916785 0.011541366 0.0025532232
0000f0 64 86 c1 3c a9 6a 11 bb 33 88 30 3c 9c f1 72 3c
       0.023623653 -0.0022188819 0.01077466 0.014828112
000100 63 c2 24 3c 2f 5f 36 3c 21 eb 36 3c ea 36 59 b8
       0.010056111 0.011131092 0.011164458 -5.1787974e-05
000110 3f 48 85 3b 57 6c 37 3b 6d 04 b6 3c 0f 18 55 3c
       0.0040674503 0.002798816 0.022218907 0.013006224
000120 f7 6a e8 3c c9 26 6a 3b 98 ed 14 3c 24 3a 44 39
       0.028371317 0.0035728684 0.00908985 0.00018713676
000130 b3 89 17 3b cd 98 6f 3c c9 0a 87 3c f7 5e cf bb
       0.0023122847 0.014623833 0.016484635 -0.0063284594
000140 27 08 49 3c 96 4e e1 3c 46 ab 31 3c bc 1c f9 ba
       0.01227001 0.027503293 0.010844057 -0.0019005756
000150 ed d7 d9 3c 33 c1 32 bc 87 f4 31 3c 13 79 87 3b
       0.02659222 -0.01091032 0.0108615225 0.004134306
000160 41 03 6c 3a 89 94 d5 3b c9 92 f3 3b 12 43 e1 3c
       0.00090031704 0.006517951 0.0074332696 0.027497802
000170 17 ba 57 3c ba a1 89 3c f6 c9 88 3b 98 35 97 3c
       0.013166926 0.01680075 0.0041744662 0.018458173
000180 10 bd 98 3c a4 5f b4 3a 85 dc d6 3c 7f eb ec 3c
       0.01864484 0.0013761413 0.026228199 0.028920887
000190 d0 23 32 bb f5 4b 85 3b 76 9d 05 3c c0 21 30 39
       -0.002718199 0.0040678927 0.008155217 0.00016797241
0001a0 37 8e 27 3c 41 f7 b6 3b d6 be bd 3b ab 57 9a 3b
       0.010226778 0.005583674 0.0057905717 0.004710158
0001b0 6b d8 82 3b 73 a6 9d 3c 60 cc a9 3c f4 2a 32 3c
       0.003993084 0.019244408 0.020727336 0.010874499
0001c0 95 ff 03 3c e9 82 26 3c 55 95 84 3c 0b 3a c9 3a
       0.008056541 0.010163047 0.016184488 0.0015352381
0001d0 8a 71 8f 3c 7f ef 1f bc 20 86 7f bc 23 35 40 3c
       0.017510194 -0.00976169 -0.015595943 0.011731419
0001e0 03 f4 0e 3c 0d 47 6d 3c 33 6f fa bb 57 90 8b 3c
       0.008725169 0.014482272 -0.0076426505 0.0170366
0001f0 b9 81 d0 3b 15 c1 84 3b 05 d1 7f 3c e6 e8 46 3c
       0.0063631204 0.0040513375 0.015613799 0.012140488

nnECG.1.weight f4 [128]
000000 b3 4a 7a 3f df 0e 83 3f 60 3e 7b 3f a1 9c 84 3f
       0.9777023 1.0238913 0.9814205 1.0360299
000010 f5 ce 86 3f 12 a1 88 3f ba 4a 7c 3f c2 e0 88 3f
       1.0531908 1.0674155 0.98551524 1.0693591
000020 56 3d 7c 3f 2e 2e 83 3f 3e c9 85 3f 37 89 82 3f
       0.9853109 1.0248468 1.0452039 1.0198125
000030 0d a9 85 3f 40 c6 83 3f 86 c9 7b 3f 59 04 87 3f
       1.0442215 1.0294876 0.98354375 1.0548202
000040 bb 3e 83 3f bc fc 79 3f 05 55 86 3f 17 76 85 3f
       1.0253519 0.9765127 1.0494696 1.0426663
000050 0a 1c 7c 3f 53 02 85 3f a8 83 8f 3f 0b 70 7d 3f
       0.98480284 1.0391334 1.1212053 0.9899909
000060 72 09 80 3f cd 78 81 3f 70 2f 82 3f 11 4b 79 3f
       1.0002882 1.011499 1.0170727 0.9738017
000070 df fe 74 3f ea 8b 82 3f 15 11 80 3f a8 0a 88 3f
       0.957014 1.0198948 1.0005213 1.0628252
000080 a8 2a 87 3f 67 92 86 3f 0f 59 88 3f 7d 92 7d 3f
       1.0559893 1.0513428 1.0652179 0.9905165
000090 4c db 81 3f c2 98 72 3f a2 be 81 3f cf 4f 81 3f
       1.0145049 0.9476434 1.0136302 1.0102481
0000a0 52 d1 8d 3f c5 55 7a 3f 93 22 8a 3f 73 d8 81 3f
       1.1079504 0.97787124 1.0791801 1.014418
0000b0 4e 4c 7c 3f 59 0e 8f 3f 25 45 89 3f 71 a7 82 3f
       0.9855393 1.1176254 1.0724226 1.0207349
0000c0 97 e8 7c 3f 12 8f 83 3f 41 b6 7c 3f 4c e8 85 3f
       0.98792404 1.0278037 0.987156 1.0461516
0000d0 69 0c 89 3f 7a 6c 8b 3f 71 47 80 3f 4c 8b 82 3f
       1.0706912 1.089248 1.0021802 1.019876
0000e0 18 69 87 3f ea 5d 7e 3f 7f 98 8c 3f e1 b2 80 3f
       1.0578947 0.9936205 1.0984038 1.005459
0000f0 0b be 7b 3f 10 2b 7f 3f f1 53 86 3f 26 c9 7d 3f
       0.9833686 0.99675083 1.0494367 0.99135053
000100 25 2f 84 3f 05 28 83 3f 6e f0 7b 3f b6 ba 83 3f
       1.0326887 1.0246588 0.9841374 1.0291355
000110 69 c8 86 3f d5 e4 88 3f 9e fd 7e 3f d6 ee 7b 3f
       1.052991 1.0694834 0.9960574 0.9841131
000120 64 9a 8b 3f fb 3b 7a 3f 7a 58 85 3f 29 89 87 3f
       1.0906491 0.9774777 1.0417626 1.0588733
000130 55 6c 78 3f fe cc 81 3f 01 68 82 3f 48 95 85 3f
       0.970403 1.0140684 1.018799 1.0436182
000140 43 fc 86 3f 5c d0 85 3f 6c bb 7e 3f fc e1 7e 3f
       1.0545734 1.0454211 0.99504733 0.99563575
000150 15 07 87 3f 05 82 82 3f 81 78 76 3f c6 43 87 3f
       1.0549036 1.0195929 0.96277624 1.0567558
000160 d0 2b 7d 3f 13 2b 7f 3f d7 9f 73 3f 3c 21 90 3f
       0.9889498 0.996751 0.9516577 1.1260142
000170 94 f8 80 3f 9d e2 81 3f 62 56 83 3f eb 98 81 3f
       1.007586 1.0147282 1.0260737 1.0124792
000180 1e a6 86 3f a7 7d 8b 3f fa b1 87 3f 25 91 93 3f
       1.0519445 1.0897721 1.0601189 1.152867
000190 77 70 84 3f e0 d9 81 3f e7 2a 82 3f fd a4 83 3f
       1.0346822 1.0144615 1.0169343 1.0284725
0001a0 bc ba 85 3f 6d cb 80 3f 50 ab 83 3f 72 9b 7d 3f
       1.0447612 1.0062081 1.0286655 0.99065316
0001b0 e8 be 85 3f 82 71 83 3f 62 be 8a 3f 1a 18 81 3f
       1.0448885 1.0269015 1.083935 1.008548
0001c0 f6 05 7d 3f da 06 85 3f 79 d3 81 3f c3 9a 7c 3f
       0.9883722 1.0392716 1.0142661 0.9867365
0001d0 db 88 84 3f e5 d3 81 3f b2 99 7e 3f ea 63 89 3f
       1.0354265 1.014279 0.9945327 1.0733616
0001e0 4a cd 82 3f 54 c3 8e 3f 00 6f 83 3f 60 a1 81 3f
       1.0218899 1.115336 1.026825 1.0127373
0001f0 30 8c 7c 3f 24 17 7c 3f 36 9b 81 3f 6a 0d 7f 3f
       0.9865141 0.9847281 1.0125492 0.99629843

nnECG.1.bias f4 [128]
000000 7b 06 4e 3b e7 65 fd 39 31 de 4d bc 5b 0f 4c bc
       0.0031436968 0.00048331844 -0.012565182 -0.012454833
000010 91 30 04 3c 2c 59 93 3c e2 f9 d1 3b be 4b 0d 3c
       0.00806822 0.017986856 0.006407962 0.008624015
000020 f9 58 77 3a be 64 b8 3a 58 fe 7e bc e6 be 6c 38
       0.000943556 0.001406811 -0.01556357 5.6444573e-05
000030 85 0b 04 bc cc 85 44 bb ff 3b b0 bb cc aa 39 bc
       -0.008059387 -0.0029986976 -0.005378246 -0.011332225
000040 32 cb a4 3c ee e7 5c bc 05 c2 7e 3b bf 1e 8b bb
       0.020116422 -0.013483031 0.003887297 -0.0042456086
000050 75 07 ff 39 80 59 2c 3c 70 0e 38 3c 48 e7 33 bb
       0.00048642946 0.010519385 0.011233911 -0.0027451087
000060 ca de 60 3c c1 15 2b ba da 87 a5 bc 50 68 11 3c
       0.013724992 -0.0006526374 -0.02020638 0.008874968
000070 b7 66 7b bb b3 9c 80 39 45 15 59 3b 63 30 83 3c
       -0.0038360783 0.00024530813 0.003312425 0.016014284
000080 c6 19 e9 38 1d 99 c9 3c dc 93 49 3c 12 dd 92 bc
       0.000111151065 0.024609143 0.012303319 -0.01792768
000090 e6 0e bb 3b 2a 13 f0 ba e1 2f 8e bb e5 da 99 3b
       0.005708563 -0.0018316258 -0.0043392037 0.0046952837
0000a0 68 31 45 3a d4 b3 0e bb 05 db c7 3b ae 1b 33 bc
       0.0007522316 -0.0021774666 0.006099107 -0.010931892
0000b0 d0 16 34 bc d3 b6 d6 39 9a 9f 78 3c 8b 42 5b bc
       -0.010991767 0.00040953475 0.015174771 -0.013382564
0000c0 84 fd f2 bb cc 76 37 3c 44 53 51 bb 35 31 67 3c
       -0.0074154753 0.011197757 -0.00319405 0.014110853
0000d0 92 15 b0 3b be 9e 5f 3c 82 bf ed 3a 61 50 cf ba
       0.005373665 0.013648687 0.0018138739 -0.0015816801
0000e0 57 d7 02 3c 58 14 db 3b 7b 22 1b bb 6f 96 f1 bb
       0.007985911 0.006685775 -0.0023671675 -0.0073726694
0000f0 2a 39 0d 3c 72 9f a3 bb 65 5e be 3b 35 be 5e 3b
       0.008619586 -0.0049933726 0.0058095925 0.0033987884
000100 0f 8c 46 3c fb 9f ad 39 78 3e bf 3b 9e bc 36 ba
       0.0121183535 0.00033116326 0.0058363043 -0.0006970855
000110 12 66 ac b9 6d 7c 93 ba 3b 3b ab 3c fa 72 79 3b
       -0.00032882445 -0.0011252292 0.020902267 0.0038062916
000120 90 13 9e 3c 63 c7 a6 bb 4a 55 02 3c 90 f4 ed 3b
       0.019296438 -0.0050896867 0.007954905 0.00726182
000130 bf 6e 40 3a 76 ce 2e bb d4 66 96 bb 06 6b 91 bb
       0.0007340721 -0.0026673353 -0.004589895 -0.004437807
000140 52 3f 81 bb d7 18 a8 3c d3 15 2d 3c 39 b4 a0 bc
       -0.003944316 0.020519657 0.010564285 -0.019617187
000150 3a 39 54 3c b9 d7 1b bc ef 21 f6 b9 cb 49 9a 3b
       0.012953097 -0.0095118815 -0.0004694606 0.004708504
000160 bf ff 4f bc 25 dd 93 bc be 7b 1f bb 54 6f ef 3c
       -0.012695252 -0.018049786 -0.002433523 0.02922789
000170 f9 49 2f bb 6a 29 a1 3b 18 ca 54 3a 3b 43 7c 3b
       -0.0026746972 0.004918267 0.00081172725 0.003849222
000180 0a 2f 0f ba 7d 6f 38 bb 75 c4 3a 3c e0 5e 2e 3c
       -0.00054620265 -0.0028142624 0.011399378 0.010642737
000190 68 49 d0 bb e9 dc cc bb c9 ac ab 3b fd f0 1f 39
       -0.006356407 -0.0062519205 0.0052391035 0.00015253197
0001a0 2c 4f 51 3b e5 4b 48 bc cd 13 82 bb f1 80 61 ba
       0.003193806 -0.012225126 -0.0039696456 -0.00086022826
0001b0 44 6b 24 bc c4 a2 7e 3c 8e e7 21 bb 22 f6 38 bc
       -0.01003534 0.015541736 -0.0024704668 -0.011289151
0001c0 37 9e 84 ba 6c 97 5c 3b cc 83 2b bc ae f2 52 bc
       -0.0010117952 0.003365959 -0.010468435 -0.012875242
0001d0 29 51 04 3c 43 51 94 bc 63 1c 58 bc a4 a2 a7 bb
       0.008075991 -0.018105155 -0.013190362 -0.005115824
0001e0 91 8d b3 3a 1b 15 fc 3a 1d d2 06 bc 68 80 0a 3b
       0.0013698806 0.0019232364 -0.008228806 0.0021133665
0001f0 c9 82 4f bc 0a 20 1e bc 74 a2 9c 3b 93 29 6b 39
       -0.012665459 -0.009651193 0.004780108 0.00022426834

nnECG.1.running_mean f4 [128]
000000 55 93 0a be f5 f0 71 3c 44 f5 6e 3e ea 8e c9 3e
       -0.13532765 0.014766921 0.23335749 0.39366847
000010 c4 c1 f2 be 78 75 8c be 27 c9 c9 bd 0e 7c 59 3e
       -0.47413456 -0.27433372 -0.0985282 0.2123873
000020 73 cb 14 be 3c 5a f1 3d ff 80 3f 3f 60 d1 84 bd
       -0.14530735 0.11784789 0.7480621 -0.064852476
000030 54 82 f9 3c c2 f4 35 3e cb 1e 67 3e 66 41 04 3f
       0.030457653 0.17769149 0.2257034 0.5166229
000040 54 5f 02 bf f0 59 88 be 9b 2d b8 be 7c a5 c5 3e
       -0.5092671 -0.26631117 -0.35972294 0.38602817
000050 5d 12 b1 3d 56 fa 57 be 07 4e 56 be aa ba de 3e
       0.08646081 -0.2109159 -0.20928203 0.43501788
000060 78 f2 6e 3c a4 61 cd 3d 5b cb 7e 3e 25 43 99 bb
       0.014584176 0.10028389 0.24882261 -0.0046771937
000070 d7 ca e3 3d a0 22 9a 3d 8e 94 8e be c6 ff 16 bd
       0.11122673 0.075261354 -0.27847713 -0.03686502
000080 2c 6a 25 be 73 cf f9 be 0d bd c7 be da 80 cc bd
       -0.16153783 -0.48791084 -0.39011422 -0.09985514
000090 f3 57 d2 bd d7 75 2b 3e c3 ad d5 3c d8 8a 86 3e
       -0.10270681 0.16744171 0.026083833 0.26277804
0000a0 d5 9e 8b 3e 27 ce 02 be bb c2 b5 3e 89 6c ef 3d
       0.27269617 -0.12773953 0.3550013 0.11690623
0000b0 dd 61 91 3d 56 a8 80 3d c2 df 0a 3e a5 f0 11 3e
       0.07098744 0.062821075 0.1356192 0.14251955
0000c0 2c 09 12 be 07 d0 96 3e ab 8d 5a 3e af 8e d5 be
       -0.14261311 0.29455587 0.21343105 -0.4171042
0000d0 fe 49 76 be cf d4 09 3e f4 b7 a1 3e 8c 90 18 bd
       -0.24051663 0.13460086 0.31585658 -0.037247226
0000e0 0c 2e ca be 01 29 cb bd 4b bb c1 bd be 57 2f 3e
       -0.39488256 -0.0991993 -0.094595514 0.17123315
0000f0 a5 93 d5 3e 4d d3 7c 3e 16 f0 35 3e 95 e1 b6 3d
       0.41714206 0.2468998 0.17767367 0.08929745
000100 80 40 6a be 74 28 01 bc 3f 4c 6b be 68 54 45 bd
       -0.22876167 -0.00788318 -0.22978304 -0.0481762
000110 0d 64 73 bc 15 a1 65 3d 8d 9d a4 be 10 37 87 3e
       -0.014855397 0.056061823 -0.32151452 0.26409197
000120 f7 d6 84 3d e5 62 00 be 5b c2 f9 3e d1 67 ca 3d
       0.06486314 -0.12537725 0.48781094 0.09883083
000130 60 a2 0b 3e ba bb aa 3c fc c6 c2 be 11 c5 fa 3e
       0.1363616 0.020841468 -0.38042438 0.48978475
000140 4b a0 a9 be 96 f4 17 3d 9e 2a 0f bc 90 09 40 3e
       -0.33130106 0.03709849 -0.008738188 0.18753648
000150 2b 2a 86 be 15 a2 f3 bd 55 31 71 3e 4d 63 f8 3e
       -0.26204047 -0.11896149 0.23553975 0.4851326
000160 b5 b8 b4 3e 6f d3 81 bd da 3a 11 bd 5c a7 6c be
       0.3529717 -0.06339156 -0.035456516 -0.23110718
000170 a6 04 86 be 96 d8 9c be fa fa c3 bc 4d 3a b1 3e
       -0.2617542 -0.30633992 -0.023923386 0.34614792
000180 d6 43 61 3e 75 83 e1 3e bc 9c f5 bb f0 cd 06 be
       0.21998534 0.44045606 -0.007495491 -0.13164496
000190 f7 d9 00 3c 02 be 85 bd f8 7a 2a bc 16 76 0f be
       0.007864467 -0.06530382 -0.010405295 -0.1400989
0001a0 48 e0 39 3d 81 29 4c 3d b6 e8 56 3e a8 97 52 3e
       0.045379907 0.04984427 0.2098721 0.20565665
0001b0 12 51 94 3e b6 18 ec be dd 24 31 3e 78 ed 24 3e
       0.28968102 -0.46112603 0.17299218 0.16106212
0001c0 c3 b0 3e 3e e7 ff 24 be 67 86 ee be 67 16 91 3d
       0.18622117 -0.16113244 -0.46586916 0.07084351
0001d0 5d c9 a2 be 1f fe f1 3e dd 0f 91 3e 9f 39 a6 3e
       -0.31794253 0.47264192 0.28332415 0.32465836
0001e0 95 a5 e8 3e 74 8d d2 3d 69 04 85 be c0 c3 b2 be
       0.4543883 0.10280886 -0.25979927 -0.3491497
0001f0 61 cd 2a 3e a9 eb 09 be e6 ec f3 bc 3d ec 0c bc
       0.16679908 -0.13468803 -0.029776048 -0.0086012455

nnECG.1.running_var f4 [128]
000000 1d 0e 95 3d 38 20 98 3d 33 41 9a 3d 6f 80 a0 3d
       0.072780825 0.0742802 0.07531967 0.07836997
000010 fd bd 95 3d 52 79 95 3d 5d 54 95 3d 20 d0 98 3d
       0.07311628 0.07298531 0.07291482 0.07461572
000020 7e 46 98 3d 9a 2c 96 3d c4 35 9c 3d 67 6e 97 3d
       0.0743532 0.07332726 0.076274425 0.073941045
000030 f7 cb 93 3d ba 62 9c 3d 19 26 96 3d 9b ed 97 3d
       0.072166376 0.07636018 0.07331485 0.074183665
000040 f6 1f 9d 3d 09 37 94 3d 7e a5 9b 3d bd 35 96 3d
       0.07672112 0.072370596 0.075999245 0.073344685
000050 64 87 98 3d ca 92 98 3d 69 36 96 3d fb d7 96 3d
       0.07447699 0.07449873 0.07334597 0.07365414
000060 50 3b 95 3d d5 5b 95 3d d6 af 95 3d 70 96 95 3d
       0.072867036 0.07292906 0.07308929 0.07304084
000070 bc b4 95 3d ef e6 94 3d 4a db 97 3d 24 2d 99 3d
       0.07309863 0.072706096 0.07414873 0.07479313
000080 53 52 97 3d 2e 61 97 3d 3e 37 94 3d e6 45 99 3d
       0.07388749 0.073915824 0.07237099 0.07484035
000090 8c 78 94 3d 99 c5 97 3d 8f d7 94 3d cc 5b 96 3d
       0.07249555 0.07410736 0.07267677 0.073417276
0000a0 18 e6 99 3d 2a fc 95 3d e0 2b a0 3d bb b3 a5 3d
       0.0751459 0.07323487 0.078208685 0.080909215
0000b0 ac 23 94 3d 27 35 9b 3d e4 d3 9a 3d b4 78 9c 3d
       0.07233366 0.075784974 0.07559946 0.0764021
0000c0 bd 38 96 3d fb 66 a7 3d 6b e3 98 3d b4 87 96 3d
       0.07335041 0.08173939 0.074652515 0.07350102
0000d0 89 83 96 3d 90 f1 a2 3d c3 a4 97 3d 20 14 96 3d
       0.07349307 0.07956231 0.07404473 0.07328057
0000e0 a2 c5 95 3d 62 2f 93 3d 0f d4 9b 3d 9c ff 95 3d
       0.07313086 0.07186772 0.07608806 0.07324144
0000f0 0d 9d 99 3d 44 5a 97 3d 14 64 9a 3d 6a 9f 98 3d
       0.07500658 0.07390264 0.0753862 0.07452281
000100 be f7 94 3d 84 c4 97 3d db e6 95 3d 65 8d 94 3d
       0.072738156 0.07410529 0.07319423 0.07253531
000110 5a bc 94 3d 9d ed 98 3d 25 51 98 3d 29 a5 96 3d
       0.07262488 0.07467196 0.07437352 0.073557205
000120 c8 21 99 3d 4d 34 97 3d e0 13 98 3d 8d fe 9a 3d
       0.074771464 0.073830225 0.07425666 0.07568083
000130 3e a5 93 3d 1a 77 94 3d 63 67 9c 3d c8 7a 9e 3d
       0.07209252 0.07249279 0.07636907 0.077382624
000140 4d c9 99 3d 55 ee 9b 3d fa dd 9a 3d c6 e4 99 3d
       0.07509098 0.076138176 0.0756187 0.07514338
000150 2e c8 95 3d ee 51 a3 3d 7e a3 94 3d 6d a6 97 3d
       0.07313572 0.07974611 0.07257746 0.0740479
000160 2a 80 9e 3d 4c 1f 97 3d 31 23 96 3d 0d ba 97 3d
       0.07739289 0.07379016 0.07330931 0.07408533
000170 98 32 97 3d aa e2 9b 3d 01 22 9b 3d 3a f5 98 3d
       0.07382697 0.07611592 0.07574845 0.07468648
000180 43 bf 97 3d 63 67 9b 3d c6 fa 9a 3d d0 65 9a 3d
       0.07409527 0.07588079 0.075673625 0.075389504
000190 0a e3 95 3d 2c 9c 95 3d 49 07 96 3d e3 0c 95 3d
       0.07318695 0.07305178 0.07325608 0.072778486
0001a0 98 4f 97 3d 7d 1c 9a 3d ba 3a 95 3d 72 07 9e 3d
       0.07388228 0.07524965 0.07286592 0.07716264
0001b0 7b 35 95 3d 8f 32 94 3d d3 73 9d 3d 2f 36 95 3d
       0.07285591 0.07236206 0.07688107 0.07285725
0001c0 3f 6b 96 3d 12 b2 9b 3d 10 06 9b 3d 4e 42 9e 3d
       0.07344674 0.076023236 0.07569516 0.0772749
0001d0 34 c7 a5 3d 8d 52 95 3d 0b 1d 9f 3d 09 51 98 3d
       0.080946356 0.07291136 0.077692114 0.07437331
0001e0 7e 4d 95 3d 83 84 95 3d 7c 1d 96 3d de 4d 99 3d
       0.07290171 0.07300665 0.073298424 0.07485555
0001f0 e2 b4 96 3d 4b 08 96 3d 1b 4f 95 3d a4 d6 97 3d
       0.073587194 0.073258005 0.07290479 0.07413986

nnECG.4.weight f4 [64, 128]
000000 bb 6d 0e be 89 c8 33 bd d8 c7 ae 3d b3 59 1e 3e
       -0.13909046 -0.043892417 0.08534211 0.15463905
000010 37 c7 ad bd b3 20 43 be da 9e dc 3d 9b e5 52 bd
       -0.08485263 -0.19055443 0.10772486 -0.0514885
000020 6e 90 f6 bd df af d8 bd ea dc 78 3d 3d 68 e7 3d
       -0.120392665 -0.1058042 0.060757555 0.11299179
000030 3b b6 78 bd 10 2c ea bd 9a c7 95 bd 80 1a b2 bd
       -0.060720664 -0.114341855 -0.073134616 -0.08696461
000040 e3 ef 30 bd 2b 5d e1 bd 41 0f a8 bd 97 8c 88 bd
       -0.043197524 -0.110040985 -0.082060345 -0.066674404
000050 01 d9 ae 3d f5 b2 3b 3d 07 48 86 3d 49 65 68 3d
       0.08537484 0.045824964 0.06556707 0.056737218
000060 2a 92 0b bd f7 d0 34 3d 2f 1d 8d bd 24 83 b2 bc
       -0.03407494 0.044144597 -0.06890332 -0.021791048
000070 81 c5 bb 3d 65 e4 83 3c 6d 36 30 be 0f 55 5f 3d
       0.0916853 0.016100118 -0.17208262 0.054524478
000080 63 3c 0b be 9c 76 cc 3d 28 5c 02 3d d5 ef 06 be
       -0.13597254 0.099835604 0.03182617 -0.13177426
000090 fd 48 ca 3d 95 86 b1 bd a0 b7 3c 3e f3 c3 5b 3c
       0.09877203 -0.086682476 0.18429422 0.013413417
0000a0 8c 9a 93 bd e1 2a 14 bd b9 39 37 3d a3 ad 9c bc
       -0.07207212 -0.036173705 0.044732783 -0.019125765
0000b0 c4 74 84 bd d8 16 26 3e 0b b4 c1 3c 58 2f d5 39
       -0.06467584 0.16219652 0.023645421 0.000406618
0000c0 87 81 c5 3b 70 0d e9 bd bd 5b 82 bd f6 0c b7 bd
       0.0060274038 -0.11379516 -0.06365154 -0.08938019
0000d0 aa 84 00 bd 50 c3 5c 3d ee 3d cc 3d 06 1b 5f bb
       -0.03137652 0.053897202 0.0997275 -0.0034043207
0000e0 a7 93 14 be 3e 7a b2 3d b6 c7 09 be 10 75 82 bd
       -0.1450945 0.08714722 -0.1345509 -0.06369984
0000f0 b3 ab 35 be b8 96 21 be 1f 21 0b be b5 35 d6 bc
       -0.1774128 -0.15780151 -0.13586853 -0.026148656
000100 70 61 a5 bd a2 36 9e 3b 33 c0 5a 3d 3e 56 cb bd
       -0.08075225 0.00482829 0.05340595 -0.09928559
000110 80 22 f2 bc 64 a8 73 bd bc 42 0b be 99 bc 16 be
       -0.029557467 -0.05948676 -0.13599676 -0.14720382
000120 09 3a a6 3d e7 92 bd 3d 40 07 5c 3d 20 c5 b7 3d
       0.08116538 0.09256535 0.05371785 0.089731455
000130 b6 34 e7 bc 0d 58 1e 3d aa 7c 3b 3e 3f 98 6b 3d
       -0.028223377 0.03865819 0.18309274 0.05751824
000140 5a 5c 5b be 67 25 03 3d 75 48 3a 3d fc 92 e5 3d
       -0.21421948 0.03201809 0.045479257 0.11209676
000150 92 ea 37 bd 6d c6 14 3c b9 95 86 bd 5c f0 20 bd
       -0.044901438 0.0090805115 -0.06571526 -0.039291725
000160 ad 59 eb 3d 44 7c 18 3d 90 8e d5 bd eb e1 23 bd
       0.11491714 0.037227884 -0.10427582 -0.040010374
000170 28 24 47 bd 54 08 1d be 89 2c 35 bd 50 17 e7 3d
       -0.048618466 -0.15335208 -0.044231925 0.112837434
000180 fb ac 2e 3e c5 cd 42 3e 79 08 cd 3d e3 dd c0 bb
       0.17058174 0.19023807 0.10011382 -0.005885826
000190 6c ac 1a 3e 34 94 d9 bd 0b 48 2a be 83 ad aa bd
       0.15104836 -0.10623971 -0.16629045 -0.08333876
0001a0 a2 96 50 bd bb 89 f2 bd 9a f5 41 be 3b 65 08 3e
       -0.050924905 -0.11842676 -0.18941346 0.13319866
0001b0 ed d9 77 bd 38 81 f3 bd b5 b6 4b be 95 02 32 bc
       -0.060510565 -0.11889881 -0.19893916 -0.010864873
0001c0 8d e4 26 be 40 2d 11 be ea 39 10 3c 9a d5 a2 3c
       -0.16298123 -0.14177418 0.00880287 0.019877244
0001d0 83 e1 ea bd 59 b0 37 3e 0b 6c b2 bc 7a c2 0a bd
       -0.11468794 0.17938365 -0.021780035 -0.033876874
0001e0 8d da e8 3c 97 26 f2 bd 47 d3 85 bd b5 27 f7 bd
       0.028424526 -0.11823767 -0.065344386 -0.120681204
0001f0 3a 3b 30 3e b4 6a d4 39 9f 2c 20 3e 8b 79 93 3d
       0.17210093 0.0004051529 0.15642022 0.07200917
000200 e4 16 53 be bc 87 7e bd dd de c9 bd 10 a5 3c 3d
       -0.20614201 -0.062141165 -0.09856961 0.046055853
000210 f9 5e 91 bd d9 14 1b be e6 9c c2 bd c1 8b c8 bd
       -0.07098193 -0.15144671 -0.09502582 -0.09792281
000220 e3 1a 2a be ca bd b5 bd 24 fa 10 3b 0d f5 12 bd
       -0.16611819 -0.0887409 0.0022121752 -0.03587823
000230 f5 bc 91 3d 92 50 5c bd 8c 0c 0b 3e 3a 00 19 be
       0.07116119 -0.053787775 0.13579005 -0.14941493
000240 cf da 42 3e 5f 5a 58 bd 93 84 fa 3d e9 0b 3c 3e
       0.19028781 -0.05282056 0.12232318 0.18363918
000250 22 09 e0 bd 71 4f d3 3d 27 ab 07 be 7d e4 86 bc
       -0.10939242 0.103178866 -0.13248883 -0.016466374
000260 17 d0 98 bd 02 db 86 bd 72 69 82 bd d1 5a 59 3d
       -0.07461565 -0.06584741 -0.06367768 0.053065125
000270 3f 6a 0e 3e 0a 60 1d bc 85 50 f4 bd 1b f1 50 3d
       0.13907717 -0.009605417 -0.119294204 0.051011186
000280 61 b6 5c bd d2 61 45 3d 1a 36 7c bd 76 2b 5b be
       -0.053884868 0.04818899 -0.061575033 -0.21403298
000290 9b 5b 7e bd a8 e0 56 bd 25 07 f7 3c 5a 14 d9 bd
       -0.06209908 -0.052460343 0.030154774 -0.10599585
0002a0 75 51 1c bd 13 0f d2 bd c3 dd d6 bc 90 97 04 3e
       -0.03816362 -0.102567814 -0.026228791 0.12948442
0002b0 ea d6 55 bd 0b 53 88 3d 79 96 45 3c 0c 45 8e 3b
       -0.05220691 0.06656464 0.012059801 0.004341727
0002c0 e1 3c 7f 3c e9 e3 a2 3c c5 0c db bd 68 81 00 be
       0.0155784795 0.019884067 -0.10695795 -0.12549365
0002d0 e9 47 55 bd b5 f1 01 bc ea 21 4d bd f8 5b f0 bd
       -0.052070532 -0.007931163 -0.05008117 -0.11736292
0002e0 a6 ba 37 3d e1 33 48 bc b0 46 02 be 73 ba 11 3d
       0.044855736 -0.0122194 -0.12722278 0.035578202
0002f0 91 a2 19 3d 89 93 64 bd c7 fb 9a bd e1 3d 2b 3e
       0.03750855 -0.055804763 -0.07567554 0.16722824
000300 2d b7 02 3e 28 8f a2 3d cb d5 e7 3d aa 51 65 3c
       0.12765189 0.07937461 0.11320075 0.013996521
000310 a7 7a 09 be 90 ca 40 bd 94 95 18 be 17 34 2d bc
       -0.13425694 -0.04706818 -0.1490081 -0.010571501
000320 22 d9 c7 3d 06 18 57 bd a2 58 8d bd 5e 3b 7b bd
       0.09758212 -0.052513145 -0.06901671 -0.061335914
000330 f0 de 1d 3e d8 da cc 3d 82 f4 91 bd 81 3c dd 3d
       0.15417075 0.10002679 -0.07126714 0.10802556
000340 99 1b d1 bd fe 6d 74 bb 0a 72 f6 3d eb a3 13 3e
       -0.10210342 -0.0037297006 0.1203347 0.14417998
000350 24 f7 96 3d fc 9b 9a 3d 13 96 ff bc 48 95 c0 3d
       0.07371357 0.07549283 -0.03119949 0.09403473
000360 3f ba a3 bd 62 da 26 be 90 d2 ab bd f8 10 23 3c
       -0.07994508 -0.16294244 -0.08389771 0.009952776
000370 9a 39 65 3c b9 5f 42 bd e2 3b f6 3d 33 a2 07 be
       0.013990784 -0.04745457 0.120231405 -0.13245468
000380 b6 83 8d bc fb ce 82 3e 44 96 cb bd fd ed 86 3e
       -0.017274719 0.2554854 -0.0994077 0.26353446
000390 2b 8e 77 3d 49 18 0b be 55 7b 8f bd 05 01 05 be
       0.060438316 -0.13583483 -0.070059456 -0.1298867
0003a0 ac 49 fd 3d b8 c1 93 bc 97 41 c8 3d 20 86 8d bc
       0.123675674 -0.018036708 0.09778135 -0.01727587
0003b0 4f 8b d7 bd 27 86 d4 3c 3e 8b 4a be bc 41 87 bd
       -0.10524618 0.025942875 -0.19779679 -0.06604335
0003c0 13 82 af 3d 62 0d 0f bc 02 0a 8f bc 8f 6c 2a be
       0.085697316 -0.008731218 -0.017460827 -0.16642974
0003d0 41 77 5d bd 64 d6 e1 3d ba 78 e2 3d 0a 9b be bc
       -0.054068808 0.1102722 0.11058183 -0.023267288
0003e0 c9 5d 11 be c1 9e 69 be 8c f5 4a bd bf 7b 9f 3c
       -0.14195932 -0.22814466 -0.049550578 0.019468186
0003f0 06 36 07 3e 5d a0 16 be ec 32 94 bd a3 b1 d9 3c
       0.13204202 -0.14709611 -0.07236275 0.026573962

nnECG.4.bias f4 [64]
000000 8e 7e 92 3c 69 d7 aa 3c 2b 15 81 3c 5f 53 19 3d
       0.017882612 0.020854669 0.015757164 0.037433024
000010 83 fe fa 3c c3 b9 4b bc d5 42 9d 3c f6 23 eb 3a
       0.030638939 -0.012434426 0.019196907 0.0017939794
000020 e8 a5 cb 3c 1e 0b 03 3d c4 e6 da bc c2 65 5b 3c
       0.024859384 0.031993024 -0.026721366 0.01339096
000030 93 23 59 3c 56 42 79 3c 71 15 9d bc 0c 5d 64 3c
       0.01325311 0.01521357 -0.019175263 0.0139382
000040 7d 79 30 3c 13 87 07 bc a6 6b 23 3c e6 2d 4f 3d
       0.010771153 -0.00827195 0.009974396 0.05058088
000050 1b 8c 8c 3c 78 73 41 bb 28 81 a1 bc e5 38 08 3d
       0.017156651 -0.0029518288 -0.019714907 0.033257384
000060 09 7d 15 3d 11 ce 19 3c 52 54 47 3d 3d d1 fd 3c
       0.036496196 0.009387509 0.0486644 0.030983562
000070 70 93 12 3d 41 3c bf bb b2 43 b0 bc 83 7b 38 bc
       0.03578514 -0.0058360402 -0.021516655 -0.011259916
000080 40 ab c0 3c d9 ce 33 3c c4 98 da 3c b3 ca 05 3d
       0.023519158 0.010974609 0.026684172 0.032664012
000090 fc fe 2b 3d 38 13 40 bc 39 4d a5 3d c1 55 da 3c
       0.04199122 -0.011723332 0.0807137 0.026652219
0000a0 72 c5 2b 3c 66 bf c8 3b fb 40 58 3c b4 0f dd bb
       0.010484086 0.006126332 0.013199086 -0.0067462567
0000b0 c3 bf a4 3c a8 b5 1e 3d 32 07 91 bc eb c7 2f 3c
       0.02011097 0.03874746 -0.017703626 0.0107288165
0000c0 a3 d5 5b 3c af 8d 35 3c 15 1f 63 ba d6 ed 28 3c
       0.013417634 0.011081143 -0.00086639944 0.010310611
0000d0 a4 69 a3 3c 51 8b 2f bb 63 19 3d 3c 37 a9 0b 3d
       0.019947834 -0.002678592 0.011541697 0.034096923
0000e0 0e 0b c3 3b 1d 72 4d 3d 24 d9 6a 3c a3 a8 7c 3c
       0.0059522456 0.050157655 0.014333997 0.0154210655
0000f0 e3 86 29 3c 39 4d fe 3c f5 8d 32 3b aa 17 b4 3c
       0.010347101 0.031042682 0.0027245258 0.02198394

nnECG.5.weight f4 [64]
000000 12 ae 81 3f 35 80 86 3f 32 5f 84 3f d5 24 8c 3f
       1.0131247 1.0507876 1.0341551 1.094874
000010 10 d5 88 3f 25 51 7c 3f 10 5b 8d 3f a4 c2 84 3f
       1.0690022 0.98561317 1.1043415 1.03719
000020 a9 e2 8c 3f ce e4 89 3f d1 f0 78 3f a2 2b 8b 3f
       1.1006671 1.0772951 0.97242457 1.0872691
000030 9f 46 8b 3f 90 2b 7a 3f dd b8 7f 3f 32 7f 81 3f
       1.0880927 0.9772272 0.99891454 1.0116942
000040 4d 7c 89 3f f3 5d 7f 3f 81 62 7e 3f 6c 17 8a 3f
       1.0741059 0.9975273 0.99369055 1.0788398
000050 8a bf 8b 3f fe ad 7d 3f be 0b 8a 3f d4 5d 85 3f
       1.0917828 0.99093616 1.0784833 1.0419259
000060 6a 2f 85 3f 77 70 88 3f cd 2c 8e 3f c6 c5 83 3f
       1.0405095 1.0659322 1.1107422 1.0294731
000070 f6 da 8a 3f b2 f8 7e 3f 1d a9 81 3f d3 67 7b 3f
       1.0848072 0.9959823 1.0129734 0.982053
000080 b0 85 89 3f af 1b 88 3f e3 f3 8a 3f 83 10 89 3f
       1.0743923 1.0633448 1.0855678 1.0708164
000090 75 36 8f 3f a2 77 80 3f 33 16 8e 3f 1b 7a 87 3f
       1.1188494 1.0036509 1.1100525 1.0584139
0000a0 e8 43 87 3f 58 f4 86 3f f2 4d 8a 3f b8 d3 86 3f
       1.0567598 1.0543318 1.0805037 1.0533361
0000b0 f4 80 87 3f 92 04 89 3f d8 8b 7f 3f 77 de 79 3f
       1.0586228 1.070452 0.9982276 0.9760508
0000c0 8a 50 8c 3f 9e 79 81 3f f6 2a 7b 3f 88 fd 82 3f
       1.0962079 1.011524 0.9811243 1.0233622
0000d0 b5 51 83 3f 70 51 82 3f 09 81 8f 3f c8 d7 8f 3f
       1.025931 1.0181103 1.1211253 1.1237726
0000e0 94 70 80 3f ac 0c 8f 3f 2b d1 81 3f f8 75 87 3f
       1.0034356 1.1175742 1.0141958 1.0582876
0000f0 3b 26 81 3f d8 9c 88 3f af 04 85 3f 25 3c 85 3f
       1.0089792 1.0672865 1.0392054 1.040898

nnECG.5.bias f4 [64]
000000 99 49 98 3b 7e 7a e5 3b 4c 2b 42 3c 68 53 f4 3c
       0.0046474454 0.0070031276 0.011851143 0.029824927
000010 0a 4f ff 3c ff f6 95 bc 21 46 71 3c 87 f4 da 39
       0.031165618 -0.018306253 0.014726193 0.00041762387
000020 58 6e e7 3b 51 df a0 3c fe 96 2b bd ff 0e 4b bb
       0.0070627145 0.019637736 -0.041892044 -0.003098428
000030 07 17 49 3b 4b 34 7d 3b 8d 06 d2 bc ed ea a6 bb
       0.0030683891 0.0038635905 -0.02563789 -0.0050939233
000040 51 95 cd ba 8b 3e b2 bc 0a 90 50 bb 3f 57 45 3d
       -0.0015684759 -0.021758338 -0.0031824135 0.048178907
000050 b4 94 3d 3c 42 e0 2e bc 06 7f eb bc 77 d0 c4 3c
       0.011571098 -0.010673584 -0.028747093 0.024025185
000060 b4 d6 e3 3c d0 4e d8 3b 63 fc 4b 3d e6 2e 8e 3c
       0.02781234 0.006601192 0.04980124 0.017356347
000070 57 bb f0 3c e4 4b 38 bc df 01 09 bd f8 ba bc bc
       0.029386206 -0.0112485625 -0.03344905 -0.023038372
000080 3c b3 e0 3c 03 a7 bf bb 43 74 67 3c 63 a1 b0 3c
       0.027429216 -0.005848767 0.01412684 0.02156133
000090 0e ac 10 3d 17 a8 90 bc 75 46 81 3d c5 4c e3 3c
       0.035320334 -0.017658276 0.06312267 0.027746568
0000a0 a0 6e e4 bb 3f ad 59 bc a1 4c b4 3b a2 11 df bc
       -0.0069711953 -0.013285934 0.005502299 -0.027230088
0000b0 6c 10 7a 3b 6f e1 04 3d 8b 91 db bc 85 b3 99 bb
       0.003815676 0.032441553 -0.026802799 -0.00469059
0000c0 e9 69 45 3c ba b2 19 bb f9 4d 30 bc b0 1e c9 ba
       0.012049177 -0.0023452477 -0.010760778 -0.0015344229
0000d0 39 b0 1b 3c d5 fc a0 bc 41 67 e6 b9 17 b5 72 3c
       0.009502464 -0.01965181 -0.0004394595 0.014813683
0000e0 48 c5 57 bc 4c 43 2e 3d af 2a 6a 38 62 ee 14 3c
       -0.013169594 0.042544648 5.58297e-05 0.009090038
0000f0 bd 78 4b 3a 23 85 ab 3c 2e d5 2e bc d1 ed 4a 3c
       0.0007761827 0.020937508 -0.010670943 0.012385801

nnECG.5.running_mean f4 [64]
000000 56 61 00 bf 90 0d e2 be 14 81 03 bf 41 e0 25 bf
       -0.5014852 -0.44150972 -0.5136883 -0.6479531
000010 fd e5 87 bb 94 0e 14 bf 36 ba 2e be 99 23 89 3d
       -0.00414729 -0.57834744 -0.17063221 0.06696243
000020 6a 64 99 3e 8c 35 ed 3d 9b 60 55 be 3d c4 46 3e
       0.29959422 0.11582479 -0.20837633 0.19410796
000030 87 31 72 be f3 81 cf bd 9a 92 be be 38 8d 9d be
       -0.23651706 -0.10132208 -0.37221223 -0.30771804
000040 dd b0 48 3d a3 05 f5 be 09 b2 40 be 37 88 5f 3e
       0.048996795 -0.47855863 -0.18817915 0.21829306
000050 8c 49 8e 3d 59 d5 01 bf 8c 0b 98 3e 95 75 bf bd
       0.06947622 -0.5071617 0.2969631 -0.09348599
000060 ca d7 6b be 78 8b 22 be b2 04 9f bd cf 05 02 bf
       -0.23031536 -0.15873516 -0.077645674 -0.50790113
000070 2f 78 b1 bc ba 5c 22 bf 14 08 85 bd d5 6f e3 be
       -0.021663753 -0.6342274 -0.064956814 -0.4442126
000080 c2 4a a6 bb 95 db c8 be 89 dd 38 3d 9c 18 0f 3e
       -0.00507483 -0.39230028 0.045133147 0.13974231
000090 80 d1 5d 3e d8 0b 8e be a5 e5 1f be d6 b6 ec 3e
       0.21661949 -0.2774341 -0.15614946 0.46233243
0000a0 ad b3 c9 be 91 ba 49 be bf 05 7d bc e7 ce 0c be
       -0.39394894 -0.19700076 -0.0154432645 -0.13750802
0000b0 a1 08 00 bf 5a a3 a5 be 0b 20 1a 3e bb c9 60 3e
       -0.50013167 -0.3235119 0.15051286 0.21951954
0000c0 b7 4f 44 3e 1e 52 fd 3e 87 be 36 3e a8 1b 4a be
       0.19171034 0.49476713 0.17846118 -0.19737113
0000d0 aa 6a 73 3e 91 dd a0 3e cf 36 fb be e1 7e e8 3e
       0.23771158 0.31419042 -0.49065253 0.454093
0000e0 e1 ed ad 3e 71 ee be 3d a6 95 a3 3e 53 af 3b 3b
       0.3397055 0.09322823 0.3195011 0.0028638437
0000f0 da 1b ca 3e 3f 70 c8 3d 61 92 d6 3e 70 0f 97 3d
       0.39474374 0.09787034 0.41908553 0.07375991

nnECG.5.running_var f4 [64]
000000 62 a0 9b 3f 99 2a 42 3f 29 89 a5 3f 7e 47 f4 3f
       1.215832 0.7584625 1.2932483 1.9084318
000010 f5 72 4c 3f 54 1d 8c 3f 9c 11 33 40 0b 63 56 3f
       0.7986291 1.094645 2.7979498 0.8374488
000020 c2 c4 0a 40 42 0b 91 3f 13 61 9f 3f 95 69 a4 3f
       2.1682591 1.1331561 1.24515 1.2844721
000030 d7 ff a3 3f cf f3 f8 3f e1 ac 89 3f da 25 88 3f
       1.2812451 1.9449404 1.0755883 1.0636551
000040 dd 91 78 3f 3f 71 72 3f d9 8c 97 3f 57 ea 50 3f
       0.9709757 0.9470405 1.1839858 0.81607574
000050 d3 9e 6a 3f a9 da f3 3f e1 c9 ad 3f 35 c5 61 3f
       0.91648597 1.9051105 1.3577234 0.8819154
000060 19 49 a9 3f bb db ac 3f 42 23 13 40 5a 6c 6f 3f
       1.3225433 1.3504556 2.299027 0.93524706
000070 6a fa 84 3f 49 76 be 3f 1c 4a 04 40 be 34 ba 3f
       1.038892 1.4879848 2.0670233 1.4547346
000080 aa 96 66 3f 0b 9a a8 3f 54 4f 99 3f e2 be 88 3f
       0.90073645 1.317201 1.1977334 1.0683253
000090 ce 27 6c 3f 88 c1 61 3f c6 b8 c8 3f 64 54 d4 3f
       0.9224824 0.8818593 1.5681388 1.6588254
0000a0 fa 58 be 3f c8 77 d0 3f ad b2 81 3f 45 71 91 3f
       1.4870903 1.6286554 1.0132653 1.1362692
0000b0 81 15 6f 3f 73 82 7b 3f fa af 8d 3f 75 e6 82 3f
       0.9339219 0.98245925 1.1069329 1.022658
0000c0 b1 1c 8f 3f 0b 71 b7 3f 67 9d df 3f d7 f5 e1 3f
       1.1180631 1.4331373 1.746991 1.7653149
0000d0 52 51 93 3f 9b a3 b4 3f 15 4a f4 3f d5 77 84 3f
       1.1509192 1.4112428 1.9085108 1.034907
0000e0 bb 87 98 3f 6c 1f 9e 3f ae 4c 5f 3f 7b aa 89 3f
       1.1916422 1.2353339 0.8722638 1.0755152
0000f0 6e 3b 76 3f e4 cd c9 3f fe 31 84 3f 20 07 79 3f
       0.9618443 1.5765958 1.0327756 0.97276497

nnECG.8.weight f4 [16, 64]
000000 87 9a 70 be 61 f4 4c bb f5 ef fd 3d 53 5d 77 be
       -0.23496448 -0.003127359 0.12399284 -0.24156694
000010 ab 5f 9c bd eb 69 d2 bd 8c ea 55 3d de 3c 5d 3e
       -0.07635435 -0.102741085 0.052225634 0.2160525
000020 37 70 f3 bd 52 d1 87 bd 8a 8a 80 3e f6 0a a9 3d
       -0.11886638 -0.066317216 0.25105697 0.08254044
000030 70 bb 51 be c3 53 1e 3d f3 4e 25 be a2 66 55 bd
       -0.20481658 0.0386541 -0.16143398 -0.05209983
000040 38 26 3c be c7 5c 46 3e ee ab de 3c 35 e3 a3 bd
       -0.18373954 0.19371329 0.027181592 -0.08002321
000050 a5 7d 00 bd 48 a4 6c 3d 3d 3f 42 be c9 a6 e3 3d
       -0.031369824 0.05777386 -0.18969436 0.11115796
000060 c1 1e 84 3d 43 93 2f be 9c 81 8f be 58 80 2c be
       0.06451178 -0.1714602 -0.28028572 -0.16845834
000070 7f 65 a7 bd d3 68 80 be 42 dd 4b 3c 58 e6 67 be
       -0.08173656 -0.25079975 0.012442889 -0.22646463
000080 e3 4d c6 3c cd b2 0a be ef 95 7a be 04 3f 86 3e
       0.024207061 -0.1354477 -0.24471258 0.26219952
000090 1c 0a 0f 3e b4 43 e8 3c c9 11 30 3e 55 54 f9 3d
       0.139687 0.028352596 0.17194284 0.12174288
0000a0 f4 89 67 3e 7e f9 ff bd 06 07 86 3c 74 22 49 be
       0.22611219 -0.12498759 0.01636077 -0.19642049
0000b0 f7 b5 ae 3d 6f 57 59 3e 29 bd 00 3d c3 05 34 3e
       0.08530801 0.2122476 0.031430397 0.17580323
0000c0 15 64 19 bc c5 f5 a7 3b 46 63 df 3d cc a4 5f be
       -0.00936224 0.0051257336 0.10907607 -0.21840209
0000d0 63 2e 7e be f3 d6 7f 3e a4 d2 f4 bd 85 99 86 3d
       -0.24822383 0.2498434 -0.11954239 0.0657225
0000e0 cd db 81 3d 1f 11 95 bd f9 ef 3e 3e 0c b2 90 3c
       0.06340752 -0.07278656 0.1864623 0.017663024
0000f0 e7 e3 3a 3c b4 ae 4c 3e ed 77 00 be c2 08 3a 3e
       0.011406875 0.19988519 -0.12545748 0.18167403
000100 5e ff f8 3d 93 53 86 bd d6 ae cb 3c b2 3b a9 bc
       0.121580824 -0.06558909 0.024863642 -0.020658348
000110 97 f0 b2 bc dd a6 57 3d f4 2f 2b be 1d f4 8a bd
       -0.021843238 0.052649368 -0.16717511 -0.06784842
000120 c2 87 dd 3d d4 75 de bd 58 4a 1e be e8 a8 d5 3d
       0.108169094 -0.10862318 -0.15458047 0.10432607
000130 a2 d6 42 be 9b 12 64 3e 72 6a 5b 3e c0 85 81 be
       -0.19027188 0.22272722 0.21427324 -0.25297356
000140 3e 6c 9b 3e a5 a9 52 be f8 4b e5 3d cf 66 60 3e
       0.3035602 -0.20572527 0.111961305 0.21914218
000150 b0 cd 8e 3e 93 2f 2d 3e 01 b8 8f 3e d9 ff 9a 3d
       0.27891302 0.1691268 0.2807007 0.0756833
000160 98 17 d8 3d 33 5a c8 3d c1 3d f7 bd ba a6 b2 bd
       0.10551375 0.09782829 -0.120723255 -0.08723207
000170 70 6f 12 be 04 82 56 3e 39 53 e5 3d 12 d3 84 bd
       -0.14300323 0.20948035 0.11197514 -0.06485571
000180 f8 97 00 be 4b f6 36 3d 51 a0 10 be 52 40 4d be
       -0.12557971 0.044668477 -0.14123656 -0.20044068
000190 58 a5 81 be 85 47 56 3e 2a 24 60 3d 51 71 d5 bd
       -0.2532146 0.2092572 0.05472199 -0.10422004
0001a0 78 df 43 3e 47 2c 0e be 1f cb e0 3b 9f 1a 70 bc
       0.19128215 -0.13884078 0.0068601514 -0.014654784
0001b0 5b 29 7f be a4 93 67 be 37 94 60 be 8a 0f 4b bd
       -0.2491812 -0.22614914 -0.2193154 -0.049575366
0001c0 d6 6e e0 bd fa 64 f5 bd 1f 9e 9e 3d d5 fa 62 bc
       -0.1095864 -0.119821504 0.07745003 -0.013853748
0001d0 ea 54 7b 3e bc 27 01 3e ba a3 21 3e 57 c2 13 3d
       0.24544111 0.12612814 0.15785113 0.03607401
0001e0 92 a8 2d be 37 d2 3a 3d 60 00 52 3e eb 86 14 3d
       -0.16958836 0.045610633 0.20507956 0.03626148
0001f0 d3 65 3b be 55 d2 24 be 4a 42 60 be 81 d7 54 be
       -0.18300562 -0.1609586 -0.21900287 -0.20785333
000200 36 78 37 be ac e6 15 be c0 72 50 3e a6 72 bb bd
       -0.1791695 -0.14638776 0.20356274 -0.09152727
000210 3d b8 91 3e bd 38 50 3e 03 01 9f 3e 00 63 11 be
       0.28460875 0.20334144 0.3105546 -0.14197922
000220 d9 cf ad 3e 17 1c d8 bd 17 c1 96 bd 03 cc b7 3e
       0.33947638 -0.10552233 -0.07361048 0.35897836
000230 94 b1 a4 be 91 2e ff bd 17 14 59 3e fe 3a 89 be
       -0.3216673 -0.12460054 0.2119907 -0.2680282
000240 0c 94 c0 3d 23 2b 94 bd 32 c4 c5 38 a9 8e 9e be
       0.09403238 -0.0723479 9.430236e-05 -0.30968216
000250 07 cc 44 bd 37 0a 1d 3e 53 d6 c7 bd e3 c8 11 3e
       -0.04804614 0.15335928 -0.09757676 0.14236788
000260 84 68 61 be 12 86 34 3d e9 df 69 be 1b 08 d9 bd
       -0.22012526 0.044073172 -0.22839321 -0.10597249
000270 e7 be 50 3d f6 30 a7 bd d0 64 42 3e 6d 90 0c 3e
       0.05096331 -0.081636354 0.1898377 0.13726969
000280 0f 9e 21 3e 0b ae 3e 3e 03 ab 80 be 80 c3 0a 3e
       0.15782951 0.1862108 -0.25130472 0.1355114
000290 61 0a 80 bd 23 5c ef bd a7 08 2a 3e 76 aa 8f be
       -0.062519796 -0.116874956 0.16604863 -0.2805974
0002a0 97 b3 9d 3e af f8 54 3e 3a 9b 30 be 59 a3 62 3e
       0.3080108 0.2079799 -0.17246714 0.22132625
0002b0 df ef a6 bd c0 a5 ce bd 9d 5f 28 3d 78 49 b4 3b
       -0.081512205 -0.10090208 0.04110681 0.005501922
0002c0 38 b9 09 3e 0c 9f 14 bd dd 58 8e be f9 41 c1 bd
       0.13449562 -0.03628449 -0.27802172 -0.094364114
0002d0 ce 9e 31 be 88 bd 8f 3e a9 59 42 be 38 b7 a4 be
       -0.17345735 0.28074288 -0.18979515 -0.32171035
0002e0 52 43 27 3d 0a 60 2a 3e 3e 2e 79 be 81 26 48 bd
       0.040835686 0.16638198 -0.24334046 -0.048864845
0002f0 cf 58 65 3e 51 ec e5 3d 04 ea a2 be 35 c1 a6 bc
       0.22397159 0.112267144 -0.31819165 -0.0203558
000300 8c 39 44 3e 57 79 3e be b2 d5 61 3c ab 55 54 3e
       0.19162577 -0.18600975 0.013783859 0.20735805
000310 47 e0 88 3e d9 ec 08 3e 5f 30 04 be 2b 7e 7e 3e
       0.2673361 0.133716 -0.12909077 0.24852817
000320 53 dc e3 bd 8e cd 51 bd bc 2f 83 be a5 3a 90 be
       -0.11126008 -0.051221423 -0.25622356 -0.28169742
000330 be b6 07 3d 54 b2 58 3e 02 f3 bb 3d da b1 f1 3c
       0.03313326 0.21161777 0.091772094 0.029503752
000340 d2 2f 45 bd 30 d9 38 be ef fc 2e 3e 9a 26 b9 bd
       -0.048141308 -0.180516 0.17088674 -0.09040566
000350 67 8f 25 be 67 65 8b 3e 54 c4 42 be 99 2b 83 3e
       -0.16167985 0.272258 -0.19020206 0.256192
000360 64 bf 87 3e bd 14 93 be 7f f4 04 be 71 57 83 3d
       0.26513207 -0.2872676 -0.12983893 0.064131625
000370 7f d5 48 be a8 a5 cc bd c6 a6 92 3e db cb 54 be
       -0.19612692 -0.09992534 0.28642863 -0.2078089
000380 33 5c 93 3d 80 be 27 be a6 8e 7d 3e 85 03 7c 3e
       0.0719532 -0.16381264 0.24761447 0.24610718
000390 8c 1f 79 be 73 f3 cc 3d da 12 24 3e 71 f9 5a be
       -0.2432844 0.10007372 0.16022816 -0.21384217
0003a0 3a eb 78 3d 64 5d 86 be 0e 01 f5 3d 11 7b 48 3d
       0.060771205 -0.26243126 0.11963092 0.04894549
0003b0 51 09 ab 3d 9a 99 a7 3d 78 1c 2c be bf 6f 0c be
       0.08351386 0.08183594 -0.16807735 -0.13714503
0003c0 fc 63 89 bc f5 06 a7 3d fc d8 29 3e 6c d4 69 be
       -0.01677131 0.08155624 0.16586679 -0.22834939
0003d0 04 60 6c 3e 7b 4a 8c 3d 90 b6 d3 bc 42 67 e8 3d
       0.23083502 0.068501435 -0.025843889 0.1134782
0003e0 0d 8b 5b 3d 0e c8 9a 3e b0 50 a3 3d 4e 3f b1 3d
       0.053599406 0.30230755 0.07974374 0.086546525
0003f0 4e 6f 18 be 14 b7 58 3e 24 78 25 3b 59 a1 2d 3e
       -0.1488621 0.21163589 0.0025248611 0.1695608

nnECG.8.bias f4 [16]
000000 1f 1c e8 3b f1 63 91 bb 98 75 0a 3a a3 f9 ed 3c
       0.0070834304 -0.004436963 0.0005281805 0.0290497
000010 c1 cf cf 3c 6e 29 a8 38 ff 87 12 3d b3 c5 0c bc
       0.02536762 8.018581e-05 0.035774227 -0.008592057
000020 be d4 22 3d 6d b2 32 3d 1e 6a 07 3d c1 e4 5d bc
       0.039753668 0.04362719 0.033060186 -0.013543309
000030 2a 67 87 3c de 79 c5 3c d5 bd 16 3d 55 44 62 bc
       0.016528685 0.024105962 0.03680213 -0.013810237

nnECG.9.weight f4 [16]
000000 81 63 7c 3f 00 a8 7f 3f 8a 43 88 3f 6f ca 83 3f
       0.9858933 0.9986572 1.0645611 1.0296153
000010 41 4e 8d 3f ba 34 84 3f 7b 99 8a 3f 1c 71 80 3f
       1.1039506 1.0328591 1.0828089 1.0034518
000020 04 a5 89 3f 52 b3 8d 3f bc b8 8a 3f f7 cd 80 3f
       1.0753484 1.1070349 1.0837626 1.0062855
000030 b6 42 8e 3f b3 9d 89 3f a0 dc 8a 3f f5 b9 86 3f
       1.1114109 1.0751251 1.084858 1.05255

nnECG.9.bias f4 [16]
000000 83 b4 2b bb df 43 02 bd 59 c3 c9 bc 19 f1 0b 3d
       -0.0026200123 -0.03180301 -0.024629282 0.034165476
000010 9c 9b 03 3d 5b a1 63 bc d8 e1 21 3d 06 d7 9e bc
       0.032130823 -0.013893451 0.039522022 -0.01938964
000020 7b 45 6e 3c 02 2f ca 3c 32 33 d6 3c dd ca f6 bc
       0.014542933 0.024680618 0.026147459 -0.03012603
000030 0f 45 39 bb 56 53 86 3c e8 43 cc 3c de 2c 64 bc
       -0.0028269922 0.01639716 0.024934724 -0.013926713

nnECG.9.running_mean f4 [16]
000000 da b9 3b be 7a eb 61 bd c0 7d c8 ba 28 d3 a2 3e
       -0.18332615 -0.05515621 -0.0015296265 0.31801724
000010 a1 7f dd 3e fe d6 1a 3e b7 20 89 be 14 98 e9 3e
       0.43261436 0.15121076 -0.26782772 0.4562384
000020 b2 bc fc be 29 0c af be 2f 54 0e 3f e4 ed e1 be
       -0.49362713 -0.34188965 0.55597204 -0.4412681
000030 93 be 49 be ea 46 36 3e 15 12 03 bd 63 46 3f 3f
       -0.19701605 0.17800489 -0.031999666 0.74716777

nnECG.9.running_var f4 [16]
000000 ba 4a 9b 3f aa 38 b5 3f e5 55 d3 3f f1 6c c5 3f
       1.213218 1.4157917 1.6510588 1.5423871
000010 4a 56 95 3f e6 de c9 3f fe 2b c7 3f 50 a3 be 3f
       1.1666958 1.5771148 1.55603 1.4893589
000020 94 06 22 40 c7 50 9b 3f a9 41 cb 3f 6b 7c dd 3f
       2.5316515 1.2134026 1.5879413 1.7303594
000030 7a 58 cb 3f a4 53 b9 3f 79 90 9d 3f 2e 5b f6 3f
       1.5886376 1.447865 1.2309715 1.9246576
