Models/net_3_1_epoch_39.pth (torch, 57997 bytes, 25 tensors)

nnECG.0.weight f4 [128, 12]
00000000: 3a98 2f3e be64 e83c b3a9 893c 60a9 7f3d
00000010: 3e0f efbd 8a22 59be 4b5d f9bc b125 b4bd
00000020: 821b f03c 6ff2 babd beda 12bc cf74 443e
00000030: 1fe6 5e3d 721b cfbd d95d 603e 921d cfbd
00000040: 8166 4dbd cfc5 7d3d 76af e33d 3ecb 5d3e
00000050: 84d3 3dbe fb1e 5bbd eaa6 883d d6eb 0cbe
00000060: 300c 523d a530 143b c411 41be 40e8 093e
00000070: 924b 423e 2cff 123d 5e1e a3bc 0ed4 243e
00000080: b8a5 083e 9dcf 07be cb98 d23d 40ea 1cbe
00000090: 4ddc b33d 0209 7bbe dc11 de3d 1c57 12be
000000a0: cacf fa3c 5f6e 0e3c 396d 6cbe 5f05 22be
000000b0: 0743 8f3d 1dab e43c 3c10 3a3e fee7 f9ba
000000c0: 5833 113e 5566 50be e20a 183e 7bce 24be
000000d0: f27b 2fbe de63 43be b685 2cbe 6376 12be
000000e0: 1209 10be a526 21be f093 42be f13e 6d3d
000000f0: 4aab 14be 44ff 05be 7058 243e e3d5 04be
00000100: c3cb 0dbc 340c 20be 5c77 6c3c 2d0a 00be
00000110: b98f 7d3e 0a15 9bbd e3b4 5fbe 5a33 c3bd
00000120: 6ee5 64be d98f ee3d 8463 68bd 718d 513e
00000130: 3ad4 543e 49d9 1c3e 7d2e 8cbc c502 0ebe
00000140: a655 d93d 2a18 4b3e a040 a23d 1797 51ba
00000150: 4cfd b33d 299a 81bd dbce e9bd 9f0b 44be
00000160: 6112 0dbe adad 89bd 273d 773e 497c a83d
00000170: 1b41 3c3d 052a b1bd 2c5f 21be e5b8 9b3d
00000180: fcc3 a33c 3c1d ffbd 646e e2bd d5eb 0abd
00000190: 6de2 1a3d 8426 ad3c d8e4 2a3e 75ca d8bd
000001a0: 48c5 05bd a46e 5cbe 7be4 0bbe cc5f fd3d
000001b0: 122f 323d c0c2 e4bd a3e7 123e d21c 393e
000001c0: 0563 6f3e 419a 31be c748 6cbe ff3f b7bd
000001d0: feb2 cb3c a8f5 cb3d 821d 253e c9d1 703d
000001e0: ef13 4f3e 6473 bd3d 5be2 353e 9762 d3bd
000001f0: d74a 47be 9117 793c ba8b 13be 1e4d 9f3d
00000200: 4260 2c3e 5421 17be a60c 0fbe 0bd0 073e
00000210: 643a 063b 1901 eabd d85f a23d 9ad6 51be
00000220: eb6b 8abe 6240 14be e1f2 4a3e 6c6b 22be
00000230: c47e 8cbc dfa3 243d 3b5c 5ebe df48 e3bd
00000240: baff a4bd 5c52 533e c670 763d 4990 af3d
00000250: 4106 3b3e 311d 23be 1a90 5ebd 73bd 81bd
00000260: 4ad0 97bd a5e2 423e 0386 10be 13b4 f83d
00000270: 8fc5 e0bd dad1 143e 4e9d d93c d367 823e
00000280: f823 b0bd 1ec2 80bd 9896 43be ed77 21be
00000290: 8212 1c3e 0735 603e a5b8 1c3e 5090 18be
000002a0: 4e83 59bd a1f5 a63d 4234 52be ab12 8c3c
000002b0: 7d7d cfbd 7979 383e 4fbe 99bd 7567 28bc
000002c0: 1d6a af3d 0cfa 123e 98f6 52be 8166 043e
000002d0: 1c44 303e f7cf 033e c046 89bd 3677 10be
000002e0: 22f8 ba3d 10f9 02be 3c9f 3dbe 536c 64bc
000002f0: 0f67 b93a bcf0 7c3d 07d3 153e bb9f 07be
00000300: 8584 1dbe 26b9 1c3e d321 9bbd d6f6 ed3d
00000310: 2f1d 173d 2f0a cebd 6a94 10be 31be 02bd
00000320: 705e a43d f55e 35be 2526 41be c2fc 19be
00000330: dce7 6dba 2f1c fbbd d38d 0d3e 5894 b13a
00000340: b00d cbbd 1064 82bd 80e1 6f3d e0c3 283e
00000350: 5459 463d b21c 64be f1ec 3b3c ef14 5a3e
00000360: 40ac 75be fbca 853d a35d 12be 1b4a ce3d
00000370: a01e 6cbd f6b8 0a3d 836a 1ebe d129 ccbb
00000380: 79a9 353e 591b f3bd 05b5 32be cc85 0abe
00000390: 2106 653e 16a6 1b3e 9087 bd3d cb74 45bd
000003a0: 4a36 913e 7a0d 36be a3e2 b23a 208b 683d
000003b0: d698 12bd 86f6 693e ce93 ee3d 20f6 db3c
000003c0: 59f5 0c3d 15ef f7bd 232a c4bd 6605 ffbd
000003d0: 2aff eebd 2c57 38be 138f 1f3e ed62 1d3e
000003e0: ae30 813e 4e3b 62be dc0e 6ebd 2d9c 2e3e
000003f0: 3e93 c43d c881 063e 77b2 723d 16f7 d33c
0.17147914 0.02836835 0.016804552 0.062417388 -0.11672829 -0.21204582 -0.030439993 -0.087962516
0.029309992 -0.09128272 -0.008963285 0.19185184 0.05441868 -0.10112657 0.219108 -0.10113062
-0.050146583 0.061956223 0.11117451 0.21659562 -0.18537718 -0.053496342 0.06672461 -0.1376184
0.051281154 0.0022612002 -0.18854433 0.13467503 0.1897414 0.035887882 -0.019911941 0.16096517
0.13344467 -0.13262792 0.10283049 -0.15323734 0.087822534 -0.24515155 0.1084325 -0.14291042
0.03061666 0.008693307 -0.2308854 -0.15822361 0.06995206 0.027913624 0.18170255 -0.0019066331
0.14179742 -0.20351537 0.14847901 -0.16094391 -0.17137125 -0.19081065 -0.16847882 -0.14302973
-0.1406596 -0.15737398 -0.19001746 0.057921354 -0.14518467 -0.13085657 0.16049361 -0.12972216
-0.008654538 -0.15629655 0.014432754 -0.12503882 0.24761857 -0.07572372 -0.21846347 -0.09531279
-0.22353145 0.116485305 -0.05673553 0.20464112 0.20784083 0.15317263 -0.017112011 -0.13868244
0.10612039 0.19833437 0.079224825 -0.00079952314 0.08788547 -0.06328232 -0.11416408 -0.19145058
-0.13776542 -0.06722579 0.24144422 0.082268305 0.045960527 -0.08650593 -0.15758961 0.07603625
0.019990914 -0.12456748 -0.110562116 -0.033916313 0.037813593 0.02113653 0.1668886 -0.105854906
-0.032658845 -0.21526581 -0.13661377 0.123717874 0.04350192 -0.11169958 0.14346175 0.180774
0.23377617 -0.17344 -0.23074637 -0.08947753 0.024865624 0.099589646 0.16124538 0.058793817
0.20222448 0.09250525 0.17762129 -0.10321539 -0.19462143 0.015203373 -0.1440877 0.07778381
0.16833594 -0.14758807 -0.13969669 0.13262956 0.002048158 -0.114259906 0.07928437 -0.2049202
-0.2703546 -0.14477685 0.19819213 -0.1586129 -0.01715029 0.040195342 -0.2171487 -0.110978834
-0.080565885 0.20636886 0.060166143 0.08572442 0.18264104 -0.15929104 -0.054336645 -0.06334963
-0.07412775 0.1903177 -0.14113621 0.121437214 -0.10975181 0.14533177 0.026564267 0.25469837
-0.086006105 -0.06287025 -0.19100416 -0.15768404 0.15241435 0.21895228 0.15304811 -0.14898801
-0.053103738 0.08152319 -0.20527747 0.017098745 -0.10131357 0.18015088 -0.075070016 -0.010278572
0.085651614 0.14353198 -0.2060188 0.12929727 0.17213482 0.12872301 -0.067029476 -0.14107975
0.09129359 -0.12790322 -0.18517774 -0.013941842 0.0014145094 0.06175302 0.14631282 -0.13244526
-0.15382583 0.15305004 -0.07574811 0.11619346 0.036893066 -0.10060536 -0.14119115 -0.031919662
0.08025825 -0.17712004 -0.18862207 -0.15037826 -0.0009075382 -0.12261235 0.13823633 0.0013548238
-0.0991472 -0.06366742 0.058564663 0.1648097 0.048425034 -0.22276571 0.011470065 0.21297048
-0.2399149 0.06532856 -0.14293532 0.10072728 -0.057646394 0.0338678 -0.15470318 -0.006230571
0.1774043 -0.118704505 -0.17451866 -0.13527602 0.22365619 0.15200076 0.09254372 -0.048207086
0.28361732 -0.17778578 0.0013647865 0.056773305 -0.035790287 0.22847947 0.11649285 0.02685076
0.03441367 -0.12106148 -0.095783494 -0.124522015 -0.116697624 -0.18002003 0.15581922 0.15369768
0.25232452 -0.22092935 -0.05811964 0.17051764 0.09598397 0.13135445 0.05925223 0.025874656

nnECG.0.bias f4 [128]
00000000: d302 293c 88b0 53ba adf4 2cbb 8704 553c
00000010: 4179 633c b766 d73c ebda 293c dd06 2c3c
00000020: 5825 b83c dd8b 653c bced e83a 4a36 703c
00000030: f052 a03c 807f dcba f675 493b e543 e239
00000040: 2054 b03c c2cf b7bb c6c7 703b 52c4 ebbb
00000050: 536a e03c 1179 453c 9f7b 2c3c 6a16 a93c
00000060: a1ba 983b df9c 533c 6572 983b c6fc 0c3b
00000070: d7c8 783c 80c9 7d3b 34f2 ce3c a0f0 cd3c
00000080: 4add bcbb 69a7 403c 9160 9e3a bc3e 8a3c
00000090: 98f5 9a3c 4694 1e3c 5539 083d 984e 9c3b
000000a0: bf04 cc3c 291e d63c f8a1 b13b baee 143c
000000b0: d4b4 28bb a9c6 1f3c c52c f13a afea 723c
000000c0: 3eff 7e3c dd2d 303c 0239 c83c 84f3 493c
000000d0: e383 423c 9a71 3e39 4f78 85bb cdcf 903c
000000e0: 4edd 5c3c bb5c 5d3c 6e7f 95bb 95bd 453c
000000f0: 6ce7 e43a 688c 6c3c 7ad6 933c 2940 3c3b
00000100: f903 803b e923 943b 714b c6bb e226 463c
00000110: b76d 4d3b 2a82 023d 9c4e 893c 7f12 863a
00000120: 062a 42bb 555c 9abb 0606 883c 5225 543c
00000130: 5272 143c a70c c93b e184 ce3b b1d0 be3c
00000140: 43f7 be3c a0df 673c c672 793c ab72 1b3c
00000150: 5194 913c 7751 1e3c 8ab7 3e3a 0878 6b3c
00000160: a020 21bc 9d6b 633c 88b9 3a3c 9433 973a
00000170: 1d85 333c 65ac 383c c986 563c c93f 9d3c
00000180: e08a 36bb 0c67 bd3b 5c51 4d3b 9353 0d3c
00000190: b964 d23b 0eb7 b33c 57d7 a03c 6c0e e23c
000001a0: 3005 983c 04aa 203c 076b 4b3c 03d1 d43c
000001b0: 9546 d33b 62fa 683c caaf 4e3c 280c 853b
000001c0: 57d6 7ebc b12f 2d3c ba8b 96bb 0912 ce3a
000001d0: 4a0b 2fba 62b8 ea3b c85f 453c b7da 2f3c
000001e0: b6d3 b33c 161c cc3b 68d0 903b 294f 203c
000001f0: fb8a 993c 8ce6 9e3c fa9b 453c af94 c7bb
0.010315615 -0.00080753164 -0.0026390955 0.013001568 0.01388389 0.026294095 0.0103671355 0.010499683
0.022478744 0.014010397 0.0017771046 0.014661381 0.019570798 -0.0016822666 0.0030740476 0.00043156664
0.021524489 -0.0056094835 0.0036740168 -0.007195034 0.02739445 0.01205279 0.01052752 0.02064057
0.00466092 0.012915819 0.0046523088 0.002151297 0.015184603 0.003872484 0.025261976 0.025139153
-0.0057636844 0.011758664 0.0012083222 0.016875617 0.018915936 0.009678906 0.0332578 0.0047701113
0.024904607 0.026137428 0.0054209195 0.00909012 -0.0025742548 0.009751954 0.0018400183 0.014826461
0.015563784 0.010753122 0.024441246 0.012326125 0.011872265 0.00018162132 -0.00407318 0.017677212
0.0134804975 0.013510878 -0.00456231 0.012069126 0.0017463989 0.014437772 0.018046606 0.0028724766
0.0039067236 0.0045208824 -0.006051474 0.012094231 0.0031345913 0.031862415 0.016761117 0.0010228901
-0.0029627099 -0.004710714 0.016604435 0.012948351 0.009060459 0.0061355415 0.0063024615 0.023292871
0.023311263 0.014152437 0.015225118 0.009487788 0.017770918 0.009662977 0.0007275274 0.014371879
-0.009834439 0.0138806375 0.011396773 0.0011535757 0.01095703 0.011271571 0.013093659 0.019195454
-0.0027853772 0.0057801064 0.0031329012 0.008625883 0.0064206985 0.021937873 0.019633932 0.027594768
0.018557161 0.00980616 0.012415654 0.02597857 0.006447623 0.014219852 0.012615154 0.004060287
-0.015554032 0.010570453 -0.0045942934 0.0015721928 -0.00066774024 0.0071630934 0.012046762 0.010733298
0.021951538 0.006228934 0.004419375 0.009784498 0.018743029 0.019397043 0.0120611135 -0.0060907225

nnECG.1.weight f4 [128]
00000000: 7a6c 7f3f 94ce 833f 8e42 743f fccf 873f
00000010: dd96 803f beab 863f 2546 863f b9a3 8a3f
00000020: 429f 883f 3795 863f cc81 933f 9c7a 823f
00000030: d25f 813f 4b10 863f 8bab 7a3f 5da1 883f
00000040: bfbb 883f 17c9 8a3f c2ef 8a3f 64e5 893f
00000050: dc2d 943f 0d7c 843f 5fc0 803f a642 7f3f
00000060: 0296 7f3f 22e2 723f 298c 7a3f dd5e 833f
00000070: f186 8f3f 510c 833f 5121 853f 98c0 873f
00000080: f29f 893f c097 853f 0376 823f 9837 823f
00000090: 7b9a 7e3f a414 7a3f 2fb1 8b3f f965 8f3f
000000a0: c7b6 843f 8670 853f 0d02 853f ff0d 8a3f
000000b0: 3a9c 863f 08da 803f dc2e 7e3f 4dec 7e3f
000000c0: b6d7 863f c3dc 833f 4646 843f 9dc4 7f3f
000000d0: 58bf 863f a51a 833f d6f0 723f e440 863f
000000e0: 5088 733f 1413 803f d679 873f 7b4e 7f3f
000000f0: 0c2c 7e3f d249 7e3f bf19 863f 467d 7f3f
00000100: dfe3 853f 2ae8 823f 52e5 803f 1455 873f
00000110: 65cb 803f 331c 783f 024b 823f dbc1 833f
00000120: 03b4 723f d51b 863f de49 903f b221 813f
00000130: 0f3a 853f 27af 7a3f 370f 853f eb21 853f
00000140: df1f 853f 9a93 853f 3207 863f 8faa 843f
00000150: 10fb 843f 0c78 7d3f 4459 833f aca9 883f
00000160: a588 833f cb89 813f ca41 803f 2ec6 7e3f
00000170: 55a7 8b3f 69ed 923f 2f3b 833f b5d2 963f
00000180: 2b40 893f 81e5 813f c4b0 833f 2453 823f
00000190: 9c59 833f b446 8d3f a27e 863f 47c5 7f3f
000001a0: 0131 7d3f b56e 7c3f 28b1 7e3f ea7e 8e3f
000001b0: 58d8 713f c500 873f 667f 7e3f 9d61 723f
000001c0: 499c 843f 0b91 843f dab4 7e3f faf4 7f3f
000001d0: 53e1 853f ab7f 873f 9841 883f 1039 803f
000001e0: a37d 853f 7a56 863f 5575 813f b792 823f
000001f0: 9deb 8b3f 1a1d 893f a337 7f3f c3f2 853f
0.997749 1.0297418 0.95414054 1.0610347 1.004604 1.0521162 1.0490156 1.0831214
1.0673602 1.0514287 1.1523986 1.0193667 1.0107367 1.0473722 0.97918004 1.0674244
1.0682296 1.0842618 1.0854418 1.077313 1.1576495 1.0350357 1.0058707 0.9971107
0.9983827 0.948763 0.9787012 1.0263325 1.1213056 1.0238134 1.0400792 1.060565
1.0751936 1.0436935 1.0192264 1.0173216 0.9945447 0.97687745 1.0913447 1.1202995
1.0368279 1.0424964 1.0391251 1.0785521 1.0516427 1.0066538 0.9929025 0.99579316
1.053458 1.0301746 1.0333946 0.99909383 1.0527143 1.0242506 0.94898736 1.0488553
0.9512987 1.0005822 1.0584056 0.99729127 0.9928596 0.9933139 1.0476607 0.9980053
1.0460166 1.0227101 1.0069983 1.0572839 1.0062071 0.9691803 1.017914 1.0293535
0.94805926 1.0477244 1.1272542 1.0088408 1.0408343 0.9792351 1.0395268 1.0400976
1.0400351 1.043567 1.0470946 1.036455 1.0389118 0.990113 1.0261617 1.067678
1.0276076 1.0120176 1.0020077 0.9952115 1.0910441 1.1478702 1.0252436 1.1783053
1.0722708 1.0148164 1.028832 1.0181623 1.0261722 1.1037202 1.0507395 0.99910396
0.989029 0.98606426 0.9948907 1.1132481 0.9447074 1.054711 0.99413145 0.94680196
1.0360194 1.0356764 0.9949471 0.9998318 1.0459388 1.0585836 1.0645018 1.0017414
1.0428966 1.049514 1.0113932 1.0201024 1.0931278 1.0712006 0.9969427 1.046471

nnECG.1.bias f4 [128]
00000000: 598e 393c 240f 04bc b4e8 4dbc df5c 4d3c
00000010: e46c fb3b 7326 843c 6256 003a 9063 bd3b
00000020: e713 7b3c 7eb4 043c 591e 83bc 1494 b3ba
00000030: 679b ad3c 2998 7abc 449b b6bb 0fc8 d1ba
00000040: 4a70 5f3c f12b 6dbc 2e8f 8a3b 3f97 cfbb
00000050: d3cd dc3c 1a40 da3b 19c1 0b3c c54d b23b
00000060: 0211 253b 1eca 943b 5da6 763b 5dc1 cbba
00000070: 62a9 193c 1681 1a3a f89a 643c 78c6 563c
00000080: e4cc 90bc f451 383c bcec 02ba a413 b13b
00000090: 2741 d33b cb9c 63bb 05ed 033d 8ab6 38bc
000000a0: 1cc4 113c 40b8 593c a0ac f5bb 3924 37bb
000000b0: 6828 1ebc cedc eb39 52c1 24bc df20 353c
000000c0: 38d1 653c 5d97 34bb 4db1 4d3c 7261 6d3c
000000d0: b05f 2ebc 3261 87bb 6b34 1bbc 8859 153c
000000e0: 2496 6dbb 988e f53b e12b cabc b5ac 5d3b
000000f0: 4a57 bbbb a348 abba d47a 743c 7328 3abc
00000100: 602b fcbb b61f d4bb cd80 d0bb a149 013c
00000110: 241c c9bb 28da a53b 5f5e 9039 0d14 ffbb
00000120: b908 3abc 9053 3abc d29e bc3b 17e0 0dbb
00000130: 2bb0 a5bb 42a1 6abc 8139 8cbc f248 ab3c
00000140: 8689 143c 3ee1 453c 97a3 fbba 059e 2abc
00000150: 77ed 4b3c 2b03 e53a 4d60 f8bb 22d9 9c3b
00000160: ee8b 92bc 19f3 7a3b 32ac 89ba 48ca 1bbb
00000170: ac79 4f3b 3188 4d3b 962f 823b 1531 a93b
00000180: 5f0c 73bb a55e fb3b a673 4fbb 77cb 583b
00000190: fec0 8b3b cab5 a03c 9201 0b3c 547d 9b3c
000001a0: 581b 043b 1975 a1bb 2a8e d9bb b3dd ab3c
000001b0: f0c2 3bbb 3320 743c f52a fe3b 8903 a4bc
000001c0: 5e5a 97bc 0158 893b dda0 44bc 19e7 d2bb
000001d0: f54c a7bc 7d9a 13bb 90f7 b93a 6b77 dcbb
000001e0: 5d75 b83b 0daf 37bc bd1f a53b bed7 9a3b
000001f0: b4e3 863c 5819 943c 208f b33b 755a 49bc
0.011325442 -0.00806025 -0.012567688 0.012534349 0.007672893 0.016131615 0.00048956845 0.005779691
0.015324569 0.008099673 -0.016005682 -0.0013700747 0.021192266 -0.015295067 -0.0055727083 -0.0016005057
0.013637612 -0.0144758085 0.004228494 -0.0063351686 0.026953613 0.0066604735 0.008529925 0.0054413998
0.002518714 0.004540696 0.0037635781 -0.0015545298 0.009378763 0.0005893869 0.013952963 0.013108842
-0.017675824 0.011250008 -0.00049943826 0.0054039527 0.0064469757 -0.0034730907 0.03220846 -0.011273989
0.008896854 0.0132885575 -0.007497385 -0.0027945174 -0.009653188 0.00044987205 -0.010055857 0.0110552
0.014026932 -0.002755604 0.012554479 0.014488565 -0.010642931 -0.0041314596 -0.009472947 0.009115584
-0.003625282 0.007493805 -0.024679126 0.0033824865 -0.005717193 -0.0013067912 0.014921863 -0.011362183
-0.0076956004 -0.006473507 -0.0063630105 0.00789109 -0.006137388 0.0050614066 0.00027536132 -0.0077843727
-0.011354619 -0.011372462 0.0057562375 -0.002164846 -0.0050564012 -0.014320673 -0.017117264 0.020908806
0.009065991 0.012077628 -0.0019198534 -0.010413651 0.012446753 0.0017472258 -0.0075798393 0.0047866264
-0.01788899 0.003829187 -0.0010503589 -0.0023771692 0.0031658215 0.0031361694 0.003972958 0.0051633217
-0.0037086231 0.0076711946 -0.0031654625 0.003308026 0.00426495 0.019617934 0.008484261 0.01898066
0.00201579 -0.004927289 -0.0066392617 0.020979738 -0.0028650127 0.014900255 0.0077565857 -0.020021217
-0.018475708 0.004191399 -0.012001243 -0.0064362404 -0.020422438 -0.0022522502 0.0014188159 -0.006728103
0.005629225 -0.011211169 0.005039184 0.0047254255 0.016466 0.018078491 0.0054797083 -0.012289633

nnECG.1.running_mean f4 [128]
00000000: 88ff 8cbd 6833 8d3e e531 423e 02ca 853d
00000010: ed23 20bf 40e6 c4be 4c40 713e 63ef 143d
00000020: 0b4a a1be 2eeb 74bd 9b20 8a3d ab75 e4bd
00000030: 6d07 58be 3b79 323e 44cd 30bd 3007 ba3d
00000040: 4337 0abf 2370 9f3c 00de cbbe c41e f33e
00000050: 7a27 cd3c 108c 983e e6f3 57be 7bed 77be
00000060: 42bd 52bd 4015 a4bd 2f53 5f3e e700 25be
00000070: fba7 e13d 6b04 1b3f 261a 9dbe 48e0 0cbf
00000080: a924 763e 0efb 5fbe bf5a 3ebe 89a0 6fbe
00000090: 402c 9dbe d91b 9d3e e8e3 ebbe 64fb 423e
000000a0: 6fd4 9dbe 1e1e 0fbe af92 1e3e 5079 37bd
000000b0: ad4d cb3e 5150 cabe d480 cd3e 994e d83c
000000c0: 48fb 2cbe a8b1 6e3d 6e13 4cbe 4327 7cbe
000000d0: d575 c8bb 41fe d13d bc2a f33e 0282 843d
000000e0: f197 49be 1136 e0be 987f 49bc 1b82 0ebd
000000f0: 9dd1 823e b621 d5bd e79c 98be 8829 dc3b
00000100: b488 593e b700 febc 242d 043f 6637 dabe
00000110: 5382 17be 4943 05be d1d1 a93e 8ef0 a13e
00000120: 8317 ac3d e173 033f d352 353e 63b3 a73e
00000130: e364 f63d f617 2f3e a96a 193d 0e73 713e
00000140: 50df d73d 6389 a5be 60d7 c8bc 81c4 923c
00000150: 99aa 39be 3f2b 643c 9b00 c43e 16c2 00be
00000160: f237 e03e a15a 953e 2f49 403d 9a6e ee3d
00000170: 75a3 223e e479 5ebe 362c 343d 149a 5dbe
00000180: c183 053e 8ff1 0bbe aaf5 2ebe 2c30 ae3d
00000190: b38b 42be 5359 55bd ef08 443d 2fd9 92be
000001a0: 8eed 5bbe 90a3 683d d521 19bf ece7 fabd
000001b0: b41b ffbe a598 50bd 9e46 963c d35c 0fbf
000001c0: 9987 033f e4d6 303e 2207 243f ecd4 513e
000001d0: cfdc 123e 794c cf3e 6d99 4bbe 70f3 b1be
000001e0: 0643 edbd a10f 533d 69ff ddbe a6c3 183f
000001f0: 630f dfbe e6ac 2ebe d051 a1be 5018 b63e
-0.06884676 0.27578282 0.18964346 0.065326706 -0.6255482 -0.38456917 0.23559684 0.03636111
-0.31501803 -0.059794597 0.067445 -0.11155256 -0.21096583 0.17429058 -0.043164507 0.09083402
-0.5399057 0.01946265 -0.3981781 0.4748441 0.025043238 0.2979436 -0.21089134 -0.24211685
-0.05145002 -0.080118656 0.21809076 -0.16113625 0.11018368 0.60553616 -0.30684012 -0.55029726
0.24037422 -0.21873114 -0.18589304 -0.23401083 -0.30697823 0.3068531 -0.46072316 0.1904121
-0.30826136 -0.13976333 0.15485643 -0.044793427 0.397077 -0.39514402 0.4013735 0.026404666
-0.16892731 0.058274895 -0.19929287 -0.24624352 -0.0061175623 0.10253573 0.4749354 0.064701095
-0.19686867 -0.4379125 -0.012298487 -0.034792047 0.25550547 -0.104068205 -0.29807207 0.006718818
0.21243554 -0.0310062 0.5163138 -0.4262039 -0.14795808 -0.13013949 0.3316789 0.3162884
0.08402922 0.5134869 0.17707376 0.3275405 0.12030961 0.17098984 0.037455235 0.23579046
0.1054064 -0.3233138 -0.024516761 0.017915966 -0.18131484 0.013926326 0.38281712 -0.12574038
0.43792683 0.29170707 0.046944793 0.11642189 0.15882666 -0.21726185 0.043987475 -0.21640807
0.13038541 -0.13666366 -0.17085901 0.08505282 -0.18998604 -0.05208714 0.047860082 -0.28681323
-0.21477339 0.05679661 -0.5981725 -0.12251267 -0.49825823 -0.050926823 0.01834422 -0.56001014
0.5137878 0.17269474 0.64073384 0.2049138 0.14342044 0.40488032 -0.19882746 -0.3475604
-0.11585049 0.051528577 -0.43358925 0.59673536 -0.43566427 -0.17058143 -0.3150773 0.35565424

nnECG.1.running_var f4 [128]
00000000: 931a 993d 5bd7 9d3d 3a1b 943d b22b 983d
00000010: 15b8 973d ccd6 9f3d 2cca 943d cc6a 943d
00000020: 108e 983d d6be 9b3d fd2f 9a3d 7277 983d
00000030: 8f3e 953d 1472 993d 9b2a 943d fb8f 9e3d
00000040: 8f42 963d 127b 963d 8826 973d c340 9b3d
00000050: 7b1c 973d ce86 983d 3ef3 993d 6ec2 943d
00000060: 22ff 963d cfb0 993d f16b 963d 693d 9e3d
00000070: 4adb 993d fe6b 933d b158 953d 9ff0 9a3d
00000080: 7197 a03d 18cc 973d 767e 983d c532 983d
00000090: ba7e 943d 5141 963d c1d8 ad3d a4ec 943d
000000a0: 3450 993d 82a1 953d 2f86 9f3d 308e 953d
000000b0: a346 a03d 44f2 9a3d d1bd 943d 1ced 963d
000000c0: d198 963d a6cc 963d b130 9b3d 0b13 953d
000000d0: 6b02 983d 4ea3 973d 86da 943d 1847 9f3d
000000e0: 62ec 933d 3bd6 943d 0c18 983d d95d 9b3d
000000f0: 7dd8 953d cb1b a03d a9ef 9c3d fb8f 943d
00000100: 308d 963d 18b3 963d 81a0 953d 6762 953d
00000110: fde3 963d 3d93 973d e5cc 953d 6a78 953d
00000120: 0376 963d c0de 963d e7de 963d 9f26 9d3d
00000130: 1488 953d d54d 983d d6dc 9c3d b509 993d
00000140: 7014 993d 3212 963d 817a 963d eae0 9d3d
00000150: a4d1 973d 64b2 943d f9d2 943d 73a7 943d
00000160: 4a24 963d 3862 963d f21d 943d a5aa 943d
00000170: 16be a33d 7d47 9b3d 5259 983d dd98 9c3d
00000180: b522 963d 269e 953d 62fe 9d3d 5d6b a33d
00000190: 2119 953d 72aa 963d 990a 973d 7818 9d3d
000001a0: 4659 963d b4ef 943d 6296 9f3d aa98 963d
000001b0: d3ec 933d 7e3c 943d 41d4 953d 980f 9e3d
000001c0: a32f 963d f12d 963d ecba 973d a8b7 953d
000001d0: 5e84 9b3d 0be8 993d 00c4 9c3d accc 953d
000001e0: 1515 993d 6ad3 983d 8a95 953d ab04 953d
000001f0: a9b0 963d 3e57 973d 1586 943d 5b7e a73d
0.07475772 0.077070914 0.072317556 0.07430209 0.07408158 0.07804641 0.07265124 0.072469324
0.07448971 0.076047584 0.07528684 0.074446574 0.07287323 0.07492462 0.07234689 0.07742306
0.07336914 0.073476925 0.07380396 0.07580712 0.07378479 0.07447587 0.07517098 0.07263647
0.073728815 0.07504427 0.07344807 0.07726557 0.07512529 0.07198332 0.07292307 0.07565426
0.07841385 0.07411975 0.074459955 0.074315585 0.07250734 0.07336677 0.08488608 0.07271698
0.07486001 0.07306196 0.07789265 0.07302511 0.07825973 0.0756574 0.07262767 0.07369444
0.07353366 0.07363252 0.075776465 0.07279023 0.07422336 0.07404195 0.072682425 0.07777232
0.07222821 0.07267424 0.074264616 0.075862594 0.073166825 0.07817801 0.07662899 0.072540246
0.07351148 0.07358378 0.07306004 0.072941594 0.07367704 0.0740113 0.07314471 0.07298358
0.07346728 0.07366705 0.07366734 0.07673382 0.073013455 0.0743672 0.076593086 0.074725546
0.07474601 0.07327689 0.073475845 0.077089146 0.07413033 0.07260588 0.07266802 0.07258501
0.0733114 0.073429525 0.07232274 0.0725911 0.079952404 0.07581995 0.074389115 0.07646344
0.073308386 0.07305555 0.07714535 0.07979462 0.072801836 0.073567286 0.07375068 0.07670683
0.07341246 0.07272282 0.07792355 0.07353337 0.07222905 0.072381005 0.07315875 0.07717818
0.07333305 0.073329814 0.074086994 0.0731042 0.075936064 0.07514962 0.076545715 0.07314429
0.07474724 0.07462199 0.07303913 0.07276281 0.07357914 0.07389687 0.072521366 0.08178397

nnECG.4.weight f4 [64, 128]
00000000: 8a50 33be 2622 873c cc71 60bc 1fa5 133e
00000010: 7f5b 573d 6185 96bc 01a8 193d 67d3 a93d
00000020: 30b8 c73d 800b 29be 8300 0d3d aa62 c9bd
00000030: 0cb0 e53d ab6d fb3d 2c2c 2c3e 79cc de3b
00000040: b9f4 b83c 479c 32be 5ae4 dc3d 291e ec3d
00000050: e54f 0abe 376a e63c 6311 3f3e bb08 20bd
00000060: 9ef4 323e 65a7 193e 25b9 e9bd af71 9abd
00000070: 68e5 043e bd8a 993d f558 07be 57cc 293e
00000080: e7fc dfbc 0c95 d7bd 00b5 e4bd ce28 10bd
00000090: 74f6 ae3b 89a3 4dbd 9258 cbbd bc9b 1cbb
000000a0: dca3 d8bd b6ca a63c 0e70 873d 7536 5b3d
000000b0: 496c cdbd 5505 1f3e 66e5 ccbd 1900 a73d
000000c0: 8fd9 2d3b bb8e 233e 5c67 aebd 7d4a 48bd
000000d0: 22f4 c3bd bc05 dfbc b8e6 363b 8e30 56bd
000000e0: a281 97bd 3ec4 223d f294 df3d 7bdb b7bd
000000f0: d769 b73c e943 0a3e 58a4 0dbe f645 233e
00000100: 9b22 d8bd 84f7 1a3e 5653 933d 3fcc 19be
00000110: 5e05 0d3e 0e4e c63d b5f8 d93d f61e 76bb
00000120: dd8c a6bd e1d0 40be eba7 2f3e b8a3 27bd
00000130: 4b7b f1bd 3394 08bd 8e7c 0ebe 9da9 02be
00000140: 36cb fd3d 0b7d 0d3e ae79 d9bc dc44 323e
00000150: 6f4c 3c3e 366b 0ebd 192e febd 9ed6 423e
00000160: 63f7 9c3d 51f9 093e 9366 0c3d 5134 1bbe
00000170: 14af 2fbe 644f 2e3e c54a 04be 5a04 0d3e
00000180: 9711 f6bc 2e30 0b3e 3080 9fbd fc6d 8b3d
00000190: 7bac 57bd c92a 0dbd ceea fe3d a3ed 24bc
000001a0: 87cf f63d 1d77 8dbb 5715 09be 481c 213e
000001b0: b695 d5bd 5cdd 16bd df0f 803c c280 033e
000001c0: 0111 35bc 0c2a 2c3d 2b9e 2abe 84fa 823d
000001d0: 2466 e23d c27b 29be 35eb 11be c2d5 e33d
000001e0: 369f d53d 2f0f c23d 082b 193e 1f71 ec3d
000001f0: 9d88 333d b67a 0a3e 0ca8 f93d 3cac 7cbd
00000200: 3abf 3e3e 4528 273d 381b 813b 9c3a 273e
00000210: 6c9e 433e 7102 6cbe 53e6 9dbd 4536 263c
00000220: a0ae 173d 340f a83d a73c 0e3e 709f 44be
00000230: aecd 15bd 3ba1 093e 9c42 8d3d 7e0a e93c
00000240: 5bea 7bbe f50f 1bbe e9c4 5fbe b7ba 0f3e
00000250: e5c8 cfbd 27a2 15be e23e 16be 3e5d 033e
00000260: b829 113e 0ece 5fbd 2ef1 01be e19f 543e
00000270: 2df8 6fbe d890 0a3e 5972 89bd 86e7 3e3e
00000280: fcb9 023e 7e8d 60be b487 7bbe c88e 1e3c
00000290: 90f3 cf3d 5630 e5bd 08f3 3bbd 01fa b83d
000002a0: f652 3cbe f4e5 1cbd 8881 0abc 01c8 c5bd
000002b0: c450 6e3e af39 8e3d 6887 9f3d 75cb 063d
000002c0: 89d9 9b3d c433 2e3e 64f8 aa3b 3669 a9bc
000002d0: 9cea f73d f7af 6fbc d72e 53bc 73e6 1e3e
000002e0: 3ca1 c73c 2ed3 09bd 9737 0fbe d99f 3fbd
000002f0: c0a8 f63d db97 23be 5ec3 5bbe 1812 18bd
00000300: 7e8b 7f3d 4c3b 893e 5b5f 113d 8c6b d3bc
00000310: c788 c93d 4b69 3cbe 6673 0d3e 88aa f23d
00000320: d5e7 663d f0ad e8bc 8752 9bb9 7e12 84bd
00000330: 1883 a33d abfa 52bd 00b9 7f3e 90e5 2bbe
00000340: c3a9 a7bc f87f 1abe 2fbe e63d 569c 5fbe
00000350: f7f6 eebc 77de b83d fa69 b63d 8802 533e
00000360: 6680 123e 7ffa 8ebc 1a89 5a3c 7a05 a63d
00000370: 7f8c 56be 5bfd 7fbe 62f3 c03d db74 80be
00000380: 3c3b d03d fce9 7f3c 6ee4 443d 02ca e23d
00000390: 37c2 bdbd 0c8b de3d f02d 4f3e e0bd 32be
000003a0: fdc0 223d bca0 183e 7245 493d 4161 24be
000003b0: 7012 44bd 77e7 b73d f131 113c 8815 6ebd
000003c0: c9b8 5dbd 27d0 0e3c f1d9 533e f3b9 013e
000003d0: 9b78 2fbe 5d2a c3bc 45e5 523e d116 413e
000003e0: 405f 36bd d7c3 0a3e 6752 223c bf43 d6bd
000003f0: 3c6d 75bd 317d 91bd 98b4 663d afab 473c
-0.17511192 0.016495775 -0.013699006 0.14418457 0.05257749 -0.018374147 0.037513737 0.08292275
0.09751928 -0.16508293 0.034424316 -0.09833272 0.11215219 0.12276777 0.16813725 0.0067992774
0.02257763 -0.17442428 0.10785742 0.1152919 -0.1350704 0.028126819 0.18658976 -0.039070826
0.17476127 0.15005262 -0.11412267 -0.07541215 0.12978137 0.07497165 -0.13217528 0.16581856
-0.027342273 -0.10526475 -0.111673355 -0.035195164 0.005339438 -0.050204787 -0.09929003 -0.0023896536
-0.10578129 0.020360332 0.066131696 0.05351873 -0.100304194 0.15529378 -0.10004692 0.081543155
0.002652738 0.15972416 -0.08515808 -0.048899163 -0.09568049 -0.027224414 0.0027908515 -0.0522924
-0.07397772 0.039737932 0.10917081 -0.089774095 0.022389336 0.13502468 -0.13832223 0.15944657
-0.105534755 0.15133482 0.071936294 -0.1501932 0.13771579 0.096828565 0.1064314 -0.0037555075
-0.08132336 -0.18829681 0.171539 -0.04092762 -0.117910944 -0.03334446 -0.13914701 -0.12760015
0.12392275 0.13817231 -0.02654728 0.1740908 0.18388532 -0.034770213 -0.12411136 0.19027182
0.07664373 0.13474013 0.03427751 -0.15156676 -0.17156631 0.17022473 -0.12919147 0.13771191
-0.030037684 0.13592598 -0.07788122 0.06808087 -0.052654725 -0.03446463 0.12447129 -0.010066423
0.120513014 -0.004317178 -0.13387047 0.15733445 -0.10428946 -0.0368322 0.015632568 0.12842086
-0.011051417 0.042032287 -0.16661899 0.06395438 0.11054638 -0.16551116 -0.1424988 0.111247554
0.10430758 0.09475552 0.14957821 0.11545014 0.043831456 0.13523373 0.121902555 -0.061687693
0.18627635 0.04080989 0.0039400123 0.16330951 0.19103402 -0.23047806 -0.077099465 0.010144775
0.03703177 0.08206025 0.13890325 -0.19201446 -0.036573105 0.13440411 0.0689747 0.028447386
-0.24601118 -0.15142806 -0.21852459 0.1403607 -0.101457395 -0.14612637 -0.14672425 0.12828538
0.1417607 -0.05463987 -0.12689659 0.20764114 -0.23434515 0.13531816 -0.06711263 0.18643007
0.1276626 -0.21928975 -0.24563485 0.009677596 0.10153878 -0.1119086 -0.04588607 0.090320595
-0.18391022 -0.038305238 -0.008453734 -0.09657288 0.23272997 0.06944596 0.077894986 0.032908875
0.07609851 0.17011935 0.0052175988 -0.020680051 0.12105295 -0.014629356 -0.012889585 0.15517597
0.024368875 -0.033648662 -0.1398605 -0.046783302 0.12043905 -0.15975897 -0.21461245 -0.03712663
0.06238889 0.26803052 0.03549133 -0.025808118 0.09840541 -0.18399541 0.13813552 0.118489325
0.056373436 -0.028403252 -0.00029625391 -0.064488396 0.079839885 -0.051508587 0.24972916 -0.1678679
-0.02046669 -0.15087879 0.112667434 -0.21836981 -0.029170496 0.09026807 0.08906932 0.20606434
0.14306793 -0.01745343 0.013338352 0.08106513 -0.20952033 -0.24998991 0.094214216 -0.25089154
0.10167548 0.015619751 0.04806941 0.11073686 -0.09265559 0.10866365 0.20232368 -0.17455244
0.03973483 0.14905065 0.049138494 -0.16052724 -0.047869146 0.08979695 0.008862005 -0.058126003
-0.054131303 0.00871662 0.20688607 0.1266859 -0.17135851 -0.023823911 0.20595272 0.1885636
-0.04452443 0.1355127 0.009907342 -0.1046214 -0.059918627 -0.071039565 0.05632457 0.012186929

nnECG.4.bias f4 [64]
00000000: cd9d c03c 8f00 353d 427f cfbc a06a 333c
00000010: 8b22 313d 21dc 973c 4f17 a9bb c287 863c
00000020: 81d9 1ebc 8edc 15bc 6714 e5bc be16 8a3c
00000030: e23a 8b3c a9b4 343d afaf cc3c 60ca 833b
00000040: 0161 e73c 5315 cf3c cac2 423c 5d2a 7f3c
00000050: e79f a5ba 8b60 933c db9a 97bc 4c07 843d
00000060: 5150 ff3c 06ab 613c 5698 b2bb 3653 593b
00000070: 68f7 02bc d6ad ea3c 81a3 ad3c cf5b dcbc
00000080: 462c c6bb 5fc3 673c 4cb4 9bbb 66d4 503c
00000090: 8e34 313d 9b73 3b3d 98cd 163d 2e57 cb3c
000000a0: 4338 4d3c 1397 9dbc 1780 403d 782b dd3b
000000b0: 73ac 94bb 6a8e 83bb b04f 5b3b 296a 2fbc
000000c0: 7cb1 143d 0f07 113c a67a 0a3d 10d9 053d
000000d0: 655d 48ba 5304 51bb 4646 0d3c f15f e5bc
000000e0: 5215 9dbc a776 b239 3301 b23b 1766 453c
000000f0: 8702 ff3b 7eda d23c a4c9 653c d260 023c
0.023512745 0.044189986 -0.025329236 0.010950714 0.043245833 0.018537583 -0.0051602493 0.016422156
-0.009695412 -0.009146823 -0.02796383 0.016856547 0.016995851 0.044117603 0.024986116 0.0040219277
0.028244497 0.025278723 0.011887262 0.015574065 -0.0012636156 0.017990371 -0.018506458 0.06446704
0.031166228 0.013773685 -0.0054502888 0.003316117 -0.007993557 0.028647345 0.021196129 -0.026899246
-0.0060477583 0.014145701 -0.0047517177 0.012745952 0.04326301 0.045764547 0.036817163 0.024821844
0.012525621 -0.019237077 0.046997156 0.0067495666 -0.004537159 -0.00401478 0.0033464245 -0.010706463
0.036302075 0.008851781 0.033808373 0.03267771 -0.00076433114 -0.0031893447 0.0086227115 -0.02799985
-0.019175205 0.0003403921 0.005432272 0.012048266 0.0077822837 0.02573895 0.014025126 0.007957654

nnECG.5.weight f4 [64]
00000000: 31ec 783f c19c 933f d767 7f3f d153 823f
00000010: ba47 943f 5fac 863f 0ca3 803f 1b31 853f
00000020: b21d 863f 6aac 833f 5633 843f 199d 863f
00000030: 4417 823f 25a2 8b3f b458 913f b959 803f
00000040: e525 863f 7c42 8a3f f5b9 843f a848 7a3f
00000050: 0228 7f3f c806 863f 2a2b 813f 968f 843f
00000060: 2657 8f3f 681d 8c3f 838d 803f 9c5b 863f
00000070: b2be 873f 5841 8e3f 7f64 813f 19a9 7c3f
00000080: 1db5 843f 0a78 833f a274 803f 1428 813f
00000090: f787 863f fb74 833f 46d0 8f3f 4cdf 8b3f
000000a0: 26d9 823f c819 843f a77d 8f3f b150 823f
000000b0: 7ddb 7c3f 6a8e 823f 1a08 863f 6cb5 843f
000000c0: e34d 8c3f 9755 7c3f 90ac 7d3f 9dfb 893f
000000d0: feaf 813f ba19 843f 5e51 853f 174b 7c3f
000000e0: 15a2 763f e34a 8c3f ee5d 8a3f a3f6 813f
000000f0: 63ae 863f fa2b 903f bae7 893f d5a5 853f
0.972354 1.1532212 0.9976782 1.0181829 1.1584389 1.0521353 1.0049758 1.0405611
1.0477812 1.0286992 1.0328166 1.0516692 1.016335 1.0908858 1.1355195 1.0027381
1.0480314 1.080154 1.036925 0.97767115 0.9967042 1.047082 1.0091298 1.0356319
1.119847 1.0946474 1.0043186 1.0496707 1.060507 1.1113691 1.0108794 0.9869552
1.0367771 1.0271008 1.0035594 1.0090356 1.0510243 1.0270075 1.1235435 1.092752
1.0222518 1.0320368 1.1210221 1.0180875 0.9877241 1.0199711 1.0471222 1.0367866
1.0961269 0.985681 0.99091434 1.0779911 1.0131834 1.0320351 1.0415456 0.9855208
0.9634107 1.0960354 1.0809915 1.0153393 1.0521969 1.126342 1.0773842 1.0441233

nnECG.5.bias f4 [64]
00000000: 1788 f13a 4bd8 063d 746a 05bd 6ded c93a
00000010: f7de 0a3d ad74 803c c310 a2bc eaac ca3b
00000020: 49b7 b1bc fd74 66bc 34e1 25bd 6b9e 3a3c
00000030: 2481 16ba 5344 5f3c dd25 683c e5f0 b9bc
00000040: 6730 a43c cb40 073d f504 113c d49b c73b
00000050: bbc1 2cbc d8b1 a9bb 3079 c8bc 077f 653d
00000060: 93d8 913c a012 f83b ef7a 13bc 5252 20bc
00000070: b30b 99bb a684 9b3b f0f2 883c 9c89 26bd
00000080: 30e9 3dbc fd3f 6f3c 02fc a8bc cdb0 4ebc
00000090: 4310 063d 33f2 b73c 3e59 883c 6866 923c
000000a0: 8bd7 3a3b ec34 0bbd 9d9e 193d 4185 c4bb
000000b0: 2388 3ebc 1105 81bb 7db2 da3a b0eb 6bbc
000000c0: d8c6 5b3c ab5f 3bbb 0389 4b3c d1eb ac3c
000000d0: fe0e b1bc b89d 36bc 9135 0ebc 4bf0 18bd
000000e0: 97c0 0dbd 0830 8abc 2dec 24bc a8d9 2b3b
000000f0: 0ae3 543c 6578 0f3c 510c 1cbb bd9a a73b
0.0018427399 0.032921117 -0.032572225 0.0015405841 0.033904042 0.015680635 -0.019783383 0.0061851637
-0.021693842 -0.014065978 -0.040497974 0.011390309 -0.00057412894 0.01362713 0.014169184 -0.022697875
0.020042611 0.033020776 0.0088512795 0.006091574 -0.010544236 -0.0051786713 -0.02447185 0.056029346
0.017803466 0.0075705796 -0.009001478 -0.009785252 -0.004670584 0.0047460375 0.016717404 -0.04065858
-0.011591241 0.014602658 -0.02062798 -0.012615395 0.032730352 0.022454357 0.016644116 0.017871097
0.0028509821 -0.033986017 0.03750478 -0.0059973304 -0.011629137 -0.0039373715 0.0016685274 -0.014399454
0.013414107 -0.0028590958 0.012422803 0.02110854 -0.021613594 -0.0111460015 -0.008679763 -0.037338536
-0.034607496 -0.016868606 -0.010066074 0.0026222263 0.012993583 0.008756732 -0.0023811052 0.005114882

nnECG.5.running_mean f4 [64]
00000000: 0cd0 073f 6eec 063e ab89 b9bd da14 39be
00000010: 249f 3c3f f514 45bd 6834 013e be09 1f3e
00000020: e8a6 71bd 2321 08bd 9a16 dc3e 7026 0d3d
00000030: 717e 1b3e e5fd ee3e d557 233e af2b dabe
00000040: 880a e43d bc40 4d3c 2928 17bf a985 2f3f
00000050: 7234 91be 24d9 783e d519 c7bd e270 483f
00000060: 76f6 313e ca35 733e 72d5 b1be ab65 cabd
00000070: e4c6 1fbd c6ff d63e c224 0b3e d00e 8cbd
00000080: 35ad 1a3e e053 ac3d 2556 d8be 3c55 db3e
00000090: 2bd9 403e e719 083f 966d c73e 50b9 a33e
000000a0: 9077 d4be 9b68 86be 1587 533f a78d 5abf
000000b0: 4e18 443e fba9 8ebe 727b 18be 94f1 cbbb
000000c0: 2f77 ad3e 69b8 63be 2972 8e3e b31f 49bd
000000d0: b161 7ebe 7ee4 adbe eb76 f03d a27e 533e
000000e0: cd86 1b3e d13c cd3e f871 e3bd 6814 a0bd
000000f0: 153d e8be 27bb 2d3e f446 f0be 4170 9cbe
0.5305183 0.13176128 -0.09059461 -0.1807436 0.7368033 -0.04811569 0.12617648 0.1553106
-0.058997065 -0.033234727 0.42985994 0.034460485 0.15184952 0.4667808 0.15951474 -0.42611453
0.11134821 0.012527641 -0.59045655 0.68563324 -0.28360325 0.24301583 -0.09721724 0.78297246
0.17379174 0.23750988 -0.34733158 -0.09882673 -0.039008036 0.41992015 0.1358824 -0.06838763
0.15105136 0.084144354 -0.42253223 0.42838466 0.18832843 0.53164524 0.38950795 0.3197732
-0.4149747 -0.26251683 0.82627994 -0.85372394 0.19149897 -0.2786406 -0.1489084 -0.0062238667
0.33879992 -0.22238316 0.27821472 -0.049102496 -0.24841954 -0.33963388 0.11741432 0.20653775
0.15188141 0.40085462 -0.11105722 -0.07816392 -0.45359102 0.16965924 -0.46929133 -0.30554393

nnECG.5.running_var f4 [64]
00000000: f8d1 c93f a344 b53f dd7b 763f 8010 703f
00000010: ca74 8b3f 8e5d 793f c200 723f df51 5e3f
00000020: 4238 a33f 5839 663f 8769 733f 5dcb 9e3f
00000030: 37fc 973f e6f3 823f dbbe aa3f d36f bd3f
00000040: ef67 703f 200c a43f 98aa a33f e8eb 873f
00000050: 4c3f 7b3f 49e1 9b3f 7920 fb3f 6215 a93f
00000060: 2fdc b73f 5ed4 e83f 9546 993f 275d b73f
00000070: 0fda 603f 9e96 c33f d505 7b3f 1103 ba3f
00000080: c6be 963f 60c8 2c40 03e3 aa3f c73c fa3f
00000090: b62a 783f 28d9 c83f f2e2 b83f 2f46 763f
000000a0: 7411 8e3f 4a50 913f 9ace b53f acdf c03f
000000b0: ae1b 483f f326 613f cc64 a73f 066e 823f
000000c0: abd3 903f f410 0740 6dca 8b3f 9fb3 5a3f
000000d0: 3865 6d3f 1c36 763f af7b 3f40 c8c5 b43f
000000e0: 4392 ea3f e92d 933f 3268 2140 8d14 e93f
000000f0: ab95 ab3f 96d9 603f f2a2 c23f f07c ae3f
1.5767202 1.4161571 0.9628275 0.93775177 1.0895016 0.9740838 0.94532406 0.86843675
1.2751544 0.8993125 0.95082897 1.2405812 1.1873845 1.0230682 1.3339494 1.4799751
0.9390859 1.28162 1.2786436 1.0618868 0.9814346 1.2178127 1.9619285 1.320965
1.436407 1.8189809 1.1974665 1.4325303 0.8783273 1.528034 0.98055774 1.4532186
1.177697 2.69973 1.3350528 1.9549798 0.9694017 1.5691271 1.4444258 0.9620084
1.1099076 1.1352627 1.4203675 1.5068259 0.78167236 0.87950057 1.3077636 1.0189826
1.1314596 2.1104097 1.092115 0.8543033 0.9273257 0.96176314 2.991924 1.4122858
1.8325886 1.1498386 2.5219846 1.8209397 1.340505 0.8783201 1.5205977 1.3631878

nnECG.8.weight f4 [16, 64]
00000000: a055 b3bc 05ad 873b 685f 9c3d c40f d13d
00000010: 76e0 39be 4179 82bd f82e 64be 473a ad3d
00000020: 36ae 82bd 2839 eabd 36ff 73be 3d4f 6fbe
00000030: a5cd 813e 21e9 6abe 93e0 7ebe 63db 563e
00000040: 8d36 853e f9f5 783e 4cf0 84be 982f 89bd
00000050: c47b 6ebe 9194 eabd efc7 dfbc ccd0 a0bc
00000060: a75e 90bd ba14 183e f11f 65bc d605 9a3e
00000070: 4687 15bd afbb 85be 203a 3f3d 0e5a 42bd
00000080: c0c8 9bbc cd1e 213e 52a9 b5bb ad1c 673e
00000090: e5da ef3d a86f 8e3e 0c9d a0be 88f8 79be
000000a0: c2a2 693e 0c23 dbbd 6222 683d 02ad 83be
000000b0: 7346 45be 6333 e93d 3f5c 073e 6b1f 31be
000000c0: 759f 813e 6274 80be 2233 82be 126a 3f3e
000000d0: ee40 113d d638 a03e e3c4 733e bcfa 08bc
000000e0: 6aa6 d2bd 22c6 9dbe c6d6 07be 1f52 803e
000000f0: 2f4d 843e acd3 35be e543 19bc 5767 dcbc
00000100: c0b3 84be 185a b63e cb15 f93d cea2 9d3d
00000110: 9a1d abbe b4e0 ebbc b49b 793d df56 d43d
00000120: 9104 bbba 8abd 10be bfe0 91be b4bb a83e
00000130: 4c47 373e 1ecd 953d 37ee 9f3e 80d1 753e
00000140: eb72 283e 446b 13bd 74d1 e2bd c42d 44bd
00000150: 41f3 ccbd 0cc8 41bd 3312 41be d153 923e
00000160: bc6f bc3e 8645 b33d e48b 1fbe d844 d2bc
00000170: 4c4f 793e 0948 9b3e 0792 d5bd d23f 96bd
00000180: 7db9 5ebe 02ec 6bbe a2a9 0abe 6344 903d
00000190: bcef 843d e01a 8f3d deee d43d b728 613e
000001a0: 0004 7ebe 09fa 80be f430 5c3e 64aa 5c3e
000001b0: 0d70 d6bd 15b7 52be 3a58 27bc d688 efbc
000001c0: 6d00 a93d ec8c 46be 3f9f fb3d c9cc aa3e
000001d0: bf94 863e 802f ff3d ad6a 663e da8a 2a3e
000001e0: 6622 89be 2442 50be a7fd 9bbd 0e8e 603e
000001f0: f633 8cbe 487b 3a3d e757 573e 3e46 3a3e
00000200: d6ea 9e3d 2e4b 88bd 1752 5e3e 6c14 b23d
00000210: d1ad 50bd 8649 b5bd 417c 823d 2976 123e
00000220: 678d 263d 180d 61be fd01 46be e7a7 74be
00000230: c89c c13d 4020 d1bc b407 8bbe 1ad7 7ebe
00000240: ddeb 673d c3aa f9bd 9712 ec3d 411a 8dbe
00000250: 29a7 56bd 2887 213e 1665 f1bd 5fa8 0dbe
00000260: 1a40 8ebd bb83 59bd 4fb4 9d3c b779 d23c
00000270: a776 1f3e 9233 63be b16a 2f3d 30de 903c
00000280: 3e32 a1bd 096b bc3d 4cb0 9bbe fd52 8abe
00000290: eb46 3c3e 1d17 98be 5722 63bc 927a 09be
000002a0: 5236 66bd 32d7 8b3e 3632 0b3c 7c2a 89bd
000002b0: 0fc7 113e 3b5c 1c3e d501 24be a097 1ebe
000002c0: 7082 063e 4add 01bc b3aa f73d 3c7e 44be
000002d0: ec8b 7a3e 82b0 50bd bad6 38be e79d 59be
000002e0: 1d33 e1bc ebf4 e13d 78ae 87be ddcd 97bd
000002f0: 748c 61bc ca84 4ebd 19b0 97be 9889 62be
00000300: a3c3 3fbe 12c2 c1bb 488a 4dbe b847 45be
00000310: d548 213e 32b1 8dbe 200a 763e 2e92 303e
00000320: 6278 47be a156 93bd fc35 403d 9ef5 193e
00000330: 50fd 213e 0e4f 073e d5f9 c3bd 14f4 863d
00000340: 1e03 80be c5bf 1c3e 2f37 e5bc f8c6 33be
00000350: 9f4a 133e 2f6f 523e 7a25 c93d 21a2 353e
00000360: c9be 9dbe 1234 e13d e871 4dbe d5d8 8d3e
00000370: 0232 873e 0b7e 63be 4e09 523e f0d9 563a
00000380: a9da 22be c7bb ba3d f949 a9be 5a7d f6bd
00000390: 9219 0d3e 838b 4e3e a15f 42be 1555 4cbc
000003a0: a4ad 453e 44ba a2bd 2748 3abe d287 13be
000003b0: 253d ac3d 061c 62be 20cf 653e 0767 793c
000003c0: 0e38 a43e ff55 71be 467c 263e 691b 573e
000003d0: 060c 0c3e b3cd 60be 1ddf e5bd 8fe9 ebbc
000003e0: 3156 543e 1ad7 49be 448b d83d 8b26 983d
000003f0: a3ad 01be fab9 c3be 343e e3bc 0ccf fabd
-0.021891415 0.0041404986 0.07635385 0.10208085 -0.18152031 -0.063707836 -0.22283542 0.08458381
-0.06380884 -0.11436683 -0.23827824 -0.23370071 0.25352207 -0.22940494 -0.24890356 0.20982127
0.2601818 0.24312581 -0.25964582 -0.06698531 -0.232894 -0.11454118 -0.027317015 -0.019630812
-0.070493035 0.14851657 -0.013984666 0.30082577 -0.03650596 -0.26119754 0.04668629 -0.047449164
-0.019016623 0.15734406 -0.005543866 0.22569533 0.11711673 0.27819562 -0.31369817 -0.24411213
0.22815993 -0.10700044 0.056673415 -0.25717932 -0.19265155 0.11386754 0.13218783 -0.17297141
0.2531697 -0.25088793 -0.25429636 0.18692806 0.035462312 0.31293362 0.23805575 -0.008360561
-0.10285647 -0.30815226 -0.13265523 0.25062653 0.25840136 -0.17756528 -0.009354566 -0.026904745
-0.25918388 0.3561561 0.1216236 0.07697068 -0.33421022 -0.02879367 0.060939506 0.10368132
-0.0014268329 -0.14134803 -0.2849178 0.32955706 0.17898291 0.073145136 0.3123643 0.24005699
0.16450088 -0.03599097 -0.11075106 -0.047895208 -0.100073345 -0.04730992 -0.18854599 0.28579572
0.36803997 0.08753495 -0.15580708 -0.025667593 0.24346656 0.30328396 -0.10428243 -0.073363915
-0.21750446 -0.23039249 -0.13541272 0.07044294 0.06491038 0.06987548 0.10397123 0.21988188
-0.24806213 -0.25190762 0.21503049 0.21549374 -0.10470591 -0.20577653 -0.010213906 -0.029240053
0.08252034 -0.19389695 0.12286233 0.33359364 0.2628536 0.12460232 0.22501631 0.1665453
-0.26784056 -0.2033773 -0.0761674 0.2192919 -0.27383393 0.045527726 0.21029626 0.18190858
0.07759635 -0.066549644 0.21711002 0.086953014 -0.050947014 -0.08851914 0.06371356 0.14302887
0.040662196 -0.21977651 -0.19336696 -0.23892175 0.09453732 -0.025528073 -0.27154315 -0.24886742
0.05662142 -0.12190773 0.11526983 -0.27559093 -0.05240551 0.15774214 -0.11786859 -0.1383376
-0.0694582 -0.053104144 0.019251017 0.025692804 0.15572606 -0.22187641 0.04282636 0.017684072
-0.07870911 0.09200103 -0.3040794 -0.2701644 0.18386428 -0.29705134 -0.013863168 -0.13425663
-0.056204148 0.27312618 0.008495858 -0.066975564 0.14236091 0.15269558 -0.16016324 -0.15487528
0.13135695 -0.007926295 0.12093105 -0.1918878 0.24467438 -0.05094958 -0.18050662 -0.21251641
-0.027490193 0.110330425 -0.26500297 -0.07412312 -0.013766397 -0.050419606 -0.2962654 -0.221228
-0.18726973 -0.0059130276 -0.20072281 -0.1926564 0.1575044 -0.27674252 0.240273 0.17243263
-0.19479516 -0.071942575 0.046926484 0.15035102 0.15819287 0.1321375 -0.09569136 0.06589523
-0.25002378 0.1530753 -0.027980415 -0.1755637 0.14383934 0.20550226 0.09821601 0.17737629
-0.3080962 0.1099626 -0.20062983 0.27704492 0.2640534 -0.2221605 0.20511362 0.00081959274
-0.15903725 0.09117847 -0.3306425 -0.12035628 0.13779286 0.20170407 -0.18981792 -0.012471457
0.1930452 -0.079456836 -0.18191586 -0.1440728 0.084101 -0.22081003 0.22442293 0.015222318
0.32074016 -0.23567961 0.16258344 0.2100655 0.13676462 -0.21953468 -0.11224196 -0.028797893
0.20736004 -0.19710961 0.10573438 0.074292265 -0.12663893 -0.38227826 -0.027739622 -0.12246522

nnECG.8.bias f4 [16]
00000000: 43d2 df3c 1c27 0f3d 623e 9b3c fbd1 6e3c
00000010: 7b38 bf3c ace2 1d3b fbb2 b03c 146b 36bc
00000020: 72db 76bc f650 653c 2e1d 873c 7bcc 253c
00000030: 55a1 11bb 3b23 073d 6d1c 973c 5d89 e93c
0.02732194 0.034949407 0.018950645 0.01457643 0.023342362 0.0024091406 0.02156972 -0.011133928
-0.015066968 0.013996353 0.016493406 0.010119553 -0.0022221406 0.032992583 0.018446172 0.028507883

nnECG.9.weight f4 [16]
00000000: 93b9 823f d809 903f 4b62 863f 3c39 863f
00000010: 60b9 813f 38bf 833f 3f78 7e3f 6e93 8b3f
00000020: 3148 7d3f e818 8e3f 7b52 703f eba3 843f
00000030: 1ff9 893f 42dc 8c3f 29bc 843f 360a 843f
1.0212883 1.1253004 1.0498747 1.0486217 1.0134697 1.029273 0.9940223 1.0904367
0.9893828 1.1101351 0.93875855 1.0362524 1.0779151 1.1004717 1.0369922 1.0315616

nnECG.9.bias f4 [16]
00000000: 5b6a 2e3b daa6 073d 762a 703c 4b37 e7bb
00000010: 41a4 5f3b 124c 1d3c 9812 113d 2979 61bc
00000020: 3e1b c6bc 1fd9 d3ba 0705 8dbc b55e 903c
00000030: f474 8d3a da84 8d3c 2308 94bc fed5 37bb
0.0026613686 0.033118106 0.014658561 -0.007056152 0.0034125003 0.009600656 0.035418123 -0.013761797
-0.024182912 -0.001616273 -0.017214311 0.017623285 0.0010792301 0.017275263 -0.018070286 -0.0028051133

nnECG.9.running_mean f4 [16]
00000000: 2000 f8bd 4614 bcbc 8f4a 2abf e559 383e
00000010: 3860 9e3e e906 273e 1aaa 673f b0a0 ff3c
00000020: 9377 0abe c7a6 b6bc 8283 b03e 7f57 b5be
00000030: e547 a8be 729b 1b3f 6d00 043f ee9d 06be
-0.12109399 -0.022958886 -0.6652002 0.18003042 0.30932784 0.1631123 0.9049393 0.031204551
-0.13522176 -0.022296323 0.34475332 -0.35418317 -0.3286735 0.60784066 0.5156315 -0.13146183

nnECG.9.running_var f4 [16]
00000000: 3b5b c43f b988 b03f b00b c53f 52fe bf3f
00000010: 1dbe ca3f 6ebe 913f 2f21 f63f b38c ab3f
00000020: 486c f93f c970 cc3f e8dd dc3f 17aa 0f40
00000030: 82dc cb3f 531b ca3f c9c9 c43f 4280 e23f
1.5340341 1.3791724 1.5394192 1.4999487 1.5839268 1.138624 1.9228877 1.3402313
1.948617 1.5971919 1.725522 2.2447565 1.5926669 1.5789589 1.537408 1.7695391

nnECG.12.weight f4 [4, 16]
00000000: 90a2 013f ec71 d93e e28a 8d3e 2491 063e
00000010: 9e0a 9d3e cf7f d1be 6626 a83e 3a19 1cbe
00000020: f0f5 283d acd6 9fbd 55c2 b13e 5705 693d
00000030: 5f5a 043e 5967 bcbe c3b2 9c3d ead5 0f3f
00000040: 15da 483e 494d 7fbc 16d9 85be 75bf 083e
00000050: 2978 8e3e 017f 113f 818b a3be bf44 e6be
00000060: e71b 253e 3f88 debd dcfb f73e 61f1 e8be
00000070: 209d 9a3d 2710 04be 3b3d bd3e 132a 003f
00000080: cb28 d2be 9006 213f e550 c5be 9222 e6bd
00000090: 4ae5 0cbf 88ed f4be adfe 05bb 9bfa 10bf
000000a0: 15d6 533e ea30 b83d 5691 4cbe 6b87 2ebe
000000b0: 8cfc b53d c333 6abc 4b65 60be 6798 4abe
000000c0: 129b bdbd 9a16 c43d 9ce9 573c 4544 c1be
000000d0: 4d03 023d a0c6 0c3f b8b9 62bc ba1f 94be
000000e0: acfa 90be 4eda 8f3e 5eae 0e3e ac14 01bf
000000f0: bc9d a4be 97f1 d23e 585e 16bf a869 d4be
0.50638676 0.42469728 0.27645022 0.13141304 0.30672163 -0.40917823 0.32841796 -0.15243998
0.04125017 -0.07804617 0.34718576 0.056889858 0.12925099 -0.36797598 0.076512836 0.5618578
0.19614442 -0.015582391 -0.26142186 0.13354285 0.2782605 0.5683442 -0.3194237 -0.44974324
0.16123925 -0.10865831 0.4843434 -0.45496657 0.075495005 -0.12896787 0.36960778 0.500642
-0.41046748 0.6290064 -0.3853828 -0.112370625 -0.5503737 -0.47837472 -0.0020445988 -0.56632394
0.20687135 0.089937046 -0.19977316 -0.17043845 0.0888606 -0.0142945675 -0.2191364 -0.197847
-0.09258093 0.095746234 0.013178255 -0.37747398 0.03174143 0.5499058 -0.013838224 -0.28930455
-0.28316247 0.2809624 0.13933703 -0.5042217 -0.32151592 0.41199943 -0.5873771 -0.4148686

nnECG.12.bias f4 [4]
00000000: 914d 0b3d dace 023d 8545 713c 799d d13c
0.03400952 0.03193555 0.014726047 0.025587784

nnECG.13.weight f4 [4]
00000000: 0f9e 823f 440e 823f b3df 853f 92d5 8a3f
1.0204486 1.0160604 1.0458893 1.0846426

nnECG.13.bias f4 [4]
00000000: 85c3 943c 0a45 213c b003 59ba 9cb8 e93b
0.018159637 0.00984312 -0.00082784425 0.007132603

nnECG.13.running_mean f4 [4]
00000000: cc50 103f e6a1 7f3e ed55 1abf 30db a1be
0.56373286 0.24964103 -0.6028736 -0.3161254

nnECG.13.running_var f4 [4]
00000000: 91e5 a23f 2271 d13f 72d6 c03f 3197 b13f
1.2726308 1.636265 1.5065444 1.3874265

nnECG.16.weight f4 [1, 4]
00000000: 6bda c9be 9e66 3dbf 1df7 613f b61f 453f
-0.39424452 -0.73984706 0.8826769 0.7700151
