Models/net_3_1_epoch_8.pth (torch, 57961 bytes, 25 tensors)

nnECG.0.weight f4 [128, 12]
000000 72 84 25 3e b6 32 f4 3b eb 21 81 3c e3 50 99 3d
       0.16163805 0.0074523343 0.015763244 0.07486131
000010 de 09 c6 bd e5 9b 59 be cc 70 49 bd 76 8d 97 bd
       -0.09669851 -0.21250875 -0.049179837 -0.074000284
000020 02 c6 3a 3c 0d b3 c0 bd 3f 6d 48 bc 6c 8c 4a 3e
       0.011399748 -0.09409151 -0.012233078 0.19780129
000030 77 32 b6 3d 44 15 2c bd 7b 8c 57 3e 53 c3 cf bd
       0.08896344 -0.042012468 0.21049683 -0.10144677
000040 e2 eb 0c bd b0 5c 8d 3d 5d c9 fc 3d 4b 5a 56 3e
       -0.034404643 0.06902444 0.123430945 0.20932882
000050 43 6d 2f be a2 ad 18 bd 9c b9 a9 3d ad ca f6 bd
       -0.17131524 -0.037274964 0.08287355 -0.12050376
000060 f9 59 87 3d a2 7f 08 3d 24 de 41 be 1c 37 11 3e
       0.06608958 0.033324845 -0.18932396 0.14181179
000070 87 57 55 3e e8 c4 1b 3d d6 a4 f6 bc ff 0f 1a 3e
       0.2083417 0.03802958 -0.030107897 0.15045165
000080 cf 38 fd 3d f1 fb f9 bd 94 c6 e7 3d 9e bf 23 be
       0.12364351 -0.12206257 0.11317173 -0.15991065
000090 46 9f c3 3d 5e a8 3c be 3f 35 da 3d 27 d0 31 be
       0.09551863 -0.18423602 0.10654687 -0.1736456
0000a0 70 3b f2 bc 6f f2 ed ba 77 fe 56 be 2f 3e 1f be
       -0.029569358 -0.0018153916 -0.20995508 -0.15551065
0000b0 10 71 b9 3d 1e e5 12 3c d5 f7 27 3e 5a a5 fb 3b
       0.09054768 0.008965759 0.16403134 0.0076796236
0000c0 fa 4c 0c 3e d0 1c 3b be 66 bc 34 3e e0 b1 09 be
       0.13701239 -0.1827271 0.17649993 -0.1344676
0000d0 7c c4 08 be 9a 42 2a be b6 6d 3b be 31 5c ed bd
       -0.13356203 -0.16626969 -0.1830357 -0.1158985
0000e0 f2 dc 1f be 0b e4 21 be 3b 44 43 be ec 31 8d 3d
       -0.15611628 -0.15809648 -0.19068997 0.068942875
0000f0 49 3f 1e be 2e 38 24 be 78 5a 38 3e 4a b9 ba bd
       -0.15453829 -0.16037056 0.18003261 -0.09117372
000100 30 9b 63 3d 91 7a 19 be 32 3a ac bb df cf 04 be
       0.05556792 -0.14988162 -0.005255961 -0.12969922
000110 fd ef 67 3e 29 7a 4a bd 36 64 46 be 5f dc e3 bd
       0.22650142 -0.049432907 -0.19374165 -0.11126017
000120 54 44 28 be 17 93 e0 3d 53 5d a8 bd f3 13 41 3e
       -0.16432315 0.10965555 -0.08220925 0.18855266
000130 b5 d2 2f 3e ec fe 24 3e 24 38 d0 bb bc 1c fc bd
       0.17170222 0.1611287 -0.0063543487 -0.12310168
000140 7d 01 00 3e ca e2 31 3e 56 e7 67 3d 46 99 18 3d
       0.12500568 0.1737167 0.056617104 0.037255548
000150 b8 b7 9b 3d 5c d1 78 bd ba d9 c8 bd 16 03 1c be
       0.07603401 -0.060746536 -0.09807153 -0.15235552
000160 9b 40 70 bd 29 8c 63 bd ff 1a 5a 3e 04 38 a4 3d
       -0.058655363 -0.05555359 0.2129936 0.08018497
000170 d6 6f 81 3c 46 3e 80 bd 33 67 0a be 53 dc 6f 3d
       0.015800398 -0.06261878 -0.1351593 0.058559727
000180 db 7b ad 3b 51 69 18 be 8b d5 b5 bd 4d 60 df 3b
       0.0052943057 -0.14883925 -0.08878621 0.0068169
000190 65 fb e2 3d 27 d6 08 3d 3d e6 18 3e 43 1b d2 bd
       0.11083106 0.033407357 0.14931579 -0.10259106
0001a0 68 70 56 bd 14 4d 3f be e2 e1 e0 bd 4b df e2 3d
       -0.052353293 -0.18681747 -0.10980584 0.11077746
0001b0 a6 80 55 3d f0 e5 b2 bd 7f 4e 02 3e d0 d7 0f 3e
       0.05212464 -0.08735263 0.12725256 0.1404717
0001c0 8b fb 2e 3e bd 25 3e be 2e 1c 52 be 6b 6b c0 bd
       0.17088144 -0.18569084 -0.20518562 -0.09395488
0001d0 33 a9 4e 3d 72 c5 a7 3d bf 81 14 3e 20 21 83 3d
       0.05045433 0.081919566 0.14502619 0.064028025
0001e0 91 ee 35 3e 75 cf 10 3d 4c 85 0e 3e b2 f5 dc bd
       0.17766787 0.035354096 0.13918036 -0.1078905
0001f0 86 d8 06 be 6c fb d0 3b 90 ec 24 be a0 e1 3f 3d
       -0.13168535 0.006377628 -0.16105866 0.046846032
000200 e9 b2 19 3e 91 9a ee bd a0 2b e3 bd 78 f4 9a 3d
       0.15009655 -0.11650575 -0.11092305 0.0756616
000210 83 17 85 bc 67 f6 03 be 22 10 e2 3d 3a a7 2b be
       -0.016246563 -0.12886964 0.11038233 -0.1676301
000220 c2 a7 5b be ec cf 00 be b7 20 41 3e 57 9f 12 be
       -0.21450713 -0.12579316 0.18860136 -0.14318596
000230 17 48 f1 bc be 86 7c 3d d9 73 49 be 6e c1 e8 bd
       -0.02945332 0.061651938 -0.19673099 -0.11365019
000240 4b 2d a4 bd 42 cc 38 3e 15 a7 79 3d 2b 88 a7 3d
       -0.080164514 0.18046668 0.060950357 0.08180269
000250 7a 48 01 3e 92 2b 2b be c9 f0 5c bd b5 3b 05 bd
       0.12625304 -0.1671584 -0.053940568 -0.032527644
000260 64 f1 8a bd f3 af 23 3e 09 b3 2e be c4 2e 17 3e
       -0.06784323 0.15985088 -0.17060484 0.14763933
000270 29 08 b5 bd 2a c1 0d 3e 20 9f 3d bc fb 0b 52 3e
       -0.08839447 0.13843217 -0.011573583 0.20512383
000280 53 4f 16 be 50 e0 a7 bd 6b 26 29 be 45 ad 2a be
       -0.14678697 -0.08197081 -0.16518562 -0.1666766
000290 d8 ca 37 3e 3d f2 52 3e f9 44 11 3e 86 1c 14 be
       0.17948472 0.20600219 0.14186467 -0.14464006
0002a0 ac 74 83 bd 86 34 54 3d 88 64 51 be e6 56 ac 3c
       -0.06418738 0.051807903 -0.20448506 0.02103753
0002b0 66 2b a4 bd 5b 1f 35 3e 46 a5 a2 bd 90 04 b7 bc
       -0.0801609 0.17687742 -0.0794168 -0.022341043
0002c0 e1 e7 a2 3d d5 6b 20 3e 91 5b 46 be 01 dd de 3d
       0.07954384 0.15666135 -0.19370867 0.10881997
0002d0 74 d5 2d 3e 05 2f ee 3d 44 7b a8 bd b4 24 32 be
       0.16975957 0.11630062 -0.08226636 -0.17396814
0002e0 c0 b6 40 3d 3b 07 05 be fb 3d 1f be 85 d2 12 bc
       0.047049284 -0.1299104 -0.15550987 -0.008961325
0002f0 5f 3a fa 3c 26 2a 4c 3d d1 af 0a 3e 41 bc 03 be
       0.030545412 0.049844883 0.13543631 -0.12864782
000300 e0 14 e4 bd 45 77 35 3e f8 cf a2 bd 3d 1f 1a 3e
       -0.11136794 0.17721279 -0.07949823 0.15050979
000310 e7 a6 9b 3d 17 94 b1 bd 4c 12 2e be b5 d7 bf bc
       0.076001935 -0.08670824 -0.16999167 -0.023418287
000320 19 b2 78 3d a9 29 33 be 63 4d 3f be b1 c6 0c be
       0.060716722 -0.17496361 -0.18681864 -0.1374767
000330 93 10 2b bc 64 f1 b3 bd e1 10 f8 3d ed 17 ae 3b
       -0.010440963 -0.08786276 0.121125944 0.005312911
000340 08 d7 3e bd e1 de 81 bd 1a c9 26 3d f2 9a 00 3e
       -0.04659179 -0.06341339 0.04071913 0.12559107
000350 42 6b f7 3c 4a e0 44 be 2c 36 23 3d 98 d0 2f 3e
       0.030202512 -0.19226184 0.039846584 0.17169416
000360 f8 b6 4f be 39 31 a1 3d e8 64 0d be 8c 87 0e 3e
       -0.20284641 0.078707166 -0.13808024 0.13918895
000370 ea b0 5d bc 5c 9e 59 3d 59 61 33 be fa 8a ed 3b
       -0.013530949 0.05312954 -0.17517604 0.0072492333
000380 c3 17 29 3e 93 ae ec bd 2b d2 2f be 7b 38 e5 bd
       0.1651297 -0.11556735 -0.17170016 -0.111924134
000390 41 2f 6d 3e 55 47 13 3e 14 fe c1 3d fb 38 83 bd
       0.23162557 0.1438268 0.0947229 -0.064073525
0003a0 c9 b0 7b 3e c2 f5 2f be a6 53 17 3d 4c 8b 97 3d
       0.24579157 -0.17183593 0.036945008 0.07399616
0003b0 e1 78 cc b8 3a e2 64 3e 9c 5a e6 3d 74 63 37 3d
       -9.7499935e-05 0.22351924 0.11247751 0.04477258
0003c0 83 34 7a 3c e7 0a 15 be 07 45 9a bd 19 64 ab bd
       0.015271309 -0.1455494 -0.07532697 -0.083687015
0003d0 fa 86 1b bd e4 f7 2d be 3d 80 08 3e f7 9f 19 3e
       -0.03797052 -0.16989094 0.13330169 0.15002428
0003e0 7b c3 68 3e c3 53 44 be 30 05 fc bc 81 42 18 3e
       0.2273082 -0.19172578 -0.030764192 0.14869119
0003f0 20 78 b1 3d 87 b1 1b 3e a5 dd 9c 3d 53 27 82 3d
       0.0866549 0.1520444 0.07659463 0.06355157

nnECG.0.bias f4 [128]
000000 0f 82 25 38 e4 4a 54 3c 23 91 1a bb c9 28 6b 3c
       3.9460192e-05 0.012957308 -0.0023585043 0.014352986
000010 80 c3 ee 3b f5 96 ef 3c 4c 52 92 3b 5a 45 06 3c
       0.007286489 0.029246787 0.004465377 0.008195246
000020 24 0b e1 3c ba 0c 96 3c a1 3f 13 3c a4 b0 a6 3c
       0.027471133 0.018316615 0.008987338 0.0203479
000030 e4 e7 88 3b 8e 52 b6 3b 38 37 03 3c 14 13 1c 3c
       0.004178034 0.0055640405 0.008008771 0.009526033
000040 04 3b f4 3b 15 77 bb b9 6c d2 d2 bb a3 86 06 3c
       0.0074533243 -0.00035756142 -0.0064337756 0.008210811
000050 4e c3 f7 3c 81 7c 66 3c d8 2f 1f 3b bc 2b d1 3c
       0.030244496 0.01406777 0.0024289992 0.02553355
000060 2b fc 9a 3a 3c fd ba 3b ba a6 2a 3c a0 d7 71 3b
       0.001182442 0.0057064574 0.010415727 0.0036902204
000070 0b f6 7f 3c 16 d7 33 3c 78 42 84 3c f8 a3 30 3c
       0.015622626 0.010976573 0.016144976 0.010781281
000080 2b 84 ba 3b 62 15 de 3a f5 93 39 bb 0d 26 b0 3c
       0.005692025 0.0016943628 -0.002831695 0.021502519
000090 61 4a cd 3c c3 ff de 3a cd 90 e6 3c b4 31 88 3c
       0.02505988 0.0017013479 0.028145218 0.016625263
0000a0 81 74 5f 3c 79 d3 c9 3b 83 44 87 3c df b3 97 3a
       0.013638617 0.0061592427 0.016512161 0.0011573992
0000b0 98 2e 54 3c 1b fa cb 3b 6a 65 ac 3c 9f b6 76 3c
       0.012950562 0.0062248833 0.021044452 0.015058189
0000c0 11 2d 8f 3c 5c 8d 57 3c 1c 78 0e 3c 51 9d 49 3c
       0.017477544 0.013156261 0.0086956285 0.012305574
0000d0 53 a0 bc 3c b8 75 99 3b af 0d 70 bc e5 0d 95 3c
       0.023025667 0.0046832226 -0.0146517 0.018195102
0000e0 96 53 2f 3c 8e de 57 3a ec 7e af 3b 88 ca b1 ba
       0.010701081 0.00082347624 0.0053557064 -0.0013564387
0000f0 cf a2 48 3c d3 4c bf 3c 4e ac a1 ba e3 9a 9a 3a
       0.012245848 0.023352062 -0.0012334676 0.0011795427
000100 7c 27 3f 3c 0c d7 f1 3b a8 9f bc bb 97 82 cc 3b
       0.011667129 0.007380372 -0.005756337 0.0062411535
000110 e5 9d 02 bb 6c 7e 0b 3d 0d b3 b7 3c 0e 5f 29 3c
       -0.0019930538 0.034056112 0.022424245 0.010337604
000120 eb aa a5 3b 9f ab df 3b 86 05 88 3c f5 05 a1 3c
       0.0050557754 0.0068258788 0.016604196 0.01965616
000130 a8 59 8a 3c f4 89 38 3c e9 4e 50 3c c1 a0 c7 3c
       0.016888455 0.011263359 0.012714126 0.024368646
000140 f9 c9 a1 3c 1d a7 a4 3c 6f 27 7c 3c eb a0 c5 3b
       0.019749628 0.020099217 0.015390261 0.006031146
000150 19 a9 b3 3c 4d 52 80 3c d2 13 85 3b cf 42 94 3c
       0.021931218 0.015664244 0.0040612007 0.018098263
000160 b5 50 7a bb 7b 69 41 3c 69 21 b6 3c c1 42 eb 3b
       -0.0038195078 0.011804934 0.022232728 0.0071795885
000170 c9 2e 32 3c 8e bf ce 3b 62 8c 0f 3c 94 ea 87 3c
       0.010875412 0.006309456 0.008761497 0.016591348
000180 09 30 a0 3b 14 70 27 3c 8c 0d b0 3b ff 09 e8 3a
       0.0048885387 0.010219593 0.0053727087 0.0017703174
000190 36 64 f7 3b ef 15 c4 3c de 14 dc 3c 6f 85 03 3d
       0.007549788 0.02393624 0.026865419 0.032109674
0001a0 54 89 15 3c 87 54 b4 3c 80 13 22 3c 01 c2 dd 3c
       0.00912698 0.022012962 0.0098923445 0.027070047
0001b0 d2 ee eb 3b 59 c6 b2 3b 87 c1 56 3b 8a d2 2a bc
       0.0072001005 0.005455774 0.003276916 -0.010426173
0001c0 8f 07 c1 bb e4 08 b2 3b 26 6c 07 bb 7f 07 e3 bb
       -0.0058907936 0.0054331888 -0.0020663827 -0.006928384
0001d0 7d e9 67 3b bc 60 69 3b d6 ee b9 3c 1f 16 84 3c
       0.0035386973 0.0035610637 0.022696894 0.01612383
0001e0 62 3c 0f 3b d2 a2 a2 3c ec 65 c3 bb 4a 1d 53 3b
       0.002185606 0.01985303 -0.005963078 0.0032213503
0001f0 8f 26 61 3c 6c 2b 6c 3c c0 ff 77 3c 04 3e 22 3c
       0.013742103 0.014414649 0.015136659 0.009902481

nnECG.1.weight f4 [128]
000000 6a 19 80 3f 67 f8 80 3f 6c 9d 7b 3f b9 99 84 3f
       1.0007756 1.0075806 0.9828708 1.0359412
000010 82 30 7d 3f 06 69 87 3f 27 b4 80 3f 3f 18 84 3f
       0.9890214 1.0578926 1.0054978 1.0319899
000020 da 7e 87 3f a4 f1 85 3f d3 7f 7a 3f fc da 81 3f
       1.0585587 1.0464368 0.97851294 1.0144954
000030 74 24 7f 3f 11 8f 83 3f 0f 0e 7d 3f df 6b 84 3f
       0.99665 1.0278035 0.98849577 1.034542
000040 83 25 81 3f 1f 35 80 3f 14 b2 83 3f f8 3a 87 3f
       1.0089573 1.0016211 1.028872 1.0564871
000050 d8 9a 8b 3f 14 0d 81 3f d5 84 7f 3f fc c1 7f 3f
       1.090663 1.0082116 0.9981206 0.9990537
000060 40 1b 7b 3f 20 70 7a 3f b2 7e 80 3f e9 41 80 3f
       0.98088455 0.9782734 1.0038664 1.0020114
000070 36 de 85 3f bb 02 81 3f d2 4e 80 3f 79 b0 82 3f
       1.0458438 1.0078958 1.0024054 1.0210105
000080 2f 55 7c 3f d8 bb 79 3f 2b 63 7a 3f 64 8b 83 3f
       0.9856748 0.9755225 0.9780757 1.0276914
000090 96 61 80 3f fd c3 7b 3f 28 81 87 3f 82 7f 7d 3f
       1.0029781 0.9834593 1.058629 0.99022686
0000a0 a5 c3 81 3f d9 b8 7a 3f 2d 39 82 3f 5f 01 7f 3f
       1.0137831 0.97938305 1.0173699 0.9961147
0000b0 5b 34 85 3f ab 68 7f 3f 90 8c 80 3f f9 5e 80 3f
       1.0406603 0.99769086 1.0042896 1.0028983
0000c0 df c5 85 3f d2 eb 7c 3f 99 ca 83 3f 67 66 80 3f
       1.045101 0.98797333 1.0296203 1.0031251
0000d0 90 d7 85 3f e6 aa 81 3f 9a 04 77 3f 1a e1 84 3f
       1.045641 1.0130279 0.96491396 1.0381196
0000e0 52 38 78 3f df 91 80 3f da 0d 80 3f 5a 85 7c 3f
       0.9696094 1.0044516 1.0004227 0.9864098
0000f0 fa 38 7e 3f 90 66 83 3f 21 83 7b 3f 58 b1 7c 3f
       0.9930569 1.0265675 0.9824696 0.98708105
000100 73 cd 84 3f 50 95 7d 3f e8 ea 7c 3f 92 55 81 3f
       1.0375198 0.9905596 0.9879594 1.0104239
000110 52 aa 78 3f 5e 88 7e 3f 09 e5 7c 3f ee 33 7d 3f
       0.9713489 0.9942683 0.9878698 0.98907363
000120 59 8d 78 3f 32 f1 7d 3f 02 49 87 3f f8 10 83 3f
       0.9709068 0.9919616 1.0569155 1.0239553
000130 03 4e 82 3f d9 38 80 3f d8 f0 7f 3f 53 10 86 3f
       1.0180057 1.0017349 0.99976873 1.0473732
000140 b3 c1 80 3f e4 d3 7d 3f a7 cb 82 3f f2 51 7d 3f
       1.0059112 0.99151444 1.02184 0.98953164
000150 3e 22 85 3f a2 60 7e 3f 6d a7 7f 3f c1 8d 7f 3f
       1.0401075 0.993662 0.99864846 0.99825674
000160 3e 39 7b 3f 3d d7 7c 3f 41 46 80 3f 03 19 7d 3f
       0.9813422 0.9876593 1.002144 0.9886629
000170 72 60 86 3f dc ff 81 3f d6 2e 80 3f d5 94 88 3f
       1.0498183 1.0156207 1.0014293 1.067042
000180 f0 bb 86 3f 39 8f 81 3f 90 44 81 3f c7 ed 7e 3f
       1.0526104 1.0121833 1.0099049 0.9958157
000190 32 9d 82 3f 6c e3 86 3f 92 20 83 3f fa 5e 83 3f
       1.0204222 1.0538154 1.0244315 1.026336
0001a0 e2 b0 75 3f 39 0e 7e 3f 16 f4 7d 3f 6c ef 87 3f
       0.95973027 0.9924045 0.9920057 1.0619941
0001b0 77 7b 7c 3f b8 aa 7e 3f 31 24 7f 3f 05 69 78 3f
       0.9862589 0.99479246 0.996646 0.9703525
0001c0 92 81 81 3f 8d 0b 7c 3f e4 af 7f 3f 3e 2b 7b 3f
       1.0117667 0.98455125 0.9987776 0.9811286
0001d0 c7 1a 80 3f c7 de 7e 3f 00 ab 85 3f 0a 07 7f 3f
       1.0008172 0.9955868 1.044281 0.99620116
0001e0 02 d6 7b 3f f1 1c 82 3f 22 e7 80 3f 4a ad 80 3f
       0.98373425 1.0165082 1.0070536 1.0052884
0001f0 6f d7 81 3f 26 9b 80 3f 94 69 82 3f cd 23 83 3f
       1.014387 1.0047348 1.018847 1.02453

nnECG.1.bias f4 [128]
000000 4d 6d 98 3a 98 1f b6 3b e4 3d 49 bc b0 03 5a 3c
       0.0011629254 0.0055579655 -0.012282822 0.013306543
000010 ff e0 82 3a 7a 39 95 3c b6 46 af bb 6e 5a 0d 3b
       0.0009985267 0.018215884 -0.0053490056 0.0021568793
000020 76 01 9f 3c 83 d7 3d 3c 27 3e 1d bc 17 8c 84 3b
       0.019409876 0.0115870265 -0.009597338 0.0040450203
000030 21 b4 b4 3b 10 23 05 bc f6 45 2c ba 3b e3 de 3b
       0.005514637 -0.008126035 -0.0006571704 0.0068019903
000040 a7 2d e9 b8 ca 80 22 bc 61 0f b6 bb 69 b3 0b 3c
       -0.00011118809 -0.009918401 -0.0055560325 0.008526661
000050 86 64 ea 3c 67 90 f8 3b 8f 83 42 3a 46 32 25 3c
       0.028612386 0.0075855735 0.00074201165 0.010082787
000060 74 69 78 ba 8c 1e 25 bb 37 ac 19 3c ed 8d 5b b9
       -0.0009476163 -0.002519521 0.009379438 -0.00020938339
000070 85 16 09 3c 33 61 f6 3b ea d0 9a 3b 3a 16 15 bb
       0.0083671855 0.0075189113 0.0047246115 -0.0022748844
000080 7a c9 da bb 33 3b 8a 3a b6 31 99 bb 4d fd 18 3c
       -0.00667685 0.0010546207 -0.0046751155 0.009337735
000090 15 24 43 3c 63 9a 3e bc ee 73 d5 3c 16 f2 2e 39
       0.011910458 -0.011633488 0.026056256 0.00016684117
0000a0 d3 87 25 bb 83 7f df bb fb 7f 62 3b ac 4b 30 bc
       -0.002525796 -0.0068206205 0.0034561146 -0.010760229
0000b0 dd 31 ac 3b 2f 58 43 bb 3a f5 17 3c a3 86 2a 3c
       0.0052549676 -0.00298072 0.009274775 0.010408076
0000c0 cc 0e 7d 3c 25 e9 79 ba c3 b8 80 bb 95 dc 6b 3c
       0.015445422 -0.00095333374 -0.0039282753 0.014395853
0000d0 0b bd 1a b9 0d d3 83 b9 66 e7 a3 bc ec 9a 0d 3c
       -0.00014757008 -0.00025143512 -0.0200078 0.008642893
0000e0 10 72 d1 bb fa 60 99 bb 7e 95 7f bc a0 d3 23 bc
       -0.006391771 -0.00468075 -0.015599607 -0.009999186
0000f0 0d cd 9a 3b f9 53 ee 3b 6b 06 8f bb 26 63 59 bc
       0.004724151 0.007273194 -0.0043647788 -0.013268268
000100 1e 05 4b b9 f0 a9 8d bb 0a ba c5 bb 5b 05 fa 3a
       -0.00019361495 -0.0043232366 -0.0060341405 0.0019075082
000110 19 2c 36 bc b8 8d d9 3b 5d 75 a5 3b 54 30 8f 3a
       -0.011118912 0.0066392086 0.005049391 0.0010924437
000120 03 6e 53 bb aa 9e 20 b9 2c 04 9c 3b a6 1f 87 3b
       -0.0032261617 -0.00015317896 0.0047612395 0.004123646
000130 44 50 04 3b ca 13 1c bc ce 10 31 bc 0d 0d af 3c
       0.0020189444 -0.009526202 -0.010807229 0.021368528
000140 3a ed 87 3b f0 2d 92 3c 0a 7b 1b bb 30 ca 65 bc
       0.0041481527 0.01784417 -0.002372446 -0.014025256
000150 91 33 81 3c fa 02 fe 3b e3 c9 8c bb 3b 06 e8 3b
       0.01577166 0.0077518197 -0.0042965277 0.007080821
000160 ba 84 44 bc 2f 73 cb 3a 49 a2 1c 3c ac f2 6d 3b
       -0.011994535 0.0015521998 0.009560176 0.0036307974
000170 90 32 39 3b e8 7a 4f bb 62 2b 1c ba 54 95 cd 3a
       0.0028258897 -0.0031658951 -0.0005957392 0.0015684762
000180 d8 49 5d 3b 5c 19 3b 3c 73 6c 87 ba 2f 1b 6f bb
       0.0033765938 0.01141962 -0.0010332003 -0.0036484709
000190 f7 3b c2 3b 6c cf a6 3c d2 80 75 3c e8 94 bb 3c
       0.0059275585 0.020362578 0.014984326 0.022898152
0001a0 00 5d 0d bc 15 47 e2 3b 8a e1 14 bc ce 43 ac 3c
       -0.00862813 0.0069054463 -0.009086976 0.021028426
0001b0 bb a0 db ba d8 43 a9 3b 22 78 11 bb a1 87 0d bd
       -0.0016756275 0.0051655583 -0.002219685 -0.034553174
0001c0 51 c1 15 bc 4c 98 89 ba 2c 65 1d bc cb 85 76 bc
       -0.0091403285 -0.0010497659 -0.009606641 -0.015046547
0001d0 a0 86 8b bc 53 c1 ca bb 19 f7 3b 3c 8c 56 f9 ba
       -0.017031968 -0.006187597 0.011472487 -0.0019022985
0001e0 f1 40 60 bc 75 69 e8 3a 1a 70 ae bb 51 d1 3f bb
       -0.013687358 0.0017731624 -0.005323422 -0.002926905
0001f0 b6 6e 32 3c 84 e9 53 3c 25 1d 03 3c 03 3b 3e 3b
       0.010890653 0.012934092 0.008002554 0.0029026873

nnECG.1.running_mean f4 [128]
000000 88 ff 8c bd 68 33 8d 3e e5 31 42 3e 02 ca 85 3d
       -0.06884676 0.27578282 0.18964346 0.065326706
000010 ed 23 20 bf 40 e6 c4 be 4c 40 71 3e 63 ef 14 3d
       -0.6255482 -0.38456917 0.23559684 0.03636111
000020 0b 4a a1 be 2e eb 74 bd 9b 20 8a 3d ab 75 e4 bd
       -0.31501803 -0.059794597 0.067445 -0.11155256
000030 6d 07 58 be 3b 79 32 3e 44 cd 30 bd 30 07 ba 3d
       -0.21096583 0.17429058 -0.043164507 0.09083402
000040 43 37 0a bf 23 70 9f 3c 00 de cb be c4 1e f3 3e
       -0.5399057 0.01946265 -0.3981781 0.4748441
000050 7a 27 cd 3c 10 8c 98 3e e6 f3 57 be 7b ed 77 be
       0.025043238 0.2979436 -0.21089134 -0.24211685
000060 42 bd 52 bd 40 15 a4 bd 2f 53 5f 3e e7 00 25 be
       -0.05145002 -0.080118656 0.21809076 -0.16113625
000070 fb a7 e1 3d 6b 04 1b 3f 26 1a 9d be 48 e0 0c bf
       0.11018368 0.60553616 -0.30684012 -0.55029726
000080 a9 24 76 3e 0e fb 5f be bf 5a 3e be 89 a0 6f be
       0.24037422 -0.21873114 -0.18589304 -0.23401083
000090 40 2c 9d be d9 1b 9d 3e e8 e3 eb be 64 fb 42 3e
       -0.30697823 0.3068531 -0.46072316 0.1904121
0000a0 6f d4 9d be 1e 1e 0f be af 92 1e 3e 50 79 37 bd
       -0.30826136 -0.13976333 0.15485643 -0.044793427
0000b0 ad 4d cb 3e 51 50 ca be d4 80 cd 3e 99 4e d8 3c
       0.397077 -0.39514402 0.4013735 0.026404666
0000c0 48 fb 2c be a8 b1 6e 3d 6e 13 4c be 43 27 7c be
       -0.16892731 0.058274895 -0.19929287 -0.24624352
0000d0 d5 75 c8 bb 41 fe d1 3d bc 2a f3 3e 02 82 84 3d
       -0.0061175623 0.10253573 0.4749354 0.064701095
0000e0 f1 97 49 be 11 36 e0 be 98 7f 49 bc 1b 82 0e bd
       -0.19686867 -0.4379125 -0.012298487 -0.034792047
0000f0 9d d1 82 3e b6 21 d5 bd e7 9c 98 be 88 29 dc 3b
       0.25550547 -0.104068205 -0.29807207 0.006718818
000100 b4 88 59 3e b7 00 fe bc 24 2d 04 3f 66 37 da be
       0.21243554 -0.0310062 0.5163138 -0.4262039
000110 53 82 17 be 49 43 05 be d1 d1 a9 3e 8e f0 a1 3e
       -0.14795808 -0.13013949 0.3316789 0.3162884
000120 83 17 ac 3d e1 73 03 3f d3 52 35 3e 63 b3 a7 3e
       0.08402922 0.5134869 0.17707376 0.3275405
000130 e3 64 f6 3d f6 17 2f 3e a9 6a 19 3d 0e 73 71 3e
       0.12030961 0.17098984 0.037455235 0.23579046
000140 50 df d7 3d 63 89 a5 be 60 d7 c8 bc 81 c4 92 3c
       0.1054064 -0.3233138 -0.024516761 0.017915966
000150 99 aa 39 be 3f 2b 64 3c 9b 00 c4 3e 16 c2 00 be
       -0.18131484 0.013926326 0.38281712 -0.12574038
000160 f2 37 e0 3e a1 5a 95 3e 2f 49 40 3d 9a 6e ee 3d
       0.43792683 0.29170707 0.046944793 0.11642189
000170 75 a3 22 3e e4 79 5e be 36 2c 34 3d 14 9a 5d be
       0.15882666 -0.21726185 0.043987475 -0.21640807
000180 c1 83 05 3e 8f f1 0b be aa f5 2e be 2c 30 ae 3d
       0.13038541 -0.13666366 -0.17085901 0.08505282
000190 b3 8b 42 be 53 59 55 bd ef 08 44 3d 2f d9 92 be
       -0.18998604 -0.05208714 0.047860082 -0.28681323
0001a0 8e ed 5b be 90 a3 68 3d d5 21 19 bf ec e7 fa bd
       -0.21477339 0.05679661 -0.5981725 -0.12251267
0001b0 b4 1b ff be a5 98 50 bd 9e 46 96 3c d3 5c 0f bf
       -0.49825823 -0.050926823 0.01834422 -0.56001014
0001c0 99 87 03 3f e4 d6 30 3e 22 07 24 3f ec d4 51 3e
       0.5137878 0.17269474 0.64073384 0.2049138
0001d0 cf dc 12 3e 79 4c cf 3e 6d 99 4b be 70 f3 b1 be
       0.14342044 0.40488032 -0.19882746 -0.3475604
0001e0 06 43 ed bd a1 0f 53 3d 69 ff dd be a6 c3 18 3f
       -0.11585049 0.051528577 -0.43358925 0.59673536
0001f0 63 0f df be e6 ac 2e be d0 51 a1 be 50 18 b6 3e
       -0.43566427 -0.17058143 -0.3150773 0.35565424

nnECG.1.running_var f4 [128]
000000 93 1a 99 3d 5b d7 9d 3d 3a 1b 94 3d b2 2b 98 3d
       0.07475772 0.077070914 0.072317556 0.07430209
000010 15 b8 97 3d cc d6 9f 3d 2c ca 94 3d cc 6a 94 3d
       0.07408158 0.07804641 0.07265124 0.072469324
000020 10 8e 98 3d d6 be 9b 3d fd 2f 9a 3d 72 77 98 3d
       0.07448971 0.076047584 0.07528684 0.074446574
000030 8f 3e 95 3d 14 72 99 3d 9b 2a 94 3d fb 8f 9e 3d
       0.07287323 0.07492462 0.07234689 0.07742306
000040 8f 42 96 3d 12 7b 96 3d 88 26 97 3d c3 40 9b 3d
       0.07336914 0.073476925 0.07380396 0.07580712
000050 7b 1c 97 3d ce 86 98 3d 3e f3 99 3d 6e c2 94 3d
       0.07378479 0.07447587 0.07517098 0.07263647
000060 22 ff 96 3d cf b0 99 3d f1 6b 96 3d 69 3d 9e 3d
       0.073728815 0.07504427 0.07344807 0.07726557
000070 4a db 99 3d fe 6b 93 3d b1 58 95 3d 9f f0 9a 3d
       0.07512529 0.07198332 0.07292307 0.07565426
000080 71 97 a0 3d 18 cc 97 3d 76 7e 98 3d c5 32 98 3d
       0.07841385 0.07411975 0.074459955 0.074315585
000090 ba 7e 94 3d 51 41 96 3d c1 d8 ad 3d a4 ec 94 3d
       0.07250734 0.07336677 0.08488608 0.07271698
0000a0 34 50 99 3d 82 a1 95 3d 2f 86 9f 3d 30 8e 95 3d
       0.07486001 0.07306196 0.07789265 0.07302511
0000b0 a3 46 a0 3d 44 f2 9a 3d d1 bd 94 3d 1c ed 96 3d
       0.07825973 0.0756574 0.07262767 0.07369444
0000c0 d1 98 96 3d a6 cc 96 3d b1 30 9b 3d 0b 13 95 3d
       0.07353366 0.07363252 0.075776465 0.07279023
0000d0 6b 02 98 3d 4e a3 97 3d 86 da 94 3d 18 47 9f 3d
       0.07422336 0.07404195 0.072682425 0.07777232
0000e0 62 ec 93 3d 3b d6 94 3d 0c 18 98 3d d9 5d 9b 3d
       0.07222821 0.07267424 0.074264616 0.075862594
0000f0 7d d8 95 3d cb 1b a0 3d a9 ef 9c 3d fb 8f 94 3d
       0.073166825 0.07817801 0.07662899 0.072540246
000100 30 8d 96 3d 18 b3 96 3d 81 a0 95 3d 67 62 95 3d
       0.07351148 0.07358378 0.07306004 0.072941594
000110 fd e3 96 3d 3d 93 97 3d e5 cc 95 3d 6a 78 95 3d
       0.07367704 0.0740113 0.07314471 0.07298358
000120 03 76 96 3d c0 de 96 3d e7 de 96 3d 9f 26 9d 3d
       0.07346728 0.07366705 0.07366734 0.07673382
000130 14 88 95 3d d5 4d 98 3d d6 dc 9c 3d b5 09 99 3d
       0.073013455 0.0743672 0.076593086 0.074725546
000140 70 14 99 3d 32 12 96 3d 81 7a 96 3d ea e0 9d 3d
       0.07474601 0.07327689 0.073475845 0.077089146
000150 a4 d1 97 3d 64 b2 94 3d f9 d2 94 3d 73 a7 94 3d
       0.07413033 0.07260588 0.07266802 0.07258501
000160 4a 24 96 3d 38 62 96 3d f2 1d 94 3d a5 aa 94 3d
       0.0733114 0.073429525 0.07232274 0.0725911
000170 16 be a3 3d 7d 47 9b 3d 52 59 98 3d dd 98 9c 3d
       0.079952404 0.07581995 0.074389115 0.07646344
000180 b5 22 96 3d 26 9e 95 3d 62 fe 9d 3d 5d 6b a3 3d
       0.073308386 0.07305555 0.07714535 0.07979462
000190 21 19 95 3d 72 aa 96 3d 99 0a 97 3d 78 18 9d 3d
       0.072801836 0.073567286 0.07375068 0.07670683
0001a0 46 59 96 3d b4 ef 94 3d 62 96 9f 3d aa 98 96 3d
       0.07341246 0.07272282 0.07792355 0.07353337
0001b0 d3 ec 93 3d 7e 3c 94 3d 41 d4 95 3d 98 0f 9e 3d
       0.07222905 0.072381005 0.07315875 0.07717818
0001c0 a3 2f 96 3d f1 2d 96 3d ec ba 97 3d a8 b7 95 3d
       0.07333305 0.073329814 0.074086994 0.0731042
0001d0 5e 84 9b 3d 0b e8 99 3d 00 c4 9c 3d ac cc 95 3d
       0.075936064 0.07514962 0.076545715 0.07314429
0001e0 15 15 99 3d 6a d3 98 3d 8a 95 95 3d ab 04 95 3d
       0.07474724 0.07462199 0.07303913 0.07276281
0001f0 a9 b0 96 3d 3e 57 97 3d 15 86 94 3d 5b 7e a7 3d
       0.07357914 0.07389687 0.072521366 0.08178397

nnECG.4.weight f4 [64, 128]
000000 7f f5 2d be 83 f2 26 3d f7 08 06 bc 5d 90 1e 3e
       -0.1698818 0.04075862 -0.008180848 0.15484758
000010 34 5e 7a 3d 9d 4e 1f bd e0 27 01 3d 76 4e b1 3d
       0.061124995 -0.03889333 0.03153217 0.08657543
000020 9a c6 aa 3d d1 ff 26 be 0b 46 61 3d 0d 71 d1 bd
       0.083386615 -0.16308524 0.05499844 -0.10226641
000030 6e 05 ca 3d a6 70 fd 3d e4 0d 2d 3e 48 66 17 3c
       0.09864317 0.123750016 0.1689983 0.009240694
000040 00 e9 cd 3b 87 71 1e be fa 32 c4 3d 4a a7 00 3e
       0.0062838793 -0.15472995 0.095800355 0.12563816
000050 3a 18 18 be 17 35 24 3d 1d 88 36 3e 60 34 2c bd
       -0.14852992 0.040089693 0.1782536 -0.042042136
000060 80 40 35 3e ba 84 1f 3e 7f e3 ee bd 22 6d 93 bd
       0.17700386 0.15577975 -0.11664485 -0.0719855
000070 fc 9e 21 3e 43 11 9d 3d be 7b 14 be dc 00 1b 3e
       0.15783304 0.07669308 -0.14500329 0.15137047
000080 96 2e 27 bc d1 c1 09 be fd 12 09 be c7 48 61 bd
       -0.010203978 -0.13452841 -0.1338615 -0.055001047
000090 ab 0b 49 bc 37 31 6d bd 28 fb d7 bd ff ef 96 3c
       -0.012270848 -0.057908263 -0.10545951 0.018424986
0000a0 51 c1 03 be b2 36 c1 3b ff e6 90 3d e7 4d 2d 3d
       -0.12866713 0.005896413 0.07075309 0.04231062
0000b0 6e 17 cd bd 0a 55 04 3e 4e 79 bf bd 15 42 ae 3d
       -0.100142345 0.12923065 -0.09349309 0.08508698
0000c0 6e bd d1 bb 77 bb 24 3e e2 18 d2 bd 80 ed 82 bd
       -0.0064007556 0.16087137 -0.10258652 -0.06392956
0000d0 51 bf b1 bd 85 11 16 bd 7f 82 07 3c 36 40 85 bd
       -0.08679069 -0.0366378 0.008270859 -0.06506388
0000e0 af 15 a3 bd 60 8f 04 3d 89 9b 04 3e 5a 51 c6 bd
       -0.0796312 0.032363296 0.12949957 -0.09683485
0000f0 23 df d6 3c ea 3e 0c 3e 6d 73 2f be b1 86 30 3e
       0.026229447 0.13695875 -0.17133875 0.1723888
000100 18 c6 c7 bd 92 30 23 3e 83 ba a6 3d 43 ef 24 be
       -0.0975458 0.15936497 0.08141043 -0.16106896
000110 8d 56 19 3e bc b9 b9 3d 28 10 02 3e ca 69 22 ba
       0.14974423 0.09068629 0.12701476 -0.00061955734
000120 8f 64 b1 bd c0 b8 2f be 51 0c 1d 3e bc b6 06 bd
       -0.08661758 -0.1716032 0.1533673 -0.032889113
000130 97 40 f8 bd 4b 8a 0e bd 81 99 09 be b5 25 1a be
       -0.121216945 -0.034799855 -0.13437463 -0.15053447
000140 2e ae 0a 3e 91 d5 f5 3d 1e b0 c1 bc bf 2c 33 3e
       0.13543007 0.12003625 -0.02364355 0.17497538
000150 50 40 23 3e 85 49 28 bd 11 a0 eb bd 8b cf 32 3e
       0.15942502 -0.04108574 -0.115051396 0.17461984
000160 82 f8 bf 3d 73 f9 fb 3d 75 d0 eb 3c f7 0c 15 be
       0.09373571 0.12303438 0.028785923 -0.14555727
000170 6b b0 25 be fc 3b 21 3e 3b 7d e4 bd 3e dc fb 3d
       -0.1618058 0.15745538 -0.11156698 0.12297867
000180 5c 78 00 bd 94 10 14 3e 42 d2 98 bd e9 41 8a 3d
       -0.031364784 0.14459449 -0.074619785 0.067508526
000190 1f 2e 39 bd 05 92 04 bd 0a 92 0b 3e 32 f6 ba bc
       -0.04521 -0.032365818 0.13629928 -0.022822473
0001a0 f6 c5 03 3e ae 09 52 bc 91 71 1a be 16 e8 12 3e
       0.12868485 -0.012819691 -0.15082385 0.14346346
0001b0 85 2e e9 bd 80 fe 4d bd 97 8c 8e 3b ac 38 f8 3d
       -0.11385826 -0.05029154 0.0043502557 0.12120184
0001c0 6d 7c 27 bc ff 6a f5 3c ce d6 24 be c5 32 78 3d
       -0.0102225365 0.029958246 -0.16097566 0.060595293
0001d0 d7 c0 00 3e 66 f3 28 be a8 65 14 be 70 ea d0 3d
       0.12573563 -0.16499099 -0.14491904 0.102009654
0001e0 e9 88 d1 3d 21 07 ec 3d 66 cd 17 3e 6a 93 01 3e
       0.10231192 0.11524797 0.14824447 0.1265389
0001f0 04 93 bb 3c 70 20 fe 3d 59 13 df 3d 18 cc 29 bd
       0.022897251 0.12408531 0.10892362 -0.041454405
000200 c2 fb 0e 3e 83 2d 1b 3d ac 27 f9 bb 69 cd 08 3e
       0.13963225 0.0378852 -0.007603606 0.13359608
000210 cb 0d 19 3e ea 66 59 be 81 50 24 bd a3 d2 0c 3d
       0.14946668 -0.21230665 -0.040115837 0.034380566
000220 2a f5 4b 3d ae 9c 79 3d 45 41 ca 3d 28 1c 2f be
       0.049794354 0.060940437 0.098757304 -0.17100585
000230 7c cc 1c bd 96 95 d7 3d 95 72 40 3d 2a e1 35 bc
       -0.03828095 0.10526578 0.046984274 -0.011101047
000240 c7 60 5a be 15 1f 0b be 03 3c 37 be e9 bf d4 3d
       -0.2132598 -0.13586076 -0.17893986 0.103881665
000250 2c 51 1a bd be 18 1f be 4d 32 08 be 35 5a 0a 3e
       -0.037675068 -0.15536782 -0.13300438 0.13510974
000260 32 f5 e3 3d 14 83 db bd be 8d fc bd e0 af 4b 3e
       0.11130752 -0.107183605 -0.12331723 0.1989131
000270 ce de 59 be 70 0e fd 3d 4a 37 aa bd ca ef 28 3e
       -0.212764 0.12356269 -0.08311327 0.16497722
000280 34 33 bf 3d 15 0c 38 be eb e2 5c be d6 cf 12 3d
       0.09335938 -0.17973359 -0.21570937 0.03584274
000290 2f 59 bb 3d b2 a8 aa bd 68 0b a5 bd 34 e3 5c 3d
       0.0914787 -0.08332957 -0.08058816 0.053927615
0002a0 4a b1 3b be 03 be 84 3c c4 bb 75 bc ec 27 ab bd
       -0.18329349 0.016203886 -0.01499838 -0.08357224
0002b0 3b 94 4f 3e 37 4d ae 3d a3 d0 ad 3d 8b 7d c5 3c
       0.20271389 0.08510821 0.0848706 0.024107715
0002c0 95 49 d0 3d 46 aa ed 3d 75 b7 0a 39 41 12 b0 bc
       0.10170285 0.11604743 0.00013229049 -0.02149308
0002d0 45 77 d4 3d 89 04 c2 bc 99 af 85 bc ac 1e 03 3e
       0.10374311 -0.023683803 -0.016319083 0.12804669
0002e0 4b f9 8f 3d 2a d9 82 bd 6f 4f e2 bd 7d c8 31 bd
       0.07029971 -0.06389077 -0.11050307 -0.04340409
0002f0 5e 98 e1 3d f6 4f 19 be 04 76 54 be 40 d8 9b bd
       0.1101539 -0.14971909 -0.20748144 -0.07609606
000300 cb 73 19 3d 53 41 63 3e 64 3a 61 3c 85 38 90 3b
       0.037463944 0.22192888 0.013746832 0.004401269
000310 df 3a 84 3d 02 03 45 be fd c4 de 3d a8 87 c0 3d
       0.06456541 -0.19239429 0.10877416 0.094008744
000320 30 ab c6 3d 09 be 7c bd 31 56 9f 3c eb 42 68 bd
       0.0970062 -0.06170467 0.019450279 -0.056704443
000330 89 70 71 3d e7 64 98 bd 56 69 69 3e 5e 28 2c be
       0.058945213 -0.074411206 0.22794089 -0.16812274
000340 5e 1f 12 bd b2 c0 fd bd 89 62 bf 3d 4d 49 36 be
       -0.035674445 -0.12390269 0.09344966 -0.178014
000350 ae ca 59 3c 52 11 bc 3d eb 65 91 3d fd 10 3c 3e
       0.0132929515 0.09182991 0.070995174 0.18365856
000360 0c cf 01 3e 07 6c 00 bd d3 d7 1c 3c fc 16 97 3d
       0.12676638 -0.031353023 0.009572941 0.07377431
000370 67 b6 52 be 4f d8 21 be c0 5c ad 3d 64 4a 49 be
       -0.20577393 -0.15805171 0.08464956 -0.19657284
000380 9c f7 86 3d 45 3c a5 bc 38 57 bf 3c 39 c3 97 3d
       0.065901965 -0.02017034 0.023357019 0.07410283
000390 ac 95 be bd 14 4d 85 3d 93 9d 45 3e 66 8e 2f be
       -0.093058914 0.06508842 0.19298391 -0.17144164
0003a0 f9 37 95 3c 93 dc 15 3e c3 6e 8b 3d 88 2a 12 be
       0.018215166 0.14634924 0.068082355 -0.14274037
0003b0 05 71 1d bb f0 b6 cd 3d 93 31 24 3d 7f 88 48 bd
       -0.0024023664 0.10044658 0.04008634 -0.048958298
0003c0 e8 90 a8 bd ec 98 75 3c b7 d4 4f 3e 52 2f e1 3d
       -0.08230764 0.014990073 0.20295988 0.10995354
0003d0 02 c7 f9 bd f3 f2 2c 3d 4b c1 34 3e 49 c7 32 3e
       -0.12196161 0.042223882 0.1765186 0.17458834
0003e0 6a 1d a4 bd 22 3c 1a 3e bf 7b 78 bc d2 fc 09 be
       -0.08013423 0.15062001 -0.015166222 -0.1347535
0003f0 98 c1 3c bc 5a f6 eb bc b6 51 5d 3d 7b 07 c8 38
       -0.011520766 -0.028803993 0.054033004 9.5381365e-05

nnECG.4.bias f4 [64]
000000 65 a7 31 3c d5 31 f9 3c 89 ae 80 bb ca 71 94 3c
       0.010843133 0.03041927 -0.003927056 0.018120665
000010 8d b4 7f 3c 2c 03 7d 3c 9d 97 f2 3a 4e 91 b5 3c
       0.0156070115 0.015442651 0.0018508319 0.022164013
000020 b3 14 d5 bb a5 15 e6 bb e2 f9 e1 bc 0e 7a 49 3c
       -0.0065027117 -0.007021623 -0.027584974 0.0122971665
000030 40 e9 9c 3c 5c a1 8f 3c 9b ea a4 3c 16 ee 4c ba
       0.019154191 0.017532997 0.0201314 -0.000781746
000040 93 fc 6e 3c 66 a1 c1 3c 13 ec ce 3b 6f 9f a2 ba
       0.014586586 0.023636531 0.0063147633 -0.0012407134
000050 5e 07 a0 3c 46 99 3b 3c 1b 8f c2 3a 9c 69 08 3d
       0.019534763 0.011450117 0.0014843674 0.033303842
000060 5c b5 ce 3c 1e 68 92 3c c3 17 b0 3b 96 b1 e6 3b
       0.025232963 0.017871913 0.0053739264 0.007040213
000070 e7 c4 38 3c 3b 0a ad 3c 98 d0 e2 3c d5 06 84 bc
       0.011277414 0.021123042 0.027687356 -0.016116539
000080 12 ae 1c bc 31 08 de 3c 22 ed 85 3b 34 3f cb 3b
       -0.009562986 0.027103515 0.0040871063 0.0062026028
000090 90 ef 1f 3d 09 c5 e1 3c ba bc d2 3c ac 57 77 3c
       0.039046824 0.027559774 0.025724757 0.015096586
0000a0 dc 88 93 3c 47 ea 10 bc 01 47 f8 3c 7c 72 75 3c
       0.018009596 -0.008844919 0.030307295 0.0149809085
0000b0 d7 2c 42 bc 8d 20 b1 bb cd a7 48 3c ca 48 d0 bb
       -0.011851511 -0.0054054917 0.012247038 -0.0063563334
0000c0 ce 8c e5 3c 58 95 96 ba 9c b3 ec 3c f0 f0 b1 3c
       0.028021242 -0.00114886 0.028894238 0.021721333
0000d0 3d b6 1d 3c 83 38 0d 3b 05 6c f9 3b fc a0 8b 3b
       0.0096259685 0.0021548576 0.007611754 0.004261134
0000e0 fa 41 06 bc 4b a2 0b 3c 76 0b 19 3c f6 59 23 3b
       -0.008194441 0.00852258 0.009341111 0.0024925447
0000f0 35 19 35 3c 3e f9 9b 3c 30 7e d4 3b 1f cc 3d 3c
       0.011053373 0.019039746 0.0064847693 0.011584311

nnECG.5.weight f4 [64]
000000 68 07 80 3f e4 73 8b 3f 54 7e 7f 3f c3 e6 82 3f
       1.000226 1.0894742 0.99802136 1.0226673
000010 7f b9 84 3f f7 b3 7f 3f 3a d1 7d 3f 7d 19 84 3f
       1.0369109 0.9988398 0.9914738 1.0320278
000020 de 09 82 3f c1 f0 82 3f c4 b3 82 3f 69 49 82 3f
       1.0159261 1.0229722 1.021111 1.0178653
000030 fe bc 7f 3f 42 12 7f 3f 74 0b 88 3f 05 76 7d 3f
       0.99897754 0.99637234 1.0628495 0.9900821
000040 ce 92 81 3f f4 f6 84 3f 73 18 83 3f 2b 7b 7e 3f
       1.0122926 1.0387864 1.0241836 0.9940669
000050 ce fd 80 3f 42 a9 78 3f 49 9e 82 3f 66 4c 80 3f
       1.0077455 0.97133267 1.0204555 1.0023315
000060 2b 2e 89 3f b3 0d 83 3f 12 ae 7d 3f 76 01 82 3f
       1.0717214 1.0238556 0.99093735 1.0156696
000070 2c a1 80 3f 92 02 87 3f 92 13 83 3f 9c 3d 7d 3f
       1.0049186 1.0547659 1.0240347 0.98922133
000080 f8 47 80 3f 30 ee 81 3f a9 7d 82 3f 6c 8a 77 3f
       1.0021963 1.0150814 1.0194598 0.9669559
000090 a9 c8 80 3f 97 77 78 3f 27 9e 85 3f 1a 36 86 3f
       1.0061237 0.9705748 1.0438889 1.048526
0000a0 b6 64 82 3f f0 d0 7b 3f 4f ea 87 3f 4b ea 80 3f
       1.0186985 0.9836569 1.061838 1.00715
0000b0 a4 a0 7c 3f 4c 08 80 3f e5 b6 7c 3f 58 da 82 3f
       0.9868262 1.0002532 0.98716575 1.0222883
0000c0 08 98 81 3f e1 0d 7e 3f 67 b9 7e 3f 51 3d 83 3f
       1.0124521 0.9923993 0.9950165 1.0253087
0000d0 c7 a1 7b 3f 1d c3 7e 3f bb c2 7b 3f 79 47 7c 3f
       0.9829373 0.9951647 0.9834401 0.9854656
0000e0 9e 37 7b 3f ce 11 81 3f a7 af 84 3f 46 64 7c 3f
       0.9813174 1.0083559 1.0366105 0.98590505
0000f0 b8 10 84 3f f7 99 87 3f 72 c6 83 3f fa 5a 82 3f
       1.0317602 1.0593861 1.0294936 1.0184014

nnECG.5.bias f4 [64]
000000 d3 c2 2d bc 7b 41 9d 3c 3a d4 35 bc d7 48 08 3c
       -0.010605532 0.019196263 -0.011097962 0.008318148
000010 1a 65 ec 3b 0f a3 40 3c 0c 60 47 bc 15 67 3b 3c
       0.0072142007 0.011757626 -0.012168895 0.011438151
000020 31 32 98 bc 11 be 3b bc 00 62 23 bd da c4 cc 3b
       -0.01857862 -0.01145889 -0.039888382 0.0062490525
000030 0f b9 84 3a 4b cd 47 bc 2c c6 16 3c ae 2d e3 bc
       0.0010125953 -0.012194942 0.009202521 -0.027731743
000040 3e 79 cf 3b 49 b8 f9 3c 04 4a 22 3b 98 ce 2c bc
       0.006331592 0.030483382 0.0024763355 -0.010547303
000050 38 10 1f 3c 68 0b 48 bc 68 28 9e bb 3e c2 cf 3c
       0.009708457 -0.012209751 -0.004826594 0.025361177
000060 26 04 3e 3c b1 ce 2c 3c 62 ff 9e 3a a1 85 e9 bb
       0.011597669 0.010547326 0.0012130553 -0.0071265255
000070 e4 1e 63 3c 04 e1 3b bb e4 87 bb 3c 5a 98 f1 bc
       0.013862345 -0.0028668055 0.022891946 -0.029491592
000080 52 48 7a bc 3d 3a dc 3c f7 22 4d bc 53 41 a0 bc
       -0.015276032 0.026883239 -0.012520543 -0.019562399
000090 e2 b5 e1 3c 00 43 60 3b 8f a5 bb 3b a4 21 0e 3c
       0.027552549 0.0034219623 0.005726523 0.008675013
0000a0 10 4b fa 3b f3 93 c3 bc cf b6 a9 3c 8a c8 b5 3a
       0.0076383427 -0.023874259 0.020717053 0.0013868969
0000b0 26 39 96 bc 60 56 b8 bb 52 c0 16 3c 43 09 28 bc
       -0.018337797 -0.005625531 0.009201126 -0.010256114
0000c0 05 f3 93 3b b7 8f 4d bc 21 f6 01 3c d3 a9 1f 3c
       0.004515054 -0.012546471 0.007932217 0.009745079
0000d0 3b 49 46 bc d6 91 df bb f2 b2 2c bc 1c 41 b3 bb
       -0.01210242 -0.006822805 -0.010540711 -0.005470408
0000e0 fc ed c1 bc 0d 66 16 bc 10 69 d3 bb c7 1d 05 bc
       -0.02367305 -0.009179604 -0.0064517334 -0.008124775
0000f0 27 d3 7c 3c b4 07 00 3b cf fb 2b bc 69 c1 01 3c
       0.015431202 0.0019535841 -0.010497048 0.007919648

nnECG.5.running_mean f4 [64]
000000 0c d0 07 3f 6e ec 06 3e ab 89 b9 bd da 14 39 be
       0.5305183 0.13176128 -0.09059461 -0.1807436
000010 24 9f 3c 3f f5 14 45 bd 68 34 01 3e be 09 1f 3e
       0.7368033 -0.04811569 0.12617648 0.1553106
000020 e8 a6 71 bd 23 21 08 bd 9a 16 dc 3e 70 26 0d 3d
       -0.058997065 -0.033234727 0.42985994 0.034460485
000030 71 7e 1b 3e e5 fd ee 3e d5 57 23 3e af 2b da be
       0.15184952 0.4667808 0.15951474 -0.42611453
000040 88 0a e4 3d bc 40 4d 3c 29 28 17 bf a9 85 2f 3f
       0.11134821 0.012527641 -0.59045655 0.68563324
000050 72 34 91 be 24 d9 78 3e d5 19 c7 bd e2 70 48 3f
       -0.28360325 0.24301583 -0.09721724 0.78297246
000060 76 f6 31 3e ca 35 73 3e 72 d5 b1 be ab 65 ca bd
       0.17379174 0.23750988 -0.34733158 -0.09882673
000070 e4 c6 1f bd c6 ff d6 3e c2 24 0b 3e d0 0e 8c bd
       -0.039008036 0.41992015 0.1358824 -0.06838763
000080 35 ad 1a 3e e0 53 ac 3d 25 56 d8 be 3c 55 db 3e
       0.15105136 0.084144354 -0.42253223 0.42838466
000090 2b d9 40 3e e7 19 08 3f 96 6d c7 3e 50 b9 a3 3e
       0.18832843 0.53164524 0.38950795 0.3197732
0000a0 90 77 d4 be 9b 68 86 be 15 87 53 3f a7 8d 5a bf
       -0.4149747 -0.26251683 0.82627994 -0.85372394
0000b0 4e 18 44 3e fb a9 8e be 72 7b 18 be 94 f1 cb bb
       0.19149897 -0.2786406 -0.1489084 -0.0062238667
0000c0 2f 77 ad 3e 69 b8 63 be 29 72 8e 3e b3 1f 49 bd
       0.33879992 -0.22238316 0.27821472 -0.049102496
0000d0 b1 61 7e be 7e e4 ad be eb 76 f0 3d a2 7e 53 3e
       -0.24841954 -0.33963388 0.11741432 0.20653775
0000e0 cd 86 1b 3e d1 3c cd 3e f8 71 e3 bd 68 14 a0 bd
       0.15188141 0.40085462 -0.11105722 -0.07816392
0000f0 15 3d e8 be 27 bb 2d 3e f4 46 f0 be 41 70 9c be
       -0.45359102 0.16965924 -0.46929133 -0.30554393

nnECG.5.running_var f4 [64]
000000 f8 d1 c9 3f a3 44 b5 3f dd 7b 76 3f 80 10 70 3f
       1.5767202 1.4161571 0.9628275 0.93775177
000010 ca 74 8b 3f 8e 5d 79 3f c2 00 72 3f df 51 5e 3f
       1.0895016 0.9740838 0.94532406 0.86843675
000020 42 38 a3 3f 58 39 66 3f 87 69 73 3f 5d cb 9e 3f
       1.2751544 0.8993125 0.95082897 1.2405812
000030 37 fc 97 3f e6 f3 82 3f db be aa 3f d3 6f bd 3f
       1.1873845 1.0230682 1.3339494 1.4799751
000040 ef 67 70 3f 20 0c a4 3f 98 aa a3 3f e8 eb 87 3f
       0.9390859 1.28162 1.2786436 1.0618868
000050 4c 3f 7b 3f 49 e1 9b 3f 79 20 fb 3f 62 15 a9 3f
       0.9814346 1.2178127 1.9619285 1.320965
000060 2f dc b7 3f 5e d4 e8 3f 95 46 99 3f 27 5d b7 3f
       1.436407 1.8189809 1.1974665 1.4325303
000070 0f da 60 3f 9e 96 c3 3f d5 05 7b 3f 11 03 ba 3f
       0.8783273 1.528034 0.98055774 1.4532186
000080 c6 be 96 3f 60 c8 2c 40 03 e3 aa 3f c7 3c fa 3f
       1.177697 2.69973 1.3350528 1.9549798
000090 b6 2a 78 3f 28 d9 c8 3f f2 e2 b8 3f 2f 46 76 3f
       0.9694017 1.5691271 1.4444258 0.9620084
0000a0 74 11 8e 3f 4a 50 91 3f 9a ce b5 3f ac df c0 3f
       1.1099076 1.1352627 1.4203675 1.5068259
0000b0 ae 1b 48 3f f3 26 61 3f cc 64 a7 3f 06 6e 82 3f
       0.78167236 0.87950057 1.3077636 1.0189826
0000c0 ab d3 90 3f f4 10 07 40 6d ca 8b 3f 9f b3 5a 3f
       1.1314596 2.1104097 1.092115 0.8543033
0000d0 38 65 6d 3f 1c 36 76 3f af 7b 3f 40 c8 c5 b4 3f
       0.9273257 0.96176314 2.991924 1.4122858
0000e0 43 92 ea 3f e9 2d 93 3f 32 68 21 40 8d 14 e9 3f
       1.8325886 1.1498386 2.5219846 1.8209397
0000f0 ab 95 ab 3f 96 d9 60 3f f2 a2 c2 3f f0 7c ae 3f
       1.340505 0.8783201 1.5205977 1.3631878

nnECG.8.weight f4 [16, 64]
000000 c8 46 e1 bc 9b 8a fa 3c 85 46 df 3d b0 09 c1 3d
       -0.027499571 0.03058367 0.109021224 0.09425676
000010 3f ac 55 be c9 6c 37 bc 87 78 5e be 1a 3b 80 3d
       -0.20866488 -0.01119537 -0.21725665 0.06261273
000020 03 dc 3e bd 49 12 d7 bd 92 da 68 be de 8e 67 be
       -0.04659654 -0.105015345 -0.22739628 -0.22613093
000030 06 26 6c 3e 9e 0f 37 be 3f 71 6c be 26 be 5e 3e
       0.2306138 -0.17877051 -0.23090075 0.21752223
000040 67 a0 78 3e 4c 04 55 3e 21 ba 80 be 02 0c 24 bd
       0.24279939 0.2080242 -0.25142005 -0.040050514
000050 68 73 7f be 5b 25 15 be 00 a8 17 bc c9 65 00 3c
       -0.24946368 -0.14565031 -0.009256363 0.0078367675
000060 3e 76 44 bd 2e 5c 92 3d b8 18 a7 bc ec c4 88 3e
       -0.047964327 0.07146488 -0.020397529 0.2671274
000070 b0 ab 92 bd 37 3e 7e be 5a ec 35 3d 6c 3f 21 bd
       -0.07161653 -0.2482842 0.044414856 -0.039367124
000080 94 7d ad 3c 55 29 11 3e 63 65 c3 bb 2f cf 54 3e
       0.021178044 0.14175923 -0.005963014 0.2078216
000090 78 13 92 3d 29 3d 79 3e b9 bc 87 be 7a 7f 6c be
       0.071326196 0.24339737 -0.2651117 -0.23095503
0000a0 72 32 5a 3e f2 80 81 bd 28 a7 b1 3d ac ac 88 be
       0.21308306 -0.063234225 0.08674461 -0.26694238
0000b0 3a ec 3f be f3 1a df 3d 1a 46 e4 3d 7c de 2b be
       -0.18742457 0.10893812 0.11146183 -0.1678409
0000c0 99 8c 40 3e 04 d6 7e be c3 6e 72 be f3 1f 2b 3e
       0.18803634 -0.24886328 -0.23675065 0.16711406
0000d0 38 52 b2 3b 98 3a 8b 3e 2e 5b 44 3e 00 79 5d bc
       0.00544193 0.2719314 0.19175407 -0.013517618
0000e0 f5 2c ee bd a2 53 69 be 12 b9 ea bd 75 a9 74 3e
       -0.116296686 -0.2278581 -0.114610806 0.23892768
0000f0 27 58 78 3e 80 79 25 be 0f d0 eb 39 65 f2 da bc
       0.24252377 -0.1615963 0.0004497771 -0.02672691
000100 fb 8e 7e be f5 81 98 3e af 9e 04 3e a5 f4 b6 3d
       -0.2485923 0.2978665 0.12951158 0.08933381
000110 85 64 9e be 9d 88 0a bc 4d 44 89 3d 4a 32 e9 3d
       -0.30936065 -0.008455423 0.067024805 0.11386545
000120 54 72 94 bc f2 4d ff bd c3 7a 8a be 12 6e 97 3e
       -0.018120922 -0.12466039 -0.27046785 0.29576164
000130 f1 44 39 3e 93 6b e8 bc 79 d8 86 3e 40 19 5e 3e
       0.18092705 -0.028371608 0.2633703 0.2168932
000140 d3 13 0b 3e e1 25 7b bd 0b 2e 10 be 1e 4a 1d bd
       0.13581781 -0.06131542 -0.14080064 -0.03840076
000150 28 c6 de bd 92 0f 8b bd d1 4b 3f be f4 bf 52 3e
       -0.10877639 -0.06790079 -0.18681265 0.20581037
000160 5c d6 a2 3e c3 6a e5 3d 65 2f 37 be ff 38 92 bc
       0.31804168 0.11202004 -0.17889173 -0.017849443
000170 14 e0 5f 3e e6 ad 7a 3e 24 cb cf bd 17 cd d9 bd
       0.21862823 0.244804 -0.10146168 -0.10634821
000180 20 fb 4c be c3 08 6a be b0 a6 29 be c9 c3 27 3d
       -0.20017672 -0.22854905 -0.16567492 0.0409582
000190 f0 b5 62 3d 73 14 82 3d cc 29 24 3d bd 55 d9 3d
       0.05534929 0.06351557 0.040078923 0.106120564
0001a0 78 4d 80 be d8 76 68 be 64 69 17 3e 56 ca 4c 3e
       -0.25059104 -0.22701585 0.14786297 0.1999906
0001b0 5b c9 c7 bd cb 19 4b be 5f 5f e0 bc 6f 4d 41 bd
       -0.097552024 -0.19834058 -0.027389226 -0.047192987
0001c0 c0 8c 61 3d 6e a7 3d be b5 b4 ee 3d f3 73 9b 3e
       0.05506587 -0.185209 0.11655561 0.303619
0001d0 f0 35 5f 3e 7c 30 dd 3d 4d 5d 5a 3e 31 33 2e 3e
       0.2179792 0.10800263 0.21324654 0.17011715
0001e0 7f c5 87 be 91 27 33 be ab 33 fa bd b5 73 21 3e
       -0.26517865 -0.17495562 -0.12216886 0.15766795
0001f0 e4 8d 86 be 2a b5 73 bb f4 c7 29 3e c7 e1 1e 3e
       -0.2628013 -0.003718684 0.16580182 0.15515815
000200 a6 a0 7a 3d 7d 69 75 bd f9 10 7d 3e f8 dc bc 3d
       0.061188363 -0.059915055 0.24713506 0.09221834
000210 82 63 c5 bd 62 1b 47 bd 54 4e 87 3d a1 fe 09 3e
       -0.0963812 -0.0486101 0.06606737 0.1347604
000220 c4 dc 37 3d 0f 1a 61 be fb e7 44 be 26 1c 72 be
       0.044888273 -0.21982597 -0.19229119 -0.2364355
000230 55 c2 a5 3d fa 00 19 3d b5 35 82 be 20 79 5e be
       0.080937065 0.037354447 -0.254316 -0.21725893
000240 88 6f 6e 3d 87 7f 0f be 3e 05 fd 3d 76 2d 88 be
       0.058211833 -0.14013492 0.123545155 -0.26597184
000250 e6 cc 6c bd ff 49 13 3e 3b a4 e8 bd 27 fc 02 be
       -0.057812594 0.14383696 -0.113594495 -0.12791501
000260 76 b1 4d bd 6c c5 87 bd 5b 0b 92 3c b2 e9 92 3c
       -0.050218068 -0.06629452 0.01782768 0.0179337
000270 b2 d0 f8 3d 8c 9c 62 be 36 19 4c 3d e6 be c3 3c
       0.121491805 -0.2213003 0.04982873 0.023894738
000280 63 cc 0b bd eb 2e a5 3d 23 a5 97 be d9 97 87 be
       -0.034130465 0.080655895 -0.29618177 -0.26483038
000290 fe 51 28 3e 22 57 92 be 78 87 60 3c 8c f2 0d be
       0.16437528 -0.28582102 0.013704173 -0.13862056
0002a0 4c 42 4f bd af 74 98 3e 12 94 12 3d a9 69 8e bd
       -0.050600335 0.29776523 0.035785742 -0.06953747
0002b0 8a 25 f7 3d 48 e2 1b 3e 6d 10 37 be 53 e1 22 be
       0.12067707 0.15223038 -0.1787736 -0.15906267
0002c0 1e 0e b0 3d b6 27 2d bc 2d 45 08 3e 45 6c 3f be
       0.08596443 -0.01056855 0.13307638 -0.18693645
0002d0 fc e8 77 3e e3 b1 69 bd 83 24 32 be d6 46 63 be
       0.2420997 -0.05705441 -0.1739674 -0.2219499
0002e0 f5 40 2f bd bb 2b 38 3e 08 d0 80 be 5a c1 67 bd
       -0.042786557 0.17985432 -0.25158715 -0.05658088
0002f0 f6 02 bc bb 9a a2 3a bd 73 79 8f be 4b 40 61 be
       -0.0057376577 -0.045565225 -0.28022346 -0.21997182
000300 03 9d 4f be 8d f6 36 3d d2 53 2f be 96 8c 4d be
       -0.20274739 0.044668723 -0.17121819 -0.2007316
000310 f1 f4 e1 3d 0f a7 6d be a5 3b 76 3e 52 5a 17 3e
       0.11033047 -0.23208259 0.2404619 0.14780548
000320 09 e4 1c be e9 a5 89 bd 10 b8 3c 3d 8f ba 31 3e
       -0.15321364 -0.06721098 0.046073973 0.17356323
000330 93 8f 0a 3e ba bc 3d 3e 16 e8 0b bd 21 77 c9 3d
       0.13531332 0.18529025 -0.03415688 0.09837175
000340 ba b9 72 be 5b 31 f9 3d 76 41 70 3b 6d cd 1f be
       -0.23703662 0.12167617 0.0036660112 -0.15605707
000350 11 fb 07 3e e5 2f 40 3e 6d 8e d7 3d cb 50 5e 3e
       0.13279368 0.1876827 0.105252124 0.21710508
000360 71 fd 8b be 9a 86 41 3d 7a 64 46 be 93 eb 7d 3e
       -0.27341798 0.047247507 -0.19374266 0.24796896
000370 0b 91 7a 3e 65 5c 32 be 45 11 4f 3e 20 38 58 3c
       0.24469392 -0.17418058 0.20221432 0.013196975
000380 17 25 01 be 60 0c 95 3d eb 41 95 be 94 d1 1d be
       -0.12611805 0.07277751 -0.29151854 -0.15411979
000390 be 7d c6 3d 45 25 2e 3e 39 2e f2 bd 0b 76 37 3b
       0.09691952 0.17006405 -0.118252225 0.0027993943
0003a0 ad d5 3b 3e de 80 37 bd ec 20 1b be 07 ba 05 be
       0.1834323 -0.04480063 -0.15149277 -0.13059245
0003b0 e6 7b 8c 3d fb c8 60 be 36 0f 5b 3e 2f d8 17 3d
       0.06859569 -0.21951668 0.21392521 0.037071403
0003c0 56 18 7c 3e bf ed 70 be 9a af 34 3e 7f 42 50 3e
       0.24618658 -0.23528193 0.17645112 0.20337866
0003d0 d4 47 f3 3d db cc 7e be fa 5d 14 be e9 fa 11 bd
       0.118789345 -0.24882834 -0.14488974 -0.035639677
0003e0 94 8e 3c 3e f0 53 09 be 94 f5 20 3e 31 e4 93 3d
       0.18413764 -0.13410926 0.1571868 0.072212584
0003f0 2d 4d 0c be 2a 41 a6 be 4b 87 a8 3c ba cc da bd
       -0.13701315 -0.3247159 0.020572325 -0.1068358

nnECG.8.bias f4 [16]
000000 62 ef a0 3c 0a 71 b9 3c e8 48 c7 3c ab eb 82 3c
       0.019645397 0.022636909 0.024326757 0.015981516
000010 06 e5 c9 3c 05 ed 94 3b 14 90 80 3c 5f a2 6a 3b
       0.02464534 0.0045448565 0.015693702 0.0035802347
000020 11 b8 da 3a 61 cd 62 3c e8 42 69 3c 77 8e 6a 3c
       0.0016686936 0.013842911 0.014237143 0.014316193
000030 90 b7 25 ba ba a0 c1 3c fd eb f7 3b 7c 24 ed 3c
       -0.00063216034 0.02363621 0.007565974 0.028948061

nnECG.9.weight f4 [16]
000000 0b 4d 7e 3f 79 a7 89 3f 88 f6 86 3f fd 34 80 3f
       0.9933631 1.0754234 1.0543985 1.0016171
000010 33 35 7d 3f b9 b9 82 3f ef e9 82 3f 83 4a 86 3f
       0.989093 1.0212928 1.0227641 1.0491489
000020 c8 13 81 3f 80 2c 86 3f ed 61 77 3f 76 b6 85 3f
       1.0084162 1.048233 0.966338 1.0446308
000030 e1 d6 82 3f 36 76 80 3f c9 5c 7b 3f e2 5e 7f 3f
       1.0221826 1.0036075 0.98188454 0.99754155

nnECG.9.bias f4 [16]
000000 26 48 ba bb 0a 2b a9 3c 0c fb a1 3c 03 c0 d4 bb
       -0.0056848703 0.020650405 0.019773029 -0.006492616
000010 f5 d6 87 3b d4 59 3d 3c 86 c4 f1 3c 66 3f ff 39
       0.004145498 0.011557061 0.029512655 0.00048684626
000020 47 18 f1 bb 1c 46 22 bb 92 c4 9a bc fa df b1 3c
       -0.0073576304 -0.0024761027 -0.01889256 0.021713246
000030 1f 96 c7 3a 66 b3 fd 3b f3 6d ee bc 41 89 4e bb
       0.0015227235 0.007742333 -0.029105162 -0.0031514915

nnECG.9.running_mean f4 [16]
000000 20 00 f8 bd 46 14 bc bc 8f 4a 2a bf e5 59 38 3e
       -0.12109399 -0.022958886 -0.6652002 0.18003042
000010 38 60 9e 3e e9 06 27 3e 1a aa 67 3f b0 a0 ff 3c
       0.30932784 0.1631123 0.9049393 0.031204551
000020 93 77 0a be c7 a6 b6 bc 82 83 b0 3e 7f 57 b5 be
       -0.13522176 -0.022296323 0.34475332 -0.35418317
000030 e5 47 a8 be 72 9b 1b 3f 6d 00 04 3f ee 9d 06 be
       -0.3286735 0.60784066 0.5156315 -0.13146183

nnECG.9.running_var f4 [16]
000000 3b 5b c4 3f b9 88 b0 3f b0 0b c5 3f 52 fe bf 3f
       1.5340341 1.3791724 1.5394192 1.4999487
000010 1d be ca 3f 6e be 91 3f 2f 21 f6 3f b3 8c ab 3f
       1.5839268 1.138624 1.9228877 1.3402313
000020 48 6c f9 3f c9 70 cc 3f e8 dd dc 3f 17 aa 0f 40
       1.948617 1.5971919 1.725522 2.2447565
000030 82 dc cb 3f 53 1b ca 3f c9 c9 c4 3f 42 80 e2 3f
       1.5926669 1.5789589 1.537408 1.7695391
