Models/net_3_1_epoch_69.pth (torch, 57997 bytes, 25 tensors)

nnECG.0.weight f4 [128, 12]
000000 cc 76 23 3e fe f2 f0 3b 43 cb 09 3d 63 5e 98 3d
       0.15963286 0.0073531857 0.03364111 0.07439878
000010 50 b2 1e be b3 41 6d be 20 39 f7 bc 32 b4 d1 bd
       -0.15497708 -0.23169594 -0.030178607 -0.10239448
000020 5b c8 eb 3c 6d ae b2 bd 15 35 c1 bb 70 78 2f 3e
       0.02878206 -0.08724675 -0.0058962204 0.17135787
000030 ca 4c 7e 3d bc 23 13 be b7 49 74 3e e6 5a cd bd
       0.06208495 -0.143691 0.23856245 -0.10027103
000040 6e 9b b9 bd 2d 13 6f 3d fe 84 f3 3d f3 85 72 3e
       -0.09062849 0.058367897 0.118906006 0.2368391
000050 0f 14 37 be b7 91 8a bd 7d 15 5d 3d e2 24 f1 bd
       -0.17878745 -0.06766074 0.05397557 -0.11774613
000060 63 e2 4d 3d 0f 52 b3 bc 73 80 42 be f4 1d 00 3e
       0.050264727 -0.021889715 -0.18994312 0.12511426
000070 e5 ca 2f 3e 14 06 12 3d 8c 48 de bb b0 7e 2c 3e
       0.17167242 0.035650328 -0.0067835506 0.16845202
000080 bd 08 16 3e 6b c8 0b be 57 8d cb 3d 60 06 18 be
       0.14651771 -0.13650672 0.09939068 -0.14846182
000090 be 64 ad 3d 4f 8b 8e be c2 6b d3 3d 44 50 0b be
       0.08466481 -0.2784066 0.103232875 -0.13604838
0000a0 95 cc 3d 3d df 06 f2 3b 32 46 75 be 65 2a 29 be
       0.046337683 0.007386073 -0.23952559 -0.16520078
0000b0 1a 68 7c 3d 59 6d 06 3d 02 cd 3e 3e 87 ff 09 bc
       0.061622716 0.032819126 0.18632892 -0.008422739
0000c0 c6 ec 15 3e 21 a1 6a be fb 04 0f 3e 1c f7 32 be
       0.14641103 -0.22913028 0.13966744 -0.17477077
0000d0 2f 6f 6b be 96 4d 69 be 82 f3 28 be 14 14 34 be
       -0.22991632 -0.22783503 -0.16499141 -0.17585784
0000e0 fb 5b 0c be 0a c8 14 be e9 13 37 be c9 68 11 3d
       -0.13706963 -0.14529434 -0.17878689 0.03550032
0000f0 3d bb 11 be b1 a8 f4 bd 96 d0 17 3e 68 fb 16 be
       -0.14231582 -0.11946238 0.14825663 -0.14744341
000100 76 f5 ec bc dc dd 21 be 0d 06 a5 3c 56 28 f9 bd
       -0.028925639 -0.15807289 0.020144487 -0.121658966
000110 7b 2b 82 3e 5e b9 ad bd 89 c6 68 be 57 bb b2 bd
       0.25423798 -0.084826216 -0.22731985 -0.087271385
000120 60 4c 75 be ea d5 39 3e 30 7d 54 bd 2a 62 51 3e
       -0.23954916 0.18148008 -0.0518772 0.20447603
000130 76 21 6b 3e cc 94 13 3e 6b 52 bb bc 73 70 15 be
       0.22961983 0.1441223 -0.022866448 -0.14593677
000140 88 e3 c3 3d 64 dc 56 3e 32 75 b8 3d fc 2f cf ba
       0.095648825 0.2098251 0.09006728 -0.0015807147
000150 76 94 b6 3d ab 7a 7f bd 5c df f0 bd d1 ce 53 be
       0.089150354 -0.062372845 -0.117613524 -0.20684363
000160 19 13 31 be 58 f8 8e bd 89 5c 80 3e 6d 30 ad 3d
       -0.17292441 -0.069809616 0.250706 0.08456502
000170 aa b5 64 3d fb 94 c6 bd 4b d5 2b be 81 06 aa 3d
       0.05583731 -0.096963845 -0.16780584 0.08302022
000180 72 6a 89 3c 90 0b fb bd 4d e8 fe bd 42 88 5f bd
       0.01677439 -0.12258065 -0.124466516 -0.054573305
000190 a3 39 c1 3b ac 7d 53 3c 96 84 2a 3e 3a 3c f0 bd
       0.0058967634 0.0129083805 0.1665214 -0.11730237
0001a0 60 cc 03 bd ba 1f 6b be 95 53 1a be 26 ad ee 3d
       -0.03217733 -0.22961321 -0.15070947 0.11654119
0001b0 5a be 1c 3d 0d bb 0f be 96 54 13 3e 45 eb 41 3e
       0.03826747 -0.14036198 0.14387736 0.18937404
0001c0 26 ab 7e 3e 08 99 31 be 8a ea 77 be 88 b0 c0 bd
       0.24869975 -0.17343533 -0.24210563 -0.09408671
0001d0 31 f4 5c 3c 7c 6a cf 3d de 83 26 3e a7 8f 60 3d
       0.013485954 0.10127732 0.16261241 0.054824498
0001e0 e1 0e 58 3e 40 18 f8 3d f3 cc 52 3e df 19 d2 bd
       0.21099426 0.12114 0.20585994 -0.10258841
0001f0 d2 4b 85 be c2 37 4e 3c 0a 40 0a be 06 0a af 3d
       -0.2603441 0.012586536 -0.13500991 0.08546834
000200 49 9e 34 3e 8b fc 2e be a1 54 25 be 93 c9 18 3e
       0.17638506 -0.17088525 -0.16145565 0.14920644
000210 a9 73 a0 3b e1 1d f8 bd 4c 03 94 3d ce e0 57 be
       0.0048966003 -0.12115074 0.07227191 -0.2108185
000220 39 a3 94 be a3 8d 17 be e5 8b 51 3e 87 ef 24 be
       -0.2903078 -0.14800124 0.20463522 -0.16106997
000230 6b 56 16 bc 01 5b 12 3d 80 fd 62 be 8f 31 e4 bd
       -0.009175877 0.03573132 -0.22167015 -0.11142265
000240 27 6c cd bd e5 b0 69 3e a6 9d 5f 3d 58 09 a5 3d
       -0.10030394 0.22821386 0.054593705 0.08058423
000250 ac 2f 5c 3e c6 e9 25 be 1b 0e 5e bd 83 7e be bd
       0.2150256 -0.16202459 -0.05421267 -0.09301474
000260 4d 3f a3 bd 65 1a 53 3e 74 fa 00 be 42 7d be 3d
       -0.07971058 0.20615537 -0.1259554 0.09301235
000270 47 dc f0 bd 0b f3 24 3e a2 64 51 3d fc 1a 90 3e
       -0.117607646 0.16108339 0.05112136 0.28145587
000280 20 e1 6f bd b9 2e 60 bd 87 e0 4a be 7c 6b 1e be
       -0.058564305 -0.05473206 -0.19812213 -0.1547069
000290 26 72 13 3e c2 61 66 3e 7b 18 22 3e 30 eb 13 be
       0.14399013 0.22498229 0.15829651 -0.14445186
0002a0 f2 d8 04 bd 86 c1 98 3d 00 1d 61 be 59 c8 0d 3c
       -0.032433458 0.07458787 -0.21983719 0.008653724
0002b0 f7 74 e4 bd c8 be 39 3e ce 33 95 bd 8e c2 44 bc
       -0.11155122 0.18139184 -0.072852716 -0.012009276
0002c0 0a 95 b9 3d bb f5 11 3e 6b a1 53 be 6d 5b 09 3e
       0.0906163 0.14253895 -0.20667045 0.13413782
0002d0 31 c8 34 3e dc a6 01 3e 30 33 6e bd 3f 43 fb bd
       0.17654492 0.12661308 -0.058154285 -0.122686855
0002e0 23 bb d2 3d a5 7b 04 be 7d 42 47 be 40 05 c2 bc
       0.102896 -0.12937792 -0.19458957 -0.023684144
0002f0 19 e0 f9 bb 9c 40 8f 3d 80 ef 1d 3e 7b 53 10 be
       -0.0076255915 0.06994745 0.15423393 -0.14094345
000300 ce 4c 31 be fb 3e 35 3e b9 53 c3 bd 02 28 ba 3d
       -0.17314455 0.17699806 -0.09537453 0.09089662
000310 e9 cb 37 3d 42 17 e9 bd c7 29 0f be 75 f2 0c bd
       0.0448722 -0.11381389 -0.1398078 -0.034410913
000320 eb e6 9a 3d ad e8 28 be 45 ff 34 be 1f ae 10 be
       0.07563575 -0.16495009 -0.17675503 -0.14128922
000330 17 11 f3 3c 74 f4 12 be c5 a4 17 3e f5 57 c1 ba
       0.029671235 -0.14351064 0.14808948 -0.0014750945
000340 db 0f 11 be df 6d 9c bd 97 a7 78 3d b0 7a 41 3e
       -0.14166205 -0.07638144 0.0607067 0.18894458
000350 57 a1 53 3d 0e de 75 be 6e f0 90 bb 01 06 80 3e
       0.051667538 -0.24010488 -0.0044231927 0.2500458
000360 e0 ac 86 be 7f ed c5 3d 05 4b 21 be 34 8e 94 3d
       -0.26303768 0.096644394 -0.15751274 0.072536856
000370 36 d6 8c bd ab 05 1c 3c b8 8f 1f be 42 f6 38 bc
       -0.06876795 0.009522836 -0.15582168 -0.011289181
000380 57 5a 2d 3e 7c d4 e6 bd b6 be 2c be 8a 69 09 be
       0.16928993 -0.11270997 -0.16869625 -0.13419166
000390 3e bb 67 3e b2 d2 22 3e c6 2d d4 3d 52 da 04 bd
       0.22630021 0.15900686 0.10360293 -0.03243477
0003a0 e3 3c 99 3e 75 6e 36 be 7b 6d 09 bc 15 25 4a 3d
       0.29929265 -0.17815574 -0.008387919 0.04935177
0003b0 27 d1 3b bd 61 7d 70 3e db 60 fb 3d 84 7a 9e 3c
       -0.04585376 0.23485328 0.12274333 0.01934553
0003c0 e8 f4 1c 3d 1d 47 ea bd fd 29 d3 bd b7 b5 11 be
       0.0383195 -0.11439345 -0.10310743 -0.14229475
0003d0 19 3d 1c be 5c d6 3a be fa 42 28 3e b9 af 1f 3e
       -0.15257682 -0.18245834 0.164318 0.15594377
0003e0 82 28 86 3e 7f 60 6e be e9 8e 8e bd 0e 57 36 3e
       0.2620278 -0.23278998 -0.06960852 0.17806646
0003f0 e1 49 cd 3d f1 46 ee 3d 1d 6f 6b 3d 34 6a 32 3c
       0.10023857 0.11634625 0.057479013 0.010889579

nnECG.0.bias f4 [128]
000000 db da 3b 3c 51 84 8d bb fe 6e bb 3a 00 6c 3d 3c
       0.011465753 -0.004318752 0.0014300046 0.011561394
000010 2c 83 a8 3c f3 d9 c4 3c fd d1 5b 3c a4 a6 14 3c
       0.02057036 0.024029708 0.013416764 0.009072933
000020 c8 c9 6e 3c cb 97 1d 3c 72 f7 a7 bb 42 46 76 3c
       0.014574476 0.00961871 -0.0051259333 0.015031399
000030 74 97 e4 3c 9c 85 09 bb 59 c4 55 3b 11 54 00 3a
       0.02790425 -0.0020984178 0.0032618253 0.00048953394
000040 71 aa ea 3c de da 58 bc bc 83 dc 3b 7b 6d 04 bc
       0.028645726 -0.013235776 0.006729571 -0.008082743
000050 63 3b cd 3c 24 56 0e 3c 6f 43 6e 3c 52 cd a1 3c
       0.025052732 0.00868753 0.014542445 0.019751225
000060 ff c1 db 3b 18 83 ac 3c 28 7b b3 3a d6 89 64 3b
       0.0067064757 0.021058604 0.001369332 0.0034872196
000070 4d 03 48 3c cb de a1 3b b5 aa ef 3c 45 f5 db 3c
       0.012207818 0.004939889 0.029256204 0.026850352
000080 f6 b9 69 bc d2 71 68 3c a8 6e d9 3b 52 ac 6b 3c
       -0.014265528 0.014187293 0.0066355057 0.014384346
000090 eb 81 97 3c ab ff 46 3c d1 5f 0f 3d 90 a9 37 bb
       0.018494567 0.012145917 0.035003487 -0.002802465
0000a0 af 07 f0 3c 4d e6 f9 3c 0e a5 89 3b 97 ff 44 3c
       0.029300539 0.030505324 0.0042005843 0.012023828
0000b0 33 ce 1d bb e1 09 25 3c c2 8b 09 bb 94 13 42 3c
       -0.0024079203 0.010073156 -0.0020987843 0.011845488
0000c0 a5 5b 7f 3c 00 4f 31 3c a3 24 dc 3c 7d 26 59 3c
       0.015585815 0.010822058 0.026872938 0.013253805
0000d0 b0 fb 33 3c 09 65 2d bb 2d 9d be bb af dc 89 3c
       0.0109853 -0.0026457927 -0.0058170767 0.016828863
0000e0 bf 3e 7d 3c e3 d7 6e 3c 34 78 55 bc 42 b5 5f 3c
       0.015456854 0.014577839 -0.013029147 0.013654055
0000f0 83 c2 3e 39 38 6f bc 3b a1 5b b0 3c 52 e7 c7 bb
       0.00018192273 0.005750563 0.021528067 -0.0061005736
000100 b1 f8 0c 3b a0 eb 9c 3b 3a b7 43 bc 04 8c a8 3c
       0.0021510536 0.004788831 -0.01194554 0.020574577
000110 69 2f b2 bb 6a f8 df 3c c0 47 4c 3c 67 c1 c3 bb
       -0.0054377806 0.027340133 0.012468278 -0.005973983
000120 5a e4 9d bb 08 52 43 bc b6 6c 85 3c de 2f 1b 3c
       -0.0048184814 -0.011921413 0.016287189 0.009471862
000130 c0 2f b0 3b 45 de 9e 3b f8 24 07 3c 03 8d c4 3c
       0.005376786 0.004848274 0.00824856 0.02399302
000140 c9 cc b6 3c bd 44 7e 3c 9a 93 44 3c 91 4e 04 3c
       0.022314446 0.015519318 0.011998082 0.008075372
000150 fc 0a 7c 3c 36 7a 0b 3c d8 43 0e bc 24 4c 55 3c
       0.015383478 0.008513024 -0.008683167 0.013018642
000160 2c 60 57 bc 37 15 8c 3c c0 4f 2f 3c 4c 21 eb ba
       -0.013145488 0.01709996 0.010700166 -0.0017939
000170 cb 19 5f 3c 2e 17 44 3c 97 7a 21 3c 4b 37 a0 3c
       0.013616989 0.011968417 0.009855888 0.019557616
000180 fb 23 a3 bb f2 45 fa b8 e2 4f ff 3b d3 60 1f 3c
       -0.0049786544 -0.00011933957 0.007791505 0.009727675
000190 03 89 bb 3b 84 da a3 3c 96 48 8f 3c 1d db ac 3c
       0.00572312 0.020001657 0.017490666 0.021100575
0001a0 9d 7f 98 3c 63 ec 29 3c ec f4 87 3c 58 72 cc 3c
       0.018615538 0.0103713 0.01659628 0.024956867
0001b0 0d 25 c9 3b bd 35 5e 3c 48 e3 74 3c fe f1 26 3c
       0.00613845 0.013562617 0.014946766 0.010189531
0001c0 66 e9 a2 bc 0b 63 8c 3c 4d 84 5e bb e4 1e e9 b8
       -0.019886684 0.017137071 -0.003395337 -0.000111160596
0001d0 b8 de 0d bb e5 61 ee 3b 22 f7 3d 3c 8b fc 2b 3c
       -0.0021647643 0.0072748535 0.011594566 0.010497223
0001e0 86 66 01 3d e6 74 06 3b 8e d8 39 3b 2c dc f2 3b
       0.031591915 0.0020516454 0.0028357836 0.0074115004
0001f0 bd 0f a7 3c f6 b3 c8 3c c8 7c 24 3c 69 01 ae bc
       0.020393247 0.024499875 0.010039516 -0.021240907

nnECG.1.weight f4 [128]
000000 ab 32 7f 3f b4 4d 89 3f f6 96 6f 3f 9b cb 89 3f
       0.9968669 1.0726838 0.93589723 1.076526
000010 ee 6b 8c 3f f8 67 84 3f 34 22 87 3f 17 94 8a 3f
       1.0970438 1.0344229 1.0557313 1.0826443
000020 f0 81 88 3f 19 55 86 3f 74 49 a6 3f d6 46 82 3f
       1.0664654 1.049472 1.2991166 1.0177867
000030 5c 78 86 3f b2 79 86 3f f0 24 76 3f 79 2d 8a 3f
       1.0505481 1.0505888 0.9615011 1.0795127
000040 0f 27 8b 3f 8e 18 92 3f ef 25 8c 3f ef a1 8a 3f
       1.0871295 1.1413743 1.0949076 1.0830668
000050 d5 d1 95 3f 49 81 85 3f af 37 85 3f 9b 1e 7f 3f
       1.1704661 1.043008 1.0407618 0.99656075
000060 33 31 87 3f e7 66 78 3f e2 cb 7a 3f b0 c0 84 3f
       1.056189 0.97032017 0.9796735 1.0371304
000070 19 0f 92 3f 48 73 83 3f cb 3f 88 3f 2d f6 89 3f
       1.1410857 1.0269556 1.0644468 1.0778252
000080 97 14 90 3f 94 51 86 3f 54 6f 88 3f 98 2a 81 3f
       1.1256284 1.0493646 1.0658975 1.0091124
000090 0f 9c 7d 3f 02 dc 81 3f 01 b6 8c 3f 66 2d a3 3f
       0.9906625 1.0145266 1.0993043 1.274823
0000a0 5a e8 89 3f 12 d0 89 3f 47 9e 8b 3f 3b a3 8f 3f
       1.0774033 1.0766623 1.0907677 1.1221689
0000b0 3c c1 86 3f b6 be 84 3f 34 aa 7e 3f f6 ff 7b 3f
       1.052772 1.03707 0.9947846 0.9843744
0000c0 f1 3a 87 3f 80 7b 85 3f b1 bf 83 3f e5 85 81 3f
       1.0564862 1.0428314 1.0292875 1.0118986
0000d0 ea df 87 3f e5 94 82 3f 3b 6e 79 3f f5 ac 86 3f
       1.0615208 1.0201689 0.97433823 1.0521532
0000e0 52 71 77 3f 57 d8 84 3f 81 c0 8a 3f 3d 72 7a 3f
       0.9665729 1.0378522 1.0839998 0.97830564
0000f0 08 ff 7e 3f 3f 1b 7b 3f 06 1d 8b 3f b1 32 87 3f
       0.99607897 0.9808845 1.0868232 1.0562345
000100 e5 a4 88 3f 49 5f 85 3f ed 9b 82 3f c6 f1 88 3f
       1.0675322 1.0419704 1.0203835 1.0698783
000110 e6 ce 86 3f 9f 2a 77 3f f3 9a 84 3f d0 cb 85 3f
       1.053189 0.9654941 1.0359787 1.0452824
000120 e0 82 73 3f 5f 18 8c 3f 30 d8 91 3f 85 3d 80 3f
       0.95121574 1.0944937 1.13941 1.0018774
000130 23 b4 85 3f a2 19 7b 3f 1e 72 89 3f 83 08 84 3f
       1.0445598 0.9808599 1.0737951 1.0315098
000140 99 db 85 3f 7c df 89 3f 7d 5a 87 3f 98 83 85 3f
       1.0457641 1.0771327 1.057449 1.0430784
000150 6b 28 84 3f fb fd 7d 3f 09 ff 8c 3f ea 11 8d 3f
       1.0324835 0.9921567 1.101533 1.1021092
000160 6e 15 8f 3f 61 75 8b 3f bc 74 81 3f 26 71 83 3f
       1.1178415 1.0895196 1.011375 1.0268905
000170 20 98 8b 3f 15 96 95 3f 27 ad 83 3f 55 fd 98 3f
       1.09058 1.1686426 1.0287217 1.1952311
000180 b7 77 89 3f 62 c9 82 3f 77 78 8d 3f c9 80 86 3f
       1.0739659 1.0217707 1.1052388 1.0508052
000190 0c 7e 85 3f 16 48 8e 3f 7e 62 86 3f 44 3f 7c 3f
       1.0429091 1.1115749 1.0498807 0.98534036
0001a0 b3 bf 7e 3f fe 7a 79 3f 1c 88 7e 3f 02 f4 8e 3f
       0.9951126 0.97453296 0.99426436 1.1168215
0001b0 dc a0 73 3f a7 74 88 3f 29 b8 82 3f 0d 97 76 3f
       0.95167327 1.06606 1.0212451 0.96324235
0001c0 36 cb 87 3f 18 dd 87 3f f6 ea 7c 3f 84 3c 86 3f
       1.060889 1.0614347 0.9879602 1.0487218
0001d0 32 ff 86 3f 1f c1 89 3f 35 39 8b 3f fe 9c 80 3f
       1.054663 1.0762061 1.0876833 1.004791
0001e0 ca 4a 8e 3f 99 74 87 3f b6 9b 86 3f 2e f2 82 3f
       1.1116574 1.0582458 1.0516269 1.0230157
0001f0 94 0f 8d 3f ca ee 8f 3f 9f f6 7d 3f a2 e1 88 3f
       1.1020379 1.1244748 0.9920444 1.0693858

nnECG.1.bias f4 [128]
000000 ca 96 4a 3c 05 04 35 bc b9 4d 09 bc 1e 79 39 3c
       0.0123650525 -0.011048322 -0.008380347 0.0113203805
000010 6c d1 67 3c c2 13 6a 3c de 93 5f 3b 06 49 a3 3b
       0.014149051 0.014286937 0.0034115235 0.0049830703
000020 87 1c fb 3b 1b 98 83 3b f0 5e b6 bc b8 a9 7f ba
       0.007663313 0.004015935 -0.022262067 -0.0009752768
000030 a4 81 f5 3c 50 47 82 bc 6a 94 ad bb 89 20 9f ba
       0.029969044 -0.015903145 -0.0052972334 -0.0012140434
000040 4a 9e ab 3c 16 5e ac bc ff 63 f4 3b 2f 5b e6 bb
       0.020949502 -0.021040957 0.0074582095 -0.007029913
000050 30 1f cf 3c 26 58 80 3b 68 87 46 3c 36 aa 96 3b
       0.025283426 0.003916758 0.012117244 0.0045979274
000060 79 f7 95 3b 62 50 4b 3c 54 ba f4 39 da 43 a1 b9
       0.00457662 0.0124093015 0.00046678132 -0.00030758866
000070 12 74 eb 3b eb ce dc 3a da e0 93 3c e8 c1 7d 3c
       0.0071854675 0.0016846334 0.018051554 0.015488125
000080 cd aa d2 bc 9b 80 63 3c b7 58 ab 3b 32 62 4d 3b
       -0.02571621 0.013885642 0.0052290815 0.0031339047
000090 54 fa cc 3b 7b 07 04 ba f8 ee 0d 3d a6 52 95 bc
       0.0062554274 -0.0005036515 0.034651726 -0.018227886
0000a0 57 fb 5b 3c 76 59 92 3c 77 56 0d bc de 4d 94 b8
       0.013426623 0.017864924 -0.008626572 -7.071694e-05
0000b0 08 da 16 bc 73 09 2f 3a 5c 10 67 bc 65 c3 06 3c
       -0.009207256 0.0006677128 -0.0141030215 0.008225297
0000c0 e5 47 68 3c 6d bb 13 bb 32 4f 7c 3c c1 bf 7d 3c
       0.014177297 -0.0022542134 0.015399741 0.015487612
0000d0 c0 8a 3a bc 14 1e de bb 44 62 31 bc 34 cb 0f 3c
       -0.01138562 -0.006778488 -0.010826651 0.008776475
0000e0 a8 66 d8 ba 13 f3 0b 3c af a0 03 bd 7d a4 a4 3b
       -0.0016510086 0.00854184 -0.03213566 0.0050244913
0000f0 0e c1 ef bb 06 8e 26 bc de 2f 98 3c b0 0d 9f bc
       -0.007316715 -0.010165697 0.018577512 -0.019415706
000100 a6 93 15 bc d0 b6 bd bb 65 b5 4a bc 25 c2 86 3c
       -0.00912944 -0.005789615 -0.012372349 0.016449997
000110 19 1e 6f bc 2c c8 46 3a e4 05 70 bb ab 7a 6f bc
       -0.014594578 0.00075829285 -0.0036624605 -0.014616649
000120 a1 25 59 bc 1e 53 96 bc 20 17 c1 3b 6e 3e b4 bb
       -0.0132536 -0.01835018 0.0058926493 -0.0055006063
000130 2c e4 0b bc 8e 49 7d bc 51 bf 7d bc 62 13 b3 3c
       -0.008538287 -0.015459431 -0.015487508 0.021859828
000140 a7 54 0c 3c 44 e2 5b 3c eb 1e a0 bb 7c 95 3e bc
       0.008565105 0.013420645 -0.004886498 -0.01163232
000150 a8 68 2a 3c e2 43 1d 3a 39 e5 87 bc 57 5f 82 3b
       0.010400929 0.000599919 -0.016588794 0.0039786506
000160 39 84 ac bc 7e 6a e5 3b 4e 21 df ba 79 74 aa bb
       -0.021059142 0.0070012202 -0.0017023475 -0.005201873
000170 c1 ce be 3b 1d 3e 8f 3b c3 ee 6e 3a 7d c8 c2 3b
       0.005822987 0.004371418 0.0009114558 0.00594431
000180 c6 60 b8 bb 62 dd 0c 3b f6 39 ab 3a 7a 23 98 3b
       -0.0056267707 0.002149426 0.0013063538 0.004642901
000190 87 27 5a 3b 33 15 96 3c eb 25 dd 3b 9b 19 4e 3c
       0.003328772 0.018320655 0.006748905 0.012579347
0001a0 ba ed 32 3b 11 d8 8c bb 92 8a 1a bb eb 31 a8 3c
       0.002730234 -0.004298218 -0.002358113 0.020531615
0001b0 f8 50 62 bb 07 83 72 3c a8 33 2d 3c dc a2 64 bc
       -0.0034533124 0.014801747 0.010571398 -0.013954844
0001c0 66 40 b9 bc b4 78 2e 3c a5 a2 30 bc 49 f3 fe bb
       -0.022613715 0.010648895 -0.010780965 -0.0077804667
0001d0 02 26 ad bc 3b 16 02 bb 6f c5 a1 3a 4e 1a db bb
       -0.021136288 -0.0019849676 0.0012342165 -0.0066864854
0001e0 35 26 78 3c 50 d7 72 bc 5a 13 7b 3b 9a 5c 3a 3b
       0.015145828 -0.014821842 0.0038311095 0.0028436542
0001f0 59 94 97 3c 73 e4 be 3c 16 a8 69 3b ad 66 db bc
       0.018503355 0.023302292 0.0035653166 -0.026782358

nnECG.1.running_mean f4 [128]
000000 88 ff 8c bd 68 33 8d 3e e5 31 42 3e 02 ca 85 3d
       -0.06884676 0.27578282 0.18964346 0.065326706
000010 ed 23 20 bf 40 e6 c4 be 4c 40 71 3e 63 ef 14 3d
       -0.6255482 -0.38456917 0.23559684 0.03636111
000020 0b 4a a1 be 2e eb 74 bd 9b 20 8a 3d ab 75 e4 bd
       -0.31501803 -0.059794597 0.067445 -0.11155256
000030 6d 07 58 be 3b 79 32 3e 44 cd 30 bd 30 07 ba 3d
       -0.21096583 0.17429058 -0.043164507 0.09083402
000040 43 37 0a bf 23 70 9f 3c 00 de cb be c4 1e f3 3e
       -0.5399057 0.01946265 -0.3981781 0.4748441
000050 7a 27 cd 3c 10 8c 98 3e e6 f3 57 be 7b ed 77 be
       0.025043238 0.2979436 -0.21089134 -0.24211685
000060 42 bd 52 bd 40 15 a4 bd 2f 53 5f 3e e7 00 25 be
       -0.05145002 -0.080118656 0.21809076 -0.16113625
000070 fb a7 e1 3d 6b 04 1b 3f 26 1a 9d be 48 e0 0c bf
       0.11018368 0.60553616 -0.30684012 -0.55029726
000080 a9 24 76 3e 0e fb 5f be bf 5a 3e be 89 a0 6f be
       0.24037422 -0.21873114 -0.18589304 -0.23401083
000090 40 2c 9d be d9 1b 9d 3e e8 e3 eb be 64 fb 42 3e
       -0.30697823 0.3068531 -0.46072316 0.1904121
0000a0 6f d4 9d be 1e 1e 0f be af 92 1e 3e 50 79 37 bd
       -0.30826136 -0.13976333 0.15485643 -0.044793427
0000b0 ad 4d cb 3e 51 50 ca be d4 80 cd 3e 99 4e d8 3c
       0.397077 -0.39514402 0.4013735 0.026404666
0000c0 48 fb 2c be a8 b1 6e 3d 6e 13 4c be 43 27 7c be
       -0.16892731 0.058274895 -0.19929287 -0.24624352
0000d0 d5 75 c8 bb 41 fe d1 3d bc 2a f3 3e 02 82 84 3d
       -0.0061175623 0.10253573 0.4749354 0.064701095
0000e0 f1 97 49 be 11 36 e0 be 98 7f 49 bc 1b 82 0e bd
       -0.19686867 -0.4379125 -0.012298487 -0.034792047
0000f0 9d d1 82 3e b6 21 d5 bd e7 9c 98 be 88 29 dc 3b
       0.25550547 -0.104068205 -0.29807207 0.006718818
000100 b4 88 59 3e b7 00 fe bc 24 2d 04 3f 66 37 da be
       0.21243554 -0.0310062 0.5163138 -0.4262039
000110 53 82 17 be 49 43 05 be d1 d1 a9 3e 8e f0 a1 3e
       -0.14795808 -0.13013949 0.3316789 0.3162884
000120 83 17 ac 3d e1 73 03 3f d3 52 35 3e 63 b3 a7 3e
       0.08402922 0.5134869 0.17707376 0.3275405
000130 e3 64 f6 3d f6 17 2f 3e a9 6a 19 3d 0e 73 71 3e
       0.12030961 0.17098984 0.037455235 0.23579046
000140 50 df d7 3d 63 89 a5 be 60 d7 c8 bc 81 c4 92 3c
       0.1054064 -0.3233138 -0.024516761 0.017915966
000150 99 aa 39 be 3f 2b 64 3c 9b 00 c4 3e 16 c2 00 be
       -0.18131484 0.013926326 0.38281712 -0.12574038
000160 f2 37 e0 3e a1 5a 95 3e 2f 49 40 3d 9a 6e ee 3d
       0.43792683 0.29170707 0.046944793 0.11642189
000170 75 a3 22 3e e4 79 5e be 36 2c 34 3d 14 9a 5d be
       0.15882666 -0.21726185 0.043987475 -0.21640807
000180 c1 83 05 3e 8f f1 0b be aa f5 2e be 2c 30 ae 3d
       0.13038541 -0.13666366 -0.17085901 0.08505282
000190 b3 8b 42 be 53 59 55 bd ef 08 44 3d 2f d9 92 be
       -0.18998604 -0.05208714 0.047860082 -0.28681323
0001a0 8e ed 5b be 90 a3 68 3d d5 21 19 bf ec e7 fa bd
       -0.21477339 0.05679661 -0.5981725 -0.12251267
0001b0 b4 1b ff be a5 98 50 bd 9e 46 96 3c d3 5c 0f bf
       -0.49825823 -0.050926823 0.01834422 -0.56001014
0001c0 99 87 03 3f e4 d6 30 3e 22 07 24 3f ec d4 51 3e
       0.5137878 0.17269474 0.64073384 0.2049138
0001d0 cf dc 12 3e 79 4c cf 3e 6d 99 4b be 70 f3 b1 be
       0.14342044 0.40488032 -0.19882746 -0.3475604
0001e0 06 43 ed bd a1 0f 53 3d 69 ff dd be a6 c3 18 3f
       -0.11585049 0.051528577 -0.43358925 0.59673536
0001f0 63 0f df be e6 ac 2e be d0 51 a1 be 50 18 b6 3e
       -0.43566427 -0.17058143 -0.3150773 0.35565424

nnECG.1.running_var f4 [128]
000000 93 1a 99 3d 5b d7 9d 3d 3a 1b 94 3d b2 2b 98 3d
       0.07475772 0.077070914 0.072317556 0.07430209
000010 15 b8 97 3d cc d6 9f 3d 2c ca 94 3d cc 6a 94 3d
       0.07408158 0.07804641 0.07265124 0.072469324
000020 10 8e 98 3d d6 be 9b 3d fd 2f 9a 3d 72 77 98 3d
       0.07448971 0.076047584 0.07528684 0.074446574
000030 8f 3e 95 3d 14 72 99 3d 9b 2a 94 3d fb 8f 9e 3d
       0.07287323 0.07492462 0.07234689 0.07742306
000040 8f 42 96 3d 12 7b 96 3d 88 26 97 3d c3 40 9b 3d
       0.07336914 0.073476925 0.07380396 0.07580712
000050 7b 1c 97 3d ce 86 98 3d 3e f3 99 3d 6e c2 94 3d
       0.07378479 0.07447587 0.07517098 0.07263647
000060 22 ff 96 3d cf b0 99 3d f1 6b 96 3d 69 3d 9e 3d
       0.073728815 0.07504427 0.07344807 0.07726557
000070 4a db 99 3d fe 6b 93 3d b1 58 95 3d 9f f0 9a 3d
       0.07512529 0.07198332 0.07292307 0.07565426
000080 71 97 a0 3d 18 cc 97 3d 76 7e 98 3d c5 32 98 3d
       0.07841385 0.07411975 0.074459955 0.074315585
000090 ba 7e 94 3d 51 41 96 3d c1 d8 ad 3d a4 ec 94 3d
       0.07250734 0.07336677 0.08488608 0.07271698
0000a0 34 50 99 3d 82 a1 95 3d 2f 86 9f 3d 30 8e 95 3d
       0.07486001 0.07306196 0.07789265 0.07302511
0000b0 a3 46 a0 3d 44 f2 9a 3d d1 bd 94 3d 1c ed 96 3d
       0.07825973 0.0756574 0.07262767 0.07369444
0000c0 d1 98 96 3d a6 cc 96 3d b1 30 9b 3d 0b 13 95 3d
       0.07353366 0.07363252 0.075776465 0.07279023
0000d0 6b 02 98 3d 4e a3 97 3d 86 da 94 3d 18 47 9f 3d
       0.07422336 0.07404195 0.072682425 0.07777232
0000e0 62 ec 93 3d 3b d6 94 3d 0c 18 98 3d d9 5d 9b 3d
       0.07222821 0.07267424 0.074264616 0.075862594
0000f0 7d d8 95 3d cb 1b a0 3d a9 ef 9c 3d fb 8f 94 3d
       0.073166825 0.07817801 0.07662899 0.072540246
000100 30 8d 96 3d 18 b3 96 3d 81 a0 95 3d 67 62 95 3d
       0.07351148 0.07358378 0.07306004 0.072941594
000110 fd e3 96 3d 3d 93 97 3d e5 cc 95 3d 6a 78 95 3d
       0.07367704 0.0740113 0.07314471 0.07298358
000120 03 76 96 3d c0 de 96 3d e7 de 96 3d 9f 26 9d 3d
       0.07346728 0.07366705 0.07366734 0.07673382
000130 14 88 95 3d d5 4d 98 3d d6 dc 9c 3d b5 09 99 3d
       0.073013455 0.0743672 0.076593086 0.074725546
000140 70 14 99 3d 32 12 96 3d 81 7a 96 3d ea e0 9d 3d
       0.07474601 0.07327689 0.073475845 0.077089146
000150 a4 d1 97 3d 64 b2 94 3d f9 d2 94 3d 73 a7 94 3d
       0.07413033 0.07260588 0.07266802 0.07258501
000160 4a 24 96 3d 38 62 96 3d f2 1d 94 3d a5 aa 94 3d
       0.0733114 0.073429525 0.07232274 0.0725911
000170 16 be a3 3d 7d 47 9b 3d 52 59 98 3d dd 98 9c 3d
       0.079952404 0.07581995 0.074389115 0.07646344
000180 b5 22 96 3d 26 9e 95 3d 62 fe 9d 3d 5d 6b a3 3d
       0.073308386 0.07305555 0.07714535 0.07979462
000190 21 19 95 3d 72 aa 96 3d 99 0a 97 3d 78 18 9d 3d
       0.072801836 0.073567286 0.07375068 0.07670683
0001a0 46 59 96 3d b4 ef 94 3d 62 96 9f 3d aa 98 96 3d
       0.07341246 0.07272282 0.07792355 0.07353337
0001b0 d3 ec 93 3d 7e 3c 94 3d 41 d4 95 3d 98 0f 9e 3d
       0.07222905 0.072381005 0.07315875 0.07717818
0001c0 a3 2f 96 3d f1 2d 96 3d ec ba 97 3d a8 b7 95 3d
       0.07333305 0.073329814 0.074086994 0.0731042
0001d0 5e 84 9b 3d 0b e8 99 3d 00 c4 9c 3d ac cc 95 3d
       0.075936064 0.07514962 0.076545715 0.07314429
0001e0 15 15 99 3d 6a d3 98 3d 8a 95 95 3d ab 04 95 3d
       0.07474724 0.07462199 0.07303913 0.07276281
0001f0 a9 b0 96 3d 3e 57 97 3d 15 86 94 3d 5b 7e a7 3d
       0.07357914 0.07389687 0.072521366 0.08178397

nnECG.4.weight f4 [64, 128]
000000 54 e4 37 be 93 11 a6 ba 11 ec 67 bc 7a 66 0c 3e
       -0.17958194 -0.0012670032 -0.014155404 0.13710967
000010 44 18 30 3d 47 89 51 bc 42 14 f9 3c 95 c0 9e 3d
       0.04299189 -0.012789077 0.030405167 0.07751576
000020 a6 f3 b7 3d 22 cb 20 be 33 16 40 3c 40 67 e8 bd
       0.08982019 -0.15702489 0.011724043 -0.113478184
000030 27 4d 0c 3e 60 30 0e 3e 0e 49 2b 3e 9e 5a 88 3c
       0.13701306 0.13885641 0.16727087 0.016644772
000040 b6 55 e1 3c 05 a2 44 be df cb c1 3d 82 88 f8 3d
       0.02750669 -0.1920243 0.094627135 0.12135412
000050 91 42 fa bd 43 e5 d1 3c 46 d7 47 3e bc 0c 58 bd
       -0.12219728 0.025622016 0.19515714 -0.05274652
000060 7f 6d 2a 3e ef c9 24 3e 46 5f ef bd bb a5 91 bd
       0.16643332 0.16092657 -0.11688094 -0.07111689
000070 11 46 e5 3d b3 21 97 3d bc f6 d3 bd 75 af 45 3e
       0.11195005 0.073794745 -0.10349795 0.19305213
000080 88 0d 2a bd d3 04 d5 bd 90 5c fb bd 95 b0 dc bc
       -0.04151681 -0.10401311 -0.12273514 -0.02693967
000090 89 6a f4 3c ff 3b 1c bd df 6c a0 bd 8b c8 7f bc
       0.029835956 -0.038143154 -0.078332655 -0.015611778
0000a0 9d 67 9f bd 91 b0 f8 3c cd a5 87 3d 6c 47 53 3d
       -0.077834345 0.03035763 0.06623421 0.051581785
0000b0 03 37 a5 bd c2 97 43 3e 9f af d9 bd 54 89 bc 3d
       -0.08067133 0.1910086 -0.106292 0.09205881
0000c0 7b 5e ca bb 9d ab 31 3e 58 59 cb bd fd 82 47 bd
       -0.0061758137 0.17350622 -0.0992915 -0.048708905
0000d0 b9 73 d5 bd a4 24 85 bc dd 9e aa bc d6 0e 99 bc
       -0.10422463 -0.016252823 -0.020827705 -0.018683832
0000e0 d2 a3 8c bd 2d 18 5f 3d 54 75 aa 3d f2 f3 b7 bd
       -0.06867184 0.054466415 0.0832316 -0.08982076
0000f0 d2 91 bc 3c e9 8c da 3d 6b 07 e4 bd 49 0f 1c 3e
       0.023018751 0.10671408 -0.11134227 0.15240206
000100 ba d2 ca bd 59 71 1b 3e a8 2a 74 3d 14 fe 28 be
       -0.09903474 0.15179957 0.059610993 -0.16503173
000110 d6 06 04 3e 82 b3 cf 3d 11 3a c1 3d ae 02 b8 bb
       0.12893233 0.1014166 0.094349034 -0.005615554
000120 97 70 b9 bd c0 a6 48 be 16 5a 3f 3e 7d b9 8e bd
       -0.09054678 -0.1959486 0.18686709 -0.06968973
000130 1e c4 ed bd 42 06 57 bd 79 61 0d be 86 83 00 be
       -0.11609672 -0.052496202 -0.13806714 -0.12550172
000140 10 30 f5 3d 7c 28 fb 3d 32 e6 f8 bc 06 01 2b 3e
       0.11972058 0.12263581 -0.030383203 0.16699609
000150 46 ae 50 3e 28 14 38 bd 52 42 0f be 1c 70 49 3e
       0.2037898 -0.044941097 -0.13990143 0.19671673
000160 54 3e 76 3d 85 f2 15 3e b5 66 13 3d a7 b2 24 be
       0.060118034 0.14643295 0.03598662 -0.16083775
000170 3c 1b 45 be a1 20 32 3e 97 0c 0c be 94 95 16 3e
       -0.1924867 0.1739526 -0.13676678 0.14705497
000180 1f c9 d0 bc ba 94 0f 3e 30 0b 98 bd 52 61 a1 3d
       -0.025486527 0.14021578 -0.07424009 0.078798905
000190 e0 90 92 bd f5 7a c1 bc d3 17 04 3e dd 53 7c bc
       -0.07156539 -0.0236182 0.12899713 -0.015400854
0001a0 fe d2 f0 3d 8a e2 cc 3a c5 b7 02 be d4 ea 34 3e
       0.117589936 0.0015631479 -0.12765415 0.17667705
0001b0 21 dc bd bd 0b d9 1f bd 00 1d d5 3c 6f 98 13 3e
       -0.09270502 -0.039025348 0.026014805 0.14413618
0001c0 3d 4c 76 bc 0b f2 16 3d 51 7a 24 be 87 6f 93 3d
       -0.015032825 0.036851924 -0.16062285 0.071990065
0001d0 5b 2b b8 3d 1b 62 2c be c5 cf 08 be e5 b4 f6 3d
       0.089926444 -0.168343 -0.13360508 0.12046222
0001e0 71 35 d1 3d 06 9a 98 3d d6 b0 1b 3e da 25 d6 3d
       0.10215271 0.07451253 0.15204176 0.10456438
0001f0 29 ad 38 3d d8 53 15 3e f3 2b 07 3e 1a ee bc bd
       0.045087013 0.14582765 0.13200359 -0.09225102
000200 9c 35 52 3e bb 84 5a 3d 9b f5 85 3c e9 d6 39 3e
       0.20528263 0.053349238 0.016352465 0.18148388
000210 61 c1 5c 3e 5d 44 68 be 65 41 a4 bd 7c d9 15 3c
       0.21558143 -0.22682329 -0.080202855 0.009146091
000220 32 45 1e 3d 89 e6 b6 3d 36 10 29 3e af 3a 3d be
       0.03864021 0.0893069 0.1651009 -0.18479417
000230 94 7c 24 bd 2c 06 12 3e 61 68 ad 3d 9e b1 14 3d
       -0.04015787 0.14260167 0.08467174 0.0363022
000240 a5 26 87 be 59 4c 25 be a5 b0 6b be dc 11 18 3e
       -0.2639667 -0.16142406 -0.23016603 0.14850563
000250 2b de 01 be d3 64 12 be 65 e1 13 be b9 61 09 3e
       -0.12682407 -0.14296274 -0.1444145 0.13416184
000260 54 54 22 3e e6 9a 2d bd be 2b f9 bd 77 d3 6b 3e
       0.15852481 -0.04238405 -0.12166546 0.23029886
000270 b5 80 79 be ab c2 0c 3e 0b b7 8b bd b5 08 50 3e
       -0.24365504 0.13746135 -0.06822022 0.20315821
000280 59 20 17 3e a8 b5 73 be 4c 88 85 be 88 ae c2 ba
       0.14758433 -0.23799765 -0.2608055 -0.001485304
000290 5c 34 d0 3d b4 90 f1 bd 30 c7 07 bd 54 dc d9 3d
       0.10166237 -0.11795178 -0.033148944 0.106377274
0002a0 0a ef 2e be 7c 13 6d bd 3e 0f 1f 3c e9 33 ac bd
       -0.17083374 -0.05787991 0.009708224 -0.084083386
0002b0 49 4b 70 3e dd 3a 83 3d 10 ad 9a 3d 69 97 01 3d
       0.23466219 0.06407712 0.0755254 0.031638537
0002c0 cb a2 b6 3d d1 f5 36 3e 29 c5 a0 3b 44 16 9c bc
       0.08917769 0.17867209 0.004906316 -0.019053586
0002d0 e0 e8 03 3e a7 2a 0f bc 21 f2 c5 3c da 01 23 3e
       0.12881804 -0.008738196 0.024163308 0.15918675
0002e0 e2 f1 99 3c a9 1f af bc 00 72 03 be 3d 1d 24 bd
       0.018792097 -0.021377401 -0.12836456 -0.040066946
0002f0 c9 d6 05 3e 49 41 25 be d2 f0 59 be 95 f8 d8 bc
       0.13070215 -0.16138186 -0.21283272 -0.02648572
000300 a1 16 7f 3d f4 44 8e 3e bd 4b 16 3d 7e 57 33 bd
       0.06227744 0.27786982 0.036693323 -0.04378461
000310 61 4d e7 3d 06 fa 37 be e6 78 19 3e ae 6d 03 3e
       0.11294056 -0.1796647 0.14987525 0.12834808
000320 d8 80 42 3d 90 93 46 bc a2 a7 48 bb 34 21 87 bd
       0.047486156 -0.012120143 -0.0030617495 -0.0659813
000330 75 42 b3 3d 1d 15 09 bd 22 71 89 3e 35 d3 28 be
       0.0875291 -0.0334674 0.26844126 -0.16486819
000340 4d 83 89 bc be 40 1e be 95 fc f3 3d 96 00 66 be
       -0.016786242 -0.15454385 0.119134106 -0.22461161
000350 30 a7 4c bd 40 2a b1 3d 14 f6 dc 3d db 30 63 3e
       -0.04996413 0.08650637 0.10789123 0.22186606
000360 dd 93 17 3e f3 f7 23 bc 33 08 a4 3c 64 01 a1 3d
       0.14802499 -0.010007846 0.020023441 0.07861593
000370 be 90 4c be ea 54 8a be 1d d1 cb 3d 80 ac 82 be
       -0.1997709 -0.2701791 0.099519946 -0.25522232
000380 b3 53 e1 3d ca eb b7 3c 00 48 a6 3d 82 fc 14 3e
       0.110022925 0.0224513 0.08119202 0.14549449
000390 17 5d a4 bd c2 5f f2 3d 41 43 51 3e 16 33 2b be
       -0.08025568 0.118346706 0.20435812 -0.16718706
0003a0 4d 95 4d 3d 02 0c 10 3e 8c 44 4b 3d c9 76 27 be
       0.050191212 0.1406708 0.04962592 -0.16353907
0003b0 80 f4 82 bd 33 fc e6 3d 9c e6 3f 3c d4 44 08 bd
       -0.06394291 0.11278572 0.011712696 -0.033268765
0003c0 6a fd 17 bd 6a ea 7e 3a a7 57 4c 3e 73 d5 00 3e
       -0.03710691 0.00097242615 0.19955312 0.12581424
0003d0 c4 87 31 be e1 45 06 bd 5b a9 5c 3e 54 a9 43 3e
       -0.17336947 -0.032781485 0.21548979 0.19107562
0003e0 35 0a eb bc c0 81 0c 3e cb c3 a0 3c f7 06 c9 bd
       -0.02869139 0.1372137 0.019624611 -0.098157816
0003f0 42 76 91 bd be b7 bf bd c2 f6 53 3d 90 7a b6 3c
       -0.07102634 -0.09361218 0.051749 0.02227524

nnECG.4.bias f4 [64]
000000 c4 c2 35 3d 4a ad 49 3d a1 60 0a bd 5f 8a 0b 3c
       0.044375196 0.049237527 -0.03378356 0.008516877
000010 88 47 09 3d 82 cd da 3c 8b b9 27 b9 43 6c f7 3b
       0.033515483 0.026709322 -0.00015995481 0.0075507476
000020 14 92 95 bc 8a 8e ee 3b ea 0b 22 bd ea 00 43 3c
       -0.018258132 0.0072801756 -0.039562143 0.011902073
000030 7e a7 b5 3b 0b ee 88 3d f1 29 c1 3c 7d 7a 3c bc
       0.0055436483 0.06686028 0.02357957 -0.011503813
000040 97 4b db 3a d1 17 98 3c 2a 71 2d 3c 08 a4 15 3d
       0.0016730902 0.018566044 0.010586062 0.036533386
000050 15 3e 46 bc ff 7e 52 3b fe c7 01 bc 38 fa a9 3d
       -0.012099762 0.0032119153 -0.007921217 0.082996786
000060 21 27 e5 3c 10 fc 81 3c fa c7 5e bc d7 d1 9e bb
       0.02797276 0.015867263 -0.013597483 -0.004846792
000070 17 fb e1 bc 34 ac e1 3c 29 3c 44 3c 24 2e ea bc
       -0.02758555 0.027547933 0.011977234 -0.028586455
000080 3f 0e ef bb a3 ca c8 ba d5 1c bd bb 5e e5 df ba
       -0.0072953994 -0.001531918 -0.0057712593 -0.0017081907
000090 68 4b 1e 3d 25 e1 48 3d bc 59 31 3d 02 59 b2 3c
       0.03864613 0.04904284 0.043298468 0.021770958
0000a0 da 9e ef 3b d8 51 fa bc 35 e5 64 3d fa bf b0 bb
       0.0073126378 -0.030556604 0.05588265 -0.005393979
0000b0 37 4f 8a 3b 35 b2 41 bc 95 c9 3b bc 85 3a 8e bc
       0.004220869 -0.011822273 -0.011461635 -0.017361889
0000c0 c1 14 06 3d a5 75 84 3c ef b3 8b 3c 66 48 99 3c
       0.032734636 0.016169379 0.017053572 0.01871128
0000d0 51 ee 8a bc 7a 4d d7 bb 3d 2c 1f 39 c3 c5 4d bc
       -0.016959341 -0.006570515 0.00015179902 -0.012559357
0000e0 69 de 97 bc cf 40 9c bc 26 07 92 b9 0a af 2d 3c
       -0.01853867 -0.019073872 -0.00027852616 0.010600815
0000f0 c4 fd 04 3c f0 fd cd 3c af e6 f8 3b 6e c6 b8 bb
       0.008117143 0.0251455 0.007595859 -0.005638889

nnECG.5.weight f4 [64]
000000 b0 45 74 3f 91 68 95 3f 54 52 86 3f c0 b0 80 3f
       0.95418835 1.1672536 1.0493875 1.005394
000010 96 e6 9c 3f be 1b 8b 3f 72 87 84 3f 0b a4 84 3f
       1.2257869 1.0867841 1.0353835 1.0362562
000020 e1 91 86 3f 90 d9 86 3f 6b 00 87 3f eb b9 87 3f
       1.0513269 1.0535145 1.0547003 1.0603613
000030 13 a5 82 3f 5e ca 93 3f ce aa 93 3f 23 07 81 3f
       1.0206627 1.1546133 1.15365 1.0080303
000040 0c d1 87 3f a4 85 8b 3f c8 5b 82 3f ed 7d 76 3f
       1.0610671 1.0900159 1.018426 0.962859
000050 d5 90 7b 3f d4 ed 90 3f 41 75 80 3f d2 9a 88 3f
       0.9826787 1.1322579 1.0035783 1.0672247
000060 c8 49 91 3f 1b e2 8e 3f ee 48 80 3f 4b 7f 86 3f
       1.1350641 1.1162752 1.0022256 1.0507597
000070 ac e8 8d 3f 97 51 90 3f c2 6b 80 3f f6 c9 7a 3f
       1.1086631 1.1274899 1.0032885 0.9796442
000080 a5 b6 87 3f 90 18 85 3f 00 6f 7e 3f 64 9b 84 3f
       1.0602614 1.0398121 0.9938812 1.0359921
000090 fb c7 86 3f 10 fe 86 3f f7 a9 94 3f 2a 34 8e 3f
       1.0529779 1.0546284 1.1614369 1.1109669
0000a0 c3 e0 81 3f 10 6a 87 3f 77 d2 90 3f bf 76 81 3f
       1.0146717 1.0579243 1.1314229 1.0114363
0000b0 5c 7e 82 3f 0c 02 87 3f 82 1f 8a 3f f1 66 89 3f
       1.0194812 1.05475 1.0790865 1.073454
0000c0 99 84 8f 3f 97 a5 78 3f c0 22 87 3f 4e 9c 8a 3f
       1.121234 0.9712767 1.055748 1.082895
0000d0 d9 0a 80 3f 18 1e 84 3f e2 e7 88 3f 2a c0 82 3f
       1.000331 1.0321684 1.0695765 1.0214894
0000e0 e3 19 81 3f ee 12 90 3f d0 79 8d 3f ba bd 81 3f
       1.0086025 1.1255777 1.1052799 1.0136025
0000f0 8d 38 86 3f 05 87 91 3f 3f e1 89 3f 25 be 86 3f
       1.0486008 1.136933 1.0771865 1.0526778

nnECG.5.bias f4 [64]
000000 7e 27 ba 3c cc d4 1b 3d 86 1e 27 bd 9e 38 3d ba
       0.02272391 0.038044736 -0.040800594 -0.00072182145
000010 57 e2 d0 3c 92 86 c8 3c 87 87 76 bc 86 1f 28 bb
       0.025498552 0.02447823 -0.015046961 -0.0025653555
000020 c7 f3 f7 bc 13 23 1a 3b 24 76 55 bd f8 fe df 3b
       -0.03026761 0.002351944 -0.05211462 0.0068358146
000030 81 a5 3f bc ea 33 14 3d 2f 3e 51 3c d9 18 1c bd
       -0.011697174 0.03618232 0.012771173 -0.038109634
000040 3e 9b c1 bb a7 8b dc 3c 02 f6 07 3c 1d 86 df 3c
       -0.005908399 0.02692206 0.008298399 0.02728563
000050 be dc ad bc cf 08 96 bc ee e4 5a bc eb 6a 98 3d
       -0.021223422 -0.018314747 -0.013360245 0.07442268
000060 85 fc 72 3c f1 83 28 3c 36 16 8a bc 74 c6 8d bc
       0.014830713 0.0102853635 -0.016856294 -0.017306544
000070 40 9f be bc 3a 5e 75 3b aa 93 f4 3b d2 22 2e bd
       -0.023269296 0.0037440197 0.007463892 -0.042513676
000080 15 f9 52 bc 5d 60 13 ba a6 ec ab bc 76 52 da bc
       -0.012876769 -0.0005621964 -0.020986866 -0.026650649
000090 a7 47 ea 3c 81 d0 d6 3c bf 72 bb 3c 53 0d 73 3c
       0.02859862 0.02622247 0.022881864 0.01483472
0000a0 7f 16 f7 ba 90 f4 38 bd 63 02 3e 3d 01 c0 8f bc
       -0.0018851309 -0.045155108 0.046388995 -0.01754761
0000b0 47 88 45 bb 91 a5 35 bc 0d 4c 43 bc 3b 21 ab bc
       -0.0030141042 -0.011086837 -0.011919987 -0.020889869
0000c0 1f fb 28 3c 52 fe 90 3b ea ac 92 bb 39 c4 f9 3b
       0.010313778 0.0044248486 -0.0044761794 0.0076222685
0000d0 b5 b7 19 bd fc c6 65 bc b2 dd 86 bc 73 58 b5 bc
       -0.037528712 -0.014024492 -0.016463134 -0.022136902
0000e0 82 56 09 bd 1a 29 13 bd 37 8d 7e bc ba 2f e4 3a
       -0.033529766 -0.03592787 -0.015536598 0.0017409243
0000f0 ae d8 62 3c 64 eb 06 3c 6a 73 06 bc 8d 67 04 bc
       0.013845606 0.008234832 -0.008206228 -0.008081329

nnECG.5.running_mean f4 [64]
000000 0c d0 07 3f 6e ec 06 3e ab 89 b9 bd da 14 39 be
       0.5305183 0.13176128 -0.09059461 -0.1807436
000010 24 9f 3c 3f f5 14 45 bd 68 34 01 3e be 09 1f 3e
       0.7368033 -0.04811569 0.12617648 0.1553106
000020 e8 a6 71 bd 23 21 08 bd 9a 16 dc 3e 70 26 0d 3d
       -0.058997065 -0.033234727 0.42985994 0.034460485
000030 71 7e 1b 3e e5 fd ee 3e d5 57 23 3e af 2b da be
       0.15184952 0.4667808 0.15951474 -0.42611453
000040 88 0a e4 3d bc 40 4d 3c 29 28 17 bf a9 85 2f 3f
       0.11134821 0.012527641 -0.59045655 0.68563324
000050 72 34 91 be 24 d9 78 3e d5 19 c7 bd e2 70 48 3f
       -0.28360325 0.24301583 -0.09721724 0.78297246
000060 76 f6 31 3e ca 35 73 3e 72 d5 b1 be ab 65 ca bd
       0.17379174 0.23750988 -0.34733158 -0.09882673
000070 e4 c6 1f bd c6 ff d6 3e c2 24 0b 3e d0 0e 8c bd
       -0.039008036 0.41992015 0.1358824 -0.06838763
000080 35 ad 1a 3e e0 53 ac 3d 25 56 d8 be 3c 55 db 3e
       0.15105136 0.084144354 -0.42253223 0.42838466
000090 2b d9 40 3e e7 19 08 3f 96 6d c7 3e 50 b9 a3 3e
       0.18832843 0.53164524 0.38950795 0.3197732
0000a0 90 77 d4 be 9b 68 86 be 15 87 53 3f a7 8d 5a bf
       -0.4149747 -0.26251683 0.82627994 -0.85372394
0000b0 4e 18 44 3e fb a9 8e be 72 7b 18 be 94 f1 cb bb
       0.19149897 -0.2786406 -0.1489084 -0.0062238667
0000c0 2f 77 ad 3e 69 b8 63 be 29 72 8e 3e b3 1f 49 bd
       0.33879992 -0.22238316 0.27821472 -0.049102496
0000d0 b1 61 7e be 7e e4 ad be eb 76 f0 3d a2 7e 53 3e
       -0.24841954 -0.33963388 0.11741432 0.20653775
0000e0 cd 86 1b 3e d1 3c cd 3e f8 71 e3 bd 68 14 a0 bd
       0.15188141 0.40085462 -0.11105722 -0.07816392
0000f0 15 3d e8 be 27 bb 2d 3e f4 46 f0 be 41 70 9c be
       -0.45359102 0.16965924 -0.46929133 -0.30554393

nnECG.5.running_var f4 [64]
000000 f8 d1 c9 3f a3 44 b5 3f dd 7b 76 3f 80 10 70 3f
       1.5767202 1.4161571 0.9628275 0.93775177
000010 ca 74 8b 3f 8e 5d 79 3f c2 00 72 3f df 51 5e 3f
       1.0895016 0.9740838 0.94532406 0.86843675
000020 42 38 a3 3f 58 39 66 3f 87 69 73 3f 5d cb 9e 3f
       1.2751544 0.8993125 0.95082897 1.2405812
000030 37 fc 97 3f e6 f3 82 3f db be aa 3f d3 6f bd 3f
       1.1873845 1.0230682 1.3339494 1.4799751
000040 ef 67 70 3f 20 0c a4 3f 98 aa a3 3f e8 eb 87 3f
       0.9390859 1.28162 1.2786436 1.0618868
000050 4c 3f 7b 3f 49 e1 9b 3f 79 20 fb 3f 62 15 a9 3f
       0.9814346 1.2178127 1.9619285 1.320965
000060 2f dc b7 3f 5e d4 e8 3f 95 46 99 3f 27 5d b7 3f
       1.436407 1.8189809 1.1974665 1.4325303
000070 0f da 60 3f 9e 96 c3 3f d5 05 7b 3f 11 03 ba 3f
       0.8783273 1.528034 0.98055774 1.4532186
000080 c6 be 96 3f 60 c8 2c 40 03 e3 aa 3f c7 3c fa 3f
       1.177697 2.69973 1.3350528 1.9549798
000090 b6 2a 78 3f 28 d9 c8 3f f2 e2 b8 3f 2f 46 76 3f
       0.9694017 1.5691271 1.4444258 0.9620084
0000a0 74 11 8e 3f 4a 50 91 3f 9a ce b5 3f ac df c0 3f
       1.1099076 1.1352627 1.4203675 1.5068259
0000b0 ae 1b 48 3f f3 26 61 3f cc 64 a7 3f 06 6e 82 3f
       0.78167236 0.87950057 1.3077636 1.0189826
0000c0 ab d3 90 3f f4 10 07 40 6d ca 8b 3f 9f b3 5a 3f
       1.1314596 2.1104097 1.092115 0.8543033
0000d0 38 65 6d 3f 1c 36 76 3f af 7b 3f 40 c8 c5 b4 3f
       0.9273257 0.96176314 2.991924 1.4122858
0000e0 43 92 ea 3f e9 2d 93 3f 32 68 21 40 8d 14 e9 3f
       1.8325886 1.1498386 2.5219846 1.8209397
0000f0 ab 95 ab 3f 96 d9 60 3f f2 a2 c2 3f f0 7c ae 3f
       1.340505 0.8783201 1.5205977 1.3631878

nnECG.8.weight f4 [16, 64]
000000 f6 94 c3 bc 9b af 83 bb 2b 49 57 3d 1a ef ca 3d
       -0.023874741 -0.0040187365 0.052560013 0.09908886
000010 42 a5 31 be 50 30 ce bd e0 97 64 be be 80 ad 3d
       -0.17348197 -0.10067809 -0.2232356 0.08471821
000020 69 3c 66 bd 51 02 03 be 1d 66 88 be 41 e2 6c be
       -0.056209955 -0.12793852 -0.26640406 -0.23133184
000030 d4 ad 82 3e b5 b9 79 be dd 6e 6c be 08 3e 67 3e
       0.25523245 -0.24387248 -0.23089166 0.22582257
000040 e7 98 8b 3e c8 6f 7f 3e b9 ef 7d be 58 05 92 bd
       0.27265093 0.24944985 -0.24798478 -0.071299255
000050 ed 29 74 be d3 21 c7 bd 0d b8 66 bd d9 0d 00 bd
       -0.23844118 -0.09723248 -0.05632787 -0.031263206
000060 b0 95 a0 bd b0 70 29 3e ce a6 67 bb af 23 9c 3e
       -0.078410506 0.16546893 -0.0035347226 0.30495974
000070 2a 94 9d bc 5a 0a 8a be 52 ea 2f 3d 4d b7 2b bd
       -0.01923569 -0.26961023 0.042948075 -0.041922856
000080 45 15 29 bd f1 c4 2a 3e c8 b8 87 3c a2 50 78 3e
       -0.04128005 0.1667669 0.016567603 0.24249509
000090 9b 23 ef 3d 2b 72 99 3e 3f dc a7 be 17 42 7e be
       0.11676713 0.29969916 -0.32785222 -0.24829899
0000a0 fe 86 66 3e 4f 02 0e be ac d0 69 3d 26 5e 75 be
       0.22512433 -0.13868068 0.05708377 -0.23961696
0000b0 1f 24 59 be 00 ec 04 3e e4 91 0d 3e c8 70 31 be
       -0.21205185 0.12980652 0.13825184 -0.17328179
0000c0 56 21 80 3e 2d 6c 78 be f0 10 98 be dd 12 45 3e
       0.25025433 -0.24260016 -0.29700422 0.19245477
0000d0 92 8a f0 3c 54 63 a4 3e 25 51 89 3e 54 b1 81 bc
       0.02936295 0.3210703 0.2681972 -0.015831627
0000e0 21 d8 12 be 1a 4c b2 be a8 d7 0b be 2e d8 7c 3e
       -0.14340259 -0.34823686 -0.13656485 0.24691841
0000f0 d9 18 84 3e e9 6c 36 be a1 6c bc 3b be 8e bb bc
       0.25800207 -0.17814983 0.0057502543 -0.022895213
000100 d9 ba 81 be 30 e6 bc 3e c7 01 31 3e 6a 0b 8f 3d
       -0.25337866 0.3689437 0.17285834 0.06984599
000110 74 b3 9f be 77 91 5c bc ff 22 7f 3d be 33 c4 3d
       -0.311916 -0.013462416 0.062289234 0.095801815
000120 70 b7 c0 3a 1e 4b 0c be b2 86 8d be c4 73 ac 3e
       0.0014703106 -0.1370053 -0.27641827 0.33682072
000130 79 bd 32 3e 60 81 fc 3d 46 61 a1 3e 07 80 79 3e
       0.1745509 0.12329364 0.31519526 0.24365245
000140 14 56 24 3e e2 1a 14 bd 27 d7 fa bd 60 22 23 bd
       0.16048461 -0.03615845 -0.12248068 -0.039827704
000150 da f1 d1 bd 04 5e ab bc 6d be 21 be 57 3c a6 3e
       -0.10251208 -0.020918854 -0.15795298 0.3246791
000160 c7 12 c4 3e 6d 2e 5e 3d 31 f0 1e be 3c 9c 21 bd
       0.38295576 0.054243494 -0.15521313 -0.039455637
000170 09 fa 7d 3e 71 b2 9f 3e 99 1a d6 bd 22 38 64 bd
       0.24802412 0.31190827 -0.10454292 -0.055717595
000180 50 86 4d be d1 f4 68 be 5d 71 14 be 1b c4 e1 3d
       -0.20070767 -0.2274964 -0.1449637 0.11023732
000190 38 ce 9b 3d a1 85 8b 3d dc 0a fe 3d 9d 89 8a 3e
       0.076076925 0.06812597 0.12404415 0.27058116
0001a0 a7 5e 81 be b4 66 65 be bf c4 6f 3e b8 c9 53 3e
       -0.25267527 -0.2240246 0.23414896 0.20682418
0001b0 e3 19 97 bd 1a e0 47 be 2c 0b 27 bc 1c 56 00 bc
       -0.073779844 -0.19519082 -0.010195535 -0.00783303
0001c0 e6 eb 00 3e 05 d9 4a be 4d 57 32 3e 81 07 a9 3e
       0.12589988 -0.19809349 0.17416115 0.33013538
0001d0 0c 62 8e 3e f1 37 d9 3d 2e 78 5c 3e 9d 52 2b 3e
       0.2780918 0.10606373 0.2153022 0.16730733
0001e0 b3 e3 7e be fa c4 39 be b9 04 8a bd 52 1d 6f 3e
       -0.24891548 -0.18141547 -0.06739182 0.23351029
0001f0 d3 fb 92 be c1 2d 48 3d c9 60 57 3e d5 45 40 3e
       -0.28707752 0.04887176 0.21033014 0.18776639
000200 32 89 af 3d 69 68 5a bd e3 11 18 3e 4a f8 a7 3d
       0.0857109 -0.05332223 0.14850573 0.08201654
000210 db 47 02 bd c9 af 14 be f1 03 1e 3d a7 11 15 3e
       -0.031806808 -0.14520182 0.038577978 0.14557515
000220 fa 7d 96 3c 00 b5 87 be 24 8e 51 be 52 99 73 be
       0.018370617 -0.2650528 -0.20464379 -0.23788956
000230 9c a4 cd 3d 0f 85 ff bd b5 13 8e be 74 54 86 be
       0.10041162 -0.12476551 -0.2774941 -0.26236308
000240 7b 7a 72 3d b8 aa ee bd 67 99 ec 3d 4c fa 8c be
       0.059198838 -0.11653656 0.11552697 -0.2753471
000250 c6 74 51 bd f8 69 0c 3e 66 4c 1a be a0 24 02 be
       -0.051136754 0.13712299 -0.15068206 -0.12709284
000260 aa 56 84 bd 42 50 41 bd f9 70 ab 3c 2f b7 01 3d
       -0.06461842 -0.04719568 0.020927893 0.031668838
000270 37 47 2a 3e 77 8d 50 be 5a 20 18 3d e9 dd 56 3c
       0.16628729 -0.20366465 0.037140228 0.013114431
000280 f6 3c 01 be 5d 00 c8 3d 4d 26 9d be 84 3c 85 be
       -0.12620911 0.09765694 -0.30693284 -0.26022732
000290 c9 4e 3c 3e 60 0d 93 be 4b f4 09 bd f7 e1 dc bd
       0.18389429 -0.28721142 -0.03368024 -0.10785287
0002a0 ea 6d 82 bd df 11 72 3e d0 eb 76 3c 07 c4 81 bd
       -0.06368621 0.2363963 0.0150708705 -0.063362174
0002b0 69 3c 08 3e f9 ce 17 3e a9 f7 19 be 41 3d 41 be
       0.13304295 0.14825048 -0.15035881 -0.18871023
0002c0 d6 cc 16 3e 3e cd 9d bb a0 32 15 3d 76 0b 44 be
       0.14726576 -0.0048157265 0.036425233 -0.19144997
0002d0 95 2e 7c 3e d5 4d 2b bd ed 14 32 be 3e d9 4f be
       0.24627145 -0.041822273 -0.17390795 -0.20297715
0002e0 a8 72 6b bd af 15 82 3d cd 53 8a be 40 0d 91 bd
       -0.05748239 0.06351792 -0.2701706 -0.07082605
0002f0 09 fd 99 bc 91 ce 0e bd 60 34 95 be eb b7 60 be
       -0.018797414 -0.034864966 -0.2914152 -0.21945159
000300 63 12 3b be 63 4e 41 bc ac 8a 6a be be 2b 46 be
       -0.18268733 -0.011798474 -0.22904462 -0.19352624
000310 ac 82 3d 3e 3c a8 9c be 3b 0b 64 3e ac db 34 3e
       0.18506879 -0.30597103 0.22269909 0.17661923
000320 04 75 57 be 36 a9 a2 bd be f6 db 3c 5b ff 17 3e
       -0.21040732 -0.07942431 0.026851054 0.14843504
000330 2f 76 26 3e cb b8 e3 3d d9 3f ee bd dd 0d 78 3d
       0.16256021 0.11119231 -0.11633272 0.060560096
000340 ce 05 7a be bb e2 25 3e 48 0a 05 bd 51 e0 35 be
       -0.24416277 0.16199772 -0.032480508 -0.17761351
000350 24 93 0d 3e be 41 6d 3e 8b 54 aa 3d a4 9f 34 3e
       0.13825661 0.2316961 0.083169065 0.17639023
000360 06 e1 a0 be 44 14 00 3e 72 0c 49 be 08 15 8f 3e
       -0.3142168 0.1250773 -0.19633654 0.27945733
000370 00 29 92 3e 0d d4 66 be cc e5 50 3e b7 73 e5 bb
       0.28546906 -0.22541828 0.2040016 -0.0070023197
000380 e8 90 3b be c8 cb d9 3d d2 21 a9 be c1 a2 a1 bd
       -0.18316996 0.10634571 -0.33033615 -0.07892371
000390 2a 15 10 3e 95 67 74 3e 58 82 61 be 92 5a 0d bc
       0.14070573 0.23867638 -0.22022378 -0.008627551
0003a0 ec 2d 3f 3e 11 77 df bd 4d 4b 3b be 3a 28 12 be
       0.18669862 -0.10911382 -0.18290444 -0.14273158
0003b0 78 1d c4 3d 25 77 5e be e5 2d 6e 3e 79 68 c4 39
       0.09575933 -0.21725138 0.23259695 0.0003746187
0003c0 1f 14 b3 3e d7 98 6c be 9d 9f 08 3e ef cf 5b 3e
       0.3497629 -0.23105179 0.13342138 0.21466039
0003d0 54 c8 0a 3e 9c 70 5d be 64 a9 a9 bd 0c 49 02 bd
       0.13552982 -0.21624988 -0.08284262 -0.031807944
0003e0 d0 9d 3b 3e 3f 4c 6d be 9a 25 a8 3d ef 36 95 3d
       0.1832192 -0.23173617 0.08210297 0.072858684
0003f0 d2 22 03 be 38 cf c4 be 65 2a 03 bd 76 e1 ff bd
       -0.12806252 -0.38439345 -0.032022852 -0.12494175

nnECG.8.bias f4 [16]
000000 a3 0a e6 3c db 26 e8 3c 7f 1f ef 3b a0 7f 0c 3c
       0.028081244 0.02833884 0.007297456 0.00857535
000010 df c5 c2 3c bc df 31 bb ce e9 63 3d 00 3d 28 bc
       0.023775993 -0.0027141413 0.055642895 -0.01026845
000020 37 7c ce bc d2 72 a5 3b 4c 85 0d 3c 9d 0d 23 3a
       -0.025205715 0.005049088 0.0086377375 0.0006219985
000030 eb c3 73 bc d2 af f2 3c c2 e0 43 3c 24 49 c3 3c
       -0.014878253 0.029624853 0.011955442 0.023838587

nnECG.9.weight f4 [16]
000000 d2 8c 83 3f 72 8c 90 3f 35 95 84 3f 51 0d 88 3f
       1.027735 1.129286 1.0358034 1.0629064
000010 50 36 82 3f f7 49 83 3f 55 46 74 3f 69 0a 8d 3f
       1.0172825 1.0256947 0.9541982 1.1018802
000020 5b 46 81 3f b7 7e 90 3f 9b 11 79 3f d1 c1 84 3f
       1.0099596 1.128867 0.9729249 1.0371648
000030 7c 45 8b 3f a6 d5 91 3f cc 57 87 3f 18 c2 85 3f
       1.088058 1.1393325 1.0573668 1.0449858

nnECG.9.bias f4 [16]
000000 5d d3 7d 3b fe d0 dd 3c 2f b1 44 3b 39 57 4c bc
       0.0038730719 0.027077194 0.0030012836 -0.012471967
000010 5d c9 88 3b f7 31 9d 3b da 06 90 3d e8 40 51 bc
       0.004174395 0.004797216 0.07032557 -0.0127718225
000020 8a 2a 0d bd a9 95 22 bc 4a e4 c9 bc 81 a9 05 3c
       -0.034464397 -0.009923377 -0.02464499 0.008158089
000030 28 73 32 bc b1 90 6d 3c bc 01 c4 bc 64 9a e1 bb
       -0.010891713 0.014499829 -0.023926608 -0.00688486

nnECG.9.running_mean f4 [16]
000000 20 00 f8 bd 46 14 bc bc 8f 4a 2a bf e5 59 38 3e
       -0.12109399 -0.022958886 -0.6652002 0.18003042
000010 38 60 9e 3e e9 06 27 3e 1a aa 67 3f b0 a0 ff 3c
       0.30932784 0.1631123 0.9049393 0.031204551
000020 93 77 0a be c7 a6 b6 bc 82 83 b0 3e 7f 57 b5 be
       -0.13522176 -0.022296323 0.34475332 -0.35418317
000030 e5 47 a8 be 72 9b 1b 3f 6d 00 04 3f ee 9d 06 be
       -0.3286735 0.60784066 0.5156315 -0.13146183

nnECG.9.running_var f4 [16]
000000 3b 5b c4 3f b9 88 b0 3f b0 0b c5 3f 52 fe bf 3f
       1.5340341 1.3791724 1.5394192 1.4999487
000010 1d be ca 3f 6e be 91 3f 2f 21 f6 3f b3 8c ab 3f
       1.5839268 1.138624 1.9228877 1.3402313
000020 48 6c f9 3f c9 70 cc 3f e8 dd dc 3f 17 aa 0f 40
       1.948617 1.5971919 1.725522 2.2447565
000030 82 dc cb 3f 53 1b ca 3f c9 c9 c4 3f 42 80 e2 3f
       1.5926669 1.5789589 1.537408 1.7695391
