Models/net_2_0_epoch_38.pth (torch, 57997 bytes, 25 tensors)

nnECG.0.weight f4 [128, 12]
00000000: 79a8 973d 09d6 04bd b79f 693d e988 15be
00000010: 5243 b23c 6171 c9bd 37e5 33bd 4321 2f3c
00000020: bbd3 dc3d dfdf c63d f44b 2abe a6fc 13be
00000030: a9a9 a33d b319 193e 9150 aebd 3a72 02be
00000040: 83b9 5bbe eae3 e43d 81ee 2d3e 40ca 263e
00000050: 7989 353e 5e22 2bbe a21f 033e f122 dabc
00000060: 3fd2 4d3e a49b 513d d8d9 2c3e 8bbb f2bb
00000070: 9de9 17be 72ab 653d 3900 bd3d 6dbc 363e
00000080: 9209 833c fb8a 083e 6be5 343e a498 36bd
00000090: d69c d9bd 52d9 1cbe f6db 0a3e 85b5 433e
000000a0: 70eb 313e 5c13 cf3d 8a03 dd3a 5720 27be
000000b0: 5ca0 233d 3309 293d 6641 93bd d19f 9fbd
000000c0: d2bc b93d 9740 83bd 7ed9 24be 6285 543d
000000d0: 1644 2bbe 4c53 45bd 1672 603e 4939 3fbe
000000e0: 8325 233e 3852 e2bc aa2b ae3b 9b12 343d
000000f0: b2c0 533c f8d2 92bd a8a6 65bd b2ab 12be
00000100: 16b7 f83d 5c00 12be db83 e5bd a7d6 033c
00000110: 834c 11bd 7547 4d3e 5e42 03bd 928c a33c
00000120: 2ee6 723d ad1e 793e 9c03 0ebe 7fa0 1dbd
00000130: e361 84bb 6fc3 2f3e c386 fc3d fd7d 9a3d
00000140: bfb6 36be 46db 3f3e fe34 babc 8ac1 0abe
00000150: 65ca 09be 5ea7 b5bd 3526 48be d3b5 193d
00000160: 622e 423d 2f60 c6bd b2ab 353d 9f78 babb
00000170: 91c0 433d 7cc3 803d 52bf 45bd b2d7 4cbe
00000180: 5ab4 2abe ea65 1c3e 7cf7 f5bc de8b 393e
00000190: 8ae8 793e 6e3a 2bbd 5c24 acbd 5ff8 553c
000001a0: ed03 58be 6af2 1a3e eee1 823e f205 07be
000001b0: d5ab 073e e890 51be a924 083e 6581 c13d
000001c0: 46b9 773d 3267 373e 1846 25be ea26 cd3d
000001d0: a623 cd3d c131 723e 4d0f e73b fc75 38be
000001e0: 6562 26b9 ca87 1c3e 38ff 893d 876a 1b3d
000001f0: 77c7 963d 0f65 50be f830 56bd 126e 563e
00000200: 9e71 863d 07c5 cebd 3cf6 f53d 48f2 c0bd
00000210: a742 26be ed17 c3bd 61ee a33d 0bc0 b3bd
00000220: 027e c73d d054 5dbd 8a7c c93d 459b 5a3d
00000230: 1812 6d3d 7877 63bd 7a47 173d f82a b5bd
00000240: b848 de3d 6ae4 c8bd e45f fe3d bd84 273e
00000250: 013e 013e 8be6 5b3c 7f93 2cbe 6130 70bd
00000260: 79dc 36be 11b2 573e dbb5 dbbc fe5c 2f3e
00000270: 196b efbc a6e2 5dbc e61b 27be 1ac1 3dbc
00000280: 4342 013d a655 423d f0f4 6fbd b724 d53d
00000290: 1c7c 91bd 66e7 63bd d3a2 443e 38cc ab3d
000002a0: 3e90 2cbe 57fd 94be c727 d73d a1db 53bd
000002b0: 4400 933e f662 533e 8660 be3d e480 183e
000002c0: 2fb9 57be 048a fb3d c03f 473e 3397 10be
000002d0: f582 a93d d13e 28be 2bcd 703d 6473 6b3e
000002e0: 902f 1bbd 6498 403e 8daa 2fbe 70e1 3e3e
000002f0: 4752 2d3e e73c 613d 8615 33bd 7669 d23c
00000300: a91a 2d3e 35c5 12be 8849 4d3e 6712 c93d
00000310: 6e4c 143d d87e 4ebd 102b ecbd ffd6 2c3e
00000320: 691b 1a3e 0b33 72ba 30cd 263d db71 2d3e
00000330: baf5 debd 0982 9bbe 4d67 1e3e eca0 7cbd
00000340: 4317 c2bd 732c 343b 763c 5bbe c17f f0bd
00000350: 907c 57be 263c 2e3e 4d06 013e c3a3 f0bd
00000360: d63c 9b3c ee1c 823c bf0d 093d 01b1 b7bd
00000370: 0df4 2bbe 4c4b 51be d8cb 5c3e a090 843d
00000380: 0bd6 693e 31fe e63c f16a 00bd 812b 38bd
00000390: 7e07 fe3c 5c38 febd e2b5 44be f37c 1a3e
000003a0: b294 a3bd d359 493e c509 483e 3c0d 3b3c
000003b0: bba2 803d 5763 9c3d ab61 32bd b4cf 243e
000003c0: 28ae 0cbc 97f9 163e 53eb 8c3b 719d 2dbd
000003d0: a735 d0bd 0248 af3c 080b e3bb 6b0e f93d
000003e0: c9d3 f0bd a463 353e 87ba 663e e774 9d3d
000003f0: a34a 503e d026 48be ea41 25be a0e9 af3d
0.074051805 -0.032430682 0.05703708 -0.14603008 0.021760616 -0.098360784 -0.04391977 0.010689083
0.10782572 0.09710669 -0.16630536 -0.14451846 0.079913445 0.1495121 -0.085114606 -0.12738886
-0.21457486 0.11176284 0.16985513 0.1628809 0.17728223 -0.16712329 0.12805036 -0.02662799
0.20099734 0.05117382 0.16879976 -0.007407611 -0.1483521 0.056071706 0.09228558 0.17845316
0.015995774 0.13334267 0.17665641 -0.044579163 -0.10625617 -0.15317276 0.13560471 0.19112213
0.17374969 0.101111144 0.0016862017 -0.1632093 0.039947852 0.04126854 -0.07190208 -0.077941544
0.09069218 -0.06408804 -0.16098592 0.051885016 -0.16725191 -0.04817514 0.2191852 -0.18674196
0.15932278 -0.027627096 0.0053152638 0.043963056 0.01292436 -0.07169145 -0.05606714 -0.14323309
0.12144296 -0.1425795 -0.1120679 0.008046783 -0.035473358 0.2004679 -0.032045715 0.01996449
0.059301548 0.24328108 -0.13868564 -0.03848314 -0.0040399893 0.17164396 0.12330391 0.075435616
-0.1784315 0.1873599 -0.022730347 -0.13550392 -0.13456114 -0.088698134 -0.19545825 0.037526917
0.047407515 -0.09686314 0.044353195 -0.0056906487 0.047791068 0.06287286 -0.04827816 -0.20004156
-0.16670361 0.15273252 -0.030025236 0.18119761 0.24405113 -0.04180377 -0.084053725 0.013059705
-0.21095248 0.15131536 0.25562996 -0.13185862 0.13249142 -0.20465434 0.13295235 0.09448508
0.060479425 0.1791046 -0.1614002 0.10017188 0.10016565 0.23651792 0.0070513845 -0.18013757
-0.00015867648 0.15286174 0.06738132 0.03794339 0.07362264 -0.20351051 -0.052292794 0.20940426
0.065646395 -0.10096174 0.12009856 -0.094212115 -0.16236363 -0.09526048 0.080044515 -0.08776864
0.09740831 -0.05403596 0.09838207 0.053370733 0.057878584 -0.055533856 0.0369334 -0.08846086
0.10853714 -0.098091915 0.124206334 0.1635923 0.12621309 0.013421665 -0.1685314 -0.058639888
-0.17857541 0.2106402 -0.026820114 0.17125317 -0.029225873 -0.013542807 -0.16319236 -0.0115816835
0.031557333 0.047444962 -0.0585832 0.104073934 -0.0710375 -0.0556406 0.19202738 0.08388561
-0.16851899 -0.29099533 0.10505634 -0.051723126 0.2871114 0.2064322 0.09295754 0.14892918
-0.21066736 0.12282184 0.19457912 -0.14120178 0.08276931 -0.16430213 0.058789413 0.22993237
-0.037887156 0.18808132 -0.17154904 0.18640685 0.16925918 0.05498972 -0.0437217 0.025685053
0.16904701 -0.14333041 0.20047581 0.09817963 0.0362057 -0.050413936 -0.11531651 0.1687889
0.15049519 -0.00092391734 0.040723026 0.16937964 -0.10886712 -0.30372646 0.15469094 -0.061676905
-0.09477093 0.0027492314 -0.21409783 -0.11743117 -0.2104361 0.17015132 0.1260006 -0.11749985
0.018949907 0.015882935 0.033460375 -0.08969308 -0.16792317 -0.2043888 0.21562135 0.064728975
0.22835557 0.02819738 -0.031351987 -0.044963364 0.031009432 -0.124130934 -0.19210008 0.15086727
-0.07987346 0.19663171 0.19534977 0.01141673 0.062810384 0.07636135 -0.043550175 0.16094857
-0.008586444 0.14743648 0.004300514 -0.042386476 -0.10166483 0.02139664 -0.0069288053 0.12160953
-0.11759145 0.17713791 0.22532092 0.07688313 0.20340972 -0.19546056 -0.16138425 0.08589482

nnECG.0.bias f4 [128]
00000000: 0ec6 6a3c 7ade b93b 56d7 c239 cc80 3e3b
00000010: cdc5 183c fe71 c0b8 0ff4 cabb 0d7e 6b3c
00000020: 141d 633c 12c4 343c f0e7 2b3c 085a 313c
00000030: 240e b33c 0d01 133c 82e9 903c 9d90 b439
00000040: b6c5 11bb 486e 6f3c 78d0 a83c 473f ce3b
00000050: 6e4d 9a3b e766 9d3a e9c1 903c d1e6 9db8
00000060: b659 9139 3b49 8d3b 2f6a 473c f393 cebb
00000070: 30ae dc3c 8004 3a3b fede e83c 3994 dc3a
00000080: ca8a ba3c 6c89 1c3c 6a8e a73c 3c76 ae3c
00000090: e208 d13b e25a 393c 9d5b 0439 011f cfbb
000000a0: 2dd4 ea3b 3510 f93a efba 94bb 2b42 ec3c
000000b0: 97fe f7bb bc64 863c 34a6 fc3b c57a 5c3c
000000c0: ff08 a53c 5f81 293b f73b 8b3a 8189 0cbc
000000d0: cd88 b7ba 1ff1 6b3b 687f 4c3b e410 773c
000000e0: b0fc d13a 4850 1b3c 405e db3c 526f 4fbb
000000f0: dfdb f53b fed3 d63c 6612 be3c b2ec 973c
00000100: d880 c83c c0e1 aa3a 6b6d 333c 55e4 0d3c
00000110: 244a a63c bf06 523b aa0a 503c 6229 b7bb
00000120: 64dc 05bc 9b9c 143a 0715 fabb 09f1 79b9
00000130: 2093 e23c 78f8 2a3c 8732 693c 439d 423b
00000140: 826f 9a3a 399f 263c f0d6 8bbb b6cf d53c
00000150: 5328 dc3b 828e 523c 8e65 a23c 4ede 893c
00000160: e9fb 19bc 2d62 01bb 9b43 61bc 9b03 d63c
00000170: f1f5 7fbb af42 923c a885 be3c 1341 11bc
00000180: bb96 ac3b 8c6d f63b f0b1 29bb a349 943c
00000190: 9bbc d63b c2e3 a63c ae2c 71bb 268c 07ba
000001a0: 70c3 843c 749c ad3c 4714 9c3b 7ef0 b43b
000001b0: 4714 823c 3b1a ca3c 00c3 7a39 ea3b 5b3b
000001c0: 0bd4 133b 4c86 103c 0fbf 173c aa2b 24bc
000001d0: b399 d13b d14a 913c ff31 053a 5b2c 223b
000001e0: 3339 bb3c 275b 693c 16b9 4d3c 56ae 153c
000001f0: 7859 d43a e917 a23c a41f b03b a664 c23c
0.0143294465 0.005672273 0.00037163 0.0029068468 0.009324503 -9.176506e-05 -0.006193645 0.014373315
0.013861913 0.011033075 0.01049231 0.010824688 0.021857329 0.0089724185 0.01768947 0.0003444002
-0.002224309 0.014613695 0.020607218 0.0062941643 0.0047089374 0.0012008817 0.017670589 -7.529336e-05
0.00027723395 0.0043117083 0.012171312 -0.006304258 0.026938528 0.002838403 0.028426643 0.0016828842
0.022771258 0.009554248 0.02045365 0.021296613 0.0063792327 0.011313172 0.0001262263 -0.0063208346
0.0071664066 0.0019002022 -0.004538886 0.028840145 -0.0075681913 0.016405456 0.0077102426 0.013457005
0.020145891 0.0025864465 0.0010622729 -0.008577705 -0.0014002562 0.0036001874 0.003120387 0.015079711
0.0016020741 0.00947959 0.02677834 -0.0031652045 0.0075030173 0.026224133 0.023202132 0.018545482
0.0244755 0.001303725 0.01095138 0.008660396 0.020299025 0.0032047478 0.012697855 -0.00558965
-0.008170221 0.0005669088 -0.007631901 -0.00023836283 0.027658045 0.010435216 0.014233238 0.0029695786
0.00117825 0.010169798 -0.004267566 0.02610002 0.006718674 0.012851359 0.019823816 0.016829636
-0.009398439 -0.0019742355 -0.013749029 0.026124766 -0.0039056505 0.017854063 0.023257092 -0.008865613
0.005266992 0.007520383 -0.0025893413 0.018101519 0.0065532452 0.020372275 -0.0036800313 -0.0005170725
0.016206473 0.021192767 0.0047631594 0.005521833 0.01587881 0.02467071 0.00023914501 0.003345246
0.0022556807 0.008821081 0.0092618605 -0.010020176 0.006396496 0.01773587 0.00050809974 0.0024745676
0.022854423 0.014242924 0.012556335 0.009135803 0.001620098 0.019786792 0.0053748656 0.023729634

nnECG.1.weight f4 [128]
00000000: 8a19 803f 1f85 773f 35bb 833f 331b 773f
00000010: 4e18 8d3f 11ab 803f 6983 853f f177 813f
00000020: 87bf 8a3f 8f7a 823f f33a 773f 09cf 7b3f
00000030: d3d1 893f fa8a 813f 3f6e 8f3f c3ad 883f
00000040: f495 8a3f 60e2 823f 114e 893f c693 7a3f
00000050: 3c2f 863f 81c1 8b3f edb0 843f 8468 7e3f
00000060: a87a 7a3f 4677 703f 4b7d 7e3f 2865 7a3f
00000070: 1d28 7d3f af77 8b3f 18b6 813f e4c3 833f
00000080: 1740 873f 92ef 763f cbfe 803f 863d 863f
00000090: 2636 893f d457 7a3f 8186 833f a5dd 7b3f
000000a0: 6bf7 793f f12f 773f 3455 873f fdc9 8c3f
000000b0: a832 813f 33be 8a3f 8203 803f d6f4 833f
000000c0: d043 893f a191 793f fd77 853f 3aac 823f
000000d0: fcd3 823f 76f2 883f 2799 803f d411 833f
000000e0: daae 843f bbb1 7d3f 1575 843f 0f01 7f3f
000000f0: ac4f 873f b08f 7b3f 2e55 823f b2bb 813f
00000100: f63f 8b3f 2f82 833f e023 793f d7a3 823f
00000110: d764 7b3f 1e79 743f 3bc1 883f fc09 863f
00000120: 1059 853f 3b44 853f 1acf 7b3f c1a4 7e3f
00000130: 5501 843f 25df 803f 9fd0 843f 5ed5 8a3f
00000140: d400 7d3f f716 823f ab60 773f 47a4 843f
00000150: 59a7 723f 4cdb 8a3f 8a41 823f 0ca9 873f
00000160: ea5f 7b3f 9d06 7d3f 58bf 803f 200f 853f
00000170: 4736 813f 7b16 813f 3b67 8b3f d034 7c3f
00000180: b2e1 883f a85a 783f 2a09 823f bc5a 7d3f
00000190: 88c1 823f 2a4d 833f 552e 863f db4c 7b3f
000001a0: 6eb0 873f 7588 893f 4ab8 863f 61ad 873f
000001b0: b50c 803f b45d 883f 6ad1 7e3f b98f 823f
000001c0: 9688 7b3f ee27 7b3f 17ec 803f 1bbd 803f
000001d0: 9163 793f 9664 893f 29dd 7c3f f5c5 813f
000001e0: de89 873f 3187 833f 3fc9 7f3f 058e 893f
000001f0: 2b80 803f f819 833f b425 793f 96cb 863f
1.0007794 0.966875 1.0291506 0.9652588 1.1023042 1.0052205 1.0430728 1.0114728
1.08397 1.0193652 0.96574324 0.98362786 1.0767158 1.0120537 1.120552 1.0678028
1.0827012 1.0225334 1.0726949 0.97881734 1.0483165 1.0918428 1.0366493 0.9937823
0.9784341 0.93931997 0.9940993 0.978106 0.98889333 1.08959 1.0133696 1.0294156
1.0566434 0.96459305 1.0077757 1.0487525 1.071965 0.97790265 1.0275422 0.9838508
0.97643155 0.9655753 1.0572877 1.0999142 1.0093584 1.0839294 1.000107 1.0309093
1.072382 0.9748784 1.0427243 1.0208809 1.0220942 1.0698993 1.0046738 1.0239816
1.036586 0.9909932 1.0348231 0.9961099 1.0571189 0.98266125 1.0182245 1.0135405
1.0878894 1.0274104 0.97320366 1.020625 0.98200744 0.9549731 1.0683969 1.0471797
1.0417805 1.0411447 0.98362887 0.99470145 1.0312907 1.0068098 1.0376166 1.0846364
0.9882939 1.0163258 0.9663188 1.0362633 0.947866 1.0848174 1.0176251 1.0598464
0.9819323 0.98838216 1.0058393 1.0395241 1.0094689 1.0084985 1.0890878 0.98518085
1.0693877 0.9701333 1.0159047 0.98966575 1.0215311 1.0257924 1.048289 0.9816415
1.0600717 1.0744768 1.052499 1.0599786 1.0003878 1.0653596 0.9953829 1.0200111
0.9825529 0.981078 1.0072049 1.005771 0.9741755 1.0733821 0.98774964 1.0138537
1.0588949 1.0275632 0.9991645 1.0746466 1.0039114 1.02423 0.97323155 1.053088

nnECG.1.bias f4 [128]
00000000: 1b42 033c 14b1 28bb d672 72bc 6ec0 44bc
00000010: 2007 f43b b0b7 89bc 2cfd 61bc 66f2 133c
00000020: 70c5 5b3c 40d8 d93b d172 ec3b 3f68 9638
00000030: 5eda b43c 4077 ffbb 80e2 333c 38f5 febb
00000040: fd66 61bc bb83 37bc 5989 a13b c63f 83ba
00000050: 668e 07bc 60ca 5aba 4179 7cbb 2ed1 87bc
00000060: 0ab5 1fbc fbb8 83bb 497c 6e3b 0380 43bc
00000070: b9f6 323c 5951 d0bb f796 553b 35d1 cabc
00000080: 68d8 db3b 8112 31bc 4c04 c93b a108 5c3c
00000090: f7ae 24ba 70e1 8e3b 44f3 26ba c4bc acbc
000000a0: 3ab2 003b ec28 2bbb 4b5d a4bc 8141 943c
000000b0: 0e77 53bc 0245 faba 31df 7a3c aee0 813c
000000c0: 1ebd 873c a085 aab9 f920 38bc 389c cbbc
000000d0: f7ac 3ebc 08c4 34bc c493 43bb 1e92 213b
000000e0: c5ad 8bba 9d16 19bc 370a 78ba 6a83 55bc
000000f0: e3c3 3cbc 5010 2c3b 3af9 6d3c faa3 0dbc
00000100: d3bf b53c af93 07bc 97f7 e1bb 7a94 923b
00000110: eb38 32bc c2b6 5fbc 7501 403c 9ffd 62bb
00000120: f898 babc bcea eabb ff61 acbb 7aec 7fbb
00000130: b73c ab3c 3c64 99bc c345 f6bb a922 623c
00000140: 9b5f 31bb 9a65 dd3b 9307 a8bc 44ac 943c
00000150: eb29 5cbc c576 bebb cbe8 303c 8f73 613c
00000160: cd25 96bc ff4c 86bc 6099 f2bc 4f6d 263c
00000170: cd71 31bc 5fb9 a6bb 1f37 013c 2803 75bc
00000180: 68e0 8ebc 4694 38bc ec82 7ebc 20c5 fdbb
00000190: aa40 7fbc 4afa 873c 0be3 053b 5ecf c039
000001a0: 87c0 c03b a5c4 513c 2f12 20bc 1b43 b8bb
000001b0: 4ed8 bcbb 6e6e d53c f3a4 2fbc 3281 123b
000001c0: 5618 52bc 3e97 e3bb 3d80 ea3b b22f 92bc
000001d0: e9b7 8ebb 0902 b33c 8f1f 8bbb 1670 6dbb
000001e0: 05e1 453c 7cd0 603b 4333 64bb 4f1a 053c
000001f0: cddc 90bc 9aee 723b 446a 37bc bbbb c13b
0.008011366 -0.0025740312 -0.014797887 -0.012008769 0.0074471384 -0.016811222 -0.013793271 0.00902996
0.013413772 0.0066480935 0.0072158356 7.171975e-05 0.022076782 -0.007796198 0.010979295 -0.007780697
-0.0137574645 -0.011200841 0.004929703 -0.0010013513 -0.0082736965 -0.0008346196 -0.0038524421 -0.016579237
-0.009747753 -0.004019854 0.0036389998 -0.011932376 0.010923081 -0.0063573536 0.0032591203 -0.02475796
0.0067091472 -0.010807634 0.0061345454 0.013429792 -0.00062821753 0.0043603703 -0.0006368647 -0.021086104
0.0019637481 -0.002611692 -0.020064017 0.018097641 -0.012906803 -0.0019094052 0.015312002 0.015854206
0.01656967 -0.00032524485 -0.01123833 -0.024854764 -0.011637918 -0.011033066 -0.0029842714 0.0024653743
-0.0010656646 -0.00934377 -0.00094619713 -0.01303182 -0.011521312 0.002625484 0.014524752 -0.008645052
0.022186195 -0.008274957 -0.00689597 0.004473266 -0.010877828 -0.013654413 0.011719097 -0.0034636033
-0.02277802 -0.007169096 -0.0052607055 -0.0039050863 0.020902975 -0.018724553 -0.0075156405 0.013802209
-0.0027065042 0.0067564966 -0.020511424 0.018148549 -0.013437728 -0.0058124983 0.01079769 0.0137604615
-0.018328572 -0.016394136 -0.02961415 0.010157897 -0.010830355 -0.005088016 0.007886677 -0.014954366
-0.01744099 -0.01126582 -0.015534144 -0.0077444464 -0.015579382 0.01659884 0.0020429518 0.00036775594
0.005882326 0.012803231 -0.00976996 -0.005623234 -0.00576309 0.026053634 -0.010720479 0.0022354838
-0.012823185 -0.0069455197 0.0071564005 -0.017845009 -0.00435542 0.021851556 -0.0042457054 -0.0036230139
0.012077575 0.0034303954 -0.0034820593 0.008123948 -0.017683411 0.0037068487 -0.011194769 0.005912272

nnECG.1.running_mean f4 [128]
00000000: e4e0 963c e5f3 0a3f 22b0 433f 137b b1bc
00000010: 5b9d 803e 048b a4bd b663 a63e aa87 0bbe
00000020: 9fe2 0ebe fccd d83e 1b3e 6b3d 14ba 83bb
00000030: fa93 f8bd e3da 0f3d 0cfb 563e 8a77 963e
00000040: 46a8 ba3e e4b3 9dbe 2c8f b83e b665 bd3e
00000050: 99f7 b63e 1941 703e 67af 8c3e a950 703e
00000060: d775 6c3d 479c f53c 4854 31be 8d38 0b3e
00000070: 4c70 23be d05c c43e 6e7f f5be 7296 e53d
00000080: 0b2f 863d af45 96bc c2d1 3b3e 06e8 0bbe
00000090: ddc8 093e 0c2c 2bbf 20d1 a13d 2f1d de3e
000000a0: 585d 51be 4517 35bf d927 553e ee0a 82bc
000000b0: 3392 b6bd 3381 b03d 3de2 ccbe c993 a8be
000000c0: 00e4 85be fc03 80be 3a26 86be bf91 3d3d
000000d0: 3d14 a63d e13c 1fbe 3d33 523d 32d5 113e
000000e0: 7d14 41be 790f 90be 39d2 2abe 4874 b1be
000000f0: f7a5 3e3e 7f9c 683c 7488 be3e f6c2 97be
00000100: f47f 46be 15d7 033f 1482 6bbd 8150 a9be
00000110: 1d25 b4be 2778 d83d d1d4 9e3d 55d9 853e
00000120: 2f56 0f3f f871 6c3e 2561 ed3e 10ce 43be
00000130: 12d2 f1be 38f8 9bbc 6eed ddbc 03a3 7b3e
00000140: 7fe3 173d 8270 5b3e e706 e93c 3997 fc3c
00000150: effd cebc ddbd eabd 41e9 a8be 2675 a23e
00000160: 6649 093f b37f fb3b be94 1c3f 05a1 413e
00000170: 7840 1a3e 619c 8bbe 5ab8 a53e 22db 663e
00000180: 0713 963e 8476 38be 4d66 eebd 885c d4be
00000190: d53d 5d3e 38a8 0b3a 4ccb 063c c5f3 95bd
000001a0: f139 cd3d 72f4 b93e 89c1 b6be c02b 843e
000001b0: eb5e 8ebe ca23 ed3d 5c30 7dbe 9fb6 97bd
000001c0: 0dd5 afbe 7f16 f1bd 9b68 b73d 4bd9 d03e
000001d0: 4dfc 45be b044 b9bd 72c6 2d3e a85a 37be
000001e0: a262 47bd 6c55 763d eb0a 09be b20d 9ebc
000001f0: 3bd4 933d 8f52 413e c7b0 94be db8e 0b3e
0.018417783 0.54278404 0.7644063 -0.021665132 0.25120053 -0.080343276 0.32497948 -0.1362597
-0.13953637 0.42344654 0.057432275 -0.004019985 -0.12137599 0.035120856 0.20994204 0.29388076
0.36456507 -0.30801308 0.3604673 0.36991662 0.35735777 0.23462333 0.2747757 0.2346827
0.05772957 0.029981745 -0.17317307 0.13595791 -0.15960807 0.3835206 -0.47948784 0.11210336
0.065519415 -0.018343775 0.18341735 -0.13662729 0.1345553 -0.66864085 0.079012156 0.4338164
-0.20445764 -0.7073863 0.20815982 -0.015874352 -0.08914604 0.08618393 -0.40016356 -0.3292525
-0.26150513 -0.2500304 -0.2620104 0.046281572 0.08109329 -0.15550567 0.051318396 0.14241484
-0.18855472 -0.28136805 -0.16681756 -0.34659028 0.18617998 0.014197468 0.3721348 -0.2964093
-0.19384748 0.51500064 -0.0574971 -0.33069232 -0.35184565 0.10569792 0.07755435 0.26142374
0.5599088 0.2309035 0.46363178 -0.19121575 -0.47230583 -0.019039258 -0.027090754 0.24573903
0.03708219 0.21429637 0.028445674 0.030833827 -0.02526757 -0.11461995 -0.3299046 0.31730002
0.5362762 0.007675135 0.6116446 0.1890908 0.15063655 -0.27267745 0.32367212 0.2254453
0.29311392 -0.1801396 -0.11640606 -0.41476846 0.21605618 0.0005327496 0.008227181 -0.07321886
0.10020817 0.3631931 -0.3569453 0.2581463 -0.27806792 0.11579092 -0.24725479 -0.07407879
-0.34342232 -0.11771869 0.08955499 0.4079078 -0.19334526 -0.09046304 0.16970232 -0.17905676
-0.048678048 0.06014006 -0.13383071 -0.01929364 0.07218214 0.1887915 -0.2904112 0.13628714

nnECG.1.running_var f4 [128]
00000000: 5544 933d 5857 9f3d c738 9f3d 5cdd 963d
00000010: 1b41 993d 871f 983d 0c7a 983d e5af 973d
00000020: f044 993d 708a 9a3d ce19 973d 0617 953d
00000030: 0188 973d 0b70 933d 9f36 9a3d db48 9a3d
00000040: 77c1 973d 689f a13d 405e 943d 3cf7 943d
00000050: af38 983d 4a2e 973d 5a7c 963d 4177 953d
00000060: c50d a03d 75ca 963d 90e5 933d cb06 953d
00000070: 744f 963d c025 9c3d 8501 983d 29b4 953d
00000080: 073a 953d 4824 953d 8b91 983d 3374 953d
00000090: e7f4 973d 78a9 9a3d 63e0 983d 7ab2 953d
000000a0: c259 953d 037f 9a3d 5428 9b3d ec4b 9d3d
000000b0: e625 a13d f924 983d 9d03 943d dae6 a23d
000000c0: e76d 973d c2a0 963d 0d08 983d 9c76 953d
000000d0: eb9f 9b3d 615b 983d 88b8 973d 0f62 933d
000000e0: 2c9c 993d d7a7 993d e341 973d 08fb 933d
000000f0: abe1 943d ca2a 943d 20fe 933d 9be5 953d
00000100: 3308 963d fa48 963d f633 943d fc6e 943d
00000110: 63cf 9c3d 8755 953d a82e 953d dffe a03d
00000120: 3cdd 983d 3343 9f3d 5e85 9e3d 6cf6 9b3d
00000130: 6573 983d 63f1 963d 8547 9b3d 8b95 973d
00000140: 0161 9c3d 97ce 9c3d 1d36 993d 03c0 963d
00000150: aa98 983d 2b0e 953d a4f0 a33d 2e8b 9a3d
00000160: 8c18 973d 7932 953d 0655 9b3d d5f1 953d
00000170: 62eb 963d 7871 9d3d 123d 993d 0b5e 973d
00000180: a4d1 973d 7a2d 953d c8c6 9d3d 38f4 943d
00000190: 5317 953d 68d6 953d f424 963d 3704 963d
000001a0: 46ee 963d 8a41 953d 2b47 a13d b16d 993d
000001b0: 47cd 963d b308 943d 6508 963d d3c3 9d3d
000001c0: 86ee 943d c467 943d c056 973d 2835 963d
000001d0: 60e9 983d a962 973d c402 943d 4740 963d
000001e0: 0e99 973d 3fb8 983d 5308 943d c807 963d
000001f0: c8fb 963d d08f 973d 8ab7 983d a785 953d
0.07190768 0.077803314 0.07774501 0.0736644 0.07483121 0.07427888 0.074451536 0.07406596
0.07483852 0.07545936 0.07377969 0.07279782 0.073989876 0.07199105 0.075299494 0.07533427
0.07409947 0.078917325 0.07244539 0.07273719 0.074326865 0.07381876 0.07347937 0.072981365
0.07815126 0.07362834 0.0722152 0.07276686 0.07339373 0.07624388 0.07422165 0.073097534
0.072864585 0.07282311 0.07449635 0.07297554 0.07419758 0.07551855 0.07464673 0.07309432
0.072925106 0.07543757 0.07576051 0.076804966 0.07868557 0.07428927 0.07227252 0.07954188
0.07394009 0.07354881 0.074234106 0.072980136 0.07598861 0.07439304 0.074082434 0.071964376
0.075004905 0.07502716 0.07385614 0.07225615 0.07269605 0.07234724 0.07226205 0.073191844
0.073257826 0.07338138 0.07236473 0.07247731 0.076567434 0.07291704 0.072842896 0.07861113
0.07464072 0.07776489 0.077402815 0.076153606 0.07443885 0.073702596 0.07582001 0.0740157
0.076356895 0.076565914 0.074810244 0.07360842 0.07450993 0.07278093 0.08004883 0.07546078
0.07377729 0.072850175 0.07584576 0.073215164 0.073691145 0.07687658 0.07482351 0.07390984
0.07413033 0.072840646 0.0770393 0.072731435 0.07279839 0.07316285 0.07331267 0.07325023
0.07369666 0.07287891 0.07874902 0.07491625 0.07363372 0.07228222 0.0732582 0.07703366
0.07272057 0.07246354 0.07389593 0.073343575 0.07466388 0.07391865 0.0722709 0.07336479
0.0740224 0.07457017 0.0722815 0.07325703 0.07372242 0.07400477 0.07456882 0.07300883

nnECG.4.weight f4 [64, 128]
00000000: 78d6 1b3e 4661 ff3d d824 fe3d d1d9 1dbe
00000010: a7db 1fbe 4459 163e a94a cdbd 43dc acbc
00000020: f7a6 be3d 4174 063e 9c97 54bc 5e28 15be
00000030: f821 dcbd ebec b0bd f961 0c3d 4b34 8a3c
00000040: e296 bfbd fafe 69bc 66d1 a7bc 5782 2cbd
00000050: a820 503e 124e 36be 2627 c43d 1ea6 af3d
00000060: 14e2 d03d c804 28be f8a3 22bd 8809 20be
00000070: d595 74bd 3e9f b83d 1a82 15be acd5 2f3e
00000080: 4808 313e 1258 eebd 5adf 63bc f6fa c93d
00000090: 929e 2f3e d934 b5bd 9d04 90bc c38f fa3d
000000a0: 8bf9 48bd 28a4 3f3d 0f79 0dbd f373 65be
000000b0: 1d5f 4e3d 280c 0ebd adb6 a53b 0dbc 5e3c
000000c0: b62e 4f3e 0c37 edbd 3e13 d7bc e62a 1abe
000000d0: c0ae b03d 6ffd e0bd d0fd d93c 8c3b a5bd
000000e0: 3d56 f93a e5f9 2cbc 66e1 e4bc 59f2 c13a
000000f0: 992d a8bc ccaf edbc 2a48 a73d 75d6 0e3e
00000100: ea13 c53c 58e5 f3bc 635c 4a3e 71e3 093e
00000110: b39a 8dbd 7010 f23d 1949 4b3e e4e6 b33c
00000120: e45d 713d 6922 1dbe 7c61 a1bd f39b f93d
00000130: 038c 5f3d 2369 f13d 9df2 0c3e c886 ddbd
00000140: 435c 673c dde0 af3c 2a49 e4bd 3328 52bd
00000150: 19d1 c13c 1962 e33d 9505 d0bd ec4b 443a
00000160: c8e7 4abb e102 ac3d d4b8 17be db39 e93d
00000170: 145f 053d 5992 293e 1e5b db3d 3943 593d
00000180: 50b7 09be 7929 b6bd 8528 28be c310 333c
00000190: 1b25 8c3c 974d c9bd 4090 f33d 592c d6bd
000001a0: f6cf 54bd 8184 4ebe b70a fabc bf6f 7ebd
000001b0: 14d8 fd3c 6dc5 86bd d4a4 093e 206d 0dbe
000001c0: e13e ed3d dd22 c5bd 865e a53d 4210 e63d
000001d0: 1636 2e3d ef1d 0c3c 9cec 133e 85a1 bb3d
000001e0: 0f63 39bd bfb9 8c3d b742 a53d 3718 d13c
000001f0: b0ed 93bd 1862 bd3d 0a3e 2abc f53c 0d3d
00000200: b4af 7c3d a3ae 1a3d aa17 b73d 30cb 82bd
00000210: 3558 633d f2ad 683e d490 103e c99b 0a3e
00000220: 8c4b 063e 2e1d a8bc e6f3 2e3e 8357 3cbe
00000230: 0c32 79bd dc44 0b3d d274 b5bd 381c 2fbe
00000240: 3145 423d 1297 3c3e 0594 16be 9240 dabd
00000250: b5c7 1b3e 6c2c a2bc 0fe3 e2bc 33e7 803d
00000260: b87b ef3d e8a2 3cbd 8591 21be e486 153e
00000270: ca6f 84bb 17ba ecbc 6c0f bc3d dbb5 083d
00000280: 4891 473e 4ef8 703c d06c 11be af52 f0bc
00000290: cbab d73d f2b4 52bc 961c 12be ab89 95bd
000002a0: e6b0 ea3d b05c 82bd 971c 933d c6ef 4abe
000002b0: 58b0 433d 0da0 6e3e c5dc 103e bb69 323e
000002c0: 96ea bfbd 1600 01be 8e5b e13c bd18 f8bd
000002d0: fa36 ba3d b4ff b03d aa4a 09be 85e1 b7bd
000002e0: 2bc1 553e 7df4 623c edae fe3c 9baa f9bd
000002f0: 94ee 5c3e c3cb c13d 1b10 423d 19f6 fbbc
00000300: 8fa4 e6bc e00c 8f3d 4b3a c9bc 63b3 09be
00000310: 2d29 543d 8d42 47bd 8731 073e c7eb 36be
00000320: 0c13 1abd e57f 033b 617a 2ebe 2561 8f3c
00000330: c73a 1abe b1cf 2fbe 5f6f 6e3d b947 cb3d
00000340: d43f c23d eb1a 403e 35c3 03bc 3121 dbbd
00000350: eafd fa3d ee39 c03d 6288 2cbd 3c42 32be
00000360: 7ada 31bc b469 ebbd 86d6 2f3d 46f0 483d
00000370: bec2 623d 10b8 febd 3119 953d 48c1 0ebd
00000380: 18c4 323e de37 11be a9cb ac3d acdf a7bb
00000390: 950b 8ebd 8b34 1c3e 3a53 453e c030 533c
000003a0: b755 08bd db55 933d 5152 b1bd dd30 fb3d
000003b0: ace1 0fbd 5864 10be 3ac0 d8bd e33f ac3d
000003c0: 9035 143e e2f4 a6bd ef71 123c 543c 19bd
000003d0: c5d6 213e c695 4abd df00 eabd 663c 14bc
000003e0: 9d5f 143b d5f5 9c3c 0422 df3c 698f 9dbd
000003f0: a31b 993d d374 40bc e5c0 b73c 246c 2f3d
0.15218532 0.12469725 0.12409371 -0.15415122 -0.15611134 0.1468249 -0.10024006 -0.021101123
0.0930919 0.13130285 -0.0129756 -0.1456618 -0.107486665 -0.086389385 0.03427312 0.016870638
-0.093549505 -0.014281983 -0.020485591 -0.04211649 0.20324957 -0.17803219 0.095777795 0.08576606
0.10199371 -0.16408074 -0.039707154 -0.15628636 -0.059713203 0.09014748 -0.14600411 0.17171353
0.17288315 -0.11637892 -0.013908232 0.0986232 0.17150334 -0.088479705 -0.017580325 0.122344516
-0.049066108 0.04678741 -0.03453928 -0.22407512 0.050383676 -0.03467956 0.005057177 0.0135946395
0.20232663 -0.11582765 -0.026254293 -0.15055427 0.08627081 -0.109858386 0.026610285 -0.08067998
0.0019022893 -0.010557626 -0.02793951 0.0014796957 -0.020529555 -0.02901449 0.08168061 0.13948996
0.024057347 -0.029772446 0.19761805 0.13465668 -0.06914272 0.118195415 0.19852103 0.021960683
0.05892743 -0.15345158 -0.07879922 0.12187948 0.054576885 0.11787631 0.13764425 -0.10816723
0.014121118 0.021469528 -0.111467674 -0.05130787 0.023659276 0.11102695 -0.10157315 0.000748812
-0.0030960906 0.083989866 -0.148166 0.11387988 0.032561377 0.16559733 0.107107386 0.053042624
-0.13448834 -0.08894629 -0.16421707 0.010929289 0.017107537 -0.09829252 0.11892748 -0.104576774
-0.05195614 -0.20167734 -0.030522687 -0.062118288 0.030986823 -0.06580625 0.13441783 -0.13811159
0.11584259 -0.0962579 0.080746695 0.1123357 0.04253205 0.008552059 0.14445728 0.09161667
-0.045260485 0.06871366 0.080693655 0.025524242 -0.0722307 0.092472255 -0.010390768 0.03448196
0.061691 0.037764203 0.089400604 -0.06386411 0.055504043 0.22722605 0.14117748 0.1353599
0.13114756 -0.020521726 0.17085227 -0.18392758 -0.060838744 0.034001216 -0.08860172 -0.17100608
0.047429267 0.18417004 -0.14704902 -0.10656847 0.15212901 -0.019796573 -0.02769616 0.06294098
0.11693519 -0.046053797 -0.15778168 0.14602238 -0.0040416466 -0.028897328 0.09182629 0.033376556
0.19489014 0.014707638 -0.14201665 -0.029336302 0.10530814 -0.012860524 -0.14268717 -0.07301649
0.11459522 -0.06365335 0.071831875 -0.19818029 0.047775596 0.23303242 0.14146717 0.17423145
-0.093709156 -0.12597689 0.027509477 -0.121140935 0.09092517 0.086425215 -0.13407388 -0.08978561
0.20874469 0.013852236 0.03108927 -0.121907435 0.21575385 0.094626926 0.04737864 -0.030756997
-0.02815464 0.069848776 -0.024563929 -0.13447337 0.05179708 -0.048647452 0.13202487 -0.1786338
-0.03761582 0.0020065245 -0.17038871 0.017502377 -0.15061484 -0.17169072 0.05821168 0.099257894
0.094848305 0.18760268 -0.008042146 -0.1069969 0.122554615 0.09386049 -0.042122252 -0.17408079
-0.0108553115 -0.11494771 0.042929195 0.049057268 0.055361502 -0.12437451 0.072801955 -0.034852296
0.17457616 -0.14181468 0.084372826 -0.0051230993 -0.06935803 0.15254419 0.1927003 0.012890041
-0.03328487 0.0719411 -0.08658279 0.12265179 -0.035127327 -0.14100778 -0.10583539 0.08410623
0.14473557 -0.081521764 0.008938297 -0.03741105 0.15804584 -0.04945924 -0.114259474 -0.009047603
0.0022639998 0.01916019 0.0272379 -0.07693369 0.074759744 -0.011746603 0.022430846 0.04282774

nnECG.4.bias f4 [64]
00000000: 4451 133b f6a0 a93c d881 a73b fbd8 4c3d
00000010: aea7 303c 4a64 983c 0559 073c 8c76 063d
00000020: 79b0 fd3b 1b92 47bb 4048 1038 f48c 193c
00000030: a0f5 46bc b0b2 303d 4f99 063c 7985 fdbc
00000040: 2163 a1bc b571 07bd d662 23bc e63f 80bc
00000050: 59dc 2d3d a658 ebba d10c 6b3d 17e0 923b
00000060: e067 40bc 81f8 97bc addf b33c d17e 1a3d
00000070: 8051 d53c 36f2 613c c461 2bbc 7184 94bb
00000080: 42ba c1bb 88ba cd3c 3074 ad3c 72a4 283d
00000090: 425c bf3c 7f75 aa3b 3060 b83c 27e6 9fbc
000000a0: ab9b e2ba 56ae 2f3d 213c 0fbd bbca 90bb
000000b0: 56bb 813c 4853 823c 2f3c a43c f74e a8bc
000000c0: 3a7a 253b c4c8 f03c 6263 8e3c 8d9a c03c
000000d0: 1377 8e3b 5927 f33c 1c7f ddbb 0e6d 463b
000000e0: 1ad8 73bb bcc1 4e3b 9be7 ed3c 126d 06bb
000000f0: 7719 70bc 4490 193b 3b46 c13c 71f9 a43a
0.0022478858 0.020706635 0.005111914 0.050011616 0.010782165 0.018602509 0.00826097 0.0328279
0.0077419844 -0.0030452076 3.4399563e-05 0.009371985 -0.0121435225 0.04313916 0.008215263 -0.030947434
-0.019700589 -0.033067424 -0.009972295 -0.01565547 0.042446468 -0.0017955496 0.05738527 0.00448228
-0.011743516 -0.018551113 0.021957243 0.037718598 0.026039839 0.013790658 -0.010460321 -0.00453239
-0.0059120962 0.02511336 0.021173567 0.041172452 0.023359422 0.005201995 0.022506803 -0.019518925
-0.0017288824 0.04289087 -0.034969453 -0.0044186986 0.015836399 0.015908852 0.020048229 -0.020545466
0.0025249855 0.029392608 0.017381374 0.023511196 0.004347691 0.029681848 -0.0067595374 0.0030277404
-0.0037207664 0.003154858 0.029041102 -0.0020511788 -0.014654509 0.0023431936 0.023593059 0.0012586546

nnECG.5.weight f4 [64]
00000000: a8ea 853f 5e21 873f 75b9 863f 0807 8d3f
00000010: 91a7 873f 76f1 8a3f 0de9 803f f300 873f
00000020: 079a 873f 431a 893f 3522 813f 65c3 7f3f
00000030: 1589 883f 1654 803f 30c7 863f a60d 833f
00000040: 1976 813f e9bd 753f 8a4d 7f3f e29e 803f
00000050: d28e 863f 1a86 843f 63f0 903f ef8e 823f
00000060: 40a9 823f 36ad 803f e927 7d3f b6d4 8a3f
00000070: 3247 843f 688e 7c3f f560 7b3f f67b 853f
00000080: 6287 863f 1a07 903f 9330 8a3f 1a5f 843f
00000090: 92b5 873f 8d16 823f c298 913f c72c 833f
000000a0: 2c4c 883f 2ef6 8b3f 683b 7a3f 05f5 843f
000000b0: e390 7e3f 6910 883f c986 793f f7de 833f
000000c0: 66c4 813f b8bb 823f 41eb 863f 3e26 833f
000000d0: 331a 8a3f 5052 803f 9fdd 7c3f 1cd2 8a3f
000000e0: 21f4 793f 1eac 7c3f f8da 833f cdd2 823f
000000f0: a661 833f 7d20 8d3f 670d 893f 0ae7 8a3f
1.0462236 1.0557058 1.0525347 1.1017771 1.0598012 1.0854938 1.0071121 1.0547165
1.059388 1.071114 1.0088564 0.99907523 1.0666834 1.0025661 1.0529537 1.023854
1.0114166 0.95992905 0.9972769 1.0048487 1.0512335 1.0353425 1.132336 1.019987
1.0207901 1.005286 0.98889023 1.0846164 1.0334227 0.98654795 0.9819482 1.0428455
1.0510066 1.1252167 1.0796074 1.0341523 1.0602286 1.0163132 1.1374743 1.024804
1.0648246 1.0934503 0.97746897 1.0387274 0.9943983 1.0630008 0.9747129 1.0302418
1.0138061 1.0213537 1.0540544 1.0246046 1.0789245 1.002512 0.98775667 1.084537
0.97638136 0.9870013 1.0301199 1.0220581 1.0264175 1.102554 1.0707215 1.0851758

nnECG.5.bias f4 [64]
00000000: 5f72 25bb 412c af3c d40c dbbb 8c65 e03c
00000010: 2e4f e9ba 6d25 d03b 066c 41bb 6acd 4d3c
00000020: 8230 afb8 0d78 bfbb 265d 4abc 6f0e 9fbc
00000030: 98c3 54bc 572e db3c 7a61 abbb 4690 54bd
00000040: 227b f8bc 08a7 29bd 0802 c9bc d794 dbbc
00000050: 8735 0f3d 139b 6cbc ff15 0c3d 6cc9 15bc
00000060: bf1b ebbc 8bcd e9bc 81c6 473c 1f30 8f3c
00000070: e4f3 cd3c 031f 0fbc 4220 f2bc 8e10 23b9
00000080: 495d a6bc a463 173b 52fc 333b 26bb bd3c
00000090: 999a 713c a83e 8ebc 5c65 923c 60d4 07bd
000000a0: 5ab8 f5ba cc87 0b3d 770b 7dbd 9bdd b4bc
000000b0: 46cd 9f3b abbc fcba cd1a 9e3c 8495 e5bc
000000c0: c30c 48ba be44 d03c 7c84 403b 0cf6 a2bb
000000d0: c82d 9c3b 1675 9a3c 43f8 bcbc da8c 37bc
000000e0: 9571 e9bc 5a21 2ebc b6a7 8b3c 58c4 85bc
000000f0: 97f0 97bc e441 42bc 1098 ff3c d1be ad3a
-0.0025245172 0.021383407 -0.006684879 0.027392171 -0.0017800087 0.0063521178 -0.002951385 0.012561182
-8.3536856e-05 -0.0058431686 -0.01235131 -0.019416062 -0.012986086 0.026755495 -0.005230126 -0.051895402
-0.030332152 -0.04141906 -0.024537101 -0.02680437 0.034963157 -0.014441269 0.034200665 -0.009142261
-0.028699754 -0.028540393 0.012193323 0.017479 0.02514071 -0.008735421 -0.029556397 -0.00015551058
-0.020308154 0.0023100162 0.0027463627 0.023160528 0.014746332 -0.017363861 0.017870598 -0.03316152
-0.0018746958 0.034065053 -0.06177851 -0.022078326 0.0048767654 -0.0019282302 0.019299889 -0.028025396
-0.0007631296 0.025423404 0.0029375842 -0.0049731787 0.0047661997 0.018854659 -0.0230676 -0.011203015
-0.028496543 -0.010628069 0.017047744 -0.016328976 -0.01854734 -0.01185653 0.031200439 0.001325572

nnECG.5.running_mean f4 [64]
00000000: 9dbb cf3e ef86 a5bd be9b 20be 90a7 9e3e
00000010: bcea 83be 9696 bf3e 1077 833e 5c11 93be
00000020: 6d60 06bd 0d98 6abe 8701 ddbd 25da d3bd
00000030: e2f9 4c3c 8db4 cb3e 2903 293e 9144 96bc
00000040: b57c 113e acc6 b4be 3686 e5be ea8a f2be
00000050: 4e0c 073f 5d78 c3bd 71a6 d1bb 4161 9d3e
00000060: a632 853d 24f8 593d 9972 dd3e 0614 c1bd
00000070: e4f2 3ebf 99c7 fe3e 53ee d9be 959e 7bbe
00000080: ac95 4f3e a433 7f3f 1572 12bf 7074 ac3d
00000090: 07e2 f93c d351 0fbf 2a9c a83e 6894 613f
000000a0: f205 f53d a466 85bd 5acc cfbe 55a8 d03e
000000b0: a305 bcbb 6dee 7a3e 0515 b33e 2834 103f
000000c0: 93ad 843e de5a 9fbe 3c3f b3bd 40ca 4c3e
000000d0: aea5 dd3d f906 293f c270 c53d a718 66bd
000000e0: 600f bcbe 5c54 19be ef2f 2d3e c6d0 d6be
000000f0: 0f34 70be 6f6e df3d 1c5b e3bd 4c41 543d
0.40572825 -0.08082377 -0.15684411 0.30987215 -0.25765026 0.37419575 0.25676775 -0.28724182
-0.032806803 -0.22909565 -0.10791307 -0.10344342 0.012510749 0.39786187 0.16505112 -0.018343242
0.14207728 -0.35307825 -0.44828957 -0.47371608 0.5275315 -0.09544442 -0.006398015 0.3073826
0.06503801 0.05321516 0.43251494 -0.09427647 -0.7458937 0.49761656 -0.4256464 -0.24572213
0.20271939 0.9968817 -0.57205325 0.08420646 0.030503286 -0.5598423 0.32931644 0.88117075
0.119640246 -0.06513718 -0.40585595 0.40753427 -0.0057379766 0.24505015 0.34976974 0.56329584
0.25913677 -0.31124014 -0.087522954 0.19999027 0.108226165 0.66026264 0.096406475 -0.056175854
-0.3673048 -0.14973587 0.16912816 -0.41956156 -0.23457359 0.109097354 -0.11101362 0.051820084

nnECG.5.running_var f4 [64]
00000000: 3ded 8e3f 8ff6 4b3f da50 ea3f c87f 863f
00000010: 65a5 bb3f 795d 873f e4d6 9f3f 08fa 3a3f
00000020: 10a3 943f ac60 ae3f 1b71 b33f b444 d73f
00000030: e576 703f 9acf 993f 3057 d23f 97ba ae3f
00000040: 928e 773f 7016 b93f 2cc2 ab3f f3df c43f
00000050: f5eb 4d3f 5eff 963f 4169 973f d44a 923f
00000060: e34d 873f 0e1f 803f 8429 823f 4907 b63f
00000070: 9034 943f 327c 4e3f f1fc a83f 1645 773f
00000080: 81a1 4a3f bd4d c03f 0e25 933f ebbb 8c3f
00000090: 3959 b73f 8bc9 893f 0a19 a73f 90c3 fc3f
000000a0: 0f3f 823f 4294 923f 9c6f 943f 3cca 813f
000000b0: 894f 553f 76b6 8e3f 6f9b 8d3f 9a34 613f
000000c0: 15f5 863f b3f9 8b3f 1a5c 893f 6ac7 853f
000000d0: 4f1c 9a3f 4cd0 be3f 632d 6a3f 5721 d63f
000000e0: 7f8b b13f c03b bb3f dfb6 803f ca66 6c3f
000000f0: be34 a43f ea90 a63f 4137 d03f 8446 d83f
1.1166149 0.79673094 1.8305924 1.0507746 1.465985 1.05754 1.2487454 0.7303777
1.1612263 1.3623252 1.4018892 1.6817842 0.9393142 1.201648 1.6432858 1.3650693
0.9670192 1.4459972 1.3418632 1.5380844 0.80438167 1.1796682 1.1828996 1.1429086
1.0570644 1.0009477 1.016892 1.4220973 1.1578541 0.80658257 1.3202192 0.9658979
0.79152685 1.5023724 1.1495683 1.0994848 1.4324104 1.0764631 1.3054516 1.9747181
1.0175494 1.1451495 1.159656 1.0139842 0.83324486 1.1149433 1.106306 0.8797089
1.0543543 1.0935577 1.0731232 1.0451481 1.2039889 1.4907317 0.91475505 1.6728925
1.3870696 1.4627609 1.0055808 0.92344344 1.2828596 1.3012974 1.6266862 1.689652

nnECG.8.weight f4 [16, 64]
00000000: b965 05be acec 4f3e aacb 53be c129 3e3e
00000010: a0ce 823e a765 c83d c053 00be 526c 14be
00000020: 10f9 91bd afe5 99bd 974b 943e 16bc a8bc
00000030: 7871 6c3d 07c3 023e d5d7 67be 818b 00be
00000040: f421 51be 6405 823c 2c92 8e3e 50a6 83be
00000050: ef9b 663c c324 f5bd 7672 a13e 7094 823e
00000060: 8bee 33be fb45 f43d 3f49 95bb 8c97 0abe
00000070: c20c e2bd 21d3 e53d b846 903e 19cd fd3d
00000080: 33b2 1c3d 75bf 213d f613 0c3d 7208 c43d
00000090: 2aa2 acbc 7b8b 98be b349 7dbe cbd0 4f3e
000000a0: 9968 77be 712d 6f3e 9481 583e 0272 ddbc
000000b0: 41f1 fcbd d096 283e ddc4 41be 7e3b f7bb
000000c0: 8cff 893e 927f b2bd 258d 41be 805c 8e3e
000000d0: 2598 f33b 32d5 393e 741e 05bc c1c2 8b3e
000000e0: 3ffd 2fbe a04f 73be b6b0 713d 8730 d43d
000000f0: 395c 663e ff5b aabe 20bd 03be dcc3 163e
00000100: b41d 363d 6a6f 2ebe af17 d6bd 960f c03d
00000110: 4444 38be ba61 7a3d 9845 fc3d 6afd e43c
00000120: 024c 85bc 2a52 42bc 2b29 833e 14e6 65bd
00000130: c61d 85be 6a9e 3cbe 67f0 7b3e 5268 dd3b
00000140: 1196 d13d 7bf7 1cbb fd8e 14be d6cb d8bc
00000150: e8d0 013e 3704 8abe b11f 87bd 6d7b 59be
00000160: 3022 3e3e ac26 2a3e 2b61 97bd 569e 003e
00000170: d95b 053e 43d9 2b3e c384 783e de9f 043e
00000180: 86f2 80bd 4b4b 0bbd 89db 5ebe b23a 0e3c
00000190: b263 363e a88f 99bd 592d 28be 0d5f 123d
000001a0: 6bbf b93d 0ad9 24bd 90ee 4fbc e40a e63d
000001b0: d26f e6bd 3bdd 053d 32f5 493d 8e93 923e
000001c0: aa0f 133e 4fb2 92be 2edb 74bd 5cde cd3d
000001d0: d491 e03d 78d2 e0bb 9f6f e13c ed36 b73d
000001e0: fe57 853c 05fa c43d 5ed3 723e eadf 5c3d
000001f0: 86bd 1ebd e706 5ebd 4701 2b3e 0e0b 2d3e
00000200: 7abe 7bbd 8434 543e 9034 813e 8a1f 563c
00000210: db95 a4bc 93f0 a63e 277f d6bd adb6 87be
00000220: f145 c1bd 16f0 9d3e 8396 66be 4224 7d3e
00000230: 54b7 b33e f7c8 26be 0ca4 dfbd c92c 66bd
00000240: 714d 0d3e 8565 d8bd 756a 7ebe 8f28 973e
00000250: 3107 7a3d 2586 0c3e 47bf 6abe 9f4d 013d
00000260: 6c5f 733e 871d 873e 6991 8ebe 5f22 fcbd
00000270: 634f 3c3b f6e5 3d3e f58a dd3d 8a17 393e
00000280: 44fd 003e a362 d83e f256 29be 51af 44be
00000290: f274 893e 274e 10be 1e1d af3d 4a8d 1abe
000002a0: 03ce e23c cc96 233e 849d 633e b06c dbbc
000002b0: 335c 203e a4a4 53bd b9c2 213e b9b7 753c
000002c0: 0a8f 773e f8fa 4c3e 4bfd 3c3e f554 67be
000002d0: bf4a 30be 764e 6b3e cd43 0ebe 3531 2abd
000002e0: d7d1 83be ade4 943b 846b 6abe 5ec9 b8bd
000002f0: 5ca5 7c3e abcd 703e 5349 01be 4cda 253e
00000300: d846 983e 802b a7bd d336 99be 75bb f3bc
00000310: b290 a2be ba89 8cbd dcc1 5fbe 6166 61bc
00000320: e2af 5cbe f7b2 153e c2de 13bd 1148 30be
00000330: 4256 793d 2672 56bd b91b 543e a699 5e3e
00000340: 0549 583e b2bb 0a3e d331 f4bc 2f54 5f3c
00000350: f7fd 64be 124c 0cbe d2ea 85be 7d77 003c
00000360: 882a 723e edf9 34bd cc7a 173d 7ceb bb3d
00000370: ebeb 6b3e db6e b6bd 3ef3 d3bc 2fce 86be
00000380: 5114 cfbd cd17 503e c258 903d cacc 90bd
00000390: 0c76 37be d74c c4ba ee4d 23be 1284 c9bd
000003a0: 8251 733e 25a5 573d 8d43 48be c25c 61be
000003b0: 9c50 05bc d50a 7fbe c311 4bbe 709d 9c3e
000003c0: 4928 cd3d e6c1 66be 8120 2cbd d949 87be
000003d0: f424 f73d 047a 493e b8a9 2abe cf92 ddbd
000003e0: 05b8 1c3e 77e0 47be 7a3e acbd 25ec f8bd
000003f0: cc92 113e c833 b63c 9cb2 21bd 6055 f33d
-0.13027085 0.20305127 -0.2068316 0.18570615 0.25548267 0.09785014 -0.12531948 -0.14494446
-0.07127583 -0.07514512 0.2896392 -0.020597499 0.0577254 0.1276971 -0.22640927 -0.12553217
-0.20423108 0.015871711 0.27845895 -0.25712824 0.014075263 -0.11969902 0.3153264 0.25503874
-0.17571466 0.1192741 -0.0045558508 -0.13534373 -0.110375896 0.1122191 0.28178954 0.12392635
0.03825588 0.03948923 0.034198724 0.09571923 -0.02107342 -0.29793915 -0.24735145 0.20294492
-0.24160995 0.23357178 0.2114318 -0.027031902 -0.12350703 0.1646378 -0.18922754 -0.007544934
0.2695278 -0.08715738 -0.18901499 0.27804947 0.0074339085 0.18147734 -0.008124936 0.27297023
-0.1718645 -0.23760843 0.059006415 0.10360818 0.22496118 -0.33273312 -0.12865114 0.14723152
0.04446192 -0.17034689 -0.10453736 0.09377973 -0.17994791 0.061128356 0.123179615 0.027952868
-0.016271595 -0.01186041 0.25617346 -0.056127623 -0.25999278 -0.18419805 0.24603425 0.0067568207
0.10233701 -0.002395122 -0.1450767 -0.026464384 0.12677348 -0.2695634 -0.065978415 -0.2123849
0.18567729 0.16616315 -0.0739158 0.125604 0.13023318 0.16782098 0.24269395 0.1295161
-0.06296258 -0.03400735 -0.21763434 0.008680986 0.17811468 -0.074981034 -0.16423549 0.03573518
0.09069713 -0.040246047 -0.012691155 0.11232546 -0.11251797 0.032681685 0.049306102 0.286282
0.14361444 -0.28651664 -0.05977934 0.10052177 0.109653145 -0.0068610273 0.027519045 0.08946023
0.01627731 0.09618 0.23713443 0.05392448 -0.038754962 -0.0542058 0.16699706 0.16898748
-0.06146095 0.20723158 0.25235415 0.013069043 -0.020090988 0.3260542 -0.10473471 -0.26506558
-0.094371684 0.30847234 -0.22518353 0.24720863 0.35100806 -0.162876 -0.10919961 -0.056195054
0.13799073 -0.10566238 -0.24845298 0.2952313 0.061042015 0.13723047 -0.22924529 0.031568166
0.2376687 0.26389715 -0.27845314 -0.12311243 0.0028733842 0.18544754 0.108175196 0.18075386
0.12596613 0.42262754 -0.16537073 -0.19207503 0.26847035 -0.14092313 0.085504755 -0.1509296
0.027686125 0.15975493 0.22228056 -0.026785225 0.15660171 -0.051670685 0.15796937 0.014997416
0.24175659 0.20017612 0.18455999 -0.22591002 -0.17216013 0.22979149 -0.13893051 -0.041550834
-0.25746033 0.004543862 -0.22892576 -0.09022783 0.24672455 0.23515956 -0.12625627 0.16196555
0.2974155 -0.08162594 -0.2992464 -0.029752472 -0.3175102 -0.06862207 -0.21851295 -0.013757319
-0.21551469 0.14619051 -0.03610111 -0.17214991 0.060873277 -0.052354954 0.207137 0.217383
0.21121605 0.13548163 -0.029808914 0.013630911 -0.22362505 -0.13700894 -0.26155716 0.007840988
0.23649037 -0.04418366 0.036982343 0.091757745 0.23039214 -0.08907863 -0.025872823 -0.2632918
-0.10111297 0.2032158 0.07048179 -0.070703104 -0.17916125 -0.0014976513 -0.15947697 -0.098396435
0.23761562 0.05264773 -0.19557019 -0.2200804 -0.008136895 -0.24906476 -0.19830994 0.30588865
0.100174494 -0.22534904 -0.042023186 -0.2642353 0.12067595 0.19675452 -0.16666305 -0.10819017
0.15304573 -0.1951922 -0.08410354 -0.12154416 0.14216155 0.022241488 -0.039476976 0.11881518

nnECG.8.bias f4 [16]
00000000: 9d14 2b3d eea9 2ebb 12e1 393c b6c5 e0bc
00000010: 7a3c d23c 347d b33c 4d59 0d3d df26 80bc
00000020: 8f6e fc3c 2b47 373d 734a aa3c 635e 083d
00000030: 3be1 f03c 7418 da3c 7090 f33b 629d 12bc
0.041767705 -0.002665158 0.011345165 -0.027438026 0.025663603 0.021910287 0.034508992 -0.015643535
0.030814437 0.044745605 0.020787453 0.03329314 0.029404273 0.026622988 0.00743299 -0.008948656

nnECG.9.weight f4 [16]
00000000: d801 8c3f 5fb8 823f 6faf 8b3f 4e97 823f
00000010: f2f6 803f 2b7f 893f b984 873f ece9 883f
00000020: 56d1 903f c842 893f fa5f 7f3f 0929 833f
00000030: 5946 883f c278 8c3f 0a2f 863f be52 883f
1.0938063 1.0212516 1.0912913 1.0202425 1.0075362 1.0741934 1.0587379 1.0696387
1.1313884 1.0723505 0.99755824 1.0246898 1.0646468 1.0974352 1.0483105 1.0650251

nnECG.9.bias f4 [16]
00000000: 5bfb cc3c aef4 333c 273e 96bc a5cc 91bc
00000010: 55ab d3b9 fb95 4b3b a34c a13c 4bf1 89bc
00000020: cab4 793c fefc 183d 3d20 d23a f1d1 fc3b
00000030: c9b7 333c a659 b43c 4c7b d7bc 7672 e9bb
0.0250222 0.010983629 -0.018340183 -0.017797777 -0.00040372708 0.0031064737 0.019689864 -0.01683869
0.015240857 0.037350647 0.0016031336 0.0077154567 0.010969111 0.022015404 -0.02630391 -0.0071242405

nnECG.9.running_mean f4 [16]
00000000: c520 543d a4fb 253f 076b e13e 42fb 26be
00000010: 15e8 37bf 6efa 60bc c5e0 6c3d 5f21 27be
00000020: 02f2 a73e f67c b83e 4400 f2be 8738 8dbe
00000030: d064 bbbd 028d b23e 3b9a a5bd d29a fc3d
0.051789064 0.648371 0.44026968 -0.16306785 -0.71838504 -0.013731582 0.057831544 -0.16321324
0.32801825 0.36032838 -0.47265828 -0.2758219 -0.09150088 0.34873205 -0.08086058 0.12334217

nnECG.9.running_var f4 [16]
00000000: 6763 ce3f 20d7 b73f 58b7 d53f 6ee2 c23f
00000010: d5f6 bf3f e500 913f a494 f73f 952a ed3f
00000020: 208e bc3f 9c10 b33f 3cb6 da3f ee95 ae3f
00000030: 4b91 b73f 2705 af3f 7936 a73f 7b53 c23f
1.6124085 1.4362526 1.6696577 1.5225351 1.4997202 1.1328398 1.9342237 1.852862
1.4730873 1.3989444 1.7086864 1.3639505 1.4341215 1.3673447 1.3063499 1.5181726

nnECG.12.weight f4 [4, 16]
00000000: bd06 5a3e 2613 55be 7a99 3ebe 3e9c 03bf
00000010: 9860 b63e aa0d d33e 7eeb d63e 53c8 fcbe
00000020: aa14 a53e c8b6 a23e f7ce 363e 0361 023e
00000030: f973 0c3e c00b db3e f19b c3be e942 9abe
00000040: 901f d8be f756 9abc 6ce4 373e dd0e d1be
00000050: 876e ce3e e6de d8be 1250 013f 5740 14bf
00000060: 06ef efbd 22a4 cebd 07d8 dabd 8780 d73e
00000070: 6110 a6be 8d37 0bbc d862 8d3e cd50 b03e
00000080: 66db debd b493 6ebe d82f 073f bb3b 1ebe
00000090: 3f76 8dbd bd6d e1bc 8510 d03d 69c5 ef3d
000000a0: 0274 c2bd 29eb da3d c0c2 82bd 4ad6 e3be
000000b0: 6687 a8be ca6f 1ebf f2f7 f63e 65ce 0abe
000000c0: 0b9d 92bc f17c c43c 23c3 a33d f9fa 26be
000000d0: 5bf7 5fbe e8cb 813e 663d 42be 17e0 44be
000000e0: 2f69 b5be fd18 e03e 5b60 47be 998b e7be
000000f0: 1171 eabe a5ee 953e 69da c03e 7e64 543e
0.21291633 -0.20808086 -0.18613234 -0.5141028 0.3562057 0.41221362 0.4197654 -0.49371585
0.32242328 0.31780076 0.17852388 0.1273232 0.13716115 0.42782402 -0.3820491 -0.30129173
-0.4221158 -0.018840296 0.1795823 -0.40831652 0.403187 -0.42357558 0.505128 -0.57910675
-0.11715512 -0.100898996 -0.10685735 0.42090246 -0.3243437 -0.008497131 0.27614474 0.34436646
-0.10881691 -0.23298532 0.5280738 -0.15452473 -0.06907319 -0.027518148 0.10159401 0.11707575
-0.09494783 0.106893845 -0.06384802 -0.44499427 -0.329158 -0.61889327 0.48236042 -0.13555296
-0.01789715 0.023985358 0.07996204 -0.16306676 -0.21871702 0.2535088 -0.18968734 -0.19226108
-0.3543181 0.43769065 -0.1947035 -0.45223692 -0.45789388 0.29283634 0.37666634 0.2074146

nnECG.12.bias f4 [4]
00000000: 88c5 0c3d f106 9a3c 54bf 133c 7442 f23c
0.034368068 0.018802138 0.009017784 0.029572703

nnECG.13.weight f4 [4]
00000000: 745d 833f 1a12 803f 8016 873f d229 8d3f
1.0262895 1.0005524 1.0553741 1.1028388

nnECG.13.bias f4 [4]
00000000: 745e 0f3c 683f c73b 4e9f f5bb 21c3 093c
0.008750547 0.0060805567 -0.0074957972 0.008408339

nnECG.13.running_mean f4 [4]
00000000: d96f 2b3e 8ded 29be 675a 88be 23eb 27be
0.16741885 -0.16594525 -0.26631472 -0.16398291

nnECG.13.running_var f4 [4]
00000000: d5c0 8d3f 2dd1 0140 c72e 913f 8621 843f
1.1074473 2.028392 1.13424 1.032273

nnECG.16.weight f4 [1, 4]
00000000: 41ff 8bbf 3748 44be 5225 833f 9b12 c83e
-1.0937272 -0.19168173 1.0245764 0.39076695
