Models/net_3_1_epoch_21.pth (torch, 57997 bytes, 25 tensors)

nnECG.0.weight f4 [128, 12]
0.16951725 0.015526813 0.018103514 0.0691556 -0.10674056 -0.20794849 -0.031230446 -0.07259861
0.028908877 -0.091720924 -0.009359302 0.20417503 0.056286 -0.06992819 0.20683546 -0.10415185
-0.038941707 0.058746044 0.10706834 0.20226955 -0.18889344 -0.048463833 0.07123368 -0.14233671
0.054696452 0.018747078 -0.18852438 0.14008006 0.20039697 0.03601433 -0.028718136 0.1546753
0.1246631 -0.12784019 0.10741194 -0.16095902 0.090946615 -0.21224165 0.11117094 -0.15323481
0.0077138557 0.0058919056 -0.22367965 -0.1534365 0.07700933 0.020191863 0.1743777 0.0054025026
0.14327642 -0.19377267 0.15997252 -0.15229268 -0.15387243 -0.17636888 -0.17100857 -0.12596303
-0.14332712 -0.1617167 -0.19396389 0.07088828 -0.14821197 -0.14206235 0.16995627 -0.113181226
0.016369011 -0.15331163 0.008679184 -0.12743992 0.24118076 -0.06495436 -0.2081163 -0.10277269
-0.19876489 0.094223484 -0.06480139 0.20359546 0.19124527 0.15783179 -0.012089871 -0.12811776
0.11560845 0.18928538 0.07089161 0.012597994 0.084732294 -0.06477127 -0.11036247 -0.1776317
-0.104545094 -0.06346673 0.23225759 0.077819526 0.035930496 -0.075466946 -0.1469607 0.06525591
0.017244916 -0.13392404 -0.102063835 -0.017734861 0.068624176 0.02677628 0.1628806 -0.10452934
-0.037600935 -0.20252727 -0.1243168 0.119153105 0.04891239 -0.09392411 0.14014882 0.16774637
0.21250384 -0.17573413 -0.21949685 -0.0870346 0.03612694 0.09521453 0.15731941 0.06535769
0.19497864 0.057209592 0.1523871 -0.108575016 -0.15181567 0.013165517 -0.14773552 0.0586636
0.16408971 -0.12415992 -0.11755253 0.09942453 -0.0024824238 -0.11362189 0.09043044 -0.1939325
-0.25024933 -0.13808896 0.1960129 -0.15426034 -0.020736137 0.04783689 -0.20966867 -0.11180357
-0.07503767 0.19826669 0.068060555 0.09255571 0.15511538 -0.15804946 -0.053595465 -0.03564911
-0.06913483 0.17586201 -0.15501523 0.14675963 -0.1021898 0.14082295 0.009488331 0.23374073
-0.11131579 -0.071589746 -0.18227015 -0.16016689 0.16190185 0.21397936 0.14874047 -0.14881808
-0.060676333 0.06337784 -0.20385043 0.019092832 -0.089507334 0.17912093 -0.075854614 -0.015715642
0.08356772 0.15021428 -0.19971679 0.11809058 0.1720996 0.12534252 -0.07405072 -0.1539579
0.07958694 -0.12554705 -0.17303082 -0.008531618 0.013316212 0.05865859 0.14350669 -0.12798662
-0.12520093 0.15261573 -0.076528475 0.13728845 0.051141623 -0.08889106 -0.14789575 -0.024398081
0.08023828 -0.17979312 -0.19108738 -0.14155965 -0.010056536 -0.106117874 0.13145499 0.0067603886
-0.06961507 -0.058815185 0.053637408 0.14491715 0.043421756 -0.20580359 0.027331188 0.18802969
-0.21709922 0.067572184 -0.135945 0.12502962 -0.04154022 0.049146395 -0.15995334 0.0070031076
0.17790295 -0.123375535 -0.17891222 -0.11900397 0.22688821 0.14706416 0.09229062 -0.053295147
0.27366227 -0.17365399 0.014754088 0.066358246 -0.022279179 0.22795331 0.116108276 0.036674336
0.02823372 -0.13165145 -0.0890688 -0.10925294 -0.08348821 -0.17664778 0.14819604 0.14940986
0.24348196 -0.20869191 -0.04642391 0.15917599 0.09321661 0.13805762 0.06339164 0.039338347
00000000: ee95 2d3e 2d64 7e3c d24d 943c 74a1 8d3d
00000010: cb9a dabd 73f0 54be fed6 ffbc 94ae 94bd
00000020: 4fd2 ec3c 2ed8 bbbd c257 19bc 4213 513e
00000030: 268c 663d 8336 8fbd adcc 533e 914d d5bd
00000040: 5781 1fbd b19f 703d a546 db3d c01f 4f3e
00000050: 486d 41be 0382 46bd f7e2 913d b7c0 11be
00000060: 6309 603d 7993 993c 890c 41be 2671 0f3e
00000070: dd34 4d3e c383 133d 4c42 ebbc 3463 1e3e
00000080: 5e4f ff3d 8ae8 02be cbfa db3d 71d2 24be
00000090: 3842 ba3d e055 59be 97ad e33d 96e9 1cbe
000000a0: 83c4 fc3b e310 c13b 470c 65be 751e 1dbe
000000b0: 11b7 9d3d 6869 a53c 1190 323e 7a07 b13b
000000c0: 0eb7 123e 586c 46be d6cf 233e 9df2 1bbe
000000d0: bc90 1dbe 0b9a 34be df1c 2fbe 74fc 00be
000000e0: 58c4 12be 1099 25be 789e 46be e02d 913d
000000f0: e1c4 17be cb78 11be 0409 2e3e 8fcb e7bd
00000100: 4e18 863c b9fd 1cbe 2333 0e3c 9c7f 02be
00000110: 17f8 763e cb06 85bd 701c 55be 7d7a d2bd
00000120: 0689 4bbe 3ef8 c03d 97b6 84bd 547b 503e
00000130: cdd5 433e a89e 213e 9814 46bc 4d31 03be
00000140: 1fc4 ec3d 07d4 413e 9f2f 913d d167 4e3c
00000150: 2088 ad3d cda6 84bd b805 e2bd 16e5 35be
00000160: bd1b d6bd d8fa 81bd efd4 6d3e d85f 9f3d
00000170: db2b 133d 6a8e 9abd de7c 16be e4a4 853d
00000180: 3645 8d3c 6223 09be d806 d1bd b348 91bc
00000190: d58a 8c3d ee59 db3c 2cca 263e 7b13 d6bd
000001a0: 7003 1abd 4f63 4fbe ce99 febd 8b06 f43d
000001b0: 5c58 483d 495b c0bd 2c83 0f3e b4c5 2b3e
000001c0: 9b9a 593e a6f3 33be c8c3 60be 323f b2bd
000001d0: d8f9 133d d6ff c23d 5718 213e 41da 853d
000001e0: 7ba8 473e 9b54 6a3d 5d0b 1c3e 945c debd
000001f0: 9175 1bbe 2eb4 573c fb47 17be 3e49 703d
00000200: 2207 283e 8e47 febd 61bf f0bd 179f cb3d
00000210: 29b0 22bb 98b2 e8bd 9833 b93d 3e96 46be
00000220: ae20 80be 3167 0dbe 9bb7 483e 6cf6 1dbe
00000230: d5de a9bc 9df0 433d 62b3 56be 45f9 e4bd
00000240: 5aad 99bd 6c06 4b3e 5563 8b3d d98d bd3d
00000250: 91d6 1e3e b8d7 21be eb86 5bbd cd04 12bd
00000260: 9096 8dbd 2c15 343e 50bc 1ebe 2848 163e
00000270: e348 d1bd e433 103e f274 1b3c bb59 6f3e
00000280: 88f9 e3bd a59d 92bd 07a5 3abe ca02 24be
00000290: 99c9 253e 681d 5b3e 6c4f 183e c463 18be
000002a0: bf87 78bd 3ecc 813d 2bbe 50be 9268 9c3c
000002b0: 9f4f b7bd 7a6b 373e aa59 9bbd 17be 80bc
000002c0: 8e25 ab3d c6d1 193e 8f82 4cbe 79d9 f13d
000002d0: e13a 303e ca59 003e e7a7 97bd 24a7 1dbe
000002e0: 7afe a23d 688f 00be fe2e 31be 33c8 0bbc
000002f0: 3e2c 5a3c fd43 703d 6bf3 123e ed0e 03be
00000300: ac34 00be 4c47 1c3e f6ba 9cbd 5895 0c3e
00000310: e179 513d 840c b6bd fc71 17be 7cde c7bc
00000320: f853 a43d b01b 38be 69ac 43be 03f5 10be
00000330: 2bc4 24bc 5454 d9bd 239c 063e 4086 dd3b
00000340: 5992 8ebd 31e8 70bd e6b2 5b3d 2965 143e
00000350: 03db 313d 2dbe 52be a8e5 df3c db8a 403e
00000360: 424f 5ebe 4963 8a3d 2b35 0bbe c407 003e
00000370: 1426 2abd bb4d 493d cfca 23be 537a e53b
00000380: 312c 363e 50ac fcbd c434 37be 5ab8 f3bd
00000390: 6255 683e fd97 163e dd02 bd3d 034c 5abd
000003a0: 761d 8c3e 5ad2 31be 21bb 713c d5e6 873d
000003b0: d382 b6bc 986c 693e 2dca ed3d d437 163d
000003c0: 674a e73c a3cf 06be b469 b6bd 01c0 dfbd
000003d0: defb aabd 28e3 34be b4c0 173e e6fe 183e
000003e0: 5653 793e 55b3 55be ff26 3ebd 08ff 223e
000003f0: 5ae8 be3d fa5e 0d3e 7ad3 813d 3f21 213d

nnECG.0.bias f4 [128]
0.010216808 -0.00063287525 -0.0044364557 0.012595471 0.010962636 0.02904073 0.008641895 0.011738162
0.0269857 0.017303562 0.011519759 0.017584462 0.012763364 0.00033807178 0.006424066 0.004724578
0.016532596 0.0002533903 -0.0018509922 -0.0010901324 0.029839894 0.015986865 0.0034864133 0.02182953
0.0032194231 0.009632638 0.009298791 0.0031292979 0.018661356 0.0070947604 0.019863429 0.022170715
0.004641153 0.009144428 3.4546625e-05 0.019977491 0.020645605 0.005573862 0.030663487 0.012129644
0.022952689 0.021484438 0.011878193 0.008022609 0.0011395765 0.008749934 0.008040755 0.015627991
0.018175557 0.011601485 0.021699665 0.013473662 0.0191524 0.0039000425 -0.008256067 0.01789942
0.013827563 0.009818068 0.0030604606 0.008609374 0.004087541 0.020994589 0.012892195 0.0111000575
0.005176842 0.0048710797 -0.002188099 0.004858146 0.0057303375 0.03452386 0.021196702 0.0082194535
0.0005584509 0.003404007 0.017962648 0.016140714 0.013650737 0.008485404 0.008519353 0.023477228
0.023315467 0.017522637 0.015194789 0.008224742 0.02155844 0.011859735 0.0027480847 0.017818594
-0.005645041 0.01179601 0.016353518 0.003158691 0.00985055 0.01176406 0.013539648 0.020601775
-0.00049631 0.011001817 0.0009329722 0.006365056 0.0081131775 0.023369014 0.019979032 0.031329114
0.016704343 0.019145755 0.01116604 0.027689101 0.0067108897 0.012532759 0.010177285 -0.004526167
-0.010095057 0.005373153 -0.0043 -0.0013024198 0.002836396 0.009258034 0.018813962 0.011137715
0.0137038035 0.01272747 0.003908907 0.011488964 0.015212568 0.014752714 0.013570658 0.0009676897
00000000: 6664 273c 8ae7 25ba b05f 91bb 3c5d 4e3c
00000010: a19c 333c d3e6 ed3c bc96 0d3c 6b51 403c
00000020: 1d11 dd3c 33c0 8d3c 5fbd 3c3c 4a0d 903c
00000030: 6e1d 513c 3a3f b139 f980 d23b a2d0 9a3b
00000040: 5e6f 873c 78d9 8439 fe9c f2ba c6e2 8eba
00000050: cb72 f43c e3f6 823c 4f7c 643b d8d3 b23c
00000060: f5fc 523b 36d2 1d3c f559 183c e814 4d3b
00000070: b3df 983c 2a7b e83b a1b8 a23c 5c9f b53c
00000080: d014 983b 83d2 153c 28e6 1038 d6a7 a33c
00000090: f920 a93c f2a4 b63b fe31 fb3c 6abb 463c
000000a0: 4707 bc3c 2200 b03c c19c 423c 4371 033c
000000b0: d85d 953a e25b 0f3c 5fbd 033c 4606 803c
000000c0: e8e4 943c 2814 3e3c 7fc3 b13c a2c0 5c3c
000000d0: 7ee5 9c3c db97 7f3b 7444 07bc cea1 923c
000000e0: 018d 623c f6db 203c 0292 483b 550e 0d3c
000000f0: c7f0 853b d8fc ab3c c939 533c 04dd 353c
00000100: 80a2 a93b 949d 9f3b 3666 0fbb 1531 9f3b
00000110: 8ec5 bb3b e468 0d3d b5a4 ad3c e3aa 063c
00000120: 0165 123a c315 5f3b 6726 933c 8839 843c
00000130: 57a7 5f3c 5d06 0b3c c294 0b3c 5153 c03c
00000140: 1400 bf3c a28b 8f3c 90f3 783c 11c1 063c
00000150: 539b b03c 554f 423c 3619 343b 4df8 913c
00000160: 09fa b8bb 0d44 413c d0f7 853c 0b02 4f3b
00000170: 3464 213c 0bbe 403c 66d5 5d3c 0ec5 a83c
00000180: cd1a 02ba f740 343c b492 743a f691 d03b
00000190: 22ed 043c 6070 bf3c 11ab a33c f552 003d
000001a0: 8cd7 883c 8fd7 9c3c c4f1 363c 41d4 e23c
000001b0: 06e7 db3b 3456 4d3c a1be 263c 3e50 94bb
000001c0: bd65 25bc 4611 b03b 04e7 8cbb f5b5 aaba
000001d0: d4e2 393b 02af 173c bd1f 9a3c f67a 363c
000001e0: eb85 603c e186 503c 4a16 803b 353c 3c3c
000001f0: 233e 793c 5eb5 713c 7757 5e3c 8eac 7d3a

nnECG.1.weight f4 [128]
0.9932288 1.0003285 0.9649695 1.0493939 0.9858114 1.0625483 1.0315346 1.0743692
1.0721762 1.0533583 1.0181 1.020415 0.99749464 1.0437124 0.97911716 1.0534371
1.0286356 1.0316831 1.059684 1.0671582 1.1372339 1.0207114 0.9730037 0.99801135
0.9686556 0.9653335 0.9877595 1.0171672 1.0939415 1.0146638 1.0139463 1.0425614
0.9986523 1.0069785 0.98061806 1.0257611 1.0011426 0.96570754 1.078745 1.0192744
1.0272259 1.009099 1.0181552 1.0320415 1.049008 0.99648476 0.9930974 1.0040905
1.0520447 1.0170921 1.0386305 0.9940361 1.0513031 1.0228144 0.95337164 1.043969
0.95774275 0.99289656 1.0316368 0.9864921 0.98701197 1.0125369 0.9995195 0.9655206
1.0390837 1.0096085 0.98700845 1.0323205 0.9760866 0.97943556 1.0059178 1.0068883
0.95194954 1.0080886 1.1069219 1.0153927 1.0380915 0.9913876 1.0137749 1.0475904
1.0321347 1.019517 1.0379456 1.0158677 1.0443375 0.98660207 1.0013608 1.0410643
0.98802763 0.9872427 0.9979466 0.9893635 1.079709 1.111686 1.0117992 1.1490426
1.0652223 1.0043242 1.0078733 1.0023346 1.025996 1.09078 1.0402602 1.0126027
0.9773428 0.9925794 0.98904157 1.0985305 0.96521884 1.0325007 0.98482573 0.9503161
1.0229979 1.0043219 0.99204856 0.98153675 1.028246 1.0231463 1.0522561 1.0003015
0.99448943 1.0304652 1.0035226 1.0208616 1.0622514 1.0343162 1.0095868 1.0344073
00000000: 3e44 7e3f c40a 803f 3e08 773f 8a52 863f
00000010: 235e 7c3f 9501 883f 5309 843f ee84 893f
00000020: 123d 893f 72d4 863f 1a51 823f f59c 823f
00000030: cf5b 7f3f 5e98 853f 6ca7 7a3f 07d7 863f
00000040: 55aa 833f 310e 843f baa3 873f a498 883f
00000050: e190 913f aca6 823f c516 793f ac7d 7f3f
00000060: d0f9 773f 1920 773f cedd 7c3f 8932 823f
00000070: 4606 8c3f 81e0 813f fec8 813f a772 853f
00000080: ada7 7f3f ace4 803f c909 7b3f 244c 833f
00000090: 7125 803f 9c38 773f 5114 8a3f 9577 823f
000000a0: 237c 833f 282a 813f e952 823f f019 843f
000000b0: e545 863f a019 7f3f a23b 7e3f 0a86 803f
000000c0: 67a9 863f 1330 823f d8f1 843f 2679 7e3f
000000d0: 1a91 863f 95eb 823f 2a10 743f c7a0 853f
000000e0: a12e 753f 782e 7e3f ad0c 843f bf8a 7c3f
000000f0: d1ac 7c3f cf9a 813f 83e0 7f3f 5c2c 773f
00000100: b200 853f da3a 813f 96ac 7c3f 1423 843f
00000110: d0e0 793f 4abc 7a3f eac1 803f b7e1 803f
00000120: f7b2 733f 0c09 813f 9eaf 8d3f 63f8 813f
00000130: 2fe0 843f 94cb 7d3f 60c3 813f 7117 863f
00000140: fd1c 843f 887f 823f 67db 843f f407 823f
00000150: daac 853f f491 7c3f 972c 803f 9841 853f
00000160: 61ef 7c3f f0bb 7c3f 6e79 7f3f ed46 7d3f
00000170: e833 8a3f ba4b 8e3f a382 813f d413 933f
00000180: 3459 883f b28d 803f fe01 813f 804c 803f
00000190: d653 833f ae9e 8b3f 3f27 853f f79c 813f
000001a0: 2333 7a3f af19 7e3f d431 7d3f a69c 8c3f
000001b0: 9518 773f fc28 843f 8a1d 7c3f ea47 733f
000001c0: 98f1 823f 9f8d 803f e5f6 7d3f fe45 7b3f
000001d0: 919d 833f 75f6 823f 54b0 863f e109 803f
000001e0: dc96 7e3f 49e6 833f 6e73 803f 98ab 823f
000001f0: dbf7 873f 7964 843f 243a 813f 7567 843f

nnECG.1.bias f4 [128]
0.011210719 -0.008015962 -0.014336686 0.011882022 0.0047404687 0.018512309 -0.0011764102 0.0064200102
0.019456038 0.011034684 -0.006858164 0.0015185846 0.014115722 -0.013194267 -0.0022261941 0.002430465
0.008607065 -0.009207491 -0.0012972228 -0.00038865782 0.028833173 0.010060115 0.0016898927 0.006583267
0.001097448 0.0013904357 0.008463773 -0.0004901292 0.01213503 0.0037778083 0.008428993 0.009560221
-0.0076751667 0.008469742 -0.0019264879 0.008252191 0.007900588 -0.007648868 0.02908905 -0.004255699
0.0068425387 0.008486206 -0.0011031947 -0.0038106067 -0.0061599067 -0.000540818 -0.003762992 0.011549162
0.016499884 -0.0022349455 0.009362497 0.015638223 -0.0035885097 -0.0006653321 -0.013627101 0.008885181
-0.0032873317 0.0038751708 -0.017663756 -9.6747644e-05 -0.0033701623 0.005231542 0.009750535 -0.003586329
-0.0065666335 -0.006453567 -0.00246378 0.000650261 -0.0034879607 0.007509803 0.004290207 -0.0007676288
-0.007752265 -0.0034385943 0.006681186 0.00090705557 -0.00075542997 -0.012079672 -0.014853469 0.020857759
0.008537478 0.015318294 -0.002235247 -0.011845623 0.015893731 0.003965951 -0.0055669863 0.0076306034
-0.013789441 0.0016821894 0.0038458586 -0.00037428908 0.0020423967 0.0031327873 0.0043434002 0.0061558285
-0.0016680381 0.012538659 -0.005347208 0.0009876132 0.0062003424 0.020479372 0.008503192 0.02251718
-0.00039922155 0.00431585 -0.007852653 0.022189753 -0.0024065918 0.0127358055 0.004971972 -0.028730739
-0.013150919 -0.0009999699 -0.011753636 -0.009540734 -0.017408896 -0.0004021294 0.007955851 -0.0065800715
-0.0024131886 -0.0050751525 0.004484112 0.0059304773 0.012685748 0.013375252 0.006788099 -0.0057129455
00000000: 2aad 373c 6255 03bc 6be4 6abc d0ac 423c
00000010: ef55 9b3b 20a7 973c c731 9aba f35e d23b
00000020: 4562 9f3c d2ca 343c 73ba e0bb 3e0b c73a
00000030: a145 673c c42c 58bc 57e5 11bb 7048 1f3b
00000040: a604 0d3c 04db 16bc 9307 aaba c5c4 cbb9
00000050: 8c33 ec3c 2ed3 243c 647f dd3a 72b8 d73b
00000060: 3fd8 8f3a 483f b63a a3ab 0a3c 047c 00ba
00000070: 01d2 463c 1b95 773b c219 0a3c 79a2 1c3c
00000080: f77f fbbb acc4 0a3c 3582 fcba 3334 073c
00000090: 7871 013c 5ba3 fabb 294c ee3c 6473 8bbb
000000a0: 6037 e03b ba09 0b3c 1299 90ba 5fbb 79bb
000000b0: 0bd9 c9bb aec5 0dba 889c 76bb b238 3d3c
000000c0: c42a 873c 2a78 12bb 2965 193c bb1b 803c
000000d0: 342d 6bbb ae69 2eba 3444 5fbc 2693 113c
000000e0: 4670 57bb 94f6 7d3b 95b3 90bc ffe4 cab8
000000f0: f1dd 5cbb 5b6d ab3b b5c0 1f3c 9e08 6bbb
00000100: ea2c d7bb 7278 d3bb 5f77 21bb 4776 2a3a
00000110: 4596 64bb cb14 f63b dd94 8c3b b23a 49ba
00000120: b606 febb 0a5a 61bb daed da3b 78c7 6d3a
00000130: 0c08 46ba d1e9 45bc f75b 73bc e4dd aa3c
00000140: c7e0 0b3c 95f9 7a3c 397d 12bb 2514 42bc
00000150: 9233 823c cff4 813b 446b b6bb 240a fa3b
00000160: 1ced 61bc e97c dc3a cd0a 7c3b 3b3c c4b9
00000170: bbd9 053b 734f 4d3b 1553 8e3b d5b6 c93b
00000180: 12a2 daba f36e 4d3c a237 afbb cd72 813a
00000190: 3e2c cb3b 5bc4 a73c f950 0b3c f375 b83c
000001a0: 9c4e d1b9 f96b 8d3b 6aa8 00bc 49c7 b53c
000001b0: e9b7 1dbb d7a9 503c edeb a23b ba5c ebbc
000001c0: f476 57bc 6c11 83ba 5392 40bc bd50 1cbc
000001d0: 1a9d 8ebc e5d4 d2b9 4259 023c a49d d7bb
000001e0: 9626 1ebb 774d a6bb 75ef 923b 7354 c23b
000001f0: e2d7 4f3c df23 5b3c b46e de3b a933 bbbb

nnECG.1.running_mean f4 [128]
-0.06884676 0.27578282 0.18964346 0.065326706 -0.6255482 -0.38456917 0.23559684 0.03636111
-0.31501803 -0.059794597 0.067445 -0.11155256 -0.21096583 0.17429058 -0.043164507 0.09083402
-0.5399057 0.01946265 -0.3981781 0.4748441 0.025043238 0.2979436 -0.21089134 -0.24211685
-0.05145002 -0.080118656 0.21809076 -0.16113625 0.11018368 0.60553616 -0.30684012 -0.55029726
0.24037422 -0.21873114 -0.18589304 -0.23401083 -0.30697823 0.3068531 -0.46072316 0.1904121
-0.30826136 -0.13976333 0.15485643 -0.044793427 0.397077 -0.39514402 0.4013735 0.026404666
-0.16892731 0.058274895 -0.19929287 -0.24624352 -0.0061175623 0.10253573 0.4749354 0.064701095
-0.19686867 -0.4379125 -0.012298487 -0.034792047 0.25550547 -0.104068205 -0.29807207 0.006718818
0.21243554 -0.0310062 0.5163138 -0.4262039 -0.14795808 -0.13013949 0.3316789 0.3162884
0.08402922 0.5134869 0.17707376 0.3275405 0.12030961 0.17098984 0.037455235 0.23579046
0.1054064 -0.3233138 -0.024516761 0.017915966 -0.18131484 0.013926326 0.38281712 -0.12574038
0.43792683 0.29170707 0.046944793 0.11642189 0.15882666 -0.21726185 0.043987475 -0.21640807
0.13038541 -0.13666366 -0.17085901 0.08505282 -0.18998604 -0.05208714 0.047860082 -0.28681323
-0.21477339 0.05679661 -0.5981725 -0.12251267 -0.49825823 -0.050926823 0.01834422 -0.56001014
0.5137878 0.17269474 0.64073384 0.2049138 0.14342044 0.40488032 -0.19882746 -0.3475604
-0.11585049 0.051528577 -0.43358925 0.59673536 -0.43566427 -0.17058143 -0.3150773 0.35565424
00000000: 88ff 8cbd 6833 8d3e e531 423e 02ca 853d
00000010: ed23 20bf 40e6 c4be 4c40 713e 63ef 143d
00000020: 0b4a a1be 2eeb 74bd 9b20 8a3d ab75 e4bd
00000030: 6d07 58be 3b79 323e 44cd 30bd 3007 ba3d
00000040: 4337 0abf 2370 9f3c 00de cbbe c41e f33e
00000050: 7a27 cd3c 108c 983e e6f3 57be 7bed 77be
00000060: 42bd 52bd 4015 a4bd 2f53 5f3e e700 25be
00000070: fba7 e13d 6b04 1b3f 261a 9dbe 48e0 0cbf
00000080: a924 763e 0efb 5fbe bf5a 3ebe 89a0 6fbe
00000090: 402c 9dbe d91b 9d3e e8e3 ebbe 64fb 423e
000000a0: 6fd4 9dbe 1e1e 0fbe af92 1e3e 5079 37bd
000000b0: ad4d cb3e 5150 cabe d480 cd3e 994e d83c
000000c0: 48fb 2cbe a8b1 6e3d 6e13 4cbe 4327 7cbe
000000d0: d575 c8bb 41fe d13d bc2a f33e 0282 843d
000000e0: f197 49be 1136 e0be 987f 49bc 1b82 0ebd
000000f0: 9dd1 823e b621 d5bd e79c 98be 8829 dc3b
00000100: b488 593e b700 febc 242d 043f 6637 dabe
00000110: 5382 17be 4943 05be d1d1 a93e 8ef0 a13e
00000120: 8317 ac3d e173 033f d352 353e 63b3 a73e
00000130: e364 f63d f617 2f3e a96a 193d 0e73 713e
00000140: 50df d73d 6389 a5be 60d7 c8bc 81c4 923c
00000150: 99aa 39be 3f2b 643c 9b00 c43e 16c2 00be
00000160: f237 e03e a15a 953e 2f49 403d 9a6e ee3d
00000170: 75a3 223e e479 5ebe 362c 343d 149a 5dbe
00000180: c183 053e 8ff1 0bbe aaf5 2ebe 2c30 ae3d
00000190: b38b 42be 5359 55bd ef08 443d 2fd9 92be
000001a0: 8eed 5bbe 90a3 683d d521 19bf ece7 fabd
000001b0: b41b ffbe a598 50bd 9e46 963c d35c 0fbf
000001c0: 9987 033f e4d6 303e 2207 243f ecd4 513e
000001d0: cfdc 123e 794c cf3e 6d99 4bbe 70f3 b1be
000001e0: 0643 edbd a10f 533d 69ff ddbe a6c3 183f
000001f0: 630f dfbe e6ac 2ebe d051 a1be 5018 b63e

nnECG.1.running_var f4 [128]
0.07475772 0.077070914 0.072317556 0.07430209 0.07408158 0.07804641 0.07265124 0.072469324
0.07448971 0.076047584 0.07528684 0.074446574 0.07287323 0.07492462 0.07234689 0.07742306
0.07336914 0.073476925 0.07380396 0.07580712 0.07378479 0.07447587 0.07517098 0.07263647
0.073728815 0.07504427 0.07344807 0.07726557 0.07512529 0.07198332 0.07292307 0.07565426
0.07841385 0.07411975 0.074459955 0.074315585 0.07250734 0.07336677 0.08488608 0.07271698
0.07486001 0.07306196 0.07789265 0.07302511 0.07825973 0.0756574 0.07262767 0.07369444
0.07353366 0.07363252 0.075776465 0.07279023 0.07422336 0.07404195 0.072682425 0.07777232
0.07222821 0.07267424 0.074264616 0.075862594 0.073166825 0.07817801 0.07662899 0.072540246
0.07351148 0.07358378 0.07306004 0.072941594 0.07367704 0.0740113 0.07314471 0.07298358
0.07346728 0.07366705 0.07366734 0.07673382 0.073013455 0.0743672 0.076593086 0.074725546
0.07474601 0.07327689 0.073475845 0.077089146 0.07413033 0.07260588 0.07266802 0.07258501
0.0733114 0.073429525 0.07232274 0.0725911 0.079952404 0.07581995 0.074389115 0.07646344
0.073308386 0.07305555 0.07714535 0.07979462 0.072801836 0.073567286 0.07375068 0.07670683
0.07341246 0.07272282 0.07792355 0.07353337 0.07222905 0.072381005 0.07315875 0.07717818
0.07333305 0.073329814 0.074086994 0.0731042 0.075936064 0.07514962 0.076545715 0.07314429
0.07474724 0.07462199 0.07303913 0.07276281 0.07357914 0.07389687 0.072521366 0.08178397
00000000: 931a 993d 5bd7 9d3d 3a1b 943d b22b 983d
00000010: 15b8 973d ccd6 9f3d 2cca 943d cc6a 943d
00000020: 108e 983d d6be 9b3d fd2f 9a3d 7277 983d
00000030: 8f3e 953d 1472 993d 9b2a 943d fb8f 9e3d
00000040: 8f42 963d 127b 963d 8826 973d c340 9b3d
00000050: 7b1c 973d ce86 983d 3ef3 993d 6ec2 943d
00000060: 22ff 963d cfb0 993d f16b 963d 693d 9e3d
00000070: 4adb 993d fe6b 933d b158 953d 9ff0 9a3d
00000080: 7197 a03d 18cc 973d 767e 983d c532 983d
00000090: ba7e 943d 5141 963d c1d8 ad3d a4ec 943d
000000a0: 3450 993d 82a1 953d 2f86 9f3d 308e 953d
000000b0: a346 a03d 44f2 9a3d d1bd 943d 1ced 963d
000000c0: d198 963d a6cc 963d b130 9b3d 0b13 953d
000000d0: 6b02 983d 4ea3 973d 86da 943d 1847 9f3d
000000e0: 62ec 933d 3bd6 943d 0c18 983d d95d 9b3d
000000f0: 7dd8 953d cb1b a03d a9ef 9c3d fb8f 943d
00000100: 308d 963d 18b3 963d 81a0 953d 6762 953d
00000110: fde3 963d 3d93 973d e5cc 953d 6a78 953d
00000120: 0376 963d c0de 963d e7de 963d 9f26 9d3d
00000130: 1488 953d d54d 983d d6dc 9c3d b509 993d
00000140: 7014 993d 3212 963d 817a 963d eae0 9d3d
00000150: a4d1 973d 64b2 943d f9d2 943d 73a7 943d
00000160: 4a24 963d 3862 963d f21d 943d a5aa 943d
00000170: 16be a33d 7d47 9b3d 5259 983d dd98 9c3d
00000180: b522 963d 269e 953d 62fe 9d3d 5d6b a33d
00000190: 2119 953d 72aa 963d 990a 973d 7818 9d3d
000001a0: 4659 963d b4ef 943d 6296 9f3d aa98 963d
000001b0: d3ec 933d 7e3c 943d 41d4 953d 980f 9e3d
000001c0: a32f 963d f12d 963d ecba 973d a8b7 953d
000001d0: 5e84 9b3d 0be8 993d 00c4 9c3d accc 953d
000001e0: 1515 993d 6ad3 983d 8a95 953d ab04 953d
000001f0: a9b0 963d 3e57 973d 1586 943d 5b7e a73d

nnECG.4.weight f4 [64, 128]
-0.17519173 0.030430777 -0.0115477415 0.14793889 0.057208523 -0.03140693 0.03605261 0.08156285
0.08684321 -0.1695174 0.04748324 -0.098145396 0.103228725 0.12154432 0.16781218 0.0022915893
0.015054722 -0.16004854 0.10468695 0.116245516 -0.14915851 0.029269008 0.18437591 -0.038406905
0.17490235 0.15241277 -0.11788448 -0.074306026 0.13980283 0.07328317 -0.14180028 0.15367682
-0.017019117 -0.11900462 -0.12013054 -0.045962755 -0.010161895 -0.05590069 -0.11098862 0.007165629
-0.120888345 0.011945329 0.064774744 0.050691575 -0.10841756 0.13684827 -0.09936745 0.08024635
-0.0003574393 0.15667403 -0.09661105 -0.055626817 -0.0958155 -0.031168329 0.0076182596 -0.07147822
-0.076844424 0.03268037 0.12476775 -0.09158609 0.022949079 0.13982542 -0.15981495 0.16758579
-0.104851544 0.15289171 0.07844747 -0.15337951 0.14603132 0.09307232 0.11074662 -0.0048738047
-0.08075523 -0.18411407 0.15397248 -0.03432389 -0.12738822 -0.03497054 -0.13801095 -0.14385112
0.12972122 0.13124081 -0.028106024 0.17722844 0.168814 -0.036022764 -0.117651954 0.18236329
0.08745161 0.12545587 0.03172182 -0.14869422 -0.1654018 0.15896556 -0.11818214 0.12009734
-0.034233384 0.13773245 -0.07751931 0.065326005 -0.046410244 -0.03837904 0.13036302 -0.015947554
0.12641566 -0.01341109 -0.14128277 0.14019594 -0.10910866 -0.04148213 0.012312337 0.12565126
-0.011305937 0.037645523 -0.16618697 0.062071998 0.12221411 -0.16247031 -0.1508315 0.10269466
0.102405846 0.10715586 0.14717932 0.118572615 0.034020055 0.12833208 0.113732815 -0.04878307
0.15371825 0.03937092 -0.0006431238 0.14768218 0.1656248 -0.23083282 -0.061969098 0.01285938
0.035057396 0.07232544 0.11614824 -0.1911326 -0.04111409 0.11902371 0.060098596 0.012220302
-0.2278689 -0.14650036 -0.19763374 0.12638317 -0.07919388 -0.14900735 -0.1482012 0.1252775
0.12942345 -0.08448636 -0.12181711 0.1936552 -0.22590797 0.13063379 -0.08915561 0.16923244
0.10806298 -0.19717203 -0.23055215 0.015064238 0.10014409 -0.09227987 -0.06202196 0.074276656
-0.20094489 -0.018781172 -0.018367024 -0.10276325 0.22401506 0.07066079 0.08402233 0.03243247
0.074019276 0.15399231 -0.00053683534 -0.027343586 0.11715753 -0.024657793 -0.020533565 0.14476089
0.038337696 -0.050565407 -0.13132522 -0.052232325 0.114756204 -0.15722033 -0.21922468 -0.056590997
0.054008756 0.2531398 0.022919735 -0.0062943017 0.07974203 -0.19163984 0.12484181 0.106748044
0.07532027 -0.044721756 0.0031128903 -0.059297014 0.06835161 -0.063601576 0.23386587 -0.16961527
-0.02116537 -0.14012206 0.10566979 -0.19178328 -0.016873823 0.09838231 0.07856193 0.19989227
0.13195685 -0.021680763 0.011327922 0.07571986 -0.20427512 -0.22565809 0.0894458 -0.24102153
0.08910683 0.0012339969 0.027104717 0.0798103 -0.09703015 0.09667431 0.19843304 -0.1781848
0.030954016 0.15094835 0.051244777 -0.15659475 -0.026290763 0.08238641 0.02032856 -0.06750168
-0.064910375 0.015126756 0.2068206 0.11864119 -0.15467186 0.0014277879 0.1934654 0.18611935
-0.063734315 0.14501482 -0.014078794 -0.118798584 -0.04205179 -0.046963293 0.049108293 0.004893736
00000000: 7665 33be f749 f93c bd32 3dbc 4b7d 173e
00000010: 7c53 6a3d 8ea4 00bd e7ab 133d 6c0a a73d
00000020: dada b13d f895 2dbe c97d 423d 7400 c9bd
00000030: 9569 d33d 3aec f83d f5d6 2b3e 7d2e 163b
00000040: 15a8 763c c4e3 23be 1d66 d63d 2112 ee3d
00000050: 02bd 18be 8fc5 ef3c 0acd 3c3e 8f50 1dbd
00000060: 9a19 333e 1812 1c3e 6b6d f1bd c22d 98bd
00000070: 7928 0f3e 7d15 963d 1834 11be 755d 1d3e
00000080: ad6b 8bbc b2b8 f3bd 0007 f6bd 7143 3cbd
00000090: 147e 26bc 1ff8 64bd 004e e3bd a7cd ea3b
000000a0: 4f94 f7bd 57b6 433c 9fa8 843d f8a1 4f3d
000000b0: 070a debd f421 0c3e 2981 cbbd 3358 a43d
000000c0: b166 bbb9 286f 203e 04dc c5bd f2d8 63bd
000000d0: eb3a c4bd b954 ffbc 98a2 f93b 2c63 92bd
000000e0: 9c60 9dbd dadb 053d 3c86 ff3d 7d91 bbbd
000000f0: b5ff bb3c 652e 0f3e 88a6 23be 9c9b 2b3e
00000100: 68bc d6bd a58f 1c3e 11a9 a03d 850f 1dbe
00000110: 3c89 153e b39c be3d 20cf e23d 70b4 9fbb
00000120: ff62 a5bd 6688 3cbe f6aa 1d3e 3597 0cbd
00000130: 0f72 02be 453d 0fbd be52 0dbe b54d 13be
00000140: a4d5 043e fe63 063e 9b3e e6bc 5f7b 353e
00000150: 94dd 2c3e 9b8c 13bd 82f3 f0bd 71bd 3a3e
00000160: d419 b33d 8177 003e bdee 013d 4c43 18be
00000170: 175f 29be dec7 223e 7a09 f2bd 98f5 f53d
00000180: 4e38 0cbd bc09 0d3e 72c2 9ebd a4c9 853d
00000190: ab18 3ebd 5733 1dbd e27d 053e 72a4 82bc
000001a0: 1b73 013e 30ba 5bbc 6eac 10be 868f 0f3e
000001b0: 5c74 dfbd 2ae9 29bd afb9 493c b9aa 003e
000001c0: 893c 39bc 3132 1a3d eb2c 2abe 353f 7e3d
000001d0: 644b fa3d 9e5e 26be 9373 1abe 9451 d23d
000001e0: 28ba d13d 8874 db3d 2db6 163e 33d6 f23d
000001f0: 9d58 0b3d 7c69 033e c0ec e83d c2d0 47bd
00000200: 5168 1d3e 6743 213d 4f97 28ba ff39 173e
00000210: 8c99 293e 705f 6cbe 4fd3 7dbd 26b0 523c
00000220: 5898 0f3d 5c1f 943d 21df ed3d 44b8 43be
00000230: 3f67 28bd b4c2 f33d f229 763d a937 483c
00000240: 7756 69be 3104 16be 8060 4abe 976a 013e
00000250: 6730 a2bd 6295 18be 0ec2 17be bf48 003e
00000260: 9587 043e 2f07 adbd 407b f9bd 8c4d 463e
00000270: 6b54 67be ddc4 053e 3797 b6bd 454b 2d3e
00000280: 2050 dd3d 77e7 49be dd15 6cbe fecf 763c
00000290: 5818 cd3d 3afd bcbd bd0a 7ebd 5c1e 983d
000002a0: 7fc4 4dbe f9da 99bc 7176 96bc 8a75 d2bd
000002b0: 3464 653e 9bb6 903d e613 ac3d e9d7 043d
000002c0: 6b97 973d 29b0 1d3e 69ba 0cba a8ff dfbc
000002d0: 49f0 ef3d 24ff c9bc 0236 a8bc 333c 143e
000002e0: fd07 1d3d ac1d 4fbd 1e7a 06be 90f1 55bd
000002f0: 4d05 eb3d 5efe 20be 6f7c 60be f6cb 67bd
00000300: 4938 5d3d 8a9b 813e 2bc2 bb3c 6e40 cebb
00000310: ca4f a33d 3c3d 44be 10ad ff3d b89e da3d
00000320: 8441 9a3d 292e 37bd a201 4c3b 6de1 72bd
00000330: eefb 8b3d 8b41 82bd 897a 6f3e a0af 2dbe
00000340: ff62 adbc 287c 0fbe 6769 d83d d662 44be
00000350: f93a 8abc aa7c c93d 14e5 a03d 8fb0 4c3e
00000360: b21f 073e db9b b1bc c098 393c 0413 9b3d
00000370: 7f2d 51be ea12 67be 5c2f b73d 59ce 76be
00000380: a47d b63d 11be a13a b60a de3c 9573 a33d
00000390: beb7 c6bd 2efd c53d 0832 4b3e 1476 36be
000003a0: 4793 fd3c 3492 1a3e 0be6 513d 605a 20be
000003b0: ba5f d7bc 35ba a83d 1588 a63c 523e 8abd
000003c0: bbef 84bd 37d6 773c c8c8 533e 27fa f23d
000003d0: 4d62 1ebe 9d24 bb3a cb1b 463e 1296 3e3e
000003e0: 2387 82bd c47e 143e beaa 66bc ac4c f3bd
000003f0: 7f3e 2cbd 955c 40bd c725 493d a25b a03b

nnECG.4.bias f4 [64]
0.0062359567 0.03798372 -0.012902075 0.015929623 0.03363873 0.015868295 -0.001777605 0.023340724
-0.008705699 -0.01129332 -0.036052234 0.013485858 0.021420918 0.03216086 0.023528064 0.0073290775
0.032165278 0.028526945 0.0065586222 0.00206367 0.008307885 0.028579399 -0.008387262 0.049333252
0.031369645 0.013932288 0.008039822 0.0069598393 0.01043412 0.02750299 0.025886755 -0.018519057
-0.0006684338 0.023283398 -0.0010188622 0.019287867 0.04466592 0.04175327 0.030136812 0.021736942
0.016155548 -0.008389983 0.040120624 0.011131609 -0.006435408 -0.0028726761 0.013870403 -0.0053252764
0.035135493 -0.0023601123 0.025505368 0.03294077 0.011772626 -0.0007041017 0.015558668 -0.009504703
-0.026336921 0.012350899 0.006039372 0.00984601 0.00868599 0.023060052 0.011340212 0.01351887
00000000: ff56 cc3b d194 1b3d 3a63 53bc d77e 823c
00000010: c4c8 093d 3afe 813c 87fe e8ba 0c35 bf3c
00000020: 59a2 0ebc 9e07 39bc 82ab 13bd caf3 5c3c
00000030: ec7a af3c 1bbb 033d edbd c03c c228 f03b
00000040: bdbf 033d 57b1 e93c b6e9 d63b a33e 073b
00000050: cc1d 083c 581f ea3c ba6a 09bc aa11 4a3d
00000060: 757d 003d 4044 643c 75b9 033c 5d0f e43b
00000070: dff3 2a3c f34d e13c 7610 d43c 47b5 97bc
00000080: d539 2fba d3bc be3c 588b 85ba 9701 9e3c
00000090: 9df3 363d 7a05 2b3d 7ae1 f63c ac11 b23c
000000a0: a458 843c 2476 09bc 8655 243d 5a61 363c
000000b0: 1de0 d2bb 8243 3cbb b040 633c a87f aebb
000000c0: 3cea 0f3d 1dac 1abb a2f0 d03c e7ec 063d
000000d0: f9e1 403c 7793 38ba c9e9 7e3c 9db9 1bbc
000000e0: 87c0 d7bc 6d5b 4a3c ede5 c53b 2951 213c
000000f0: af4f 0e3c 6fe8 bc3c 4ccc 393c 407e 5d3c

nnECG.5.weight f4 [64]
0.99425566 1.1283242 0.9826509 1.0228039 1.0790093 1.0173814 1.0027112 1.0428003
1.0363464 1.0308008 1.02845 1.0374454 1.0095136 1.046866 1.1089245 0.9971824
1.0363507 1.0607443 1.0387037 0.99171954 1.004205 0.97476196 1.0180788 1.0147485
1.100358 1.0709456 1.0011513 1.0401049 1.0162045 1.0887458 1.0203958 0.99041843
1.0138854 1.0154576 1.0141618 0.9850978 1.0396283 0.99772865 1.0868891 1.077487
1.025246 1.0039185 1.099143 1.0162495 0.98445576 1.0015961 1.003648 1.0284132
1.0617067 0.99391425 0.99108815 1.0677993 1.0097749 1.0228294 1.0120202 0.9837229
0.9672737 1.0534396 1.0602044 1.0078306 1.0478661 1.1041687 1.0615199 1.0362618
00000000: 8a87 7e3f ed6c 903f 028f 7b3f 3deb 823f
00000010: fa1c 8a3f 8e39 823f d758 803f 7b7a 853f
00000020: 00a7 843f 48f1 833f 40a4 833f 03cb 843f
00000030: be37 813f b5ff 853f 3df1 8d3f 5947 7f3f
00000040: 24a7 843f 78c6 873f 3ef4 843f 55e1 7d3f
00000050: ca89 803f 008a 793f 6850 823f 47e3 813f
00000060: 88d8 8c3f bf14 893f ba25 803f 2822 853f
00000070: fd12 823f 065c 8b3f 549c 823f 108c 7d3f
00000080: ffc6 813f 84fa 813f 0ed0 813f 5f2f 7c3f
00000090: 8a12 853f 256b 7f3f 2f1f 8b3f 18eb 893f
000000a0: 433b 833f 6780 803f b8b0 8c3f 7714 823f
000000b0: 4b05 7c3f 4d34 803f 8a77 803f 0ba3 833f
000000c0: 01e6 873f 2a71 7e3f f4b7 7d3f a6ad 883f
000000d0: 4e40 813f 13ec 823f e189 813f 44d5 7b3f
000000e0: 409f 773f 1cd7 863f c7b4 873f 9800 813f
000000f0: 7a20 863f 6655 8d3f e2df 873f 3aa4 843f

nnECG.5.bias f4 [64]
-0.015091354 0.026781896 -0.02011698 0.0063783685 0.02409155 0.012452399 -0.016025305 0.012932514
-0.020662313 -0.015947038 -0.04835161 0.0077416254 0.0036187598 0.0019047263 0.012684568 -0.01964604
0.023813682 0.035780627 0.003033846 -0.0074051903 -0.0012447766 0.0046794945 -0.014522557 0.04105368
0.017869111 0.0072706873 0.0041304324 -0.006657409 0.013311683 0.0035294252 0.021324193 -0.03211404
-0.0064184046 0.02339351 -0.017282339 -0.0064833635 0.03369987 0.018050754 0.010187498 0.014955855
0.0061424114 -0.02341712 0.030599086 -0.0021052754 -0.013321209 -0.003068734 0.011167609 -0.009227887
0.011989498 -0.013923311 0.0043872404 0.021086369 -0.009538869 -0.009093115 -0.0022773135 -0.018975792
-0.041799597 -0.005321797 -0.009554751 -8.7247114e-05 0.013479223 0.0060434607 -0.0054134275 0.01028179
00000000: ba41 77bc b565 db3c 5dcc a4bc a201 d13b
00000010: a45b c53c 2605 4c3c 8047 83bc e5e2 533c
00000020: 0344 a9bc 5da3 82bc 560c 46bd 76ad fd3b
00000030: b728 6d3b 02a8 f93a efd2 4f3c bbf0 a0bc
00000040: e914 c33c b58e 123d 7dd3 463b 3da7 f2bb
00000050: c627 a3ba 7256 993b 05f0 6dbc e727 283d
00000060: 3e62 923c f23e ee3b 9458 873b 6526 dabb
00000070: 3f19 5a3c ee4d 673b 13b0 ae3c 038a 03bd
00000080: 7b51 d2bb bfa3 bf3c b193 8dbc 6572 d4bb
00000090: e008 0a3d 2ddf 933c 77e9 263c 6709 753c
000000a0: 4846 c93b 43d5 bfbc efaa fa3c a9f8 09bb
000000b0: 3341 5abc d01c 49bb 59f8 363c 9030 17bc
000000c0: 996f 443c 991e 64bc d7c2 8f3b 52bd ac3c
000000d0: eb48 1cbc 4afb 14bc fb3e 15bb 1f73 9bbc
000000e0: 0e36 2bbd 7862 aebb 888b 1cbc 70f8 b6b8
000000f0: f5d7 5c3c 3908 c63b 1f63 b1bb f474 283c

nnECG.5.running_mean f4 [64]
0.5305183 0.13176128 -0.09059461 -0.1807436 0.7368033 -0.04811569 0.12617648 0.1553106
-0.058997065 -0.033234727 0.42985994 0.034460485 0.15184952 0.4667808 0.15951474 -0.42611453
0.11134821 0.012527641 -0.59045655 0.68563324 -0.28360325 0.24301583 -0.09721724 0.78297246
0.17379174 0.23750988 -0.34733158 -0.09882673 -0.039008036 0.41992015 0.1358824 -0.06838763
0.15105136 0.084144354 -0.42253223 0.42838466 0.18832843 0.53164524 0.38950795 0.3197732
-0.4149747 -0.26251683 0.82627994 -0.85372394 0.19149897 -0.2786406 -0.1489084 -0.0062238667
0.33879992 -0.22238316 0.27821472 -0.049102496 -0.24841954 -0.33963388 0.11741432 0.20653775
0.15188141 0.40085462 -0.11105722 -0.07816392 -0.45359102 0.16965924 -0.46929133 -0.30554393
00000000: 0cd0 073f 6eec 063e ab89 b9bd da14 39be
00000010: 249f 3c3f f514 45bd 6834 013e be09 1f3e
00000020: e8a6 71bd 2321 08bd 9a16 dc3e 7026 0d3d
00000030: 717e 1b3e e5fd ee3e d557 233e af2b dabe
00000040: 880a e43d bc40 4d3c 2928 17bf a985 2f3f
00000050: 7234 91be 24d9 783e d519 c7bd e270 483f
00000060: 76f6 313e ca35 733e 72d5 b1be ab65 cabd
00000070: e4c6 1fbd c6ff d63e c224 0b3e d00e 8cbd
00000080: 35ad 1a3e e053 ac3d 2556 d8be 3c55 db3e
00000090: 2bd9 403e e719 083f 966d c73e 50b9 a33e
000000a0: 9077 d4be 9b68 86be 1587 533f a78d 5abf
000000b0: 4e18 443e fba9 8ebe 727b 18be 94f1 cbbb
000000c0: 2f77 ad3e 69b8 63be 2972 8e3e b31f 49bd
000000d0: b161 7ebe 7ee4 adbe eb76 f03d a27e 533e
000000e0: cd86 1b3e d13c cd3e f871 e3bd 6814 a0bd
000000f0: 153d e8be 27bb 2d3e f446 f0be 4170 9cbe

nnECG.5.running_var f4 [64]
1.5767202 1.4161571 0.9628275 0.93775177 1.0895016 0.9740838 0.94532406 0.86843675
1.2751544 0.8993125 0.95082897 1.2405812 1.1873845 1.0230682 1.3339494 1.4799751
0.9390859 1.28162 1.2786436 1.0618868 0.9814346 1.2178127 1.9619285 1.320965
1.436407 1.8189809 1.1974665 1.4325303 0.8783273 1.528034 0.98055774 1.4532186
1.177697 2.69973 1.3350528 1.9549798 0.9694017 1.5691271 1.4444258 0.9620084
1.1099076 1.1352627 1.4203675 1.5068259 0.78167236 0.87950057 1.3077636 1.0189826
1.1314596 2.1104097 1.092115 0.8543033 0.9273257 0.96176314 2.991924 1.4122858
1.8325886 1.1498386 2.5219846 1.8209397 1.340505 0.8783201 1.5205977 1.3631878
00000000: f8d1 c93f a344 b53f dd7b 763f 8010 703f
00000010: ca74 8b3f 8e5d 793f c200 723f df51 5e3f
00000020: 4238 a33f 5839 663f 8769 733f 5dcb 9e3f
00000030: 37fc 973f e6f3 823f dbbe aa3f d36f bd3f
00000040: ef67 703f 200c a43f 98aa a33f e8eb 873f
00000050: 4c3f 7b3f 49e1 9b3f 7920 fb3f 6215 a93f
00000060: 2fdc b73f 5ed4 e83f 9546 993f 275d b73f
00000070: 0fda 603f 9e96 c33f d505 7b3f 1103 ba3f
00000080: c6be 963f 60c8 2c40 03e3 aa3f c73c fa3f
00000090: b62a 783f 28d9 c83f f2e2 b83f 2f46 763f
000000a0: 7411 8e3f 4a50 913f 9ace b53f acdf c03f
000000b0: ae1b 483f f326 613f cc64 a73f 066e 823f
000000c0: abd3 903f f410 0740 6dca 8b3f 9fb3 5a3f
000000d0: 3865 6d3f 1c36 763f af7b 3f40 c8c5 b43f
000000e0: 4392 ea3f e92d 933f 3268 2140 8d14 e93f
000000f0: ab95 ab3f 96d9 603f f2a2 c23f f07c ae3f

nnECG.8.weight f4 [16, 64]
-0.02162679 0.013575828 0.09510238 0.10058395 -0.20675892 -0.026084173 -0.22638085 0.079126894
-0.053549502 -0.11358768 -0.23166789 -0.23515783 0.24475017 -0.21509272 -0.25308836 0.20474909
0.25074726 0.2289692 -0.26482624 -0.05667425 -0.23640893 -0.13673784 -0.011894832 -0.016996894
-0.06514533 0.12816605 -0.023976218 0.2906099 -0.05976367 -0.25491264 0.049450953 -0.047048036
0.0094957035 0.14640155 -0.01643977 0.21228099 0.1056895 0.2537829 -0.2932192 -0.24258055
0.22660461 -0.073695205 0.060875375 -0.26445386 -0.19503808 0.10988411 0.119977556 -0.17542055
0.2312573 -0.2512812 -0.24234018 0.180732 0.029988768 0.29941735 0.21349446 -0.009774055
-0.105148874 -0.26679865 -0.12525488 0.24499322 0.256756 -0.1770808 -0.01400586 -0.030867808
-0.26289296 0.3353429 0.11201034 0.086320825 -0.32957637 -0.023372509 0.05550044 0.108518496
-0.004991159 -0.13739668 -0.28571343 0.3186981 0.18123151 0.019922895 0.29807886 0.22791652
0.16061652 -0.042607483 -0.11479666 -0.050876137 -0.100848205 -0.06338761 -0.19822313 0.25176007
0.34989333 0.10683407 -0.16196492 -0.015518097 0.23591231 0.2831579 -0.10271576 -0.09759686
-0.21580763 -0.2242917 -0.13823172 0.0487846 0.05962127 0.067023985 0.07867833 0.16453509
-0.24380988 -0.24678917 0.18873489 0.2153371 -0.11274167 -0.20902996 -0.0107891075 -0.036257338
0.060601044 -0.19192041 0.11029057 0.3283385 0.24703509 0.1309507 0.22833455 0.16976659
-0.26879898 -0.20121162 -0.09147495 0.20176977 -0.26360285 0.033093028 0.19849129 0.17320299
0.06878172 -0.07027209 0.2400213 0.09365896 -0.07948784 -0.048193786 0.06094269 0.1444115
0.045886684 -0.22476679 -0.19450578 -0.23851855 0.09128274 0.00882873 -0.2687186 -0.23200239
0.056660153 -0.12714523 0.118177764 -0.2756771 -0.05096172 0.154758 -0.107614264 -0.14491728
-0.06809537 -0.047741752 0.018308476 0.028283574 0.14288552 -0.22971292 0.052305296 0.015928125
-0.042389933 0.08580995 -0.30456674 -0.27115768 0.18621713 -0.29557994 -0.0052567413 -0.14951456
-0.04637088 0.2964219 0.01220299 -0.06784644 0.12313868 0.15412581 -0.16732582 -0.15612932
0.11381005 -0.013763857 0.1311365 -0.18638916 0.2489986 -0.05054931 -0.17408629 -0.21341883
-0.03377927 0.15200724 -0.2613872 -0.0706313 -0.0030259087 -0.0585021 -0.29392144 -0.21991353
-0.19427006 0.014080954 -0.1825196 -0.19347073 0.11755002 -0.2427714 0.23742451 0.16537945
-0.17299257 -0.07237106 0.047629375 0.15764014 0.14859287 0.15408543 -0.06855998 0.07893462
-0.23970352 0.13862704 -0.017388122 -0.16885366 0.1421075 0.187525 0.10501066 0.18431397
-0.29363284 0.10171201 -0.20546363 0.27124736 0.24321447 -0.20139627 0.20696628 0.007439503
-0.13699843 0.07681451 -0.32073927 -0.14083548 0.12892936 0.18419416 -0.1581606 -0.010658595
0.19515005 -0.052863963 -0.17168137 -0.13690627 0.06748414 -0.22096641 0.2135096 0.02241004
0.29276744 -0.23593658 0.1720986 0.21385854 0.13776745 -0.22197802 -0.1217996 -0.03494266
0.19744255 -0.16382761 0.13277946 0.07405253 -0.1232918 -0.36102957 -0.0070890896 -0.11605289
00000000: aa2a b1bc 266d 5e3c 09c5 c23d f5fe cd3d
00000010: 9cb8 53be 7aae d5bc 62d0 67be 480d a23d
00000020: b956 5bbd a8a0 e8bd 593a 6dbe 37cd 70be
00000030: ca9f 7a3e 4441 5cbe cc94 81be bfa9 513e
00000040: f261 803e e776 6a3e 4e97 87be 4223 68bd
00000050: 2f15 72be 0105 0cbe 8be2 42bc 123d 8bbc
00000060: ea6a 85bd f63d 033e c669 c4bc d2ca 943e
00000070: c0ca 74bd e983 82be 158d 4a3d 71b5 40bd
00000080: de93 1b3c 4aea 153e b2ac 86bc 3060 593e
00000090: bd73 d83d d5ef 813e d420 96be 0967 78be
000000a0: 0a0b 683e 83ed 96bd 7558 793d 7f66 87be
000000b0: 10b8 47be ec0a e13d cbb6 f53d 72a1 33be
000000c0: b7ce 6c3e eea7 80be 0628 78be cf11 393e
000000d0: 01ab f53c 3b4d 993e 4b9e 5a3e 5c23 20bc
000000e0: 4b58 d7bd d599 88be d142 00be 81df 7a3e
000000f0: 8675 833e ab54 35be d678 65bc 7cde fcbc
00000100: e899 86be 11b2 ab3e ad65 e53d f9c8 b03d
00000110: 3cbe a8be b477 bfbc 6e54 633d f23e de3d
00000120: e08c a3bb b7b1 0cbe 0849 92be 662c a33e
00000130: c194 393e 5735 a33c cb9d 983e f362 693e
00000140: a878 243e 2f85 2ebd 831a ebbd 7f63 50bd
00000150: 8189 cebd 5dd1 81bd 01fb 4abe b2e6 803e
00000160: 3825 b33e d2cb da3d 22da 25be 9e3f 7ebc
00000170: ff92 713e 13fa 903e a45c d2bd dde0 c7bd
00000180: adfc 5cbe b9ac 65be 9e8c 0dbe 5cd2 473d
00000190: 6f35 743d df43 893d 1b22 a13d e37b 283e
000001a0: 4ca9 79be 4db6 7cbe b843 413e 5481 5c3e
000001b0: 1be5 e6bd f30b 56be ccc4 30bc 9382 14bd
000001c0: cd38 783d c986 44be 06e0 e13d fc1b a83e
000001d0: c4f6 7c3e f117 063e 88d0 693e 4bd7 2d3e
000001e0: 05a0 89be 6b0a 4ebe 3857 bbbd bc9c 4e3e
000001f0: f4f6 86be 8e8c 073d 4d41 4b3e 205c 313e
00000200: 6edd 8c3d d0ea 8fbd 25c8 753e 45d0 bf3d
00000210: 85ca a2bd d966 45bd 0b9f 793d 9ce0 133e
00000220: adf3 3b3d 4429 66be 862c 47be 353e 74be
00000230: 72f2 ba3d 61a6 103c 7c95 89be 0992 6dbe
00000240: 7a14 683d 5c32 02be 2f07 f23d 8d25 8dbe
00000250: 3dbd 50bd e278 1e3e de64 dcbd 3265 14be
00000260: 9675 8bbd db8c 43bd a8fb 953c f4b2 e73c
00000270: 9550 123e dd39 6bbe 143e 563d b37b 823c
00000280: 11a1 2dbd 21bd af3d 2cf0 9bbe 2ed5 8abe
00000290: b4af 3e3e 4156 97be be40 acbb 581a 19be
000002a0: 64ef 3dbd 9cc4 973e 0def 473c 13f3 8abd
000002b0: 2230 fc3d 28d3 1d3e 7657 2bbe 5de0 1fbe
000002c0: 3e15 e93d cd81 61bc a648 063e cddc 3ebe
000002d0: 7df9 7e3e cb0c 4fbd ad43 32be 778a 5abe
000002e0: 225c 0abd c9a7 1b3e 8bd4 85be 25a7 90bd
000002f0: 534e 46bb e69f 6fbd df7c 96be 0331 61be
00000300: bbee 46be cdb3 663c 6be6 3abe 311d 46be
00000310: 11be f03d 1199 78be 691f 733e 3b59 293e
00000320: f724 31be 4737 94bd 0517 433d 6b6c 213e
00000330: bb28 183e 92c8 1d3e 2d69 8cbd 79a8 a13d
00000340: d774 75be 3ff4 0d3e 8971 8ebc f9e7 2cbe
00000350: a184 113e 8e06 403e d40f d73d cdbc 3c3e
00000360: 0b57 96be 634e d03d 0f65 52be efe0 8a3e
00000370: 370d 793e d33a 4ebe f8ee 533e 13c7 f33b
00000380: 5149 0cbe ed50 9d3d f037 a4be 2d37 10be
00000390: 0f06 043e 659d 3c3e daf4 21be 63a1 2ebc
000003a0: 6ad5 473e e287 58bd 3ecd 2fbe 2831 0cbe
000003b0: 2035 8a3d 0545 62be 43a2 5a3e 4395 b73c
000003c0: 9de5 953e 5c99 71be 9e3a 303e bcfd 5a3e
000003d0: e912 0d3e 354e 63be 1272 f9bd 0920 0fbd
000003e0: 612e 4a3e 6dc2 27be 57f7 073e daa8 973d
000003f0: 6980 fcbd ded8 b8be 984b e8bb 23ad edbd

nnECG.8.bias f4 [16]
0.025798125 0.035046127 0.027277345 0.018612249 0.024248498 0.0050749904 0.015366318 0.0023824542
-0.009126877 0.019821366 0.014189669 0.014318826 0.001336552 0.033589233 0.016194057 0.032804728
00000000: 9756 d33c 878c 0f3d bd74 df3c b778 983c
00000010: c9a4 c63c 1b4c a63b 02c3 7b3c f322 1c3b
00000020: e688 15bc 6b60 a23c c97b 683c 8299 6a3c
00000030: 3e2f af3a dd94 093d 66a9 843c 405e 063d

nnECG.9.weight f4 [16]
1.0128129 1.1109151 1.0624694 1.0278572 1.0066602 1.024315 1.005762 1.0767848
0.9904895 1.087507 0.9500658 1.0449947 1.0588263 1.0575622 1.0091387 1.0148673
00000000: daa3 813f 7732 8e3f fffe 873f d390 833f
00000010: 3eda 803f c11c 833f cfbc 803f 16d4 893f
00000020: b890 7d3f 6e33 8b3f 8337 733f 63c2 853f
00000030: 9f87 873f 335e 873f 752b 813f 2ce7 813f

nnECG.9.bias f4 [16]
0.000801156 0.0329168 0.022846399 -0.0034498256 0.0040827193 0.012086498 0.029182447 -0.0007574238
-0.018165266 0.0037412492 -0.019240154 0.021818353 0.004045322 0.017489094 -0.02069041 0.0010353696
00000000: ab04 523a c4d3 063d 5f28 bb3c 7816 62bb
00000010: 55c8 853b 7206 463c 0710 ef3c da8d 46ba
00000020: 53cf 94bc bf2f 753b 879d 9dbc 67bc b23c
00000030: 9f8e 843b 4a45 8f3c ef7e a9bc 3db5 873a

nnECG.9.running_mean f4 [16]
-0.12109399 -0.022958886 -0.6652002 0.18003042 0.30932784 0.1631123 0.9049393 0.031204551
-0.13522176 -0.022296323 0.34475332 -0.35418317 -0.3286735 0.60784066 0.5156315 -0.13146183
00000000: 2000 f8bd 4614 bcbc 8f4a 2abf e559 383e
00000010: 3860 9e3e e906 273e 1aaa 673f b0a0 ff3c
00000020: 9377 0abe c7a6 b6bc 8283 b03e 7f57 b5be
00000030: e547 a8be 729b 1b3f 6d00 043f ee9d 06be

nnECG.9.running_var f4 [16]
1.5340341 1.3791724 1.5394192 1.4999487 1.5839268 1.138624 1.9228877 1.3402313
1.948617 1.5971919 1.725522 2.2447565 1.5926669 1.5789589 1.537408 1.7695391
00000000: 3b5b c43f b988 b03f b00b c53f 52fe bf3f
00000010: 1dbe ca3f 6ebe 913f 2f21 f63f b38c ab3f
00000020: 486c f93f c970 cc3f e8dd dc3f 17aa 0f40
00000030: 82dc cb3f 531b ca3f c9c9 c43f 4280 e23f

nnECG.12.weight f4 [4, 16]
0.49922115 0.41862187 0.28046483 0.114093706 0.302809 -0.41163987 0.30357128 -0.13172638
0.048350003 -0.073068246 0.3600457 0.05749186 0.11045587 -0.35806793 0.056558143 0.5487277
0.18153931 -0.007649456 -0.26849082 0.108039446 0.2682357 0.55081403 -0.34666815 -0.42114937
0.1697988 -0.07171248 0.4972286 -0.46140307 0.052577157 -0.08255788 0.3387699 0.47637287
-0.40348116 0.62026787 -0.39079726 -0.09496913 -0.5441915 -0.4779938 0.006377804 -0.57526684
0.20813556 0.073272035 -0.2034015 -0.17028901 0.10102094 -0.053442772 -0.20803785 -0.18769836
-0.08258828 0.08644365 0.0063194 -0.35974964 0.04212806 0.55683506 -0.0042640283 -0.29718783
-0.27753717 0.2612016 0.13434036 -0.5026934 -0.30753028 0.3683466 -0.56968653 -0.404814
00000000: ea99 ff3e 9b55 d63e 1699 8f3e f6a9 e93d
00000010: c809 9b3e 76c2 d2be b26d 9b3e 48e3 06be
00000020: a70a 463d cea4 95bd e957 b83e 967c 6b3d
00000030: b036 e23d ae54 b7be 83a9 673d 6b79 0c3f
00000040: 71e5 393e 4aa8 fabb a177 89be c943 dd3d
00000050: 3156 893e 2602 0d3f 7d7e b1be e4a0 d7be
00000060: bddf 2d3e fedd 92bd bf94 fe3e 063d ecbe
00000070: 255b 573d 1b14 a9bd 4073 ad3e 25e7 f33e
00000080: 1595 cebe e0c9 1e3f 9416 c8be 2d7f c2bd
00000090: 2250 0bbf 9abb f4be e6fc d03b b044 13bf
000000a0: 7d21 553e a60f 963d 7c48 50be 3e60 2ebe
000000b0: 11e4 ce3d cfe6 5abd e007 55be 0034 40be
000000c0: 0b24 a9bd 5e09 b13d f812 cf3b 1b31 b8be
000000d0: 798e 2c3d be8c 0e3f 43b9 8bbb 0129 98be
000000e0: 5a19 8ebe 37bc 853e 8590 093e 84b0 00bf
000000f0: 9c74 9dbe ed97 bc3e fad6 11bf c843 cfbe

nnECG.12.bias f4 [4]
0.03215058 0.025551723 0.011515846 0.021740574
00000000: 54b0 033d d951 d13c f5ac 3c3c 4a19 b23c

nnECG.13.weight f4 [4]
1.0100802 0.9830882 1.0344636 1.0599697
00000000: 4f4a 813f abab 7b3f 4e69 843f 16ad 873f

nnECG.13.bias f4 [4]
0.01609207 0.0035826466 -0.00400229 0.0035192205
00000000: 84d3 833c d6ca 6a3b a425 83bb b9a2 663b

nnECG.13.running_mean f4 [4]
0.56373286 0.24964103 -0.6028736 -0.3161254
00000000: cc50 103f e6a1 7f3e ed55 1abf 30db a1be

nnECG.13.running_var f4 [4]
1.2726308 1.636265 1.5065444 1.3874265
00000000: 91e5 a23f 2271 d13f 72d6 c03f 3197 b13f

nnECG.16.weight f4 [1, 4]
-0.38399133 -0.70824224 0.87154984 0.74628603
00000000: 839a c4be 5d4f 35bf e41d 5f3f 9a0c 3f3f
