Models/net_3_2_epoch_85.pth (torch, 57997 bytes, 25 tensors)

nnECG.0.weight f4 [128, 12]
00000000: 7c59 75be 602b dcbc af71 54bd dc07 d2bd
00000010: 6aa0 963e 0878 d0bd cf85 80bd 71f5 333e
00000020: 6939 1abe ca89 5f3e f8f3 243d 87f2 15bc
00000030: 58c3 0fbd 0c74 34be 1091 48be f1e0 aa3d
00000040: 327d aabe f099 6fbe 745f 5dbc 81ca 453c
00000050: d807 6a3e 98e2 0cbe 8c15 093e db48 b8bd
00000060: 86e1 8abd cfb6 77bd d6b3 bebc e6bb 20be
00000070: da55 d23d 5144 953d 45a5 593e caae 433e
00000080: c182 6dbd 24e6 5abe e725 2f3e e4a1 12be
00000090: d4b1 723c 3ebf f6bd 0c51 a33d 8aa6 2dbe
000000a0: 3fa9 273d c8a3 413e f9b5 433e 3424 563e
000000b0: 3de3 4a3d 2379 c9bd 1998 6abd 01f8 a53d
000000c0: b0bc 90be 5410 aa3d c418 673e 1f3f d4bb
000000d0: f577 873e de18 3c3d 8b91 62be 6d85 2abe
000000e0: 322a 8fbd 2ae1 6f3d a154 b3bd e62d de3d
000000f0: 0ed7 04be b6f0 48be b3ce dabd a6b4 7b3e
00000100: 7113 8b3e 8099 153e f1ca 7cbe e055 eb3d
00000110: e2d4 13be ae22 91bc 9dc3 093e e273 213e
00000120: 1de3 843d aa2e 303e bdd2 c93d 74fc 173e
00000130: 5778 2d3d 2479 053d 815f f7bd ac2b 0cbe
00000140: 7579 353e 1142 2ebe 35a7 a3bd 9e49 5d3e
00000150: 3912 933d e6f7 393d 2ae8 14be d442 6c3c
00000160: d8ab 893e 72c1 493d 15b2 0abe 73aa adbd
00000170: ba03 fb3c b581 4c3e cc45 083e 0647 533d
00000180: b755 63be 766e 9f3d 518f 3ebe e973 d93d
00000190: d7bd e0bc 3551 f3bc 8d15 5d3e 59fd e5bd
000001a0: a5a5 a3bd f0a5 8bbc 5e90 753d 7c19 003e
000001b0: 7fdc 71be 2410 66be c23f 423d 3211 06be
000001c0: 6330 853e 5763 91bd 5080 52bd 871c 363e
000001d0: c432 133d 6004 7c3e 8c62 b93d 543a 43bd
000001e0: 0379 753e 45cb 273d 23bf 88bd 4047 683d
000001f0: 5297 02bd 82c4 383e 3fb2 e93d 5dc8 633e
00000200: a8fc 033e 9fa3 9a3d d0fb 033d 093d 88bd
00000210: f483 85bd 79c2 103c adcb 35be 84df a0bc
00000220: 0e66 b33d d4db e0bc dd61 b8bd fd73 003d
00000230: 2364 bfbd 2457 4f3e 322b 7a3d 9791 ea3d
00000240: 4b33 dc3c 42dc 81bd 7d98 c6bd 8cb9 3e3d
00000250: 0b18 00be 8f65 73ba 8c52 48be 02fa c23d
00000260: ff25 393d b3ae 803e 5eae ccbd 71e8 523d
00000270: 27c9 173e 4cab 5c3e 24cd bd3d f22f 89bd
00000280: f3c4 163e 8ecc 0dbd e992 8abd 5849 a73d
00000290: 1480 5ebe 8ddc 243d 694d 143e 2ade d93d
000002a0: 3367 1d3c 28fb ce3d 559f 1b3e 5832 533c
000002b0: 629e 82be 6fc5 073e 08ba a1bc 73cf ccbd
000002c0: 930d 413e 0823 38be 0f39 a43d bfdb 953d
000002d0: d1a2 043e ddc2 3a3d d281 ab3d 687e fabb
000002e0: f0a1 d1bd dbaa b7bc 71f4 9b3d b5c7 f9bc
000002f0: 99c3 efbd 3d10 553e 2268 5f3e 57ba 95bd
00000300: 9d1c a5bd 3d20 013e c849 61be 3c38 953c
00000310: 1c21 b73d 3b5c 71be 9064 01bd 90be 46be
00000320: 075d 333d 9466 04be 8ae4 1ebd 4348 243e
00000330: 9088 d6bd 5d45 583e c0bf febc 119f bd3c
00000340: d51f 12be 09a7 893d 373c 45be 2437 1ebd
00000350: 51a3 53bd 562e d1bd c1df 9f3d 95c7 3ebe
00000360: a292 4f3e 5525 10be 6d74 73be 9091 c5bd
00000370: 4d17 db3c c709 4b3d b9ea 0dbe 3bf5 7dbe
00000380: 816d e9bd 6d11 853c ba2b 3fbe c63b 0e3e
00000390: a9dc 4c3d 8bc9 2abe 153c c7bb 8000 dc3d
000003a0: dfde 8cbe c600 78be 3cf8 453e 6807 3dbd
000003b0: 7fe7 5d3e 8cbf c4bc df70 d03d a713 87bd
000003c0: fd3a 9f3c e152 ea3d 635b 5a3e 97df 683c
000003d0: 930c 973d c0c1 143d fffc 9cbd c9ac 133d
000003e0: a937 1b3e 888e 71bd 9aa8 1bbe f040 243e
000003f0: 2b6b 123e 6e3c 003e 9884 ebbd 1c6e 023d
-0.23959917 -0.026876152 -0.05186623 -0.10255405 0.2941926 -0.10179144 -0.06275522 0.17574097
-0.15060963 0.21829906 0.04027173 -0.009152061 -0.035098404 -0.17622393 -0.19586587 0.083436854
-0.3329864 -0.23398566 -0.013511527 0.0120722065 0.22854555 -0.13758314 0.13387126 -0.08998271
-0.067812964 -0.060477074 -0.023279112 -0.15696678 0.10270281 0.07288421 0.21254452 0.19109645
-0.057986025 -0.21376854 0.17104302 -0.14319569 0.014812905 -0.12048195 0.07974443 -0.16958061
0.04093289 0.18910134 0.19112386 0.20912248 0.049533118 -0.09837558 -0.057273958 0.081039436
-0.28268957 0.083038956 0.22568041 -0.006477251 0.26458707 0.045922153 -0.22125833 -0.1665246
-0.0699047 0.058564343 -0.08756376 0.10848598 -0.12972662 -0.19623074 -0.10683956 0.2458063
0.2716327 0.14609337 -0.24686791 0.11490989 -0.14436677 -0.017716732 0.13453527 0.15766862
0.06488631 0.17205301 0.09854648 0.14842397 0.042351093 0.03258623 -0.12078763 -0.13688534
0.17722113 -0.1701739 -0.079908766 0.21610114 0.0718121 0.04540243 -0.14541689 0.01442023
0.2688892 0.04925675 -0.13544495 -0.08479776 0.030641425 0.19971354 0.13307875 0.051581405
-0.22200666 0.077847406 -0.18609358 0.10617811 -0.027434273 -0.029701808 0.21590252 -0.11229963
-0.079905786 -0.017046899 0.059952132 0.12509722 -0.23619269 -0.22467095 0.047424085 -0.13092497
0.2601348 -0.07099026 -0.0513919 0.1778432 0.035937086 0.24611044 0.090519994 -0.047663048
0.23971944 0.040965337 -0.066770814 0.056708574 -0.03188259 0.18043712 0.11410951 0.22244401
0.1288935 0.075507395 0.03222257 -0.066522665 -0.06519309 0.008835428 -0.17753477 -0.01963783
0.087597 -0.027448572 -0.09003041 0.031360615 -0.093452714 0.20248085 0.06107635 0.1145355
0.026879927 -0.06340839 -0.096970536 0.04656367 -0.12509172 -0.0009284848 -0.19562739 0.095203415
0.04520225 0.25133285 -0.099941954 0.051491205 0.14822827 0.2154972 0.09267643 -0.06698598
0.14723568 -0.034618907 -0.06766302 0.08168286 -0.21728545 0.040249396 0.14482655 0.106380776
0.009607124 0.10106498 0.15197499 0.012890421 -0.25511461 0.13258909 -0.019742027 -0.10000505
0.18852834 -0.17982113 0.080186956 0.07317304 0.12952735 0.045595992 0.08374371 -0.0076444633
-0.10235965 -0.022420337 0.07614983 -0.030490736 -0.11707229 0.20806976 0.21817067 -0.07310932
-0.08062098 0.12609954 -0.22000802 0.018215291 0.08941862 -0.2357034 -0.031590044 -0.19408631
0.04378989 -0.12929755 -0.03879217 0.1604319 -0.10475266 0.2112021 -0.031097293 0.023147138
-0.14269955 0.067213126 -0.19261251 -0.038626805 -0.051669423 -0.10213916 0.078063495 -0.18630822
0.2027078 -0.14076741 -0.23774882 -0.096469045 0.02674451 0.04956987 -0.13859071 -0.24800579
-0.11397839 0.01624366 -0.18669024 0.1388999 0.050015125 -0.16678445 -0.0060801604 0.10742283
-0.27513787 -0.24219045 0.19332975 -0.04614964 0.2167034 -0.024017118 0.101777785 -0.06595545
0.019437307 0.11441589 0.21323924 0.014213464 0.07375445 0.036317587 -0.07665443 0.036053453
0.15157951 -0.05897382 -0.15201035 0.16040397 0.14298694 0.12523052 -0.114998996 0.03184329

nnECG.0.bias f4 [128]
00000000: 4d24 e03c 79fa 583c 97a7 ea3a 4ab1 5fbc
00000010: caee a73c 9f8a 853c b357 673b 79ff ef3b
00000020: f719 043d c5e2 a43c c7e2 f0bc ab87 133c
00000030: e14a 0cbb 2afe eaba 0c0a 4fbc b9d1 563b
00000040: df31 1e3d 58d0 483c 9031 8c3c 26f5 1ebb
00000050: 5ed5 87bc f23e 6e3c c007 ab3c 424e 0c3c
00000060: 54d0 d93c dd89 1abb 8657 ca3b e812 1d3c
00000070: 2342 86bb 3fac 28bc 7227 993c 137b 873c
00000080: 88ee 2c3b ea2f e33c a6d0 cc3c d7ef 0839
00000090: f698 893b 20e7 43bb 0070 8f3c baa6 80b9
000000a0: de90 423c c9ba 843c 686e 883b 999f d039
000000b0: 8161 203c 05bc f13c c3af 9d3c f12c df3a
000000c0: 05d8 a33a 3400 1cbb 3773 7ebb 115b 043d
000000d0: 8200 9cbb 66cf a73c dbde b83b acc8 bebc
000000e0: 20fe e03c a51b 523b 6c46 193c 4446 ccbb
000000f0: f4a7 8a3c 8fba b7bc d64d 133b 8b21 a73b
00000100: 62ee b73c b398 7dbb c6b1 803a 6678 963c
00000110: 077d aa3b 879e b43b 7f73 793c 0d5d 30bc
00000120: 1b6a c93c cdf3 683c 6bdc fb3a cf39 e83a
00000130: 73f4 0b3c 7cd8 7b3c f4ec 6d3c daaa 54bc
00000140: fd4d 6a3c 17ee f13c adc9 f6ba 5435 03b9
00000150: 49f9 ab3c 1219 36bc d7a3 6a3c db89 bb3b
00000160: e452 07bb 2a2d b2bb b29d 943c 5aac 9b3c
00000170: c2c1 b33c 117c c73c 6c42 193c 9017 d33c
00000180: 518c 0fbc 0f70 48bc 2d2d c33c 21e3 c23c
00000190: 386d 03bb 4e7c 39bc b130 bd3c 2e0c 163c
000001a0: 6d77 f0bb e6d4 8b3c 3f33 4bba e091 1f3b
000001b0: 304e d23a 32e5 ec3c d6cd a63c 4bb3 353c
000001c0: 3f45 433c baf9 8d3b 25e8 1d3d 8124 26bc
000001d0: d105 493c 8178 98bc af0a 9f3b 9637 4e3c
000001e0: 7e1b 883c 67e6 753c 8f38 a1bb 433e ee3c
000001f0: 7296 19bc 47d8 c4ba a422 bc3c bc6d 5a3c
0.02736106 0.013243311 0.0017902729 -0.013653109 0.020499606 0.016301451 0.0035300076 0.007324156
0.032251325 0.020127663 -0.02940501 0.009004514 -0.0021406936 -0.001792853 -0.012636673 0.0032778813
0.03862178 0.012256704 0.017113477 -0.0024255007 -0.016581234 0.0145413745 0.020877719 0.00856358
0.026588596 -0.0023580708 0.0061749844 0.009587027 -0.0040972396 -0.010294973 0.018695567 0.016538179
0.0026387293 0.027732808 0.025001835 0.00013059318 0.0041991426 -0.00298924 0.01750946 -0.00024538283
0.011875359 0.016202347 0.004163552 0.0003979176 0.009788872 0.0295086 0.019248849 0.0017026943
0.0012500292 -0.0023803832 -0.0038825998 0.03231341 -0.0047608027 0.020484637 0.005641801 -0.023289047
0.027464926 0.0032059934 0.009355169 -0.0062339623 0.01692579 -0.022427825 0.0022476814 0.005100434
0.022452537 -0.0038695752 0.0009818606 0.018367957 0.0052028927 0.005512062 0.01522529 -0.010764373
0.024586728 0.014218283 0.001921547 0.0017717424 0.008542168 0.015371438 0.014521826 -0.012980187
0.01430082 0.029532475 -0.0018828415 -0.00012513 0.020992892 -0.011114376 0.014321289 0.0057232208
-0.0020648772 -0.005437513 0.018141601 0.019003082 0.021942977 0.024351152 0.009354215 0.025768071
-0.008761481 -0.012233748 0.023825252 0.023789944 -0.0020054113 -0.01132114 0.023094507 0.009158177
-0.0073384554 0.017069291 -0.0007751472 0.0024348423 0.001604503 0.028917883 0.020361822 0.01109011
0.011918365 0.0043327482 0.03855147 -0.010140539 0.012269453 -0.018612148 0.0048535685 0.012586495
0.016614672 0.0150085455 -0.0049200724 0.029082423 -0.009374248 -0.0015018069 0.022965737 0.013331827

nnECG.1.weight f4 [128]
00000000: 479c 7d3f 7a4e 853f f689 653f 4a11 8c3f
00000010: 90df 8b3f 5e6a 8b3f 4a7b 833f adef 8a3f
00000020: 5a81 863f 0f12 823f d36b 993f 4739 823f
00000030: 6b43 843f 019b 853f 1494 933f d077 883f
00000040: 26b3 893f dddc 813f 596e 873f 7f7e 853f
00000050: 720b 983f 5413 843f efeb 963f c522 833f
00000060: ed52 823f a782 823f 9cfe 803f 85b6 763f
00000070: aea6 8a3f 79db 8f3f 9abf 933f 4f74 883f
00000080: 23a6 883f ff81 853f 8704 933f 7e58 7e3f
00000090: 59ba 813f fee9 843f 163a 7f3f 4520 813f
000000a0: cde8 903f d36e 643f 73b3 893f 61ef 793f
000000b0: cda9 8f3f 9200 983f 7932 883f c902 853f
000000c0: 9740 763f 723b 893f c123 833f 8b9e 8b3f
000000d0: f771 953f 594f 8c3f 110f 883f dea6 a83f
000000e0: c58e 883f 0a80 7c3f a327 913f 6b8e 883f
000000f0: 799c 713f 0e9f 883f 86cf 8a3f 82a8 803f
00000100: a463 963f 8a9a 813f 5e8f 983f afed 853f
00000110: afb3 863f 277d 893f 064f 783f 364b 7b3f
00000120: dbb7 8b3f 2465 7e3f db8b 863f fb10 903f
00000130: bbc2 7f3f cc17 833f 568c 813f 1462 923f
00000140: 0413 8c3f 1293 863f 8ef2 823f 79f5 803f
00000150: f2b3 833f 4a8b 813f a43a 673f b394 843f
00000160: cfa9 7d3f eafe 843f 41e1 733f aafe 903f
00000170: 369f 903f 81d9 7d3f 9c97 863f 0b8d 853f
00000180: 248d 913f 1230 a53f 719a 883f 7426 973f
00000190: 7bd9 7d3f c080 9d3f 5956 873f 688b 893f
000001a0: b5f8 923f 80a7 863f 5a3d 853f 8c87 813f
000001b0: bf0f 873f 2bae 893f 80a4 8b3f 5e0f 823f
000001c0: 5ef8 813f 8250 893f 5377 943f e73d 8a3f
000001d0: 3f55 843f b7e9 8b3f ca1b 783f 8da8 8b3f
000001e0: 8359 8a3f 6453 8f3f 33df 7d3f b86a 873f
000001f0: 206c 863f 1dd1 723f 8bf3 8f3f 684c 7c3f
0.99066585 1.0414574 0.89663637 1.0942776 1.0927601 1.0891836 1.0272 1.0854393
1.0508225 1.0161761 1.198603 1.017373 1.0333074 1.0437928 1.1529565 1.0661564
1.0757797 1.0145527 1.058055 1.0429229 1.1878493 1.0318398 1.1790751 1.0244986
1.0181557 1.0196122 1.0077701 0.9637225 1.0832117 1.1238853 1.1542847 1.0660495
1.0675701 1.0430297 1.1485757 0.9935378 1.0134994 1.0383909 0.9969801 1.0087973
1.1321045 0.89231604 1.0757889 0.9763089 1.1223694 1.1875174 1.0640403 1.0391475
0.96192306 1.0721266 1.0245286 1.0907758 1.1675404 1.0961715 1.0629598 1.3175924
1.066857 0.9863287 1.1340221 1.0668463 0.94379383 1.067354 1.0844581 1.0051425
1.1749158 1.0125287 1.1918752 1.046316 1.0523585 1.0741318 0.9699558 0.9816164
1.0915483 0.9937308 1.051143 1.1255182 0.9990651 1.0241637 1.0120952 1.1436181
1.0943303 1.0513632 1.0230272 1.0074912 1.028929 1.0120633 0.90323853 1.0357879
0.9908723 1.0390294 0.95265585 1.1327717 1.1298587 0.9916001 1.0515018 1.0433668
1.1371198 1.2905295 1.0672132 1.180861 0.99159974 1.2304916 1.0573226 1.0745668
1.1482149 1.0519867 1.0409348 1.0119491 1.055168 1.0756277 1.0909576 1.016094
1.0153921 1.0727694 1.1598915 1.0800141 1.0338515 1.0930699 0.969174 1.0910813
1.0808567 1.1197324 0.991687 1.0579443 1.0501747 0.9485033 1.1246198 0.98554087

nnECG.1.bias f4 [128]
00000000: 6205 413c e520 6a3b 1990 5bbc 7b26 b7bc
00000010: e89d 483c 3976 953c 17ea 54bb 90b9 9d3b
00000020: 663d 773c c685 b83b 108d 06bd 1326 c4ba
00000030: 5d5b 31bc 11f8 17bc b256 87bc 6888 3fbc
00000040: c244 133d bc08 b5bb c2bb 883b c6ca 39bc
00000050: 36f6 a3bc 7cf2 b43b 1cce 8c3c bb83 8c3b
00000060: 61ff b43c c400 40bc 19d6 a5bc a556 b4ba
00000070: e585 32bc d5f2 a2bc 39ec 8e3c 85dc 1d3c
00000080: 8002 3ebc f426 923c eb0f b73c 586d 8fbc
00000090: 1873 a8bb 09f6 03bc 0341 6a3c 21bf 1fbc
000000a0: d91f 0d3b 83a8 913c 5046 b7b9 d968 49bc
000000b0: 0c32 27bc 97f6 c73b 7005 343c a566 93bc
000000c0: 0d12 63bb db39 8dbc df1b 09bc b5df 033d
000000d0: 3b81 c2bb 105d 663c 3f78 11ba 65b2 a1bc
000000e0: f4be 683c 43e5 c73b 65a3 89bb 5602 86bc
000000f0: 47a6 ff3a d197 c5bc e424 27bb 0cce c0bb
00000100: b16c c93c 369a 6abc 7a30 7fbb a91a 8a3c
00000110: 786c 953a e04f a23a a188 623c 2b23 a1bc
00000120: a378 893c 6e06 c43b 69c6 973a f555 113c
00000130: 4f31 e73b 1a2a a9ba f7be d5bb a72a 17bc
00000140: 8e24 c0b9 1417 c33c 269c acba a900 8dbc
00000150: a642 033c a147 17bc 7cf8 4e3b ddd1 da3b
00000160: db15 7fbc 62c1 edbc 2649 0d3c cc9e b23c
00000170: 986d d83b dd2c 503c d56c b93b 62d3 423c
00000180: 784e e1bc 68b8 6cbc 53d6 293c a90b da3b
00000190: cf8a bcbb 3945 9ebc 8d43 a33c 8af2 203c
000001a0: 30dc 59bc b20c 99ba 8e9e 1fbc 6ce9 1abb
000001b0: 609d 45bc b3c0 d63c 5b13 eeba 4bc9 29bc
000001c0: fb7c 603b e30e 1dbb 65af 393c 8c0d bdbc
000001d0: 0ffa 433b 6daa dabc 6c72 f53b 10c4 62bb
000001e0: aec3 1d3c 0cd9 7a3b 5f52 c8bb c5ee 6a3c
000001f0: 8156 e3bc a278 78bc 57e8 473c f39c 1c3b
0.0117810685 0.0035725173 -0.013401055 -0.022357216 0.012244679 0.01824485 -0.0032488161 0.0048133805
0.015090322 0.0056311814 -0.03284937 -0.001496496 -0.010825005 -0.009275452 -0.016520832 -0.011690237
0.035954244 -0.005524723 0.004172773 -0.011339849 -0.020014863 0.0055220705 0.017188124 0.0042881644
0.02209443 -0.011718933 -0.020243691 -0.0013758732 -0.010896181 -0.019891182 0.017446624 0.0096350955
-0.011597276 0.01784084 0.022346457 -0.017508194 -0.0051406734 -0.008054265 0.014297727 -0.0097501585
0.0021533875 0.017780548 -0.00034956867 -0.012293064 -0.010204803 0.006102394 0.0109876245 -0.01799328
-0.003464821 -0.017239502 -0.008368461 0.032195766 -0.0059358156 0.014060274 -0.0005549229 -0.019738385
0.014205683 0.006100328 -0.0042003863 -0.016358536 0.001950451 -0.024120243 -0.0025504166 -0.0058839377
0.02458796 -0.014318993 -0.0038938806 0.016858416 0.0011400124 0.0012383424 0.01382652 -0.01967009
0.016781157 0.005982212 0.0011579517 0.008870591 0.0070554386 -0.0012906224 -0.006523009 -0.009226478
-0.0003664833 0.023814715 -0.0013169094 -0.017212229 0.008011496 -0.009233386 0.0031581214 0.0066778497
-0.015569176 -0.029022876 0.008623397 0.021804236 0.0066048615 0.012706009 0.0056587257 0.011891218
-0.027503237 -0.014448263 0.01036604 0.006654222 -0.005753852 -0.019320117 0.019929672 0.009823451
-0.013297126 -0.0011676757 -0.009742392 -0.0023637665 -0.012061447 0.026214933 -0.0018163727 -0.010362933
0.0034254182 -0.0023965172 0.011333321 -0.023077749 0.0029903685 -0.026692593 0.007490447 -0.0034601726
0.009629173 0.0038276343 -0.006113335 0.014339154 -0.02775121 -0.01516548 0.01220139 0.002389726

nnECG.1.running_mean f4 [128]
00000000: 5593 0abe f5f0 713c 44f5 6e3e ea8e c93e
00000010: c4c1 f2be 7875 8cbe 27c9 c9bd 0e7c 593e
00000020: 73cb 14be 3c5a f13d ff80 3f3f 60d1 84bd
00000030: 5482 f93c c2f4 353e cb1e 673e 6641 043f
00000040: 545f 02bf f059 88be 9b2d b8be 7ca5 c53e
00000050: 5d12 b13d 56fa 57be 074e 56be aaba de3e
00000060: 78f2 6e3c a461 cd3d 5bcb 7e3e 2543 99bb
00000070: d7ca e33d a022 9a3d 8e94 8ebe c6ff 16bd
00000080: 2c6a 25be 73cf f9be 0dbd c7be da80 ccbd
00000090: f357 d2bd d775 2b3e c3ad d53c d88a 863e
000000a0: d59e 8b3e 27ce 02be bbc2 b53e 896c ef3d
000000b0: dd61 913d 56a8 803d c2df 0a3e a5f0 113e
000000c0: 2c09 12be 07d0 963e ab8d 5a3e af8e d5be
000000d0: fe49 76be cfd4 093e f4b7 a13e 8c90 18bd
000000e0: 0c2e cabe 0129 cbbd 4bbb c1bd be57 2f3e
000000f0: a593 d53e 4dd3 7c3e 16f0 353e 95e1 b63d
00000100: 8040 6abe 7428 01bc 3f4c 6bbe 6854 45bd
00000110: 0d64 73bc 15a1 653d 8d9d a4be 1037 873e
00000120: f7d6 843d e562 00be 5bc2 f93e d167 ca3d
00000130: 60a2 0b3e babb aa3c fcc6 c2be 11c5 fa3e
00000140: 4ba0 a9be 96f4 173d 9e2a 0fbc 9009 403e
00000150: 2b2a 86be 15a2 f3bd 5531 713e 4d63 f83e
00000160: b5b8 b43e 6fd3 81bd da3a 11bd 5ca7 6cbe
00000170: a604 86be 96d8 9cbe fafa c3bc 4d3a b13e
00000180: d643 613e 7583 e13e bc9c f5bb f0cd 06be
00000190: f7d9 003c 02be 85bd f87a 2abc 1676 0fbe
000001a0: 48e0 393d 8129 4c3d b6e8 563e a897 523e
000001b0: 1251 943e b618 ecbe dd24 313e 78ed 243e
000001c0: c3b0 3e3e e7ff 24be 6786 eebe 6716 913d
000001d0: 5dc9 a2be 1ffe f13e dd0f 913e 9f39 a63e
000001e0: 95a5 e83e 748d d23d 6904 85be c0c3 b2be
000001f0: 61cd 2a3e a9eb 09be e6ec f3bc 3dec 0cbc
-0.13532765 0.014766921 0.23335749 0.39366847 -0.47413456 -0.27433372 -0.0985282 0.2123873
-0.14530735 0.11784789 0.7480621 -0.064852476 0.030457653 0.17769149 0.2257034 0.5166229
-0.5092671 -0.26631117 -0.35972294 0.38602817 0.08646081 -0.2109159 -0.20928203 0.43501788
0.014584176 0.10028389 0.24882261 -0.0046771937 0.11122673 0.075261354 -0.27847713 -0.03686502
-0.16153783 -0.48791084 -0.39011422 -0.09985514 -0.10270681 0.16744171 0.026083833 0.26277804
0.27269617 -0.12773953 0.3550013 0.11690623 0.07098744 0.062821075 0.1356192 0.14251955
-0.14261311 0.29455587 0.21343105 -0.4171042 -0.24051663 0.13460086 0.31585658 -0.037247226
-0.39488256 -0.0991993 -0.094595514 0.17123315 0.41714206 0.2468998 0.17767367 0.08929745
-0.22876167 -0.00788318 -0.22978304 -0.0481762 -0.014855397 0.056061823 -0.32151452 0.26409197
0.06486314 -0.12537725 0.48781094 0.09883083 0.1363616 0.020841468 -0.38042438 0.48978475
-0.33130106 0.03709849 -0.008738188 0.18753648 -0.26204047 -0.11896149 0.23553975 0.4851326
0.3529717 -0.06339156 -0.035456516 -0.23110718 -0.2617542 -0.30633992 -0.023923386 0.34614792
0.21998534 0.44045606 -0.007495491 -0.13164496 0.007864467 -0.06530382 -0.010405295 -0.1400989
0.045379907 0.04984427 0.2098721 0.20565665 0.28968102 -0.46112603 0.17299218 0.16106212
0.18622117 -0.16113244 -0.46586916 0.07084351 -0.31794253 0.47264192 0.28332415 0.32465836
0.4543883 0.10280886 -0.25979927 -0.3491497 0.16679908 -0.13468803 -0.029776048 -0.0086012455

nnECG.1.running_var f4 [128]
00000000: 1d0e 953d 3820 983d 3341 9a3d 6f80 a03d
00000010: fdbd 953d 5279 953d 5d54 953d 20d0 983d
00000020: 7e46 983d 9a2c 963d c435 9c3d 676e 973d
00000030: f7cb 933d ba62 9c3d 1926 963d 9bed 973d
00000040: f61f 9d3d 0937 943d 7ea5 9b3d bd35 963d
00000050: 6487 983d ca92 983d 6936 963d fbd7 963d
00000060: 503b 953d d55b 953d d6af 953d 7096 953d
00000070: bcb4 953d efe6 943d 4adb 973d 242d 993d
00000080: 5352 973d 2e61 973d 3e37 943d e645 993d
00000090: 8c78 943d 99c5 973d 8fd7 943d cc5b 963d
000000a0: 18e6 993d 2afc 953d e02b a03d bbb3 a53d
000000b0: ac23 943d 2735 9b3d e4d3 9a3d b478 9c3d
000000c0: bd38 963d fb66 a73d 6be3 983d b487 963d
000000d0: 8983 963d 90f1 a23d c3a4 973d 2014 963d
000000e0: a2c5 953d 622f 933d 0fd4 9b3d 9cff 953d
000000f0: 0d9d 993d 445a 973d 1464 9a3d 6a9f 983d
00000100: bef7 943d 84c4 973d dbe6 953d 658d 943d
00000110: 5abc 943d 9ded 983d 2551 983d 29a5 963d
00000120: c821 993d 4d34 973d e013 983d 8dfe 9a3d
00000130: 3ea5 933d 1a77 943d 6367 9c3d c87a 9e3d
00000140: 4dc9 993d 55ee 9b3d fadd 9a3d c6e4 993d
00000150: 2ec8 953d ee51 a33d 7ea3 943d 6da6 973d
00000160: 2a80 9e3d 4c1f 973d 3123 963d 0dba 973d
00000170: 9832 973d aae2 9b3d 0122 9b3d 3af5 983d
00000180: 43bf 973d 6367 9b3d c6fa 9a3d d065 9a3d
00000190: 0ae3 953d 2c9c 953d 4907 963d e30c 953d
000001a0: 984f 973d 7d1c 9a3d ba3a 953d 7207 9e3d
000001b0: 7b35 953d 8f32 943d d373 9d3d 2f36 953d
000001c0: 3f6b 963d 12b2 9b3d 1006 9b3d 4e42 9e3d
000001d0: 34c7 a53d 8d52 953d 0b1d 9f3d 0951 983d
000001e0: 7e4d 953d 8384 953d 7c1d 963d de4d 993d
000001f0: e2b4 963d 4b08 963d 1b4f 953d a4d6 973d
0.072780825 0.0742802 0.07531967 0.07836997 0.07311628 0.07298531 0.07291482 0.07461572
0.0743532 0.07332726 0.076274425 0.073941045 0.072166376 0.07636018 0.07331485 0.074183665
0.07672112 0.072370596 0.075999245 0.073344685 0.07447699 0.07449873 0.07334597 0.07365414
0.072867036 0.07292906 0.07308929 0.07304084 0.07309863 0.072706096 0.07414873 0.07479313
0.07388749 0.073915824 0.07237099 0.07484035 0.07249555 0.07410736 0.07267677 0.073417276
0.0751459 0.07323487 0.078208685 0.080909215 0.07233366 0.075784974 0.07559946 0.0764021
0.07335041 0.08173939 0.074652515 0.07350102 0.07349307 0.07956231 0.07404473 0.07328057
0.07313086 0.07186772 0.07608806 0.07324144 0.07500658 0.07390264 0.0753862 0.07452281
0.072738156 0.07410529 0.07319423 0.07253531 0.07262488 0.07467196 0.07437352 0.073557205
0.074771464 0.073830225 0.07425666 0.07568083 0.07209252 0.07249279 0.07636907 0.077382624
0.07509098 0.076138176 0.0756187 0.07514338 0.07313572 0.07974611 0.07257746 0.0740479
0.07739289 0.07379016 0.07330931 0.07408533 0.07382697 0.07611592 0.07574845 0.07468648
0.07409527 0.07588079 0.075673625 0.075389504 0.07318695 0.07305178 0.07325608 0.072778486
0.07388228 0.07524965 0.07286592 0.07716264 0.07285591 0.07236206 0.07688107 0.07285725
0.07344674 0.076023236 0.07569516 0.0772749 0.080946356 0.07291136 0.077692114 0.07437331
0.07290171 0.07300665 0.073298424 0.07485555 0.073587194 0.073258005 0.07290479 0.07413986

nnECG.4.weight f4 [64, 128]
00000000: af22 63be a158 bfbd d873 9b3d 6b1d 413e
00000010: 1350 44bd 1170 8bbe 092b 223e 82dd a5bd
00000020: dd08 dcbd f5a4 efbd e500 6b3d a55f 123d
00000030: 6ca8 c6bd 9c37 e4bd d8f9 563b 622b a2bd
00000040: aabb 9fbd 1804 b9bd 2532 f5bd 7726 96bd
00000050: cdad 1e3e 0ee9 1b3d 9ff2 8abc efd8 183d
00000060: 204f 96bc 6534 103d 2c1a 83bd e4e5 91bc
00000070: 3c5a a93d 7117 973c c0a2 03be 398b c43c
00000080: 1827 32be cdb5 d73d 3eb5 ee3c d066 07be
00000090: b5fe c53d ed79 10bd befe 403e 0a54 523d
000000a0: d3aa d2bd 7082 6dbd 1ba2 8e3c bb38 803c
000000b0: b137 5cbd fce4 633e e545 063d b30f aebc
000000c0: d3fb ac3c bf64 94bd d209 c5bd 62c6 5dbc
000000d0: 0f80 953c 0498 c13c a997 db3d fd31 9a3d
000000e0: 398a 0ebe 726d 813d fe48 20be fa95 08be
000000f0: 9a2f 08be 4d1c 10be d4c9 1abe 8f61 72bc
00000100: 8181 bdbd 22f8 42bc 0c4c a83d 4a60 9bbd
00000110: 38cb ca3a 97d5 53bd 2a04 08be 1e8e 0abe
00000120: 3261 d13d b2e0 083e e43c 8e3d c380 0d3d
00000130: eb3c 29bd d7d6 c43d bc42 4c3e a2ed ed3d
00000140: 177f 96be 3172 9c3c 1048 8c3d f618 103e
00000150: 94f8 7cbd 7455 d23b 0dd6 27bd 33c4 c6bc
00000160: df4f 133e 8212 1a3d 1a0f 0ebe 3c3c 0cbd
00000170: 50a7 87bd f933 34be 89d7 c2bd 5f36 fe3d
00000180: 7777 343e 24e1 a73e 692e bd3d 4cba 0a3d
00000190: 6344 0d3e 50b6 87bd 250d 86be 7c29 aabd
000001a0: dd98 4b3d b625 36be 4d10 3bbe 87e6 283e
000001b0: 16d2 a9bd e6ca febd 4d9e 51be 5fef 483d
000001c0: ccfa 44be 8929 3ebe f562 2bbd 5db1 133d
000001d0: 6549 10be cd5a 4d3e 1854 fb38 293e aabc
000001e0: 6c09 ec3d 7114 e4bd 2fed e6bc 1f3f c0bd
000001f0: ba01 0d3e 4fa8 973c c3a7 3c3e 2088 2a3d
00000200: 2395 63be 8360 79bd 8962 ddbd c918 c33d
00000210: 02d0 e7bd 5dc9 1abe 37a6 e0bd a7e5 acbd
00000220: d265 1cbe 6b71 b7bd 34ee 9d3c 0128 3ebc
00000230: fe95 e53d 27d2 79bd bde1 fe3d 081f 0fbe
00000240: 9b04 183e 0789 16bd 4b0b 063e 1cab 3f3e
00000250: dc20 e5bd 25e2 a83d c59a 3bbe 0886 13bb
00000260: e7df a6bd e1df 79bd 1c01 0fbc 303a 433d
00000270: e9aa 053e cadb 05bb 08c0 42be 5d3c 303d
00000280: 43ec 77bd 2bae d93c 2ff8 8bbd 3e1a 50be
00000290: 1747 a3bd 4e0a 81bd 1574 273d 4499 eabd
000002a0: 0ff7 6cbd b995 aebd 4cea 35bb 60b7 f93d
000002b0: 2b67 ac3c ecd0 c13d f484 1cbc 7717 cb3b
000002c0: bec8 193d f4c0 683d 8350 f7bd 1f0f debd
000002d0: 672f b73c 61aa ddbc 900c a6bd a90b e1bd
000002e0: bcdc 1d3d 282c d5bc aae2 32be f731 a43d
000002f0: bffa 5d3d 3f9b 86bd 82f1 7bbd 36b4 223e
00000300: 5c71 cf3d 75cf a83d dc42 d63d 243c 113d
00000310: f269 09be 1181 37bd 3624 1ebe ca30 3dbb
00000320: ffc5 c83d e2da 08bd 00ae 0ebd 6023 6ebd
00000330: 6bc9 423e 35d4 c93d d0cb 85bd 88b3 383e
00000340: fbf9 05be b23f 6ebc 39c4 f13d d128 203e
00000350: c395 333d 9684 b73d 2f04 f2bc 7bd7 e83d
00000360: 96f4 84bd 0bcc 1bbe d238 b3bd 36c6 a23c
00000370: 0ee1 e23c 845c 4dbd aad6 dc3d 84f3 18be
00000380: 488a 8ebc a857 d03e 84c2 edbd 930f 8e3e
00000390: 831b c63d 1d77 0bbe 8d6d 83bd 0d4c f4bd
000003a0: 790e 3f3e d3ad 10bd e999 9c3d 5008 7bbb
000003b0: 06f6 3dbd 78d0 213c 6f02 5cbe b753 90bd
000003c0: 003f 913d 88d2 123b 953a 03bc a24b 27be
000003d0: b6a0 08bd 9057 ef3d 5e18 033e 111e 5bbd
000003e0: 0b56 0ebe 99fa 7dbe ced3 bebd 2395 273d
000003f0: b0d1 2c3e 6610 11be 7c98 d5bd a667 1d3d
-0.221812 -0.093430765 0.07590455 0.18858878 -0.047927927 -0.27233937 0.15836729 -0.0809889
-0.10743878 -0.11701385 0.0573739 0.035735745 -0.09700093 -0.11143419 0.0032802727 -0.07918431
-0.07799466 -0.09033984 -0.11972455 -0.07331555 0.15495987 0.038064055 -0.016961394 0.03731626
-0.018348277 0.035206217 -0.06401476 -0.017809816 0.08269164 0.018443795 -0.12855053 0.023992168
-0.17397726 0.105327226 0.029139157 -0.13222814 0.09667722 -0.035272527 0.18847176 0.051349677
-0.102864884 -0.057985723 0.017411282 0.015652051 -0.05376405 0.2225532 0.0327815 -0.02124772
0.021116173 -0.07245778 -0.09621014 -0.013536068 0.01824954 0.023632057 0.10722286 0.07529066
-0.13919915 0.06319703 -0.15652844 -0.13338462 -0.13299409 -0.14073296 -0.15116054 -0.014793768
-0.092532165 -0.01189998 0.0821763 -0.07586725 0.0015471941 -0.051717367 -0.13282838 -0.13530776
0.10223617 0.13366964 0.06945208 0.034546625 -0.04131786 0.0961129 0.19947332 0.116175905
-0.29393837 0.01909742 0.06849682 0.14072022 -0.0617605 0.006418878 -0.04097562 -0.024263477
0.14385937 0.037615307 -0.13872948 -0.03423713 -0.06623709 -0.17597951 -0.09513766 0.12412714
0.17623697 0.32788956 0.09237368 0.033869073 0.13795619 -0.0662657 -0.26181903 -0.08308694
0.04970633 -0.17787823 -0.18267937 0.16494189 -0.08292024 -0.124410436 -0.20470543 0.049056407
-0.19236296 -0.18570532 -0.04184242 0.03605782 -0.14090498 0.20054169 0.00011984276 -0.020781593
0.115252346 -0.111367114 -0.02818927 -0.093870394 0.1377019 0.018512873 0.18423371 0.041633725
-0.2222486 -0.060883056 -0.1080981 0.09526212 -0.11318971 -0.15115876 -0.10969203 -0.0844224
-0.15273216 -0.0895718 0.019278623 -0.011606217 0.11210249 -0.060991433 0.124454 -0.13976681
0.14845507 -0.036751773 0.13090245 0.18717617 -0.11187908 0.08246259 -0.18320759 -0.0022510309
-0.08148175 -0.061004523 -0.008728292 0.047662914 0.13053478 -0.0020425194 -0.19018567 0.043026317
-0.06052805 0.026572308 -0.06834447 -0.2032251 -0.07972544 -0.063007936 0.04088219 -0.11455014
-0.0578528 -0.08524651 -0.002775806 0.12193179 0.021045288 0.09463677 -0.009553183 0.0061978656
0.03754496 0.05682464 -0.12075903 -0.10842728 0.02236147 -0.027058782 -0.08107865 -0.10988552
0.038540587 -0.026022032 -0.17469278 0.080173425 0.05419421 -0.065725796 -0.061509617 0.15889058
0.101290435 0.08242694 0.10461971 0.035457745 -0.13419321 -0.04480082 -0.15443501 -0.0028868192
0.0980339 -0.033411868 -0.034833908 -0.058139205 0.19022147 0.098549284 -0.06533015 0.18037236
-0.13083641 -0.014541553 0.118050046 0.1564057 0.043843996 0.08960836 -0.02954301 0.11369225
-0.064919636 -0.15214555 -0.08751072 0.019869905 0.027695205 -0.050137058 0.107831314 -0.14936644
-0.017399922 0.40691876 -0.116093665 0.27746257 0.09673216 -0.13619657 -0.064173795 -0.11928568
0.18657865 -0.03532202 0.076465435 -0.0038304515 -0.046377204 0.009876363 -0.21485303 -0.07047217
0.070920944 0.0022403318 -0.0080095725 -0.16337445 -0.03335639 0.11686623 0.12802264 -0.05349547
-0.1390001 -0.24802627 -0.09317742 0.040913712 0.16876864 -0.14166412 -0.10429475 0.038428925

nnECG.4.bias f4 [64]
00000000: 6ea2 603c 7f11 9f3c 9499 a93c f2f9 203d
00000010: a012 2e3b a345 2abc 00c2 1a3c 8895 d33c
00000020: 7443 e83c 630b 503c 51d1 09bd 28ab 85bb
00000030: 9831 293a 898e d1bb 8be6 0fbd 3430 613c
00000040: 4560 d8bb 9313 6bbc 5bd1 363b 5ace f93c
00000050: 8f6c 55bb 0ddd ee3b 8042 84bc cdfe 473d
00000060: 9409 c13c 9a25 393c d28e 4c3d d0bd 133d
00000070: 796b e03c eab0 2dbd 2200 49bd b4db 323b
00000080: 9662 083c cdce aabc 28c1 ca3c c320 8b3c
00000090: 7b96 533d a997 94bc 9352 9a3d e961 013d
000000a0: faba d1bc ab40 e3bb 1bda 01bc 1389 eebc
000000b0: e92e 5e3c 08f9 263d fc18 af3b 1788 973c
000000c0: 9780 783b 250b b43c de21 003c 1a5b 5bbc
000000d0: 2466 0b3d 601c 47bc 1da0 723c c901 1e3d
000000e0: f563 0e3b a915 673d 94a9 15bc 5154 79bb
000000f0: cb64 273c 09eb 113d a63f 6fbc 2829 133c
0.013710601 0.019417522 0.020703115 0.039300866 0.0026561394 -0.010392579 0.009445667 0.025828138
0.028352477 0.012698027 -0.033646885 -0.0040792413 0.00064542284 -0.0063951653 -0.035131972 0.013744403
-0.006603273 -0.014347929 0.0027895782 0.030493904 -0.0032565927 0.007289535 -0.01614499 0.04882698
0.023564138 0.011300469 0.04994089 0.03606969 0.027394997 -0.042405047 -0.049072392 0.0027291598
0.008324286 -0.020850563 0.024750307 0.016983395 0.05165718 -0.018138723 0.07535281 0.031587515
-0.025601853 -0.0069351993 -0.007925536 -0.029118096 0.013560989 0.04076484 0.0053435545 0.01849751
0.0037918442 0.02197797 0.007820575 -0.0133884195 0.034032956 -0.012152761 0.014808682 0.03857592
0.002172706 0.05641714 -0.009134669 -0.0038044641 0.010216902 0.035624538 -0.014602577 0.00898198

nnECG.5.weight f4 [64]
00000000: 5aa8 833f d9f5 863f 3fcb 843f 1fa7 8a3f
00000010: feb5 8d3f 13ae 803f c055 8e3f 465a 8c3f
00000020: 812a 933f d1dc 8f3f 862e 763f 0bf6 8c3f
00000030: 1ac6 8d3f 7441 753f 186a 803f be25 853f
00000040: af13 8e3f 6053 7e3f 7f28 863f 9431 913f
00000050: 5e1f 8f3f bdbd 8d3f 2df6 943f 1beb 8c3f
00000060: 0334 873f fe9c 8e3f d874 8f3f 17da 833f
00000070: 917a 8f3f 4e67 843f 312b 823f a9b4 7f3f
00000080: 6f68 8b3f 4698 873f 1820 903f 4791 973f
00000090: bf09 9e3f dd76 923f b1c6 903f 813a 8b3f
000000a0: 9eb5 883f cd9b 863f 5b5c 8b3f f156 8c3f
000000b0: 1b1c 8c3f af8b 893f 667e 823f ec4b 8e3f
000000c0: 6a21 973f 9b32 853f c3bf 8c3f 0acd 843f
000000d0: 722e 8a3f 13eb 893f e663 953f 37dc 963f
000000e0: ebe1 813f fff0 993f 9365 8d3f 5231 913f
000000f0: 6307 813f 8cea 873f a9f9 973f 343a 903f
1.0285752 1.0543777 1.0374526 1.0832251 1.1071165 1.0053123 1.1119919 1.0965049
1.1497346 1.1239263 0.9616474 1.1012586 1.1076081 0.95803 1.0032377 1.0402143
1.1099757 0.9934597 1.0481108 1.1343255 1.1181448 1.1073529 1.1637627 1.1009248
1.0562748 1.114166 1.1207533 1.0300931 1.1209279 1.0344026 1.0169431 0.9988504
1.0891246 1.0593345 1.1259794 1.184121 1.2346724 1.1442524 1.1310636 1.0877229
1.0680425 1.0516297 1.088756 1.0964032 1.0946077 1.0745753 1.0194824 1.111692
1.1807072 1.0406069 1.0996021 1.0375073 1.0795424 1.0774864 1.1671112 1.1785954
1.014707 1.2026671 1.1046623 1.1343176 1.0080379 1.0618453 1.1873065 1.1267762

nnECG.5.bias f4 [64]
00000000: f5fa c43a 043c e43b 35b1 943c 49ec 053d
00000010: d357 893b 6618 86bc 2877 c53b cbc0 cd3c
00000020: db96 353c a081 aa3a 99b5 48bd 0323 a2bc
00000030: 29f0 0bbc 7b6c 92bc 9d37 26bd 7e30 8cbb
00000040: a6a8 94bc f918 dabc f7c9 24bc 4b37 ee3c
00000050: 04b3 febb bc74 3cba 1c36 c7bc 0d8c 263d
00000060: c51d 7d3c d481 253c 8fb2 533d 6798 be3c
00000070: e3b5 b33c 62da 3dbd e1df 74bd 6956 0ebc
00000080: 937e 533c fba4 16bd 32c0 5b3c 7327 de3b
00000090: 39ef 3a3d 9d81 c0bc 895f 6f3d 5f60 073d
000000a0: 1126 2bbd 66cb cfbc 3f90 6ebc ac8c 47bd
000000b0: a9ca b6ba be5a 113d 5627 8bbb 1b72 7c3b
000000c0: 1799 4e3b 8aa5 0e3c 07d4 ebba ad21 cabc
000000d0: a01a c93c 30c8 efbc ef46 7d3b 3d25 a13c
000000e0: e4bf 81bc b186 4a3d 2858 bbbc 87b5 08bc
000000f0: 6584 36b9 0849 d93c 8985 dabc 5d00 223a
0.0015028404 0.006965162 0.018150905 0.032696042 0.0041913777 -0.016369056 0.0060261674 0.025116345
0.01108333 0.0013008602 -0.04900131 -0.019792086 -0.008541145 -0.017873993 -0.04058038 -0.0042782417
-0.018146824 -0.026623236 -0.010057918 0.0290791 -0.007772805 -0.00071890256 -0.024317794 0.040660907
0.015448992 0.010101754 0.05168396 0.02326603 0.021937316 -0.046350844 -0.05978382 -0.008687594
0.012908596 -0.03677843 0.013412522 0.006779605 0.045638297 -0.023499304 0.05844072 0.03305089
-0.04178435 -0.025365543 -0.014560758 -0.04871814 -0.0013945895 0.03548693 -0.0042466326 0.003852016
0.0031524354 0.00870646 -0.0017992266 -0.024674261 0.024548829 -0.029270262 0.0038647016 0.019671077
-0.01583857 0.049444858 -0.022869185 -0.008344061 -0.00017406193 0.026524082 -0.026675003 0.00061798637

nnECG.5.running_mean f4 [64]
00000000: 5661 00bf 900d e2be 1481 03bf 41e0 25bf
00000010: fde5 87bb 940e 14bf 36ba 2ebe 9923 893d
00000020: 6a64 993e 8c35 ed3d 9b60 55be 3dc4 463e
00000030: 8731 72be f381 cfbd 9a92 bebe 388d 9dbe
00000040: ddb0 483d a305 f5be 09b2 40be 3788 5f3e
00000050: 8c49 8e3d 59d5 01bf 8c0b 983e 9575 bfbd
00000060: cad7 6bbe 788b 22be b204 9fbd cf05 02bf
00000070: 2f78 b1bc ba5c 22bf 1408 85bd d56f e3be
00000080: c24a a6bb 95db c8be 89dd 383d 9c18 0f3e
00000090: 80d1 5d3e d80b 8ebe a5e5 1fbe d6b6 ec3e
000000a0: adb3 c9be 91ba 49be bf05 7dbc e7ce 0cbe
000000b0: a108 00bf 5aa3 a5be 0b20 1a3e bbc9 603e
000000c0: b74f 443e 1e52 fd3e 87be 363e a81b 4abe
000000d0: aa6a 733e 91dd a03e cf36 fbbe e17e e83e
000000e0: e1ed ad3e 71ee be3d a695 a33e 53af 3b3b
000000f0: da1b ca3e 3f70 c83d 6192 d63e 700f 973d
-0.5014852 -0.44150972 -0.5136883 -0.6479531 -0.00414729 -0.57834744 -0.17063221 0.06696243
0.29959422 0.11582479 -0.20837633 0.19410796 -0.23651706 -0.10132208 -0.37221223 -0.30771804
0.048996795 -0.47855863 -0.18817915 0.21829306 0.06947622 -0.5071617 0.2969631 -0.09348599
-0.23031536 -0.15873516 -0.077645674 -0.50790113 -0.021663753 -0.6342274 -0.064956814 -0.4442126
-0.00507483 -0.39230028 0.045133147 0.13974231 0.21661949 -0.2774341 -0.15614946 0.46233243
-0.39394894 -0.19700076 -0.0154432645 -0.13750802 -0.50013167 -0.3235119 0.15051286 0.21951954
0.19171034 0.49476713 0.17846118 -0.19737113 0.23771158 0.31419042 -0.49065253 0.454093
0.3397055 0.09322823 0.3195011 0.0028638437 0.39474374 0.09787034 0.41908553 0.07375991

nnECG.5.running_var f4 [64]
00000000: 62a0 9b3f 992a 423f 2989 a53f 7e47 f43f
00000010: f572 4c3f 541d 8c3f 9c11 3340 0b63 563f
00000020: c2c4 0a40 420b 913f 1361 9f3f 9569 a43f
00000030: d7ff a33f cff3 f83f e1ac 893f da25 883f
00000040: dd91 783f 3f71 723f d98c 973f 57ea 503f
00000050: d39e 6a3f a9da f33f e1c9 ad3f 35c5 613f
00000060: 1949 a93f bbdb ac3f 4223 1340 5a6c 6f3f
00000070: 6afa 843f 4976 be3f 1c4a 0440 be34 ba3f
00000080: aa96 663f 0b9a a83f 544f 993f e2be 883f
00000090: ce27 6c3f 88c1 613f c6b8 c83f 6454 d43f
000000a0: fa58 be3f c877 d03f adb2 813f 4571 913f
000000b0: 8115 6f3f 7382 7b3f faaf 8d3f 75e6 823f
000000c0: b11c 8f3f 0b71 b73f 679d df3f d7f5 e13f
000000d0: 5251 933f 9ba3 b43f 154a f43f d577 843f
000000e0: bb87 983f 6c1f 9e3f ae4c 5f3f 7baa 893f
000000f0: 6e3b 763f e4cd c93f fe31 843f 2007 793f
1.215832 0.7584625 1.2932483 1.9084318 0.7986291 1.094645 2.7979498 0.8374488
2.1682591 1.1331561 1.24515 1.2844721 1.2812451 1.9449404 1.0755883 1.0636551
0.9709757 0.9470405 1.1839858 0.81607574 0.91648597 1.9051105 1.3577234 0.8819154
1.3225433 1.3504556 2.299027 0.93524706 1.038892 1.4879848 2.0670233 1.4547346
0.90073645 1.317201 1.1977334 1.0683253 0.9224824 0.8818593 1.5681388 1.6588254
1.4870903 1.6286554 1.0132653 1.1362692 0.9339219 0.98245925 1.1069329 1.022658
1.1180631 1.4331373 1.746991 1.7653149 1.1509192 1.4112428 1.9085108 1.034907
1.1916422 1.2353339 0.8722638 1.0755152 0.9618443 1.5765958 1.0327756 0.97276497

nnECG.8.weight f4 [16, 64]
00000000: a6d2 75be 425a 033d 2ce6 c93d 227e 65be
00000010: 5c62 a8bd 2f0c f6bd aaab 8c3c 388e 283e
00000020: 9fe2 d8bd 08ff 4fbd f3b1 883e 5e17 613d
00000030: 9b28 55be 69b2 123d 4f68 debd cbfe 88bd
00000040: 09ba 3ebe c06d 393e 4b43 97bc fe66 46bd
00000050: e092 30bd 84ff 803c 77b5 86be 82ad 993d
00000060: a559 763d 9a80 76be bd79 87be b3b4 36be
00000070: a1c2 85bd b602 7cbe 1387 8fbc 77bd 5ebe
00000080: c129 bf3c 957a 1cbe 1a6b 69be 119d 8d3e
00000090: 0a96 0b3e 4646 a6bd bcb7 343e 959c cb3d
000000a0: 5058 643e e5dc 14be 082a 8bbc 651b 40be
000000b0: b524 9e3d 562e 613e 97b1 d53c e691 153e
000000c0: bdaa 71bc 8b6b 17bd 5d3f d23d 461d 65be
000000d0: 3577 a5be 12a9 573e 6383 02be 9011 f03c
000000e0: 0022 8f3c 1545 b6bd d3b5 1c3e 0bec dc3c
000000f0: cab6 f33b efaa 253e 3ccc a1bd 110f 4d3e
00000100: 6b58 043e c7fc 93bd b88b 4d3c 831b d5bc
00000110: cae0 7ebd cc61 5f3d 9e4c 38be 14d0 f1bc
00000120: fe9e d43d 89c5 22be 4bc7 2ebe c9e9 ee3d
00000130: a452 36be fa00 4b3e 15fd 073e 29bb 7ebe
00000140: 9a11 943e 275b 86be 6e52 523e 8170 423e
00000150: 9580 883e 621f 6d3e d51b cb3e 9fb4 c43d
00000160: 9084 0e3e 1bc4 093e 2713 dbbd 0721 97bd
00000170: e3b4 4cbe 040a 713e e48e cb3d 44c5 93bd
00000180: 2850 25be 8687 7f3c cd8e 59be f550 64be
00000190: f5f7 80be a17f 943e a5c2 233c cf76 4dbd
000001a0: 1e70 3b3e 46a5 2dbe 2a46 cfbb a73d a5bd
000001b0: 78c4 8ebe f7a0 75be 2ba2 89be ab0a 1fbc
000001c0: 7e0c efbd b3d0 72bd 263f c93d 3b7a 6fbd
000001d0: df60 a13e 4b5b 513e edd7 113e 55fa ed3d
000001e0: 8f8e c0bd 5824 c03c 7c52 a53e cce6 26bd
000001f0: 5c64 26be ba01 2abe 5d44 92be ecd4 76be
00000200: ad8f 42be 9672 24be f1b6 503e c6bc d6bd
00000210: 0dd1 913e fca1 573e 84df a33e 2506 00be
00000220: 10e2 c13e 28c0 b7bd 9cf4 87bd d1b6 be3e
00000230: 7da8 b2be db51 eebd 3c5b 4a3e 5b5f 94be
00000240: 3029 fd3d 5f86 ddbd 8d09 aebc f9c7 a9be
00000250: 0996 8abc 8a74 0c3e db17 90bd ea5d 1d3e
00000260: 5e23 6ebe c2ae 6d3d d560 70be f736 ddbd
00000270: 732d 143d 911f dcbd d570 423e 810c 073e
00000280: e15e 253e e636 413e 0fd5 a3be 0bcb d33d
00000290: 91de abbd e4ab 21be a509 273e 17ab 99be
000002a0: 889a a43e 39a6 563e aaa8 30be d794 6a3e
000002b0: 7692 00be 7679 dfbd b99c 2c3d 5c89 ddbc
000002c0: 854d 2c3e ca37 293b bf80 9ebe 7ca9 debd
000002d0: e1e5 1fbe 5fa2 853e 0ccc 80be 11a7 bbbe
000002e0: b231 973d 1006 e93d 6475 64be 79a5 18be
000002f0: 2bf7 863e 97b8 e93d f661 c8be 0d41 69bd
00000300: 1ab1 613e 9be9 4fbe 8c65 123d 6013 4f3e
00000310: 80d4 8c3e 8927 103e b59c f6bd ddb6 833e
00000320: be38 1cbe 373b 8bbd 815a 8dbe 6f7f 90be
00000330: 8bc5 a33d 142e 693e 7d62 d73d 5ee0 813d
00000340: 53e0 88bd 2685 fbbd 4db8 603e 4c5e cebd
00000350: c4fa 40be 2430 b33e fd71 4cbe eda8 883e
00000360: b470 8d3e d9af 8fbe 8210 13be 701c 8c3d
00000370: 28d3 3dbe 3fbf d1bd 1585 a23e 3a69 5bbe
00000380: 1a61 8e3d 1b6e 22be 85b3 843e 2013 573e
00000390: c365 abbe 527c 583e e907 183e ef46 6bbe
000003a0: c220 5e3d 7981 85be 04ed 0b3e ea13 053d
000003b0: 2bd3 c33d 02ea af3d 48d9 20be b3d5 d2bd
000003c0: 3582 3dbd 5611 643d c97f 523e ed47 57be
000003d0: e7e1 733e edfa 983d 030c d2bc 3d4e 7c3d
000003e0: b759 143d 5e04 913e 4572 7a3d 5197 943d
000003f0: 8f22 31be 1466 763e d8bd 6f3d 9f9d 4f3e
-0.24006137 0.0320685 0.09858355 -0.22411397 -0.082218856 -0.120140426 0.0171717 0.16460502
-0.105900995 -0.050780326 0.26698264 0.054953925 -0.20816271 0.035814676 -0.10859739 -0.06689223
-0.18625654 0.18108273 -0.018464705 -0.048438065 -0.04310882 0.01574684 -0.26310322 0.07503797
0.060144085 -0.24072495 -0.26460066 -0.17842369 -0.06531263 -0.24610409 -0.017520463 -0.21751963
0.02333534 -0.15281136 -0.22794762 0.27658895 0.13631454 -0.08118872 0.17648214 0.09941975
0.22299314 -0.1453739 -0.016987815 -0.1876045 0.07721845 0.21990332 0.026085658 0.14606437
-0.01475018 -0.036967795 0.10265992 -0.22374448 -0.3231751 0.21060589 -0.12745433 0.02930525
0.017472267 -0.08899895 0.15303735 0.026968023 0.0074375616 0.16178487 -0.07900283 0.20025279
0.12924354 -0.07225948 0.012545519 -0.026014095 -0.062226094 0.054536626 -0.17997977 -0.029518165
0.10381888 -0.15895666 -0.17068212 0.11665685 -0.17804962 0.19824591 0.13280137 -0.24876083
0.2891968 -0.2624142 0.20539257 0.1898823 0.266606 0.23156503 0.39669672 0.09604763
0.13917756 0.13453715 -0.106970124 -0.07379346 -0.19990878 0.23538977 0.099393636 -0.0721536
-0.16143858 0.015596276 -0.2124588 -0.22296508 -0.25189176 0.29003623 0.009995137 -0.050162133
0.18304488 -0.16957578 -0.006325503 -0.080684 -0.2788427 -0.23987184 -0.26881537 -0.009707133
-0.116723046 -0.059281062 0.09826498 -0.058466177 0.3151922 0.20444982 0.14242525 0.11620013
-0.09402191 0.02345483 0.32289493 -0.04074745 -0.16249222 -0.16602221 -0.28567782 -0.24104661
-0.1900012 -0.16059336 0.20382287 -0.104852244 0.28479806 0.21057886 0.32006466 -0.12502344
0.37867785 -0.08972198 -0.066384524 0.37248853 -0.3489417 -0.116367064 0.19761366 -0.28979
0.123613715 -0.10816645 -0.021244789 -0.3316038 -0.016917245 0.13716331 -0.070358 0.15367857
-0.23255679 0.05802799 -0.23474438 -0.10801499 0.036176156 -0.10748208 0.18988355 0.13188364
0.16149475 0.18868598 -0.31998488 0.10341462 -0.083920605 -0.15788227 0.16312273 -0.30013344
0.32149148 0.20961846 -0.1725184 0.2290834 -0.1255587 -0.10911839 0.04214165 -0.027043037
0.16826446 0.0025820606 -0.309576 -0.1087217 -0.15615036 0.26100442 -0.25155675 -0.366509
0.073825255 0.113781095 -0.22310406 -0.14906873 0.2636045 0.11412161 -0.39137238 -0.056946803
0.22040215 -0.20303957 0.035741374 0.20222235 0.27505875 0.14077581 -0.12041608 0.2572545
-0.1525602 -0.06798404 -0.27608112 -0.28222224 0.07996663 0.22771484 0.10516832 0.06341623
-0.066834114 -0.122812554 0.21945305 -0.100765795 -0.1884566 0.34997666 -0.19965358 0.2669138
0.27625048 -0.2806385 -0.14361766 0.068413615 -0.18537581 -0.102415554 0.3174216 -0.2142686
0.069521144 -0.15862314 0.25918213 0.2100339 -0.33476076 0.21141174 0.14846767 -0.22976278
0.05423046 -0.26075342 0.13664633 0.032489695 0.095617615 0.08589555 -0.15707886 -0.10294666
-0.046266753 0.055680595 0.20556559 -0.21023531 0.23816644 0.07469735 -0.025640493 0.06159805
0.03621837 0.28323644 0.061144132 0.07255424 -0.1729834 0.24062377 0.05853066 0.20274971

nnECG.8.bias f4 [16]
00000000: 4b9f 69bc 349c 54bc 1065 f1bb d472 353d
00000010: deb7 773c 9848 99ba 64a2 a13c 1688 713c
00000020: 2fed e13c 66ca 013d e91d 043d ba13 a23c
00000030: 9d30 80bb 7057 bd3c f85f 323d bc69 21bc
-0.01425917 -0.012976695 -0.007366784 0.04429896 0.015119521 -0.0011694608 0.019730754 0.014741918
0.027578918 0.031687163 0.032255087 0.019784797 -0.003912045 0.023112983 0.043548554 -0.009851869

nnECG.9.weight f4 [16]
00000000: 93ca 6d3f a49a 8d3f 0592 8a3f 4cc0 883f
00000010: 792c 923f 3152 883f 94e8 8d3f 9e91 893f
00000020: 833b 8e3f 6b67 993f 4b2c 8d3f 09c6 893f
00000030: 6807 933f a17c 953f 6d61 8d3f 4ba1 853f
0.9288723 1.1062818 1.0825812 1.0683684 1.1419822 1.0650083 1.1086602 1.0747564
1.1111912 1.1984686 1.1029142 1.076356 1.1486635 1.1678659 1.1045357 1.0439848

nnECG.9.bias f4 [16]
00000000: f356 c9bc f71f 22bd 169a 00bd ba84 4b3d
00000010: b365 b93c 3a00 75bc 6a3a c63c 68c0 9c3b
00000020: ce82 513b ff3b 673c ec71 d53c 0cda 8a3b
00000030: 6ed7 b5bc b9a2 853c 43ba 043d 9cda 25bc
-0.024577593 -0.039581265 -0.031396948 0.049687125 0.022631502 -0.014953667 0.024197776 0.004783679
0.0031968835 0.014113425 0.026055299 0.004237419 -0.022197451 0.016312944 0.032404196 -0.010122921

nnECG.9.running_mean f4 [16]
00000000: dab9 3bbe 7aeb 61bd c07d c8ba 28d3 a23e
00000010: a17f dd3e fed6 1a3e b720 89be 1498 e93e
00000020: b2bc fcbe 290c afbe 2f54 0e3f e4ed e1be
00000030: 93be 49be ea46 363e 1512 03bd 6346 3f3f
-0.18332615 -0.05515621 -0.0015296265 0.31801724 0.43261436 0.15121076 -0.26782772 0.4562384
-0.49362713 -0.34188965 0.55597204 -0.4412681 -0.19701605 0.17800489 -0.031999666 0.74716777

nnECG.9.running_var f4 [16]
00000000: ba4a 9b3f aa38 b53f e555 d33f f16c c53f
00000010: 4a56 953f e6de c93f fe2b c73f 50a3 be3f
00000020: 9406 2240 c750 9b3f a941 cb3f 6b7c dd3f
00000030: 7a58 cb3f a453 b93f 7990 9d3f 2e5b f63f
1.213218 1.4157917 1.6510588 1.5423871 1.1666958 1.5771148 1.55603 1.4893589
2.5316515 1.2134026 1.5879413 1.7303594 1.5886376 1.447865 1.2309715 1.9246576

nnECG.12.weight f4 [4, 16]
00000000: 5347 8abe 8ceb 223f 876a e73e e3ed 5d3c
00000010: 8268 cdbe 9de8 953e 90bf 1fbd 0965 c13e
00000020: 2ad3 bcbe c2b5 6abe a28d abbe eb1d e23d
00000030: 66a0 113d d318 243e 5145 1abf a48b 34be
00000040: 5136 96be 7cef 9a3d 8dd5 ee3d adba 823e
00000050: 1f3a 8f3e 2c0b 2fbf 2761 a6bd 49c9 ff3e
00000060: 8b4b 573e e75d 733e 58ee 75be f99f a2bd
00000070: d6ad ee3e 576d ad3e cd73 a13b 3f86 b63e
00000080: 60e8 05be bbb9 aebc 3cab 71be 56e7 14be
00000090: 939a 0dbf 1c94 b63d 5789 013f 5e64 cfbe
000000a0: 0cb8 083f 94ac d63e 08b9 0ebe bf1c a2be
000000b0: 6981 17bf e8f7 313f b4f2 2c3c f23b 11bf
000000c0: d4bc 903e dca5 a93d 7771 823e 3dc1 10bf
000000d0: b4ab ef3e 4038 523d daa7 023f 109f 11bf
000000e0: dc96 b3be 27a8 2cbe a351 a1be 67fb 15be
000000f0: 3dd6 513e dbab f3be 4bd7 4dbe 3a7d 85be
-0.2700754 0.63640666 0.4519846 0.013545486 -0.40118796 0.29279032 -0.039001048 0.37772396
-0.36879855 -0.22920898 -0.33506495 0.11040863 0.03555336 0.16025095 -0.6026202 -0.17631394
-0.29338315 0.07565209 0.11661825 0.25533047 0.2797403 -0.6837642 -0.08123999 0.49958256
0.21024911 0.2376629 -0.24016702 -0.079406686 0.46617 0.33872482 0.0049271346 0.35649297
-0.13076925 -0.021328798 -0.23600477 -0.14541373 -0.55313987 0.08914968 0.5060019 -0.40506262
0.53405833 0.41928542 -0.13937771 -0.31662557 -0.5918184 0.695189 0.010555912 -0.56732094
0.28269064 0.08283588 0.25477192 -0.5654486 0.46810687 0.051323175 0.5103737 -0.56883335
-0.35076034 -0.1686102 -0.31507596 -0.14646684 0.20491882 -0.47592053 -0.20101659 -0.26072103

nnECG.12.bias f4 [4]
00000000: 6f6e 85bc f458 b2b8 166b 233d 1d58 eb3b
-0.01628801 -8.50427e-05 0.039897047 0.007182135

nnECG.13.weight f4 [4]
00000000: 83b3 863f 498a 8b3f 80d3 913f 90a6 8e3f
1.0523533 1.0901576 1.139267 1.1144581

nnECG.13.bias f4 [4]
00000000: 8f74 dcbc b2bc 92bc c332 d83c 7685 82bc
-0.026911048 -0.017912243 0.026391393 -0.01593278

nnECG.13.running_mean f4 [4]
00000000: 384d 90bd a414 ea3e e743 76be d458 71be
-0.07045978 0.45718873 -0.2404934 -0.23569041

nnECG.13.running_var f4 [4]
00000000: 4f0e ae3f 5293 bc3f 1984 c63f cf08 9e3f
1.3598117 1.4732459 1.5509063 1.2346438

nnECG.16.weight f4 [1, 4]
00000000: dd2f 713f 06b4 e73e f46f d8be 3e98 3d3f
0.9421366 0.45254534 -0.42272913 0.7406043
