Models/net_1_0_epoch_51.pth (torch, 57997 bytes, 25 tensors)

nnECG.0.weight f4 [128, 12]
00000000: 4361 bb3c fb38 da3c 08f0 e23d 00e7 523e
00000010: bd44 da3d d838 103c 0c40 cabd 083a abbc
00000020: 6c3c 82bd 7343 e13d 7f71 4b3e ac71 54be
00000030: 94be 913d 36ab 0a3d 1049 393e b8c7 8f3c
00000040: 5a18 f63d 6c4b 453e 0c29 fbbd ec73 25be
00000050: 4983 64be 77f8 d2bd 414f 193c ae70 3abe
00000060: ac02 c8bd 97eb 82bd a659 523e de1a ae3b
00000070: cd58 0b3e 52cc ec3d b636 75bd c3d7 233e
00000080: 3d10 9ebd 6a13 583c d71b 66bd 1e6d 823d
00000090: 885a f0bc ecac 073e 80d8 ac3d dc1a 3b3c
000000a0: 035e ffbd 0cba 54be 9e18 e6bd 7571 d9bd
000000b0: dfe8 163c 50a0 943d a125 a33c 0a36 db3c
000000c0: 15f6 263d 2a83 323e 5a43 953d 7637 1cbe
000000d0: a131 8fbe 717a 09be 5368 95bd baac 053e
000000e0: 4d25 a23c a0e7 20be a059 6abe ac74 e23c
000000f0: 3def bfbd fe37 1cbe 6a1a 113e 63fe 4c3d
00000100: 446a 87bd 1ed2 823d 13fe 143d e2bc 653c
00000110: d465 d8bc a61f d13d 155f 46be dee9 d43d
00000120: 6a59 0cbe 7f9d febd 1700 6dbd 7e3d d1bd
00000130: d13c 82be 390f 0fbe 5ac1 173e 5556 9e3d
00000140: 8fbd 3d3e dc74 0fbe 9140 55be b2c5 933c
00000150: db76 ce3d df11 133d a018 03be ebdc 61bd
00000160: 645e 033e ba25 81bd 7eb5 ff3d d068 9abd
00000170: 972b 74be 752d bbbd 7906 233e ad7d 3e3e
00000180: c89c a1bd 5af9 853d a8cf f2bd 17a7 70bd
00000190: fe16 a13d 1a1d 43be 5e5d e1bd 9325 19be
000001a0: 897f 2dbe 896b 8dbd 8f64 b3bd 4952 d13d
000001b0: d90e 33be 5451 173e 3d85 353e 2cc6 5ebe
000001c0: fbbe 82be e023 013d ab05 cb3d 8e18 5d3e
000001d0: 0d6a 0fbe 93ab 61be 1074 b1bd 6237 9cbd
000001e0: d4a0 39bd 94f3 0ebe f454 f33d 26e8 1d3d
000001f0: d5c9 603e 099c 05be da9d 19be a56c b33c
00000200: 6e17 57be a818 743e ae05 0ebe a62f 30be
00000210: dc67 cbbd 44d5 203e f2b5 723c ed01 c93d
00000220: 57f4 29ba c573 e93d 134f 9b3d 7b94 253e
00000230: 7b82 1abc f5a5 23be 42cd 1b3e 27b3 69bd
00000240: b918 5d3d e98c 6dbd 9f5d d5bd c5f1 34be
00000250: 0402 90bc f778 e43d ac76 12be f8e8 24be
00000260: fabe b33c ec03 19bd bb2d 4bbe 0e3b d4bc
00000270: 943b 2f3e 5090 cc3d 91c7 3abd 32aa 173e
00000280: f0c5 0bbe 39f3 41be 7cce 7d3d fe9a f53d
00000290: 6186 6fbd 3f92 4fbe b210 cebd a931 493e
000002a0: c1ae 143e 2224 01be 4568 4a3d 597c 0cbe
000002b0: 7878 f43d c0bd 293e 7f72 febd 291c b13c
000002c0: 2191 59be 9e65 783e 0e9c c93d 52b8 b23c
000002d0: a0a1 54be 5db3 393e b005 693e 68d7 d2bd
000002e0: 2814 c6bc f6dc eebd 7269 2cbe f379 08be
000002f0: 5c0e abbc c3a0 4a3e a142 9b3d 9c0c 0e3e
00000300: 257c c83d 778d 133e 0c99 32be 11e9 e53d
00000310: ea1c 3e3e c68d 0d3e 2700 0e3e 10fd 03be
00000320: ef20 6bbe 96c9 853d aaeb 0c3e f41e bdbc
00000330: 3dd1 633e 312f 14be 36e8 39be 986a 10bd
00000340: 9dd1 833e b840 243d 0ddf 0fbe 70f0 14bd
00000350: 56d4 99bd 052b 883d 3600 21bd 85ba f13d
00000360: 7897 353e 76c2 2fbe a4d8 29be 1568 aaba
00000370: eed5 8fbe 489e 2d3e 27af 0d3e 20be 3bbe
00000380: 4a70 5c3e 4fbe a43c 9d1a 6abe 4670 5d3e
00000390: d9e7 c9bd 1934 143d 0277 7bbb 7679 78be
000003a0: 1ca0 a3bd 5e99 3fbe 943c 94bd 8cab fd3d
000003b0: 08ab 993d 8c2d 6ebe 86eb b7bd 6265 b4bd
000003c0: efd8 fc3d f9b1 0fbe 0332 3b3e 81d2 8cbd
000003d0: c650 803e 554d acbd 4984 1abe 173d 463e
000003e0: f83d 21be d5a4 7d3e e6a2 36bd a7a3 f5bd
000003f0: 2a57 eebd 6b9d 11be 4312 453e 0042 12be
0.022873526 0.026638499 0.110809386 0.20595932 0.10657642 0.008802615 -0.09875497 -0.020901695
-0.06359181 0.10999193 0.19867514 -0.20746487 0.07116428 0.033854686 0.18094277 0.017551288
0.120163634 0.19267052 -0.122636884 -0.16157502 -0.22315706 -0.10301297 0.0093572745 -0.18207046
-0.097661346 -0.063925914 0.2054201 0.0053132614 0.13608094 0.115624085 -0.05986663 0.16000275
-0.07717941 0.013188222 -0.056178894 0.06368469 -0.029340044 0.13249558 0.084397316 0.011419978
-0.12469103 -0.20774096 -0.11235164 -0.10617343 0.009210794 0.0725714 0.019915404 0.026759166
0.040762026 0.17432848 0.07288237 -0.15255532 -0.2796755 -0.13425614 -0.07295289 0.13054171
0.019793177 -0.15713358 -0.22885752 0.027643524 -0.09371803 -0.15255734 0.14170232 0.05004729
-0.066120654 0.06387733 0.036375117 0.014022084 -0.026415743 0.102111146 -0.19372208 0.10396169
-0.13705984 -0.12432384 -0.057861414 -0.10216807 -0.25437024 -0.1397065 0.14819852 0.0773131
0.18529342 -0.14009422 -0.20825411 0.018038604 0.10081264 0.035905715 -0.12802362 -0.055142324
0.12828976 -0.06306024 0.12485789 -0.07539523 -0.23844753 -0.091395296 0.15920438 0.18602629
-0.07891232 0.06541701 -0.118560135 -0.0587531 0.078657135 -0.1905407 -0.110041365 -0.1495574
-0.16943182 -0.06905276 -0.087594144 0.10220773 -0.17486133 0.14777118 0.17726608 -0.21755284
-0.25536332 0.031528354 0.099131905 0.21591398 -0.14005299 -0.22038107 -0.08664715 -0.07627751
-0.045319393 -0.13960105 0.11881438 0.038551472 0.21951993 -0.13047804 -0.15001622 0.021902392
-0.21005031 0.2383753 -0.13869354 -0.17205676 -0.09931919 0.15706354 0.014813887 0.098148204
-0.0006483248 0.113990344 0.075834416 0.16169922 -0.009430523 -0.15981276 0.15215018 -0.05705562
0.053978655 -0.05799571 -0.104182474 -0.17670353 -0.017579086 0.11155885 -0.14303082 -0.16104496
0.02194165 -0.037357256 -0.19841664 -0.025907066 0.17112571 0.09988463 -0.045600478 0.14811018
-0.13649726 -0.18940438 0.061964497 0.11992453 -0.058477763 -0.20270632 -0.10061778 0.1964785
0.14519788 -0.1261144 0.049415845 -0.1371931 0.1193704 0.1657629 -0.12424182 0.021619873
-0.21246769 0.24257514 0.09844218 0.021816406 -0.2076478 0.18134828 0.22756076 -0.10294992
-0.024179533 -0.11663239 -0.16837099 -0.1332777 -0.02088087 0.19787888 0.07581068 0.13871998
0.09789304 0.14409433 -0.17441195 0.112260945 0.18565717 0.13823614 0.13867246 -0.12889504
-0.22961782 0.0653259 0.13761774 -0.023086049 0.22247787 -0.14471127 -0.18154988 -0.035257906
0.2574586 0.040100783 -0.14049931 -0.03636211 -0.07511203 0.0664883 -0.03930684 0.11803154
0.17733562 -0.17164025 -0.16586548 -0.001300099 -0.28092903 0.16954911 0.13836347 -0.18334246
0.2152721 0.020110277 -0.22861715 0.2162486 -0.098586746 0.036182497 -0.0038370495 -0.24265084
-0.07989523 -0.18710849 -0.07238117 0.123862356 0.07503325 -0.23259562 -0.089804694 -0.088084
0.12346064 -0.14032735 0.18280797 -0.06876088 0.25061625 -0.084131874 -0.15089525 0.19359241
-0.15746295 0.2476991 -0.044588946 -0.11994105 -0.11637719 -0.14220206 0.19245248 -0.1428299

nnECG.0.bias f4 [128]
00000000: 89e4 8e3b d9de 98bb 27fa 793b 292e 993b
00000010: d49b 9f3c dbe0 e73a 2753 083d 2b39 113b
00000020: 04cc e23c 3e04 52bc 6522 d73c 3ef6 f6bb
00000030: 02b5 733c 939a 8cbb 759a ba3c e8a5 12bb
00000040: 2840 1fba d432 7db9 8032 913c b06c bb3c
00000050: 2b15 ad3c 165b b63c d3dc e13b b503 a43b
00000060: a0e8 403b 8d44 85bb 0ec7 193c 7d88 f3b7
00000070: 228d 1b3c 0e56 2e3c d386 61bb a090 f23b
00000080: 6f36 1a3b 76a1 8bba 3a21 8e3b e8d1 363c
00000090: b211 d93c 3993 653c d538 413c 5757 a93b
000000a0: 9d20 603c 9998 393c f484 b73b eb76 a03c
000000b0: c4aa 53bb d23e b53c 88aa 493c 4cde 8f3c
000000c0: 509e 8f3c 1581 9d3b b72b 1bbc f123 9c3b
000000d0: 1d12 d13b ac18 f6bb 07f2 c03c 73fb a33c
000000e0: e732 bb3c cf1f 733c f2d8 063c 2f69 6dba
000000f0: 3988 193c 8e5f 123c 1c38 e23c 79c3 973c
00000100: 1c2e 3fb8 6780 97bb 64d9 00bb baee 97bb
00000110: aa1d 963c 3cd4 a1ba 3e74 383b ee9f 6cba
00000120: 1d37 a23b a766 aa3c 56be 393c f84b 253c
00000130: cdb2 893b 81e0 2fbb eaba e83b 4a4f 8a3c
00000140: 4865 f63b f319 be3c eb62 953c 51fd 30bc
00000150: c008 0e3d 44fc 133c 4949 773c 4a91 6f3c
00000160: dc5e 823c e280 0b3c 6985 523b 6325 b13c
00000170: c7c6 733c 8944 fb3b d4fe 17bc 4502 0dbc
00000180: b5f7 b43c 6973 a2bb c3e1 1c3c 309f 65ba
00000190: 5af0 213c 1c52 8e3c 16a8 d23c 22f4 eebb
000001a0: cfa1 9d3c 2474 593c da9b b3ba ed02 cf3c
000001b0: c75b ea3b ab26 ce3b 073d 563c 5e73 c03b
000001c0: 4fad 123c cc5f c63c 7f3b 953c a400 523c
000001d0: 2e73 973c fb7f ce3c b7f2 81bc f8dd 883c
000001e0: e9d3 883b 89b5 db3c 0152 05bb 0db5 053b
000001f0: 1aaf 803c 601b 833c 2195 893c 4625 e7b9
0.0043607396 -0.0046652374 0.0038143487 0.004674692 0.019483484 0.0017690914 0.033282425 0.002215932
0.027685173 -0.012818394 0.026261518 -0.0075366786 0.014874699 -0.0042908876 0.022778729 -0.002237672
-0.00060749287 -0.00024146895 0.017724276 0.022878975 0.021128258 0.02226023 0.0068927794 0.0050053247
0.002943553 -0.00406701 0.009385837 -2.9031415e-05 0.009494098 0.010640634 -0.0034412637 0.0074024945
0.002353098 -0.0010652978 0.004337457 0.011158444 0.026497696 0.014012151 0.011793335 0.0051678824
0.013679651 0.011327886 0.005600566 0.019587955 -0.003229783 0.022124682 0.012308724 0.017562054
0.017531544 0.0048066475 -0.009470872 0.0047650267 0.006380333 -0.0075102653 0.023552908 0.020017361
0.02285142 0.014839127 0.008230435 -0.0009056506 0.009370857 0.008933915 0.027614646 0.018525826
-4.558089e-05 -0.004623461 -0.0019660825 -0.0046366127 0.018324692 -0.0012346576 0.0028145458 -0.0009026517
0.0049504177 0.020800902 0.0113368835 0.010088913 0.004202223 -0.0026836696 0.00710236 0.016883511
0.007519398 0.023205733 0.018235644 -0.010802583 0.034676313 0.009032313 0.015093156 0.014622042
0.015914373 0.008514615 0.0032122976 0.021624273 0.014878935 0.007668082 -0.009277064 -0.008606498
0.022090772 -0.0049576056 0.00957531 -0.00087593775 0.009883964 0.017373137 0.025714915 -0.0072922865
0.019242195 0.013272319 -0.0013703064 0.02526995 0.007152054 0.0062912307 0.0130760735 0.005873128
0.008952453 0.024215601 0.018216847 0.012817536 0.01848754 0.02520751 -0.015862806 0.016707405
0.0041756523 0.026819961 -0.0020343068 0.0020402104 0.015708495 0.016004264 0.016794743 -0.00044087524

nnECG.1.weight f4 [128]
00000000: 7b42 933f a834 843f e3b9 863f ddae 853f
00000010: 8e1d 803f 6ec5 7b3f 3353 8c3f a098 8a3f
00000020: b903 8e3f dc3f 843f 02d2 833f 8235 853f
00000030: e399 823f 75a7 6e3f 7e1b 903f 99e0 813f
00000040: 1a5a 863f c3d8 873f 1b25 8b3f c540 7c3f
00000050: 5b17 883f 21e1 8e3f eb05 833f 7439 853f
00000060: 0684 733f b7b5 743f 1dec 963f ba4d 813f
00000070: 65a6 783f 662c 873f 2b60 7a3f 2a4c 793f
00000080: 1b88 833f 8b59 7e3f 7fb2 713f 233f 8c3f
00000090: 5783 8b3f 1db1 763f 22a3 803f 741b 8d3f
000000a0: 6d99 8a3f 754c 843f 9a99 883f 23c1 8a3f
000000b0: 1a38 873f 0b37 843f 8ca5 893f f2f8 833f
000000c0: 8e4a 833f 68b6 923f 6d46 913f 3a61 833f
000000d0: 5621 853f 382e 823f 4d51 833f 9039 833f
000000e0: f6b1 913f 6ed7 823f 02a1 823f 1b30 873f
000000f0: 63a7 803f 1453 863f 87e6 873f 9c2f 803f
00000100: 62fa 713f e9cf 873f 37f7 733f 7d65 7b3f
00000110: 920c 833f 5724 8b3f 3a35 723f b0e0 843f
00000120: f5bb 893f c240 833f 7574 803f 030c 843f
00000130: b239 7c3f d0f6 8d3f d808 7a3f 4a83 883f
00000140: 4c3f 833f 48d3 843f 00ec 8b3f 4ad3 863f
00000150: d2a0 843f ce71 8d3f fcca 7c3f d56e 803f
00000160: 165f 8e3f 0eaa 893f 7a71 8e3f cc0c 803f
00000170: 3444 7b3f 0b9e 833f c1f4 813f d80e 8c3f
00000180: 6865 883f 125d 8c3f 69d0 8a3f 6a47 823f
00000190: dc67 7a3f a3c1 803f 02ca 843f 80e7 843f
000001a0: a183 8e3f de53 8a3f 8211 8e3f 89ef 8f3f
000001b0: 36a7 7c3f cd4e 8a3f 699d 8e3f aa04 873f
000001c0: f94f 863f 81ae 8b3f da88 8d3f a51c 8a3f
000001d0: 66a7 863f c38e 843f f59f 753f 4044 8e3f
000001e0: c0c6 813f 591d 8b3f 626a 873f 4374 883f
000001f0: 4b8f 813f 659c 803f 5198 903f aaac 893f
1.1504663 1.032857 1.0525478 1.0443989 1.0009019 0.9834813 1.096289 1.0827827
1.1094886 1.0331988 1.0298464 1.0406954 1.0203212 0.9322427 1.125839 1.0146667
1.0496247 1.0613025 1.0870699 0.9853633 1.0632128 1.1162454 1.0236181 1.0408158
0.95123327 0.95589775 1.1790806 1.0101845 0.971289 1.0560424 0.9780299 0.9738184
1.0275911 0.9935538 0.9441299 1.0956768 1.0899457 0.96364003 1.0049784 1.1024003
1.0828072 1.0335833 1.0671875 1.0840191 1.0563996 1.0329298 1.0753646 1.0310347
1.0257127 1.1461916 1.1349617 1.0264046 1.0400798 1.0170355 1.0259186 1.0251942
1.1382434 1.0221994 1.0205386 1.0561556 1.0051082 1.0494103 1.0617226 1.0014529
0.9452268 1.0610324 0.95299095 0.98201734 1.0238211 1.0870465 0.9461247 1.0381069
1.0760485 1.0254138 1.003554 1.0316166 0.98525536 1.1090946 0.97669744 1.0665066
1.0253692 1.0376978 1.0931396 1.053323 1.0361578 1.1050355 0.9874723 1.0033823
1.1122768 1.0755022 1.112838 1.0003905 0.98150945 1.0282606 1.0152818 1.094203
1.0655947 1.0965903 1.0844852 1.0178044 0.97814727 1.0059093 1.0374148 1.0383148
1.113392 1.0806844 1.1099093 1.1244975 0.98692644 1.0805298 1.1141788 1.0548298
1.0493156 1.0912629 1.1057389 1.0789992 1.0519836 1.0356067 0.959472 1.1114578
1.0138779 1.0868331 1.057934 1.066048 1.0121855 1.0047728 1.1296483 1.0755818

nnECG.1.bias f4 [128]
00000000: e0b9 e5ba 22d6 73bc df3d ccbb 38b6 8c39
00000010: e4b6 653c 5596 9dbc a197 e63c a063 8eba
00000020: 325a b13c 6432 01bd 89d8 92bb 274e a1bc
00000030: 5209 c03b 58d8 9aba e87d 1a3c fe75 0cbc
00000040: 9c2d 21bb 4712 88bc 2116 333b b77f d43b
00000050: bc23 873c 5c7e 263c 1441 153c a180 31bc
00000060: 2c47 413b 438f 43bc ac77 0f3c f866 21bb
00000070: 3aaa 54bc a1fc d43a cf88 e2bb eb86 5bbb
00000080: 2fe7 32bc 2283 0ebc 1ecc 59bb 12d9 d23b
00000090: 31ac 4a3c 5921 c1bb c5cf 14bc 4278 24bc
000000a0: 853f 043c ee90 743a a38e d2bb ecc7 16bc
000000b0: 4294 48bc 2ff5 0c3c bd2f 203c 3c66 0dbb
000000c0: 8014 2c3c e5b8 dfbb e3bf 58bc f1cb bfbb
000000d0: 877d 24bc 0da4 95bc b307 043c 92f9 3a3c
000000e0: 3443 843c d611 e33a 21f6 c83b 3dce 3abc
000000f0: f97e 37bb 17b5 22bb 2fbd a43c c17a cbbb
00000100: 2cfe 96bc 9456 37bb d68b 7bbc 846c 6fbc
00000110: 5922 673c 32eb 65bc 7d0f 8cbc 3b08 14bc
00000120: 32ec 2abb 06c0 463c 327e dc3a 1f3f febb
00000130: 8e5d 85b9 985e 88bc cb93 91ba 02cf 733c
00000140: f87a 70bc 34a3 6d3c 83c9 2f3c c0a1 61bc
00000150: 6a9d 053c 27da a83c cc62 bc3b 4311 c53a
00000160: c130 8e3c 1cb3 483b 6540 55bb d9cf 183c
00000170: 66db bd3b 5e8d 95bb 21ba 32bc a3e4 5bbc
00000180: 5327 af3b a909 81bb 0190 2fbb 3af7 94bb
00000190: 200d b4bb 1e33 2c3c 1912 183c 903c a0bb
000001a0: 6f72 4d3b ed10 743b 5b3b 59bc 208e 7e3c
000001b0: 53ee 2fbb e38b 53bc 1e2c 1d3c 2340 3dbc
000001c0: c560 6c3a 982c 713a ac26 9e3b 852c 343c
000001d0: 8a8e c23b f908 7c3a 6717 bcbc bb2e 44ba
000001e0: 420d 54bc 45b9 933c 49ca 41bc e1e1 24bb
000001f0: a5a5 b3bb 5e0b e33a 9792 8a3a e2b7 03bc
-0.0017526709 -0.014882596 -0.0062329615 0.00026838644 0.014020655 -0.019236723 0.028148474 -0.0010863431
0.021649454 -0.031542197 -0.0044813794 -0.019690586 0.005860486 -0.0011813743 0.009429432 -0.008573053
-0.0024593836 -0.016610278 0.0027326422 0.0064849514 0.016496532 0.010161962 0.009109754 -0.01083389
0.0029491885 -0.011936012 0.008756559 -0.0024628025 -0.012980038 0.0016249606 -0.0069132815 -0.0033497165
-0.010919376 -0.008698257 -0.0033233236 0.006434568 0.012370155 -0.005893868 -0.009082739 -0.010038437
0.008071785 0.00093294575 -0.006425695 -0.0092029385 -0.012242379 0.008603378 0.009777007 -0.002157583
0.010502934 -0.006827461 -0.013229343 -0.005853169 -0.010039694 -0.018266702 0.008058476 0.011412041
0.016145326 0.0017324041 0.0061328565 -0.01140171 -0.0027999266 -0.0024827176 0.020109741 -0.0062097018
-0.018431745 -0.0027975189 -0.015353164 -0.0146132745 0.01410731 -0.014033126 -0.01709723 -0.009035165
-0.0026080725 0.012130743 0.0016822277 -0.0077589895 -0.0002543744 -0.016646668 -0.0011106668 0.0148808975
-0.014677756 0.014504243 0.0107291965 -0.013771474 0.008155206 0.020611836 0.005749082 0.0015035052
0.017357232 0.0030624336 -0.0032539603 0.0093268985 0.0057939766 -0.0045639714 -0.010908634 -0.01342121
0.005345264 -0.003937919 -0.0026788714 -0.0045460733 -0.0054947287 0.010510234 0.009281659 -0.004890032
0.0031348725 0.0037241534 -0.01325878 0.015536815 -0.0026844933 -0.01291177 0.009593038 -0.011550936
0.00090171053 0.00092000654 0.0048263874 0.010996942 0.005937402 0.0009614374 -0.022960378 -0.000748377
-0.012942614 0.01803268 -0.011828014 -0.0025159048 -0.005482393 0.0017322113 0.0010572252 -0.008039447

nnECG.1.running_mean f4 [128]
00000000: d754 603e 5612 7dbe 84b4 bcbc 18bd 1cbe
00000010: 33e8 bebe 5b12 1dbd 9d95 a7be c9b0 15bd
00000020: 1e92 21bf 7773 2dbe feab a6be 5191 6a3e
00000030: ba8d acbe eb7f cfbd c1d6 253e 0234 c2bd
00000040: c99c 383e fdc9 9ebc e98b 733e a665 e1be
00000050: a9df ab3c b8d3 233d d9a0 893e 8f90 e8bd
00000060: 642c 91bd 5bd2 413d 5a1c 8b3e 1ece 66be
00000070: 549e 0f3e e33b 11be 86a7 16be 4eb5 363e
00000080: 7e4f 3a3b 8d00 523e 8b5a fcbe a0f6 d73d
00000090: 173b f0bd 1f7f b23c a041 6bbe 3d5a 88bb
000000a0: c5fc b83e 4952 363e cd44 f03e 935f d7bc
000000b0: c162 bd3e 3ff9 bfbe 8d7b ecbd 6b06 913e
000000c0: 33af 9fbc 1c4b bf3e 541a 133f f270 a83e
000000d0: a948 233e 6480 763e 9fd2 07bf 2683 00bf
000000e0: 816b ad3d e5a6 03be 38f0 48bd 2d11 2d3e
000000f0: ea11 0bbe 81ba af3e 503d 79be 0cbd a93e
00000100: ee50 2abd 6c66 133e 95b0 163e 0784 193c
00000110: a232 02bf f4cd 82bd a768 ed3e 02b3 12be
00000120: bfb1 153d 53fb 24be cc5f 1c3e eb69 e03d
00000130: fd9e c03d 936f 413e 71ad 9b3d 5dff 853d
00000140: e6bf 0c3f 91c8 33bd 41e7 5cbe ba62 873e
00000150: b818 dfbe 170e 9fbe cfe3 683d 1ddf fabd
00000160: 5654 9abe 0046 f8be 120c 883e d866 86bd
00000170: 0b8b 8dbd 1672 cebc 3bc4 7cbe 5fb9 043f
00000180: 5307 ae3d 424b aebe 8b38 a7bd cfd8 c5be
00000190: 6f45 9b3c fed4 803e 3139 b5be 03e8 91bd
000001a0: 74ed 893d 0809 f63e 7d4b 7fbe f5d6 02be
000001b0: 3faa 273d 7070 c93e 68f8 3b3d b1be e0bd
000001c0: 00e1 093e db75 bcbd 995f 903e 93f9 933e
000001d0: f9e9 573e f6fd 8ebe b9d2 013f 59bc 8a3c
000001e0: 877a 8dbd 1f44 6a3d 341a 823d 37a4 7d3e
000001f0: 7383 bb3e d334 72bc b396 adbe b50a 003e
0.21907364 -0.24714026 -0.023035295 -0.15306509 -0.3728653 -0.038347583 -0.32731333 -0.03654555
-0.6311358 -0.16938578 -0.32553095 0.22906996 -0.3370188 -0.1013182 0.16195203 -0.09482576
0.18028559 -0.019383425 0.2378384 -0.44022864 0.020980673 0.039996833 0.2688053 -0.11355697
-0.07088545 0.04731975 0.27170068 -0.22539565 0.14025241 -0.14183001 -0.14712343 0.178426
0.0028428729 0.20508023 -0.4928783 0.10545087 -0.117300205 0.021789132 -0.22974253 -0.004161148
0.36130348 0.17804827 0.4692749 -0.02629069 0.36989406 -0.37494847 -0.11547003 0.2832521
-0.019492721 0.3736199 0.5746205 0.3289867 0.15945686 0.24072415 -0.5305576 -0.50200117
0.0846777 -0.12856634 -0.049057215 0.16901083 -0.13581052 0.3432198 -0.24339795 0.33152044
-0.041581087 0.1439454 0.14715798 0.009369857 -0.5085851 -0.06386939 0.46368906 -0.14326099
0.036546465 -0.16111498 0.15270919 0.10957702 0.094053246 0.18890218 0.07601441 0.06542847
0.54980314 -0.043892447 -0.21572591 0.2644251 -0.43573546 -0.31065437 0.05685788 -0.12249587
-0.30142468 -0.48490906 0.2657171 -0.06562585 -0.06911286 -0.025200885 -0.24684231 0.51845354
0.08497491 -0.34041792 -0.081650816 -0.38641974 0.018954007 0.251625 -0.35395196 -0.07124331
0.06734744 0.48053765 -0.2493114 -0.12777312 0.040933844 0.39343596 0.045891196 -0.109738715
0.13464737 -0.09202167 0.28197935 0.28901348 0.21085347 -0.27928132 0.5071216 0.016935514
-0.06908136 0.05719387 0.06352654 0.24769674 0.36623725 -0.014783102 -0.33904037 0.12504084

nnECG.1.running_var f4 [128]
00000000: 1a94 943d d28b 943d 27b0 9c3d 4892 953d
00000010: 84d1 963d 43b5 953d 3781 9b3d cd33 953d
00000020: 2c9a 953d 075a a33d 4111 953d 7fbe 9a3d
00000030: 31f6 943d f60e 973d 7955 983d 148d 963d
00000040: 7213 963d 759c 973d ead7 973d cadd 943d
00000050: 85ba 983d 73ab 9a3d 96ab 963d fa6d 943d
00000060: 7dc7 933d 3ad5 953d b134 a43d e03a 943d
00000070: 69d2 983d 0234 943d 0ee8 933d b4b0 953d
00000080: 84f0 963d f958 993d efcc 933d f02f 973d
00000090: 956b 953d 62c5 963d 863f 983d 7cad 983d
000000a0: 027c 973d 1e2d 973d 2353 963d a16a 953d
000000b0: da17 9e3d d029 963d ed02 943d 4c14 953d
000000c0: fbf2 963d 1fa7 943d 60ce 943d aa1a a03d
000000d0: 7078 963d 1af9 973d e4cc 933d db7f 953d
000000e0: cd9a 963d b2ae 973d 8b58 963d a0f5 963d
000000f0: d947 953d ba8a 973d 7f03 9c3d 0d90 943d
00000100: 5d80 953d ab76 963d bf1b 973d cc22 983d
00000110: aaa3 953d b8ef 953d 132e 953d 3c2a ab3d
00000120: 1ff4 953d 445e 953d d638 963d b028 963d
00000130: 7b62 983d 1b0b 953d ea25 983d 0542 943d
00000140: 331b 943d d8b2 953d 83fd 9b3d 554b 9c3d
00000150: 81d9 933d b599 963d 855e 963d 56a2 943d
00000160: 5196 9b3d add2 9a3d efbb 943d 240c 963d
00000170: 1ba8 933d d529 983d 88a7 a03d 3293 983d
00000180: f297 963d 353f 973d b8a2 943d 8861 943d
00000190: 3324 963d e563 953d 5f00 943d 76ec 963d
000001a0: 4fc3 953d 7a5a 963d db47 953d 42a8 953d
000001b0: 3006 953d 3925 963d b44f 9d3d 601e 993d
000001c0: 9f82 973d fca1 9b3d 5937 973d e062 953d
000001d0: eec3 973d 8d67 9d3d 47f8 9a3d af19 973d
000001e0: 8464 983d 50c6 993d 62dd 953d f1ed 9c3d
000001f0: e699 9c3d 7d1d 963d 2626 953d 5260 943d
0.07254811 0.07253231 0.07650786 0.073032916 0.07364181 0.073099636 0.07593005 0.07285271
0.073047966 0.07976156 0.072786815 0.075558655 0.0727352 0.073759004 0.074381776 0.07351127
0.07327928 0.07402889 0.07414229 0.072688654 0.07457451 0.075522326 0.07356946 0.07247539
0.07215784 0.0731606 0.080178626 0.07237792 0.074620076 0.07236482 0.07221995 0.07309094
0.073700935 0.07487673 0.07216822 0.0738219 0.0729591 0.073618665 0.07433991 0.074549645
0.073966995 0.07381652 0.07340076 0.072957285 0.07719393 0.07332194 0.072271205 0.07279262
0.073705636 0.07258438 0.072659254 0.07817586 0.073471904 0.07420559 0.07216814 0.07299777
0.07353745 0.07406367 0.07341107 0.07371068 0.072890945 0.07399507 0.07617854 0.07254038
0.07299874 0.07346853 0.07378339 0.07428512 0.07306607 0.07321113 0.072841786 0.08357665
0.07321953 0.0729337 0.07335059 0.07331979 0.07440659 0.07277509 0.074291065 0.07239155
0.0723175 0.07309502 0.07616713 0.07631556 0.0721922 0.07353536 0.07342247 0.072575256
0.0759703 0.075597145 0.07262408 0.073265344 0.07209798 0.07429854 0.07844454 0.0744995
0.073532 0.07385103 0.07257599 0.07245165 0.07331123 0.07294444 0.07226633 0.0736932
0.07312643 0.07341476 0.07289096 0.07307483 0.07276571 0.073313184 0.07681218 0.07476497
0.07397961 0.075992554 0.073836036 0.072942495 0.074104175 0.07685766 0.075668864 0.07377946
0.07441047 0.07508528 0.07317616 0.07662571 0.07646541 0.07329843 0.07282667 0.07244934

nnECG.4.weight f4 [64, 128]
00000000: dc39 aabd 7da4 643c e0c7 79bd 1366 c23d
00000010: 484f 8ebd 212a 0f3e 7f83 dc3d ed76 e43d
00000020: 2e6e 1c3e 8ef6 a7bd 13b2 053e 6326 f23c
00000030: 0431 bdbc 61e9 1ebe cd0e 53be 9766 ab3d
00000040: 6697 233e 5563 87bc c95b f63d ce4b 293e
00000050: 2e09 7a3c 3caa 923b bfb8 1b3d 0695 e8bd
00000060: 633e a6bd d6bf 0dbd e828 8f3e 34a9 b3bd
00000070: 20f3 103e d5d4 813d 2f76 193d f801 6b3e
00000080: 1f5a 37bd db28 bcbd 690c c03c cb95 9a3d
00000090: 76f6 743e ac65 093e 7edb 143e 59c9 003e
000000a0: ed60 de3d 719c 05be ee65 5f3e f5a0 c0bd
000000b0: 7ff0 d53d 6b7f 4dbd 9aaa 263b d70e 293d
000000c0: fc8d 65bc d068 903d 18d8 863d 0b78 0c3e
000000d0: 35e5 3dbe 95e3 22be c2df d13d 5a33 a6bd
000000e0: 61b5 b53d 2536 3d3e 69db a3bd ebbd dbbc
000000f0: 1972 04be 3258 bebb 630f c1bd 7038 6c3d
00000100: ee25 293e 33ff 4abe c0fb 1b3c ab17 85bd
00000110: 1c3c 793d 125d c0bd a174 8f3d a035 19bc
00000120: 5b8c 333d fc6d 473d 590d 9d3d a4a6 02bc
00000130: 706e 4c3e 95ed acbd aa77 143e f906 6d3e
00000140: 4942 dfbc 6fff 133e 4dbc 023e 046a 8a3c
00000150: deb0 613e 8f12 f2bd 1f96 d9bd 7787 f13d
00000160: f39f 983e cdcd 963d 5d8e bb3d f2fa 323c
00000170: 8178 1a3d 7d20 863d b398 28be face 203c
00000180: 6688 673e 8d47 35be 8707 41be 1135 f83d
00000190: c0eb 40bd c7cc 64bd 9e08 8f3c cf21 4d3e
000001a0: 55ed 253d 0fd3 f7bc e1c0 13bd 3aa3 cfbd
000001b0: 3126 09be 7b77 d1bc b2d8 d63d 3806 a1bd
000001c0: b611 233e c128 513e be19 23be fd86 013e
000001d0: 9229 003e e318 293e 4504 a7bd bbab 5cbd
000001e0: 42c2 44be c069 773e 3066 733c 3069 3bbe
000001f0: b134 903c 46fa bbbd ed2e 0fbe 28af 01be
00000200: 7382 d63b 3822 17be 92b2 67be fdf3 6d3e
00000210: 6046 973d bacd 18bc 85bf 153e 95c9 083c
00000220: 861f 823e a930 7b3d c6b1 4ebd 4c3c 91bc
00000230: e269 ac3d 61e9 a53d 6fe4 88be d6f4 33be
00000240: 0d8b 623e 0098 bcbd a488 693c 2cba 173e
00000250: caed f2bd 4cd2 4f3c 712f bcbd 753b 30bd
00000260: a9b5 afbd c6c3 c83d 43ab 863e 3656 35be
00000270: 9bd7 0abd 4256 dbbb 202f b53d 083d c6bd
00000280: 1e9d 8c3c 07ba 513b 0aa2 203c c65e 7a3d
00000290: bc26 b83d 4271 eebd 3656 d0bb 15ee 493d
000002a0: c7c4 1e3e 7683 01bd 349e dfbd 231d 13be
000002b0: 1341 f73c 5efd 88bd 2720 f3bd 06da 4cbd
000002c0: f3f0 9b3d f3dd 4dbe 6169 51bd d4e5 2c3d
000002d0: aec2 ecbd 83fb 033e 7bb2 813d 3f64 88bd
000002e0: 0da2 0cbe 96f2 193e ffcc 4a3c fbc1 eb3c
000002f0: 1493 bebd 19b2 58be 7858 eabd 796e 713c
00000300: 0263 7ebd e9cc ca3d 6999 373d 9f0f 12bd
00000310: 5000 d2bd fe94 8c3d 7005 773d 94d0 86bd
00000320: 3247 753e bf95 b23d 021f 0fbe 91c7 c43c
00000330: ebcb 203e 826d 03be 5faf f4bd 4fba ca3b
00000340: 0a74 cebd 3129 91bd 366b 2bbe 0a1b 64be
00000350: 62a2 1e3e bcd7 c3bd 180d 943d 3fb9 82be
00000360: 0b67 ae3a 1012 3c3e 4172 9dbd 99d2 153e
00000370: 22d0 29be 92b8 06be 4b03 4bbe e8aa e2bd
00000380: 260a 503e 204c 6dbe bfa3 0cbe 1eec bd3c
00000390: 540f 953d ce3e f53d 5e84 22bd 8ded b33a
000003a0: 75c6 0ebd 25d0 39bd 9f45 1bbe 9f61 cdbd
000003b0: 82a7 85bd 2f0d 35be 8f2a 1b3d 8921 17be
000003c0: af70 e23d 00e2 c93d eba3 383c 218f 2a3e
000003d0: a686 b73d 697b 1b3e 5f74 5abc ba43 5fbd
000003e0: a3a4 29be 2c7e 143e ee8f a23d 3ca8 dd3d
000003f0: 8f2c 49bc f24a cf3b b2dc 1ebe 7243 383d
-0.08311817 0.013955233 -0.06098163 0.09492125 -0.069487154 0.13980915 0.107672684 0.11155496
0.15276405 -0.082013234 0.13056211 0.02955932 -0.023094662 -0.15518714 -0.20611115 0.08369177
0.15975723 -0.016526857 0.120292254 0.16532823 0.015260978 0.00447586 0.038017984 -0.11356549
-0.08117368 -0.034606777 0.27960896 -0.08772507 0.14155245 0.063394226 0.037466224 0.2294997
-0.04476368 -0.0918748 0.023443418 0.07548102 0.23922142 0.13417691 0.14536855 0.12576808
0.10858331 -0.13047959 0.21816227 -0.094057 0.104462616 -0.050170343 0.0025431276 0.041273918
-0.0140109025 0.070512414 0.06584185 0.13717668 -0.18544467 -0.15907128 0.102477565 -0.08115263
0.08872486 0.18477686 -0.080008335 -0.026823958 -0.1293415 -0.0058088535 -0.09426763 0.05767101
0.16518375 -0.19823913 0.009520471 -0.06498655 0.06084834 -0.09392752 0.07004667 -0.009351164
0.043835025 0.048688874 0.076685615 -0.0079743005 0.19964004 -0.08443753 0.14498773 0.23147191
-0.027253287 0.14452909 0.12767144 0.016896255 0.22040126 -0.11819946 -0.106243365 0.11793416
0.29809532 0.07363472 0.09158013 0.010924088 0.037712578 0.065491654 -0.164645 0.009814972
0.22610626 -0.17703076 -0.18850528 0.121194966 -0.04709983 -0.055859353 0.017460164 0.20032428
0.04050954 -0.030252008 -0.036072616 -0.10138555 -0.13393475 -0.025569668 0.1049055 -0.07862514
0.15924725 0.20425703 -0.15927789 0.1264915 0.12515858 0.165134 -0.08155111 -0.053874712
-0.19214728 0.24161434 0.014855906 -0.18301845 0.01760325 -0.09178595 -0.13982745 -0.12664473
0.0065463125 -0.14759147 -0.22626713 0.23237605 0.0738647 -0.009326393 0.1462384 0.008348842
0.25414675 0.061325703 -0.050462507 -0.017728947 0.08418633 0.08101154 -0.2673678 -0.17573866
0.22123356 -0.09208679 0.014253769 0.14817113 -0.11861761 0.012684416 -0.09188736 -0.043025453
-0.08579571 0.09802966 0.26302537 -0.17708668 -0.033897024 -0.0066936323 0.08846879 -0.096796095
0.017164763 0.003200175 0.009804258 0.06112554 0.08991763 -0.11642696 -0.0063579334 0.04929932
0.15504752 -0.03161951 -0.10918847 -0.14366584 0.030182397 -0.06688951 -0.11871367 -0.05001261
0.07614317 -0.20104198 -0.051125888 0.04221137 -0.1156057 0.12888913 0.063328706 -0.066597454
-0.13733692 0.15033945 0.012377976 0.02877902 -0.09305397 -0.21161689 -0.11442655 0.014735811
-0.06210614 0.09902365 0.044824038 -0.03565943 -0.10253966 0.068643555 0.06030792 -0.06582752
0.2395294 0.08719968 -0.13976672 0.024020942 0.15702789 -0.12834743 -0.11947512 0.0061867605
-0.100807264 -0.07087935 -0.16740116 -0.2227594 0.15491632 -0.095626324 0.0722906 -0.25531957
0.0013305856 0.18366265 -0.07687808 0.14631118 -0.16583303 -0.13156345 -0.19825475 -0.11067754
0.20316371 -0.2317357 -0.13734339 0.023183879 0.07278314 0.1197487 -0.039677016 0.0013727412
-0.034857232 -0.045364518 -0.15163277 -0.10028385 -0.0652609 -0.1768081 0.037882384 -0.14758886
0.11056649 0.09857559 0.01126955 0.16656162 0.08961229 0.15183796 -0.013333409 -0.05450795
-0.1656671 0.14501256 0.07937609 0.10823104 -0.01227869 0.006326073 -0.15513876 0.044986196

nnECG.4.bias f4 [64]
00000000: dea1 bc3c a334 c73b 43c8 5d3d 55b5 4c3c
00000010: 5a3b 8bbb a152 683d c4ef 6a3b 67ef bbbb
00000020: 19bf 893b 3467 083c 6d59 15bc bf9f 673c
00000030: 082e e43c fb3a e23c 98f7 17bd c3ee a63c
00000040: 7fe1 313b 368f 253c 69c6 133d e65c 3739
00000050: 5380 153d 48f4 903c 4503 f93c 8f4c 013c
00000060: 7d3c a13d 852b 653c f3ed 19ba fa47 9d3b
00000070: ea20 233c af09 9ebc fa98 da3b 53fd 6a3a
00000080: a526 c0bb 4a52 a43c 0b30 20bc e104 5a3d
00000090: b960 87bb d4d4 e73c 9b74 8e3c a264 f53c
000000a0: f518 d8ba fe3a 22bc 5951 6d3b 93e1 153c
000000b0: e36a 15bc 44f3 6f3a 5b39 eb3c 3b8b 803c
000000c0: 71c2 f03b cf15 81bc 8910 eabc 793b 7d3c
000000d0: 7995 09bc 3b67 6ebb bee1 30bc eb79 803c
000000e0: 8df6 313c b506 0c3c 474e 463c 7d08 943c
000000f0: 86f0 86ba 73c5 393a a04f 443d f88f 793c
0.023026403 0.006079273 0.054146063 0.012494405 -0.0042490186 0.056719426 0.0035848478 -0.005735326
0.004203689 0.008325387 -0.009115559 0.0141372075 0.02785398 0.027616015 -0.03710136 0.020377522
0.0027142463 0.010104945 0.03607789 0.00017486847 0.036499333 0.017694607 0.030397067 0.007891788
0.07872865 0.013987427 -0.0005871944 0.00479984 0.009956578 -0.019291727 0.0066710683 0.000896414
-0.005863982 0.02005877 -0.009777079 0.05322731 -0.0041314033 0.028299727 0.017389586 0.029955212
-0.001648693 -0.00990176 0.0036211817 0.009148019 -0.009119722 0.0009153376 0.028713873 0.01569139
0.007347398 -0.01575747 -0.028572338 0.015456074 -0.008397453 -0.0036377448 -0.010796009 0.015683135
0.010862005 0.008546521 0.012103624 0.018070454 -0.001029507 0.0007086612 0.0479275 0.015232079

nnECG.5.weight f4 [64]
00000000: a6c8 903f c35b 893f 165e 9b3f bac4 853f
00000010: 3492 8d3f a630 963f 8be6 883f 54f2 833f
00000020: 7abf 813f 2847 823f 1499 7d3f e93b 833f
00000030: bd80 853f 0fba 883f f5df 943f fd6e 903f
00000040: 007f 923f f18d 893f 712e 8d3f 6185 8e3f
00000050: 3e55 943f c18e 803f c569 963f 6507 883f
00000060: 4dd2 9d3f 5eef 7f3f 81d9 863f 8b62 8c3f
00000070: 8061 843f d228 913f d1d8 863f f47a 953f
00000080: 2750 8d3f afb8 953f 7c7c 973f ab8b 9e3f
00000090: e249 8a3f 6be0 923f 8c3a 883f 8d6c 973f
000000a0: 5c85 903f 70e4 873f f613 7a3f 1803 963f
000000b0: bcc0 893f 4084 803f 348a 843f 571e 953f
000000c0: 688a 823f 77eb 7e3f 1202 823f cc38 893f
000000d0: 7bee 863f 6d79 9a3f 63a8 873f 228e 8a3f
000000e0: 5794 7c3f 87e3 873f d801 893f 6d91 813f
000000f0: 9802 893f 8d0e 7d3f bfa1 873f 6fa7 9a3f
1.1311233 1.0731128 1.2138088 1.0450661 1.1060243 1.1733596 1.0695356 1.0308328
1.0136559 1.0177965 0.99061704 1.0252658 1.0429913 1.068178 1.1630846 1.1283871
1.1445007 1.0746442 1.1029798 1.1134454 1.1588514 1.0043565 1.1751028 1.0627257
1.2329804 0.9997462 1.0535127 1.0967573 1.0342255 1.1340582 1.0534917 1.1678147
1.1040086 1.1696986 1.1834865 1.2386373 1.0803797 1.1474737 1.0642867 1.1830002
1.1290698 1.0616589 0.9768671 1.1719694 1.0761943 1.004036 1.0354676 1.1649884
1.0198488 0.9957804 1.0156882 1.0720458 1.0541528 1.2068306 1.0598263 1.0824625
0.9866385 1.0616311 1.0703688 1.0122505 1.0703917 0.9885033 1.0596236 1.2082347

nnECG.5.bias f4 [64]
00000000: c97f 2a3c fd2e 3ebc eb1a 483d 0113 683a
00000010: c3a9 52bc c175 1f3d 1585 9fbb 8bb5 94bc
00000020: fa51 59bc dd24 dcbb c7ef 3cbc 59ea 893c
00000030: 7f7a 0e3c 7d84 183c 6a3d 5fbd 9ad0 2e3c
00000040: aa21 acbb d102 81bb e86b e13c aa9c 97bc
00000050: d770 b63c 647a e83b ea52 b43c 6c14 caba
00000060: 248d 933d 5bdf 9ebb 5862 c0ba 5d84 eeba
00000070: 079b b03a 9f48 c5bc 7999 7fbb 0c68 55bc
00000080: c6c1 a1bc 9812 093c cdbe 03bc 142f 543d
00000090: 9b24 93bc a1f2 963c 54d1 933b 11b5 bc3c
000000a0: efa8 55bc b60b c9bc c343 abbb 3747 163c
000000b0: f58c a9bc 7a77 48bc 6906 943c eb89 8c3c
000000c0: 7dec 273b 0d8b d5bc 3a24 2cbd 8bb1 613c
000000d0: 96fd e8bc 858d 1abc 8859 ccbc cf24 50ba
000000e0: 59af 56bc 8d7f 863b 4ae4 2cbb 171e 863b
000000f0: ab16 1ebc 3766 9dbb 1421 d33c 4476 873c
0.010406443 -0.011607883 0.048853796 0.00088529295 -0.012857857 0.03893066 -0.0048681595 -0.018152973
-0.013264174 -0.0067182616 -0.011531777 0.016835378 0.0086961975 0.009308931 -0.05450193 0.010669852
-0.0052530365 -0.0039371033 0.027517274 -0.01850732 0.022270603 0.007094668 0.022012193 -0.0015417463
0.07204655 -0.0048484034 -0.0014677746 -0.0018197406 0.0013473936 -0.02408248 -0.003900139 -0.013025295
-0.019745719 0.0083662495 -0.008041096 0.05180271 -0.01796179 0.018426241 0.004511038 0.023035558
-0.013040765 -0.024541717 -0.0052265837 0.009172252 -0.020697096 -0.012235517 0.018069463 0.017155608
0.0025623136 -0.026067281 -0.042026736 0.01377524 -0.028441232 -0.009433155 -0.024945036 -0.0007940055
-0.01310333 0.0041045607 -0.0026381188 0.0040929425 -0.009648959 -0.0048034447 0.025772609 0.016535886

nnECG.5.running_mean f4 [64]
00000000: 2fd9 223f 6500 3fbe ee3f 113f 24e7 313d
00000010: 4b78 f03d ad55 283f e824 3bbe 8be1 a5be
00000020: 9ca2 d93d fb6d 503c 6bed bb3c dbce c0bd
00000030: fa2d cc3c c9d4 ca3e 8a92 ffbd 5c62 aebc
00000040: cec4 99bc fbb2 bdbe 60f8 d93e 096d 3a3d
00000050: ed6f 163f ef12 643e 0914 e53e 2219 51be
00000060: 2eb9 343f e6b0 623e 544e 1abf 9e38 de3e
00000070: 41c7 dfbe 980d 723d 28f6 943e 65b3 2c3e
00000080: 64d4 9b3d 4742 8b3e 0891 10be 1e44 3f3f
00000090: fd83 bfbe 9832 0cbe 1cce 8f3d e082 903e
000000a0: 26bf ea3d b841 9abc 1122 01bd 9e7b 923e
000000b0: afa6 67be 7eba 70be 7497 533d ed70 b53e
000000c0: a7a8 af3d 85fd 1ebf 8041 6fbe fcdb 5fbf
000000d0: 3f6b 23be 195e bb3e 9806 d4bd 8b64 c4bd
000000e0: 26b2 6ebd 7bee 0fbf a133 12bf b544 b4be
000000f0: 9646 0a3e 2de9 d6be e922 053e 2c7e da3c
0.63612646 -0.18652494 0.56738174 0.043433324 0.11741694 0.6575573 -0.18275797 -0.32398638
0.106267184 0.012721534 0.022940358 -0.094144545 0.024924267 0.39615467 -0.12479122 -0.021287136
-0.018770602 -0.37050614 0.42572308 0.04551414 0.58764535 0.22272848 0.44741848 -0.20419744
0.7059506 0.22137794 -0.6027577 0.4340257 -0.43706706 0.059094995 0.29094052 0.16865309
0.0760887 0.27199003 -0.14117825 0.74713314 -0.37405387 -0.13691175 0.07021734 0.2822485
0.1146224 -0.018830165 -0.03152663 0.28609937 -0.22622178 -0.23508641 0.05165811 0.35437718
0.0857709 -0.6210559 -0.2336483 -0.87445045 -0.1595888 0.36595228 -0.1035282 -0.095894895
-0.058275364 -0.5622327 -0.5711003 -0.3520867 0.13503489 -0.41974774 0.13001598 0.026671492

nnECG.5.running_var f4 [64]
00000000: a9cf f83f 205d 7f3f 0e36 a93f 1166 a93f
00000010: 253a 883f eff7 a13f 6bb3 663f 60e7 733f
00000020: b6ff ab3f 20ad 423f 05a0 693f a93d 5c3f
00000030: 5e8a a63f 436c 783f 3183 663f 3ede 853f
00000040: 1022 8a3f bf78 b63f c96d dd3f 9e1c 7a3f
00000050: 680b b33f 2267 853f 0e61 a73f 485f 953f
00000060: 053d ac3f ef52 7a3f 70ef 4e3f 4c87 603f
00000070: 723c 823f de59 4b3f afa0 b13f a291 793f
00000080: 2829 ba3f 2c19 cf3f 1bf6 983f ae9a 8c3f
00000090: d614 7b3f 8f43 b73f 80f3 743f 961f a63f
000000a0: 3642 4d3f 4be4 683f 8816 d23f aeab 813f
000000b0: 5800 a23f 838a 9b3f 70da 9c3f bf94 803f
000000c0: 9286 813f 3ebc 833f bb74 5c3f 1864 dd3f
000000d0: 4126 ba3f f615 833f a069 7c3f 3149 843f
000000e0: b533 6b3f 1c42 a43f 3e8e 963f 43a5 c13f
000000f0: d363 913f 49c8 a13f 8e49 873f 0bcc 823f
1.9438373 0.9975147 1.3219621 1.3234273 1.0642744 1.2653788 0.9011752 0.95274925
1.3437412 0.7604542 0.91259795 0.86031586 1.3010976 0.97040194 0.9004393 1.0458448
1.0791645 1.4255599 1.7299129 0.97699916 1.3987856 1.0422099 1.3076494 1.1669703
1.3456122 0.97782797 0.808341 0.87706447 1.0174696 0.79434 1.3877162 0.97487843
1.454381 1.6179557 1.1950105 1.0984704 0.9807867 1.4317492 0.9568405 1.2978389
0.80179155 0.9097335 1.6413126 1.0130517 1.2656355 1.2151645 1.2254162 1.0045394
1.0119193 1.0291822 0.86115617 1.7296171 1.4542924 1.0241077 0.9859867 1.0334836
0.91875774 1.2832675 1.1762159 1.5128559 1.1358589 1.2639247 1.0569322 1.0218519

nnECG.8.weight f4 [16, 64]
00000000: d581 c93d cd6f 43be 96db 173e a37d 3b3d
00000010: 8db3 ac3e c1e3 da3d a866 8abe e8bf 7f3e
00000020: 0ba6 07bd b010 243e aca1 433e 0cc9 ca3d
00000030: 9a44 29be 0353 6cbe 338b 8cbe e1bd 3d3e
00000040: be36 4e3d e9c9 60be bc1b b03d 090f 73be
00000050: bcc1 be3e 91a4 f13d 3acd c63e a778 34bd
00000060: 908c 383e 5f18 9bbe 74bb 13be 0764 343e
00000070: 60de c3bd 3c55 acbd 5a35 7ebd 4f57 ad3e
00000080: b2ae 803d a2b0 ab3d 705d b43e 7ed5 793e
00000090: 30b8 d1bd 552a b9be 563a 74be afbb 8c3e
000000a0: 312e 91be e71a 99bd 852f 2d3e a407 0bbe
000000b0: 0af1 093e 2056 293e 5bc2 bf3b 389b a13e
000000c0: eca3 5e3e 8214 4fbe 9645 333c ef69 213e
000000d0: 80d3 4c3e c713 d6be b646 9fbd 3b29 623d
000000e0: 5cd7 70be b09c 173d 8f9d 163e 70bf 84be
000000f0: 0fc0 8a3d 08e7 2e3e a993 d5bd 52ee 993e
00000100: b6f8 023e 74dd 85bd e502 1f3e 24bf 0cbe
00000110: c751 55be 37b1 c43c 8cbf 91be 5d02 f73d
00000120: 6f5a 1ebe 0019 233d 7e65 493e 7871 c5bd
00000130: 6d87 b7bd df42 573e f5cc 0d3e 83a7 b2bd
00000140: 5a6e 943e e79f b0bd abbd f0bd 346b 0fbe
00000150: 7dfa 28bc e0a7 e23d e5bd e9bd cdc2 d6bd
00000160: 13c1 1ebe fe09 ef3d a1e2 08be 6d47 9d3e
00000170: cb71 82bd bf2d 913e 9a47 2e3e fc15 b6bd
00000180: f516 8c3e 9bd5 903e d5c5 7ebc fb45 783e
00000190: ed56 3dbe bf2d aebe 5a4b 7ebd 2643 953e
000001a0: 0fcb 10be 1809 5c3e fa3a fcbc 20ce 50be
000001b0: 32a8 9e3e d82a 82bb 5f5f 7abe a550 7f3e
000001c0: 6180 103a 814a 5fbd fe36 7f3e ed0b fe3d
000001d0: f59a 19be 6850 1ebe 4e4f 36be 5e91 18bd
000001e0: b354 ca3d ae54 333e 1d48 d6bd 7f40 473e
000001f0: 83fd 7b3e cdbc fb3d 0a4b f4bd 7789 a93e
00000200: 51aa b43d d0b8 8fbe 5f88 813d d64b 1b3e
00000210: 1a9b 4d3d 5ac7 efbc ce4e 6dbe 3fe9 59bc
00000220: ad40 91bd fc28 17be 5c5d 27be 49bb 7ebd
00000230: 1455 233d d119 2f3e 2dd4 50be 5ada aabd
00000240: b9a3 663e 2fa0 453e 574d 983c 0953 a3be
00000250: b153 b83e da5b 133e 9164 993e abdc 39be
00000260: 882e b23d c1f8 42be 21f5 22be 73b1 973e
00000270: 29cc 543d 2dfc 853d c247 e7bb 44c5 1d3e
00000280: 99b4 983e f212 de3e fe6a cf3e 715d fb3c
00000290: 851d 403e 2741 48bd 8e61 ccbd e71b ad3e
000002a0: be38 feb9 2711 fe3d a4ed dc3d cf33 063e
000002b0: 2872 833e c139 9cbb f482 3b3e 5cf7 1f3e
000002c0: 198e 17be cd4c 94be 2a43 cebd 624e 53bd
000002d0: ae61 b43b 96df b0be ab3d 66bc 4e5c acbc
000002e0: ef83 823e 3197 6f3e 0a25 84be 2e52 34be
000002f0: 020d 223e 7546 0dbe e933 183e 3206 933e
00000300: 1d10 9ebe 82f2 4abe 736d cf3e d948 50be
00000310: 8f1e 7b3d 45c7 34bd 939f 75be 7220 863e
00000320: e3a0 3a3e 772a d3bd 09e4 54be 5813 c83d
00000330: f90b 8fbe 0999 6cbb 9cd8 33be 08a9 ef3b
00000340: 6f31 a53e 0630 b1be 70a8 65be 5d4f 43bd
00000350: ba09 873e 7348 b73c 8993 163e 3c56 54be
00000360: 4288 7a3e 0e71 72be 450a 163e e0d8 9b3e
00000370: be7e 99be 93d0 ce3e 1d77 91be 67a8 473d
00000380: 5a8b 883e cd3b 7bbd e618 bb3e b557 9b3e
00000390: eb9c 53be 2271 9d3d 7bd2 0bbe 4cb7 ab3e
000003a0: 0fde 2bbe 81c6 6bbe 91ef 40be e841 583d
000003b0: 0337 b5bd 104c a1be 66e0 2ebd f72d cd3e
000003c0: 2f00 593e 5af4 13bd 3de4 663e e785 5c3d
000003d0: 841f 8a3e fe42 9fbe c610 be3d 4e52 c7bd
000003e0: 59fe ebbd a899 8d3e dfed 78be 730a 14be
000003f0: a111 6a3d 5713 2abe c25e 293e e43f e13e
0.098392166 -0.19085617 0.14829859 0.045774113 0.33730736 0.10687972 -0.27031446 0.2497555
-0.033117335 0.16021991 0.19104642 0.09901628 -0.16530076 -0.23078541 -0.2744995 0.18529464
0.050345175 -0.21952023 0.0859904 -0.23736204 0.37257183 0.11798967 0.3882845 -0.044060376
0.1802237 -0.3029203 -0.14426976 0.17616282 -0.09563899 -0.08414695 -0.0620626 0.33855674
0.062833205 0.083832994 0.35227537 0.24397847 -0.10240209 -0.3616511 -0.23850378 0.2748694
-0.28355554 -0.07475834 0.16912659 -0.13577133 0.13470855 0.1653676 0.0058520264 0.31563735
0.21742219 -0.20222667 0.010941884 0.15763067 0.20002556 -0.41811964 -0.07777159 0.0552151
-0.23519653 0.037014663 0.14708541 -0.25927305 0.067749135 0.17080319 -0.104285546 0.30064636
0.12790188 -0.065363795 0.15528448 -0.1374479 -0.20831977 0.024010284 -0.2846645 0.12060998
-0.15464185 0.039818764 0.19667622 -0.09640783 -0.08961377 0.21021603 0.13847716 -0.087233566
0.28990442 -0.08624249 -0.11754926 -0.14005738 -0.010313627 0.11067176 -0.11413173 -0.10486374
-0.1550334 0.11671828 -0.13367702 0.30718556 -0.063693605 0.28355214 0.17019501 -0.08890912
0.27361265 0.28287968 -0.0155500965 0.24245445 -0.18490191 -0.34019276 -0.06208358 0.29152793
-0.1413996 0.21487844 -0.030789841 -0.2039113 0.30987698 -0.0039723925 -0.24450444 0.24933107
0.0005512294 -0.05451441 0.24923322 0.124046184 -0.15000518 -0.1546036 -0.1780369 -0.037248008
0.09879436 0.17512771 -0.10462973 0.19458197 0.24608426 0.1229187 -0.11928375 0.3311269
0.08821548 -0.28070688 0.06324839 0.15165648 0.050196745 -0.029269863 -0.23174593 -0.013300239
-0.07092414 -0.14761728 -0.16344208 -0.062190328 0.03987606 0.17099692 -0.20393439 -0.083424285
0.22523393 0.19299386 0.018591566 -0.31899288 0.3600135 0.14390507 0.2995954 -0.18150584
0.087002814 -0.19040205 -0.15913822 0.2962757 0.051952515 0.06542239 -0.0070581147 0.15407282
0.29825285 0.4337383 0.40511316 0.030684205 0.18761261 -0.04889026 -0.099795446 0.3381035
-0.00048488931 0.12405615 0.10787514 0.13105701 0.25673032 -0.004767627 0.18311673 0.15621704
-0.148003 -0.28964844 -0.10071404 -0.051588424 0.0055048084 -0.34545583 -0.014052789 -0.021040108
0.25491282 0.23397519 -0.2580951 -0.17609474 0.15825275 -0.13796408 0.14863552 0.28715664
-0.30871668 -0.19819072 0.4051319 -0.20340289 0.06130844 -0.04413535 -0.23986654 0.2619663
0.18225436 -0.10310834 -0.20790114 0.097693145 -0.27938822 -0.0036101958 -0.17563099 0.0073138513
0.32264277 -0.3460695 -0.22427535 -0.04768311 0.26374608 0.022373414 0.14704718 -0.20736021
0.2446604 -0.2367594 0.14652355 0.304389 -0.2997951 0.40393505 -0.2841119 0.048744585
0.26668817 -0.061336327 0.36542434 0.30340353 -0.20665328 0.07687594 -0.1365451 0.33538282
-0.16783927 -0.23024942 -0.18841387 0.052797228 -0.08848383 -0.31503344 -0.04269447 0.4007413
0.21191476 -0.036121704 0.22548003 0.053838637 0.2697717 -0.31105798 0.09280543 -0.09732495
-0.11523122 0.27656293 -0.2430949 -0.14457111 0.05714572 -0.1660894 0.16540053 0.43994057

nnECG.8.bias f4 [16]
00000000: e2c1 a13c 0d01 4a3c fe6e e8ba 39f6 703c
00000010: ade2 153a 983a 953c a97e 03bd 4e97 773c
00000020: 5609 223d 6511 cf3b fac2 eaba 8bfa d3bc
00000030: a6ff 7e3c 0e8b 593c d19c e63c 5186 303c
0.01974577 0.012329352 -0.0017733274 0.014707142 0.0005717676 0.018216416 -0.032103214 0.015111757
0.039559685 0.0063192123 -0.0017910891 -0.025876304 0.015563881 0.013277782 0.028150948 0.010774211

nnECG.9.weight f4 [16]
00000000: 5790 9a3f b2e1 8b3f ea31 943f b507 9a3f
00000010: fec6 873f 9ba9 9f3f 7e34 813f f444 843f
00000020: 6225 893f ee2f 833f 1aa7 843f 5ca6 853f
00000030: 1548 823f d248 943f 6363 963f 191a 903f
1.2075299 1.0928252 1.1577733 1.2033602 1.0607603 1.2473634 1.0094144 1.0333543
1.0714533 1.0249002 1.0363495 1.0441394 1.0178248 1.1584723 1.174908 1.1257964

nnECG.9.bias f4 [16]
00000000: 70d8 ca3c a580 aa3b 8d01 10bc 5203 303c
00000010: 4e0c a6bc e5e0 c83c 7cc9 0abd af92 bb3b
00000020: 00b7 f03c 1854 9cbc e12c 0abd de93 e0bc
00000030: 2660 d1bb c915 1abb 55a5 eb3c 36d4 90bb
0.024761409 0.005203324 -0.008789432 0.010742979 -0.02026954 0.0245213 -0.033883557 0.005724273
0.029384136 -0.019083068 -0.033734206 -0.027414259 -0.0063896356 -0.002351152 0.02876536 -0.0044198288

nnECG.9.running_mean f4 [16]
00000000: e575 213e ca21 1e3d c1a6 9b3d 7031 c1bd
00000010: fab9 e43e 0e95 25be 2c4f d8be a294 4ebe
00000020: d5d1 74bd 0812 0c3e fc29 56be b584 173f
00000030: 56a7 e1bc 1347 21be d0d7 f23e 9e05 cdbe
0.1576763 0.038606443 0.07600165 -0.094332576 0.4467314 -0.16170141 -0.42247903 -0.20173886
-0.059770424 0.13678753 -0.20914453 0.5918687 -0.027545612 -0.15749769 0.47430277 -0.40043348

nnECG.9.running_var f4 [16]
00000000: e740 ac3f 654e b23f 91e8 b83f 63a9 e53f
00000010: 1b7f bc3f 615f b83f 4a17 c83f 5533 c53f
00000020: acac c13f 222c d83f 8bbd f33f 8fab c33f
00000030: 3ce8 c13f 88df f33f 06b0 e53f 1626 a83f
1.3457307 1.3930174 1.4445974 1.7942318 1.472629 1.4404107 1.5632107 1.540629
1.513082 1.6888468 1.9042219 1.528673 1.5148997 1.9052591 1.7944343 1.3136623

nnECG.12.weight f4 [4, 16]
00000000: e464 19be cdc9 d93e 2b86 8d3e ef6d 84be
00000010: aed3 acbd c876 0d3f d555 7c3e 597b bebd
00000020: 6c2f aabd 46fe a2bc 4a0c c8bb ec17 203d
00000030: d1bf 3bbe 8ea4 a73e d741 04be af74 2dbc
00000040: 9e86 aebe 7464 dabd 475c fdbd 36b2 a0be
00000050: 0659 443e 2574 a3bd 953a 513d dfbf 743e
00000060: dad8 d33d 49ab 6c3e 4c6a a23e 7ec9 b1bd
00000070: bbde 743e b5e4 fdbe 4da2 bfbe 1daf 4cbe
00000080: 6d00 473c 8880 1b3e 4d10 753a 58b6 cebe
00000090: 0790 ed3e 2ee3 29bf a5eb 083f a169 b6be
000000a0: 0507 1bbf cae9 44bb de47 023f 4f9c 243f
000000b0: 5fc6 bdbe 41ec 98be 4165 313e 0678 f9be
000000c0: 6973 33bf 7a4d 713e 1ecb 61be f678 2fbe
000000d0: c063 9cbd bbdf 1cbf 34cb 44be afde b53e
000000e0: 0fc0 2abe 5397 a63e f9b2 e33e fe4b 773e
000000f0: 96aa 033f 7f84 12bf e3d6 203d 16f5 753e
-0.14979893 0.42536774 0.27641425 -0.25865123 -0.08438812 0.5525937 0.24642117 -0.093008704
-0.08309826 -0.019896638 -0.0061049806 0.039085314 -0.18334891 0.32742733 -0.12915741 -0.010586902
-0.3408708 -0.10663691 -0.12371116 -0.31385964 0.19174585 -0.07981137 0.05108126 0.23901318
0.103440955 0.23112215 0.31721723 -0.0868101 0.2391309 -0.49588552 -0.37428513 -0.19988675
0.012146098 0.1518575 0.00093484373 -0.40373492 0.46398947 -0.66362274 0.53484565 -0.35627463
-0.60557586 -0.0030046576 0.5089091 0.6430101 -0.37065408 -0.29867747 0.17323782 -0.48724383
-0.70097977 0.23564711 -0.2205014 -0.17135987 -0.07636213 -0.61278886 -0.19218141 0.35521457
-0.16674827 0.32537326 0.44472483 0.24150082 0.5143217 -0.57233423 0.039267432 0.24019274

nnECG.12.bias f4 [4]
00000000: 62b9 d73c c594 4e3b 3e03 17bd 017b 48bb
0.026333515 0.003152178 -0.036868326 -0.0030590894

nnECG.13.weight f4 [4]
00000000: 4b0f 813f bb06 8d3f 78aa 913f f09b 903f
1.0082792 1.1017679 1.1380148 1.1297588

nnECG.13.bias f4 [4]
00000000: dfa4 a63c 9fc0 9fbc a8af 35bd 01e8 a6bc
0.020342289 -0.019501029 -0.044356972 -0.0203743

nnECG.13.running_mean f4 [4]
00000000: 0e70 1dbc ad0a 66bb 8231 c83d 6d28 1b3e
-0.009609235 -0.0035101578 0.09775068 0.1515214

nnECG.13.running_var f4 [4]
00000000: a2c6 533f a683 163f 2e42 0540 59bb b33f
0.82724965 0.5879463 2.0821643 1.4041549

nnECG.16.weight f4 [1, 4]
00000000: da10 483e 2954 73bf 9710 b4be 1573 6dbe
0.19537678 -0.95050293 -0.35168907 -0.23188432
