Models/net_3_2_epoch_48.pth (torch, 57997 bytes, 25 tensors)

nnECG.0.weight f4 [128, 12]
000000 d8 11 5d be 54 4a 00 bd 9c 9d 58 bd 3e 8b d0 bd
       -0.21588838 -0.031320885 -0.052884683 -0.10182808
000010 72 f8 86 3e c2 da cf bd 92 ef 71 bd 14 6c 36 3e
       0.26361424 -0.101491466 -0.059066363 0.17814666
000020 9b 45 11 be 4c b7 57 3e a9 f2 06 3d a8 21 b2 bb
       -0.14186709 0.21066016 0.032946263 -0.005436141
000030 42 9f 2b bd cb 9e 32 be 96 d8 2d be fa aa ba 3d
       -0.041899927 -0.17443387 -0.16977152 0.091146424
000040 f4 85 a2 be 87 12 65 be bf 0c 86 bc 9b 56 71 3c
       -0.31742823 -0.22370349 -0.0163635 0.014730121
000050 2a 73 63 3e d0 78 0e be 63 54 07 3e c9 86 9e bd
       0.222119 -0.13913274 0.13215785 -0.07740552
000060 9d e4 a7 bd da b8 e2 bd ab 00 11 bd 73 f9 19 be
       -0.081979014 -0.11070414 -0.035401028 -0.15036564
000070 25 13 f8 3d 60 6e a9 3d 3f 9c 56 3e 29 88 44 3e
       0.121130265 0.082730055 0.2095804 0.19192566
000080 52 e9 6c bd 5c b3 59 be b0 6d 30 3e 75 dd 2e be
       -0.0578397 -0.21259826 0.17229342 -0.17076667
000090 d2 24 27 3c 48 d5 f3 bd c0 20 87 3d 91 95 28 be
       0.01020165 -0.119059145 0.065980434 -0.16463305
0000a0 e1 13 b8 3d ef ef 41 3e 70 63 38 3e f4 3a 4d 3e
       0.089881666 0.18939184 0.18006682 0.2004202
0000b0 98 f3 1b 3d dc c6 a2 bd 1d fe 20 bd 6c 39 8a 3d
       0.038074106 -0.07948086 -0.03930484 0.067492336
0000c0 0c 28 83 be f0 c6 1b 3d a8 53 5d 3e 53 b0 88 bc
       -0.2561649 0.03803152 0.21613944 -0.01668564
0000d0 4f da 68 3e 1a 67 24 3d af 6d 5c be d1 9d 2f be
       0.22739528 0.040137388 -0.21526216 -0.17150046
0000e0 24 ce 72 bd f2 72 4d 3d 1d 6a c3 bd 48 c5 dd 3d
       -0.059278622 0.05015845 -0.09541724 0.10828644
0000f0 01 7d 03 be 50 6b 38 be 32 d7 de bd 1c e0 6b 3e
       -0.12840654 -0.18009686 -0.10880889 0.2303471
000100 71 29 6f 3e 62 dc 0d 3e f8 ad 72 be fc 79 e6 3d
       0.23355652 0.138536 -0.23699176 0.112537354
000110 97 75 09 be 14 79 d2 bc c6 26 02 3e e0 66 21 3e
       -0.13423763 -0.0256925 0.12710103 0.157619
000120 29 6e 88 3d 74 0f 35 3e ee db a3 3d d9 81 0b 3e
       0.066616364 0.17681676 0.08000933 0.13623752
000130 ae 16 71 3d e7 be a3 3c e0 2f f8 bd 13 f9 0b be
       0.05885952 0.01998849 -0.121185064 -0.13669233
000140 6c 9a 32 3e 6a 3f 22 be f5 4c 8c bd 6b a3 56 3e
       0.1744172 -0.15844503 -0.06850616 0.20960777
000150 c9 53 93 3d d0 35 4d 3d d5 ac 16 be fd d0 b4 bb
       0.07193715 0.050100148 -0.14714368 -0.0055180774
000160 3c 26 82 3e c7 a2 3a 3d b3 46 03 be 65 ba ab bd
       0.25419796 0.045565393 -0.12819938 -0.08385161
000170 5a 24 18 3d 31 3e 48 3e 1c 60 04 3e 86 7d 31 3d
       0.037144043 0.19554974 0.12927288 0.0433326
000180 6e fc 4a be 54 d0 03 3d 5b 01 38 be c1 56 ed 3d
       -0.19822857 0.0321811 -0.17969267 0.115888126
000190 92 7f 7c bd c7 0b ef bc 66 8d 5f 3e 2f bf c6 bd
       -0.061645098 -0.02918042 0.21831283 -0.09704434
0001a0 30 1c 96 bd eb 0a d7 bc db 7a 52 3d bc 0f 0f 3e
       -0.07329595 -0.026250323 0.051386695 0.13970846
0001b0 76 42 71 be 2d 15 4b be 66 b0 4f 3d 14 0f 07 be
       -0.23560509 -0.19832297 0.050705336 -0.13189346
0001c0 19 9d 66 3e d7 5b 8d bd 3e 69 32 bd 6b 09 34 3e
       0.22520865 -0.06902283 -0.043557398 0.17581718
0001d0 10 ac 3c 3d 13 8a 74 3e 08 2a ab 3d da fa 37 bd
       0.04606253 0.23880796 0.08357626 -0.044916965
0001e0 bc 4c 56 3e 12 46 f0 3c e6 82 83 bd 07 ba 83 3d
       0.2092771 0.029330287 -0.06421451 0.06431966
0001f0 e5 2f 3d 3c 38 e7 3a 3e 1c 1d e7 3d 2e 47 62 3e
       0.0115470635 0.18252265 0.11284849 0.22097465
000200 d9 75 00 3e 66 d5 b9 3d c1 e7 3c 3d cc 77 d2 bd
       0.12544955 0.09073906 0.046119455 -0.10276756
000210 3e 89 82 bd 06 3d 22 3d 99 63 39 be b5 4d 30 bd
       -0.06373833 0.039608978 -0.181044 -0.043042857
000220 1e 63 83 3d fd 11 11 bd 68 4f ad bd e2 88 f3 3c
       0.064153895 -0.035417546 -0.08462411 0.029728357
000230 f0 68 b5 bd e7 5c 4b 3e 89 6e 6c 3d 0e 75 d0 3d
       -0.08857906 0.19859658 0.057722602 0.101785764
000240 3a 67 f0 3c c5 be 74 bd a4 5b d5 bd b9 91 11 3d
       0.029346097 -0.059752245 -0.1041787 0.035539363
000250 4e a0 05 be b0 af 0c bb cb ed 42 be ef e1 bc 3d
       -0.13049433 -0.0021467023 -0.19036023 0.09222781
000260 b7 13 4e 3d c3 0b 7e 3e 70 80 d2 bd 0a 69 0e 3d
       0.05031177 0.24809174 -0.10278404 0.03476814
000270 ce 71 14 3e c5 6a 55 3e 52 ef aa 3d 09 0e b1 bd
       0.14496538 0.2084151 0.08346428 -0.08645255
000280 fe d9 04 3e 3c ff 19 bd 16 dc 70 bd 1c 46 b5 3d
       0.12973782 -0.037596926 -0.05880364 0.08851263
000290 97 16 55 be a9 69 11 3d 7e 7e 0f 3e 9f d7 e0 3d
       -0.20809399 0.035501156 0.14013097 0.109786265
0002a0 be 6f 8d 3a ec ef a7 3d 9e 5c fd 3d 8e f7 d9 3b
       0.0010790748 0.08200058 0.12371181 0.0066518253
0002b0 20 33 4d be e0 b0 02 3e fd 4b 05 bd 26 ad a6 bd
       -0.20039034 0.12762785 -0.03254317 -0.08138494
0002c0 86 61 34 3e 3a 25 20 be c6 50 d1 3d 35 34 9c 3d
       0.17615327 -0.15639201 0.102204844 0.07627145
0002d0 77 57 03 3e 0d a0 3b 3d 9b ed 90 3d 18 c7 e6 bc
       0.12826334 0.045806933 0.0707657 -0.028171107
0002e0 c1 06 da bd a4 1c 90 bc 76 41 ac 3d f6 9d e9 bc
       -0.106458195 -0.017591782 0.08410923 -0.028517704
0002f0 b9 63 e0 bd cb 1b 4f 3e 0d 1c 5a 3e 65 4b a0 bd
       -0.109565206 0.20225446 0.21299763 -0.0782688
000300 68 d7 9d bd 09 d4 ec 3d 54 6a 5c be f2 d5 f5 3c
       -0.07707101 0.1156388 -0.21524936 0.030009244
000310 36 b6 aa 3d ca aa 6a be 35 b9 37 bd 27 86 46 be
       0.08335535 -0.22916713 -0.04485436 -0.19387113
000320 74 9b 06 3d 79 57 0b be b7 71 3c bd 52 f2 26 3e
       0.032863095 -0.13607587 -0.046006884 0.16303375
000330 d8 bc ab bd 11 f0 3f 3e bb 71 42 bd f3 d1 60 3c
       -0.083856285 0.18743922 -0.047471743 0.013721931
000340 a0 2a 0e be d3 9e 96 3d ca ce 46 be 75 21 ec bc
       -0.13883448 0.07354512 -0.19414821 -0.028824547
000350 4a 4f 42 bd 0e f1 de bd cd c0 93 3d 95 7e 29 be
       -0.047438897 -0.10885821 0.07214508 -0.16552193
000360 b5 c6 5b 3e b0 56 06 be f0 8e 60 be df c0 b1 bd
       0.2146252 -0.13119006 -0.21929526 -0.08679365
000370 3d 5e 90 3d e8 4a 92 3d 6e cf 13 be cf aa 63 be
       0.070492245 0.071431935 -0.14434597 -0.22233127
000380 2b 85 f7 bd fb e8 1b 3c 22 5b 44 be 23 99 0c 3e
       -0.12085947 0.009515996 -0.1917539 0.13730292
000390 ea 4c 18 3d f5 3f 02 be 4b 5a 78 3c 23 dc eb 3d
       0.037182726 -0.1271971 0.015158246 0.11516597
0003a0 31 21 80 be 26 33 6f be 0f 8c 49 3e 46 77 23 bd
       -0.25025323 -0.23359355 0.19682334 -0.03990867
0003b0 70 95 5c 3e 81 6e 9c bc a7 79 da 3d 1c 2a 67 bd
       0.21541381 -0.019095661 0.106677346 -0.056436643
0003c0 48 90 8c 3c e9 71 d9 3d 74 dc 27 3e 0a e8 75 bc
       0.017158642 0.1061743 0.1639269 -0.015008936
0003d0 68 75 04 3e d7 20 d9 3c fc 47 ad bd c9 ee e7 3c
       0.12935412 0.026504917 -0.084609956 0.028312104
0003e0 a7 5d 13 3e 0c b7 e0 bc 44 ef f9 bd 46 7d 07 3e
       0.14391194 -0.027431034 -0.122038394 0.13231382
0003f0 41 97 15 3e cd b5 02 3e 44 03 f0 bd 1a aa c1 3c
       0.1460848 0.12764664 -0.11719373 0.023640681

nnECG.0.bias f4 [128]
000000 9d b2 ce 3c 47 7f 30 3c 4d 80 bf 3a ea 4c 13 bc
       0.025231654 0.010772533 0.001461038 -0.008990506
000010 56 82 9c 3c 1b b7 87 3c a3 36 22 3c 16 6e 07 3c
       0.019105118 0.016566804 0.009900722 0.008265993
000020 60 48 e7 3c ee 6d a3 3c 65 8e bb bc 4f 1f 19 3c
       0.028232753 0.01994988 -0.022895047 0.009345843
000030 02 40 9e ba f0 e9 54 ba fc 17 eb bb 0c 35 80 3b
       -0.0012073519 -0.00081220176 -0.00717449 0.0039125737
000040 cc 90 e6 3c 7b dc 01 3c f8 62 41 3c 6d b0 fd 3a
       0.028145216 0.007926102 0.011803381 0.0019354947
000050 2c 70 ae bb d0 2e 2e 3c 9e 07 9a 3c d7 47 c5 3b
       -0.0053234305 0.010631278 0.01880246 0.006020527
000060 a2 c4 cc 3c 4d d4 0e 3b e4 47 e2 3b d6 e0 3c 3c
       0.024996106 0.0021794022 0.0069055427 0.011528214
000070 be 3c 51 ba eb 6e f2 ba 15 06 41 3c e9 6b 86 3c
       -0.00079817686 -0.0018496191 0.011781235 0.016408877
000080 56 ef b9 3b 7f 6b ea 3c 97 04 b3 3c da 73 b8 39
       0.005674283 0.028615711 0.021852775 0.0003518153
000090 d8 47 d2 3b 06 c6 c1 b9 21 cf 9c 3b c4 ef 10 3c
       0.006417256 -0.00036959368 0.004785434 0.008846227
0000a0 15 31 39 3c 95 9d f2 3b 7a ad d4 3b 7b 77 8d b9
       0.011303206 0.007404039 0.0064904066 -0.00026982636
0000b0 23 ce 30 3c af a9 da 3c 39 7f b2 3c f6 d9 13 3b
       0.010791334 0.02669224 0.02178918 0.0022560335
0000c0 8a 37 2e bb a7 fa 31 3c 55 33 aa 39 4a 96 f3 3c
       -0.0026583397 0.010862983 0.00032463172 0.02973475
0000d0 8f 3d 45 3a f8 8f a8 3c b6 74 98 3b fa 81 60 bc
       0.00075241266 0.020576462 0.004652585 -0.013702864
0000e0 e3 10 e5 3c 87 80 f5 39 55 bc 18 3c f8 fa 04 bb
       0.027962154 0.00046825802 0.009322246 -0.002029119
0000f0 5a c5 9a 3c dc 5f 58 bc 9e eb 8a 3b 62 c5 24 3c
       0.018892933 -0.013206448 0.0042395135 0.010056825
000100 70 da 84 3c 4d b5 07 3b e8 93 8b 3b 14 e7 d7 3b
       0.01621744 0.002070743 0.004259575 0.006588826
000110 fe 3a 83 3b d7 e4 80 3b c4 2c 9b 3c 9a bf 3e 39
       0.004004835 0.00393353 0.018942244 0.00018191189
000120 88 db d7 3c 8b 61 0d 3c d6 70 d0 3b a5 d4 a6 39
       0.026349798 0.008629213 0.0063611073 0.0003182042
000130 01 6d 7d 3b 0e d2 88 3c a7 58 6a 3c 93 30 57 bc
       0.0038669708 0.016701724 0.014303363 -0.01313414
000140 3b 32 69 3c f9 dd ef 3c 3a 98 bd 3b 14 d7 25 b9
       0.014233167 0.02928065 0.005785969 -0.00015815749
000150 f5 8b c0 3c 2a 0a 28 bc 41 9d 56 3c 14 70 b1 3b
       0.023504237 -0.01025633 0.013099016 0.005414972
000160 59 3a 0d 3b 41 00 be 3a 1a d9 77 3c 78 8b c8 3c
       0.002154967 0.0014495925 0.015127445 0.024480566
000170 83 bf a7 3c 77 a1 b7 3c 52 be 96 3b 5a 8f a0 3c
       0.020477062 0.02241586 0.0046003247 0.019599605
000180 7a b4 f0 b9 df 5d d5 bb db 26 d7 3c f6 09 d9 3c
       -0.00045910833 -0.0065114344 0.026263645 0.026494008
000190 04 80 0d bb c2 fe 91 bb 47 ea 75 3c fe 1d b3 3b
       -0.0021591196 -0.0044554183 0.015009469 0.005466222
0001a0 c5 d4 cc 3a ac f3 24 3c cf 90 72 3b 22 c2 a5 3b
       0.0015627375 0.0100678615 0.0037012582 0.005058543
0001b0 8a 5e 92 3a 8f 13 c8 3c 3d 36 a9 3c 14 c2 5a 3c
       0.0011167091 0.024423389 0.020655746 0.013351936
0001c0 f9 61 2a 3c 03 65 5c 3b 06 2d d5 3c 3b 63 41 bb
       0.010399335 0.0033629544 0.026022445 -0.002950861
0001d0 6d 8d 46 3c 8f 05 6d bc f8 66 bf bb b0 67 52 3c
       0.0121186795 -0.014466657 -0.0058411323 0.012842104
0001e0 74 be 59 3c ef e2 87 3c 40 1c 33 bc 3d d2 d2 3c
       0.0132900365 0.016587703 -0.010932028 0.025735015
0001f0 64 01 e9 ba 6a 6c 97 b9 52 e1 a1 3c f8 26 52 3c
       -0.0017776904 -0.0002888174 0.019760761 0.012826674

nnECG.1.weight f4 [128]
000000 dd 99 7b 3f 0b 50 84 3f 6b 3a 72 3f 03 9c 8a 3f
       0.9828165 1.0336927 0.9462039 1.0828861
000010 c2 fb 8a 3f f2 59 8a 3f 17 8a 7c 3f 99 55 89 3f
       1.085808 1.0808699 0.9864821 1.0729247
000020 ba 73 82 3f 1e bd 83 3f 1e 05 92 3f 81 0f 81 3f
       1.0191567 1.0292089 1.1407812 1.0082856
000030 78 49 85 3f ec 05 85 3f 4f 0c 82 3f 5f b8 89 3f
       1.0413046 1.0392432 1.0160006 1.075939
000040 e4 79 85 3f cf e7 76 3f 47 3e 88 3f 88 66 86 3f
       1.0427823 0.9644746 1.0644006 1.050004
000050 ab 15 81 3f 12 f0 84 3f 9e 17 94 3f dc e2 80 3f
       1.0084738 1.0385764 1.1569707 1.0069232
000060 00 38 82 3f b9 b9 81 3f d8 e5 81 3f cc a9 77 3f
       1.017334 1.0134803 1.0148268 0.96743464
000070 88 a2 73 3f 8f c8 88 3f d8 d5 88 3f c5 0e 88 3f
       0.9516988 1.0686206 1.069026 1.0629507
000080 55 99 87 3f 48 f0 85 3f e2 0b 8f 3f 3b b7 7f 3f
       1.0593668 1.0463953 1.1175501 0.9988896
000090 ac 12 82 3f 18 35 74 3f 5f 3e 7d 3f 39 ce 7f 3f
       1.0161948 0.95393515 0.98923296 0.99924046
0000a0 f0 9c 8f 3f 6c 9d 6e 3f 59 1b 8a 3f f1 61 80 3f
       1.1219769 0.93208957 1.0789596 1.0029889
0000b0 8d 96 81 3f 3f e2 94 3f 8a b0 88 3f 22 60 83 3f
       1.012407 1.1631545 1.0678875 1.0263712
0000c0 6b cb 75 3f 20 a0 85 3f c3 bc 7e 3f ef 88 88 3f
       0.96013516 1.0439491 0.9950678 1.0666789
0000d0 90 9f 91 3f 42 42 8c 3f 71 e5 82 3f 5f f8 8f 3f
       1.137682 1.095772 1.022627 1.1247672
0000e0 97 42 8a 3f 1f e6 7d 3f d1 a0 8f 3f eb 1f 85 3f
       1.0801572 0.9917926 1.1220952 1.0400366
0000f0 0b 12 77 3f 60 02 84 3f 7e 6f 87 3f ac 7a 7e 3f
       0.96511906 1.0313225 1.05809 0.9940593
000100 40 0b 8e 3f e0 3f 82 3f 14 8a 85 3f 1c 45 84 3f
       1.1097183 1.0175743 1.0432763 1.033359
000110 d4 50 87 3f 74 fb 89 3f 2c 7f 7c 3f 4c b7 7b 3f
       1.0571542 1.0779862 0.9863155 0.98326564
000120 a3 1f 8c 3f 68 a4 7a 3f 6c 63 85 3f 38 14 8b 3f
       1.0947155 0.97907114 1.0420966 1.0865545
000130 02 74 76 3f 5f 96 82 3f 1c 33 82 3f af b0 8d 3f
       0.96270764 1.020214 1.0171847 1.1069545
000140 c7 71 8a 3f a6 fe 86 3f 39 06 81 3f 6d 1a 80 3f
       1.0815972 1.0546463 1.0080024 1.0008065
000150 4b d3 85 3f 51 78 81 3f 52 75 6d 3f 35 f5 85 3f
       1.0455106 1.0114843 0.9275714 1.0465456
000160 cc a6 7c 3f 4b 2a 80 3f ed 1f 6f 3f 64 31 91 3f
       0.9869201 1.0012907 0.9340809 1.1343198
000170 eb 59 89 3f 00 1a 81 3f 4a c0 84 3f 0a 58 84 3f
       1.0730566 1.008606 1.0371182 1.0339367
000180 c2 b2 8a 3f 9e d8 9a 3f c8 90 88 3f c7 f1 95 3f
       1.0835803 1.2097356 1.0669184 1.171441
000190 4b cc 81 3f 16 76 8e 3f 1e 35 84 3f a4 99 88 3f
       1.014047 1.1129787 1.032871 1.0671887
0001a0 20 5b 8b 3f 61 63 84 3f 0e b8 85 3f a9 00 79 3f
       1.0887184 1.0342828 1.0446794 0.9726663
0001b0 c6 cf 85 3f ec 9e 87 3f 75 92 8b 3f 83 b2 82 3f
       1.0454032 1.0595374 1.090407 1.0210727
0001c0 42 57 7e 3f 0d bb 85 3f 4a bb 88 3f 2a af 80 3f
       0.99351895 1.0447708 1.0682156 1.0053456
0001d0 f8 19 84 3f e0 4e 87 3f bb 2b 7a 3f 42 1f 8b 3f
       1.0320425 1.0570946 0.9772298 1.0868914
0001e0 bc 53 84 3f 2b 2a 90 3f cd bb 80 3f 46 d3 84 3f
       1.0338054 1.1262869 1.0057312 1.0376976
0001f0 c6 12 81 3f e6 4e 7b 3f 57 c6 88 3f 79 38 7e 3f
       1.0083854 0.98167264 1.0685529 0.9930492

nnECG.1.bias f4 [128]
000000 fb 5f 14 3c 72 96 5c 3a b3 24 62 bc c9 fc 96 bc
       0.009056087 0.0008414752 -0.013802695 -0.018431084
000010 98 9f 2a 3c 3d 73 93 3c 63 5a 4a 3b 0c d6 b8 3b
       0.010414027 0.017999286 0.0030876629 0.0056407508
000020 64 25 2f 3c 47 39 a2 3b 51 64 d7 bc 4e e7 9b ba
       0.010690067 0.0049506756 -0.026292952 -0.0011894496
000030 d3 a1 22 bc 7a 7b 0a bc c3 66 3d bc 39 dc 3b bc
       -0.009926277 -0.008452291 -0.011560145 -0.011466079
000040 cf 90 cf 3c 3a a2 1e bc 1f 8c 87 ba ba a8 e6 bb
       0.025337605 -0.0096822325 -0.0010341442 -0.0070391567
000050 9a cd 1c bc fe bc f2 3a 99 ab 6c 3c 30 cb f9 3a
       -0.009570504 0.0018519459 0.014445209 0.0019057747
000060 4f 62 a5 3c 3b 67 eb bb 6d fc a0 bc f8 58 10 3a
       0.020188479 -0.007183937 -0.019651616 0.00055064214
000070 fc 3c 09 bc 17 01 3b bc 36 48 2b 3c 9d ab 15 3c
       -0.008376356 -0.011413834 0.010454228 0.009135154
000080 31 cc 0b bc ca 80 97 3c ad 0d 9b 3c d6 09 8e bc
       -0.00853257 0.018494029 0.01892742 -0.017338675
000090 88 9e 36 bb 4a 89 b1 bb cc c2 e9 3a b6 ac 56 ba
       -0.0027865488 -0.0054179775 0.0017834543 -0.0008189188
0000a0 31 17 6a 3a bb 9b 0d 3c 4b 5c e6 3a f8 91 57 bc
       0.00089298474 0.008643086 0.0017575113 -0.01315736
0000b0 d4 f8 19 bc 6b 2a 33 3b 2a b8 57 3c a5 9d 8f bc
       -0.009397704 0.0027338516 0.013166467 -0.017531225
0000c0 75 b5 e7 bb 4c fa 9a bb b2 b9 83 bb b5 49 f0 3c
       -0.007071192 -0.0047295447 -0.0040199393 0.029332021
0000d0 2a 59 84 ba 13 19 5d 3c 4e 28 b8 ba d2 f1 3d bc
       -0.0010097374 0.013494748 -0.0014050098 -0.011593299
0000e0 39 bb 6b 3c d1 ab 5b 3b 7c 79 91 bb b7 4c 43 bc
       0.014387899 0.0033519159 -0.004439531 -0.011920146
0000f0 42 95 81 3b c5 24 7e bc 0d 62 1a ba 5c fe a3 ba
       0.0039545605 -0.015511696 -0.00058892445 -0.0012511718
000100 1e de 95 3c e0 2c 0d bc 71 a6 6d ba 77 aa b1 3b
       0.01829439 -0.008616656 -0.0009065634 0.0054219323
000110 47 f7 54 b9 ab bf b4 b8 3b 6a 90 3c f1 de 12 bc
       -0.00020310013 -8.61877e-05 0.01762878 -0.008964286
000120 29 92 92 3c be c1 c5 b7 b4 d7 b2 3b 82 68 f3 3b
       0.01789196 -2.3574448e-05 0.0054578427 0.00742823
000130 89 33 13 3b 08 a7 7a b9 53 e3 dc bb e5 12 28 bc
       0.0022461137 -0.00023904082 -0.0067409663 -0.010258411
000140 05 3d 9e ba 90 13 bc 3c 08 d6 be 3b 9c 64 90 bc
       -0.0012072629 0.022958547 0.0058238544 -0.0176261
000150 ef 10 28 3c 1b b2 0e bc 7c 3a f1 3a a8 a5 ca 3b
       0.0102579435 -0.008709456 0.001840427 0.0061842985
000160 99 a7 3a bc f9 80 ba bc 9c f9 b3 3b 6c 29 db 3c
       -0.011392497 -0.022766577 0.0054924022 0.02675315
000170 a7 b2 9b 3b e9 82 2d 3c 0d 9e 95 3a 4f a7 af 3b
       0.0047515216 0.010590293 0.0011414901 0.005360521
000180 e6 5c 9e bc 16 5e 1d bc ac 66 46 3c 7d 29 10 3c
       -0.019331407 -0.009604951 0.01210944 0.008798954
000190 9a 65 c0 bb d6 d6 60 bc 3e d4 42 3c 3c 88 bb 3b
       -0.005871487 -0.013723096 0.011891423 0.0057230275
0001a0 b2 ed 9d bb f5 ee 00 bc dd 2a b7 bb cc 16 94 b9
       -0.0048195953 -0.007869472 -0.0055898265 -0.00028245745
0001b0 c4 fe 4f bc b5 ab ad 3c fa 66 07 bb d7 f6 08 bc
       -0.012695018 0.02120004 -0.0020660744 -0.008359632
0001c0 42 48 cb 3a c5 2e 5d bb b4 ff 66 ba a9 c0 8a bc
       0.0015509205 -0.00337498 -0.00088119064 -0.01693757
0001d0 ce 57 37 3b 06 d8 b9 bc 5e 7a 5e bb f3 8d 6e bb
       0.002797592 -0.022686016 -0.0033947448 -0.0036400526
0001e0 ee a7 c5 3b 2d 1e 9b 3b 10 85 44 bc ac 84 31 3c
       0.0060319817 0.004733822 -0.011994615 0.010834854
0001f0 1d 07 a9 bc aa 0d 65 bc 4e 44 12 3c 9f 22 bd 3a
       -0.020633275 -0.013980309 0.008927418 0.0014429874

nnECG.1.running_mean f4 [128]
000000 55 93 0a be f5 f0 71 3c 44 f5 6e 3e ea 8e c9 3e
       -0.13532765 0.014766921 0.23335749 0.39366847
000010 c4 c1 f2 be 78 75 8c be 27 c9 c9 bd 0e 7c 59 3e
       -0.47413456 -0.27433372 -0.0985282 0.2123873
000020 73 cb 14 be 3c 5a f1 3d ff 80 3f 3f 60 d1 84 bd
       -0.14530735 0.11784789 0.7480621 -0.064852476
000030 54 82 f9 3c c2 f4 35 3e cb 1e 67 3e 66 41 04 3f
       0.030457653 0.17769149 0.2257034 0.5166229
000040 54 5f 02 bf f0 59 88 be 9b 2d b8 be 7c a5 c5 3e
       -0.5092671 -0.26631117 -0.35972294 0.38602817
000050 5d 12 b1 3d 56 fa 57 be 07 4e 56 be aa ba de 3e
       0.08646081 -0.2109159 -0.20928203 0.43501788
000060 78 f2 6e 3c a4 61 cd 3d 5b cb 7e 3e 25 43 99 bb
       0.014584176 0.10028389 0.24882261 -0.0046771937
000070 d7 ca e3 3d a0 22 9a 3d 8e 94 8e be c6 ff 16 bd
       0.11122673 0.075261354 -0.27847713 -0.03686502
000080 2c 6a 25 be 73 cf f9 be 0d bd c7 be da 80 cc bd
       -0.16153783 -0.48791084 -0.39011422 -0.09985514
000090 f3 57 d2 bd d7 75 2b 3e c3 ad d5 3c d8 8a 86 3e
       -0.10270681 0.16744171 0.026083833 0.26277804
0000a0 d5 9e 8b 3e 27 ce 02 be bb c2 b5 3e 89 6c ef 3d
       0.27269617 -0.12773953 0.3550013 0.11690623
0000b0 dd 61 91 3d 56 a8 80 3d c2 df 0a 3e a5 f0 11 3e
       0.07098744 0.062821075 0.1356192 0.14251955
0000c0 2c 09 12 be 07 d0 96 3e ab 8d 5a 3e af 8e d5 be
       -0.14261311 0.29455587 0.21343105 -0.4171042
0000d0 fe 49 76 be cf d4 09 3e f4 b7 a1 3e 8c 90 18 bd
       -0.24051663 0.13460086 0.31585658 -0.037247226
0000e0 0c 2e ca be 01 29 cb bd 4b bb c1 bd be 57 2f 3e
       -0.39488256 -0.0991993 -0.094595514 0.17123315
0000f0 a5 93 d5 3e 4d d3 7c 3e 16 f0 35 3e 95 e1 b6 3d
       0.41714206 0.2468998 0.17767367 0.08929745
000100 80 40 6a be 74 28 01 bc 3f 4c 6b be 68 54 45 bd
       -0.22876167 -0.00788318 -0.22978304 -0.0481762
000110 0d 64 73 bc 15 a1 65 3d 8d 9d a4 be 10 37 87 3e
       -0.014855397 0.056061823 -0.32151452 0.26409197
000120 f7 d6 84 3d e5 62 00 be 5b c2 f9 3e d1 67 ca 3d
       0.06486314 -0.12537725 0.48781094 0.09883083
000130 60 a2 0b 3e ba bb aa 3c fc c6 c2 be 11 c5 fa 3e
       0.1363616 0.020841468 -0.38042438 0.48978475
000140 4b a0 a9 be 96 f4 17 3d 9e 2a 0f bc 90 09 40 3e
       -0.33130106 0.03709849 -0.008738188 0.18753648
000150 2b 2a 86 be 15 a2 f3 bd 55 31 71 3e 4d 63 f8 3e
       -0.26204047 -0.11896149 0.23553975 0.4851326
000160 b5 b8 b4 3e 6f d3 81 bd da 3a 11 bd 5c a7 6c be
       0.3529717 -0.06339156 -0.035456516 -0.23110718
000170 a6 04 86 be 96 d8 9c be fa fa c3 bc 4d 3a b1 3e
       -0.2617542 -0.30633992 -0.023923386 0.34614792
000180 d6 43 61 3e 75 83 e1 3e bc 9c f5 bb f0 cd 06 be
       0.21998534 0.44045606 -0.007495491 -0.13164496
000190 f7 d9 00 3c 02 be 85 bd f8 7a 2a bc 16 76 0f be
       0.007864467 -0.06530382 -0.010405295 -0.1400989
0001a0 48 e0 39 3d 81 29 4c 3d b6 e8 56 3e a8 97 52 3e
       0.045379907 0.04984427 0.2098721 0.20565665
0001b0 12 51 94 3e b6 18 ec be dd 24 31 3e 78 ed 24 3e
       0.28968102 -0.46112603 0.17299218 0.16106212
0001c0 c3 b0 3e 3e e7 ff 24 be 67 86 ee be 67 16 91 3d
       0.18622117 -0.16113244 -0.46586916 0.07084351
0001d0 5d c9 a2 be 1f fe f1 3e dd 0f 91 3e 9f 39 a6 3e
       -0.31794253 0.47264192 0.28332415 0.32465836
0001e0 95 a5 e8 3e 74 8d d2 3d 69 04 85 be c0 c3 b2 be
       0.4543883 0.10280886 -0.25979927 -0.3491497
0001f0 61 cd 2a 3e a9 eb 09 be e6 ec f3 bc 3d ec 0c bc
       0.16679908 -0.13468803 -0.029776048 -0.0086012455

nnECG.1.running_var f4 [128]
000000 1d 0e 95 3d 38 20 98 3d 33 41 9a 3d 6f 80 a0 3d
       0.072780825 0.0742802 0.07531967 0.07836997
000010 fd bd 95 3d 52 79 95 3d 5d 54 95 3d 20 d0 98 3d
       0.07311628 0.07298531 0.07291482 0.07461572
000020 7e 46 98 3d 9a 2c 96 3d c4 35 9c 3d 67 6e 97 3d
       0.0743532 0.07332726 0.076274425 0.073941045
000030 f7 cb 93 3d ba 62 9c 3d 19 26 96 3d 9b ed 97 3d
       0.072166376 0.07636018 0.07331485 0.074183665
000040 f6 1f 9d 3d 09 37 94 3d 7e a5 9b 3d bd 35 96 3d
       0.07672112 0.072370596 0.075999245 0.073344685
000050 64 87 98 3d ca 92 98 3d 69 36 96 3d fb d7 96 3d
       0.07447699 0.07449873 0.07334597 0.07365414
000060 50 3b 95 3d d5 5b 95 3d d6 af 95 3d 70 96 95 3d
       0.072867036 0.07292906 0.07308929 0.07304084
000070 bc b4 95 3d ef e6 94 3d 4a db 97 3d 24 2d 99 3d
       0.07309863 0.072706096 0.07414873 0.07479313
000080 53 52 97 3d 2e 61 97 3d 3e 37 94 3d e6 45 99 3d
       0.07388749 0.073915824 0.07237099 0.07484035
000090 8c 78 94 3d 99 c5 97 3d 8f d7 94 3d cc 5b 96 3d
       0.07249555 0.07410736 0.07267677 0.073417276
0000a0 18 e6 99 3d 2a fc 95 3d e0 2b a0 3d bb b3 a5 3d
       0.0751459 0.07323487 0.078208685 0.080909215
0000b0 ac 23 94 3d 27 35 9b 3d e4 d3 9a 3d b4 78 9c 3d
       0.07233366 0.075784974 0.07559946 0.0764021
0000c0 bd 38 96 3d fb 66 a7 3d 6b e3 98 3d b4 87 96 3d
       0.07335041 0.08173939 0.074652515 0.07350102
0000d0 89 83 96 3d 90 f1 a2 3d c3 a4 97 3d 20 14 96 3d
       0.07349307 0.07956231 0.07404473 0.07328057
0000e0 a2 c5 95 3d 62 2f 93 3d 0f d4 9b 3d 9c ff 95 3d
       0.07313086 0.07186772 0.07608806 0.07324144
0000f0 0d 9d 99 3d 44 5a 97 3d 14 64 9a 3d 6a 9f 98 3d
       0.07500658 0.07390264 0.0753862 0.07452281
000100 be f7 94 3d 84 c4 97 3d db e6 95 3d 65 8d 94 3d
       0.072738156 0.07410529 0.07319423 0.07253531
000110 5a bc 94 3d 9d ed 98 3d 25 51 98 3d 29 a5 96 3d
       0.07262488 0.07467196 0.07437352 0.073557205
000120 c8 21 99 3d 4d 34 97 3d e0 13 98 3d 8d fe 9a 3d
       0.074771464 0.073830225 0.07425666 0.07568083
000130 3e a5 93 3d 1a 77 94 3d 63 67 9c 3d c8 7a 9e 3d
       0.07209252 0.07249279 0.07636907 0.077382624
000140 4d c9 99 3d 55 ee 9b 3d fa dd 9a 3d c6 e4 99 3d
       0.07509098 0.076138176 0.0756187 0.07514338
000150 2e c8 95 3d ee 51 a3 3d 7e a3 94 3d 6d a6 97 3d
       0.07313572 0.07974611 0.07257746 0.0740479
000160 2a 80 9e 3d 4c 1f 97 3d 31 23 96 3d 0d ba 97 3d
       0.07739289 0.07379016 0.07330931 0.07408533
000170 98 32 97 3d aa e2 9b 3d 01 22 9b 3d 3a f5 98 3d
       0.07382697 0.07611592 0.07574845 0.07468648
000180 43 bf 97 3d 63 67 9b 3d c6 fa 9a 3d d0 65 9a 3d
       0.07409527 0.07588079 0.075673625 0.075389504
000190 0a e3 95 3d 2c 9c 95 3d 49 07 96 3d e3 0c 95 3d
       0.07318695 0.07305178 0.07325608 0.072778486
0001a0 98 4f 97 3d 7d 1c 9a 3d ba 3a 95 3d 72 07 9e 3d
       0.07388228 0.07524965 0.07286592 0.07716264
0001b0 7b 35 95 3d 8f 32 94 3d d3 73 9d 3d 2f 36 95 3d
       0.07285591 0.07236206 0.07688107 0.07285725
0001c0 3f 6b 96 3d 12 b2 9b 3d 10 06 9b 3d 4e 42 9e 3d
       0.07344674 0.076023236 0.07569516 0.0772749
0001d0 34 c7 a5 3d 8d 52 95 3d 0b 1d 9f 3d 09 51 98 3d
       0.080946356 0.07291136 0.077692114 0.07437331
0001e0 7e 4d 95 3d 83 84 95 3d 7c 1d 96 3d de 4d 99 3d
       0.07290171 0.07300665 0.073298424 0.07485555
0001f0 e2 b4 96 3d 4b 08 96 3d 1b 4f 95 3d a4 d6 97 3d
       0.073587194 0.073258005 0.07290479 0.07413986

nnECG.4.weight f4 [64, 128]
000000 1d cb 3c be 91 1e 5c bd 46 e5 a9 3d 41 3c 3e 3e
       -0.18436857 -0.053740088 0.082956836 0.18577673
000010 cd 0e ca bd c1 fd 6c be 05 29 f6 3d 74 a2 6f bd
       -0.09866104 -0.23143674 0.120195426 -0.058504537
000020 46 b2 01 be 2a 9c f3 bd b2 35 87 3d 90 f4 c2 3d
       -0.12665662 -0.1189502 0.066020384 0.09519303
000030 34 a1 83 bd 7f 36 ec bd c0 1e 66 bd 3a 3b ab bd
       -0.064272314 -0.11533832 -0.05618167 -0.08360906
000040 6f eb 64 bd 62 f6 dd bd 5d a7 b9 bd a6 10 7f bd
       -0.05588859 -0.108380094 -0.09065125 -0.062271737
000050 af f8 ce 3d 79 34 37 3d 58 89 7e 3c 6c 67 63 3d
       0.101060264 0.044727776 0.015535675 0.055518553
000060 07 86 04 bd 2c 09 3a 3d 52 97 69 bd c3 da d4 bc
       -0.03235438 0.045418903 -0.057029076 -0.02598322
000070 55 a0 a7 3d d5 2f b7 3c 0e 66 26 be 93 a5 30 3d
       0.08184878 0.022361675 -0.16249868 0.043126654
000080 89 05 16 be 23 99 bf 3d eb 9a 80 3c 4a 2c 06 be
       -0.14650549 0.093553804 0.01569887 -0.13102832
000090 7b 73 c6 3d 2e c3 a1 bd 6f 4b 35 3e 6d 9e c8 3c
       0.09689995 -0.07898556 0.17704557 0.024489606
0000a0 73 34 b9 bd 40 1f 05 bd 5f c3 0b 3d f9 d2 29 bc
       -0.09043207 -0.032500505 0.034121867 -0.010365241
0000b0 be dc 7a bd 9f c7 4c 3e cd fc 90 3c 12 66 48 bb
       -0.061245672 0.19998024 0.01769867 -0.0030578417
0000c0 c6 33 d2 3b b7 9c c8 bd 9c 4f 88 bd ff 9d 9a bd
       0.0064148633 -0.09795516 -0.06655809 -0.075496666
0000d0 6a 42 f6 3b d2 8a 0b 3d 11 b7 d0 3d 94 2f f1 3c
       0.0075152414 0.034067936 0.10191167 0.029441632
0000e0 ab 9c 17 be ba 37 a6 3d e4 25 16 be 7b 53 a3 bd
       -0.14805858 0.08116098 -0.14662892 -0.07974907
0000f0 63 d4 24 be e7 ff 19 be df 61 0c be 32 47 9c bc
       -0.16096644 -0.15039025 -0.1370921 -0.019076917
000100 67 b7 b6 bd cd 72 82 39 42 10 84 3d 72 a3 ce bd
       -0.089217 0.00024881065 0.064484134 -0.100897685
000110 70 6e fe bc 4c 6f 8a bd 2e d8 0f be 97 8a 11 be
       -0.03105852 -0.067595094 -0.1404731 -0.14213024
000120 17 22 b5 3d d6 c0 c9 3d 10 cc 89 3d 68 f7 9c 3d
       0.08844393 0.09851234 0.06728375 0.076643765
000130 6d 61 e6 bc 49 f7 60 3d 2c 2b 3c 3e 88 fd bd 3d
       -0.028122628 0.05492333 0.18375844 0.09276873
000140 c1 71 89 be 73 9d 72 3c 66 7e 63 3d ca cc f9 3d
       -0.268446 0.014808047 0.055540465 0.121972635
000150 81 b7 64 bd 35 10 59 3c 43 62 76 bd ad b2 ff bc
       -0.055839065 0.013248493 -0.060152303 -0.031213129
000160 e7 e4 fb 3d 15 d1 24 3d 4e ad e6 bd a0 18 18 bd
       0.12299519 0.04023846 -0.11263524 -0.03713286
000170 eb a2 66 bd 49 18 22 be 33 02 63 bd 0d f3 d6 3d
       -0.056307714 -0.15829577 -0.05542202 0.10495577
000180 b6 53 31 3e e5 a6 89 3e ac 10 ad 3d b2 c8 5c 3c
       0.1731709 0.26885143 0.084504455 0.013475584
000190 c8 05 1e 3e 6b f0 9b bd d5 7a 41 be 80 1e b5 bd
       0.15431893 -0.076142155 -0.18894513 -0.08843708
0001a0 02 84 0a bb 97 f5 04 be 34 b9 51 be 29 1d 19 3e
       -0.0021135812 -0.1298431 -0.20480806 0.1495253
0001b0 81 3e 81 bd c4 bb 0b be 4d e6 53 be dc f0 26 bb
       -0.0631075 -0.13645846 -0.20693322 -0.0025473153
0001c0 62 42 2c be 5a 3e 1e be d1 f4 e6 bb d3 2f 06 3d
       -0.16822198 -0.15453473 -0.0070482274 0.032760452
0001d0 b9 cf f4 bd f3 e0 44 3e 9f fa f8 bb 7e 2e fc bc
       -0.119536825 0.19226436 -0.0075982357 -0.030783888
0001e0 84 39 4d 3d 0c 1f 0a be 03 29 48 bd c7 4e f8 bd
       0.05010368 -0.13488406 -0.048867237 -0.121244006
0001f0 13 c6 2b 3e a7 0d 0c 3c fc 56 27 3e 75 be 45 3d
       0.16774778 0.008548177 0.16341776 0.048277337
000200 94 07 66 be c0 fe 6b bd fe 21 d6 bd 9f 3c ae 3d
       -0.22463828 -0.057615995 -0.10455702 0.08507656
000210 36 15 d8 bd 87 67 2d be 3e 7c d0 bd 88 9b ba bd
       -0.10550921 -0.16934024 -0.10179947 -0.091116965
000220 50 94 23 be f6 f5 ca bd ca ce 19 3c db e6 9c bc
       -0.15974545 -0.099101946 0.009387681 -0.01915305
000230 08 f0 b6 3d ef e4 77 bd 88 86 08 3e c4 26 1a be
       0.08932501 -0.060521062 0.1333257 -0.1505385
000240 43 f3 32 3e 52 9b 2b bd 44 b8 02 3e 9c 73 40 3e
       0.1747561 -0.041896172 0.12765604 0.18794101
000250 19 fd d9 bd de e9 c2 3d 36 12 33 be 6e 22 f9 bb
       -0.10643978 0.09517263 -0.17487416 -0.0076029813
000260 0d 76 a1 bd 8b 84 7c bd 1a bd 25 bd 8e 58 42 3d
       -0.078838445 -0.06164984 -0.040463544 0.047447734
000270 3b 36 04 3e 84 10 04 bc 24 d6 13 be 80 e1 42 3d
       0.12911312 -0.008060578 -0.14437157 0.047578335
000280 95 f9 6a bd 52 86 24 3d 2f c4 86 bd f8 88 5f be
       -0.057366926 0.04016716 -0.06580388 -0.21829593
000290 b7 ac 91 bd 44 ab 62 bd 76 01 19 3d c0 f0 de bd
       -0.07113021 -0.055339113 0.03735491 -0.10885763
0002a0 a8 5c 6e bd 6e af c4 bd 98 dc a1 bc 50 c7 01 3e
       -0.058193833 -0.09603773 -0.019758508 0.12673688
0002b0 e8 db ec bc 57 1f bc 3d 47 47 77 3a c3 6f 21 3c
       -0.028913453 0.09185665 0.00094329234 0.009853306
0002c0 01 b4 f0 3c 2f 6f 14 3d f0 7a eb bd 97 2a e3 bd
       0.029382708 0.036238845 -0.11498058 -0.11092108
0002d0 04 58 07 3b f6 5f cc bc 82 cd 83 bd aa 3f eb bd
       0.0020651827 -0.024948101 -0.06435682 -0.11486752
0002e0 28 f6 0f 3d f2 74 89 bc 83 94 20 be a4 79 53 3d
       0.035146862 -0.016779397 -0.15681653 0.051629677
0002f0 3b 4e 3d 3d 47 2d 87 bd 5e d4 84 bd e3 e6 2d 3e
       0.046217185 -0.06600433 -0.06485818 0.16982608
000300 22 e9 ed 3d 43 ec 9f 3d 16 67 de 3d f5 3b 85 3c
       0.11616732 0.07808735 0.10859506 0.016263941
000310 f6 5a 12 be 7d ef 4b bd 95 b3 1e be af a7 d7 bb
       -0.14292511 -0.04978894 -0.15498193 -0.0065812687
000320 7a f2 cf 3d 23 67 2f bd d2 dd 4e bd 77 20 75 bd
       0.101536706 -0.04282297 -0.050504513 -0.059845414
000330 89 9a 2a 3e 71 71 c5 3d 7b 65 8b bd 08 ed 1b 3e
       0.16660513 0.09640778 -0.06806465 0.15227139
000340 12 90 08 be 72 2f bc bc 4c 96 fc 3d 62 46 1d 3e
       -0.13336208 -0.022971842 0.12333354 0.1535888
000350 86 8a 78 3d b8 f4 af 3d d8 69 ef bc 28 1b d9 3d
       0.06067898 0.08591598 -0.029225275 0.10600883
000360 30 c3 89 bd 0e 5e 1f be 31 b4 a9 bd 75 47 9b 3c
       -0.06726682 -0.15563223 -0.08286322 0.018954972
000370 a7 1a ba 3c a9 cf 55 bd e6 79 e9 3d 36 2e 14 be
       0.022717787 -0.052199993 0.114002034 -0.14470753
000380 b2 f3 a4 bc a7 f0 b0 3e 00 6d ee bd 1d b9 8d 3e
       -0.020135734 0.34558603 -0.11641884 0.27680293
000390 a4 04 9d 3d 28 aa 06 be 2f 74 88 bd 64 6f 05 be
       0.07666901 -0.13150847 -0.06662785 -0.13030773
0003a0 1a cf 1e 3e 1a 3b db bc 74 bd 93 3d 2d 35 df bb
       0.1550869 -0.02676158 0.0721387 -0.006811759
0003b0 de 66 a1 bd 24 f7 29 3c a3 11 58 be a7 a0 9b bd
       -0.078809485 0.010373864 -0.21100478 -0.075990014
0003c0 40 1f ad 3d 04 f1 9b bb 3b 5f 9c bc 92 e2 26 be
       0.08453226 -0.004758956 -0.019088378 -0.16297367
0003d0 e3 b1 2b bd 09 34 ec 3d 17 5f 01 3e 19 52 30 bd
       -0.041917693 0.115333624 0.1263393 -0.043047044
0003e0 27 34 0f be c7 c1 81 be 02 88 84 bd a9 7c f9 3c
       -0.13984738 -0.25343153 -0.06471254 0.03045495
0003f0 7e 9e 18 3e 53 0f 0f be 79 9d b1 bd c2 ae a2 3c
       0.1490421 -0.1397069 -0.08672614 0.019858722

nnECG.4.bias f4 [64]
000000 3b 7e 3d 3c 1d b6 9a 3c 0d 5d 74 3c 3c b3 0c 3d
       0.01156574 0.018885667 0.014914763 0.03435062
000010 8d 21 a9 3c e3 52 da bc 04 49 91 3c ef 35 59 3c
       0.020645881 -0.026650852 0.017735012 0.013257488
000020 27 ac e5 3c cf e8 ad 3c 85 86 0d bd 38 01 4a 3b
       0.02803619 0.021229176 -0.034552116 0.003082348
000030 af 1d 6e 3a df f1 0e 3b e5 e3 d7 bc a4 71 7c 3c
       0.00090834027 0.0021811647 -0.026353786 0.015407953
000040 48 17 49 3b c2 c6 86 bc 3f 9e 20 3b f4 35 3f 3d
       0.0030684043 -0.016452197 0.0024508385 0.046682313
000050 9c 87 22 3c ae 18 d7 bb 30 b5 8f bb 7f 4a 2b 3d
       0.009920027 -0.0065642213 -0.004385613 0.041819092
000060 3d 19 f3 3c d7 82 41 3c 3e 39 47 3d 55 b5 04 3d
       0.02967512 0.01181098 0.048638575 0.032399494
000070 d2 34 14 3d 3a 31 3a bc 16 41 02 bd 9f 8a 6b bb
       0.036183186 -0.011364276 -0.031800352 -0.003594078
000080 00 1c 64 3c 8e ed 0b bb ab 38 ca 3c f6 3d fd 3c
       0.013922691 -0.002135131 0.024685225 0.030913334
000090 72 6d 44 3d 36 66 64 bc 10 07 a4 3d d7 a1 fb 3c
       0.047955938 -0.013940385 0.080091596 0.03071682
0000a0 5d f8 cd bb 11 42 8d 3b 71 60 b0 3b 74 15 55 bc
       -0.0062857107 0.0043108542 0.0053825905 -0.013005603
0000b0 a7 81 99 3c 25 45 20 3d 02 85 07 bc 9c 33 00 3d
       0.01873858 0.03912844 -0.008271458 0.03129922
0000c0 8d 5e 4a 3c 5a ff 9c 3c 7a 4a af 3c 29 9e 11 b9
       0.012351644 0.01916473 0.021397818 -0.00013887197
0000d0 e5 45 05 3d c7 37 06 bc cf 07 2e 3c d5 1c 12 3d
       0.03253736 -0.008192009 0.010621979 0.035672028
0000e0 61 dc 93 3c 9b 69 67 3d 57 21 b3 ba e1 6c 19 3b
       0.01804942 0.056497198 -0.0013666552 0.0023410844
0000f0 57 7b 30 3c a5 4b 09 3d 61 7c 03 bc 59 4e a8 3c
       0.010771594 0.033519406 -0.00802526 0.020545172

nnECG.5.weight f4 [64]
000000 ea 27 82 3f ea 41 88 3f 6b 9a 83 3f 24 64 8b 3f
       1.0168431 1.0645115 1.02815 1.0889935
000010 7e 43 8b 3f ee 1f 78 3f 4b 5c 8e 3f f5 84 8a 3f
       1.0879972 0.9692372 1.1121916 1.0821825
000020 a3 69 90 3f 29 2a 8c 3f ed 45 77 3f 6a ca 8b 3f
       1.1282238 1.0950366 0.96591073 1.0921147
000030 bc d2 8a 3f 66 a4 78 3f e9 8a 80 3f ba 0d 84 3f
       1.0845561 0.9712585 1.0042392 1.0316689
000040 f1 26 8c 3f 7f 49 7f 3f f5 37 7f 3f a5 20 8d 3f
       1.0949384 0.9972152 0.9969476 1.1025587
000050 0b 22 8e 3f 73 84 80 3f b2 ec 8e 3f 9a 77 8b 3f
       1.1104139 1.004042 1.1165984 1.0895875
000060 43 eb 85 3f 5f 9e 8d 3f e9 65 8f 3f 8e 29 84 3f
       1.0462421 1.1063956 1.1202976 1.0325181
000070 7a 49 8e 3f 61 e8 81 3f 62 a4 83 3f b9 54 7c 3f
       1.1116173 1.0149041 1.0284541 0.98566777
000080 e1 19 8a 3f 0c eb 87 3f 9d 20 8e 3f 69 5c 8f 3f
       1.0789148 1.0618606 1.1103703 1.1200076
000090 b5 9b 9a 3f c4 96 84 3f 3a 9a 90 3f 8f f3 89 3f
       1.2078768 1.035851 1.1297066 1.0777453
0000a0 5a 24 88 3f 67 63 87 3f 8b 4a 8b 3f a8 e9 89 3f
       1.0636094 1.057721 1.0882124 1.0774431
0000b0 fa 46 8a 3f 83 0a 8a 3f bd 42 7f 3f 30 7d 7f 3f
       1.080291 1.0784458 0.9971121 0.99800396
0000c0 3b 94 91 3f 36 f7 84 3f e1 ee 76 3f d7 d8 83 3f
       1.1373361 1.0387943 0.9645825 1.0300549
0000d0 d7 b8 87 3f 31 ac 82 3f 71 9f 93 3f d5 98 93 3f
       1.0603284 1.0208799 1.1533033 1.1531016
0000e0 f6 bb 81 3f cd f2 95 3f 0c 05 86 3f 0f 47 8d 3f
       1.0135486 1.1714722 1.047029 1.103731
0000f0 a6 e9 80 3f 47 13 88 3f 6b 0a 8e 3f 23 49 8b 3f
       1.0071304 1.0630883 1.1096929 1.0881695

nnECG.5.bias f4 [64]
000000 ea 07 a8 ba 7f c3 b9 3b df 44 3f 3c e0 ec de 3c
       -0.0012819741 0.005669057 0.011674135 0.02721256
000010 82 dc b0 3c 2c fa 05 bd 5d 75 60 3c ef 9c 46 3c
       0.021589521 -0.032709286 0.013699857 0.012122377
000020 07 dc 29 3c 0f f1 17 3c 62 d1 4b bd fd 40 55 bc
       0.0103674 0.009273781 -0.04976023 -0.013015983
000030 bc 32 0f bc 7c df 16 bc 22 9a 04 bd 61 24 51 bb
       -0.008740123 -0.009208556 -0.032373555 -0.0031912553
000040 81 b6 11 bc 8a 6a f1 bc 77 09 2d bc c9 08 37 3d
       -0.00889361 -0.029469747 -0.010561339 0.044686113
000050 0e 6f 9d 3b 4b 95 68 bc d6 e7 58 bc f5 53 07 3d
       0.0048044985 -0.0141957505 -0.013238868 0.033039052
000060 c5 f8 ad 3c da 4b 22 3c 28 15 4d 3d b1 a1 9c 3c
       0.021236787 0.00990578 0.050069004 0.01912007
000070 4b 4c f7 3c d0 72 84 bc f7 e0 30 bd c7 14 78 bc
       0.030187747 -0.016168028 -0.043183293 -0.015141672
000080 4a 08 95 3c 96 85 97 bc a6 73 4f 3c 5a 43 a5 3c
       0.01819243 -0.018496316 0.01266185 0.020173717
000090 9a c3 29 3d f5 f1 a1 bc 4a aa 80 3d 91 f0 02 3d
       0.041446306 -0.019768694 0.0628248 0.031967703
0000a0 4b 7f bd bc a3 7d 70 bc f9 b1 eb ba 94 f8 07 bd
       -0.023131987 -0.014678392 -0.0017982117 -0.033196047
0000b0 f2 8c 42 3b e8 54 08 3d 76 6b 90 bc f5 3c 7e 3c
       0.002968606 0.033284098 -0.017629366 0.015517463
0000c0 3a c5 35 3c 16 bc bb 3b 56 e7 35 3c 3e 85 40 bc
       0.011094386 0.0057292087 0.011102518 -0.011750517
0000d0 d4 19 b8 3c b8 cb cd bc 26 8d 60 ba 98 ef 87 3c
       0.022473253 -0.025121555 -0.00085659546 0.01659374
0000e0 b7 65 30 ba 7f cd 48 3d d5 36 7a bc b4 2b 4b bb
       -0.0006729024 0.0490241 -0.015271862 -0.003100139
0000f0 60 fa 59 3a b3 47 c3 3c f2 96 aa bc d8 06 3b 3c
       0.0008315202 0.0238379 -0.02082393 0.011415206

nnECG.5.running_mean f4 [64]
000000 56 61 00 bf 90 0d e2 be 14 81 03 bf 41 e0 25 bf
       -0.5014852 -0.44150972 -0.5136883 -0.6479531
000010 fd e5 87 bb 94 0e 14 bf 36 ba 2e be 99 23 89 3d
       -0.00414729 -0.57834744 -0.17063221 0.06696243
000020 6a 64 99 3e 8c 35 ed 3d 9b 60 55 be 3d c4 46 3e
       0.29959422 0.11582479 -0.20837633 0.19410796
000030 87 31 72 be f3 81 cf bd 9a 92 be be 38 8d 9d be
       -0.23651706 -0.10132208 -0.37221223 -0.30771804
000040 dd b0 48 3d a3 05 f5 be 09 b2 40 be 37 88 5f 3e
       0.048996795 -0.47855863 -0.18817915 0.21829306
000050 8c 49 8e 3d 59 d5 01 bf 8c 0b 98 3e 95 75 bf bd
       0.06947622 -0.5071617 0.2969631 -0.09348599
000060 ca d7 6b be 78 8b 22 be b2 04 9f bd cf 05 02 bf
       -0.23031536 -0.15873516 -0.077645674 -0.50790113
000070 2f 78 b1 bc ba 5c 22 bf 14 08 85 bd d5 6f e3 be
       -0.021663753 -0.6342274 -0.064956814 -0.4442126
000080 c2 4a a6 bb 95 db c8 be 89 dd 38 3d 9c 18 0f 3e
       -0.00507483 -0.39230028 0.045133147 0.13974231
000090 80 d1 5d 3e d8 0b 8e be a5 e5 1f be d6 b6 ec 3e
       0.21661949 -0.2774341 -0.15614946 0.46233243
0000a0 ad b3 c9 be 91 ba 49 be bf 05 7d bc e7 ce 0c be
       -0.39394894 -0.19700076 -0.0154432645 -0.13750802
0000b0 a1 08 00 bf 5a a3 a5 be 0b 20 1a 3e bb c9 60 3e
       -0.50013167 -0.3235119 0.15051286 0.21951954
0000c0 b7 4f 44 3e 1e 52 fd 3e 87 be 36 3e a8 1b 4a be
       0.19171034 0.49476713 0.17846118 -0.19737113
0000d0 aa 6a 73 3e 91 dd a0 3e cf 36 fb be e1 7e e8 3e
       0.23771158 0.31419042 -0.49065253 0.454093
0000e0 e1 ed ad 3e 71 ee be 3d a6 95 a3 3e 53 af 3b 3b
       0.3397055 0.09322823 0.3195011 0.0028638437
0000f0 da 1b ca 3e 3f 70 c8 3d 61 92 d6 3e 70 0f 97 3d
       0.39474374 0.09787034 0.41908553 0.07375991

nnECG.5.running_var f4 [64]
000000 62 a0 9b 3f 99 2a 42 3f 29 89 a5 3f 7e 47 f4 3f
       1.215832 0.7584625 1.2932483 1.9084318
000010 f5 72 4c 3f 54 1d 8c 3f 9c 11 33 40 0b 63 56 3f
       0.7986291 1.094645 2.7979498 0.8374488
000020 c2 c4 0a 40 42 0b 91 3f 13 61 9f 3f 95 69 a4 3f
       2.1682591 1.1331561 1.24515 1.2844721
000030 d7 ff a3 3f cf f3 f8 3f e1 ac 89 3f da 25 88 3f
       1.2812451 1.9449404 1.0755883 1.0636551
000040 dd 91 78 3f 3f 71 72 3f d9 8c 97 3f 57 ea 50 3f
       0.9709757 0.9470405 1.1839858 0.81607574
000050 d3 9e 6a 3f a9 da f3 3f e1 c9 ad 3f 35 c5 61 3f
       0.91648597 1.9051105 1.3577234 0.8819154
000060 19 49 a9 3f bb db ac 3f 42 23 13 40 5a 6c 6f 3f
       1.3225433 1.3504556 2.299027 0.93524706
000070 6a fa 84 3f 49 76 be 3f 1c 4a 04 40 be 34 ba 3f
       1.038892 1.4879848 2.0670233 1.4547346
000080 aa 96 66 3f 0b 9a a8 3f 54 4f 99 3f e2 be 88 3f
       0.90073645 1.317201 1.1977334 1.0683253
000090 ce 27 6c 3f 88 c1 61 3f c6 b8 c8 3f 64 54 d4 3f
       0.9224824 0.8818593 1.5681388 1.6588254
0000a0 fa 58 be 3f c8 77 d0 3f ad b2 81 3f 45 71 91 3f
       1.4870903 1.6286554 1.0132653 1.1362692
0000b0 81 15 6f 3f 73 82 7b 3f fa af 8d 3f 75 e6 82 3f
       0.9339219 0.98245925 1.1069329 1.022658
0000c0 b1 1c 8f 3f 0b 71 b7 3f 67 9d df 3f d7 f5 e1 3f
       1.1180631 1.4331373 1.746991 1.7653149
0000d0 52 51 93 3f 9b a3 b4 3f 15 4a f4 3f d5 77 84 3f
       1.1509192 1.4112428 1.9085108 1.034907
0000e0 bb 87 98 3f 6c 1f 9e 3f ae 4c 5f 3f 7b aa 89 3f
       1.1916422 1.2353339 0.8722638 1.0755152
0000f0 6e 3b 76 3f e4 cd c9 3f fe 31 84 3f 20 07 79 3f
       0.9618443 1.5765958 1.0327756 0.97276497

nnECG.8.weight f4 [16, 64]
000000 67 e2 74 be 76 ac 0e 3c 9a 7f cf 3d aa 3b 73 be
       -0.2391449 0.00870811 0.1013176 -0.23753229
000010 99 e2 ae bd f6 44 f2 bd 60 75 cf 3c 4b f1 37 3e
       -0.08539314 -0.118295595 0.025324523 0.1796314
000020 9f 47 fc bd fa c7 90 bd ef 06 85 3e b7 64 65 3d
       -0.12318348 -0.070693925 0.25981852 0.056004252
000030 d8 d7 69 be b3 02 f6 3c f4 44 1a be 39 9c 70 bd
       -0.22836244 0.030030584 -0.15065366 -0.058742736
000040 f6 7a 47 be f7 46 39 3e f4 5b 6a 3c 87 ca 7a bd
       -0.194805 0.18093477 0.01430415 -0.0612283
000050 11 01 46 bd 7f e0 23 3d b7 4b 54 be e2 e2 a3 3d
       -0.04834086 0.040009018 -0.20732008 0.08002259
000060 60 f4 73 3d 47 0c 63 be 5a 10 8b be 05 cb 37 be
       0.059559226 -0.22172652 -0.27160913 -0.1794854
000070 36 4f 98 bd e9 e1 77 be 77 23 8e bc cd 4e 6c be
       -0.07436983 -0.24207272 -0.017350895 -0.23076935
000080 d6 14 80 3c b3 4f 1c be 94 bc 73 be 25 9b 8a 3e
       0.015634935 -0.15264778 -0.23802406 0.2707149
000090 23 56 17 3e 43 1c 72 bc 3c 20 2f 3e 71 9b fa 3d
       0.14778952 -0.014777246 0.1710214 0.12236679
0000a0 46 b5 5b 3e cd 9f 12 be 39 b4 09 bc f8 bf 46 be
       0.21455869 -0.14318772 -0.008404785 -0.19409168
0000b0 80 fc a8 3d 9f 22 54 3e 6c 4d e4 3c 05 46 30 3e
       0.082512856 0.20716332 0.027868949 0.1721421
0000c0 c0 af 81 bc 0b ff e6 bc 99 f9 e6 3d b4 4b 6b be
       -0.015830874 -0.028197786 0.11278076 -0.22978097
0000d0 af db 97 be 4d 3f 75 3e 6a d2 f5 bd 4a cb 94 3d
       -0.29659793 0.23949929 -0.12003024 0.07265337
0000e0 c8 45 07 3d 24 cf 99 bd 43 a6 3f 3e 0b 0d dc 3c
       0.033025533 -0.07510212 0.18715768 0.026861688
0000f0 d2 d9 11 3c e9 53 2a 3e f5 0b f5 bd ac 26 3d 3e
       0.00890203 0.16633572 -0.11965171 0.18471783
000100 3a 37 d5 3d 11 c5 a5 bd 96 14 e5 3c 5b 6d 04 bd
       0.10410924 -0.08094228 0.027963918 -0.032330852
000110 a0 af bf bc 22 8d 7d 3d 82 01 25 be 36 df 36 bd
       -0.023399174 0.061902173 -0.16113856 -0.044646464
000120 2c 44 0a 3e 3f ad e1 bd ea e2 22 be d7 a7 f8 3d
       0.13502568 -0.11019372 -0.15906873 0.12141388
000130 69 a0 29 be 9a 74 69 3e 51 38 47 3e d6 f1 8f be
       -0.16565098 0.22798386 0.19455077 -0.28114194
000140 e1 ab a2 3e 81 4f 61 be 2f 42 e2 3d 14 01 4c 3e
       0.31771758 -0.22002985 0.1104778 0.19922286
000150 e5 d4 94 3e 26 48 3d 3e 7d 4c a8 3e 2b 4d be 3d
       0.29068676 0.18484554 0.32870856 0.09292062
000160 b6 54 e4 3d ee df ec 3d 31 ca 09 be 1c 47 b1 bd
       0.1114897 0.11566149 -0.13456036 -0.08656141
000170 fb f6 35 be 93 11 50 3e f1 bd f9 3d 04 26 89 bd
       -0.17769997 0.20319204 0.121944316 -0.06696704
000180 50 36 03 be 3e 39 2d 3d b2 3e 40 be ba f2 68 be
       -0.12813687 0.04229092 -0.18773916 -0.22748843
000190 94 f8 8d be 53 a2 67 3e b0 40 c6 3c 7a 56 f1 bd
       -0.27728713 0.22620516 0.024200767 -0.11784072
0001a0 1b 0b 4a 3e fc 3f 11 be b4 24 54 3b ca 93 1c bd
       0.19730799 -0.14184564 0.003237051 -0.03822688
0001b0 39 e4 89 be 99 33 72 be 9b b7 64 be d9 d3 2f bd
       -0.26931933 -0.23652495 -0.22335665 -0.042926643
0001c0 c7 b0 be bd 43 84 a1 bd 79 96 9a 3d f5 4f b9 bc
       -0.09311061 -0.07886555 0.07548232 -0.022621134
0001d0 0d 5c 8d 3e 59 da d1 3d cb bc 04 3e bd 44 4e 3c
       0.27609292 0.10246725 0.12962644 0.012589631
0001e0 85 6e f3 bd dd 44 5e 3c cc e4 77 3e cf 50 b6 bc
       -0.11886314 0.013566223 0.24208373 -0.02225533
0001f0 06 52 23 be c5 45 18 be b9 a9 72 be 8d 0b 71 be
       -0.15949258 -0.14870365 -0.23697557 -0.23539563
000200 85 33 3a be 7d bf 1f be 4d 40 52 3e 17 a1 c6 bd
       -0.18183716 -0.1560039 0.20532341 -0.09698694
000210 60 c2 92 3e dc ee 54 3e 24 bd a3 3e b6 c3 04 be
       0.2866392 0.20794243 0.3198024 -0.12965283
000220 9e 69 b9 3e bd 33 c5 bd 6b 4a 96 bd a9 cf ba 3e
       0.36213392 -0.09629009 -0.07338413 0.36486557
000230 1f 6c a9 be 44 8c f5 bd b5 35 5b 3e 57 16 8b be
       -0.33090302 -0.11989644 0.21407206 -0.2716548
000240 b3 2c e1 3d 81 90 a3 bd d5 38 74 bb 93 ff a3 be
       0.10994854 -0.07986546 -0.003726532 -0.32030925
000250 0b 5c ed bc 51 64 16 3e 96 ef b4 bd a9 25 1a 3e
       -0.028974554 0.14686705 -0.0883476 0.15053429
000260 7a a9 67 be 36 d6 56 3d 6e 72 70 be ad b8 db bd
       -0.22623244 0.05245038 -0.23481151 -0.107285835
000270 49 0a 29 3d 6d 3f c5 bd 7f 32 46 3e 82 b6 08 3e
       0.041269574 -0.09631238 0.193552 0.13350871
000280 ed 8a 25 3e fd 20 43 3e dc 4a 8f be 04 7f ea 3d
       0.16166277 0.19055553 -0.279868 0.114500076
000290 9f 0d 99 bd 9f 20 fa bd 93 0d 26 3e 52 59 9a be
       -0.07473301 -0.12213253 0.16216116 -0.3014627
0002a0 e3 44 a1 3e b3 5a 5a 3e f6 96 29 be 9b 15 6d 3e
       0.3149787 0.21323662 -0.16561493 0.23152773
0002b0 af a6 cc bd 9d ca d9 bd 44 24 14 3d 80 f5 0c 3b
       -0.0999273 -0.106343485 0.036167398 0.0021508634
0002c0 f0 cb 1f 3e 94 7d 17 bc 1d 86 8e be cf 7c c3 bd
       0.1560514 -0.009246249 -0.27836695 -0.0954529
0002d0 59 da 27 be 09 91 8b 3e 97 e4 5d be 6e 07 b8 be
       -0.16391887 0.2725909 -0.21669231 -0.35943168
0002e0 ea be 7d 3d 1f 48 0b 3e 1c b9 6b be 5b 21 bb bd
       0.061949648 0.13601731 -0.23019832 -0.091372214
0002f0 a8 02 71 3e f0 66 ed 3d 8b 3e b8 be 9f 1d 27 bd
       0.2353617 0.115918994 -0.35985216 -0.040799733
000300 60 a9 4a 3e d6 c8 44 be 27 9a d1 3c b3 03 4e 3e
       0.19791174 -0.19217238 0.0255862 0.20118599
000310 74 2b 8d 3e c9 98 06 3e 36 4b 00 be 33 80 7b 3e
       0.27572215 0.1314422 -0.1252869 0.24560623
000320 1d 52 f9 bd 0f be 3c bd 2d bb 84 be 0e 3f 8c be
       -0.12173865 -0.04607969 -0.25924054 -0.27391857
000330 e9 16 4c 3d 2a fa 66 3e ad 66 d1 3d 09 7c 12 3d
       0.049826536 0.22556368 0.10224662 0.03576282
000340 05 ba 46 bd a2 d6 1a be a4 63 34 3e f2 09 c0 bd
       -0.048517246 -0.15120938 0.17616135 -0.09376897
000350 6a 57 2c be 70 dc 8e 3e 29 7d 56 be 12 a4 84 3e
       -0.16830221 0.27902555 -0.20946182 0.25906426
000360 46 01 89 3e f7 c0 95 be 60 53 0c be cb d0 82 3d
       0.26758784 -0.29248783 -0.1370368 0.0638748
000370 71 2f 44 be e8 00 d8 bd c8 e3 9a 3e bc f3 57 be
       -0.19158722 -0.10547048 0.30251908 -0.21089071
000380 d6 d7 9d 3d 00 9b 22 be 3d d5 7e 3e 1f 5a 70 3e
       0.07707183 -0.1587944 0.24886031 0.23471878
000390 00 9c 94 be 15 de dc 3d 5f 9e 21 3e d6 5f 5c be
       -0.2902527 0.10784546 0.1578307 -0.21520934
0003a0 d1 99 86 3d 31 7f 84 be fd f4 03 3e 49 17 32 3d
       0.06572307 -0.2587829 0.12886424 0.043479238
0003b0 d2 6c a9 3d 1e 07 aa 3d cf 1b 1e be 35 bd 10 be
       0.08272709 0.08302139 -0.15440296 -0.14134677
0003c0 a9 30 e2 bc 55 dc 69 3d fe a1 26 3e b2 be 5e be
       -0.027611094 0.05709489 0.16272733 -0.21752432
0003d0 34 0b 61 3e 97 a8 88 3d 18 de de bc ec d2 b3 3d
       0.2197693 0.06672781 -0.027205512 0.087804645
0003e0 c6 0c ff 3c 7b 9d 97 3e 63 62 77 3d cc d7 9b 3d
       0.03113402 0.29612336 0.060396563 0.07609519
0003f0 54 25 1b be 55 2b 69 3e c4 6e 25 3d fd 97 41 3e
       -0.15150958 0.22770436 0.040388837 0.18905635

nnECG.8.bias f4 [16]
000000 8d c7 5c bc 5c 8b 13 bc d1 13 3a ba aa 49 0d 3d
       -0.013475311 -0.009005394 -0.000709829 0.03449408
000010 5b 0a b2 3c 9f fe c3 3b c8 4a 03 3d a5 25 8a 3c
       0.021733453 0.005981281 0.03205374 0.016863653
000020 aa 11 1c 3d d6 49 27 3d 0f 7a c7 3c c2 6d a8 3b
       0.038102783 0.0408419 0.024350194 0.0051400373
000030 b0 d2 0d 3c ab 73 c7 3c 70 d0 0b 3d a0 47 e5 bc
       0.008656189 0.024347147 0.03413433 -0.027988255

nnECG.9.weight f4 [16]
000000 ce b8 73 3f 3f fb 82 3f 9c c1 89 3f c8 28 83 3f
       0.95203865 1.0232924 1.076221 1.024682
000010 8b 1b 90 3f 22 e7 85 3f 3c 86 8b 3f a1 24 85 3f
       1.1258405 1.0461161 1.090034 1.0401803
000020 6f 8f 8c 3f 52 5c 96 3f 6f c0 8c 3f 23 c2 86 3f
       1.0981272 1.1746924 1.0996226 1.0527996
000030 36 24 91 3f bf b4 90 3f c7 67 8c 3f 17 73 86 3f
       1.1339176 1.1305159 1.096917 1.0503873

nnECG.9.bias f4 [16]
000000 c8 36 c1 bc e6 f2 13 bd 8f ea cf bc 4b 0b 23 3d
       -0.023585692 -0.036120318 -0.025380401 0.03980569
000010 c5 9f eb 3c 3f b1 02 bc 62 b1 13 3d 70 60 c7 3b
       0.028762707 -0.007976829 0.036057837 0.0060844943
000020 bf 4a 58 3c e8 ae b8 3c 70 89 92 3c 24 4d 35 bc
       0.013201415 0.02254434 0.017887801 -0.011065755
000030 99 d9 27 bc 25 5b 8b 3c 85 5b b9 3c e4 6d e5 bc
       -0.01024475 0.017011235 0.022626648 -0.028006501

nnECG.9.running_mean f4 [16]
000000 da b9 3b be 7a eb 61 bd c0 7d c8 ba 28 d3 a2 3e
       -0.18332615 -0.05515621 -0.0015296265 0.31801724
000010 a1 7f dd 3e fe d6 1a 3e b7 20 89 be 14 98 e9 3e
       0.43261436 0.15121076 -0.26782772 0.4562384
000020 b2 bc fc be 29 0c af be 2f 54 0e 3f e4 ed e1 be
       -0.49362713 -0.34188965 0.55597204 -0.4412681
000030 93 be 49 be ea 46 36 3e 15 12 03 bd 63 46 3f 3f
       -0.19701605 0.17800489 -0.031999666 0.74716777

nnECG.9.running_var f4 [16]
000000 ba 4a 9b 3f aa 38 b5 3f e5 55 d3 3f f1 6c c5 3f
       1.213218 1.4157917 1.6510588 1.5423871
000010 4a 56 95 3f e6 de c9 3f fe 2b c7 3f 50 a3 be 3f
       1.1666958 1.5771148 1.55603 1.4893589
000020 94 06 22 40 c7 50 9b 3f a9 41 cb 3f 6b 7c dd 3f
       2.5316515 1.2134026 1.5879413 1.7303594
000030 7a 58 cb 3f a4 53 b9 3f 79 90 9d 3f 2e 5b f6 3f
       1.5886376 1.447865 1.2309715 1.9246576
