Models/net_2_1_epoch_22.pth (torch, 57997 bytes, 25 tensors)

nnECG.0.weight f4 [128, 12]
0	0x3e03b469	0.1286179
1	0x3d8562cd	0.065129854
2	0xbdf62a20	-0.120197535
3	0x3e041dfd	0.12902065
4	0xbd78941c	-0.060688123
5	0x3cfffc94	0.031248368
6	0xbe5da585	-0.21645172
7	0xbcbe436b	-0.023225507
8	0xbe10ca34	-0.14139634
9	0x3ca42348	0.020036355
10	0x3b558a27	0.0032583566
11	0x3cf6d4b8	0.03013073
12	0xbd6d8b2d	-0.057994056
13	0x3cd13a62	0.025540534
14	0x3e40c6d0	0.18825841
15	0x3e2188b8	0.1577481
16	0x3b819137	0.0039540785
17	0xbdff4df9	-0.12466044
18	0xbe2ba74c	-0.16763037
19	0x3d5cdff0	0.0539245
20	0xbb9c6584	-0.004772844
21	0x3e530c7e	0.20610234
22	0x3e09ec07	0.13468944
23	0xbe1eb41f	-0.15498398
24	0xbdc4542f	-0.09586369
25	0xbe0d5387	-0.13801394
26	0xbcef1492	-0.029184613
27	0x3d1894d0	0.037251294
28	0x3c9009fe	0.01758289
29	0xbe04ad35	-0.12956698
30	0x3e0bb4b6	0.13643155
31	0x3e0e0e34	0.13872606
32	0xbd544651	-0.05182487
33	0xbe4d9250	-0.20075345
34	0xbe297a2e	-0.16550514
35	0xbe2ae4f1	-0.16688897
36	0x3e592850	0.21206784
37	0x3e33bbc9	0.17552103
38	0x3bf74fe2	0.0075473646
39	0xbdbca28f	-0.09210693
40	0x3d51c3df	0.051212188
41	0xbe3b0beb	-0.18266265
42	0xbcd4bbd3	-0.025968468
43	0x3e2bd965	0.16782148
44	0xbdcca60d	-0.09992609
45	0x3e259043	0.16168313
46	0xbcc33c5c	-0.023832493
47	0x3e1e59d7	0.15463959
48	0x3e1b2bd9	0.15153445
49	0xbe3c62e8	-0.18397105
50	0x3dcfe4b0	0.101510406
51	0x3d30c61d	0.043157686
52	0xbe09efe7	-0.13470422
53	0x3e2784bc	0.16359228
54	0xbe6ff3ea	-0.2343289
55	0xbdd1fd62	-0.10253407
56	0x3dfda7b3	0.12385502
57	0x3dc5e495	0.09662739
58	0x3dc4fc0a	0.09618385
59	0xbe3ae7b9	-0.18252458
60	0x3e057497	0.13032757
61	0xbe0dfaa2	-0.1386514
62	0x3e15a127	0.14612256
63	0xbdc8a792	-0.097975865
64	0x3d64bbe9	0.055843268
65	0xbd6482a7	-0.055788662
66	0x3d97cd26	0.07412176
67	0x3bf5fc6b	0.007506897
68	0x3d933314	0.07187477
69	0x3e47d3a7	0.19514333
70	0x3dba79ee	0.091052875
71	0xbe66ae03	-0.22527318
72	0x3d119188	0.03553918
73	0xbe0ab02f	-0.13543771
74	0x3b98b136	0.004659797
75	0x3ca917aa	0.020641167
76	0xbe17a759	-0.14809932
77	0x3e16bb9f	0.1472001
78	0x3e213002	0.1574097
79	0xbe295885	-0.16537674
80	0xbc6d2efd	-0.014476535
81	0x3dd32fa8	0.10311824
82	0xbde9d968	-0.1141842
83	0x3e43226e	0.19056103
84	0x3e3c8143	0.18408684
85	0x3e5a5844	0.21322733
86	0x3dd4a10f	0.10382282
87	0x3e37a5a9	0.17934288
88	0x3d817b0d	0.06322298
89	0x3e0f0b93	0.13969259
90	0xbe4e33d5	-0.2013696
91	0xbd38f45e	-0.04515492
92	0xbe3b1c12	-0.18272427
93	0x3d63be50	0.055601418
94	0xbde96fac	-0.11398253
95	0x3de47d34	0.11156693
96	0xbb05c07d	-0.0020408921
97	0xbd7ac6f0	-0.061224878
98	0x3d37c53a	0.044865824
99	0xbe14658d	-0.14491864
100	0x3d022cb4	0.031780913
101	0xbb72b1cf	-0.0037032252
102	0xbdb28190	-0.08716118
103	0xbda17d43	-0.0788522
104	0x3d954baa	0.072898224
105	0xbe1952f2	-0.14973047
106	0x3e054505	0.1301461
107	0x3c0347e8	0.008012749
108	0x3d563dc8	0.052305013
109	0xbd9d51c2	-0.0768161
110	0x3da3c9e8	0.07997495
111	0x3df1685a	0.117874816
112	0xbe05636c	-0.13026208
113	0xbd64b81b	-0.05583964
114	0xbd29b647	-0.0414336
115	0x3c2cb350	0.010540798
116	0x3e16149e	0.14656302
117	0x3d0a8be4	0.033824816
118	0x3e0469f6	0.12931046
119	0x3d992b6e	0.07478987
120	0xbd462db0	-0.048383415
121	0x3d8c6170	0.06854522
122	0xbe4753fa	-0.19465628
123	0xba7d8387	-0.0009670783
124	0xbe51af6d	-0.20477076
125	0xbe45231f	-0.19251679
126	0x3ce8a4c1	0.028398873
127	0xbd0133dc	-0.031543598
128	0x3c7e22df	0.015511244
129	0xbd86abcd	-0.06575737
130	0x3e1cfddf	0.15331219
131	0x3dc7c5c8	0.09754521
132	0x3e4788ad	0.19485731
133	0xbe08b63e	-0.1335077
134	0xbcb262f0	-0.021775693
135	0xbe184e18	-0.1487354
136	0xbe30b286	-0.17255601
137	0x3e26d702	0.16292956
138	0x3de4f8a9	0.11180241
139	0xbe30f021	-0.17279102
140	0xbd3fad3e	-0.046796076
141	0x3e56f1a9	0.20990624
142	0xbc440f77	-0.011966578
143	0x3e2cf097	0.16888653
144	0x3e338cc9	0.17534174
145	0x3e17045f	0.14747761
146	0xbde0a376	-0.10968678
147	0xbe076795	-0.13223107
148	0x3e5ef8e5	0.21774633
149	0x3caac13d	0.020844096
150	0x3b099b0d	0.0020996958
151	0xbe0fa5d5	-0.14028104
152	0xbd1edef5	-0.038786847
153	0x3e0405da	0.12892857
154	0x3e1f0eaf	0.15532945
155	0xbdb7725b	-0.089573584
156	0xbbfce9f5	-0.0077183195
157	0xb9d1d722	-0.00040023873
158	0x3df58052	0.11987366
159	0xbd3dda04	-0.046350494
160	0xbe07555f	-0.1321616
161	0x3d3255be	0.0435388
162	0xbdc7307b	-0.09726044
163	0x3df4dcef	0.11956202
164	0xbdb5aca2	-0.08870818
165	0x3e686ba5	0.22697313
166	0xbd470dd9	-0.04859719
167	0x3d76bf3a	0.06024096
168	0xbdc84aba	-0.09779878
169	0x3ddad237	0.106846265
170	0xbd5f533b	-0.054522734
171	0xbc825537	-0.015909774
172	0x3e1dbc3a	0.15403834
173	0xbe441fb5	-0.1915272
174	0xbcc7ec4a	-0.024404664
175	0xbdb0d6de	-0.08634733
176	0x3e5f8b49	0.21830477
177	0xbd49e3f3	-0.049289655
178	0x3d997141	0.074923046
179	0xbd97eb9c	-0.07417986
180	0x3df5cbe8	0.12001783
181	0x39892c36	0.00026163616
182	0x3cbba0f4	0.022903897
183	0x3db21906	0.08696179
184	0x3daf9c3c	0.08574721
185	0xbc6ca88b	-0.014444481
186	0x3db9cbfc	0.0907211
187	0xbd06107a	-0.032730557
188	0x3d0dc85a	0.0346149
189	0xbd4b9145	-0.049699087
190	0xbe147784	-0.14498717
191	0x3c3f72c5	0.011685078
192	0x3ddf8337	0.10913699
193	0x3dbb7621	0.09153391
194	0x3e1e1e16	0.15441164
195	0xbd5d5fac	-0.054046318
196	0x3b4fed6d	0.003172721
197	0xbe0b2a8e	-0.13590452
198	0x3d85d2d7	0.06534355
199	0x3ce11faa	0.027480919
200	0x3e00c824	0.12576348
201	0xbd184c23	-0.037181985
202	0xbe671d21	-0.22569706
203	0xbd7d7290	-0.061876833
204	0xbd11fa98	-0.035639375
205	0x3d8f3508	0.06992537
206	0x3daf635c	0.08563873
207	0xbd72f5e0	-0.059316516
208	0xbd6202c6	-0.055178426
209	0x3e4e541a	0.2014927
210	0xbe2eef11	-0.17083384
211	0x3c5ad4d8	0.01335641
212	0x3dbf4780	0.093398094
213	0x3d272f7f	0.04081678
214	0x3e15263f	0.14565371
215	0xbe5e94b8	-0.21736419
216	0x3d40a8d7	0.04703602
217	0x3bf3267c	0.007420359
218	0xbdaa0886	-0.08302407
219	0xbe58368d	-0.2111456
220	0x3e277fc5	0.16357334
221	0x3d8d3b29	0.068960495
222	0x3e21596f	0.15756772
223	0x3e2ab97c	0.16672319
224	0xbe154fbd	-0.14581199
225	0xbd07be61	-0.033140544
226	0x3daef53d	0.08542869
227	0xbc32c541	-0.010911287
228	0x3d70177d	0.05861615
229	0x3cce08ed	0.02515074
230	0xbe5cf49d	-0.21577688
231	0xbd114251	-0.035463635
232	0xbe0c532e	-0.13703606
233	0xbe2ab5d1	-0.1667092
234	0x3c451a35	0.012030174
235	0xbc8cc212	-0.017182384
236	0xbdcdec63	-0.10054853
237	0xbe539e1d	-0.20665784
238	0xbe3fbdbd	-0.18724723
239	0xbd1ccb6b	-0.038279932
240	0x3de735db	0.11289569
241	0xbd0f5d95	-0.035001356
242	0x3df417b9	0.11918587
243	0xbd9e9f71	-0.07745255
244	0x3e78224d	0.24231835
245	0xbd80c680	-0.06287861
246	0xbe4ca398	-0.19984281
247	0x3caec10d	0.021332288
248	0xbe09d13f	-0.13458727
249	0x3d9b3a23	0.07579448
250	0x3e1025e2	0.14076951
251	0x3e5aa359	0.21351375
252	0xbd980143	-0.07422116
253	0xbdf209da	-0.11818285
254	0xbe3f4ce4	-0.18681675
255	0x3d892ece	0.066983804

nnECG.0.bias f4 [128]
0	0x3c33bf85	0.010970955
1	0x3c8470c0	0.016167045
2	0x3ce6e57d	0.0281856
3	0x3af4833e	0.0018654836
4	0x3b9bd8b7	0.004756059
5	0xbbf2d34f	-0.007410444
6	0x3a870f80	0.0010304302
7	0xbaa2c252	-0.0012417531
8	0x3c52777a	0.012845868
9	0xbb7a145a	-0.0038159103
10	0x3c2d677d	0.010583756
11	0x3c0616b2	0.008184122
12	0xbac2bc23	-0.0014857095
13	0x3c6cdf5b	0.014457549
14	0x3c5fd349	0.013661214
15	0x3cabd9ee	0.02097794
16	0x3c55f5fc	0.0130591355
17	0xbb902414	-0.004398832
18	0x3a9f2ff8	0.0012145033
19	0x3c60eb30	0.013727948
20	0x3c2eece7	0.010676599
21	0x3c2ed785	0.010671501
22	0x3c8196dd	0.015819008
23	0x3c93f5a1	0.01806146
24	0x3c9e2684	0.019305475
25	0x3b933dc2	0.004493446
26	0x3c55e357	0.01305469
27	0x3c4bf107	0.012447602
28	0xbb5d659e	-0.0033782492
29	0x3bc56f02	0.006025196
30	0x3aa4219a	0.0012522221
31	0x3c5661b6	0.01308482
32	0x3cb14543	0.021639472
33	0x3a072d4e	0.0005156592
34	0x3c4112bd	0.011784253
35	0x3c89e6fa	0.016833771
36	0x37a158a4	1.9233972e-05
37	0x3c1be00f	0.009513869
38	0x3cdd552a	0.027018148
39	0x3c054b87	0.008135683
40	0x3c4a1102	0.012333157
41	0xbaff68f3	-0.0019486233
42	0x3c3d3952	0.011549311
43	0x3be3db25	0.0069536143
44	0x3b49ad5b	0.0030773494
45	0x3bc6ab76	0.00606292
46	0x3c1452a4	0.009052906
47	0x3c0c74bb	0.008572753
48	0x3c9df9e6	0.0192842
49	0x39be0cbc	0.00036249112
50	0xbb30c0f1	-0.002697047
51	0x3cf6e801	0.030139925
52	0x3c857db2	0.016295288
53	0x3c90b195	0.017662803
54	0x3c8a2809	0.016864793
55	0x3c1a0bd6	0.009402236
56	0x3c7ab290	0.015301362
57	0xbbba458a	-0.0056845592
58	0x3c8d1637	0.017222507
59	0x3cac8a3d	0.02106201
60	0x3c002472	0.007821189
61	0x3be8fd32	0.0071102614
62	0x3caf0360	0.021363914
63	0x3bbb5313	0.0057166903
64	0x3892f533	7.0074944e-05
65	0x3c0904a2	0.008362921
66	0x3c9d5617	0.01920609
67	0x3c028859	0.007967078
68	0x3b2832a0	0.002566494
69	0x3b3a6eb9	0.0028447344
70	0x3b93b3d9	0.0045075235
71	0x3c6e0ba8	0.014529146
72	0xbbe6553f	-0.007029205
73	0x3be5fca3	0.007018642
74	0x3c8a39ea	0.016873319
75	0x3c68380b	0.014173518
76	0x3c3bb4dd	0.011456695
77	0x3852c7e0	5.025405e-05
78	0x3c33ce29	0.010974445
79	0xbb5e2d87	-0.0033901648
80	0x3c862cee	0.016378846
81	0x3d0e1094	0.03468378
82	0x3ce86d0e	0.028372314
83	0x3aa1a2c3	0.0012331832
84	0x3c5b64e2	0.013390752
85	0x3bd3b79f	0.0064610983
86	0xbb001102	-0.0019541387
87	0x3c704ba2	0.01466647
88	0x3b28effc	0.0025777807
89	0x3c856e33	0.016287899
90	0x3b0d64ce	0.0021574977
91	0x3bb826c7	0.005619857
92	0x3c47b322	0.012188705
93	0x3b7f039a	0.0038912059
94	0x3c28d06a	0.010303596
95	0x3cd8ab6c	0.026448928
96	0x3c39c2b9	0.011337929
97	0x3cc47bcb	0.02398481
98	0x3be18dad	0.006883344
99	0x3ce04253	0.027375376
100	0x3cc0f60d	0.023554826
101	0x3baa2491	0.0051923473
102	0x3c3ee265	0.011650656
103	0x3c019afa	0.007910484
104	0x3a6903f2	0.00088888325
105	0x3ba34cee	0.004983536
106	0x3ce204ec	0.027590238
107	0x3ce8fd22	0.028441016
108	0x3c06ec36	0.008235028
109	0x3c813d81	0.015776398
110	0x3cb99727	0.022655083
111	0xbc72ec11	-0.01482679
112	0xbad9d5e7	-0.0016619534
113	0x3b4b23e4	0.0030996734
114	0x3c188731	0.009309576
115	0x3c9f1ee2	0.019423906
116	0x3cf0b57f	0.02938342
117	0xbc485a7c	-0.012228604
118	0x3c9cb6a3	0.019130057
119	0x3bef6577	0.0073057967
120	0xbbdc7220	-0.006727472
121	0x3c5a87e9	0.013338068
122	0x3c9fb1eb	0.019494018
123	0xb990bc45	-0.00027606092
124	0x3b1b9a0c	0.0023742942
125	0x3c6ce7d4	0.014459569
126	0x3c4644f3	0.0121014
127	0x3a84423d	0.0010090541

nnECG.1.weight f4 [128]
0	0x3f86e016	1.0537136
1	0x3f88d374	1.068953
2	0x3f83bf16	1.029269
3	0x3f81e713	1.0148643
4	0x3f8165c6	1.0109184
5	0x3f781f3c	0.9692266
6	0x3f7da7bb	0.9908406
7	0x3f856048	1.0420008
8	0x3f7704b0	0.9649153
9	0x3f75696c	0.95863986
10	0x3f7f3893	0.996957
11	0x3f850fc8	1.0395441
12	0x3f8442c6	1.0332878
13	0x3f803290	1.001543
14	0x3f7e2968	0.9928193
15	0x3f848222	1.0352213
16	0x3f817b5d	1.0115772
17	0x3f76899c	0.96303725
18	0x3f7a29f1	0.9772025
19	0x3f8cd86b	1.1003546
20	0x3f8cbf68	1.0995913
21	0x3f79144c	0.97296596
22	0x3f866425	1.0499312
23	0x3f8214e8	1.016263
24	0x3f87e936	1.0618045
25	0x3f79d7b2	0.9759475
26	0x3f856f57	1.0424603
27	0x3f891a64	1.0711179
28	0x3f7af989	0.9803701
29	0x3f84d6b5	1.0378023
30	0x3f7d0efa	0.9885098
31	0x3f7f6969	0.9977022
32	0x3f8c0920	1.0940285
33	0x3f7d70fd	0.9900053
34	0x3f84b684	1.0368199
35	0x3f8ada4c	1.0847869
36	0x3f846489	1.0343181
37	0x3f7baf83	0.98314685
38	0x3f85ab9e	1.0442998
39	0x3f826fa7	1.0190324
40	0x3f7c0682	0.9844743
41	0x3f854277	1.0410908
42	0x3f836977	1.026656
43	0x3f794f64	0.97386765
44	0x3f767630	0.9627409
45	0x3f8753e5	1.0572478
46	0x3f8159ad	1.0105492
47	0x3f83176b	1.0241522
48	0x3f90da4f	1.1316622
49	0x3f81d5a1	1.0143319
50	0x3f833941	1.0251848
51	0x3f8888cc	1.0666747
52	0x3f7c97ef	0.9866933
53	0x3f84bf46	1.0370872
54	0x3f833588	1.0250711
55	0x3f83912f	1.0278682
56	0x3f8261f1	1.0186139
57	0x3f894569	1.0724307
58	0x3f878969	1.0588809
59	0x3f88df69	1.0693179
60	0x3f76969b	0.96323556
61	0x3f824933	1.0178589
62	0x3f828c7d	1.0199124
63	0x3f80b8a3	1.0056347
64	0x3f83755f	1.0270194
65	0x3f7b6bfe	0.9821166
66	0x3f7c8f16	0.9865583
67	0x3f80c29e	1.0059392
68	0x3f85bf05	1.044892
69	0x3f849f9b	1.0361208
70	0x3f7a896c	0.9786594
71	0x3f7e6702	0.9937593
72	0x3f85a46b	1.0440801
73	0x3f84d506	1.037751
74	0x3f844f2a	1.0336659
75	0x3f8727c9	1.0559016
76	0x3f7f883f	0.9981727
77	0x3f8343e3	1.0255092
78	0x3f85d940	1.0456924
79	0x3f752136	0.957538
80	0x3f8f0c10	1.1175556
81	0x3f893038	1.071784
82	0x3f83a9a6	1.0286148
83	0x3f82105d	1.0161244
84	0x3f82f1eb	1.0230078
85	0x3f8bc190	1.0918446
86	0x3f84fed5	1.0390269
87	0x3f7fc7d8	0.9991431
88	0x3f86a0ab	1.0517782
89	0x3f83ff83	1.0312351
90	0x3f7ff7f3	0.99987715
91	0x3f822ae2	1.0169337
92	0x3f842057	1.0322369
93	0x3f7ee158	0.995626
94	0x3f78a315	0.97123843
95	0x3f89ef07	1.077607
96	0x3f86487f	1.0490874
97	0x3f852dab	1.0404562
98	0x3f7c8c07	0.98651165
99	0x3f8aa76e	1.0832345
100	0x3f840c6f	1.0316294
101	0x3f7b7074	0.98218465
102	0x3f831ccf	1.0243167
103	0x3f846191	1.0342275
104	0x3f7b884b	0.9825484
105	0x3f823679	1.0172874
106	0x3f853659	1.040721
107	0x3f880b66	1.0628479
108	0x3f7c76ed	0.98618966
109	0x3f85ee32	1.0463316
110	0x3f7f9d08	0.99848986
111	0x3f7ebd96	0.99508035
112	0x3f7c2db9	0.9850727
113	0x3f827eae	1.019491
114	0x3f87b033	1.0600647
115	0x3f8ac6ab	1.0841879
116	0x3f82e0cd	1.0224854
117	0x3f756f50	0.95872974
118	0x3f81adf3	1.013121
119	0x3f868716	1.0509975
120	0x3f7dc157	0.9912314
121	0x3f8700cd	1.0547119
122	0x3f814cbd	1.0101544
123	0x3f891cb9	1.071189
124	0x3f84691b	1.0344576
125	0x3f8177ce	1.0114686
126	0x3f7e34db	0.992994
127	0x3f7e655e	0.99373424

nnECG.1.bias f4 [128]
0	0xbb139730	-0.0022520535
1	0x3c0a178a	0.008428464
2	0x3cbe3f17	0.023223443
3	0x3a7563b0	0.0009360863
4	0xbc6b67bd	-0.014367995
5	0xbc3f65a3	-0.011681947
6	0xbb936ab6	-0.004498805
7	0xbc6f0d82	-0.014590623
8	0xbc70480b	-0.014665614
9	0xbc674627	-0.014115847
10	0xbc28fb91	-0.010313884
11	0xbbf7c351	-0.0075611253
12	0xbcaa15b9	-0.020762311
13	0x3c00cf11	0.0078618685
14	0xbc197406	-0.009366041
15	0x3a8839e6	0.0010393232
16	0x3bf223f0	0.007389538
17	0xbc1b185a	-0.009466255
18	0xbc8eb4c0	-0.017420173
19	0x3c812508	0.015764728
20	0x3a8cc122	0.001073871
21	0xbb7952c7	-0.0038043724
22	0x3c4a5c22	0.012351068
23	0x3c00460b	0.0078292
24	0x3b915f56	0.0044364138
25	0x3a7cfa41	0.0009650328
26	0xbc527e41	-0.012847484
27	0xbb335fc0	-0.0027370304
28	0xbc5ab5ff	-0.013349055
29	0x3a4b02b9	0.0007744241
30	0xbb66d79c	-0.0035223728
31	0x3aa1f112	0.001235517
32	0x3c570277	0.013123146
33	0xbc3a0afa	-0.011355156
34	0x3a97e99c	0.0011590007
35	0x3cae38c9	0.021267312
36	0xbb4b4384	-0.0031015584
37	0x3b1d56f2	0.0024008122
38	0x3c60a3ff	0.013710975
39	0xbbec57d5	-0.007212619
40	0x3aaf95f9	0.0013396136
41	0xbc72f241	-0.014828266
42	0x3b87a630	0.004139684
43	0x3861be5c	5.3821466e-05
44	0xbc187a3f	-0.0093064895
45	0x3bc9dfeb	0.0061607263
46	0xbc3fd8d4	-0.011709411
47	0xbbd3122f	-0.0064413766
48	0x3cc186e8	0.023623899
49	0xbb4b3e49	-0.0031012467
50	0x3b9d6862	0.004803703
51	0x3ccee5e0	0.025256097
52	0x3c8b0eb2	0.01697478
53	0x3c6e911d	0.014560965
54	0x39779df4	0.00023614598
55	0x3c0888f1	0.008333431
56	0x3b8932ce	0.0041869646
57	0xbc8fe90e	-0.017567184
58	0x3bb0a283	0.0053904667
59	0xba13d069	-0.00056386605
60	0xbb06f8cf	-0.0020595079
61	0xbbcb994e	-0.0062133437
62	0x3c6e0e70	0.014529809
63	0xb8895d24	-6.550018e-05
64	0x3be4c5b2	0.006981575
65	0x3b3aecb0	0.0028522424
66	0x3b59e920	0.0033250526
67	0x3c240ca1	0.010012777
68	0xbc2b0ea1	-0.0104404995
69	0xbb7e9274	-0.0038844617
70	0xbc24ff65	-0.010070656
71	0x3baf8dd0	0.0053574815
72	0x3b76a7d5	0.0037636657
73	0x3c2e37d3	0.010633427
74	0xbaf6c451	-0.0018826817
75	0x3b832ead	0.004003367
76	0x3b2c0475	0.0026247774
77	0x3a308ae7	0.0006734565
78	0xbb842be8	-0.0040335543
79	0x3b5b4d30	0.0033462755
80	0x3c34cb88	0.011034854
81	0x3cee896c	0.029118262
82	0x3c8073ce	0.01568022
83	0xbb9cc329	-0.004784007
84	0xbb07ffc6	-0.0020751818
85	0x3c0439e6	0.008070445
86	0xbbc74596	-0.0060812933
87	0x3b1bfd95	0.002380227
88	0x3b3fa9ed	0.002924557
89	0x3b5df8c3	0.0033870197
90	0x3beaa21d	0.0071604387
91	0xbb96ef0b	-0.004606133
92	0x3baf47b2	0.005349123
93	0xbc10f0e9	-0.0088465
94	0xbc6a05df	-0.014283626
95	0x3c85f728	0.016353205
96	0xb954e4d7	-0.00020303145
97	0x3c421e26	0.011848008
98	0xbb6f24f2	-0.0036490527
99	0x3a4b5fda	0.00077581184
100	0x3cb3d344	0.021951325
101	0x3b865e5e	0.004100605
102	0x3bcfff57	0.0063475776
103	0xbb80f381	-0.003935278
104	0x3a4a1e6d	0.0007710222
105	0xbc9d91af	-0.019234506
106	0x3c563d19	0.01307609
107	0x3b074517	0.0020640546
108	0x3b5a8287	0.003334196
109	0x3c6173d9	0.01376053
110	0x3c5e0520	0.013551027
111	0xbc923e13	-0.017851865
112	0xbc397f23	-0.011321816
113	0xbb10d457	-0.002209922
114	0xbc2c81c2	-0.010528984
115	0x3c18953f	0.009312927
116	0x3ca06ea6	0.019584011
117	0xbcee0917	-0.029057069
118	0x3a9bd0db	0.0011887805
119	0x3b65d8ed	0.0035071925
120	0xbc03ff0c	-0.008056413
121	0xbbeb1532	-0.0071741575
122	0x3c116a49	0.008875438
123	0xbc864065	-0.016388128
124	0xbbc62d05	-0.006047847
125	0x3c099361	0.008396954
126	0x3c0556aa	0.008138338
127	0xbc10037e	-0.008789895

nnECG.1.running_mean f4 [128]
0	0xbe725830	-0.23666453
1	0x3d9cc96d	0.076556064
2	0xbeee93d6	-0.46597165
3	0x3e5ed632	0.21761397
4	0x3e91463c	0.28373897
5	0x3f0f8c46	0.56073415
6	0x3e36d286	0.17853746
7	0xbda8bda0	-0.08239293
8	0xbcdd1541	-0.026987674
9	0x3ea4c5c6	0.3218214
10	0xbd8153d0	-0.06314814
11	0x3eca1969	0.3947251
12	0x3eaca206	0.33717364
13	0x3db32326	0.087469384
14	0x3944d0cb	0.00018769798
15	0x3cdc9ac2	0.026929263
16	0xbc0330e3	-0.008007261
17	0x3ea4d2a7	0.32191965
18	0x3e643cbe	0.22288796
19	0xbf175eaf	-0.5912885
20	0xbb4305f1	-0.002975818
21	0xbe9e5dae	-0.30930847
22	0xbe3e332d	-0.1857421
23	0xbebf5364	-0.3736831
24	0xbde9a32d	-0.114080764
25	0xbddb29ac	-0.10701308
26	0x3e47b6cb	0.19503324
27	0x3e0db87b	0.13839905
28	0x3d87756a	0.06614192
29	0x3e8e5eb2	0.27806622
30	0x3edc3dd6	0.43015927
31	0xbf161bf4	-0.58636403
32	0xbe7a79e2	-0.24460557
33	0xbe91c9e9	-0.28474358
34	0x3dd6630c	0.104681104
35	0xbe270a8b	-0.16312616
36	0xbe8b6bb8	-0.2723062
37	0xbccbc8e8	-0.024876073
38	0xbe607cd5	-0.2192262
39	0x3e9d2b9a	0.30697328
40	0xbe57da26	-0.21079311
41	0x3e9a719a	0.30164796
42	0x3eb840e5	0.3598701
43	0xbd97660a	-0.07392509
44	0x3db13663	0.086529516
45	0xbe03ff14	-0.12890273
46	0xbea3905e	-0.3194608
47	0xbe82043e	-0.25393862
48	0x3c8b543a	0.017007936
49	0x3e27de3c	0.1639337
50	0x3dffdb90	0.1249305
51	0xbe23eeb4	-0.16009027
52	0xbef4310d	-0.47693673
53	0xbe897d5c	-0.26853454
54	0x3e7d1c9b	0.24717943
55	0xbdddf539	-0.10837788
56	0xbd922545	-0.07136015
57	0x3ec8854d	0.391642
58	0x3da8b2b3	0.08237209
59	0xbe8cd347	-0.27504942
60	0x3d8c67f6	0.068557665
61	0xbe9be163	-0.30445394
62	0xbe765cc4	-0.24058825
63	0xbe36a7c1	-0.1783743
64	0x3e8bbf09	0.27294186
65	0x3ebbf923	0.36713514
66	0xbdb2b2d9	-0.08725519
67	0xbea4d1e7	-0.32191393
68	0x3e5c0d1e	0.21489379
69	0x3d86bfa8	0.06579524
70	0xbe3ca2c7	-0.1842147
71	0x3de8990d	0.11357317
72	0xbeb89eec	-0.36058748
73	0xbcb21e7c	-0.021743052
74	0xbd9f930f	-0.07791721
75	0xbe2d2004	-0.16906744
76	0x3e1bccd9	0.15214862
77	0x3d01460a	0.031560935
78	0x3ea0749c	0.31338966
79	0xbe082bc4	-0.13297945
80	0x3e4b91cb	0.19879834
81	0xbdb497ab	-0.08817991
82	0x3e2dc2fe	0.16968915
83	0x3ebd5816	0.36981267
84	0x3e61badb	0.22043936
85	0x3d4fcba3	0.050731312
86	0x3dcbde7c	0.09954545
87	0xbe91366a	-0.28361827
88	0xbdb2d930	-0.087328315
89	0x3d999803	0.07499697
90	0xbeebfd6c	-0.46091783
91	0x3ed8c462	0.42337328
92	0x3e32e8ee	0.17471668
93	0xbe8fefc5	-0.28112617
94	0x3ed6f27f	0.41981885
95	0xbe9ef86e	-0.31048912
96	0xbde863d2	-0.11347164
97	0xbe414708	-0.18874753
98	0xbdbb827e	-0.09155749
99	0x3e279b52	0.16367844
100	0x3df82b7e	0.121176705
101	0x3c25998d	0.01010741
102	0xbe82b7b9	-0.25530794
103	0xbe484644	-0.19558054
104	0x3e2a63b8	0.16639602
105	0xbda7c510	-0.081918836
106	0xbee93ff8	-0.45556617
107	0xbe506f92	-0.2035506
108	0x3d1010b5	0.035172183
109	0xbe0f6cdd	-0.14006372
110	0xbe35d7a7	-0.17758046
111	0x3e8a19f1	0.26972917
112	0xbe2cbba6	-0.16868457
113	0x3ea99663	0.33122548
114	0xbe02ce5d	-0.12774034
115	0xbe293622	-0.16524556
116	0xbddf2712	-0.10896124
117	0x3c696069	0.014244177
118	0xbda2f3e1	-0.079566725
119	0xbebb314a	-0.36561042
120	0x3e899ba6	0.26876563
121	0xbd64c69a	-0.055853464
122	0xbe09203f	-0.13391207
123	0x3e80a927	0.25129053
124	0xbe9100ea	-0.2832101
125	0x3ebbfb4a	0.36715156
126	0xbeaefd86	-0.34177798
127	0xbe5e9d4c	-0.21739691

nnECG.1.running_var f4 [128]
0	0x3d986ddf	0.07442831
1	0x3d969dd5	0.07354323
2	0x3d98e62d	0.074657775
3	0x3d9d2c2c	0.07674441
4	0x3d9671cf	0.07345926
5	0x3d95419c	0.072879046
6	0x3d94f158	0.07272595
7	0x3d9c4dcb	0.07632025
8	0x3d940dbe	0.072291836
9	0x3d94d990	0.07268059
10	0x3d9998c7	0.07499843
11	0x3d94eb4a	0.0727144
12	0x3d9ded49	0.07711274
13	0x3d98e8ab	0.07466253
14	0x3d990ffa	0.074737504
15	0x3d93ab86	0.0721045
16	0x3d968333	0.07349243
17	0x3d9b0fdf	0.075713865
18	0x3d96aa6d	0.07356725
19	0x3d98dc33	0.07463875
20	0x3d99c173	0.07507601
21	0x3d9add61	0.07561756
22	0x3d962c9b	0.073327266
23	0x3d97f7d4	0.07420316
24	0x3d9cc729	0.07655174
25	0x3d960daa	0.07326825
26	0x3d966f3d	0.07345436
27	0x3d960931	0.07325972
28	0x3d962166	0.07330589
29	0x3d9fbb68	0.07799417
30	0x3d9adce2	0.07561661
31	0x3d9c95d3	0.07645764
32	0x3da2f8cb	0.0795761
33	0x3d968c06	0.07350926
34	0x3d944944	0.07240537
35	0x3d975401	0.07389069
36	0x3d946641	0.07246066
37	0x3d95ee3a	0.07320829
38	0x3d9dc48e	0.077035055
39	0x3d9811fc	0.07425305
40	0x3d946d83	0.0724745
41	0x3d9bcf5c	0.0760791
42	0x3d9eccea	0.07753928
43	0x3d947315	0.07248513
44	0x3d93c83a	0.072159246
45	0x3d9a7ed9	0.075437255
46	0x3d94b25e	0.07260583
47	0x3d95d3f6	0.07315819
48	0x3d960a9d	0.07326243
49	0x3d9ce98f	0.07661735
50	0x3da1ac4c	0.07894191
51	0x3d97f519	0.074197955
52	0x3d93e9ad	0.072223045
53	0x3d96ef3d	0.0736985
54	0x3da04048	0.07824761
55	0x3d9565cd	0.072948076
56	0x3d94796c	0.07249722
57	0x3d9cd3e3	0.07657602
58	0x3d9875c6	0.074443385
59	0x3d983e66	0.074337766
60	0x3d9d7cd8	0.07689828
61	0x3da5408a	0.080689505
62	0x3d982407	0.07428747
63	0x3d9d8d8f	0.07693016
64	0x3d98040c	0.07422647
65	0x3d97c63d	0.07410858
66	0x3d94d57f	0.07267284
67	0x3d9aff55	0.07568232
68	0x3d961f20	0.073301554
69	0x3d985ba4	0.07439354
70	0x3d96b0f0	0.07357967
71	0x3d989306	0.074499175
72	0x3d993546	0.07480864
73	0x3d94f1c8	0.072726786
74	0x3da38446	0.079842135
75	0x3d98bd67	0.07458001
76	0x3d96e746	0.07368331
77	0x3d97286c	0.07380757
78	0x3d995f4a	0.07488878
79	0x3d945fc2	0.07244827
80	0x3d992e16	0.07479493
81	0x3d9a767e	0.07542132
82	0x3d95146c	0.07279286
83	0x3d9874cc	0.07444152
84	0x3d97eb63	0.07417943
85	0x3d9aee81	0.07565022
86	0x3d97b60f	0.07407772
87	0x3d956274	0.07294169
88	0x3da3d15c	0.079989165
89	0x3d962e29	0.07333023
90	0x3d96d242	0.07364322
91	0x3da5f47f	0.081032746
92	0x3d985479	0.07437987
93	0x3d9494dd	0.07254956
94	0x3d95b940	0.07310724
95	0x3d94f6f2	0.072736636
96	0x3d99acef	0.075036876
97	0x3d99bba2	0.07506491
98	0x3d95a7d4	0.07307401
99	0x3d991a1b	0.07475682
100	0x3d964338	0.0733704
101	0x3d940762	0.07227971
102	0x3d99f34c	0.07517108
103	0x3da46b0d	0.08028231
104	0x3d9704a7	0.07373934
105	0x3d99e122	0.07513644
106	0x3d965079	0.07339568
107	0x3d989e73	0.07452097
108	0x3d96bb30	0.07359922
109	0x3d956ab8	0.072957456
110	0x3d95a40c	0.0730668
111	0x3d965833	0.073410414
112	0x3d940124	0.0722678
113	0x3d96c546	0.07361846
114	0x3d9a9582	0.075480476
115	0x3d9906f9	0.07472033
116	0x3d9957a5	0.0748742
117	0x3dafb98b	0.085803114
118	0x3d94e0e5	0.07269458
119	0x3d9ac860	0.0755775
120	0x3d99c287	0.07507806
121	0x3d9779f7	0.0739631
122	0x3d954ec5	0.07290415
123	0x3d9c3f45	0.07629255
124	0x3d975fa0	0.07391286
125	0x3d9b1c9e	0.07573818
126	0x3d950179	0.072756715
127	0x3d9b9634	0.07597008

nnECG.4.weight f4 [64, 128]
0	0xbdc48237	-0.09595149
1	0xbdd691b6	-0.10477011
2	0xbb27a65e	-0.002558134
3	0xbe2a7e12	-0.16649655
4	0x3ccd8820	0.025089324
5	0x3e1e1b68	0.15440142
6	0x3dc577a4	0.0964196
7	0xbd90bc12	-0.070671216
8	0xbdfc28fb	-0.12312504
9	0x3d01b8ef	0.031670507
10	0xbe130ab7	-0.14359556
11	0xbd8558d5	-0.06511084
12	0xbcb366f0	-0.02189967
13	0x3c6db90b	0.01450945
14	0xbdb10abb	-0.08644625
15	0xbda4b9e2	-0.08043267
16	0xbe320884	-0.17386061
17	0xbdaddd89	-0.0848952
18	0x3dc3aaff	0.09554099
19	0xbd8861ac	-0.066592544
20	0xbe400ccd	-0.18754883
21	0xbc8b86e5	-0.017032096
22	0xbdb818a5	-0.089890756
23	0x3dbce930	0.092241645
24	0x3e0bae7c	0.1364078
25	0xbe25eb76	-0.16203102
26	0x3e1539bf	0.1457281
27	0x3c8518e5	0.016247222
28	0x3e1b620c	0.1517412
29	0x3c7b1db9	0.015326911
30	0x3e0bbcc9	0.13646235
31	0x3d611c9b	0.05495892
32	0x3d92e270	0.07172096
33	0xbc2279e3	-0.009916755
34	0xbd360c49	-0.04444531
35	0x3d5e2670	0.054235876
36	0xbdfe4859	-0.12416143
37	0xbe354557	-0.17702232
38	0x3bf1ab5a	0.007375163
39	0x3e1e6c71	0.15471055
40	0xbc53412a	-0.012893954
41	0xbd435a8e	-0.04769378
42	0x3cd27bb5	0.025693754
43	0x3b0bd0c7	0.0021334158
44	0xbe1abd3a	-0.15111247
45	0x3bc5fb1e	0.0060418984
46	0x3ca213ac	0.01978477
47	0xbd77242d	-0.060337234
48	0x3e0e5f82	0.13903621
49	0x3db02598	0.086009204
50	0xbde0b199	-0.10971374
51	0xbc3bcba9	-0.011462131
52	0x3ddb67f3	0.10713186
53	0x3e18588e	0.14877531
54	0x3e28119f	0.16412972
55	0xbe024a0d	-0.1272356
56	0xbdd64833	-0.1046299
57	0x3e307ba4	0.17234665
58	0xbe35055a	-0.17677823
59	0x3e2783af	0.16358827
60	0xbe320124	-0.17383248
61	0x3dd3131e	0.10306381
62	0xbb8be466	-0.0042691706
63	0x3e2d2c84	0.16911513
64	0x3e11e64d	0.14248009
65	0x3d0f3b26	0.034968518
66	0x3decd7cb	0.11564597
67	0xbd3fcf70	-0.046828687
68	0xbd748f01	-0.05970669
69	0x3e0cd416	0.1375278
70	0x3e2f03e3	0.17091326
71	0xbda9dea8	-0.082944214
72	0xbdb64339	-0.088995405
73	0xbd3c0f55	-0.04591306
74	0xbdb56921	-0.088579424
75	0xbcf4988d	-0.029857898
76	0x3cb48738	0.022037134
77	0xbde63dee	-0.11242281
78	0xbda729ca	-0.081622675
79	0x3d4f10b9	0.050553057
80	0x3d08b9d3	0.03338034
81	0xbe19c50e	-0.15016577
82	0xbdcd9a55	-0.10039202
83	0xbe0c7d13	-0.13719587
84	0xbc3bc891	-0.011461393
85	0x3dd2b783	0.10288908
86	0x3c80cfb4	0.01572404
87	0x3dcb4940	0.09926081
88	0xbc43b801	-0.011945725
89	0xbd540e3c	-0.051771387
90	0x3e0373d3	0.12837152
91	0x3d378d39	0.044812415
92	0x3ba594b6	0.005053128
93	0x3d9b004a	0.075684145
94	0x3dff2970	0.124590755
95	0xbd9af111	-0.07565511
96	0xbdb5f137	-0.08883899
97	0x3d86fbe6	0.065910146
98	0xbe273fe7	-0.1633297
99	0xbd72fd2a	-0.059323467
100	0x3e2b7bee	0.16746494
101	0x3e3b28dd	0.18277307
102	0x3bebcf8a	0.0071963714
103	0x3c4e3e47	0.01258809
104	0xbe10314b	-0.14081304
105	0x3d9357fb	0.07194515
106	0xbbc14c9a	-0.005899024
107	0xbbce50ba	-0.0062962444
108	0x3e016fae	0.12640259
109	0xbd7190b2	-0.058975883
110	0xbdd43584	-0.1036177
111	0xbd934055	-0.07190005
112	0xbca9be7b	-0.020720711
113	0xbceb0bb9	-0.028692113
114	0xbe4ce05d	-0.20007463
115	0xbdc9f80b	-0.098617636
116	0x3dc4d219	0.096103854
117	0x3dbb9d35	0.09160844
118	0x3d00610a	0.031342544
119	0x3e1737f2	0.14767435
120	0xbde3e0eb	-0.11126884
121	0xbe4188bb	-0.18899815
122	0xbc1f27a2	-0.009714039
123	0x3d32764a	0.04356984
124	0xbd9722cc	-0.07379684
125	0xbd54c6c4	-0.05194737
126	0xbdc086a9	-0.094006844
127	0x3b38a7ae	0.0028176117
128	0x3b22a32f	0.0024816503
129	0xbcd29bf4	-0.02570913
130	0x3df79aea	0.120900944
131	0x3e15bad2	0.14622048
132	0x3e4de634	0.20107347
133	0x3dfe8341	0.124273784
134	0x3a3bd673	0.00071654393
135	0xbdc01c98	-0.09380454
136	0xbd47a3e7	-0.048740294
137	0xbd24ee31	-0.04026622
138	0x3d76840d	0.060184527
139	0x3b9d6e8a	0.004804437
140	0x3c17699f	0.009241491
141	0x3df2ae18	0.11849612
142	0xbb8ae423	-0.004238622
143	0xbe387105	-0.18011864
144	0xbe482497	-0.19545208
145	0xbd2c03bd	-0.041995753
146	0xbd419c8d	-0.04726844
147	0xbcdad284	-0.02671171
148	0x3e00c378	0.12574565
149	0x3e0527c7	0.13003455
150	0xbe22ae80	-0.15886879
151	0x3d487a8f	0.048945006
152	0x3c397bcc	0.011321019
153	0xbb273330	-0.0025512688
154	0xbd98fe42	-0.07470371
155	0xbe09f23c	-0.13471311
156	0xbdb6eb3f	-0.089315884
157	0x3d759a50	0.059961617
158	0xbdc9ab33	-0.09847107
159	0x3d8b8c4c	0.06813869
160	0x3e06b484	0.13154799
161	0x3d6d5e36	0.057951175
162	0xbe1e378d	-0.15450878
163	0x3d781538	0.06056711
164	0x3cfb92b0	0.030709594
165	0xbdcae04d	-0.09906063
166	0x3d91f63b	0.07127043
167	0xbe420282	-0.18946269
168	0x3dd9273d	0.10603187
169	0xbd10802b	-0.03527848
170	0xbdab7ae5	-0.0837305
171	0xbe2cea4e	-0.16886255
172	0xbe12d0ea	-0.14337507
173	0x3ded531d	0.11588118
174	0xbe239af3	-0.15977077
175	0xbd481b5a	-0.04885421
176	0x3dd1b407	0.102394156
177	0xbe358e0e	-0.17729971
178	0x3e3da3a7	0.1851946
179	0xbe047fbd	-0.12939353
180	0xbd642567	-0.055699732
181	0xbd9be823	-0.07612636
182	0x3e2db0ee	0.16962025
183	0x3d6765a7	0.056493428
184	0xbe3de159	-0.18542995
185	0xbd4ccd6e	-0.0500006
186	0x3daafa1e	0.08348487
187	0x3c990e74	0.01868365
188	0xbd79fc54	-0.061031654
189	0x3debc399	0.11511917
190	0xbdb285c9	-0.08716924
191	0xbe35d1c3	-0.17755799
192	0xbdae5296	-0.08511846
193	0x3dd7d466	0.10538559
194	0xbe42328f	-0.18964599
195	0x3d247f7f	0.040160652
196	0x3d297bd9	0.041377876
197	0xbc674646	-0.014115876
198	0xbd8c0cb0	-0.068383574
199	0xbbd3de7b	-0.0064657307
200	0xbd526057	-0.051361408
201	0xbd284be7	-0.04108801
202	0x3d9ba62a	0.07600053
203	0x3c83c3e6	0.016084623
204	0xbe216c54	-0.1576398
205	0x3e12c536	0.14333043
206	0x3e27cf74	0.16387731
207	0xbd09cc96	-0.033642374
208	0x3dcd018d	0.100100614
209	0xbe67080b	-0.22561662
210	0x3dfc2733	0.12312164
211	0xbe474696	-0.1946052
212	0xbe0db3c8	-0.13838112
213	0x3df74af5	0.12074844
214	0x3e06fa17	0.13181339
215	0xbd135bf0	-0.03597635
216	0x3df77c36	0.12084238
217	0x3e0f8698	0.14016187
218	0x3d89c4f7	0.06727021
219	0xbbe8f1e5	-0.007108914
220	0x3de8e373	0.113715075
221	0x3e01c3fb	0.12672417
222	0xbd205d8c	-0.039151713
223	0xbda2f5ed	-0.07957063
224	0xbe05fbbe	-0.13084313
225	0x3ce40810	0.027835876
226	0x3c482555	0.012215932
227	0x3d0a0e34	0.03370495
228	0x3dd39da1	0.103328
229	0x3da152da	0.07877131
230	0xbe1709de	-0.14749858
231	0xbb087b65	-0.0020825502
232	0xbdbbcd1e	-0.091699824
233	0x3c0b02dc	0.008484568
234	0xbe18aec0	-0.14910412
235	0x3de8caa5	0.113667764
236	0xbd2dfbab	-0.042476337
237	0xbdec99ed	-0.115527965
238	0xbe112ef3	-0.14178066
239	0x3db41209	0.087925024
240	0x3e1e5f5f	0.15466069
241	0x3dfcb230	0.12338674
242	0x3daa11c4	0.0830417
243	0x3e540c8e	0.20707914
244	0xbd133502	-0.035939224
245	0xbc24657a	-0.0100339595
246	0x3d98c917	0.0746023
247	0x3c9a8cde	0.018865999
248	0x3d7272a9	0.05919138
249	0x3d99497c	0.07484719
250	0x3cc3e3d5	0.02391235
251	0x3d94a847	0.07258659
252	0xbd58373f	-0.05278706
253	0xbbe10fc4	-0.0068683345
254	0xbde1e1bf	-0.11029386
255	0x3d7b6b24	0.061381474

nnECG.4.bias f4 [64]
0	0xbbdfc403	-0.0068287863
1	0xbcc4b809	-0.024013536
2	0x3c93458d	0.0179775
3	0x3c82f19a	0.015984345
4	0xbc5edcfc	-0.0136024915
5	0x3c3b60d4	0.01143666
6	0x3d09203e	0.033478014
7	0x3c4ac466	0.012375927
8	0x3c7cb9f4	0.015425194
9	0x3cfd6334	0.030931093
10	0x3c3a676a	0.011377195
11	0x3d18863e	0.0372374
12	0x3cd7f2c9	0.026360886
13	0x3d3a9f6d	0.045562197
14	0x3a9615bd	0.001145057
15	0x3ccc4c3b	0.024938693
16	0x3c8c3753	0.017116224
17	0x3c818d7a	0.015814532
18	0xbc2e9ebc	-0.010657962
19	0x3d1d9063	0.038467776
20	0x3d52f0df	0.051499244
21	0x3ce12862	0.027485076
22	0x3ced3eec	0.028960668
23	0x3b7d9bb5	0.0038697545
24	0x3c73a7bc	0.014871534
25	0x38aa0271	8.1066864e-05
26	0x3cd31f64	0.025771804
27	0x3d0358cc	0.032067105
28	0xbd310ec0	-0.043226957
29	0x3cd9e8dc	0.026600294
30	0xbc1cc1d7	-0.009567699
31	0x3ca309e1	0.019902172
32	0x3c3324ca	0.010934064
33	0x3c6796be	0.014135061
34	0x3c7f9bfc	0.015601154
35	0x3cd22f18	0.025657222
36	0x3d330e7a	0.043714978
37	0x3c907fba	0.01763903
38	0x3c861d39	0.016371356
39	0x3d180c77	0.037121262
40	0x3ccfe9ab	0.025379976
41	0xbbcd4b96	-0.006265114
42	0xbc63fa20	-0.013914615
43	0xbcf4e6f3	-0.029895281
44	0x3cf9757b	0.030451527
45	0x3d204c54	0.039135292
46	0x3d086558	0.033299774
47	0x3c8d24f3	0.017229533
48	0xbd10d253	-0.03535683
49	0xbc585416	-0.013203641
50	0x3c253d73	0.010085451
51	0x3cb73775	0.022365311
52	0x3ca0bc0f	0.019620923
53	0x3c59b80c	0.013288509
54	0x3c91bb9e	0.017789658
55	0x3caf8f61	0.021430673
56	0x3cc24397	0.02371387
57	0x3cac009a	0.02099638
58	0x3c7e2b38	0.015513234
59	0xbcc88d71	-0.024481507
60	0xbc1c63df	-0.0095452955
61	0x3c7fac3f	0.0156050315
62	0xbba8a2d4	-0.0051463638
63	0x3b958d69	0.0045639765

nnECG.5.weight f4 [64]
0	0x3f814def	1.0101908
1	0x3f8281f1	1.0195905
2	0x3f84dd5e	1.0380056
3	0x3f8250e9	1.0180942
4	0x3f7f443b	0.99713486
5	0x3f821711	1.0163289
6	0x3f8adf51	1.0849401
7	0x3f863894	1.0486016
8	0x3f8b9ba7	1.0906876
9	0x3f8d3393	1.1031364
10	0x3f8dbeb2	1.107382
11	0x3f8703f8	1.0548086
12	0x3f896090	1.0732594
13	0x3f884ca3	1.0648388
14	0x3f86c205	1.052796
15	0x3f854572	1.0411818
16	0x3f7fb5e2	0.99886906
17	0x3f85a567	1.0441102
18	0x3f86d2f8	1.0533133
19	0x3f89da19	1.0769683
20	0x3f8db4a4	1.1070752
21	0x3f896a9c	1.073566
22	0x3f8bc2d4	1.0918832
23	0x3f8197fa	1.0124505
24	0x3f7ad9fd	0.97988874
25	0x3f83bede	1.0292623
26	0x3f82726f	1.0191172
27	0x3f89246a	1.0714238
28	0x3f803319	1.0015594
29	0x3f8157fd	1.0104977
30	0x3f80f263	1.007397
31	0x3f829d11	1.0204183
32	0x3f85b00a	1.0444348
33	0x3f8c1e40	1.0946732
34	0x3f86782f	1.0505427
35	0x3f831ff6	1.0244129
36	0x3f8837f5	1.0642077
37	0x3f88d79c	1.0690799
38	0x3f8af031	1.0854551
39	0x3f802ed5	1.0014292
40	0x3f89cfa3	1.0766491
41	0x3f7ace02	0.9797059
42	0x3f771608	0.9651799
43	0x3f80a271	1.0049573
44	0x3f797875	0.9744943
45	0x3f88b88d	1.068132
46	0x3f83cf07	1.0297555
47	0x3f821bed	1.0164772
48	0x3f7c4df4	0.9855645
49	0x3f7cb71c	0.987169
50	0x3f8cf734	1.101294
51	0x3f8dc0ec	1.10745
52	0x3f84747f	1.0348052
53	0x3f8044e8	1.0021029
54	0x3f8c5a68	1.096509
55	0x3f8728a0	1.0559273
56	0x3f86256e	1.0480173
57	0x3f8b5745	1.0886008
58	0x3f76c41b	0.96392983
59	0x3f77db1a	0.968187
60	0x3f7f6c8e	0.99775016
61	0x3f84e261	1.0381585
62	0x3f81df03	1.0146183
63	0x3f87c191	1.0605947

nnECG.5.bias f4 [64]
0	0xbc87f776	-0.01659749
1	0xbd0ae8ea	-0.03391353
2	0x3b9700e1	0.004608259
3	0x3b986019	0.0046501276
4	0xbcb398bd	-0.021923417
5	0x3b290ade	0.002579383
6	0x3ce56b5c	0.028005295
7	0xba8968f4	-0.0010483549
8	0x3c530ce4	0.012881491
9	0x3c9216d5	0.017833153
10	0x3c1f7961	0.009733529
11	0x3cdb9ea6	0.026809048
12	0x3cb27d5a	0.021788288
13	0x3d0bdb4c	0.034144685
14	0xbb492fd1	-0.0030698667
15	0x3aa4a613	0.0012561701
16	0x3b2a2365	0.0025961038
17	0x3c81b457	0.015833063
18	0xbc33b836	-0.010969212
19	0x3d15d7f8	0.036582917
20	0x3d4be78c	0.049781367
21	0x3c6efd57	0.014586768
22	0x3ccdd303	0.025125032
23	0xbbcb7bbe	-0.0062098196
24	0x3be03781	0.006842554
25	0xbc7b147c	-0.015324708
26	0x3ccc1958	0.024914429
27	0x3c92327b	0.017846337
28	0xbd655bd5	-0.05599578
29	0x3c086a6c	0.008326154
30	0xbc4d3b6d	-0.012526375
31	0x3b178bf5	0.0023124192
32	0x3ac51ef0	0.0015039127
33	0x3ac5d782	0.0015094134
34	0x3c5094fb	0.012730832
35	0x3ccc4406	0.02493478
36	0x3cb5755c	0.022150688
37	0x3bbb3ae5	0.005713808
38	0x3a578f1f	0.0008222926
39	0x3c5b7cc9	0.01339645
40	0xbb164fdf	-0.002293579
41	0xbc879e57	-0.016554995
42	0xbcacc507	-0.021090044
43	0xbd19bd4a	-0.037534036
44	0x3c328deb	0.010898094
45	0x3cdba20e	0.026810672
46	0x3cada91f	0.021198807
47	0x3b510258	0.0031892266
48	0xbd5ee87f	-0.054420944
49	0xbcf8b564	-0.030359931
50	0x3b9ad498	0.00472505
51	0x3c89dd4a	0.016829152
52	0x3b9a9bd5	0.0047182837
53	0xbafa1623	-0.0019080084
54	0x3c2cc90f	0.010545983
55	0x3c5d47e4	0.01350591
56	0x3b8f948c	0.004381722
57	0x3c19919f	0.009373098
58	0x3b9f0ed1	0.004854061
59	0xbd45628c	-0.048189685
60	0xbcd29fd5	-0.02571098
61	0x3bed7908	0.007247094
62	0xbbe98ba4	-0.007127242
63	0x3aefb0df	0.0018286965

nnECG.5.running_mean f4 [64]
0	0x3e00b3d8	0.12568605
1	0x3e2ea1f0	0.17053962
2	0x3d4cfe37	0.050047126
3	0x3dd5d282	0.10440542
4	0xbeb1d5c7	-0.34733412
5	0x3e19d13b	0.15021221
6	0xbe9ac8c3	-0.30231294
7	0x3d4cd45a	0.0500072
8	0x3dc9e426	0.09857969
9	0x3dfcd158	0.12344617
10	0x3d4a2502	0.0493517
11	0x3e84199b	0.25800785
12	0xbe7add8b	-0.24498574
13	0x3dadb9b0	0.08482683
14	0x3d84630b	0.064642034
15	0xbf005b0f	-0.50138944
16	0x3e5bc602	0.21462253
17	0xbe319b68	-0.17344439
18	0xbe30103b	-0.17193691
19	0x3dcfd1c1	0.10147429
20	0xbe062d63	-0.13103251
21	0xbe5aaa8a	-0.21354118
22	0xbe5102d7	-0.2041124
23	0xbeffe8b9	-0.4998224
24	0x3e3dd790	0.18539262
25	0xbe9e55a6	-0.3092472
26	0xbec0c863	-0.37652883
27	0x3e0d4d70	0.13799071
28	0xbdfa7642	-0.12229587
29	0x3d0e1616	0.03468903
30	0xbe306e48	-0.17229569
31	0xbca556dd	-0.020183021
32	0xbd381f67	-0.044951823
33	0xbecd1b6a	-0.40059978
34	0xbbffc39b	-0.0078053004
35	0xbdaf350b	-0.08555039
36	0x3da5e0f5	0.08099548
37	0x3da75527	0.081705384
38	0xbd0081e5	-0.031373877
39	0x3edd94b1	0.43277505
40	0x3d93680c	0.0719758
41	0x3eeb1987	0.45917913
42	0xbed6e4d3	-0.41971454
43	0x3ee9f991	0.45698217
44	0xbe098b2a	-0.13431993
45	0xbe6da529	-0.23207535
46	0xbe31fe04	-0.17382056
47	0x3e34d0be	0.17657754
48	0x3e14243e	0.1446695
49	0xbd837283	-0.06418326
50	0x3e9fb8c6	0.31195658
51	0x3ec6a974	0.38801157
52	0xbe1ed2c1	-0.15510084
53	0xbecdde84	-0.40208828
54	0x3d8478df	0.06468367
55	0x3f2d1f38	0.6762576
56	0xbec65e0b	-0.38743624
57	0x3df781f1	0.12085331
58	0x3f451518	0.7698531
59	0xbe8e4621	-0.2778788
60	0xbeb3491b	-0.35016713
61	0xbee37ce9	-0.44431236
62	0x3eb2d694	0.34929335
63	0xbeac6fd7	-0.33679077

nnECG.5.running_var f4 [64]
0	0x3f87f001	1.0620118
1	0x3f9e3cfd	1.2362362
2	0x3f85e01f	1.0459021
3	0x3fdfa6d8	1.7472792
4	0x3f587192	0.84548295
5	0x3fa57a31	1.2927915
6	0x3f9201d6	1.140681
7	0x3f650e30	0.89474773
8	0x3f7b5642	0.98178494
9	0x3fb29e9c	1.3954654
10	0x3f878fdc	1.0590777
11	0x3fc092d9	1.5044814
12	0x3f8ded4d	1.1088043
13	0x3fd3f9ae	1.6560571
14	0x3f6d72c9	0.92753273
15	0x3fa6393f	1.298622
16	0x3f705cfc	0.9389188
17	0x3fc99abc	1.5750346
18	0x3f707ef9	0.93943745
19	0x3f7ad9d9	0.9798866
20	0x3f965ca0	1.1747017
21	0x3fb7bd56	1.4354656
22	0x400cc17e	2.1993098
23	0x3fab703e	1.3393629
24	0x3fb4f813	1.4138206
25	0x3fc09033	1.5044006
26	0x3f6ab786	0.91686285
27	0x3f7882bb	0.9707448
28	0x3fc6a08d	1.5517746
29	0x3f5df5ba	0.86703074
30	0x3fc38579	1.5275108
31	0x3f9b63b0	1.2139797
32	0x3fd2386b	1.6423467
33	0x3fd43825	1.6579634
34	0x3f841693	1.0319389
35	0x3fa46ba2	1.2845347
36	0x3fa46a92	1.2845023
37	0x3f7a16f7	0.9769129
38	0x3f83a870	1.0285778
39	0x3f68e3dd	0.9097269
40	0x3f920407	1.1407479
41	0x3fc8136b	1.5630926
42	0x3f627fcd	0.8847626
43	0x3f647582	0.892418
44	0x3f5e4c16	0.8683485
45	0x3f7cc4fc	0.98738074
46	0x3f8262a7	1.0186356
47	0x3f90a27d	1.1299587
48	0x3f5b382a	0.85632575
49	0x3f89cf38	1.0766363
50	0x3f58c24b	0.8467147
51	0x3f9324fd	1.1495663
52	0x3fc915fb	1.5709833
53	0x3fdb7c2f	1.7147273
54	0x3f864672	1.0490248
55	0x3fdd0fc3	1.7270435
56	0x3f8a6990	1.0813465
57	0x3f805e59	1.0028793
58	0x3f6ebc2f	0.93255895
59	0x3fcb1db6	1.5868442
60	0x3fc5304b	1.5405363
61	0x3f919565	1.1373717
62	0x3f59f866	0.8514465
63	0x3f43e8bb	0.76526994

nnECG.8.weight f4 [16, 64]
0	0x3e75a50b	0.2398874
1	0x3d874b79	0.06606192
2	0xbe36c207	-0.17847453
3	0xbe4f96a7	-0.20272313
4	0xbe2b8836	-0.16751179
5	0xbe823117	-0.25428078
6	0x3da7f31a	0.08200665
7	0xbd6ce8ff	-0.05783939
8	0xbdadb97f	-0.08482646
9	0x3e84eeed	0.25963536
10	0xbd01da29	-0.031702194
11	0x3c9b316c	0.018944465
12	0xbdea942d	-0.114540435
13	0x3e5968e6	0.21231422
14	0x3e4be35b	0.19910948
15	0xbda939f2	-0.08263005
16	0xbe5e7494	-0.21724159
17	0x3dca4966	0.09877281
18	0xbdb134b4	-0.086526304
19	0x3e88ef7f	0.2674522
20	0xbe183c0f	-0.1486666
21	0x3ca0c812	0.019626651
22	0x3d0847e1	0.033271674
23	0x3e5d1175	0.2158869
24	0xbe2528cc	-0.16128844
25	0x3e3ebce7	0.18626748
26	0x3e4a4624	0.19753319
27	0x3e43a870	0.19107223
28	0x3e631ba2	0.2217851
29	0xbcf9f867	-0.030513955
30	0xbded566e	-0.11588751
31	0xbe04269c	-0.12905353
32	0x3e3205a7	0.17384969
33	0x3de5a9ae	0.112140045
34	0x3e1dbce0	0.15404081
35	0x3c8617d3	0.016368782
36	0xbda3fd5c	-0.08007309
37	0x3e105008	0.1409303
38	0xbe9eb908	-0.31000543
39	0xbe300e09	-0.17192854
40	0x3e32e3e6	0.17469749
41	0xbd148b9a	-0.036265947
42	0xbe8e4aa5	-0.27791324
43	0x3e325228	0.17414153
44	0xbe435896	-0.19076762
45	0x3d19efab	0.03758208
46	0xbe06f4c7	-0.13179313
47	0xbe88a8ed	-0.2669138
48	0xbe90cd3b	-0.28281578
49	0xbda1ebf7	-0.07906335
50	0xbcda8323	-0.026673859
51	0x3c6575bc	0.014005121
52	0xbc839b05	-0.01606513
53	0xbe112ee5	-0.14178045
54	0xbc07b854	-0.008283693
55	0x3e11f070	0.14251876
56	0x3e5cac48	0.21550095
57	0xbe2ec20d	-0.17066212
58	0xbd1ee528	-0.03879276
59	0x3dde3b09	0.10851104
60	0x3d6d632e	0.057955913
61	0xba55dd47	-0.0008158278
62	0x3e6c9426	0.23103389
63	0xbe5c5544	-0.21516901
64	0xbde6e14b	-0.1127344
65	0xbe5d30d1	-0.21600653
66	0xbe0588ee	-0.13040516
67	0x3e16ba01	0.14719392
68	0xbe46cb7c	-0.1941356
69	0x3e0330f7	0.12811647
70	0x3d0efc45	0.03490855
71	0xbe603fa2	-0.21899274
72	0xbe8554f8	-0.2604139
73	0x3e71bbd5	0.23606808
74	0xbea44ba2	-0.32088953
75	0x3ea455b3	0.32096633
76	0x3e3c5c85	0.18394668
77	0x3e04cc5c	0.12968582
78	0x3e801812	0.25018364
79	0x3e7521c0	0.23938656
80	0x3e161dac	0.14659756
81	0x3c2d548a	0.010579238
82	0xbe46987a	-0.19394103
83	0x3e179298	0.14802015
84	0x3e2c786c	0.16842812
85	0x3dd90473	0.10596552
86	0x3ea0cfed	0.31408635
87	0xbe765295	-0.2405494
88	0xbdde20e1	-0.10846115
89	0xbdc0afce	-0.09408532
90	0x3e7dd1e4	0.24787098
91	0x3e0d4c6b	0.13798682
92	0xbd7ea376	-0.062167607
93	0x3e3ec339	0.18629159
94	0x3c1e8223	0.009674582
95	0xbcd252e1	-0.025674285
96	0x3da28d7a	0.07937141
97	0xbd597b92	-0.05309636
98	0x3de178c3	0.110093616
99	0x3e85e517	0.26151344
100	0x3eacacda	0.33725625
101	0xbe1a860c	-0.15090197
102	0x3cdfa122	0.027298514
103	0x3e742e49	0.23845781
104	0xbe550257	-0.20801674
105	0xbdf7f0ac	-0.121064514
106	0xbe7deddc	-0.24797767
107	0xbe881df2	-0.26585346
108	0x3e53c9e6	0.20682487
109	0x3e2a30a1	0.16620113
110	0x3e73ef5e	0.2382178
111	0x3b0d34f6	0.002154646
112	0xbe56a87e	-0.20962712
113	0xbe4b3c9c	-0.1984734
114	0xbc877133	-0.01653347
115	0xbe82fb0a	-0.25582153
116	0xbd365639	-0.044515822
117	0x3e1caf5a	0.15301266
118	0xbdcb5a82	-0.09929372
119	0xbe9deb0e	-0.30843395
120	0x3e1e244c	0.15443534
121	0x3d9ab6aa	0.07554372
122	0x3d7121cb	0.058870118
123	0xbe08842a	-0.13331667
124	0x3d08caef	0.033396658
125	0x3cf4ebfa	0.029897679
126	0xbe3be06f	-0.18347333
127	0x3d2b56a5	0.041830678
128	0xbd9dc719	-0.077039905
129	0x3ddba177	0.10724156
130	0xbe8ef743	-0.2792302
131	0x3debd2a0	0.11514783
132	0x3e467a99	0.19382705
133	0x3e1508b3	0.145541
134	0xbea58949	-0.32331303
135	0x3e91ab57	0.28451034
136	0x3e015ee1	0.1263385
137	0xbe5cf42b	-0.21577518
138	0x3ec0932d	0.37612286
139	0x3d8b6cba	0.06807847
140	0xbe6d1e74	-0.23156148
141	0xbe6ed63f	-0.23323916
142	0xbe919867	-0.28436586
143	0xbc834c47	-0.016027583
144	0x3b264d0d	0.0025375516
145	0x3e32ec7a	0.17473021
146	0xbdbbb47e	-0.091652855
147	0xbe63e774	-0.22256261
148	0x3e486d8a	0.19573036
149	0x3eb33169	0.34998634
150	0xbe224d1f	-0.15849732
151	0x3dbc845b	0.09204932
152	0x3d84741f	0.06467461
153	0xbc998dc2	-0.018744353
154	0xbc023d49	-0.007949182
155	0xbe7a00f7	-0.2441443
156	0xbe6dffa3	-0.23242049
157	0xbe5508a4	-0.20804077
158	0x3d7b2d72	0.061322637
159	0x3d7947ea	0.0608596
160	0x3e56151f	0.20906495
161	0x399d3d34	0.00029990973
162	0xbc95cee6	-0.018287133
163	0xbe481d8c	-0.19542521
164	0xbddcbbdb	-0.10778018
165	0x3eaac563	0.3335372
166	0x3e9c7752	0.30559784
167	0xbdcd85cd	-0.10035286
168	0xbd35f422	-0.044422276
169	0x3c80fa0f	0.015744237
170	0xbe04d9a4	-0.12973648
171	0xbdd8b6b0	-0.1058172
172	0xbe35c6c3	-0.17751603
173	0x3e89b1c1	0.26893428
174	0x3de6a227	0.11261397
175	0x3c1def00	0.009639502
176	0xbe5de417	-0.2166904
177	0x3c3439d1	0.011000113
178	0x3e3fda6c	0.18735665
179	0x3de641c3	0.11243012
180	0x3e071867	0.13192903
181	0xbe1a6aa0	-0.15079737
182	0x3e3feb3e	0.18742082
183	0x3dcf3bb0	0.10118806
184	0xbe2697ca	-0.1626884
185	0x3eac2fb4	0.33630145
186	0xbe8938c1	-0.26801112
187	0xbe460617	-0.1933826
188	0x3e179d8e	0.14806196
189	0xbd3a0aba	-0.045420386
190	0xbd8c687b	-0.068558656
191	0x3eaf70dc	0.34265792
192	0x3e0e8a1c	0.13919872
193	0x3e29f042	0.16595557
194	0x3d74471a	0.05963812
195	0xbdb87086	-0.09005837
196	0x3dd9f266	0.10641937
197	0xbd6c94f1	-0.05775923
198	0xbe19575c	-0.14974731
199	0xbd5e2bf3	-0.054241132
200	0x3d960031	0.07324255
201	0xbd0e237a	-0.0347018
202	0xbdbe172f	-0.09281766
203	0x3e1a970c	0.15096682
204	0x3bf54ec0	0.0074861944
205	0xbd7b7f49	-0.061400685
206	0xbe1c4bb3	-0.15263252
207	0xbdb7ad6f	-0.08968627
208	0x3dcdbc92	0.100457326
209	0xbe458e95	-0.19292672
210	0x3e2497c8	0.16073525
211	0xbd85f455	-0.06540743
212	0x3e642604	0.22280127
213	0xbe39cc88	-0.18144429
214	0xbeb0e37d	-0.3454856
215	0xbe47a400	-0.19496155
216	0x3e60ebca	0.21964946
217	0xbe3ec13c	-0.186284
218	0xbe80cf53	-0.25158176
219	0xbdee9195	-0.11648861
220	0x3e470a03	0.19437413
221	0x3d9db50c	0.077005476
222	0x3e2e3683	0.17012982
223	0xbdc54539	-0.09632344
224	0x3e7f5348	0.24934113
225	0xbd9c4a24	-0.07631329
226	0xbe00370d	-0.12521
227	0xbe511f4c	-0.20422095
228	0xbe53f0c4	-0.20697314
229	0x3e7cad9c	0.24675602
230	0xbe827864	-0.25482476
231	0x3e85a0ff	0.26099393
232	0xbd887fbe	-0.0666499
233	0x3e816163	0.25269613
234	0xbe106124	-0.14099556
235	0xbdd1ea17	-0.10249727
236	0x3e0127f7	0.12612902
237	0x3e5b69e2	0.2142711
238	0x3e49adeb	0.1969525
239	0x3d9bcf01	0.07607842
240	0xbe26550d	-0.16243382
241	0xbd98fa70	-0.07469642
242	0x3ce81247	0.028329028
243	0x3e99f075	0.30066267
244	0xbe4f6b90	-0.20255876
245	0xbe297a5c	-0.16550583
246	0x3e651dd9	0.22374667
247	0xbcc06957	-0.02348773
248	0xbe331a84	-0.17490584
249	0x3d486d47	0.04893234
250	0xbe139864	-0.14413601
251	0xbdc3d6da	-0.09562464
252	0x3dd61391	0.10452951
253	0xbe76df05	-0.24108513
254	0xbe2128de	-0.15738246
255	0x3d41ffd0	0.047363102

nnECG.8.bias f4 [16]
0	0xbb9a6bd8	-0.004712563
1	0x3d0596a8	0.03261438
2	0x3ce852f6	0.028359871
3	0xbc80adc5	-0.01570786
4	0x3d857000	0.06515503
5	0x3c0f413f	0.008743583
6	0xbb9e99ae	-0.0048400974
7	0x3d16c45c	0.036808357
8	0xbc1100e2	-0.008850308
9	0x3b373968	0.00279578
10	0xbc411821	-0.011785538
11	0x3d427fcd	0.04748516
12	0x3c514342	0.012772383
13	0x3d132c6a	0.03593103
14	0xbcd8b83b	-0.026455035
15	0x3cbebd40	0.0232836

nnECG.9.weight f4 [16]
0	0x3f7d7c8a	0.99018157
1	0x3f8755c3	1.0573047
2	0x3f8c577c	1.0964198
3	0x3f85104c	1.0395598
4	0x3f8c2ae3	1.0950588
5	0x3f89c1c0	1.0762253
6	0x3f7ad44d	0.97980195
7	0x3f8aaf38	1.0834723
8	0x3f84bafc	1.0369563
9	0x3f80a23f	1.0049514
10	0x3f89b3db	1.0758013
11	0x3f88fca1	1.0702096
12	0x3f7f114d	0.99635774
13	0x3f862773	1.0480789
14	0x3f8525c5	1.0402151
15	0x3f88b962	1.0681574

nnECG.9.bias f4 [16]
0	0xbc86e2d3	-0.01646558
1	0x3c82284c	0.015888356
2	0x3ce0177b	0.027354946
3	0xbc5245af	-0.012833997
4	0x3d516a87	0.051126983
5	0xbbe9758f	-0.00712461
6	0xbc364491	-0.011124746
7	0x3c679cdb	0.014136518
8	0xbcbec4bc	-0.02328717
9	0xbc23451d	-0.009965208
10	0xbc42a172	-0.011879312
11	0x3d0905a3	0.03345264
12	0xbc973099	-0.01845579
13	0x3c83bb8f	0.016080646
14	0xbd24c530	-0.040227115
15	0xbb67ddc0	-0.0035379976

nnECG.9.running_mean f4 [16]
0	0xbd6be7d4	-0.057594135
1	0x3d0eb92a	0.034844555
2	0xbd928012	-0.07153334
3	0xbd94d00b	-0.072662435
4	0xbd3b9f5d	-0.045806278
5	0x3eb8ff80	0.3613243
6	0xbd9c27f7	-0.0762481
7	0xbd5a7bc9	-0.053340707
8	0xbdbbd1ad	-0.09170852
9	0xbcd8f117	-0.026482148
10	0x3e7c7bb9	0.24656571
11	0xbe544fb7	-0.20733534
12	0x3e4e15f3	0.2012556
13	0x3e0ae803	0.13565068
14	0x3d38e494	0.045139864
15	0xbd8d5924	-0.06901768

nnECG.9.running_var f4 [16]
0	0x3fbecddc	1.4906573
1	0x3fab707c	1.3393703
2	0x3fca3d7f	1.5800017
3	0x3fa4c782	1.2873385
4	0x3fa68e2b	1.3012136
5	0x3fa03e1f	1.2518958
6	0x3feb53fc	1.8385005
7	0x3fc16b07	1.5110787
8	0x3f892168	1.071332
9	0x3fa429d2	1.2825263
10	0x3fc71d74	1.5555863
11	0x3fb67554	1.4254556
12	0x3f9b5f39	1.2138435
13	0x3fa96ecd	1.3236939
14	0x3fc56617	1.542178
15	0x3fb1329e	1.3843572

nnECG.12.weight f4 [4, 16]
0	0xbc1ed55b	-0.009694423
1	0xbe6695f1	-0.22518136
2	0x3e9dd5e4	0.30827248
3	0x3e9ea8e9	0.30988243
4	0xbe6e1cd5	-0.23253186
5	0x3ea6d04d	0.32580796
6	0x3efb681c	0.49102867
7	0x3ebaa904	0.36457074
8	0xbe6fc47a	-0.23414794
9	0x3ad23971	0.0016038847
10	0xbeb6bf39	-0.35692766
11	0x3ec8bb5b	0.3920544
12	0x3e8e716d	0.27820912
13	0x3d6034bb	0.054737788
14	0x3e55a22f	0.2086265
15	0xbf0494b9	-0.5178943
16	0x3e057396	0.13032374
17	0xbeeb167a	-0.45915586
18	0x3f131984	0.5746081
19	0xbe0ed019	-0.1394657
20	0x3e9a4671	0.30131868
21	0x3ebbdebe	0.36693376
22	0x3acba34a	0.0015536335
23	0xbf21b126	-0.6316093
24	0xbe0e02ec	-0.13868302
25	0x3e2d8334	0.16944581
26	0xbf06179e	-0.52379787
27	0x3edbc1b8	0.42921233
28	0xbdc8c2ad	-0.098027565
29	0x3ec84b72	0.3912006
30	0xbf0cad22	-0.5495168
31	0x3e95c188	0.29249215
32	0x3e09765b	0.13424055
33	0x3ee5736a	0.44814616
34	0x3e8d87d9	0.27642706
35	0xbf10d019	-0.5656753
36	0x3e8e0dc5	0.2774488
37	0xbedbfb00	-0.42964935
38	0xbeba727c	-0.3641547
39	0xbe065759	-0.13119258
40	0xbe92c07c	-0.2866248
41	0x3dc78b21	0.097433336
42	0xbddcb823	-0.10777309
43	0x3f119109	0.5686193
44	0x3e9f7603	0.31144723
45	0x3f0d5d54	0.5522053
46	0xbee8a961	-0.45441726
47	0xbda2c27c	-0.07947251
48	0xbe7bcfa8	-0.24590933
49	0x3e9f8520	0.31156254
50	0x3f013b86	0.5048145
51	0x3e87eb05	0.26546493
52	0x3d35fbc1	0.044429544
53	0x3daa68a0	0.08320737
54	0x3eb34958	0.35016894
55	0xbe75c4a2	-0.2400079
56	0x3c0427dc	0.008066144
57	0xbe7b4f39	-0.2454194
58	0xbe5347c1	-0.2063284
59	0x3d8d2fd8	0.06893891
60	0x3e35a1cc	0.17737502
61	0xbf145ed8	-0.5795722
62	0xbd09eb65	-0.033671755
63	0x3ea59aa1	0.32344535

nnECG.12.bias f4 [4]
0	0x3c96404d	0.018341208
1	0x3c15d214	0.009144325
2	0x3cc50e6e	0.024054732
3	0x3c871b3d	0.01649248

nnECG.13.weight f4 [4]
0	0x3f7e428e	0.99320304
1	0x3f85b2e7	1.0445222
2	0x3f83da50	1.0300999
3	0x3f8ba182	1.0908663

nnECG.13.bias f4 [4]
0	0xba17a971	-0.00057854416
1	0xbad7c73e	-0.0016462577
2	0x3c2529f1	0.0100808
3	0x3b9dbe0b	0.0048139147

nnECG.13.running_mean f4 [4]
0	0x3ea28e4f	0.31749198
1	0x3c540963	0.012941691
2	0x3dac25ef	0.08405673
3	0x3e0df1e4	0.13861805

nnECG.13.running_var f4 [4]
0	0x3faee3c7	1.3663262
1	0x3ff7dd50	1.9364414
2	0x3ff74724	1.9318585
3	0x3f6a7d37	0.9159731

nnECG.16.weight f4 [1, 4]
0	0xbf1ee221	-0.62063795
1	0x3f2dc70f	0.67881864
2	0xbf24c5b1	-0.64364153
3	0x3ed08be3	0.40731725
