Models/net_3_2_epoch_31.pth (torch, 57997 bytes, 25 tensors)

nnECG.0.weight f4 [128, 12]
0	0xbe49517f	-0.19659995
1	0xbcc53cd3	-0.024076855
2	0xbd6f21ff	-0.05838203
3	0xbdd4e684	-0.1039553
4	0x3e787924	0.24264961
5	0xbdd57da5	-0.104243554
6	0xbd6e898f	-0.058236655
7	0x3e3bc7ed	0.18337984
8	0xbe0d1e17	-0.1378101
9	0x3e5116e2	0.20418885
10	0x3cdbef5c	0.026847534
11	0x3bc121c7	0.005893919
12	0xbd386c62	-0.045025237
13	0xbe30d2b7	-0.17267881
14	0xbe1ffdaf	-0.15624116
15	0x3dcd6c63	0.10030439
16	0xbe9b46e9	-0.30327538
17	0xbe5ef6f1	-0.21773888
18	0xbca19178	-0.019722685
19	0x3c8bc387	0.017061008
20	0x3e5e38f5	0.21701415
21	0xbe0c80b5	-0.13720973
22	0x3e090532	0.13380888
23	0xbd9592af	-0.07303368
24	0xbdaf08ba	-0.08546586
25	0xbe027785	-0.12740906
26	0xbd090ddc	-0.033460483
27	0xbe0e6414	-0.13905364
28	0x3e092f15	0.13396867
29	0x3db83805	0.0899506
30	0x3e5883bb	0.21144001
31	0x3e467ec4	0.19384295
32	0xbd5fafaf	-0.054610904
33	0xbe574f5b	-0.21026365
34	0x3e32d9df	0.17465924
35	0xbe3b388d	-0.18283291
36	0x3b958fe4	0.0045642722
37	0xbdde9ef7	-0.10870164
38	0x3d73c098	0.059509844
39	0xbe266f1a	-0.1625332
40	0x3df0df4a	0.11761339
41	0x3e41ba48	0.18918717
42	0x3e331f7c	0.17492479
43	0x3e412ae3	0.18864016
44	0x3d0261cc	0.031831548
45	0xbd85e941	-0.0653863
46	0xbcd4d6f8	-0.025981411
47	0x3d5378a2	0.051628716
48	0xbe6be9cc	-0.23038405
49	0xba98b06f	-0.0011649261
50	0x3e557e92	0.20849064
51	0xbcb7e603	-0.022448545
52	0x3e4fe537	0.20302282
53	0x3d1a81ce	0.037721448
54	0xbe58ce2e	-0.21172401
55	0xbe2f9bbd	-0.17149253
56	0xbd5692c8	-0.052386075
57	0x3d2dead9	0.042460296
58	0xbdd1f2f0	-0.10251415
59	0x3df141be	0.117801175
60	0xbdfdd281	-0.12393666
61	0xbe2d4097	-0.1691917
62	0xbdda3a4f	-0.10655653
63	0x3e65fa7c	0.22458833
64	0x3e588ef8	0.21148288
65	0x3e0bdd9f	0.1365876
66	0xbe6b7530	-0.22993922
67	0x3df061a0	0.117373705
68	0xbe01d5de	-0.1267924
69	0xbcfea3b6	-0.031083923
70	0x3dfa3c2a	0.12218507
71	0x3e28d2f3	0.1648672
72	0x3d82095d	0.06349442
73	0x3e405d50	0.18785596
74	0x3d9ac9d9	0.07558031
75	0x3e0c2d7b	0.13689224
76	0x3d92cee3	0.07168367
77	0x3c84c1c7	0.016205681
78	0xbdfc42da	-0.123174384
79	0xbe0d6609	-0.13808455
80	0x3e2f0d9b	0.17095034
81	0xbe1be950	-0.1522572
82	0xbd8057ac	-0.06266722
83	0x3e5102f9	0.2041129
84	0x3d96443b	0.07337233
85	0x3d5f011a	0.05444441
86	0xbe1686b8	-0.14699829
87	0xbc57f5f7	-0.013181201
88	0x3e7b834a	0.24561802
89	0x3d396938	0.04526636
90	0xbdfaa1b7	-0.12237876
91	0xbda65aa4	-0.08122757
92	0x3d2f6502	0.042820938
93	0x3e4678fb	0.19382088
94	0x3e02ced3	0.1277421
95	0x3d3199a4	0.043359414
96	0xbe39639f	-0.18104409
97	0x3c51525f	0.012775986
98	0xbe3dd3c1	-0.18537809
99	0x3ddd3ad4	0.10802236
100	0xbdb41307	-0.08792692
101	0xbd0a31bf	-0.033738848
102	0x3e5deaf6	0.21671662
103	0xbdc230be	-0.09481953
104	0xbd9468aa	-0.072465256
105	0xbd1342ed	-0.035952497
106	0x3d2cecaf	0.042217907
107	0x3e1a657e	0.15077779
108	0xbe65adfb	-0.2242965
109	0xbe44fa53	-0.19236116
110	0x3d565b30	0.052333057
111	0xbe072d63	-0.13200907
112	0x3e4ebe85	0.20189865
113	0xbd888b6e	-0.06667219
114	0xbd1d1060	-0.038345695
115	0x3e397e56	0.181146
116	0x3d5b11c3	0.053483736
117	0x3e6dbcfc	0.23216623
118	0x3d9ecf0e	0.07754336
119	0xbd07923d	-0.033098448
120	0x3e48f5c0	0.19624996
121	0x3c8b67df	0.017017303
122	0xbd93ec84	-0.07222846
123	0x3d7f0a9c	0.062265977
124	0x3d2a8d28	0.041638523
125	0x3e391e08	0.18077862
126	0x3de5b08c	0.11215314
127	0x3e565e01	0.20934297
128	0x3dfcb227	0.12338667
129	0x3ddd8c4c	0.10817775
130	0x3d7ed9ca	0.06221942
131	0xbe0b3f02	-0.13598254
132	0xbd7ad421	-0.06123746
133	0x3d53ecbd	0.051739443
134	0xbe3eff1c	-0.18652004
135	0xbd5e07b8	-0.05420658
136	0x3d53462e	0.0515806
137	0xbd238a51	-0.03992683
138	0xbda598ed	-0.08085809
139	0x3cf3450d	0.029696012
140	0xbdadaebd	-0.08480594
141	0x3e4891d1	0.19586875
142	0x3d629a69	0.05532304
143	0x3dcbf101	0.09958077
144	0x3ce16a4b	0.027516505
145	0xbd71d3ca	-0.05903987
146	0xbddacd1d	-0.106836535
147	0x3cfae0ab	0.030624708
148	0xbe0c98d8	-0.1373018
149	0xbb6105c6	-0.0034335717
150	0xbe3eb96b	-0.18625419
151	0x3dc08c02	0.09401704
152	0x3d5f775e	0.054557197
153	0x3e7bc5f1	0.24587227
154	0xbdd686d5	-0.10474936
155	0x3d03da23	0.032190453
156	0x3e1639af	0.14670442
157	0x3e4f95b7	0.20271955
158	0x3da606eb	0.08106788
159	0xbdbd9194	-0.092562824
160	0x3dfbfe87	0.123044066
161	0xbd11c7d8	-0.035590976
162	0xbd5163ce	-0.05112057
163	0x3dc5350f	0.09629261
164	0xbe4cd151	-0.20001723
165	0x3d0eb6f9	0.034842465
166	0x3e0efab5	0.13962825
167	0x3def2f6a	0.116789654
168	0xbc927667	-0.017878724
169	0x3db4a55e	0.08820604
170	0x3de8c157	0.11365002
171	0xbb2cb94e	-0.0026355567
172	0xbe3b21cd	-0.18274613
173	0x3df9fa8a	0.1220599
174	0xbd0fa538	-0.035069674
175	0xbdac8304	-0.08423427
176	0x3e2f9a9c	0.17148823
177	0xbe12aeac	-0.14324445
178	0x3de9de90	0.114194036
179	0x3d805b7d	0.0626745
180	0x3e025a61	0.1272979
181	0x3d2d8f95	0.04237326
182	0x3d87552c	0.06608042
183	0xbd1b571f	-0.037924882
184	0xbde623a3	-0.11237266
185	0xbc5ed205	-0.013599877
186	0x3db88b0c	0.09010896
187	0xbccdc557	-0.025118513
188	0xbdd441c2	-0.10364105
189	0x3e49f7ff	0.19723509
190	0x3e556231	0.20838238
191	0xbd9c0860	-0.07618785
192	0xbda59d53	-0.08086648
193	0x3dfaf09b	0.12252923
194	0xbe4f9143	-0.20270257
195	0x3d299eb6	0.041411124
196	0x3dba0e32	0.09084739
197	0xbe66f3fd	-0.22554012
198	0xbd53b730	-0.051688373
199	0xbe415cd9	-0.18883075
200	0x3cd31ea9	0.025771456
201	0xbe0b9b72	-0.13633516
202	0xbd3ecdf9	-0.04658315
203	0x3e2a1877	0.16610895
204	0xbda97cd5	-0.08275763
205	0x3e39ca23	0.18143515
206	0xbd71d879	-0.059044335
207	0xba5896e7	-0.00082622323
208	0xbe17e6d6	-0.1483415
209	0x3d9117f6	0.07084648
210	0xbe466bf8	-0.19377124
211	0xbcf7f6fd	-0.03026914
212	0xbd3cd9bd	-0.04610609
213	0xbdeab867	-0.11460953
214	0x3d887569	0.06663019
215	0xbe2804ea	-0.16408125
216	0x3e6013fa	0.2188262
217	0xbe01cbee	-0.12675449
218	0xbe5437c6	-0.20724401
219	0xbd95a42d	-0.07306705
220	0x3dc8549e	0.097817644
221	0x3dacd295	0.08438603
222	0xbe134843	-0.14383034
223	0xbe52feeb	-0.20605056
224	0xbdf71809	-0.12065131
225	0x3c5013cd	0.012700033
226	0xbe409f30	-0.18810725
227	0x3e092930	0.13394618
228	0x3cffe231	0.031235786
229	0xbddb17c7	-0.106978945
230	0x3cf23bbc	0.0295695
231	0x3dfd4176	0.12366001
232	0xbe6fb024	-0.23407036
233	0xbe6ab42d	-0.22920294
234	0x3e482a07	0.19547282
235	0xbd0c8172	-0.034303136
236	0x3e58bb70	0.21165252
237	0xbc732056	-0.014839252
238	0x3de2b5d7	0.110698394
239	0xbd526dfb	-0.051374417
240	0xb8ec53cd	-0.00011268966
241	0x3df68e3d	0.120388485
242	0x3e16be98	0.14721143
243	0xbd1c0ce6	-0.03809824
244	0x3e15351e	0.14571044
245	0x3c8da187	0.017288936
246	0xbdaa6cd4	-0.083215386
247	0x3c682e27	0.01417116
248	0x3e12a6c5	0.1432143
249	0xbc2dcc16	-0.01060774
250	0xbdda10f2	-0.10647763
251	0x3dd75cb9	0.10515732
252	0x3e135157	0.14386497
253	0x3e12c5c8	0.1433326
254	0xbde5e85e	-0.11225961
255	0x3cc7be33	0.024382686

nnECG.0.bias f4 [128]
0	0x3cb7a2c3	0.022416478
1	0x3c226d2e	0.009913726
2	0x3b6646e5	0.0035137471
3	0xbb8ca858	-0.004292529
4	0x3c8d280c	0.01723101
5	0x3c8c8e6f	0.017157761
6	0x3c472088	0.012153752
7	0x3c24e02a	0.0100632105
8	0x3cb46a22	0.022023264
9	0x3c9dafa8	0.019248798
10	0xbc78c3d9	-0.0151834125
11	0x3c203a01	0.009779454
12	0xb99f72fd	-0.00030412516
13	0x3b190637	0.0023349652
14	0xbaf8ceae	-0.0018982494
15	0x3b880534	0.004151011
16	0x3cc98afd	0.024602408
17	0x3b9f3cdd	0.0048595504
18	0x3c6c260d	0.014413369
19	0x3b5cb7d5	0.0033678908
20	0x3b5ec353	0.0033990934
21	0x3c4333d5	0.011914213
22	0x3c8a531c	0.016885333
23	0x3b8ba2e5	0.004261362
24	0x3cb3fcee	0.021971192
25	0x3bc3f2da	0.005979878
26	0x3bd018e0	0.0063506216
27	0x3c865fa4	0.016403027
28	0x38c9c673	9.621391e-05
29	0x3be5577b	0.006998954
30	0x3beae028	0.007167835
31	0x3cadfa67	0.021237565
32	0x3c34d70d	0.0110376
33	0x3d0779c9	0.033075128
34	0x3c983377	0.018579228
35	0xb7551db8	-1.2702709e-05
36	0x3c47a05e	0.012184231
37	0x3b281b52	0.002565105
38	0x3a419eed	0.00073860475
39	0x3c567c86	0.013091212
40	0x3c3a5dcb	0.011374901
41	0xb91f54e0	-0.0001519504
42	0x3c21c405	0.009873395
43	0x3a3eb540	0.0007274933
44	0x3c1f61ca	0.009727905
45	0x3cce05db	0.025149276
46	0x3cbd1bd3	0.023084557
47	0x3b7a3963	0.0038181178
48	0xbb2f1d7f	-0.0026720462
49	0x3cb8c734	0.022555925
50	0x3b27c314	0.0025598453
51	0x3cace608	0.021105781
52	0x3bc2fc78	0.005950507
53	0x3cae4cec	0.021276914
54	0x3b960175	0.0045778104
55	0xbb8ecb29	-0.0043577147
56	0x3ccc8ec7	0.024970425
57	0x3a68f582	0.0008886681
58	0x3c1e0f8a	0.0096472595
59	0x3a2ff7a8	0.0006712624
60	0x3cb60142	0.022217397
61	0xbbbe1ab0	-0.0058015212
62	0x3c1388f0	0.009004816
63	0x3c56a9df	0.013102024
64	0x3c42c709	0.011888274
65	0x3c092e5c	0.008372869
66	0x3c2c593c	0.010519322
67	0x3b0849e0	0.0020795986
68	0x3b81c315	0.003960023
69	0x3b51a782	0.0031990712
70	0x3cb1d44f	0.021707682
71	0x3c03392d	0.008009237
72	0x3ce50d24	0.027960368
73	0x3b8540d7	0.0040665674
74	0x3c076918	0.008264802
75	0xb94cd466	-0.0001953408
76	0x3b5d1240	0.0033732802
77	0x3c824c2a	0.015905458
78	0x3c714c32	0.014727639
79	0xbc11ee47	-0.008906907
80	0x3c570e24	0.01312593
81	0x3cea4b23	0.028600281
82	0x3c19f6b8	0.009397201
83	0xba1fcf07	-0.0006096218
84	0x3cd234bf	0.025659917
85	0xbc2d2bfa	-0.010569567
86	0x3c4577be	0.012052475
87	0x3ba28df2	0.004960769
88	0x3ab8558c	0.0014063581
89	0x3bbfd1fa	0.0058538886
90	0x3c299f2c	0.010352891
91	0x3cd82c53	0.026388323
92	0x3c7a159b	0.01526394
93	0x3c97ec62	0.018545333
94	0x3b4cb973	0.0031238466
95	0x3c98472a	0.018588621
96	0x3c59cdbe	0.013293682
97	0xba8c8a7c	-0.0010722424
98	0x3cd88b2b	0.026433548
99	0x3ce6a111	0.028152974
100	0xbb27580b	-0.0025534655
101	0x3afc1c26	0.0019234463
102	0x3c2403f1	0.010010705
103	0x3b21d371	0.002469268
104	0x3c05b13a	0.00815993
105	0x3bf7ce31	0.0075624217
106	0x3bad65d8	0.0052916817
107	0x3b9fd459	0.0048776087
108	0x3b2864a5	0.0025694754
109	0x3cb0a294	0.021561898
110	0x3cab117b	0.020882359
111	0x3c4adb2c	0.012381356
112	0x3c1285a8	0.008942999
113	0x3bc210cb	0.005922412
114	0x3c978146	0.01849426
115	0x3a89b3a8	0.0010505812
116	0x3c86565e	0.016398605
117	0xbc3ceba5	-0.011530791
118	0xbc5a5f2f	-0.013328358
119	0x3c497f83	0.012298468
120	0x3c3032ca	0.010754297
121	0x3c7eb7dd	0.015546766
122	0xbc180f2a	-0.009280959
123	0x3ca3c230	0.019990057
124	0x3b6771d6	0.0035315654
125	0x3aa78404	0.0012780433
126	0x3c84000e	0.016113307
127	0x3c48fe3b	0.0122676445

nnECG.1.weight f4 [128]
0	0x3f7a96aa	0.97886145
1	0x3f837c2a	1.0272267
2	0x3f7961b3	0.974147
3	0x3f86e777	1.0539387
4	0x3f88cae1	1.0686914
5	0x3f897502	1.0738833
6	0x3f7ba395	0.9829648
7	0x3f88ecc0	1.069725
8	0x3f7e84ba	0.99421275
9	0x3f83e57f	1.0304412
10	0x3f89a65c	1.0753894
11	0x3f81dc4c	1.0145354
12	0x3f857b1c	1.0428195
13	0x3f842930	1.032507
14	0x3f7c4fa5	0.9855903
15	0x3f884d41	1.0648576
16	0x3f83cb7c	1.0296474
17	0x3f784ffc	0.96997046
18	0x3f87dd95	1.0614496
19	0x3f85d198	1.0454588
20	0x3f7b5a95	0.9818509
21	0x3f84d072	1.0376112
22	0x3f916c8d	1.1361252
23	0x3f7e609d	0.9936617
24	0x3f8140b4	1.0097871
25	0x3f8198a5	1.0124708
26	0x3f81ef49	1.0151149
27	0x3f7825aa	0.9693247
28	0x3f734e25	0.95041114
29	0x3f841792	1.0319693
30	0x3f82997e	1.0203092
31	0x3f88095b	1.0627855
32	0x3f86e14e	1.0537508
33	0x3f865e35	1.04975
34	0x3f8b181d	1.0866734
35	0x3f7edd08	0.99556017
36	0x3f818dd6	1.012141
37	0x3f71b61f	0.9441852
38	0x3f807909	1.0036937
39	0x3f80e793	1.0070671
40	0x3f8e9b3f	1.1141127
41	0x3f768270	0.9629278
42	0x3f8a234b	1.079202
43	0x3f819dde	1.0126302
44	0x3f7e49da	0.9933144
45	0x3f9176a0	1.1364326
46	0x3f891891	1.0710622
47	0x3f82adeb	1.0209326
48	0x3f7b087a	0.9805981
49	0x3f840f1b	1.031711
50	0x3f7d8a28	0.99038935
51	0x3f8721d6	1.0557201
52	0x3f8c1ea1	1.0946847
53	0x3f8be48a	1.092912
54	0x3f80a7fc	1.0051265
55	0x3f84f04e	1.0385835
56	0x3f8950b8	1.0727758
57	0x3f7e3eed	0.9931477
58	0x3f8dbba7	1.1072892
59	0x3f82740e	1.0191667
60	0x3f7a98fa	0.97889674
61	0x3f80cc64	1.0062375
62	0x3f866125	1.0498396
63	0x3f7e4a71	0.9933234
64	0x3f873139	1.0561897
65	0x3f82f6ba	1.0231545
66	0x3f7f9671	0.9983893
67	0x3f83dddc	1.0302081
68	0x3f8721bf	1.0557173
69	0x3f89871b	1.0744356
70	0x3f7dd667	0.99155277
71	0x3f7afd9c	0.9804323
72	0x3f8bf4f3	1.0934128
73	0x3f7a2895	0.97718173
74	0x3f853c79	1.040908
75	0x3f882dce	1.0638978
76	0x3f77625d	0.96634465
77	0x3f830993	1.0237297
78	0x3f8260cb	1.0185789
79	0x3f888a59	1.066722
80	0x3f885ee8	1.0653963
81	0x3f86a628	1.0519457
82	0x3f7fd351	0.9993182
83	0x3f7f37d4	0.9969456
84	0x3f86b769	1.0524722
85	0x3f822291	1.0166799
86	0x3f745a1d	0.9545
87	0x3f86e14d	1.0537506
88	0x3f7ca61c	0.9869096
89	0x3f7ee456	0.99567163
90	0x3f71e425	0.94488746
91	0x3f90a689	1.1300822
92	0x3f8394a4	1.0279737
93	0x3f81fbfa	1.0155022
94	0x3f83c638	1.0294867
95	0x3f82671a	1.0187714
96	0x3f876962	1.0579035
97	0x3f90a0ef	1.1299113
98	0x3f88380e	1.0642107
99	0x3f94ac81	1.1615144
100	0x3f8398d5	1.0281016
101	0x3f84c1f4	1.037169
102	0x3f82f3ad	1.0230614
103	0x3f85eee2	1.0463526
104	0x3f87748b	1.0582441
105	0x3f81ecf1	1.0150434
106	0x3f848d67	1.0355653
107	0x3f7b6f18	0.9821639
108	0x3f85994d	1.0437409
109	0x3f8557fa	1.0417473
110	0x3f8b2987	1.0872048
111	0x3f822316	1.0166957
112	0x3f7d15c8	0.9886136
113	0x3f84c551	1.0372716
114	0x3f82f8b8	1.0232153
115	0x3f7bdcb3	0.98383635
116	0x3f8451c9	1.0337459
117	0x3f831091	1.0239431
118	0x3f7cda93	0.9877102
119	0x3f8a3b6d	1.0799385
120	0x3f837c67	1.027234
121	0x3f8f8c77	1.1214741
122	0x3f829f94	1.0204949
123	0x3f829c45	1.020394
124	0x3f7e03dc	0.9922464
125	0x3f7cb3be	0.98711765
126	0x3f83b3c0	1.028923
127	0x3f7f270a	0.99668944

nnECG.1.bias f4 [128]
0	0x3bc196b4	0.005907858
1	0xb886cd64	-6.427875e-05
2	0xbc3f626c	-0.01168118
3	0xbc69dc99	-0.014273786
4	0x3c078187	0.008270628
5	0x3c95a986	0.018269312
6	0x3baedf47	0.0053366753
7	0x3bf0676b	0.007336547
8	0x3b8fc7f9	0.0043878523
9	0x3b7d2ecf	0.0038632636
10	0xbc9add17	-0.018904252
11	0xba652fc3	-0.0008742774
12	0xbc13dc6e	-0.0090247225
13	0xbbb10382	-0.0054020295
14	0xbbd30a72	-0.006440454
15	0xbc3a50a5	-0.011371766
16	0x3cb11a99	0.021619128
17	0xbc51a297	-0.012795112
18	0x3aca56cb	0.0015437243
19	0xbbbb4ec9	-0.005716179
20	0xba79e091	-0.0009532059
21	0x3b518c25	0.0031974402
22	0x3c46f7c9	0.0121440375
23	0x392a7927	0.00016257596
24	0x3c8aaa70	0.016926974
25	0xbb5faf06	-0.0034131422
26	0xbca649ee	-0.020298924
27	0x3bb5788a	0.005538051
28	0xbbfc834a	-0.0077060806
29	0xbb303c53	-0.0026891425
30	0x3bbed51d	0.005823745
31	0x3c5fff17	0.013671658
32	0xbb50c33b	-0.0031854648
33	0x3cba7fd7	0.022766037
34	0x3c7df0c8	0.015499301
35	0xbc90b7f7	-0.017665846
36	0x3b445350	0.0029956885
37	0xbb2258a0	-0.0024772063
38	0xbb154b62	-0.0022780527
39	0x3b57a70d	0.0032905967
40	0x3a1da111	0.00060130755
41	0x3a828db5	0.0009960445
42	0x3ba2d5f8	0.0049693547
43	0xbc48050b	-0.012208234
44	0xbc2cfad0	-0.010557845
45	0x3a6448d8	0.00087083643
46	0x3c69185e	0.014227001
47	0xbc834e33	-0.0160285
48	0xbbe69567	-0.007036853
49	0x3bd57dfb	0.006515262
50	0xbadc9ab6	-0.0016830775
51	0x3ca81cb2	0.020521495
52	0x3b716627	0.003683457
53	0x3c6271f5	0.013821115
54	0xbab72387	-0.001397238
55	0xbb41f59a	-0.0029595853
56	0x3c380008	0.011230476
57	0x3b77cdef	0.0037811955
58	0xbb89a414	-0.004200468
59	0xbc16c5e1	-0.009202451
60	0x3bed5d0c	0.007243758
61	0xbc0adf1c	-0.008476045
62	0x3b867434	0.004103208
63	0x3addb80c	0.0016915812
64	0x3c6508ec	0.013979178
65	0xbb1c6e7c	-0.0023869565
66	0x3ba9fd3e	0.0051876595
67	0x3aa2f13e	0.0012431515
68	0xb9bf4fb2	-0.00036489737
69	0xba41dd5c	-0.0007395351
70	0x3ca74dd1	0.020422848
71	0xba9da937	-0.0012028579
72	0x3c9c714b	0.019096991
73	0xbb96c4fc	-0.004601119
74	0x3becdf3f	0.0072287614
75	0x3be22d05	0.0069023394
76	0x3ae85969	0.0017726842
77	0xbaa90231	-0.001289433
78	0xbbcf89e0	-0.0063335747
79	0xbbdbdbe3	-0.006709562
80	0xbb393924	-0.0028262818
81	0x3cb3000a	0.021850605
82	0x3c16e38d	0.009209526
83	0xbc958ca9	-0.018255549
84	0x3c4776ce	0.012174321
85	0xbc15c491	-0.009141103
86	0x3a459a2e	0.0007537928
87	0x3bb79441	0.00560239
88	0xbc47689b	-0.012170936
89	0xbc98d608	-0.018656746
90	0x3a150cf2	0.0005685828
91	0x3ce7e133	0.028305626
92	0xba1191cf	-0.0005553038
93	0x3bda9325	0.006670373
94	0xb980661d	-0.00024490143
95	0x3b877f94	0.0041350815
96	0xbbbe2c59	-0.0058036265
97	0xbba03b1e	-0.00488986
98	0x3c41f1c2	0.011837425
99	0x3c252dd8	0.010081731
100	0xbbcbc8cd	-0.0062190057
101	0xbc061887	-0.008184559
102	0x3be6f4ba	0.0070482166
103	0x3b24ff9b	0.0025176767
104	0x3aadada0	0.0013250597
105	0xbc27d35b	-0.010243262
106	0xbb8cfbc2	-0.004302473
107	0xba2ad4aa	-0.0006516675
108	0xbc3a3258	-0.011364542
109	0x3c937022	0.017997805
110	0xbb0d081b	-0.0021519724
111	0xbc1dccb5	-0.0096313255
112	0xb87ba680	-5.999813e-05
113	0xba5bc78f	-0.00083839236
114	0xbc060b6a	-0.008181432
115	0xbc5a24da	-0.01331445
116	0x3be60221	0.0070192968
117	0xbca2944b	-0.019846102
118	0xbc33807c	-0.010955926
119	0xbb91809a	-0.0044403793
120	0x3b5f5d94	0.0034082877
121	0x3b5351d5	0.003224482
122	0xbc248f8b	-0.010043989
123	0x3ba59e28	0.005054254
124	0xbc7d31c8	-0.015453763
125	0xbc4bad8c	-0.0124315135
126	0x3badf9a0	0.0053092986
127	0x3a0f1f9b	0.00054597267

nnECG.1.running_mean f4 [128]
0	0xbe0a9355	-0.13532765
1	0x3c71f0f5	0.014766921
2	0x3e6ef544	0.23335749
3	0x3ec98eea	0.39366847
4	0xbef2c1c4	-0.47413456
5	0xbe8c7578	-0.27433372
6	0xbdc9c927	-0.0985282
7	0x3e597c0e	0.2123873
8	0xbe14cb73	-0.14530735
9	0x3df15a3c	0.11784789
10	0x3f3f80ff	0.7480621
11	0xbd84d160	-0.064852476
12	0x3cf98254	0.030457653
13	0x3e35f4c2	0.17769149
14	0x3e671ecb	0.2257034
15	0x3f044166	0.5166229
16	0xbf025f54	-0.5092671
17	0xbe8859f0	-0.26631117
18	0xbeb82d9b	-0.35972294
19	0x3ec5a57c	0.38602817
20	0x3db1125d	0.08646081
21	0xbe57fa56	-0.2109159
22	0xbe564e07	-0.20928203
23	0x3edebaaa	0.43501788
24	0x3c6ef278	0.014584176
25	0x3dcd61a4	0.10028389
26	0x3e7ecb5b	0.24882261
27	0xbb994325	-0.0046771937
28	0x3de3cad7	0.11122673
29	0x3d9a22a0	0.075261354
30	0xbe8e948e	-0.27847713
31	0xbd16ffc6	-0.03686502
32	0xbe256a2c	-0.16153783
33	0xbef9cf73	-0.48791084
34	0xbec7bd0d	-0.39011422
35	0xbdcc80da	-0.09985514
36	0xbdd257f3	-0.10270681
37	0x3e2b75d7	0.16744171
38	0x3cd5adc3	0.026083833
39	0x3e868ad8	0.26277804
40	0x3e8b9ed5	0.27269617
41	0xbe02ce27	-0.12773953
42	0x3eb5c2bb	0.3550013
43	0x3def6c89	0.11690623
44	0x3d9161dd	0.07098744
45	0x3d80a856	0.062821075
46	0x3e0adfc2	0.1356192
47	0x3e11f0a5	0.14251955
48	0xbe12092c	-0.14261311
49	0x3e96d007	0.29455587
50	0x3e5a8dab	0.21343105
51	0xbed58eaf	-0.4171042
52	0xbe7649fe	-0.24051663
53	0x3e09d4cf	0.13460086
54	0x3ea1b7f4	0.31585658
55	0xbd18908c	-0.037247226
56	0xbeca2e0c	-0.39488256
57	0xbdcb2901	-0.0991993
58	0xbdc1bb4b	-0.094595514
59	0x3e2f57be	0.17123315
60	0x3ed593a5	0.41714206
61	0x3e7cd34d	0.2468998
62	0x3e35f016	0.17767367
63	0x3db6e195	0.08929745
64	0xbe6a4080	-0.22876167
65	0xbc012874	-0.00788318
66	0xbe6b4c3f	-0.22978304
67	0xbd455468	-0.0481762
68	0xbc73640d	-0.014855397
69	0x3d65a115	0.056061823
70	0xbea49d8d	-0.32151452
71	0x3e873710	0.26409197
72	0x3d84d6f7	0.06486314
73	0xbe0062e5	-0.12537725
74	0x3ef9c25b	0.48781094
75	0x3dca67d1	0.09883083
76	0x3e0ba260	0.1363616
77	0x3caabbba	0.020841468
78	0xbec2c6fc	-0.38042438
79	0x3efac511	0.48978475
80	0xbea9a04b	-0.33130106
81	0x3d17f496	0.03709849
82	0xbc0f2a9e	-0.008738188
83	0x3e400990	0.18753648
84	0xbe862a2b	-0.26204047
85	0xbdf3a215	-0.11896149
86	0x3e713155	0.23553975
87	0x3ef8634d	0.4851326
88	0x3eb4b8b5	0.3529717
89	0xbd81d36f	-0.06339156
90	0xbd113ada	-0.035456516
91	0xbe6ca75c	-0.23110718
92	0xbe8604a6	-0.2617542
93	0xbe9cd896	-0.30633992
94	0xbcc3fafa	-0.023923386
95	0x3eb13a4d	0.34614792
96	0x3e6143d6	0.21998534
97	0x3ee18375	0.44045606
98	0xbbf59cbc	-0.007495491
99	0xbe06cdf0	-0.13164496
100	0x3c00d9f7	0.007864467
101	0xbd85be02	-0.06530382
102	0xbc2a7af8	-0.010405295
103	0xbe0f7616	-0.1400989
104	0x3d39e048	0.045379907
105	0x3d4c2981	0.04984427
106	0x3e56e8b6	0.2098721
107	0x3e5297a8	0.20565665
108	0x3e945112	0.28968102
109	0xbeec18b6	-0.46112603
110	0x3e3124dd	0.17299218
111	0x3e24ed78	0.16106212
112	0x3e3eb0c3	0.18622117
113	0xbe24ffe7	-0.16113244
114	0xbeee8667	-0.46586916
115	0x3d911667	0.07084351
116	0xbea2c95d	-0.31794253
117	0x3ef1fe1f	0.47264192
118	0x3e910fdd	0.28332415
119	0x3ea6399f	0.32465836
120	0x3ee8a595	0.4543883
121	0x3dd28d74	0.10280886
122	0xbe850469	-0.25979927
123	0xbeb2c3c0	-0.3491497
124	0x3e2acd61	0.16679908
125	0xbe09eba9	-0.13468803
126	0xbcf3ece6	-0.029776048
127	0xbc0cec3d	-0.0086012455

nnECG.1.running_var f4 [128]
0	0x3d950e1d	0.072780825
1	0x3d982038	0.0742802
2	0x3d9a4133	0.07531967
3	0x3da0806f	0.07836997
4	0x3d95bdfd	0.07311628
5	0x3d957952	0.07298531
6	0x3d95545d	0.07291482
7	0x3d98d020	0.07461572
8	0x3d98467e	0.0743532
9	0x3d962c9a	0.07332726
10	0x3d9c35c4	0.076274425
11	0x3d976e67	0.073941045
12	0x3d93cbf7	0.072166376
13	0x3d9c62ba	0.07636018
14	0x3d962619	0.07331485
15	0x3d97ed9b	0.074183665
16	0x3d9d1ff6	0.07672112
17	0x3d943709	0.072370596
18	0x3d9ba57e	0.075999245
19	0x3d9635bd	0.073344685
20	0x3d988764	0.07447699
21	0x3d9892ca	0.07449873
22	0x3d963669	0.07334597
23	0x3d96d7fb	0.07365414
24	0x3d953b50	0.072867036
25	0x3d955bd5	0.07292906
26	0x3d95afd6	0.07308929
27	0x3d959670	0.07304084
28	0x3d95b4bc	0.07309863
29	0x3d94e6ef	0.072706096
30	0x3d97db4a	0.07414873
31	0x3d992d24	0.07479313
32	0x3d975253	0.07388749
33	0x3d97612e	0.073915824
34	0x3d94373e	0.07237099
35	0x3d9945e6	0.07484035
36	0x3d94788c	0.07249555
37	0x3d97c599	0.07410736
38	0x3d94d78f	0.07267677
39	0x3d965bcc	0.073417276
40	0x3d99e618	0.0751459
41	0x3d95fc2a	0.07323487
42	0x3da02be0	0.078208685
43	0x3da5b3bb	0.080909215
44	0x3d9423ac	0.07233366
45	0x3d9b3527	0.075784974
46	0x3d9ad3e4	0.07559946
47	0x3d9c78b4	0.0764021
48	0x3d9638bd	0.07335041
49	0x3da766fb	0.08173939
50	0x3d98e36b	0.074652515
51	0x3d9687b4	0.07350102
52	0x3d968389	0.07349307
53	0x3da2f190	0.07956231
54	0x3d97a4c3	0.07404473
55	0x3d961420	0.07328057
56	0x3d95c5a2	0.07313086
57	0x3d932f62	0.07186772
58	0x3d9bd40f	0.07608806
59	0x3d95ff9c	0.07324144
60	0x3d999d0d	0.07500658
61	0x3d975a44	0.07390264
62	0x3d9a6414	0.0753862
63	0x3d989f6a	0.07452281
64	0x3d94f7be	0.072738156
65	0x3d97c484	0.07410529
66	0x3d95e6db	0.07319423
67	0x3d948d65	0.07253531
68	0x3d94bc5a	0.07262488
69	0x3d98ed9d	0.07467196
70	0x3d985125	0.07437352
71	0x3d96a529	0.073557205
72	0x3d9921c8	0.074771464
73	0x3d97344d	0.073830225
74	0x3d9813e0	0.07425666
75	0x3d9afe8d	0.07568083
76	0x3d93a53e	0.07209252
77	0x3d94771a	0.07249279
78	0x3d9c6763	0.07636907
79	0x3d9e7ac8	0.077382624
80	0x3d99c94d	0.07509098
81	0x3d9bee55	0.076138176
82	0x3d9addfa	0.0756187
83	0x3d99e4c6	0.07514338
84	0x3d95c82e	0.07313572
85	0x3da351ee	0.07974611
86	0x3d94a37e	0.07257746
87	0x3d97a66d	0.0740479
88	0x3d9e802a	0.07739289
89	0x3d971f4c	0.07379016
90	0x3d962331	0.07330931
91	0x3d97ba0d	0.07408533
92	0x3d973298	0.07382697
93	0x3d9be2aa	0.07611592
94	0x3d9b2201	0.07574845
95	0x3d98f53a	0.07468648
96	0x3d97bf43	0.07409527
97	0x3d9b6763	0.07588079
98	0x3d9afac6	0.075673625
99	0x3d9a65d0	0.075389504
100	0x3d95e30a	0.07318695
101	0x3d959c2c	0.07305178
102	0x3d960749	0.07325608
103	0x3d950ce3	0.072778486
104	0x3d974f98	0.07388228
105	0x3d9a1c7d	0.07524965
106	0x3d953aba	0.07286592
107	0x3d9e0772	0.07716264
108	0x3d95357b	0.07285591
109	0x3d94328f	0.07236206
110	0x3d9d73d3	0.07688107
111	0x3d95362f	0.07285725
112	0x3d966b3f	0.07344674
113	0x3d9bb212	0.076023236
114	0x3d9b0610	0.07569516
115	0x3d9e424e	0.0772749
116	0x3da5c734	0.080946356
117	0x3d95528d	0.07291136
118	0x3d9f1d0b	0.077692114
119	0x3d985109	0.07437331
120	0x3d954d7e	0.07290171
121	0x3d958483	0.07300665
122	0x3d961d7c	0.073298424
123	0x3d994dde	0.07485555
124	0x3d96b4e2	0.073587194
125	0x3d96084b	0.073258005
126	0x3d954f1b	0.07290479
127	0x3d97d6a4	0.07413986

nnECG.4.weight f4 [64, 128]
0	0xbe1d1dfb	-0.15343468
1	0xbd38934d	-0.045062352
2	0x3db12604	0.08649829
3	0x3e2c213e	0.16809556
4	0xbdbe0f49	-0.09280259
5	0xbe4fe355	-0.20301564
6	0x3de58a30	0.11207998
7	0xbd5f8855	-0.054573376
8	0xbdfe2a9a	-0.12410469
9	0xbde26c03	-0.11055758
10	0x3d8311e8	0.063999
11	0x3dddd0a5	0.108308114
12	0xbd7b37b4	-0.06133242
13	0xbdea7f2c	-0.11450037
14	0xbd8aab93	-0.067710064
15	0xbdb463e2	-0.08808114
16	0xbd3f822f	-0.046755012
17	0xbddef284	-0.108861
18	0xbdacf55d	-0.08445237
19	0xbd8514e3	-0.064981245
20	0x3dba4eef	0.09097087
21	0x3d379c84	0.044827
22	0x3d467245	0.04844882
23	0x3d6c4535	0.05768319
24	0xbd0eb4eb	-0.034840506
25	0x3d38b76a	0.045096792
26	0xbd85a973	-0.065264605
27	0xbccb0079	-0.024780499
28	0x3db573fe	0.088600144
29	0x3c962211	0.018326791
30	0xbe2f0230	-0.17090678
31	0x3d551cfc	0.052029595
32	0xbe0c73c4	-0.13716036
33	0x3dc9e13a	0.09857412
34	0x3cd8f032	0.026481722
35	0xbe08a058	-0.13342416
36	0x3dc74c5c	0.09731361
37	0xbdb2013e	-0.08691643
38	0x3e3b977c	0.18319505
39	0x3c8d6d9c	0.01726418
40	0xbda2b3f9	-0.07944483
41	0xbd057a09	-0.032587085
42	0x3d22aa0b	0.039712947
43	0xbc90de6c	-0.017684184
44	0xbd850abe	-0.064961895
45	0x3e36d6f0	0.1785543
46	0x3cb476cc	0.022029303
47	0xba89b79b	-0.0010506989
48	0x3bd528a5	0.0065050893
49	0xbddd13d0	-0.107947946
50	0xbd7a2fd1	-0.061080758
51	0xbdb4984f	-0.08818113
52	0xbc7260ed	-0.014793617
53	0x3d3b26f3	0.04569144
54	0x3dcd7585	0.10032181
55	0x3c00b524	0.007855687
56	0xbe165145	-0.1467944
57	0x3db051e3	0.08609369
58	0xbe0f22a2	-0.13978055
59	0xbd853eaa	-0.06506093
60	0xbe30e987	-0.17276584
61	0xbe1c1fc8	-0.15246499
62	0xbe0c2c85	-0.13688858
63	0xbcba08ea	-0.022709329
64	0xbdb33606	-0.087505385
65	0x3b712621	0.0036796408
66	0x3d6cd4bc	0.057820067
67	0xbdcd6ddd	-0.100307204
68	0xbd01f80c	-0.031730697
69	0xbd80684b	-0.06269892
70	0xbe0d5169	-0.13800587
71	0xbe145ffa	-0.14489737
72	0x3dae262f	0.08503377
73	0x3dbc8fd5	0.09207121
74	0x3d6c6155	0.05771001
75	0x3dad294a	0.08455141
76	0xbce24aa9	-0.027623491
77	0x3d25dbf8	0.04049298
78	0x3e3c6c52	0.18400696
79	0x3d932901	0.07185555
80	0xbe6f518a	-0.23370948
81	0x3cd1d2f4	0.025613286
82	0x3d478979	0.04871509
83	0x3debaadf	0.115072004
84	0xbd435172	-0.047685094
85	0x3c30fe20	0.010802776
86	0xbd86d206	-0.065830275
87	0xbd1b3da9	-0.0379006
88	0x3df4c99c	0.119525164
89	0x3d25be43	0.04046465
90	0xbdd91009	-0.105987616
91	0xbd179953	-0.037011456
92	0xbd5641d2	-0.052308865
93	0xbe1d2e7f	-0.15349768
94	0xbd3cf140	-0.04612851
95	0x3de447d1	0.111465104
96	0x3e2faff8	0.1715697
97	0x3e5ea65a	0.21743146
98	0x3dc041c0	0.09387541
99	0x3b359182	0.0027705138
100	0x3e1ae60b	0.15126817
101	0xbdbeda0c	-0.09318933
102	0xbe302ce0	-0.17204618
103	0xbdaf71bd	-0.08566616
104	0xbd0bd5a6	-0.034139298
105	0xbdfac77e	-0.12245081
106	0xbe48d4c8	-0.1961242
107	0x3e1059c6	0.14096746
108	0xbd809cce	-0.06279908
109	0xbe00f666	-0.12593994
110	0xbe4fd968	-0.20297778
111	0xbc2918b8	-0.010320835
112	0xbe27aa27	-0.16373502
113	0xbe14ed6a	-0.14543691
114	0x3b36ad34	0.0027874233
115	0x3cd6f4ef	0.02623984
116	0xbdef78eb	-0.11692985
117	0x3e3b9a3b	0.18320553
118	0xbc85cabe	-0.016332027
119	0xbd14db4d	-0.036341954
120	0x3cfd5798	0.030925557
121	0xbe0226a7	-0.12710057
122	0xbd77c317	-0.060488787
123	0xbdf66da1	-0.12032629
124	0x3e32ee7f	0.17473792
125	0x3b586e26	0.0033024638
126	0x3e228045	0.15869243
127	0x3d836b04	0.06416896
128	0xbe5b8c2e	-0.21440193
129	0xbd7bcbf2	-0.061473794
130	0xbdcc6b78	-0.099814355
131	0x3d79a395	0.06094702
132	0xbdb0ce95	-0.086331524
133	0xbe24e983	-0.16104703
134	0xbdc491c5	-0.09598116
135	0xbdc5a61d	-0.09650824
136	0xbe2bec9f	-0.16789483
137	0xbdc40c27	-0.095726304
138	0x3b9b5e67	0.0047414782
139	0xbcff6f80	-0.031181097
140	0x3d9cc341	0.07654429
141	0xbd68d99c	-0.056848153
142	0x3e0bbddf	0.13646649
143	0xbe1c90f9	-0.15289678
144	0x3e3d32ca	0.18476406
145	0xbd496bc1	-0.049175028
146	0x3dff1bef	0.124565
147	0x3e3c1e6b	0.18370979
148	0xbddc9ae8	-0.107717335
149	0x3dcdc244	0.10046819
150	0xbe1ac69d	-0.15114827
151	0xbc4f0639	-0.012635761
152	0xbda0e0a6	-0.07855348
153	0xbd858007	-0.0651856
154	0xbd6b1892	-0.05739648
155	0x3d4aaa76	0.04947897
156	0x3e0a4d5d	0.13506074
157	0xbc0fbad3	-0.00877257
158	0xbe001746	-0.12508878
159	0x3d4c19f1	0.049829427
160	0xbd54667a	-0.05185554
161	0x3d3ea946	0.04654815
162	0xbd852243	-0.065006755
163	0xbe60ebc0	-0.21964931
164	0xbd87ef40	-0.0663743
165	0xbd66c4c9	-0.056340013
166	0x3d07060a	0.032964744
167	0xbdd801fb	-0.10547253
168	0xbd4602db	-0.048342567
169	0xbdca7833	-0.098862074
170	0xbcd83a0d	-0.026394868
171	0x3e01e54a	0.12685123
172	0xbd3f34bf	-0.046681162
173	0x3d9e5215	0.077305
174	0x3c0b399f	0.008497625
175	0x3bbdb3b9	0.005789247
176	0x3ca33c62	0.019926254
177	0x3ccc91b5	0.024971822
178	0xbde3dd45	-0.11126188
179	0xbdf80758	-0.12110776
180	0xbcf2acbe	-0.029623386
181	0xbc8956db	-0.016765049
182	0xbd63f23a	-0.055650927
183	0xbdec00a1	-0.115235575
184	0x3d1c73d7	0.03819641
185	0xbc3cc3d9	-0.011521303
186	0xbe0e0b5f	-0.13871525
187	0x3d2e52af	0.042559322
188	0x3d1f2517	0.03885373
189	0xbd654739	-0.055976126
190	0xbd965232	-0.07339896
191	0x3e2e0547	0.169942
192	0x3df718b0	0.12065256
193	0x3d9f8e10	0.07790768
194	0x3de761d5	0.11297957
195	0x3c702f4e	0.014659716
196	0xbe0e431d	-0.13892789
197	0xbd49004e	-0.049072556
198	0xbe1cefa1	-0.15325786
199	0xbc202077	-0.009773365
200	0x3dcc1f0f	0.099668615
201	0xbd529061	-0.05140722
202	0xbd83523a	-0.06412168
203	0xbd8409a0	-0.06447148
204	0x3e22563a	0.15853205
205	0x3dc14e9f	0.09438824
206	0xbd8e7310	-0.0695554
207	0x3dff8a67	0.1247757
208	0xbdf0c8d2	-0.117570534
209	0xbc67bc6b	-0.014144043
210	0x3df860d8	0.121278465
211	0x3e17bb2b	0.14817493
212	0x3d8e4a26	0.069477364
213	0x3da42be0	0.08016181
214	0xbd0191a6	-0.03163304
215	0x3dc7b1ef	0.09750735
216	0xbd95f960	-0.07322955
217	0xbe22ea20	-0.15909624
218	0xbdaae903	-0.08345225
219	0x3c660955	0.014040311
220	0x3c684daa	0.014178673
221	0xbd494655	-0.04913934
222	0x3df38524	0.11890629
223	0xbe0a82df	-0.13526486
224	0xbc9659f7	-0.018353445
225	0x3e933cdf	0.28757378
226	0xbddc3f34	-0.107542425
227	0x3e8a4553	0.27006015
228	0x3d838bfd	0.06423185
229	0xbe05e09d	-0.13073964
230	0xbd90f0f6	-0.0707721
231	0xbe08df26	-0.13366374
232	0x3e0a5bd4	0.13511592
233	0xbcc2ada5	-0.02376444
234	0x3daf8431	0.085701354
235	0xbc4eae24	-0.012614761
236	0xbdc6e6ef	-0.09712016
237	0x3c8c98cf	0.017162709
238	0xbe5104b6	-0.20411953
239	0xbd962eeb	-0.07333168
240	0x3daacf29	0.08340294
241	0xbc08bbb7	-0.008345536
242	0xbcbfef58	-0.023429558
243	0xbe27dd09	-0.16392912
244	0xbd51c5a6	-0.051213883
245	0x3de88f6d	0.11355481
246	0x3df0b120	0.11752534
247	0xbd05052e	-0.032475643
248	0xbe11ca59	-0.14237346
249	0xbe76cef7	-0.24102388
250	0xbd57f39b	-0.052722555
251	0x3cb309e3	0.0218553
252	0x3e0db62b	0.13839023
253	0xbe1281d9	-0.14307345
254	0xbd9e08a3	-0.07716491
255	0x3ca5ec0d	0.02025416

nnECG.4.bias f4 [64]
0	0x3c85dc2d	0.01634034
1	0x3ca16ce5	0.019705245
2	0x3c82b715	0.015956441
3	0x3d1441b3	0.03619547
4	0x3ce3cd62	0.027807895
5	0xbc956d37	-0.018240554
6	0x3ca19e2d	0.019728744
7	0x3b95a37e	0.004566609
8	0x3ccd6f93	0.025077617
9	0x3cedc557	0.029024763
10	0xbcebde9a	-0.028792668
11	0x3c2b69db	0.01046225
12	0x3c0bc1f5	0.00853013
13	0x3c534ad5	0.012896259
14	0xbcb16d32	-0.021658514
15	0x3c7732c7	0.01508779
16	0x3c08f35d	0.008358804
17	0xbc398a74	-0.011324514
18	0x3be88311	0.0070957025
19	0x3d4c4c38	0.049877375
20	0x3c6577ae	0.014005585
21	0xbbb4ba68	-0.0055153854
22	0xbc31787b	-0.010831947
23	0x3d14db70	0.036342084
24	0x3d0bd4f3	0.03413863
25	0x3c14a02e	0.009071393
26	0x3d490f2b	0.04908673
27	0x3cfd9d9a	0.03095894
28	0x3d156453	0.03647263
29	0xbbfc69d1	-0.007703044
30	0xbcb34f36	-0.021888357
31	0xbc531d26	-0.0128853675
32	0x3ca6f4b6	0.02038036
33	0x3c02030e	0.007935299
34	0x3cd359ff	0.02579975
35	0x3d09d992	0.033654757
36	0x3d36ca5d	0.044626582
37	0xbc651650	-0.0139823705
38	0x3da3cb18	0.079977214
39	0x3cdb6f12	0.02678636
40	0x3bbbf00e	0.005735404
41	0x3bb76382	0.005596579
42	0x3c3dc2a7	0.011582053
43	0xbbf42caf	-0.0074516158
44	0x3ca7acf7	0.020468218
45	0x3d1e334e	0.038623147
46	0xbc7aa802	-0.015298845
47	0x3c72c45f	0.014817326
48	0x3c4af819	0.012388253
49	0x3c4bc058	0.012435995
50	0x3be5314a	0.006994401
51	0x3be1a759	0.0068864045
52	0x3cd4a257	0.025956316
53	0xbba0b208	-0.0049040355
54	0x3c2ce34c	0.010552239
55	0x3d0e1652	0.034689255
56	0x3c74f088	0.014949925
57	0x3d5b3e18	0.053526014
58	0x3bee837d	0.007278858
59	0x3c37f8cf	0.011228754
60	0x3c0dc6e5	0.008653377
61	0x3d0961be	0.03354048
62	0x3a7845d5	0.0009470855
63	0x3cb5871b	0.02215915

nnECG.5.weight f4 [64]
0	0x3f81fb5b	1.0154833
1	0x3f875532	1.0572875
2	0x3f842844	1.0324788
3	0x3f8bf964	1.0935483
4	0x3f8998b9	1.0749732
5	0x3f799483	0.97492236
6	0x3f8de28e	1.1084764
7	0x3f874566	1.0568054
8	0x3f8e0e02	1.1098025
9	0x3f8a5dc3	1.0809864
10	0x3f783e65	0.96970206
11	0x3f8b4b1e	1.0882299
12	0x3f8b7bb7	1.089713
13	0x3f79eff6	0.97631776
14	0x3f803946	1.0017478
15	0x3f827285	1.0191199
16	0x3f8a5f65	1.0810362
17	0x3f7fee23	0.9997274
18	0x3f7ec441	0.9951821
19	0x3f8b3d2f	1.0878047
20	0x3f8c9fd6	1.0986278
21	0x3f7dc70c	0.99131846
22	0x3f8b3e98	1.0878477
23	0x3f87e6d3	1.0617317
24	0x3f8551d0	1.0415592
25	0x3f8aee3b	1.0853952
26	0x3f8ebd6c	1.1151557
27	0x3f83e696	1.0304744
28	0x3f8c4787	1.0959328
29	0x3f8074c0	1.0035629
30	0x3f829b9b	1.0203737
31	0x3f7a7645	0.97836715
32	0x3f89ae05	1.0756232
33	0x3f8825fd	1.0636593
34	0x3f8c3d6e	1.0956247
35	0x3f8b33eb	1.0875219
36	0x3f93fa2d	1.1560723
37	0x3f80c64c	1.0060515
38	0x3f8f4702	1.1193545
39	0x3f887053	1.0659279
40	0x3f879e82	1.0595248
41	0x3f873135	1.0561892
42	0x3f8ac294	1.084063
43	0x3f87e3df	1.0616416
44	0x3f88a31b	1.0674776
45	0x3f89824e	1.0742891
46	0x3f7f7072	0.9978095
47	0x3f79a2e1	0.9751416
48	0x3f8dca2f	1.1077327
49	0x3f831361	1.0240289
50	0x3f791be4	0.9730818
51	0x3f83263d	1.0246044
52	0x3f854b51	1.041361
53	0x3f828fe1	1.0200158
54	0x3f918dbd	1.137138
55	0x3f91888e	1.1369798
56	0x3f818212	1.0117819
57	0x3f926443	1.1436847
58	0x3f8322dd	1.0245014
59	0x3f89d1d9	1.0767165
60	0x3f81266a	1.0089848
61	0x3f88bb89	1.0682231
62	0x3f8722f9	1.0557548
63	0x3f87456c	1.0568061

nnECG.5.bias f4 [64]
0	0x3b533182	0.0032225554
1	0x3bc716c4	0.006075712
2	0x3c48eb7f	0.012263178
3	0x3ceb7265	0.028741071
4	0x3ce93569	0.02846785
5	0xbcc5f4d3	-0.024164593
6	0x3c7c3d26	0.015395438
7	0x3b54aa99	0.0032450317
8	0x3bf0c25b	0.0073473877
9	0x3c89bd4c	0.016813897
10	0xbd3415f7	-0.04396626
11	0xbbc0b525	-0.005880969
12	0xbabc8f9c	-0.0014386061
13	0x3ac7df7d	0.00152491
14	0xbce54a5f	-0.027989564
15	0xbb7a9c60	-0.003824018
16	0xbb7beb1d	-0.00384397
17	0xbcca3b44	-0.024686463
18	0xbbc5593c	-0.0060226005
19	0x3d4305d9	0.047613
20	0x3c0d1372	0.008610593
21	0xbc586e53	-0.013209897
22	0xbca3c518	-0.019991443
23	0x3cdf1b28	0.027234629
24	0x3cd14312	0.025544677
25	0x3bd728b2	0.0065661306
26	0x3d4e1ae4	0.050318614
27	0x3c8eeec5	0.017447839
28	0x3cf76ba5	0.030202696
29	0xbc5438ff	-0.012953042
30	0xbd0a3481	-0.033741478
31	0xbcc9f31e	-0.02465206
32	0x3cc81b8b	0.024427196
33	0xbc0f0bda	-0.008730853
34	0x3c5bb0c4	0.013408843
35	0x3cb9aba5	0.022664854
36	0x3d1baf1e	0.0380088
37	0xbca30dd0	-0.019904047
38	0x3d800a1f	0.062519304
39	0x3ce50686	0.027957212
40	0xbc3cb47a	-0.011517638
41	0xbc6024c8	-0.013680644
42	0x3b853f41	0.0040663783
43	0xbce456fe	-0.027873512
44	0x3b8d6b9a	0.0043158056
45	0x3d0508c6	0.03247907
46	0xbcc890ce	-0.02448311
47	0xba3b8f43	-0.00071548315
48	0x3c3552be	0.011067091
49	0xba80dad9	-0.0009830847
50	0xbb4b7cde	-0.0031049768
51	0xbb9fcbe2	-0.0048765996
52	0x3c7e70c4	0.015529815
53	0xbcb2ae80	-0.021811724
54	0xbaa16c43	-0.001231559
55	0x3c7dca8a	0.015490184
56	0xbb8c25b6	-0.0042769564
57	0x3d3c2516	0.045933805
58	0xbbdf78a1	-0.0068198
59	0x3baa5a5d	0.0051987604
60	0xba8641e1	-0.0010243022
61	0x3cc102b3	0.023560857
62	0xbc4a5d28	-0.012351312
63	0x3c4fefdb	0.012691463

nnECG.5.running_mean f4 [64]
0	0xbf006156	-0.5014852
1	0xbee20d90	-0.44150972
2	0xbf038114	-0.5136883
3	0xbf25e041	-0.6479531
4	0xbb87e5fd	-0.00414729
5	0xbf140e94	-0.57834744
6	0xbe2eba36	-0.17063221
7	0x3d892399	0.06696243
8	0x3e99646a	0.29959422
9	0x3ded358c	0.11582479
10	0xbe55609b	-0.20837633
11	0x3e46c43d	0.19410796
12	0xbe723187	-0.23651706
13	0xbdcf81f3	-0.10132208
14	0xbebe929a	-0.37221223
15	0xbe9d8d38	-0.30771804
16	0x3d48b0dd	0.048996795
17	0xbef505a3	-0.47855863
18	0xbe40b209	-0.18817915
19	0x3e5f8837	0.21829306
20	0x3d8e498c	0.06947622
21	0xbf01d559	-0.5071617
22	0x3e980b8c	0.2969631
23	0xbdbf7595	-0.09348599
24	0xbe6bd7ca	-0.23031536
25	0xbe228b78	-0.15873516
26	0xbd9f04b2	-0.077645674
27	0xbf0205cf	-0.50790113
28	0xbcb1782f	-0.021663753
29	0xbf225cba	-0.6342274
30	0xbd850814	-0.064956814
31	0xbee36fd5	-0.4442126
32	0xbba64ac2	-0.00507483
33	0xbec8db95	-0.39230028
34	0x3d38dd89	0.045133147
35	0x3e0f189c	0.13974231
36	0x3e5dd180	0.21661949
37	0xbe8e0bd8	-0.2774341
38	0xbe1fe5a5	-0.15614946
39	0x3eecb6d6	0.46233243
40	0xbec9b3ad	-0.39394894
41	0xbe49ba91	-0.19700076
42	0xbc7d05bf	-0.0154432645
43	0xbe0ccee7	-0.13750802
44	0xbf0008a1	-0.50013167
45	0xbea5a35a	-0.3235119
46	0x3e1a200b	0.15051286
47	0x3e60c9bb	0.21951954
48	0x3e444fb7	0.19171034
49	0x3efd521e	0.49476713
50	0x3e36be87	0.17846118
51	0xbe4a1ba8	-0.19737113
52	0x3e736aaa	0.23771158
53	0x3ea0dd91	0.31419042
54	0xbefb36cf	-0.49065253
55	0x3ee87ee1	0.454093
56	0x3eadede1	0.3397055
57	0x3dbeee71	0.09322823
58	0x3ea395a6	0.3195011
59	0x3b3baf53	0.0028638437
60	0x3eca1bda	0.39474374
61	0x3dc8703f	0.09787034
62	0x3ed69261	0.41908553
63	0x3d970f70	0.07375991

nnECG.5.running_var f4 [64]
0	0x3f9ba062	1.215832
1	0x3f422a99	0.7584625
2	0x3fa58929	1.2932483
3	0x3ff4477e	1.9084318
4	0x3f4c72f5	0.7986291
5	0x3f8c1d54	1.094645
6	0x4033119c	2.7979498
7	0x3f56630b	0.8374488
8	0x400ac4c2	2.1682591
9	0x3f910b42	1.1331561
10	0x3f9f6113	1.24515
11	0x3fa46995	1.2844721
12	0x3fa3ffd7	1.2812451
13	0x3ff8f3cf	1.9449404
14	0x3f89ace1	1.0755883
15	0x3f8825da	1.0636551
16	0x3f7891dd	0.9709757
17	0x3f72713f	0.9470405
18	0x3f978cd9	1.1839858
19	0x3f50ea57	0.81607574
20	0x3f6a9ed3	0.91648597
21	0x3ff3daa9	1.9051105
22	0x3fadc9e1	1.3577234
23	0x3f61c535	0.8819154
24	0x3fa94919	1.3225433
25	0x3facdbbb	1.3504556
26	0x40132342	2.299027
27	0x3f6f6c5a	0.93524706
28	0x3f84fa6a	1.038892
29	0x3fbe7649	1.4879848
30	0x40044a1c	2.0670233
31	0x3fba34be	1.4547346
32	0x3f6696aa	0.90073645
33	0x3fa89a0b	1.317201
34	0x3f994f54	1.1977334
35	0x3f88bee2	1.0683253
36	0x3f6c27ce	0.9224824
37	0x3f61c188	0.8818593
38	0x3fc8b8c6	1.5681388
39	0x3fd45464	1.6588254
40	0x3fbe58fa	1.4870903
41	0x3fd077c8	1.6286554
42	0x3f81b2ad	1.0132653
43	0x3f917145	1.1362692
44	0x3f6f1581	0.9339219
45	0x3f7b8273	0.98245925
46	0x3f8daffa	1.1069329
47	0x3f82e675	1.022658
48	0x3f8f1cb1	1.1180631
49	0x3fb7710b	1.4331373
50	0x3fdf9d67	1.746991
51	0x3fe1f5d7	1.7653149
52	0x3f935152	1.1509192
53	0x3fb4a39b	1.4112428
54	0x3ff44a15	1.9085108
55	0x3f8477d5	1.034907
56	0x3f9887bb	1.1916422
57	0x3f9e1f6c	1.2353339
58	0x3f5f4cae	0.8722638
59	0x3f89aa7b	1.0755152
60	0x3f763b6e	0.9618443
61	0x3fc9cde4	1.5765958
62	0x3f8431fe	1.0327756
63	0x3f790720	0.97276497

nnECG.8.weight f4 [16, 64]
0	0xbe70b3d2	-0.23506096
1	0xbace59a9	-0.0015743274
2	0x3df29cc7	0.11846309
3	0xbe75feb2	-0.2402294
4	0xbda5f32f	-0.08103024
5	0xbdd5d061	-0.10440136
6	0x3d31e515	0.04343136
7	0x3e53458c	0.20631999
8	0xbdfde87d	-0.12397859
9	0xbd919177	-0.07107823
10	0x3e8203c3	0.25393495
11	0x3d8e6c88	0.069542944
12	0xbe5a44c1	-0.2131529
13	0x3d127ff9	0.035766575
14	0xbe25aa2e	-0.161782
15	0xbd57e68f	-0.052710112
16	0xbe41137d	-0.1885509
17	0x3e42d1fa	0.19025412
18	0x3cc758d4	0.024334349
19	0xbd9c0457	-0.07618015
20	0xbd267e8a	-0.04064802
21	0x3d5f4148	0.054505616
22	0xbe43e32f	-0.19129632
23	0x3dd110e7	0.10208302
24	0x3d7fc7eb	0.062446516
25	0xbe3fadac	-0.18718594
26	0xbe8f64d6	-0.2800662
27	0xbe2df96b	-0.16989677
28	0xbdaa5c66	-0.08318405
29	0xbe7cd920	-0.24692202
30	0x39d03059	0.00039708873
31	0xbe652089	-0.22375692
32	0x3c9dfdfc	0.019286148
33	0xbe122bc8	-0.14274514
34	0xbe80ce55	-0.2515742
35	0x3e858f2c	0.26085794
36	0x3e0c4ac0	0.1370039
37	0x3cbddb8a	0.023175973
38	0x3e2a4f96	0.16631922
39	0x3def0c2c	0.116722435
40	0x3e5f7563	0.21822123
41	0xbe045d04	-0.12926108
42	0x3c1ee9b3	0.009699273
43	0xbe49e546	-0.19716367
44	0x3da591e6	0.080844685
45	0x3e5812c8	0.21100914
46	0x3d021551	0.03175861
47	0x3e3525ed	0.17690249
48	0xbc4768c7	-0.012170977
49	0xbb988bf5	-0.004655356
50	0x3de22f87	0.11044221
51	0xbe68d2fe	-0.22736737
52	0xbe89436d	-0.26809254
53	0x3e7d1842	0.24716285
54	0xbe00a705	-0.12563713
55	0x3d7a90de	0.061173312
56	0x3d561a4a	0.052271165
57	0xbda85b65	-0.08220557
58	0x3e3ce736	0.18447575
59	0x3c7feea2	0.015620859
60	0x3c3f8c63	0.011691186
61	0x3e41468e	0.1887457
62	0xbe0317cc	-0.12802047
63	0x3e3a11ee	0.18170902
64	0x3dedbf35	0.116087355
65	0xbd8f74be	-0.07004689
66	0x3cdb634d	0.026780749
67	0xbcdc839c	-0.026918225
68	0xbc8b21c3	-0.016983872
69	0x3d564bd2	0.0523184
70	0xbe246185	-0.16052826
71	0xbd830b8e	-0.06398688
72	0x3e01de7b	0.12682526
73	0xbdcf2dfd	-0.101161934
74	0xbe1e3496	-0.15449747
75	0x3de965de	0.11396383
76	0xbe42a730	-0.1900909
77	0x3e6870f6	0.22699341
78	0x3e5c34a1	0.21504451
79	0xbe84f1fc	-0.2596587
80	0x3ea1471b	0.31499562
81	0xbe50dc46	-0.20396528
82	0x3de0c9b7	0.10975974
83	0x3e59d6d8	0.21273363
84	0x3e94a9ee	0.29035896
85	0x3e2c101c	0.1680302
86	0x3e91c81a	0.28472978
87	0x3da09157	0.078402214
88	0x3dd11993	0.10209956
89	0x3dcab437	0.098976545
90	0xbe02800c	-0.12744159
91	0xbdbc9a16	-0.09209077
92	0xbe1d3357	-0.15351616
93	0x3e53bbb9	0.2067708
94	0x3df49e02	0.119442
95	0xbd8a4a38	-0.06752437
96	0xbdf78386	-0.12085633
97	0x3d4483a0	0.04797709
98	0xbe19d5f4	-0.15023023
99	0xbe56d617	-0.20980106
100	0xbe84b763	-0.25921163
101	0x3e56fea3	0.20995574
102	0x3d39fe11	0.045408312
103	0xbde17a05	-0.110096015
104	0x3e4a3dd3	0.19750147
105	0xbe09ee66	-0.13469848
106	0x3c448518	0.011994623
107	0xbc564919	-0.013078951
108	0xbe81d659	-0.25358847
109	0xbe6fda22	-0.23423055
110	0xbe5e06e1	-0.21682312
111	0xbd46ba05	-0.048517246
112	0xbdc34944	-0.09535459
113	0xbddf4539	-0.10901875
114	0x3d9f6621	0.077831514
115	0xbc3456cc	-0.011007022
116	0x3e8011eb	0.2501367
117	0x3df8e531	0.1215309
118	0x3e1a1d25	0.1505018
119	0x3ce3588f	0.027752189
120	0xbe1f260b	-0.15541856
121	0x3d210c40	0.039318323
122	0x3e5617b3	0.20907478
123	0x3cd54ac5	0.02603663
124	0xbe345394	-0.17610008
125	0xbe1f51d1	-0.15558554
126	0xbe64994f	-0.22324108
127	0xbe60a71d	-0.21938749
128	0xbe379247	-0.17926894
129	0xbe19563d	-0.14974304
130	0x3e5153bb	0.20442097
131	0xbdc07ae0	-0.093984365
132	0x3e928419	0.28616408
133	0x3e51c225	0.20484217
134	0x3ea19189	0.31556347
135	0xbe0c8fbd	-0.13726707
136	0x3eb221c5	0.3479139
137	0xbdd1370c	-0.102155775
138	0xbd981526	-0.07425909
139	0x3eb8e2fa	0.3611067
140	0xbea7c9b2	-0.3277107
141	0xbdf9668d	-0.12177763
142	0x3e5d2626	0.21596584
143	0xbe889ac7	-0.26680586
144	0x3dcbd5f8	0.09952921
145	0xbd900fa7	-0.070342354
146	0xba51f586	-0.0008009303
147	0xbea02d8a	-0.31284744
148	0xbd243dff	-0.040098187
149	0x3e1a25a0	0.15053415
150	0xbdc4f0bc	-0.09616229
151	0x3e144152	0.14478043
152	0xbe634b59	-0.22196712
153	0x3d4114a1	0.047138814
154	0xbe6d0658	-0.23146951
155	0xbddb6799	-0.10713119
156	0x3d43c162	0.047791846
157	0xbdb1b8d4	-0.08677831
158	0x3e458991	0.19290759
159	0x3e0b9261	0.13630058
160	0x3e246efe	0.16057965
161	0x3e41ee52	0.18938568
162	0xbe8443c6	-0.25832957
163	0x3e03eaf5	0.12882598
164	0xbd88e038	-0.06683391
165	0xbdeb6f8b	-0.114958845
166	0x3e286202	0.16443637
167	0xbe93208f	-0.28735778
168	0x3e9f8026	0.31152457
169	0x3e58071f	0.21096466
170	0xbe2b58c9	-0.16733088
171	0x3e697e2b	0.22802036
172	0xbdb03913	-0.08604636
173	0xbdd4b623	-0.10386302
174	0x3d29100c	0.04127507
175	0x3bbd2485	0.0057721757
176	0x3e11ff79	0.14257611
177	0xbcca4980	-0.02469325
178	0xbe8e98df	-0.27851006
179	0xbdbdb3fa	-0.092628434
180	0xbe2b228c	-0.16712397
181	0x3e906d42	0.28208357
182	0xbe4adced	-0.19810839
183	0xbeab36b0	-0.3344016
184	0x3d52c401	0.051456455
185	0x3e220021	0.15820362
186	0xbe764e33	-0.24053268
187	0xbd6d91e1	-0.05800045
188	0x3e67d390	0.22639298
189	0x3de8daf6	0.113698885
190	0xbeab1eb6	-0.33421868
191	0xbce5f35d	-0.028070146
192	0x3e44b3ca	0.19209209
193	0xbe3f7139	-0.18695535
194	0x3c88c33b	0.016694656
195	0x3e525b3f	0.2054262
196	0x3e8a7030	0.27038717
197	0x3e054b07	0.13016902
198	0xbe04877f	-0.12942313
199	0x3e7bd9c0	0.24594784
200	0xbde9e887	-0.11421304
201	0xbd43e974	-0.04783006
202	0xbe835d88	-0.25657296
203	0xbe8e2911	-0.27765706
204	0x3d1db5a2	0.038503297
205	0x3e5b8054	0.21435672
206	0x3dbedcad	0.09319434
207	0x3ced5ad1	0.028973969
208	0xbd41c797	-0.047309484
209	0xbe333152	-0.17499283
210	0x3e3035c8	0.17208016
211	0xbdbbece4	-0.09176043
212	0xbe2759b5	-0.16342814
213	0x3e8b4fa2	0.27209193
214	0xbe47dffe	-0.1951904
215	0x3e837236	0.25673074
216	0x3e87d682	0.26530844
217	0xbe94fd0f	-0.29099318
218	0xbe05b172	-0.13055971
219	0x3d8230ea	0.06356986
220	0xbe46137e	-0.19343373
221	0xbdd20944	-0.102556735
222	0x3e946bf2	0.28988606
223	0xbe58c0c1	-0.2116728
224	0x3d96ad0e	0.07357226
225	0xbe268c4a	-0.16264454
226	0x3e80a5df	0.2512655
227	0x3e7a552e	0.24446556
228	0xbe8033a2	-0.25039393
229	0x3dc1a6db	0.09455653
230	0x3e26294c	0.16226691
231	0xbe55d014	-0.20880157
232	0x3d80803e	0.0627446
233	0xbe863bcb	-0.26217493
234	0x3df7193b	0.12065359
235	0x3d3ea82c	0.0465471
236	0x3daeb003	0.08529665
237	0x3da941bf	0.08264493
238	0xbe2aae5c	-0.16668075
239	0xbe0e5532	-0.13899687
240	0xbca2ae28	-0.019858435
241	0x3d8d74bd	0.06907032
242	0x3e29be00	0.16576385
243	0xbe65ddc2	-0.22447875
244	0x3e634464	0.22194058
245	0x3d8919ac	0.0669435
246	0xbcb6930f	-0.02228692
247	0x3de443bd	0.111457326
248	0x3d285179	0.041093323
249	0x3e9dc494	0.3081404
250	0x3d9a0507	0.0752049
251	0x3db0ebeb	0.08638748
252	0xbe18cb3c	-0.14921278
253	0x3e5e1f8d	0.21691723
254	0x3c9ac054	0.018890537
255	0x3e361d08	0.17784512

nnECG.8.bias f4 [16]
0	0x3b095091	0.0020952562
1	0xbbeeec27	-0.007291335
2	0x39a34144	0.0003113841
3	0x3cf810f3	0.03028152
4	0x3cd05b6c	0.025434218
5	0x3aa699d8	0.0012710644
6	0x3d0dbba6	0.034602784
7	0xbb1755ba	-0.0023091868
8	0x3d21b96c	0.039483473
9	0x3d35444b	0.044254582
10	0x3cf458a1	0.029827418
11	0xbb4a3924	-0.0030856812
12	0x3c77d6ab	0.015126864
13	0x3ccbea5e	0.024892028
14	0x3d11e1bc	0.035615668
15	0xbca76f44	-0.020438798

nnECG.9.weight f4 [16]
0	0x3f79cff2	0.97582924
1	0x3f807c4a	1.003793
2	0x3f890352	1.0704138
3	0x3f835671	1.0260755
4	0x3f8e212c	1.1103873
5	0x3f84ec65	1.0384642
6	0x3f8abc77	1.0838765
7	0x3f812b8f	1.0091418
8	0x3f8addf5	1.0848986
9	0x3f91c490	1.1388111
10	0x3f8b6bec	1.089231
11	0x3f834788	1.0256205
12	0x3f8f50cf	1.1196536
13	0x3f8ca7bc	1.0988688
14	0x3f8b782c	1.0896049
15	0x3f86e76c	1.0539374

nnECG.9.bias f4 [16]
0	0xbbfbbcc4	-0.0076824147
1	0xbd0dbb27	-0.03460231
2	0xbcca78c6	-0.024715792
3	0x3d11450c	0.03546624
4	0x3d0420ca	0.032257833
5	0xbc4f20ef	-0.012642129
6	0x3d1d76ad	0.038443256
7	0xbc57980e	-0.013158811
8	0x3c6b8992	0.014376061
9	0x3cd0c612	0.025485072
10	0x3cbd1570	0.023081511
11	0xbca19df2	-0.019728635
12	0xbb86e31c	-0.004116429
13	0x3c8d96a5	0.017283747
14	0x3cc38be4	0.023870416
15	0xbca7c270	-0.020478457

nnECG.9.running_mean f4 [16]
0	0xbe3bb9da	-0.18332615
1	0xbd61eb7a	-0.05515621
2	0xbac87dc0	-0.0015296265
3	0x3ea2d328	0.31801724
4	0x3edd7fa1	0.43261436
5	0x3e1ad6fe	0.15121076
6	0xbe8920b7	-0.26782772
7	0x3ee99814	0.4562384
8	0xbefcbcb2	-0.49362713
9	0xbeaf0c29	-0.34188965
10	0x3f0e542f	0.55597204
11	0xbee1ede4	-0.4412681
12	0xbe49be93	-0.19701605
13	0x3e3646ea	0.17800489
14	0xbd031215	-0.031999666
15	0x3f3f4663	0.74716777

nnECG.9.running_var f4 [16]
0	0x3f9b4aba	1.213218
1	0x3fb538aa	1.4157917
2	0x3fd355e5	1.6510588
3	0x3fc56cf1	1.5423871
4	0x3f95564a	1.1666958
5	0x3fc9dee6	1.5771148
6	0x3fc72bfe	1.55603
7	0x3fbea350	1.4893589
8	0x40220694	2.5316515
9	0x3f9b50c7	1.2134026
10	0x3fcb41a9	1.5879413
11	0x3fdd7c6b	1.7303594
12	0x3fcb587a	1.5886376
13	0x3fb953a4	1.447865
14	0x3f9d9079	1.2309715
15	0x3ff65b2e	1.9246576

nnECG.12.weight f4 [4, 16]
0	0xbe94abcb	-0.29037318
1	0x3f078ef0	0.5295248
2	0x3ee58747	0.4482977
3	0xbbdae740	-0.006680399
4	0xbed6704d	-0.41882554
5	0x3e96918c	0.29407918
6	0xbc5e9510	-0.013585344
7	0x3eabfe6f	0.33592555
8	0xbeada2e4	-0.33913338
9	0xbe419f2d	-0.18908377
10	0xbea874fb	-0.3290175
11	0x3dcbe118	0.099550426
12	0x3cafac66	0.02144451
13	0x3e44bf9b	0.19213717
14	0xbf14bed6	-0.5810369
15	0xbe621232	-0.22077253
16	0xbe9cd366	-0.30630034
17	0x3b913d7d	0.004432379
18	0x3dce1858	0.10063237
19	0x3e846754	0.25860083
20	0x3e828612	0.25492913
21	0xbf273eb0	-0.6533003
22	0xbdabb603	-0.08384325
23	0x3ef83e55	0.48485056
24	0x3e608d91	0.21929003
25	0x3e78139f	0.24226235
26	0xbe5ea3c0	-0.21742153
27	0xbd456e08	-0.048200637
28	0x3ee075c3	0.43839845
29	0x3eb10eae	0.34581512
30	0x3c202c1d	0.009776142
31	0x3eb19a08	0.3468783
32	0xbe0a772c	-0.13522023
33	0x3d1aab99	0.037761305
34	0xbe596dd7	-0.21233307
35	0xbe0e7d83	-0.13915066
36	0xbf03fb9e	-0.5155581
37	0x3daa10e5	0.083040036
38	0x3ef83212	0.484757
39	0xbeb51ec4	-0.35375035
40	0x3f02611a	0.50929415
41	0x3ebf7566	0.37394255
42	0xbe18a702	-0.14907458
43	0xbe895973	-0.26826057
44	0xbf121ffc	-0.57080054
45	0x3f247025	0.6423362
46	0x3ba5b519	0.005056989
47	0xbf0ebba4	-0.55755067
48	0x3e8d2c0f	0.27572677
49	0x3d47d42f	0.04878634
50	0x3e7710aa	0.2412745
51	0xbf0bb9a4	-0.5458014
52	0x3ee3ff28	0.44530606
53	0x3d874b9a	0.06606217
54	0x3f01910c	0.5061195
55	0xbf0dfbd3	-0.5546238
56	0xbead5612	-0.3385473
57	0xbe154170	-0.14575744
58	0xbe985d7e	-0.2975883
59	0xbdf0a572	-0.11750306
60	0x3e3f5d19	0.18687858
61	0xbedfaf08	-0.43688226
62	0xbe4c0a3f	-0.19925784
63	0xbe8ba7ee	-0.27276558

nnECG.12.bias f4 [4]
0	0xbc91a32e	-0.017778005
1	0x3bfe3f2f	0.007758997
2	0x3d50a70f	0.05094057
3	0x3c5c89ab	0.013460557

nnECG.13.weight f4 [4]
0	0x3f829a50	1.0203342
1	0x3f8581c4	1.0430226
2	0x3f8d1bfd	1.1024166
3	0x3f8b5fdb	1.0888628

nnECG.13.bias f4 [4]
0	0xbce635f2	-0.028101895
1	0xbc313dc9	-0.010817953
2	0x3d151b28	0.03640285
3	0xbc2a0528	-0.010377206

nnECG.13.running_mean f4 [4]
0	0xbd904d38	-0.07045978
1	0x3eea14a4	0.45718873
2	0xbe7643e7	-0.2404934
3	0xbe7158d4	-0.23569041

nnECG.13.running_var f4 [4]
0	0x3fae0e4f	1.3598117
1	0x3fbc9352	1.4732459
2	0x3fc68419	1.5509063
3	0x3f9e08cf	1.2346438

nnECG.16.weight f4 [1, 4]
0	0x3f697b50	0.91203785
1	0x3ed1323d	0.4085864
2	0xbec68dd7	-0.3878009
3	0x3f373d01	0.7157746
