Models/net_2_0_epoch_68.pth (torch, 57997 bytes, 25 tensors)

nnECG.0.weight f4 [128, 12]
00000000: b819 a93d 7502 0ebd 87a1 a13d e048 13be
00000010: d846 0dbc d25f cdbd 44a7 3fbd adf9 c03c
00000020: 059c d73d 5e7d b23d 454d 34be 018a 04be
00000030: 6a66 9e3d d115 0f3e 7cc6 aabd 6d13 0ebe
00000040: 6c11 7ebe 5e07 e13d 2eae 353e 8069 2e3e
00000050: e126 3d3e b7fb 35be 96d1 f13d dedf bfbc
00000060: 9c66 5c3e 328a 363d 5d14 303e 54d8 f5bb
00000070: 011f 30be cacf 453d 4307 ad3d 27e4 363e
00000080: 5184 0a3c 83e4 023e 9586 2f3e c7ed fbbc
00000090: a978 e5bd 2e18 11be 9044 0e3e 6e8b 533e
000000a0: f9ca 393e 4628 ea3d 9790 f03b b564 2fbe
000000b0: 7516 373d 33fd 2a3d cf51 92bd cb2e a1bd
000000c0: 51bb b63d 91cf 8ebd 37d4 36be f19d f63c
000000d0: 66c7 3dbe 88d7 3dbd 6ea3 6b3e ac4f 4dbe
000000e0: 5b72 2d3e 6ae6 01bd 3342 f03a beea 203d
000000f0: f1ab 043d cf36 01be d1f8 56bd 7f26 0abe
00000100: 1c3c d33d 0dc8 19be cd75 ebbd bd8e 9cbb
00000110: 9335 20bd fb82 533e 7de3 dbbc 52d3 c53c
00000120: 9c74 833d 6606 803e b299 06be e859 c3bc
00000130: 67f8 503c 57ad 323e d4de ec3d 626b 953d
00000140: ed51 3ebe a442 453e 934e 90bc 8ed0 07be
00000150: 4c42 0dbe 6445 debd 122e 55be 1cbd e73c
00000160: 9811 0b3d a9ff ccbd 5b42 503d 233e 83bc
00000170: 6b27 5c3d 6099 743d 40d5 51bd 4f20 53be
00000180: 1743 2cbe 26bc 1d3e e1e5 cabc e27f 4a3e
00000190: e46b 8e3e 01b0 1abd ce50 bdbd 65d2 453c
000001a0: d231 60be 25da 233e dd0a 873e a003 0bbe
000001b0: 5021 073e 5089 60be 9562 0a3e 7e8f d13d
000001c0: 080c 9c3d 6e75 333e e9be 2cbe f239 c83d
000001d0: 6ee5 be3d 9068 773e 57b0 3e3c d66a 39be
000001e0: 1592 093d d943 da3d a850 a63d 0f9f ae3c
000001f0: 23a4 3a3d f3ff 6bbe 3464 66bd 126f 593e
00000200: a3c9 7f3d 36c0 d3bd 18b9 ef3d cd3d 9ebd
00000210: 4ab3 26be e90a babd 8720 aa3d 6231 b5bd
00000220: e014 c13d e6b3 7cbd b4ec d03d 05b7 913d
00000230: 2d54 803d f613 7abd 7049 023d 0437 b3bd
00000240: f348 dd3d bb70 bebd 7cea 063e 45d8 373e
00000250: 3643 1d3e 903a 7d3c 1e7d 36be 2437 6ebd
00000260: e657 40be 6d3a 5e3e 4321 acbc fb9e 2e3e
00000270: 2c06 ccbc 396f 9cbc 18d2 21be c019 973a
00000280: 0d9f 523d e8a6 623d 404a 86bd 7625 d43d
00000290: 1b13 a0bd b5ab 52bd 5562 483e d5cb b93d
000002a0: 8bc9 2fbe e409 acbe 7c9f e83d 0f67 17bd
000002b0: 9dac a43e 9b59 553e ab29 af3d 7c58 1f3e
000002c0: a1ce 5ebe 148d 053e 7125 4e3e e04c 11be
000002d0: 97b4 ce3d 8e79 62be 574d 8b3d 7509 693e
000002e0: f9de 92bd 61a5 313e f756 37be e446 4e3e
000002f0: dc5d 263e 7bb2 2d3d adc4 65bd fafd 613d
00000300: 6701 5b3e 8f62 49be 4fab 5a3e 0718 b83d
00000310: 2d61 dabb 96dc 89bd be54 fbbd 27c5 3a3e
00000320: 73f1 123e 9575 45bc 38d8 f43c 4448 603e
00000330: c708 edbd de66 babe ec39 273e edf0 2cbd
00000340: 0946 77bd da03 1f3c 9f21 63be 09c4 dfbd
00000350: 82d2 5ebe 875b 343e f08e 063e ecbf f0bd
00000360: caf2 993c 9f39 5a3c 29d6 f23c 7548 d5bd
00000370: e516 44be ea06 55be 7341 643e 2d76 883d
00000380: a503 713e 311a b63c 5c6d 17bd f39f 28bd
00000390: 1201 233d 7df5 16be faf1 61be 8340 103e
000003a0: b906 bfbd 7e88 503e 2ce2 563e 6839 0bbc
000003b0: eef9 9b3d a970 923d 5f01 44bd 8a78 1d3e
000003c0: 269d cebb 41db 193e 94d6 773b 6b3c 05bd
000003d0: 65a7 b2bd 06be a43c 0993 81bc d45e e23d
000003e0: ad59 01be f82d 3c3e a111 6d3e ff44 8e3d
000003f0: 7adb 523e 80d3 72be 8cc2 22be 7a95 d13d
0.082568586 -0.034670312 0.07892137 -0.14383268 -0.0086228475 -0.10028042 -0.046790376 0.023556555
0.10527805 0.08715318 -0.17607601 -0.1294327 0.07734378 0.13973166 -0.08338639 -0.13874598
-0.24811333 0.10987733 0.17742226 0.17032433 0.18471862 -0.17771803 0.118075535 -0.023422178
0.21523517 0.044565387 0.17195268 -0.007502595 -0.17199327 0.048293866 0.08448651 0.1786047
0.008454398 0.12782483 0.17141183 -0.03075303 -0.11204655 -0.1416938 0.13893342 0.20658657
0.18143834 0.11433463 0.007341455 -0.1712826 0.04469915 0.041745376 -0.0714451 -0.07870253
0.089224465 -0.06973184 -0.17854391 0.03010461 -0.18533096 -0.046348125 0.23011562 -0.20049924
0.16938154 -0.03171388 0.0018330276 0.039286368 0.03239054 -0.12618564 -0.052483384 -0.13491248
0.10314199 -0.1501772 -0.11497078 -0.004777758 -0.039113592 0.20655434 -0.026841873 0.024148617
0.06418726 0.25004882 -0.13144568 -0.023846582 0.012754536 0.17448936 0.115659386 0.07295872
-0.1858594 0.19263703 -0.017615592 -0.13263151 -0.13794822 -0.10853079 -0.20818356 0.028288417
0.033952326 -0.10009701 0.05084453 -0.01602084 0.05374853 0.059716582 -0.05122876 -0.20617794
-0.16822468 0.15403804 -0.024767818 0.19775346 0.2781669 -0.037765507 -0.09243928 0.012074088
-0.21894005 0.16001184 0.26375476 -0.13575602 0.13196301 -0.2192738 0.13514169 0.10232447
0.07619482 0.17525265 -0.16869701 0.09776677 0.09321104 0.24160981 0.011638722 -0.18107161
0.03358658 0.10657472 0.08120853 0.02131608 0.04556669 -0.23046856 -0.056247905 0.21233776
0.062448155 -0.10339396 0.11705226 -0.07726631 -0.16279331 -0.09084112 0.08306985 -0.0884731
0.0942781 -0.061695002 0.102013975 0.07114986 0.06266055 -0.061054192 0.031808317 -0.08750728
0.108049296 -0.092988454 0.13175386 0.17953594 0.1535767 0.015455857 -0.17821166 -0.058158055
-0.1878353 0.21701975 -0.021011954 0.17052834 -0.024905287 -0.019096004 -0.158028 0.001152806
0.051421214 0.055334955 -0.06557131 0.103587076 -0.07816144 -0.051433284 0.1956876 0.09072081
-0.17166726 -0.33601296 0.11358544 -0.03696352 0.32162943 0.20834963 0.085528694 0.15561098
-0.2175851 0.13042098 0.2013147 -0.14189482 0.100930385 -0.22116682 0.06801861 0.22757514
-0.07171435 0.17348243 -0.17904268 0.2014423 0.16246742 0.04240654 -0.056095768 0.05517385
0.21387254 -0.19666503 0.21354412 0.08988958 -0.0066644163 -0.067315266 -0.12272023 0.1823927
0.14349918 -0.0120519595 0.029888257 0.21902567 -0.1157394 -0.36406606 0.16330689 -0.042221952
-0.060369525 0.009705508 -0.22180794 -0.109260626 -0.2175999 0.1761304 0.13140464 -0.11755356
0.018792529 0.013319402 0.029643135 -0.10414211 -0.19149359 -0.20803419 0.22290592 0.06663165
0.23536547 0.022229286 -0.036969528 -0.041168164 0.039795943 -0.14742084 -0.22064963 0.1408711
-0.09327454 0.20364568 0.20984715 -0.008497573 0.0761603 0.071503945 -0.04785287 0.15378013
-0.0063053546 0.15025045 0.0037817108 -0.032528322 -0.08723334 0.020110141 -0.015817182 0.11053243
-0.12631865 0.1837691 0.23151256 0.06946754 0.20591536 -0.23713493 -0.15894526 0.102335885

nnECG.0.bias f4 [128]
00000000: c9ce 023c 0b94 753b e57e c2bb e071 bb3b
00000010: 7ae2 493c 2e90 723a a3f8 ddbb 0cd8 813c
00000020: 4d7c 6c3c 2cc2 263c 1bc0 de3b 64d1 293c
00000030: 0587 a83c 52c8 f83b 1f05 943c 07af 1dbc
00000040: 72a4 40bc b7fa 663c 02b6 a93c 06ed 2f3c
00000050: 93df 853b 78b2 d63a 0504 943c 1178 a6bb
00000060: af18 cfba d0f7 0f3b 3807 333c 6311 a9bb
00000070: 8ead fa3c 0a65 903a 2a02 0b3d aba4 9fba
00000080: c212 db3c 7e64 ac3b 17d7 9a3c 4472 b13c
00000090: 8010 bb3b d2ce 513c 3c85 d0ba 061a 16bc
000000a0: 88f1 d83b d26b b73b 3efd 40bc e523 f13c
000000b0: 60f7 e1bb f1fc 613c 2d8a 643c f91d 333c
000000c0: 8feb a73c 2d79 b73b 9b16 223a 91c0 13bc
000000d0: cb9b aebb 5a52 0a3b b1a3 ec3a 6fea 9d3c
000000e0: e0cf d0bb 78b3 2a3c c068 e73c c4ac cbbb
000000f0: a757 df3b 06ff bb3c 44ab a23c 1a34 c13c
00000100: 9c9d df3c 532c aa3b 692b 3e3c 00ee e23b
00000110: 67fa cf3c e83a 913b 8c82 2c3c 5cd8 4cbc
00000120: d1fe 13bc 5188 33bb e0c2 34bc 22e8 82ba
00000130: d07f 0f3d f2bf 533b 26ef 023c 6ab3 423b
00000140: dfe9 ccb9 6435 523c 9a26 a3bb 5b8f c73c
00000150: e0d9 5bba ee9d 433c 58c8 c13c 53fb 843c
00000160: 885b 2abc 4f71 033b 8bbf 9fbc 2070 023d
00000170: d437 b8bb 4642 343c be84 af3c d563 18bc
00000180: 985b ee3a 7e16 fd3b 632a 4cbb d587 793c
00000190: 1d60 db3b b32e 9c3c 7a65 aebb 02ff 27ba
000001a0: fca7 813c 4eb8 a73c 1d9f 033a aa73 c33a
000001b0: ad9b 823c 5677 d03c fff5 dbba 7ed2 943b
000001c0: 6879 e23a d6a4 9e3b 6ac1 563c 5d42 2dbc
000001d0: 2f7b b63b cce9 363c 19b3 e03a bb2a 803b
000001e0: 16bc b93c ff4c 983c 0bdc 3c3c d711 203c
000001f0: 6f99 4cbb b342 993c 9db9 143c 2212 b83c
0.007983872 0.0037472274 -0.005935537 0.005720362 0.012322063 0.0009253052 -0.0067740246 0.01585009
0.0144339325 0.01017813 0.006797803 0.010364864 0.020572195 0.0075922394 0.018068848 -0.009624249
-0.011757957 0.014097861 0.02071667 0.010737663 0.00408549 0.0016380092 0.018068323 -0.005080231
-0.0015800203 0.0021967776 0.010927014 -0.0051595434 0.030600335 0.001101644 0.03393761 -0.0012179812
0.026742343 0.005261003 0.018901391 0.021660931 0.005708754 0.012805657 -0.0015908848 -0.009161478
0.0066205896 0.00559757 -0.011779128 0.029436061 -0.0068959445 0.013793216 0.013948959 0.010932439
0.020498065 0.005599162 0.0006183178 -0.009018079 -0.0053286306 0.0021106214 0.0018054155 0.019276826
-0.006372437 0.010418765 0.02824819 -0.0062156636 0.006815869 0.022948753 0.019857056 0.023584414
0.027296834 0.005193272 0.0116070295 0.0069253445 0.025387956 0.004432071 0.010529172 -0.012502756
-0.009032921 -0.0027394483 -0.01103279 -0.0009987394 0.035034 0.0032310453 0.007991588 0.002970899
-0.0003908416 0.012830112 -0.004978967 0.02436035 -0.0008386653 0.011939509 0.023655102 0.016233122
-0.010397799 0.002005655 -0.019500514 0.031845212 -0.0056218896 0.011002129 0.021425601 -0.009301146
0.0018185256 0.0077236285 -0.0031153194 0.015230139 0.006694807 0.019065237 -0.0053221555 -0.00064085436
0.015827172 0.020473626 0.0005020963 0.001491179 0.015943373 0.025447529 -0.0016781687 0.004541694
0.0017278614 0.0048414273 0.013107637 -0.010574904 0.005568884 0.01116414 0.0017143219 0.003911344
0.022672694 0.018591402 0.011527072 0.009769878 -0.0031219383 0.018708562 0.009077457 0.022469584

nnECG.1.weight f4 [128]
00000000: 6b13 853f 834c 783f e2a2 893f c5a8 773f
00000010: 02f8 8f3f 80a2 843f 40fc 843f 27f1 823f
00000020: 7fc8 8b3f b315 823f bdba 6f3f af51 7a3f
00000030: c6e2 893f 970f 813f 2ab2 903f bce7 8a3f
00000040: b688 993f 6f0c 853f 61e1 893f e2cd 7b3f
00000050: e1bf 863f a4fd 8e3f 46a9 863f c707 823f
00000060: eaea 7b3f 2253 6b3f be5c 733f 49aa 773f
00000070: 6105 7f3f e468 8d3f f428 873f 79d4 843f
00000080: a942 8c3f 009a 713f 1c9a 813f 393c 873f
00000090: 8925 8b3f 2c89 7c3f 6192 883f 352c 803f
000000a0: 3c0d 743f fcd7 783f 19af 893f 830c 8e3f
000000b0: d313 813f b958 8c3f b552 743f f04f 833f
000000c0: 5473 893f f4ec 773f e48d 863f 3d07 833f
000000d0: 9af1 893f 1968 893f d896 803f c117 843f
000000e0: ac9a 853f 6545 803f ee40 873f ea53 803f
000000f0: e141 883f 24e5 783f 0002 813f a1a6 823f
00000100: 35c9 8a3f 00a8 883f 2f1c 803f 38d7 863f
00000110: 122c 813f 7244 6d3f 3074 893f f5e9 8a3f
00000120: d630 883f d33c 873f 3ee5 783f 0ce0 803f
00000130: 6a48 873f 0b89 7e3f e509 8c3f 2c55 8a3f
00000140: 8aff 863f cbb4 893f 7bad 773f 92ea 833f
00000150: 9aef 663f fef9 8b3f 1e73 833f ef0f 893f
00000160: e21e 793f cd2e 853f 2940 7f3f 5739 883f
00000170: 74a3 813f c4e5 813f 1fa4 8c3f 91ef 7c3f
00000180: 0ddd 943f 5281 723f 2dd1 843f 99a2 7b3f
00000190: 5275 843f e27f 833f 62bd 8a3f f990 793f
000001a0: d40d 873f 5e9c 893f df70 8a3f 98a1 873f
000001b0: d231 833f 7a3a 873f c0a3 7e3f fc79 843f
000001c0: 1703 803f 8a8c 7c3f 57d3 863f 20c8 7e3f
000001d0: 9756 7a3f f093 8a3f 4d8c 793f 4ff4 823f
000001e0: 00c9 883f e3c6 833f ad59 883f dcf1 893f
000001f0: 4d03 823f 2aac 823f e985 7e3f 75ae 863f
1.0396551 0.9699175 1.0752833 0.96741897 1.1247561 1.0362091 1.038948 1.0229844
1.0920562 1.0162872 0.93644315 0.9778089 1.0772331 1.0082883 1.1304371 1.085197
1.1994846 1.039442 1.0771905 0.9836103 1.0527307 1.1171155 1.0520408 1.0158623
0.98405325 0.91923726 0.9506339 0.9674421 0.9961758 1.1047635 1.0559373 1.0377342
1.0957843 0.9437561 1.0125155 1.0565253 1.087083 0.9864681 1.0669671 1.0013491
0.95332694 0.97204566 1.075656 1.1097568 1.0084175 1.0964576 0.954387 1.025877
1.073832 0.96845937 1.0512052 1.0236584 1.0776856 1.0734893 1.0046034 1.0319749
1.0437827 1.0021178 1.056669 1.0025609 1.0645105 0.9722464 1.0078735 1.0207101
1.0842654 1.067627 1.0008601 1.053443 1.0091574 0.92682564 1.0738583 1.0852648
1.0639904 1.0565437 0.97224796 1.0068374 1.0568974 0.9942786 1.094052 1.0807242
1.0546734 1.0758299 0.96749085 1.030596 0.9020935 1.0935667 1.0269506 1.0707988
0.9731275 1.0404907 0.99707276 1.0642499 1.0128007 1.0148244 1.0987586 0.9880305
1.1629959 0.9472858 1.0376335 0.9829498 1.0348303 1.0273402 1.0839045 0.97486836
1.0551095 1.0750844 1.0815696 1.059619 1.0249579 1.0564721 0.9946861 1.0349727
1.0000943 0.98651946 1.0533246 0.99524117 0.97788376 1.0826397 0.97479707 1.0230807
1.068634 1.029507 1.0652367 1.0776935 1.0157257 1.020879 0.9942308 1.052199

nnECG.1.bias f4 [128]
00000000: c9a9 f03a a55c 8bbb 2bcf aabc 5163 16bc
00000010: 1b88 323c 1a40 81bc a6cd 69bc b975 2d3c
00000020: 82c8 6f3c 956a c43b d584 7e3b b4fd e4b9
00000030: 67a0 ae3c 3116 16bc 7805 423c 94af 8cbc
00000040: 1524 b9bc 6e0a 35bc 2c76 af3b 2dae 793b
00000050: b66e 0ebc e235 75b9 e6ac 41bb bfb4 afbc
00000060: 9e10 39bc a272 ccbb 27f6 1f3b b243 30bc
00000070: 8475 713c fdd7 febb c1b7 133c 9a62 e0bc
00000080: af46 2c3c ef3e 79bc 6304 a03b f53c 633c
00000090: 64f6 8fba c536 c13b e261 08bb e7a8 c0bc
000000a0: 54cc b93a 4774 873a b5bd d9bc f783 9d3c
000000b0: 99f4 4abc a59f 80bb c772 b23c 7b5f 5e3c
000000c0: 0940 8f3c 604f 2e3b 935b 3bbc 681f cebc
000000d0: 9160 73bc 27c8 45bc cf26 82bb d1b1 de3b
000000e0: be8c 13bc 3ab3 0bbc d9f1 493a 92e4 82bc
000000f0: 7656 44bc 5de0 32ba e51b 3a3c 6fe2 5fbb
00000100: 6428 cf3c 899e 95bb d718 ccbb dc2e 3c3b
00000110: ea14 bebb 413e 4bbc 2708 223c 79a9 24bc
00000120: 794d bfbc 164c 27bc 8718 05bc eeae 98bb
00000130: 2e05 ea3c ee47 d3bc 8998 59bc 2944 6b3c
00000140: 7402 61bb 51df 1c3c a87e adbc f27f 883c
00000150: 6f37 aebc eb4f cabb 3dac 763c c2a1 5f3c
00000160: 8a10 9ebc fb2a 4ebc 00b0 0fbd f1ca 803c
00000170: ee45 4cbc 1f73 42bc 8adf d93b 6773 78bc
00000180: 842c a8bc ee08 36bc d1f3 82bc 6f49 2ebc
00000190: 6b09 79bc 0028 7c3c 4d3b 143a 0ece 6138
000001a0: dd69 c53b 75e0 4d3c a0b8 62bc b85a 1cbc
000001b0: 45da b0bb 6989 de3c 38f8 50bc 46cc 6e3b
000001c0: 4ed7 55bc 3ed7 32bc 163b 353c 7484 96bc
000001d0: 926f aabb a730 803c 07da 48bb eb90 04bb
000001e0: 80f7 4a3c 777d 023c 8d61 8abb af6d 173c
000001f0: e633 b4bc 34cc 3e3b 21d5 f3bb d7ef a63b
0.0018361147 -0.0042529874 -0.020850739 -0.009178952 0.010896708 -0.015777636 -0.014270222 0.010587149
0.014635207 0.005994151 0.0038836498 -0.00043676572 0.02131672 -0.009160564 0.011842124 -0.017173566
-0.022600213 -0.01104985 0.0053546634 0.0038098202 -0.008693388 -0.00023385094 -0.0029552518 -0.021448491
-0.011295466 -0.0062392512 0.0024408193 -0.010758327 0.014737491 -0.0077772127 0.009015978 -0.027390767
0.010514899 -0.015212758 0.0048833354 0.013869514 -0.0010983464 0.0058964216 -0.0020810296 -0.023518039
0.0014175274 0.0010334336 -0.026579717 0.019227965 -0.012387418 -0.003925281 0.021783246 0.013572569
0.017486589 0.0026597604 -0.011435407 -0.02516146 -0.014854566 -0.012071646 -0.0039719115 0.0067960997
-0.0090057235 -0.008526618 0.00077035796 -0.015978131 -0.0119835045 -0.0006823594 0.01135919 -0.0034162065
0.025287814 -0.004566018 -0.006228547 0.0028714454 -0.005800833 -0.012404979 0.009889639 -0.010050171
-0.023352372 -0.010211011 -0.008123524 -0.004659525 0.028566923 -0.025791135 -0.013280996 0.014359512
-0.0034333738 0.009574727 -0.021178558 0.016662572 -0.021266667 -0.0061740777 0.015055713 0.013649406
-0.019294996 -0.0125834895 -0.035079956 0.01572177 -0.012467844 -0.011868267 0.0066489624 -0.015164233
-0.02052904 -0.011110527 -0.015985401 -0.010637625 -0.015199999 0.015390396 0.00056545885 5.3836084e-05
0.006024583 0.012565722 -0.013837963 -0.009543113 -0.0053971135 0.027165132 -0.012754492 0.0036437674
-0.013051821 -0.010915576 0.0110614505 -0.018373705 -0.0052012885 0.0156482 -0.0030647533 -0.002022798
0.01238811 0.007964483 -0.0042230547 0.009242459 -0.021997403 0.0029113414 -0.0074411784 0.005094509

nnECG.1.running_mean f4 [128]
00000000: e4e0 963c e5f3 0a3f 22b0 433f 137b b1bc
00000010: 5b9d 803e 048b a4bd b663 a63e aa87 0bbe
00000020: 9fe2 0ebe fccd d83e 1b3e 6b3d 14ba 83bb
00000030: fa93 f8bd e3da 0f3d 0cfb 563e 8a77 963e
00000040: 46a8 ba3e e4b3 9dbe 2c8f b83e b665 bd3e
00000050: 99f7 b63e 1941 703e 67af 8c3e a950 703e
00000060: d775 6c3d 479c f53c 4854 31be 8d38 0b3e
00000070: 4c70 23be d05c c43e 6e7f f5be 7296 e53d
00000080: 0b2f 863d af45 96bc c2d1 3b3e 06e8 0bbe
00000090: ddc8 093e 0c2c 2bbf 20d1 a13d 2f1d de3e
000000a0: 585d 51be 4517 35bf d927 553e ee0a 82bc
000000b0: 3392 b6bd 3381 b03d 3de2 ccbe c993 a8be
000000c0: 00e4 85be fc03 80be 3a26 86be bf91 3d3d
000000d0: 3d14 a63d e13c 1fbe 3d33 523d 32d5 113e
000000e0: 7d14 41be 790f 90be 39d2 2abe 4874 b1be
000000f0: f7a5 3e3e 7f9c 683c 7488 be3e f6c2 97be
00000100: f47f 46be 15d7 033f 1482 6bbd 8150 a9be
00000110: 1d25 b4be 2778 d83d d1d4 9e3d 55d9 853e
00000120: 2f56 0f3f f871 6c3e 2561 ed3e 10ce 43be
00000130: 12d2 f1be 38f8 9bbc 6eed ddbc 03a3 7b3e
00000140: 7fe3 173d 8270 5b3e e706 e93c 3997 fc3c
00000150: effd cebc ddbd eabd 41e9 a8be 2675 a23e
00000160: 6649 093f b37f fb3b be94 1c3f 05a1 413e
00000170: 7840 1a3e 619c 8bbe 5ab8 a53e 22db 663e
00000180: 0713 963e 8476 38be 4d66 eebd 885c d4be
00000190: d53d 5d3e 38a8 0b3a 4ccb 063c c5f3 95bd
000001a0: f139 cd3d 72f4 b93e 89c1 b6be c02b 843e
000001b0: eb5e 8ebe ca23 ed3d 5c30 7dbe 9fb6 97bd
000001c0: 0dd5 afbe 7f16 f1bd 9b68 b73d 4bd9 d03e
000001d0: 4dfc 45be b044 b9bd 72c6 2d3e a85a 37be
000001e0: a262 47bd 6c55 763d eb0a 09be b20d 9ebc
000001f0: 3bd4 933d 8f52 413e c7b0 94be db8e 0b3e
0.018417783 0.54278404 0.7644063 -0.021665132 0.25120053 -0.080343276 0.32497948 -0.1362597
-0.13953637 0.42344654 0.057432275 -0.004019985 -0.12137599 0.035120856 0.20994204 0.29388076
0.36456507 -0.30801308 0.3604673 0.36991662 0.35735777 0.23462333 0.2747757 0.2346827
0.05772957 0.029981745 -0.17317307 0.13595791 -0.15960807 0.3835206 -0.47948784 0.11210336
0.065519415 -0.018343775 0.18341735 -0.13662729 0.1345553 -0.66864085 0.079012156 0.4338164
-0.20445764 -0.7073863 0.20815982 -0.015874352 -0.08914604 0.08618393 -0.40016356 -0.3292525
-0.26150513 -0.2500304 -0.2620104 0.046281572 0.08109329 -0.15550567 0.051318396 0.14241484
-0.18855472 -0.28136805 -0.16681756 -0.34659028 0.18617998 0.014197468 0.3721348 -0.2964093
-0.19384748 0.51500064 -0.0574971 -0.33069232 -0.35184565 0.10569792 0.07755435 0.26142374
0.5599088 0.2309035 0.46363178 -0.19121575 -0.47230583 -0.019039258 -0.027090754 0.24573903
0.03708219 0.21429637 0.028445674 0.030833827 -0.02526757 -0.11461995 -0.3299046 0.31730002
0.5362762 0.007675135 0.6116446 0.1890908 0.15063655 -0.27267745 0.32367212 0.2254453
0.29311392 -0.1801396 -0.11640606 -0.41476846 0.21605618 0.0005327496 0.008227181 -0.07321886
0.10020817 0.3631931 -0.3569453 0.2581463 -0.27806792 0.11579092 -0.24725479 -0.07407879
-0.34342232 -0.11771869 0.08955499 0.4079078 -0.19334526 -0.09046304 0.16970232 -0.17905676
-0.048678048 0.06014006 -0.13383071 -0.01929364 0.07218214 0.1887915 -0.2904112 0.13628714

nnECG.1.running_var f4 [128]
00000000: 5544 933d 5857 9f3d c738 9f3d 5cdd 963d
00000010: 1b41 993d 871f 983d 0c7a 983d e5af 973d
00000020: f044 993d 708a 9a3d ce19 973d 0617 953d
00000030: 0188 973d 0b70 933d 9f36 9a3d db48 9a3d
00000040: 77c1 973d 689f a13d 405e 943d 3cf7 943d
00000050: af38 983d 4a2e 973d 5a7c 963d 4177 953d
00000060: c50d a03d 75ca 963d 90e5 933d cb06 953d
00000070: 744f 963d c025 9c3d 8501 983d 29b4 953d
00000080: 073a 953d 4824 953d 8b91 983d 3374 953d
00000090: e7f4 973d 78a9 9a3d 63e0 983d 7ab2 953d
000000a0: c259 953d 037f 9a3d 5428 9b3d ec4b 9d3d
000000b0: e625 a13d f924 983d 9d03 943d dae6 a23d
000000c0: e76d 973d c2a0 963d 0d08 983d 9c76 953d
000000d0: eb9f 9b3d 615b 983d 88b8 973d 0f62 933d
000000e0: 2c9c 993d d7a7 993d e341 973d 08fb 933d
000000f0: abe1 943d ca2a 943d 20fe 933d 9be5 953d
00000100: 3308 963d fa48 963d f633 943d fc6e 943d
00000110: 63cf 9c3d 8755 953d a82e 953d dffe a03d
00000120: 3cdd 983d 3343 9f3d 5e85 9e3d 6cf6 9b3d
00000130: 6573 983d 63f1 963d 8547 9b3d 8b95 973d
00000140: 0161 9c3d 97ce 9c3d 1d36 993d 03c0 963d
00000150: aa98 983d 2b0e 953d a4f0 a33d 2e8b 9a3d
00000160: 8c18 973d 7932 953d 0655 9b3d d5f1 953d
00000170: 62eb 963d 7871 9d3d 123d 993d 0b5e 973d
00000180: a4d1 973d 7a2d 953d c8c6 9d3d 38f4 943d
00000190: 5317 953d 68d6 953d f424 963d 3704 963d
000001a0: 46ee 963d 8a41 953d 2b47 a13d b16d 993d
000001b0: 47cd 963d b308 943d 6508 963d d3c3 9d3d
000001c0: 86ee 943d c467 943d c056 973d 2835 963d
000001d0: 60e9 983d a962 973d c402 943d 4740 963d
000001e0: 0e99 973d 3fb8 983d 5308 943d c807 963d
000001f0: c8fb 963d d08f 973d 8ab7 983d a785 953d
0.07190768 0.077803314 0.07774501 0.0736644 0.07483121 0.07427888 0.074451536 0.07406596
0.07483852 0.07545936 0.07377969 0.07279782 0.073989876 0.07199105 0.075299494 0.07533427
0.07409947 0.078917325 0.07244539 0.07273719 0.074326865 0.07381876 0.07347937 0.072981365
0.07815126 0.07362834 0.0722152 0.07276686 0.07339373 0.07624388 0.07422165 0.073097534
0.072864585 0.07282311 0.07449635 0.07297554 0.07419758 0.07551855 0.07464673 0.07309432
0.072925106 0.07543757 0.07576051 0.076804966 0.07868557 0.07428927 0.07227252 0.07954188
0.07394009 0.07354881 0.074234106 0.072980136 0.07598861 0.07439304 0.074082434 0.071964376
0.075004905 0.07502716 0.07385614 0.07225615 0.07269605 0.07234724 0.07226205 0.073191844
0.073257826 0.07338138 0.07236473 0.07247731 0.076567434 0.07291704 0.072842896 0.07861113
0.07464072 0.07776489 0.077402815 0.076153606 0.07443885 0.073702596 0.07582001 0.0740157
0.076356895 0.076565914 0.074810244 0.07360842 0.07450993 0.07278093 0.08004883 0.07546078
0.07377729 0.072850175 0.07584576 0.073215164 0.073691145 0.07687658 0.07482351 0.07390984
0.07413033 0.072840646 0.0770393 0.072731435 0.07279839 0.07316285 0.07331267 0.07325023
0.07369666 0.07287891 0.07874902 0.07491625 0.07363372 0.07228222 0.0732582 0.07703366
0.07272057 0.07246354 0.07389593 0.073343575 0.07466388 0.07391865 0.0722709 0.07336479
0.0740224 0.07457017 0.0722815 0.07325703 0.07372242 0.07400477 0.07456882 0.07300883

nnECG.4.weight f4 [64, 128]
00000000: e858 1e3e 31f8 013e b94a 053e e132 23be
00000010: 9e02 25be c7fe 033e c865 c7bd 5b75 ddbc
00000020: 3931 ea3d f034 063e eeec 83bb 3a55 0bbe
00000030: 0c16 c2bd 6337 bcbd bca7 4d3d 6285 b23c
00000040: ce43 c1bd 400a 8e3a 319e 9bbc e7ec 41bd
00000050: 84c3 553e f9d6 46be 1688 c93d 58b4 b83d
00000060: 1cee d83d daa9 2dbe c5d3 01bd 867e 1cbe
00000070: c4cb 71bd d1da d13d 0bff 15be 59fb 2b3e
00000080: 971f 2f3e 9eb8 edbd 6d6b f9bb 8a04 c33d
00000090: e485 363e 74e3 b8bd 3c84 a6bc b787 e63d
000000a0: ff11 57bd 74af 283d 9cd8 eabc 3a31 61be
000000b0: 6c1b 203d 5701 8abc be0c b93b 1f16 bdba
000000c0: aee0 653e c053 ffbd d645 92bb eb00 0fbe
000000d0: b4f8 bb3d 6306 c6bd 0c93 143d 51cd b1bd
000000e0: fe86 f33b be4b e9bb 129c 1bbd deb6 85bb
000000f0: 4635 dcbc 871d d0bc 066e b13d 824e fd3d
00000100: ce17 c63c 75c3 32bd 56a9 423e e9ea 0f3e
00000110: 977e a9bd b35e f23d 5f0f 533e 3be1 f93c
00000120: d427 913d aba3 21be c49d 9cbd a636 fa3d
00000130: d387 8c3d 2199 f63d f235 123e 7c5c ccbd
00000140: 07b4 d73c 0fa5 bc3c 3897 f9bd ed54 2fbd
00000150: af98 bc3c 9570 f23d 8795 e5bd 5bb6 ca3b
00000160: 83af 6eba 7079 a13d 4165 15be e4c1 c73d
00000170: 6149 c03c f5ba 2a3e 7040 fa3d b0fa 373d
00000180: eb17 16be eb3d bfbd 1cb3 31be f3b4 543c
00000190: 66fd b23c 3773 c7bd ac16 da3d a384 e2bd
000001a0: 58f2 21bd 7801 4bbe b115 f6bc 3d4f 6bbd
000001b0: 9306 093d 6423 61bd 7f80 103e fd87 fabd
000001c0: 78b2 053e bbdf b6bd dc6c a83d 1d86 e13d
000001d0: b0cc 133d afb7 413c 05d5 093e 8585 983d
000001e0: b66c 28bd 1493 533d ddd1 c13d 9e75 103d
000001f0: f1d8 8bbd 6425 c73d 94a3 12bc b339 293d
00000200: b09a 6a3d 5c08 253d cb9b d43d 66f0 82bd
00000210: 4a49 843d 7cd3 833e 3fc4 103e 42d8 103e
00000220: bd21 073e a9f5 36bc 56bf 203e 5fe8 57be
00000230: ff1c 45bd e0a9 1a3d 1e8e afbd 1106 1abe
00000240: 235b b53d 36f0 543e 9c3f 36be 17aa 9bbd
00000250: 0ffe 233e b6d4 c93b f9bd f5bc 5342 7e3d
00000260: eaba f53d 1e5f 15bd 5fe4 18be c1cc 103e
00000270: 3f9b 783a 9898 44bc 2194 cc3d 8235 553d
00000280: 3a7d 583e f273 9e3c f936 1cbe f868 05bd
00000290: cae6 fa3d 0bc4 ccb9 bb1c 06be cb7a 96bd
000002a0: e6ef 023e ec29 23bd cf73 a63d 0279 69be
000002b0: 28fa 6d3d ea11 803e d882 043e 090e 3e3e
000002c0: 5d61 bcbd 63a0 eabd 6efc 093d fe1c f4bd
000002d0: d698 013e 2281 db3d 6500 08be 0506 99bd
000002e0: 5070 5c3e 932e 1fbc a0f9 423d e343 b7bd
000002f0: 13a5 6a3e afae 993d 666f 193d 9b24 87bc
00000300: fd7f ff3a 7afe cf3d 2e81 263b b4cd 2cbe
00000310: 920d 7d3d ca02 15bd 56eb 0d3e 2fac 26be
00000320: cdee 0dbd fb6d 1ebc e39e 23be 22e0 b43c
00000330: e528 2dbe fa87 33be 329c 703d c359 e13d
00000340: 302b fd3d 73d6 5e3e 0d68 e53b cf63 e9bd
00000350: 1ec6 f93d 4e44 d33d a29b c6bb b42a 41be
00000360: 4ef6 0dbc f99a e4bd 8779 403d 0bd7 9b3d
00000370: 921a 493d 2c88 0dbe 1045 b53d 8f26 22bc
00000380: 5dc4 4f3e c1a8 02be 441b d83d b262 1d3b
00000390: 5c8a 6dbd c3f6 103e 2028 503e 8456 353c
000003a0: bbf5 93bc 00ca 4b3d 9457 81bd c8ad fd3d
000003b0: ebf2 71bd a819 23be 7710 eabd e7aa 8d3d
000003c0: 8a1c 133e 6724 a8bd a4c9 133c 809f 30bd
000003d0: 8466 343e 713a 7fbd 7b6f f8bd db4e 003c
000003e0: 1adb 9abc 2a8f 0d3d 8c96 303d 9354 92bd
000003f0: c6f5 9f3d aab2 8dbc 51d5 743c e693 f53c
0.15463603 0.12692334 0.13016786 -0.15937378 -0.1611428 0.12890159 -0.0973621 -0.027033499
0.1143517 0.13106132 -0.004026047 -0.1360673 -0.09476861 -0.09190252 0.050208792 0.021792118
-0.09436761 0.0010836795 -0.01899633 -0.04734507 0.20875365 -0.19417943 0.098404095 0.09018773
0.10592291 -0.16959324 -0.0316961 -0.1528264 -0.059032217 0.10246814 -0.14648072 0.167951
0.17101894 -0.116074786 -0.007611683 0.0952235 0.17824513 -0.09027758 -0.020326726 0.11256354
-0.052507397 0.04118295 -0.02866774 -0.21991435 0.03908865 -0.016846342 0.005647271 -0.0014426148
0.2244899 -0.12467146 -0.0044638915 -0.13965194 0.09178296 -0.09669187 0.036273047 -0.08681739
0.007431864 -0.007119625 -0.037990637 -0.0040806374 -0.026880872 -0.025404705 0.086635634 0.1236849
0.024181273 -0.043643434 0.19009909 0.14054455 -0.08276098 0.11834469 0.20611332 0.030502906
0.07087675 -0.1578509 -0.07647279 0.122174546 0.06861844 0.12040926 0.14278391 -0.099785775
0.02633096 0.023027925 -0.12187046 -0.0428056 0.023022024 0.118378796 -0.11210161 0.0061862892
-0.0009105133 0.078844905 -0.14589407 0.097537786 0.02347249 0.16672881 0.12219322 0.04491681
-0.14657561 -0.09337982 -0.17353481 0.012982595 0.021849345 -0.09738772 0.106488556 -0.11060455
-0.039537758 -0.19824779 -0.03003964 -0.057448614 0.033453535 -0.05496539 0.14111517 -0.12232969
0.13056362 -0.08929392 0.08223888 0.11011908 0.036083877 0.011823579 0.13460167 0.07447342
-0.0411193 0.051653937 0.09463856 0.03526842 -0.06828488 0.097239286 -0.008950133 0.041314792
0.057276428 0.040291175 0.10381278 -0.063935086 0.06459291 0.25747287 0.14137362 0.14144996
0.13196464 -0.011166968 0.15697989 -0.21084736 -0.048123356 0.03775966 -0.085720286 -0.15041377
0.088552736 0.20794758 -0.17797703 -0.076008014 0.16014884 0.0061593903 -0.029997813 0.06207497
0.11998542 -0.036467664 -0.14930867 0.14140607 0.00094835827 -0.011999272 0.09989191 0.052052982
0.2114152 0.019342396 -0.15255345 -0.03257081 0.12251051 -0.00039055976 -0.13096897 -0.0734764
0.12786826 -0.0398349 0.081275575 -0.22800067 0.058099896 0.25013667 0.12940538 0.18560041
-0.09198258 -0.114563726 0.033688 -0.11919592 0.12655959 0.107179895 -0.132814 -0.07471851
0.21527219 -0.009715694 0.047601342 -0.08948495 0.22914533 0.075040214 0.037459753 -0.016496947
0.00194931 0.101559594 0.0025406587 -0.16875345 0.06178052 -0.036379613 0.13859305 -0.1627662
-0.034651566 -0.009669776 -0.15978579 0.022079531 -0.16910131 -0.1753234 0.05874271 0.11003449
0.12361753 0.21761493 0.007000929 -0.1139599 0.12195991 0.103157625 -0.0060610333 -0.18863946
-0.008664681 -0.11162371 0.046990898 0.076093756 0.049097605 -0.13821477 0.08851063 -0.009896888
0.2028975 -0.12759687 0.105520755 0.0024015126 -0.057993278 0.14156632 0.20327806 0.01106799
-0.01806151 0.04975319 -0.06315532 0.12386662 -0.059069555 -0.15927756 -0.11428922 0.06917363
0.14366356 -0.08210068 0.009020243 -0.04312086 0.17617232 -0.062311593 -0.12130638 0.007831301
-0.018903304 0.03456036 0.043112323 -0.071450375 0.078105494 -0.017297108 0.014943437 0.02997775

nnECG.4.bias f4 [64]
00000000: 5313 533c ed40 833c d461 0cbb 8a19 0e3d
00000010: 6f16 82bb dd4c 413c 6cb7 50bb 6ca4 013d
00000020: 50ad 3a3c 6bde 66bc 03e4 13bc 8ee7 c1bb
00000030: 08bf b5bc cc18 123d 1cdd 113c bbd4 39bd
00000040: 9eb1 f6bc 3a94 3ebd c1f9 8cbc a663 4fbc
00000050: 75a7 2d3d 48cc bdbb 24ed 713d 019f 813c
00000060: ee81 aebc 6523 07bd 1108 2b3d c5aa 213d
00000070: 152b 653c d82a ce3c 1d63 95bc afd7 cabb
00000080: 6b8a 90bc 9f9f 7a3c e06f bb3c 9e29 253d
00000090: 6fd8 cb3c 5c14 e83b 6251 a13c d618 4bbc
000000a0: e227 eabb f0a9 133d bb36 30bd 8254 04bc
000000b0: 62c8 3d3c 3618 0a3c da80 fd3c 362c 4ebc
000000c0: 15c7 68bc 5b40 233d 9855 2b3c 720b 783c
000000d0: bdbf 22ba 48ff 873d 144f 283b 6dbd 09bc
000000e0: 65ae 4dbc e15e e7ba 6974 e23c 2012 3abc
000000f0: ac0f dfbc cab9 43bc 1b60 d03b 2d13 cbbb
0.012883025 0.01602217 -0.0021420615 0.034692325 -0.0039699594 0.011798111 -0.003184761 0.031650946
0.01139386 -0.0140911145 -0.00902653 -0.005917496 -0.022185817 0.03566818 0.008902814 -0.04536889
-0.030113991 -0.04652808 -0.017208936 -0.012658035 0.042396028 -0.0057921745 0.059064046 0.01582289
-0.02130219 -0.03299274 0.04175574 0.0394695 0.013987322 0.025166914 -0.018235737 -0.0061902623
-0.017644128 0.015296846 0.022880495 0.040322892 0.024883477 0.007082505 0.019692127 -0.012396058
-0.0071458677 0.036050737 -0.043020945 -0.008076789 0.0115834195 0.008428624 0.03094523 -0.012583783
-0.014207621 0.039856296 0.010457419 0.0151394475 -0.0006208381 0.06640488 0.00256819 -0.008406979
-0.012553786 -0.0017652177 0.0276434 -0.01135686 -0.027229153 -0.011946151 0.006359113 -0.0061973543

nnECG.5.weight f4 [64]
00000000: 5f24 853f 4775 8a3f a123 863f 572e 913f
00000010: e21d 883f 092c 8b3f 2b4c 8b3f de42 863f
00000020: 52d4 8b3f 0cdd 883f 5da9 813f 5b77 7e3f
00000030: 7e9a 893f b593 873f 082a 893f 073b 803f
00000040: ddd7 823f b868 763f e9ce 863f 0dd3 823f
00000050: cc80 883f a89a 843f 7c6a 933f 2cb6 883f
00000060: fd8f 833f c470 8a3f 15d6 793f a314 8d3f
00000070: 693d 833f 3872 7a3f 9a61 7b3f bb04 893f
00000080: d1af 883f 7b4b 973f c270 8a3f f72d 843f
00000090: 1782 8f3f 0c67 813f 894c 943f 5322 823f
000000a0: 12b0 873f 4641 8d3f c6cd 803f 571a 843f
000000b0: c119 803f 9d84 983f 812d 703f 051e 833f
000000c0: 65a7 853f ad19 843f cd7f 893f e934 863f
000000d0: cecf 8d3f 324e 7d3f ea2f 873f 013a 923f
000000e0: 0673 7b3f 330d 803f 24c9 833f 7e36 823f
000000f0: 3e20 843f b8fd 8e3f 544f 8c3f a7fd 8c3f
1.0401725 1.081704 1.0479623 1.1342267 1.063412 1.0872813 1.088262 1.0489156
1.092417 1.0692458 1.012981 0.9940087 1.0750272 1.0591952 1.0715952 1.0018014
1.0222126 0.9625354 1.0531894 1.0220658 1.0664306 1.0359697 1.1516871 1.0680594
1.0278317 1.0815663 0.9759229 1.1021923 1.0253116 0.97830534 0.98195803 1.0704569
1.0678655 1.181991 1.0815661 1.0326527 1.1211575 1.0109572 1.1585857 1.0166725
1.0600607 1.1035545 1.0062797 1.0320538 1.000786 1.191547 0.93819433 1.0243536
1.044171 1.0320336 1.0742127 1.0484897 1.1079042 0.9894744 1.0561497 1.1423951
0.98222387 1.0004028 1.0295758 1.017288 1.032234 1.1171179 1.0961709 1.1014909

nnECG.5.bias f4 [64]
00000000: a10c 013c 65ca 8b3c 88ac 5ebc ece4 4f3c
00000010: 321f 83bc b157 1fb8 e0a1 57bc 2e22 403c
00000020: 2f13 853b ffa0 86bc e638 adbc 4322 0ebd
00000030: 2cc4 b8bc a126 9c3c b9cb 82bb 4404 88bd
00000040: c51a 26bd ab89 61bd 2cb3 fdbc 93cf bfbc
00000050: 91d9 103d f1f4 91bc c369 153d e23e 143b
00000060: 27b4 1bbd f442 2bbd 265d 023d 12de 9f3c
00000070: 9813 593c 941b 203b 25e2 17bd c5d2 bfba
00000080: c2a6 01bd 79fa edbb c482 9c3b 342f b83c
00000090: d9d7 863c f0e9 72bc 0b5b 793c c48c d7bc
000000a0: 3b88 e6bb 463e e13c b948 8ebd 0d45 d4bc
000000b0: 1fb1 813a bc64 0fbc 68c5 f63c dbff a5bc
000000c0: 56fa 8cbc 8458 133d fbaf 48bb 93a5 57bc
000000d0: 4cbd 093a b1e8 623d 81d5 5fbc c356 b2bc
000000e0: 6f17 17bd 21f2 73bc c341 7f3c 65b3 cebc
000000f0: ff9a fbbc 3c23 d2bc afa7 6f3c c4a9 bfbb
0.007876546 0.017064283 -0.013590939 0.012688857 -0.016006086 -3.7990223e-05 -0.013161153 0.011726899
0.0040611248 -0.01643419 -0.021145295 -0.034700643 -0.02255448 0.019061388 -0.003991571 -0.066414386
-0.040552873 -0.05506293 -0.030969225 -0.023414409 0.035363737 -0.017816992 0.036477815 0.002262049
-0.038013604 -0.0418119 0.031827115 0.019515071 0.0132493 0.00244305 -0.037080903 -0.0014634958
-0.031653173 -0.0072625247 0.0047763307 0.022483446 0.016460346 -0.014826283 0.01521946 -0.02631224
-0.007035283 0.027495515 -0.069474645 -0.025911832 0.0009894705 -0.008752044 0.030123428 -0.020263603
-0.017209213 0.035973087 -0.003062247 -0.013162035 0.00052543427 0.055397693 -0.013661743 -0.021769887
-0.036887582 -0.014889271 0.015579644 -0.025232026 -0.030713556 -0.025651567 0.014627381 -0.005849095

nnECG.5.running_mean f4 [64]
00000000: 9dbb cf3e ef86 a5bd be9b 20be 90a7 9e3e
00000010: bcea 83be 9696 bf3e 1077 833e 5c11 93be
00000020: 6d60 06bd 0d98 6abe 8701 ddbd 25da d3bd
00000030: e2f9 4c3c 8db4 cb3e 2903 293e 9144 96bc
00000040: b57c 113e acc6 b4be 3686 e5be ea8a f2be
00000050: 4e0c 073f 5d78 c3bd 71a6 d1bb 4161 9d3e
00000060: a632 853d 24f8 593d 9972 dd3e 0614 c1bd
00000070: e4f2 3ebf 99c7 fe3e 53ee d9be 959e 7bbe
00000080: ac95 4f3e a433 7f3f 1572 12bf 7074 ac3d
00000090: 07e2 f93c d351 0fbf 2a9c a83e 6894 613f
000000a0: f205 f53d a466 85bd 5acc cfbe 55a8 d03e
000000b0: a305 bcbb 6dee 7a3e 0515 b33e 2834 103f
000000c0: 93ad 843e de5a 9fbe 3c3f b3bd 40ca 4c3e
000000d0: aea5 dd3d f906 293f c270 c53d a718 66bd
000000e0: 600f bcbe 5c54 19be ef2f 2d3e c6d0 d6be
000000f0: 0f34 70be 6f6e df3d 1c5b e3bd 4c41 543d
0.40572825 -0.08082377 -0.15684411 0.30987215 -0.25765026 0.37419575 0.25676775 -0.28724182
-0.032806803 -0.22909565 -0.10791307 -0.10344342 0.012510749 0.39786187 0.16505112 -0.018343242
0.14207728 -0.35307825 -0.44828957 -0.47371608 0.5275315 -0.09544442 -0.006398015 0.3073826
0.06503801 0.05321516 0.43251494 -0.09427647 -0.7458937 0.49761656 -0.4256464 -0.24572213
0.20271939 0.9968817 -0.57205325 0.08420646 0.030503286 -0.5598423 0.32931644 0.88117075
0.119640246 -0.06513718 -0.40585595 0.40753427 -0.0057379766 0.24505015 0.34976974 0.56329584
0.25913677 -0.31124014 -0.087522954 0.19999027 0.108226165 0.66026264 0.096406475 -0.056175854
-0.3673048 -0.14973587 0.16912816 -0.41956156 -0.23457359 0.109097354 -0.11101362 0.051820084

nnECG.5.running_var f4 [64]
00000000: 3ded 8e3f 8ff6 4b3f da50 ea3f c87f 863f
00000010: 65a5 bb3f 795d 873f e4d6 9f3f 08fa 3a3f
00000020: 10a3 943f ac60 ae3f 1b71 b33f b444 d73f
00000030: e576 703f 9acf 993f 3057 d23f 97ba ae3f
00000040: 928e 773f 7016 b93f 2cc2 ab3f f3df c43f
00000050: f5eb 4d3f 5eff 963f 4169 973f d44a 923f
00000060: e34d 873f 0e1f 803f 8429 823f 4907 b63f
00000070: 9034 943f 327c 4e3f f1fc a83f 1645 773f
00000080: 81a1 4a3f bd4d c03f 0e25 933f ebbb 8c3f
00000090: 3959 b73f 8bc9 893f 0a19 a73f 90c3 fc3f
000000a0: 0f3f 823f 4294 923f 9c6f 943f 3cca 813f
000000b0: 894f 553f 76b6 8e3f 6f9b 8d3f 9a34 613f
000000c0: 15f5 863f b3f9 8b3f 1a5c 893f 6ac7 853f
000000d0: 4f1c 9a3f 4cd0 be3f 632d 6a3f 5721 d63f
000000e0: 7f8b b13f c03b bb3f dfb6 803f ca66 6c3f
000000f0: be34 a43f ea90 a63f 4137 d03f 8446 d83f
1.1166149 0.79673094 1.8305924 1.0507746 1.465985 1.05754 1.2487454 0.7303777
1.1612263 1.3623252 1.4018892 1.6817842 0.9393142 1.201648 1.6432858 1.3650693
0.9670192 1.4459972 1.3418632 1.5380844 0.80438167 1.1796682 1.1828996 1.1429086
1.0570644 1.0009477 1.016892 1.4220973 1.1578541 0.80658257 1.3202192 0.9658979
0.79152685 1.5023724 1.1495683 1.0994848 1.4324104 1.0764631 1.3054516 1.9747181
1.0175494 1.1451495 1.159656 1.0139842 0.83324486 1.1149433 1.106306 0.8797089
1.0543543 1.0935577 1.0731232 1.0451481 1.2039889 1.4907317 0.91475505 1.6728925
1.3870696 1.4627609 1.0055808 0.92344344 1.2828596 1.3012974 1.6266862 1.689652

nnECG.8.weight f4 [16, 64]
00000000: 6675 f7bd 21cc 823e acc2 4dbe d208 823e
00000010: 9465 8a3e e252 d13d 1d48 7dbd 9dd8 1abe
00000020: f779 ccbd 355d 63bd 3827 9b3e 50fd c8bc
00000030: 5338 4b3d 635b 893e 8f6e 80be a095 07be
00000040: 6edb 46be 91ae f8bb 405c b83e 030b 8ebe
00000050: a9f3 2e3d 34fb e4bd 856a a13e 0217 703e
00000060: e482 34be 6b34 2b3e 9b04 a33b 1755 debd
00000070: 63eb f5bd 3805 053e eb17 ac3e ab3b 0f3e
00000080: 85d5 0f3d 607e 4a3d 125a a83c bafd d33d
00000090: b59d 47bd 5f48 9fbe 4acc 78be b9ed 593e
000000a0: a2b3 68be 3426 8f3e ed7d 2a3e 7b16 d5bc
000000b0: 31b5 cabd eea3 be3e a7d4 1cbe cf33 d93a
000000c0: 759d 9e3e 1726 c7bd 251b 09be fda2 ba3e
000000d0: 8340 313d ce4c 4c3e 3f8a 4f3d f86b b73e
000000e0: 9d6a 19be d82f 84be 8bf2 c33d 3fd9 e43d
000000f0: 68a9 6e3e 1825 afbe 2491 c3bd 746e 0b3e
00000100: f58a 193d 122a 3fbe fe80 ddbd 0621 853d
00000110: 5d85 35be b675 603d 1442 653d 5448 3c3d
00000120: 178a d33c dab1 babc e4e0 803e 11ef 7dbd
00000130: 5017 8ebe 066b 57be 5adb 893e 6c35 d3ba
00000140: 99f4 c43d c833 673c b584 1abe bd26 72bc
00000150: 5ca6 d93d 87ec 85be f493 43bd cf17 5ebe
00000160: 0f6e 343e 66a9 f43d f8ba 9dbd 41c2 033e
00000170: b15a 103e f5f5 203e 3c1c 6d3e cfea e23d
00000180: 3668 a3bd c37b 84bd 21bc 49be 5762 943c
00000190: 9ec0 323e d2eb 75bd 8e6d 42be c88e c03c
000001a0: 3848 b43d fce3 35bd a5dd 123a 06ea d53d
000001b0: 58ff ebbd 090f d53b db57 373d 36a1 8e3e
000001c0: 1f09 df3d e7ec 8cbe 4ea4 7abd f333 a63d
000001d0: 3d74 8d3d d6c3 5cbc e975 f93c 3eaa a23d
000001e0: e2d3 263c ea67 eb3d 5800 733e efcb 5c3d
000001f0: 8ec7 3ebd 87fc 84bd d587 183e 50d6 1d3e
00000200: bcba 60bd 1b3e 5a3e 559e 813e 4201 923b
00000210: 51e5 5dbc 530b ab3e 205f bfbd 2c37 8abe
00000220: 7c35 c5bd a196 a03e 6db0 61be 674a 783e
00000230: b221 be3e 1d62 1abe 6f72 cdbd e567 12bd
00000240: afe3 223e d3fd f2bd f073 7ebe 544c 943e
00000250: 1fff 9a3d eece 093e 4afd 81be 0912 153d
00000260: 33a2 873e cecd 903e 1d64 8bbe 1133 0cbe
00000270: bf4f 60ba 3139 4c3e 747f d73d 7c51 423e
00000280: b25e 193e 96b5 043f 33c3 3bbe cb57 4fbe
00000290: 1375 8e3e ada3 19be 5c64 f03d a0c1 0fbe
000002a0: 5222 f43c 44e4 233e 3759 583e 11cf 05bc
000002b0: 7c6f 2c3e c3e4 47bd 7078 213e 615c 853c
000002c0: 2544 8a3e d20d 453e a5fb 423e f84e 68be
000002d0: 9dab 39be 8ac1 7b3e 21dc e4bd bfcd 16bd
000002e0: 0289 86be e7c5 013c a6a0 6abe 691e bcbd
000002f0: be08 833e 0317 843e 27ff 0dbe a323 3e3e
00000300: a7f4 963e 816a cdbd ab17 a1be 56bc 41bd
00000310: 7420 a2be 0cd2 92bd 179f 81be 7d75 9bbb
00000320: c2ce 3dbe eed5 e23d c44f 10bd 9696 2ebe
00000330: dbe0 373d 7b8a 86bd dbe9 6b3e 5a48 553e
00000340: df41 4e3e a82d 233e edec f0bc 6a3b ae3b
00000350: 2c93 70be 3e79 07be 7db4 86be ee70 d73a
00000360: 502a 6b3e 02c1 84bd 5a0b 1b3d 32a3 b43d
00000370: 1711 6a3e 94e0 bbbd 42d1 46bd cb50 8abe
00000380: c991 efbd 7003 403e ae94 9c3d cbbe 8abd
00000390: 242b 4bbe 1838 25bc c69c 39be 8bef cfbd
000003a0: f737 713e 4559 4a3d b3d6 44be 7d2b 63be
000003b0: 0dd7 14bc 316f 8dbe 88e3 52be 80ac 9b3e
000003c0: 36de 9f3d fe21 65be d75f 20bd 0cf1 8bbe
000003d0: 0d33 ca3d 09ff 4a3e 5c2c 11be d9c4 f6bd
000003e0: 37df 163e 4782 36be b272 acbd d438 03be
000003f0: 63c5 053e 522f 843c 6e05 53bd c35b e33d
-0.12082939 0.25546363 -0.20093793 0.25397354 0.27030623 0.10220887 -0.06183635 -0.15121694
-0.099842004 -0.05550881 0.3030336 -0.024534851 0.04961426 0.26827535 -0.2508435 -0.13240671
-0.19419643 -0.0075891693 0.3600788 -0.27742776 0.04271284 -0.11180726 0.3152658 0.23446277
-0.17628056 0.16719215 0.0049749142 -0.10856073 -0.12007787 0.12990272 0.33611998 0.13987605
0.035115737 0.049436927 0.020550761 0.10351129 -0.048734386 -0.31109902 -0.2429668 0.2128209
-0.22724774 0.27958834 0.166496 -0.026011696 -0.09897841 0.37234443 -0.15315495 0.0016571226
0.30979505 -0.09724062 -0.13389261 0.36452475 0.043274414 0.19951174 0.05066895 0.3582456
-0.14982076 -0.25817752 0.09567746 0.11174249 0.23306811 -0.34207988 -0.09549168 0.13616353
0.037486035 -0.18668392 -0.10815619 0.06500439 -0.17726655 0.054799758 0.05597122 0.045967415
0.025822682 -0.022789884 0.25171578 -0.06199557 -0.2775216 -0.2103692 0.26925164 -0.0016113943
0.09616966 0.014111467 -0.15089686 -0.014779744 0.10627434 -0.2615702 -0.04774852 -0.2168877
0.17620109 0.11946373 -0.07701677 0.1286707 0.14097096 0.15718825 0.23155302 0.110799424
-0.07978861 -0.06468918 -0.19700672 0.018113298 0.1745629 -0.06003935 -0.18987104 0.023505583
0.08802837 -0.044406876 0.00056024856 0.10445027 -0.11523312 0.0065020365 0.04476152 0.2785737
0.108904116 -0.27524492 -0.06119185 0.08115377 0.06906936 -0.013474425 0.030451732 0.07942627
0.010182353 0.114944294 0.237306 0.053905424 -0.04657703 -0.06493478 0.14895566 0.15413785
-0.054865584 0.21312754 0.2531611 0.0044557163 -0.013543443 0.33407077 -0.093443155 -0.26995218
-0.09629342 0.3136492 -0.22039957 0.24247132 0.37135082 -0.1507649 -0.10031592 -0.035743613
0.15907167 -0.118648194 -0.24848914 0.28964484 0.07568192 0.13457844 -0.25388557 0.036394153
0.26490936 0.28282017 -0.27224818 -0.13691355 -0.0008556805 0.19943692 0.10522357 0.18976396
0.1497753 0.5183958 -0.18336181 -0.20248334 0.27823696 -0.15003844 0.11737892 -0.14038706
0.029801521 0.16005045 0.21127783 -0.008167044 0.16839403 -0.04880215 0.157686 0.016279401
0.27005115 0.19243553 0.19041307 -0.22686374 -0.18131872 0.24585548 -0.11174799 -0.03681731
-0.26276404 0.007920719 -0.22912845 -0.09185488 0.25592607 0.25798807 -0.13866864 0.18568282
0.2948353 -0.1003008 -0.3146337 -0.04729875 -0.31665385 -0.071689695 -0.25316688 -0.0047442303
-0.18535903 0.1107596 -0.03523232 -0.17049631 0.044892173 -0.06569382 0.23038428 0.20828381
0.20142315 0.15935385 -0.02940985 0.0053171413 -0.23493642 -0.13229844 -0.26309577 0.0016436854
0.2296536 -0.06482126 0.037852623 0.088201895 0.22858082 -0.09173694 -0.048539408 -0.27014765
-0.11697728 0.18751311 0.07645546 -0.06774672 -0.19840676 -0.010084175 -0.1812621 -0.10153111
0.23556505 0.04940154 -0.19222526 -0.22184558 -0.009084475 -0.27623895 -0.20594609 0.30405045
0.07806055 -0.22376248 -0.0391539 -0.27332342 0.098730184 0.1982385 -0.14177078 -0.120492645
0.14733587 -0.17823134 -0.08420314 -0.12814647 0.13063578 0.016135845 -0.05151885 0.111014865

nnECG.8.bias f4 [16]
00000000: 5ac8 0b3d f496 483c c194 7f3b add3 d5bc
00000010: 3653 9f3c ae63 f33b 4f93 e13c c97e e5bc
00000020: 959d d63c 59d1 3d3d dc52 6d3c 45e0 053d
00000030: 375f 023d 6402 973c 9d20 f2b7 e68e b63b
0.034126617 0.012243021 0.0038998576 -0.026101911 0.019448858 0.007427654 0.027536063 -0.028014557
0.026198188 0.046342228 0.014485087 0.032684583 0.031829085 0.018433757 -2.8863835e-05 0.005571234

nnECG.9.weight f4 [16]
00000000: fd87 a23f 176b 7c3f 4778 8f3f 2cf1 823f
00000010: c5e3 803f 8602 963f dfac 883f 1c95 883f
00000020: 3044 943f 9336 8c3f 09ff 7d3f 4a7f 833f
00000030: a4aa 883f 7c55 933f d09e 863f ef25 883f
1.269775 0.98600906 1.1208581 1.022985 1.006951 1.171952 1.0677756 1.0670505
1.1583309 1.0954155 0.9921728 1.027322 1.0677075 1.1510463 1.0517216 1.0636576

nnECG.9.bias f4 [16]
00000000: e0ae 8f3c d74b d53c 2f7a cebc cf39 88bc
00000010: 2d48 cfbb c3b1 26bc a013 563c 2810 eebc
00000020: 0fd4 373c 6341 1f3d 7cb0 8ebb 769f f13b
00000030: 0932 5f3c db79 663c 1b87 08bd 9249 e33b
0.017539442 0.02603714 -0.025204746 -0.016629128 -0.0063257427 -0.010174218 0.013066202 -0.029060438
0.011219992 0.038880717 -0.0043545347 0.0073737456 0.013622769 0.014067139 -0.03333197 0.0069362605

nnECG.9.running_mean f4 [16]
00000000: c520 543d a4fb 253f 076b e13e 42fb 26be
00000010: 15e8 37bf 6efa 60bc c5e0 6c3d 5f21 27be
00000020: 02f2 a73e f67c b83e 4400 f2be 8738 8dbe
00000030: d064 bbbd 028d b23e 3b9a a5bd d29a fc3d
0.051789064 0.648371 0.44026968 -0.16306785 -0.71838504 -0.013731582 0.057831544 -0.16321324
0.32801825 0.36032838 -0.47265828 -0.2758219 -0.09150088 0.34873205 -0.08086058 0.12334217

nnECG.9.running_var f4 [16]
00000000: 6763 ce3f 20d7 b73f 58b7 d53f 6ee2 c23f
00000010: d5f6 bf3f e500 913f a494 f73f 952a ed3f
00000020: 208e bc3f 9c10 b33f 3cb6 da3f ee95 ae3f
00000030: 4b91 b73f 2705 af3f 7936 a73f 7b53 c23f
1.6124085 1.4362526 1.6696577 1.5225351 1.4997202 1.1328398 1.9342237 1.852862
1.4730873 1.3989444 1.7086864 1.3639505 1.4341215 1.3673447 1.3063499 1.5181726

nnECG.12.weight f4 [4, 16]
00000000: de4d af3e 4021 4abe ef9b 4dbe c733 03bf
00000010: 7f05 b63e 2e2d 003f 63e6 da3e 778c fbbe
00000020: 26ed b33e 1d57 a63e f9d0 303e 9f8b 003e
00000030: b17f 073e 11b0 f93e aeb7 c2be 87aa 9abe
00000040: 5fe7 aebe 25c9 4cbc a6d7 263e 4e33 cfbe
00000050: 16f3 cc3e b032 b0be 187d 033f c771 13bf
00000060: 55cd b3bd 6e38 cfbd d9e9 e7bd 3e59 d63e
00000070: 0e75 a9be 6d64 073d d154 8b3e 7b48 b03e
00000080: 33ff f3bd 3469 69be 823a 0e3f 737c 23be
00000090: a67c 92bd 9d5b f5bc 14b2 b93d f9f0 f23d
000000a0: 2336 a4bd 2ffb e93d 3b0c 89bd 375d e7be
000000b0: ec94 abbe 5211 22bf a860 f93e b2e3 07be
000000c0: 6244 12bd 5f52 d03c 6904 d83d de60 31be
000000d0: 685f 61be 0148 733e b2a3 4dbe 04c0 43be
000000e0: 17b7 b1be f690 e43e b828 46be 2c47 e9be
000000f0: 41ba f1be 3dd4 813e 47ee c33e 959c 523e
0.34239095 -0.19739246 -0.20079015 -0.5125088 0.35551068 0.5006894 0.42753896 -0.49130604
0.35141867 0.32488337 0.17267217 0.12553261 0.13232304 0.4876714 -0.3803076 -0.30208227
-0.34160897 -0.0124991285 0.16293201 -0.4046883 0.4002921 -0.34413671 0.5136275 -0.57595485
-0.08779398 -0.10118185 -0.113239 0.4186496 -0.33097118 0.033054758 0.27213147 0.34430298
-0.1191391 -0.22794038 0.55558026 -0.15965442 -0.07152681 -0.029950911 0.09067169 0.11862368
-0.08018138 0.114248626 -0.06691786 -0.45188305 -0.33512056 -0.6330768 0.48706555 -0.13270453
-0.035709746 0.025429903 0.10547716 -0.17322108 -0.22009051 0.23757936 -0.20081976 -0.19116217
-0.3471 0.44641846 -0.1935147 -0.45562112 -0.47212413 0.25357237 0.3826773 0.20567544

nnECG.12.bias f4 [4]
00000000: 3c91 de3c f921 4a3c 0673 dd3b c283 db3c
0.027168863 0.012337201 0.0067580966 0.026796225

nnECG.13.weight f4 [4]
00000000: 3b16 853f 221f 7e3f 2d8a 883f aa4e 8e3f
1.0397409 0.99266255 1.0667168 1.1117756

nnECG.13.bias f4 [4]
00000000: af10 073b 4b8f 8ab8 95a0 17bc a31e c93b
0.002060931 -6.607043e-05 -0.009254594 0.0061376854

nnECG.13.running_mean f4 [4]
00000000: d96f 2b3e 8ded 29be 675a 88be 23eb 27be
0.16741885 -0.16594525 -0.26631472 -0.16398291

nnECG.13.running_var f4 [4]
00000000: d5c0 8d3f 2dd1 0140 c72e 913f 8621 843f
1.1074473 2.028392 1.13424 1.032273

nnECG.16.weight f4 [1, 4]
00000000: 73a4 8dbf 214e 3cbe c38a 843f ac02 cc3e
-1.1065811 -0.18389179 1.0354847 0.39845788
