Models/net_3_2_epoch_11.pth (torch, 57997 bytes, 25 tensors)

nnECG.0.weight f4 [128, 12]
00000000: 54a8 31be 73e2 243d ee5b a1bd f912 02be
00000010: ad70 463e f95c f4bd 341b 72bd 0db4 473e
00000020: 3377 0abe b454 383e 269c 843b 7199 f83c
00000030: e265 6bbd b9dd 3bbe 1f2a fbbd 1a10 0a3e
00000040: 9260 85be e26b 49be d0ad cdbc 23c7 103d
00000050: 531c 573e 31bf fabd 3028 173e c049 85bd
00000060: 9a9c bcbd db1b 0bbe 52c2 15bd 1985 08be
00000070: 3b0f 153e 4feb b03d 8f08 4d3e 544b 403e
00000080: 5184 85bd 9116 5abe 76a8 2f3e b192 41be
00000090: df71 67bb a708 dabd 74b5 653d 6146 1bbe
000000a0: 2657 233e 91d7 423e e56a 283e 6a8a 313e
000000b0: eb73 a23c 3027 31bd ab07 adbb 369e f53c
000000c0: a24f 35be ca94 aabc 043e 383e 14f6 56bd
000000d0: 2161 183e b665 e23c b64d 51be 2017 38be
000000e0: 93f6 25bd 9b60 ae3c 7eed f9bd add4 113e
000000f0: 332c e3bd dfc7 f9bd a535 ddbd 7f00 523e
00000100: e31f 253e 30a4 043e de2e 5ebe 81ac fb3d
00000110: cddb e7bd 207b 4abd 856c d73d 62e6 373e
00000120: c70c 573d 5557 4f3e 8cd0 aa3d 069b 1d3e
00000130: dd8d d83d cd26 a43c f233 05be b320 0cbe
00000140: fa12 263e 5ce6 0dbe 3992 4cbd 1938 483e
00000150: d5e0 a03d d65b 853d b2dc 18be 7530 fdbc
00000160: d96a 5c3e c25e 2a3d f3e8 d9bd 3faf 9dbd
00000170: d05c 703d 739e 403e d150 fb3d 41a9 3b3d
00000180: 8715 46be b096 69bc 0c3e 2fbe a3db fa3d
00000190: 691b a8bd 7e00 fbbc 5e17 543e 0217 b0bd
000001a0: 9502 a7bd a490 18bd e1be 253d a12b 1b3e
000001b0: 94d1 46be 3404 2cbe b9a7 0e3d 7188 1fbe
000001c0: ef11 133e 20b1 a0bd db4e 0bbd 21af 393e
000001d0: cb04 7b3d f455 543e 5738 5f3d f132 3cbc
000001e0: aa43 3e3e 24f3 7f3b 6864 8cbd e309 933d
000001f0: 05c2 9f3d 397a 383e 6c86 e53d ddc9 503e
00000200: 1f55 fa3d 75da 093e 6737 b13d fb8c 31be
00000210: e54f 65bd 7d6e 8c3d 7db7 47be 1251 9fbd
00000220: 6519 883c 92b9 47bd 0426 87bd c55f ff3c
00000230: 9c29 8fbd 1bb6 403e cb7a 463d e604 cf3d
00000240: a05c f53c 2dde 33bd 26e7 e4bd bbb4 823c
00000250: 4745 26be 633f 17bc c067 32be 171d c33d
00000260: 9db7 883d c12a 763e 626a e0bd 3af5 043d
00000270: 8091 1b3e 3b3f 533e a2a6 bc3d 5728 c2bd
00000280: 8762 d93d 0b04 c6bc 910b efbc 5dd3 ef3d
00000290: 0f0e 36be 80f6 003d ca51 0c3e 4357 0a3e
000002a0: bfc5 d3bc 2963 c43d f026 e33d 1597 dfba
000002b0: 6f72 2fbe 38fa f43d debf 26bd a702 b5bd
000002c0: c6aa 283e acbc 0dbe 6682 f23d c39b 5b3d
000002d0: e85e 063e 8c5e a23c e2ef 7c3d 103c 5fbd
000002e0: 930e 0dbe 2df7 63bc 32bb dc3d 79ec b9bc
000002f0: 8026 b0bd 6d14 433e 5128 4f3e c4ce 99bd
00000300: 073b cfbd 2fb7 0e3e 727d 28be 5302 a43d
00000310: 7bbf 043e d646 56be d950 85bd 104a 2fbe
00000320: 52d9 2f3c 3176 00be 0d20 17bd 703b 2b3e
00000330: 2b81 a8bd d11e 3a3e 44f9 87bd 105c 83bc
00000340: 1edb 2ebe 41bc 8e3d d6ba 3bbe cf3e cbbc
00000350: 5c37 0fbd e439 ffbd aa78 6a3d 617b 20be
00000360: a28d 5a3e ffed a8bd fb0b 2bbe f1b9 35bd
00000370: fe76 fb3d bb60 c73d a754 18be a032 38be
00000380: fced 00be c3be b23c e393 37be 3875 003e
00000390: 8083 db3b fdc4 f6bd a986 7b3d 5ca5 223e
000003a0: 4126 3ebe 7622 5abe 770d 3f3e 8c20 8dbc
000003b0: 06e2 4c3e 5cbd 1d3b 50be 013e de42 54bd
000003c0: f52d b7bc f280 143e 261e 1e3e 2fde 17bd
000003d0: 6189 213e 5de0 203c e3fb babd b965 ad3b
000003e0: e420 073e 4748 55bb 9bb3 cdbd 0b20 ab3d
000003f0: ed91 103e 7325 243e 56f8 b0bd b57d 403d
-0.17349368 0.04025502 -0.07878862 -0.1270255 0.1937892 -0.119317956 -0.059107974 0.19502278
-0.13522033 0.18001062 0.0040469347 0.030346604 -0.05747021 -0.18346299 -0.12263893 0.13482705
-0.2605024 -0.1967006 -0.025107294 0.03534616 0.21006899 -0.12243498 0.14761424 -0.06508207
-0.09209557 -0.13584845 -0.03656227 -0.13332023 0.14556591 0.086386316 0.20022796 0.18778735
-0.06519378 -0.21297671 0.17154106 -0.18903615 -0.0035315675 -0.106461816 0.05608125 -0.15163566
0.15951213 0.19027545 0.16447027 0.17337957 0.019830665 -0.043250263 -0.005280455 0.029982667
-0.17706159 -0.020822901 0.17992407 -0.052480772 0.14880802 0.02763639 -0.204398 -0.17977571
-0.040518355 0.0212863 -0.12203501 0.14241286 -0.11092415 -0.121963255 -0.108012475 0.20508002
0.16125445 0.12953258 -0.21697566 0.12288762 -0.113212205 -0.049433827 0.10518745 0.17958978
0.05250242 0.20248158 0.083405584 0.15391168 0.10573933 0.020038033 -0.13008097 -0.13684349
0.16218176 -0.13857406 -0.049944136 0.1955265 0.07855383 0.06511657 -0.14927939 -0.030906895
0.21525134 0.041594274 -0.10640135 -0.07699441 0.058682263 0.18810444 0.12271274 0.04581571
-0.1934415 -0.014257118 -0.17113513 0.12248924 -0.08208353 -0.030639883 0.20712039 -0.085981384
-0.08154789 -0.037247315 0.04046524 0.15153362 -0.19415885 -0.16798478 0.03482792 -0.15579392
0.1436231 -0.07846284 -0.03401075 0.18133213 0.061283868 0.20735914 0.05449709 -0.011486755
0.185805 0.0039054835 -0.068550885 0.0717962 0.07800678 0.18015374 0.112072796 0.20389505
0.12223267 0.13462241 0.08653145 -0.17338936 -0.055984396 0.068570115 -0.19503589 -0.07779135
0.016613672 -0.048760958 -0.06599048 0.031173596 -0.06990358 0.18819468 0.04845695 0.10108356
0.029951394 -0.043913055 -0.111769006 0.01595532 -0.16237365 -0.009231421 -0.1742239 0.09527033
0.066756465 0.24039747 -0.10957791 0.03246043 0.15192223 0.2062959 0.0921147 -0.094803505
0.10614496 -0.02417185 -0.02918032 0.11710236 -0.177788 0.03148508 0.13703075 0.1350985
-0.025851129 0.09589226 0.11091411 -0.0017058576 -0.17133497 0.11961788 -0.040710323 -0.088383965
0.16471395 -0.13841504 0.11841278 0.053615343 0.13122141 0.019820474 0.061752208 -0.05450064
-0.13775091 -0.013913912 0.10777892 -0.022695767 -0.08601093 0.1905076 0.20230223 -0.075101405
-0.101186804 0.13937066 -0.16454104 0.08008256 0.12963669 -0.2092546 -0.06509561 -0.17118096
0.010732966 -0.12545086 -0.0368958 0.16721892 -0.08227762 0.18175818 -0.066393405 -0.01603511
-0.17075774 0.069695 -0.18332991 -0.024810223 -0.034964904 -0.12462214 0.05724398 -0.15672065
0.21343091 -0.08248519 -0.16703789 -0.04436678 0.12278555 0.09735247 -0.14876042 -0.17988062
-0.12590784 0.021819478 -0.17927508 0.12544715 0.0066990256 -0.12049291 0.06140772 0.15883392
-0.1856928 -0.21302208 0.1865748 -0.017227434 0.20008096 0.0024069166 0.12670255 -0.051821582
-0.022360781 0.14502314 0.15441188 -0.037077125 0.15775062 0.009819117 -0.09130075 0.0052916673
0.1319614 -0.0032544301 -0.10044023 0.08355721 0.14118166 0.1602991 -0.08641116 0.046994884

nnECG.0.bias f4 [128]
00000000: 6026 273c e15e 6a3c 2380 8fbb 2a5c c33a
00000010: 0861 353c 808d 6f3c 2681 7c3c 2be9 783c
00000020: b532 843c 1847 1b3c 92e7 03bb e9a0 5c3c
00000030: e1c1 4d3b 008e 3c3c 84d6 27bb ffc3 1a3c
00000040: 385f bc3c d7f2 9f3b 6baf 973c 0e42 ec3b
00000050: 7941 1b3b 6ebe c33c 0ace 613c 3130 333b
00000060: affd 273c 167b 883c 6116 f93b a655 d43c
00000070: 2643 41bb ab6e 663c ceb7 683a 0647 d43c
00000080: a067 933c 75c4 1b3d 9330 0b3c 28fa e53b
00000090: 75d5 993c 4978 05bc b532 24bc f3e5 a83c
000000a0: 0816 4b3c d612 28bc 1144 7c3c 3802 dd3b
000000b0: 9fc6 1f3c b2e9 be3c 1875 d63c 66c0 493c
000000c0: 2e92 0ebc 0ece 0d3d dd83 36bb b71f e13a
000000d0: ba75 193c fe4c ae3c 2a5a 6c3c ab8f 213b
000000e0: e109 733c 8736 143c e50b a73c 35ab 113b
000000f0: 2bff ca3c a18a c63a 6575 883c d8d2 cb3c
00000100: 22ad 133c 8a92 a03c 7893 e03b 959c 8cbb
00000110: 8617 bb3b 1ec0 503b cbfc c23c 398d 903c
00000120: 7d32 e93c f7c9 33ba 6870 5f3c a179 bc3b
00000130: 260b 81bb feba 133c 4ec9 eb3c 296f 1439
00000140: 16fc f73b 5624 a43c b244 8f3c aa48 4cbb
00000150: 6cc4 de3c 6256 2abc a24d d83b 6511 be3b
00000160: cf89 573b 5720 ff3b 1fa3 833a 36c0 f03c
00000170: f526 803b 4abd 2f3c 1802 573c 2c8f 583c
00000180: 5bb0 e73c 9c64 533b cac6 d23c fab7 f13c
00000190: f14f 8bba d13a df3b 0bfd e43b b596 b7bb
000001a0: d07a 5b3c 19f2 a0bb 82fd 713b c61e 213b
000001b0: 1661 e33b 07fc 503c 9b49 ac3c a7e1 aa3b
000001c0: 5314 eb3b df9c 6d3c 984b 8a3c ea37 613b
000001d0: 19ac ac3c dd91 c2bb 1059 94bc d2ab 7d3c
000001e0: 47a4 77ba ef9d 403c c1dd 88bb 5a5e 5b3c
000001f0: 1cf1 ba3b 408c 123c f0d1 3a3c 968e 133c
0.01020202 0.014304847 -0.0043792888 0.0014904786 0.011070497 0.014621139 0.015411651 0.01519231
0.01613746 0.009477399 -0.002012704 0.013466098 0.0031396078 0.011508465 -0.002561004 0.009446143
0.022994623 0.0048812437 0.018516263 0.007210023 0.0023690148 0.023894515 0.013782034 0.0027341957
0.010253354 0.016660254 0.0076015447 0.025919747 -0.0029489486 0.014064471 0.00088774867 0.025912773
0.017993748 0.038029153 0.008495468 0.0070183463 0.018778542 -0.008146354 -0.010021855 0.02061746
0.012395389 -0.010258397 0.015397088 0.0067446493 0.009751945 0.023304794 0.026178882 0.012313938
-0.008701844 0.034620337 -0.0027849593 0.001717559 0.009366447 0.021276947 0.014425794 0.0024652283
0.014833898 0.009046203 0.020391414 0.0022227291 0.024779877 0.0015147516 0.01665754 0.024880812
0.009013446 0.019601125 0.006853517 -0.004291127 0.0057095913 0.0031852792 0.023802182 0.017645465
0.028466458 -0.0006858403 0.01363764 0.005751804 -0.0039380966 0.00901675 0.028782513 0.0001415579
0.007567893 0.020036858 0.017488811 -0.003117124 0.02719327 -0.010396572 0.0066010514 0.0058004134
0.0032888537 0.0077858376 0.0010043121 0.029388528 0.003910894 0.010726282 0.013123058 0.013217729
0.028282335 0.0032256013 0.025729556 0.029506672 -0.0010628683 0.0068124314 0.006988173 -0.0056026825
0.01339598 -0.004911673 0.0036924784 0.0024584993 0.006939064 0.0127554005 0.021031192 0.005214888
0.0071740537 0.014502733 0.016881749 0.0034365603 0.021078156 -0.0059377984 -0.018108875 0.01548286
-0.00094467815 0.011756404 -0.0041768258 0.013389194 0.005705012 0.008944571 0.011402592 0.009006163

nnECG.1.weight f4 [128]
00000000: 368d 783f a8bd 813f 57e2 7c3f cc5e 813f
00000010: 9dff 803f de90 843f eacf 7d3f e1ac 883f
00000020: 14fa 7b3f eda9 7f3f 7b9b 803f f068 833f
00000030: 2334 853f af31 833f 9f54 7c3f 3580 833f
00000040: 5242 823f a826 7d3f edcc 813f b032 833f
00000050: 00be 7e3f 9027 843f 1cd7 873f ba4d 7d3f
00000060: 1512 7c3f 7b29 813f 24e8 813f 6df6 7d3f
00000070: 7f81 763f b418 803f 68f7 7a3f 7d16 863f
00000080: ebe3 873f c509 863f 09eb 813f d473 7b3f
00000090: ba1b 813f b60a 753f c0cf 803f 9bff 813f
000000a0: 8bbe 893f 3531 7f3f b8cc 893f e7d6 813f
000000b0: 4e8c 7b3f 8064 853f 260b 893f 49dd 833f
000000c0: 3c85 7f3f 86a7 823f 132c 7c3f 057f 823f
000000d0: 4a74 843f 6444 893f b453 7f3f f59c 803f
000000e0: 9a8d 803f 4417 7e3f 58e1 8a3f 5d0f 7c3f
000000f0: f55c 7d3f a6a6 7c3f cf7f 863f ae6a 7e3f
00000100: 4929 813f e604 833f c7ff 7b3f c122 823f
00000110: 57ed 843f 3b9b 853f ec50 813f 7169 7f3f
00000120: 8189 893f 6aeb 7b3f 6940 853f 4867 863f
00000130: 181e 7c3f 6dea 7d3f add5 823f 7dc1 803f
00000140: 52d6 813f 35a8 813f bad1 7d3f 42da 7f3f
00000150: cfab 863f d252 823f 6b78 7c3f 2b5c 873f
00000160: bfa5 7e3f bbd2 7b3f 3c18 793f 7980 8d3f
00000170: 47e5 7b3f e4fc 7d3f 8353 823f 671c 7d3f
00000180: d1c6 843f 1548 803f 8a8d 843f e9c2 8d3f
00000190: 48b8 843f de3d 803f 2646 803f 9291 7e3f
000001a0: 6864 823f 1f38 7f3f 5d4a 7f3f cf38 7d3f
000001b0: 0c69 853f 763e 7f3f 51ae 883f 6393 7c3f
000001c0: f2db 7b3f 9882 853f 28e1 7e3f 42b9 7b3f
000001d0: b241 853f 4ced 803f 4f5b 813f e48e 863f
000001e0: 9a7d 803f 429d 8a3f f5c1 833f 2586 7f3f
000001f0: 62b2 7d3f 4b9e 7c3f ef11 803f 2f05 7c3f
0.9709047 1.0136003 0.9878287 1.0107055 1.0078007 1.035671 0.99145377 1.0677758
0.98428464 0.9986866 1.0047449 1.0266399 1.0406536 1.0249537 0.9856662 1.0273501
1.0176489 0.9888711 1.0140663 1.0249844 0.99508667 1.0324574 1.0612521 0.98946726
0.9846509 1.0090784 1.0148969 0.9920414 0.96291345 1.0007539 0.9803376 1.0475613
1.061643 1.0471731 1.0149852 0.98223615 1.0086586 0.9571947 1.00634 1.015613
1.0761274 0.9968446 1.07656 1.0143708 0.9826096 1.0421295 1.0706527 1.0301906
0.99812675 1.0207374 0.9850475 1.0195013 1.0347989 1.0723996 0.99737096 1.00479
1.0043213 0.9925425 1.085002 0.9846094 0.98969966 0.98691785 1.0507754 0.9938153
1.0090724 1.023587 0.9843716 1.0166856 1.038493 1.0437998 1.010282 0.99770266
1.0745088 0.9840609 1.0410281 1.0500269 0.9848342 0.9918583 1.0221459 1.0059048
1.014353 1.0129458 0.9914814 0.9994241 1.0521182 1.0181525 0.98621243 1.0575002
0.9947166 0.98368424 0.97302604 1.1054832 0.98396724 0.99214005 1.0181736 0.98871464
1.0373174 1.0021998 1.0355694 1.1075107 1.0368738 1.001888 1.0021408 0.9944087
1.0186892 0.9969501 0.99722844 0.9891481 1.0422683 0.9970468 1.0678197 0.98662394
0.98382485 1.0430479 0.9956231 0.98329556 1.0410674 1.0072417 1.010599 1.0512357
1.003833 1.0829241 1.0293566 0.99814063 0.99100316 0.98679036 1.0005473 0.9844541

nnECG.1.bias f4 [128]
00000000: 5b4f dcbb 18be 873b e570 9ebc 2ed5 13bc
00000010: f786 d83a 04fa 743c f6b1 0a3c 93e2 463c
00000020: 05bb d3ba 2bc6 d8bb ec38 c7bb 2d41 1f3b
00000030: bff6 b9bb ace1 643b 8427 e9bb a9fe cebb
00000040: 4bb7 a03c 4746 50bc 6ec3 b33b ff1a 15bb
00000050: ac72 f4ba 8ed5 763c 6f6e 083c ee50 b3ba
00000060: 1b07 a83b 781f e83b 7f87 9dbc 34f0 773c
00000070: a82a 33bc 08e6 8c3b 2dae e3b9 1ecb 8f3c
00000080: efab 623b 20cc dd3c d939 b13b ba6a 2ebc
00000090: fb6f 1c3c a42c 59bc 3b8c 50bc 0fff 2c3c
000000a0: c179 643a 94cf 13bc 347a 243c b793 cfbb
000000b0: 6a0b 2fbc 4af4 f5ba 5e3c 893c d918 febb
000000c0: 7a00 55bc 48e7 913c 7cdd e0bb 35ae 983a
000000d0: fde7 dc3b e708 573c 1bf3 093c d87a 6e3b
000000e0: b737 7c3a e39b 433c a3ed c93b 5ca1 f9bb
000000f0: 4392 1f3c d03e a9ba b637 3c3c 2307 5c3c
00000100: 933e 343c d60a 0e3c 6457 c63a 5518 8fbb
00000110: 6e4b 943a 64cc 4aba 527e b63c 8593 063c
00000120: 4acc 993c 3af5 18bc d438 463c a423 503c
00000130: da3c acbb 4d43 09bc 9ff1 f73b 2812 c23a
00000140: 9329 18bc 3f81 4a3c 5add 8b3c d859 abbc
00000150: c5a5 563c 2d08 14bc e840 9dbb 6cb2 ca3b
00000160: 5dd8 2abc 9d12 8abc 2f4e 13bc d7a7 fa3c
00000170: de45 42bc 94b4 a2ba df28 203c 9f5f f3ba
00000180: 7c25 123c c123 e7ba 5a9f 283c aaa1 2e3c
00000190: 8a8d 97bb f7c6 6bbb 5c5e 863b 6163 babb
000001a0: 95d5 c03b 36ea b9bc bef3 d6bb 7ab6 4ebb
000001b0: e11a f2bb 35bc 103c 6b16 2cbb 1274 8dbc
000001c0: 20d8 04bb bd35 f63b d7ec 21bc c348 34bc
000001d0: 6080 3b3c 48e6 6abc aca2 7cbc 31dd e2ba
000001e0: 5af1 04bc b21a b3ba d39c 8ebb a500 caba
000001f0: b9d2 59bc d2cb 9abb fc13 073a ca7a 5bbb
-0.006723327 0.004142534 -0.019340942 -0.009022994 0.0016519715 0.0149521865 0.008465281 0.01213898
-0.0016153759 -0.0066154203 -0.0060797837 0.0024300322 -0.0056751664 0.003492455 -0.0071153063 -0.006316979
0.01961865 -0.012712068 0.0054859435 -0.0022751687 -0.0018649898 0.015065564 0.008327111 -0.0013680735
0.0051278 0.0070838295 -0.019229649 0.0151329525 -0.010935463 0.004299883 -0.00043426585 0.017552909
0.0034587344 0.027074873 0.0054085073 -0.010645563 0.009548183 -0.013255272 -0.012728746 0.010558858
0.00087156525 -0.009021658 0.010038901 -0.0063347477 -0.010683874 -0.001876482 0.016752418 -0.007754427
-0.013000602 0.017810479 -0.0068623405 0.0011648597 0.0067415223 0.013124681 0.008419777 0.0036389139
0.0009621339 0.011939022 0.0061623617 -0.0076181125 0.009739461 -0.0012912396 0.011487892 0.013429436
0.011001247 0.008669576 0.0015132246 -0.0043669143 0.0011313984 -0.0007736145 0.022277031 0.008213882
0.01877417 -0.00933581 0.01209851 0.01270381 -0.0052562775 -0.008377862 0.0075666453 0.0014806436
-0.009287256 0.012359916 0.017073322 -0.020916864 0.013101046 -0.009035152 -0.004798997 0.0061858203
-0.010427562 -0.016854579 -0.008990808 0.03059761 -0.011857478 -0.0012413436 0.009775369 -0.0018567926
0.00892007 -0.0017634557 0.010291899 0.010658661 -0.004625027 -0.0035976747 0.004100604 -0.0056881164
0.005884836 -0.022694688 -0.006559818 -0.003154187 -0.007388458 0.008833935 -0.002625848 -0.01726726
-0.0020270422 0.0075137303 -0.009883127 -0.011003676 0.011444181 -0.01433713 -0.015419643 -0.0017308352
-0.008114183 -0.0013664572 -0.004352191 -0.0015411569 -0.013294869 -0.0047240043 0.0005152819 -0.0033489936

nnECG.1.running_mean f4 [128]
00000000: 5593 0abe f5f0 713c 44f5 6e3e ea8e c93e
00000010: c4c1 f2be 7875 8cbe 27c9 c9bd 0e7c 593e
00000020: 73cb 14be 3c5a f13d ff80 3f3f 60d1 84bd
00000030: 5482 f93c c2f4 353e cb1e 673e 6641 043f
00000040: 545f 02bf f059 88be 9b2d b8be 7ca5 c53e
00000050: 5d12 b13d 56fa 57be 074e 56be aaba de3e
00000060: 78f2 6e3c a461 cd3d 5bcb 7e3e 2543 99bb
00000070: d7ca e33d a022 9a3d 8e94 8ebe c6ff 16bd
00000080: 2c6a 25be 73cf f9be 0dbd c7be da80 ccbd
00000090: f357 d2bd d775 2b3e c3ad d53c d88a 863e
000000a0: d59e 8b3e 27ce 02be bbc2 b53e 896c ef3d
000000b0: dd61 913d 56a8 803d c2df 0a3e a5f0 113e
000000c0: 2c09 12be 07d0 963e ab8d 5a3e af8e d5be
000000d0: fe49 76be cfd4 093e f4b7 a13e 8c90 18bd
000000e0: 0c2e cabe 0129 cbbd 4bbb c1bd be57 2f3e
000000f0: a593 d53e 4dd3 7c3e 16f0 353e 95e1 b63d
00000100: 8040 6abe 7428 01bc 3f4c 6bbe 6854 45bd
00000110: 0d64 73bc 15a1 653d 8d9d a4be 1037 873e
00000120: f7d6 843d e562 00be 5bc2 f93e d167 ca3d
00000130: 60a2 0b3e babb aa3c fcc6 c2be 11c5 fa3e
00000140: 4ba0 a9be 96f4 173d 9e2a 0fbc 9009 403e
00000150: 2b2a 86be 15a2 f3bd 5531 713e 4d63 f83e
00000160: b5b8 b43e 6fd3 81bd da3a 11bd 5ca7 6cbe
00000170: a604 86be 96d8 9cbe fafa c3bc 4d3a b13e
00000180: d643 613e 7583 e13e bc9c f5bb f0cd 06be
00000190: f7d9 003c 02be 85bd f87a 2abc 1676 0fbe
000001a0: 48e0 393d 8129 4c3d b6e8 563e a897 523e
000001b0: 1251 943e b618 ecbe dd24 313e 78ed 243e
000001c0: c3b0 3e3e e7ff 24be 6786 eebe 6716 913d
000001d0: 5dc9 a2be 1ffe f13e dd0f 913e 9f39 a63e
000001e0: 95a5 e83e 748d d23d 6904 85be c0c3 b2be
000001f0: 61cd 2a3e a9eb 09be e6ec f3bc 3dec 0cbc
-0.13532765 0.014766921 0.23335749 0.39366847 -0.47413456 -0.27433372 -0.0985282 0.2123873
-0.14530735 0.11784789 0.7480621 -0.064852476 0.030457653 0.17769149 0.2257034 0.5166229
-0.5092671 -0.26631117 -0.35972294 0.38602817 0.08646081 -0.2109159 -0.20928203 0.43501788
0.014584176 0.10028389 0.24882261 -0.0046771937 0.11122673 0.075261354 -0.27847713 -0.03686502
-0.16153783 -0.48791084 -0.39011422 -0.09985514 -0.10270681 0.16744171 0.026083833 0.26277804
0.27269617 -0.12773953 0.3550013 0.11690623 0.07098744 0.062821075 0.1356192 0.14251955
-0.14261311 0.29455587 0.21343105 -0.4171042 -0.24051663 0.13460086 0.31585658 -0.037247226
-0.39488256 -0.0991993 -0.094595514 0.17123315 0.41714206 0.2468998 0.17767367 0.08929745
-0.22876167 -0.00788318 -0.22978304 -0.0481762 -0.014855397 0.056061823 -0.32151452 0.26409197
0.06486314 -0.12537725 0.48781094 0.09883083 0.1363616 0.020841468 -0.38042438 0.48978475
-0.33130106 0.03709849 -0.008738188 0.18753648 -0.26204047 -0.11896149 0.23553975 0.4851326
0.3529717 -0.06339156 -0.035456516 -0.23110718 -0.2617542 -0.30633992 -0.023923386 0.34614792
0.21998534 0.44045606 -0.007495491 -0.13164496 0.007864467 -0.06530382 -0.010405295 -0.1400989
0.045379907 0.04984427 0.2098721 0.20565665 0.28968102 -0.46112603 0.17299218 0.16106212
0.18622117 -0.16113244 -0.46586916 0.07084351 -0.31794253 0.47264192 0.28332415 0.32465836
0.4543883 0.10280886 -0.25979927 -0.3491497 0.16679908 -0.13468803 -0.029776048 -0.0086012455

nnECG.1.running_var f4 [128]
00000000: 1d0e 953d 3820 983d 3341 9a3d 6f80 a03d
00000010: fdbd 953d 5279 953d 5d54 953d 20d0 983d
00000020: 7e46 983d 9a2c 963d c435 9c3d 676e 973d
00000030: f7cb 933d ba62 9c3d 1926 963d 9bed 973d
00000040: f61f 9d3d 0937 943d 7ea5 9b3d bd35 963d
00000050: 6487 983d ca92 983d 6936 963d fbd7 963d
00000060: 503b 953d d55b 953d d6af 953d 7096 953d
00000070: bcb4 953d efe6 943d 4adb 973d 242d 993d
00000080: 5352 973d 2e61 973d 3e37 943d e645 993d
00000090: 8c78 943d 99c5 973d 8fd7 943d cc5b 963d
000000a0: 18e6 993d 2afc 953d e02b a03d bbb3 a53d
000000b0: ac23 943d 2735 9b3d e4d3 9a3d b478 9c3d
000000c0: bd38 963d fb66 a73d 6be3 983d b487 963d
000000d0: 8983 963d 90f1 a23d c3a4 973d 2014 963d
000000e0: a2c5 953d 622f 933d 0fd4 9b3d 9cff 953d
000000f0: 0d9d 993d 445a 973d 1464 9a3d 6a9f 983d
00000100: bef7 943d 84c4 973d dbe6 953d 658d 943d
00000110: 5abc 943d 9ded 983d 2551 983d 29a5 963d
00000120: c821 993d 4d34 973d e013 983d 8dfe 9a3d
00000130: 3ea5 933d 1a77 943d 6367 9c3d c87a 9e3d
00000140: 4dc9 993d 55ee 9b3d fadd 9a3d c6e4 993d
00000150: 2ec8 953d ee51 a33d 7ea3 943d 6da6 973d
00000160: 2a80 9e3d 4c1f 973d 3123 963d 0dba 973d
00000170: 9832 973d aae2 9b3d 0122 9b3d 3af5 983d
00000180: 43bf 973d 6367 9b3d c6fa 9a3d d065 9a3d
00000190: 0ae3 953d 2c9c 953d 4907 963d e30c 953d
000001a0: 984f 973d 7d1c 9a3d ba3a 953d 7207 9e3d
000001b0: 7b35 953d 8f32 943d d373 9d3d 2f36 953d
000001c0: 3f6b 963d 12b2 9b3d 1006 9b3d 4e42 9e3d
000001d0: 34c7 a53d 8d52 953d 0b1d 9f3d 0951 983d
000001e0: 7e4d 953d 8384 953d 7c1d 963d de4d 993d
000001f0: e2b4 963d 4b08 963d 1b4f 953d a4d6 973d
0.072780825 0.0742802 0.07531967 0.07836997 0.07311628 0.07298531 0.07291482 0.07461572
0.0743532 0.07332726 0.076274425 0.073941045 0.072166376 0.07636018 0.07331485 0.074183665
0.07672112 0.072370596 0.075999245 0.073344685 0.07447699 0.07449873 0.07334597 0.07365414
0.072867036 0.07292906 0.07308929 0.07304084 0.07309863 0.072706096 0.07414873 0.07479313
0.07388749 0.073915824 0.07237099 0.07484035 0.07249555 0.07410736 0.07267677 0.073417276
0.0751459 0.07323487 0.078208685 0.080909215 0.07233366 0.075784974 0.07559946 0.0764021
0.07335041 0.08173939 0.074652515 0.07350102 0.07349307 0.07956231 0.07404473 0.07328057
0.07313086 0.07186772 0.07608806 0.07324144 0.07500658 0.07390264 0.0753862 0.07452281
0.072738156 0.07410529 0.07319423 0.07253531 0.07262488 0.07467196 0.07437352 0.073557205
0.074771464 0.073830225 0.07425666 0.07568083 0.07209252 0.07249279 0.07636907 0.077382624
0.07509098 0.076138176 0.0756187 0.07514338 0.07313572 0.07974611 0.07257746 0.0740479
0.07739289 0.07379016 0.07330931 0.07408533 0.07382697 0.07611592 0.07574845 0.07468648
0.07409527 0.07588079 0.075673625 0.075389504 0.07318695 0.07305178 0.07325608 0.072778486
0.07388228 0.07524965 0.07286592 0.07716264 0.07285591 0.07236206 0.07688107 0.07285725
0.07344674 0.076023236 0.07569516 0.0772749 0.080946356 0.07291136 0.077692114 0.07437331
0.07290171 0.07300665 0.073298424 0.07485555 0.073587194 0.073258005 0.07290479 0.07413986

nnECG.4.weight f4 [64, 128]
00000000: 04a9 f0bd 37aa 23bd f034 b43d 16d0 0d3e
00000010: 2efa 6abd d91d 23be 4513 bd3d 8ee8 4cbd
00000020: 3eff c9bd 8e84 acbd 1b23 473d 4dfe f23d
00000030: cb7d 7dbd 2e67 f3bd 1fc0 abbd b2ad a8bd
00000040: 65d1 1ebd 5528 e2bd 18c2 aebd e0a4 88bd
00000050: afa4 9b3d 0002 2f3d fce2 e13d d4ed 573d
00000060: 40ed c2bc e792 373d 0a58 9bbd 69ff 1dbb
00000070: 50f9 b43d d945 d03b 1a18 2dbe 5129 3e3d
00000080: eb02 0bbe b575 be3d 874b 223d dd7c 04be
00000090: 65e3 be3d ec68 b4bd 9517 393e 1ad9 ae3b
000000a0: 7083 4cbd 6195 37bd ce8c 4c3d e128 bdbb
000000b0: d2b4 86bd cd9e df3d 6042 d13c c403 73bb
000000c0: 0032 1ebb 75fd 02be 9a27 86bd e97d b7bd
000000d0: c7b2 6cbd 5f51 913d e299 c03d edc7 34bc
000000e0: 7775 04be 10b1 b63d afd3 04be b559 8ebd
000000f0: f1d0 2dbe 7396 29be 65a5 09be 647f d4bc
00000100: 9b2d 78bd 3d72 073c bf0a 2c3d e02c bebd
00000110: a784 b5bc 98e2 59bd 6a57 ffbd d5ea 12be
00000120: 4ee7 8a3d d450 c23d fa4c 403d f79f cb3d
00000130: 6c99 03bd 43b5 4f3d 8577 3a3e f6fa 163d
00000140: 7f0e 2ebe 9ae1 713d 00cf 2f3d 29f4 d43d
00000150: 24f9 2fbd 2d9b 4b3b bcd7 8abd 08ab 2fbd
00000160: 35dd cd3d d2c2 033d bd35 e1bd 13e2 6bbd
00000170: 253a cebc bf99 1cbe 4cae 51bd 3a39 f63d
00000180: 4f35 233e c80b 123e a9ae f03d 3a9d 35bd
00000190: 1280 1b3e ec0e f7bd bff8 25be 6789 8ebd
000001a0: 04a5 b0bd 1466 06be 4fa6 28be 3aec f73d
000001b0: 2bb9 6dbd 2791 c5bd 4975 42be a4ae 8e39
000001c0: 2b83 27be 25ad 0abe 765f 5e3c 3012 573c
000001d0: 34b6 f9bd f4ef 2d3e 896d 0dbd 5cd5 dbbc
000001e0: 017c 0a3d a43f b8bd ab14 99bd 683e e2bd
000001f0: f475 283e 179f 11bc a13b 153e e457 bb3d
00000200: 043b 3ebe 6f3b 94bd 04e2 bbbd f794 1d3d
00000210: 6cd2 11bd b8d4 e4bd 8a0f c7bd d8c2 d8bd
00000220: 9aa6 23be 9d08 81bd 7b66 a13a 79ca 3ebd
00000230: c478 813d a6ca 34bd 87e0 103e ad8a 0cbe
00000240: e102 373e b484 50bd 0cc6 e23d f3f6 2c3e
00000250: a308 c9bd 17b5 cb3d b0da 99bd bcb0 08bd
00000260: 7d58 83bd 8825 9bbd a17c 91bd 145d 883d
00000270: c085 053e 41d6 5abc 06e5 fdbd f94b 153d
00000280: 38b2 73bd de5f 203d 2d47 3fbd 3fab 50be
00000290: 0d3a 83bd 30d4 5dbd b755 fb3c 181c dfbd
000002a0: 09ff 80ba f85e e1bd e78f f6bc 1cda 273e
000002b0: dcb6 85bd 2c58 2d3c 089e f63b 22c0 88bc
000002c0: 8f7a 0c3c 7be6 163c 5011 b9bd 5468 efbd
000002d0: 886f c3bd bedd 503c 5c61 52bd 0543 e3bd
000002e0: ed03 783d 7de2 66bc 4d1b dfbd ef44 dc3c
000002f0: 052f 403d b0e4 60bd 9a6b b0bd 1c33 303e
00000300: f5ea 103e 53c9 923d db5e de3d 3d5c cb3c
00000310: 2f93 e6bd 7f91 c9bc 98d8 07be 7399 cfbb
00000320: 6cc9 993d 0007 7fbd 7234 90bd 5b87 6dbd
00000330: e347 153e fac2 fa3d 1443 8cbd 2f03 b73d
00000340: 2073 7cbd e1a4 0f3d 1d7c 003e 0716 123e
00000350: c007 8c3d fe87 993d 27f9 02bd c47d bd3d
00000360: 9715 afbd 228f 1ebe 656f bebd 69a8 83bc
00000370: 58c5 d13c 7526 25bd b6c1 ce3d 3627 e9bd
00000380: 7272 a7bc b088 443e b87d 88bd 693e 5f3e
00000390: add2 633d 1527 0bbe 1d2e 8cbd 6a50 02be
000003a0: ca90 d03d a4a3 39bd 9702 063e cd7e 60bc
000003b0: 084d f4bd 40e7 3b3d dcc2 2fbe 69d6 41bd
000003c0: b132 933d 1116 6ebc 2d26 41bc 8838 27be
000003d0: 7d00 9fbd 436e cb3d 683c d03d a7d9 a53a
000003e0: c511 07be 1840 39be d5d1 58bd 9988 443c
000003f0: 5fa0 043e 78fa 1dbe 25aa 8abd 795a 2e3d
-0.11750987 -0.03995725 0.087991595 0.1384891 -0.057367496 -0.15929355 0.09232191 -0.05002647
-0.09863137 -0.0842372 0.048617464 0.1186491 -0.061887544 -0.11884914 -0.083862536 -0.08236255
-0.038773913 -0.11042849 -0.08533114 -0.066720724 0.0759977 0.042726517 0.11029622 0.052717045
-0.02379477 0.04481783 -0.075851515 -0.0024108535 0.08836615 0.0063559827 -0.16903725 0.04642612
-0.13575332 0.092997946 0.03962281 -0.12938257 0.09320716 -0.08809075 0.18075402 0.005335939
-0.049930036 -0.044820193 0.04993897 -0.0057726954 -0.065774575 0.10918961 0.025544345 -0.0037081102
-0.002413869 -0.12791999 -0.06550522 -0.08959562 -0.057787683 0.070955984 0.09404351 -0.011033994
-0.12935434 0.08920491 -0.12971376 -0.06950704 -0.16974236 -0.16561298 -0.13442 -0.02593965
-0.060590368 0.008266983 0.042002436 -0.09285903 -0.02215798 -0.053194612 -0.12467845 -0.14347394
0.06782399 0.09488073 0.04694841 0.0994262 -0.032128736 0.050709974 0.18209656 0.03686043
-0.16997717 0.05905304 0.04292202 0.10398132 -0.04296221 0.0031067834 -0.06779429 -0.042887717
0.100519575 0.032168217 -0.10996578 -0.057588648 -0.02517421 -0.15293024 -0.051191613 0.12022634
0.15938304 0.14262307 0.11752064 -0.044339396 0.15185574 -0.12063393 -0.1620817 -0.06959801
-0.08625224 -0.13124877 -0.16469692 0.121056035 -0.058037918 -0.09646826 -0.18990053 0.00027214468
-0.1635863 -0.13542612 0.013572564 0.013126895 -0.121929556 0.16986066 -0.03452829 -0.026835136
0.033809666 -0.089965135 -0.07474645 -0.11047059 0.16451246 -0.008888028 0.14573528 0.09147623
-0.185772 -0.072378986 -0.091739684 0.038472142 -0.035601065 -0.111733854 -0.09719761 -0.105840385
-0.15981522 -0.06300471 0.0012313867 -0.04657981 0.06321862 -0.044138573 0.1414815 -0.13724776
0.17872192 -0.050907806 0.11072931 0.16891079 -0.098161004 0.099466495 -0.075124145 -0.033371672
-0.06413362 -0.07575518 -0.07103849 0.06658378 0.13039303 -0.013356746 -0.123971984 0.036449406
-0.059496135 0.039153926 -0.046698738 -0.20377825 -0.06407557 -0.054157436 0.03068052 -0.1089403
-0.0009841631 -0.11004442 -0.030097915 0.16391796 -0.06529018 0.010580104 0.007526163 -0.016693179
0.008574142 0.009210224 -0.09036505 -0.11689821 -0.09542757 0.01274818 -0.05136238 -0.11096767
0.06055062 -0.014092085 -0.10893879 0.026888339 0.04691984 -0.054905593 -0.08614273 0.17206997
0.14152129 0.07167306 0.10857936 0.024824256 -0.11258542 -0.02460551 -0.13266218 -0.0063354312
0.07509121 -0.062262535 -0.07041253 -0.057990413 0.14578204 0.1224422 -0.06848732 0.08936154
-0.06163323 0.03506935 0.12547345 0.14266215 0.06837416 0.074966416 -0.03197589 0.092525035
-0.0854904 -0.15484288 -0.092985906 -0.016071515 0.025606796 -0.04031988 0.10095541 -0.11384432
-0.020440314 0.19192767 -0.06664604 0.21801151 0.055620838 -0.13589127 -0.06844733 -0.12725988
0.10183866 -0.045322075 0.13086925 -0.013702107 -0.11928755 0.045874834 -0.17164177 -0.047323618
0.07187403 -0.014531628 -0.011788887 -0.16330159 -0.07763765 0.0993314 0.101677716 0.0012653366
-0.13190372 -0.18090856 -0.052934486 0.011995458 0.12951802 -0.15427577 -0.06770734 0.04256675

nnECG.4.bias f4 [64]
00000000: a8d1 863c 42ac 8b3c c943 6f3c fec6 133d
00000010: f0cc 113d 6a5f c8bb 7a4e 823c 94b6 a8bb
00000020: 4778 e23c 4d9e 0d3d 6ce6 aebc 06f2 8e3c
00000030: d23a 4c3c 1684 253c 29fe 20bc 504f 5f3c
00000040: 8765 4d3c d3e0 9e3a 4282 553c 5f5e 423d
00000050: d263 8c3c eab3 e5bb 5f5a dbbc 9311 a73c
00000060: 0e3d 063d 739e 34ba 028c 313d 4a73 e33c
00000070: 1c58 fc3c 5ffc 3dbb 4da5 66bc 219a aebb
00000080: 77d3 d93c 5b27 553c 5416 d93c 0e17 ee3c
00000090: 9def ff3c 91c1 f0bb bb1e a13d 777c bc3c
000000a0: 7775 443c bdc2 193c 975d 813c c5e9 4bbb
000000b0: eec6 a13c 4f5e 153d f913 a3bc a696 063b
000000c0: 1b21 9d3c f31b b13b 2beb 30bc 4b10 513c
000000d0: 22c8 e43b d81f 4b3b 7687 183c 6af3 ee3c
000000e0: 8f08 f1ba dec4 133d 68af 143c aaae a63c
000000f0: 77d1 663c f102 ba3c 7421 173b 3fa6 9d3c
0.016457394 0.017049912 0.014603564 0.036078446 0.035595834 -0.00611489 0.015906561 -0.005148718
0.027645243 0.034574796 -0.021350108 0.01744939 0.012465196 0.0101022925 -0.0098262215 0.013629749
0.012536413 0.0012121446 0.013031544 0.04745328 0.017137442 -0.007009973 -0.02677649 0.020394122
0.03277307 -0.0006890066 0.043346412 0.027764935 0.030803733 -0.0028989536 -0.014077497 -0.005328432
0.026590092 0.013009871 0.026499905 0.029063728 0.031242186 -0.0073472937 0.078671895 0.023008568
0.011990896 0.009384808 0.015791697 -0.003111468 0.019748177 0.036466893 -0.019906985 0.002053657
0.019180825 0.005404943 -0.010798256 0.012760232 0.0069818655 0.0030994322 0.00930964 0.029168803
-0.0018389391 0.03607642 0.009075023 0.020346958 0.014088026 0.02270648 0.002306071 0.019244311

nnECG.5.weight f4 [64]
00000000: bd7c 803f 99ec 823f f664 833f 6608 8a3f
00000010: 5d80 873f e72c 7e3f 377d 8a3f 23d6 7c3f
00000020: 43ea 893f 64f6 873f c6e8 793f 789a 893f
00000030: 2241 863f 79cd 793f ffbb 7d3f 9943 7e3f
00000040: 9396 863f 2de9 7c3f bcab 7d3f b315 863f
00000050: d438 883f 451a 7c3f ee55 883f e0a4 7f3f
00000060: a264 843f 05f9 813f 3681 8b3f cd22 833f
00000070: 1fdd 853f 70e5 7c3f e2ff 7e3f 0270 7c3f
00000080: b61e 883f 17a5 863f 5164 863f 4b91 833f
00000090: dfbb 833f cfeb 7f3f 109a 893f 39b1 833f
000000a0: 3338 853f c3af 853f 912a 873f 70fd 833f
000000b0: 8344 843f b3c0 863f 0868 7e3f a80f 7b3f
000000c0: 7131 893f 65fb 793f 0294 7e3f 5b1a 823f
000000d0: 99ba 803f cb7e 803f cabb 853f dea0 883f
000000e0: 809f 7d3f b5ca 833f fa6a 803f 7f40 803f
000000f0: d6a3 803f 002f 863f 3275 813f 83a4 803f
1.0038067 1.0228454 1.0265186 1.0783813 1.0586048 0.99287266 1.0819463 0.98764247
1.0774616 1.0622067 0.9762081 1.0750265 1.0488627 0.9757915 0.99114984 0.99321896
1.0514702 0.987933 0.9909017 1.0475372 1.0642343 0.98477584 1.0651224 0.99860954
1.0343211 1.015412 1.0898807 1.0244995 1.0458106 0.98787594 0.99609196 0.9860841
1.0634372 1.0519131 1.0499364 1.0278715 1.0291709 0.9996919 1.0750141 1.0288459
1.0407776 1.0444263 1.0559865 1.0311718 1.0333408 1.0527557 0.9937749 0.98070765
1.0718213 0.9764922 0.9944459 1.0164293 1.0056945 1.0038694 1.0447934 1.0674093
0.990715 1.0296236 1.0032647 1.0019683 1.0049999 1.0483093 1.011389 1.0050205

nnECG.5.bias f4 [64]
00000000: 5d11 473b 2d23 313b 4cbe 283c 17b8 e63c
00000010: ca88 123d 613d 45bc 3c19 363c 4f9e dcbb
00000020: 862e 1d3c 651e b33c 4ab1 15bd 89e7 223a
00000030: c83c 133b df21 a0ba 34ba 87bc 43db b6bb
00000040: 9663 8bb8 0249 4cbc ab54 4eb9 ebcd 363d
00000050: 6832 383c e84f 71bc 398a 11bd 7849 323c
00000060: 3a8c c33c 9b4c 66bb 2040 353d 7ed5 623c
00000070: 4d2d c53c 7233 0abc c604 d6bc d234 8cbc
00000080: e486 f73c 6de5 85bb 2c62 5d3c 93d4 8f3c
00000090: 7dda c73c 0fb8 59bc b297 783d a36e c33c
000000a0: cffd bcbb dfe9 29bc b4da f83b c643 c2bc
000000b0: 627f 4c3b cbc1 f33c a313 ecbc 1965 56bc
000000c0: 0c0c 903c 9d7f 04bc 870f a6bc 4ca7 433a
000000d0: cec1 54bb e7aa 67bc 6847 50bb 03e9 1c3c
000000e0: faff a8bc ae03 e83c b182 a8bb 322a 5b3c
000000f0: abc3 9a3b c39e 483c 45b8 35bc ab48 183c
0.003037534 0.0027029023 0.010299277 0.028163953 0.035774983 -0.01203856 0.011114415 -0.006732739
0.009593612 0.02186508 -0.03654603 0.0006214311 0.0022466648 -0.0012217126 -0.01656828 -0.0055803373
-6.646586e-05 -0.012468578 -0.00019677232 0.044629972 0.011242487 -0.014728524 -0.03553221 0.010881774
0.023870576 -0.0035140875 0.044250607 0.013844846 0.024069453 -0.008435117 -0.026125323 -0.01711503
0.030215688 -0.0040861876 0.0135121755 0.017557418 0.024396176 -0.013288512 0.060691543 0.023856467
-0.005767561 -0.010370701 0.007594431 -0.023713958 0.0031203856 0.029755494 -0.028817957 -0.013085627
0.01758387 -0.008087066 -0.020271076 0.0007463589 -0.003246415 -0.014139867 -0.0031780843 0.009577039
-0.020629872 0.028322067 -0.0051425328 0.013376759 0.0047230325 0.012244883 -0.011091297 0.009294669

nnECG.5.running_mean f4 [64]
00000000: 5661 00bf 900d e2be 1481 03bf 41e0 25bf
00000010: fde5 87bb 940e 14bf 36ba 2ebe 9923 893d
00000020: 6a64 993e 8c35 ed3d 9b60 55be 3dc4 463e
00000030: 8731 72be f381 cfbd 9a92 bebe 388d 9dbe
00000040: ddb0 483d a305 f5be 09b2 40be 3788 5f3e
00000050: 8c49 8e3d 59d5 01bf 8c0b 983e 9575 bfbd
00000060: cad7 6bbe 788b 22be b204 9fbd cf05 02bf
00000070: 2f78 b1bc ba5c 22bf 1408 85bd d56f e3be
00000080: c24a a6bb 95db c8be 89dd 383d 9c18 0f3e
00000090: 80d1 5d3e d80b 8ebe a5e5 1fbe d6b6 ec3e
000000a0: adb3 c9be 91ba 49be bf05 7dbc e7ce 0cbe
000000b0: a108 00bf 5aa3 a5be 0b20 1a3e bbc9 603e
000000c0: b74f 443e 1e52 fd3e 87be 363e a81b 4abe
000000d0: aa6a 733e 91dd a03e cf36 fbbe e17e e83e
000000e0: e1ed ad3e 71ee be3d a695 a33e 53af 3b3b
000000f0: da1b ca3e 3f70 c83d 6192 d63e 700f 973d
-0.5014852 -0.44150972 -0.5136883 -0.6479531 -0.00414729 -0.57834744 -0.17063221 0.06696243
0.29959422 0.11582479 -0.20837633 0.19410796 -0.23651706 -0.10132208 -0.37221223 -0.30771804
0.048996795 -0.47855863 -0.18817915 0.21829306 0.06947622 -0.5071617 0.2969631 -0.09348599
-0.23031536 -0.15873516 -0.077645674 -0.50790113 -0.021663753 -0.6342274 -0.064956814 -0.4442126
-0.00507483 -0.39230028 0.045133147 0.13974231 0.21661949 -0.2774341 -0.15614946 0.46233243
-0.39394894 -0.19700076 -0.0154432645 -0.13750802 -0.50013167 -0.3235119 0.15051286 0.21951954
0.19171034 0.49476713 0.17846118 -0.19737113 0.23771158 0.31419042 -0.49065253 0.454093
0.3397055 0.09322823 0.3195011 0.0028638437 0.39474374 0.09787034 0.41908553 0.07375991

nnECG.5.running_var f4 [64]
00000000: 62a0 9b3f 992a 423f 2989 a53f 7e47 f43f
00000010: f572 4c3f 541d 8c3f 9c11 3340 0b63 563f
00000020: c2c4 0a40 420b 913f 1361 9f3f 9569 a43f
00000030: d7ff a33f cff3 f83f e1ac 893f da25 883f
00000040: dd91 783f 3f71 723f d98c 973f 57ea 503f
00000050: d39e 6a3f a9da f33f e1c9 ad3f 35c5 613f
00000060: 1949 a93f bbdb ac3f 4223 1340 5a6c 6f3f
00000070: 6afa 843f 4976 be3f 1c4a 0440 be34 ba3f
00000080: aa96 663f 0b9a a83f 544f 993f e2be 883f
00000090: ce27 6c3f 88c1 613f c6b8 c83f 6454 d43f
000000a0: fa58 be3f c877 d03f adb2 813f 4571 913f
000000b0: 8115 6f3f 7382 7b3f faaf 8d3f 75e6 823f
000000c0: b11c 8f3f 0b71 b73f 679d df3f d7f5 e13f
000000d0: 5251 933f 9ba3 b43f 154a f43f d577 843f
000000e0: bb87 983f 6c1f 9e3f ae4c 5f3f 7baa 893f
000000f0: 6e3b 763f e4cd c93f fe31 843f 2007 793f
1.215832 0.7584625 1.2932483 1.9084318 0.7986291 1.094645 2.7979498 0.8374488
2.1682591 1.1331561 1.24515 1.2844721 1.2812451 1.9449404 1.0755883 1.0636551
0.9709757 0.9470405 1.1839858 0.81607574 0.91648597 1.9051105 1.3577234 0.8819154
1.3225433 1.3504556 2.299027 0.93524706 1.038892 1.4879848 2.0670233 1.4547346
0.90073645 1.317201 1.1977334 1.0683253 0.9224824 0.8818593 1.5681388 1.6588254
1.4870903 1.6286554 1.0132653 1.1362692 0.9339219 0.98245925 1.1069329 1.022658
1.1180631 1.4331373 1.746991 1.7653149 1.1509192 1.4112428 1.9085108 1.034907
1.1916422 1.2353339 0.8722638 1.0755152 0.9618443 1.5765958 1.0327756 0.97276497

nnECG.8.weight f4 [16, 64]
00000000: 06f7 6ebe 82f7 903b f5f1 f33d cd0a 6bbe
00000010: a704 99bd fdb3 e2bd 1910 323d 23da 563e
00000020: bd06 f9bd 8356 8cbd 5a49 7f3e ec24 a73d
00000030: 48f5 56be 3762 173d cd80 27be 1e98 4ebd
00000040: fae6 43be a172 463e 6109 043d 4e31 92bd
00000050: 85e4 08bd 4ca1 6e3d 3500 45be 8da6 d33d
00000060: 2fc4 7e3d 4d3e 40be ec8a 8abe 7e9b 2ebe
00000070: 83e5 8abd e072 7fbe cea7 9c3c 5641 76be
00000080: 4401 c23c 5404 0abe 697e 61be cb83 8c3e
00000090: 02a2 1a3e 912b ed3c 1ea5 453e 4e8f 093e
000000a0: df98 6c3e b0a5 09be 1eb1 143c 26a8 49be
000000b0: b599 ca3d 0af3 5d3e ddac f13c dcc6 313e
000000c0: c473 38bc 3a14 39bc 470c de3d fdfd 54be
000000d0: 83e0 81be 0252 823e 25a1 b8bd a03c a73d
000000e0: 964d 6d3d 671e 4cbd 33e2 3c3e f61f f53c
000000f0: 5d41 1e3c 8595 463e a291 00be d953 3f3e
00000100: 2dd0 003e 8ee6 6fbd 6727 8c3c c463 35bc
00000110: 5527 14bd a3ad 5c3d 8752 41be f798 96bd
00000120: de7c 963d bd15 0ebe eba2 1dbe 89d6 9a3d
00000130: 32f8 37be 8e8b 623e edec 543e 5cf6 7ebe
00000140: c490 8d3e fcd4 57be 5bc2 ef3d 3b6e 703e
00000150: 237c 7a3e 34a8 2f3e 35af 8f3e a825 963d
00000160: 0bb4 ed3d e2f0 bd3d b795 d8bd 0e28 a5bd
00000170: b71f fabd 1f72 5a3e 8404 ce3d d2dc 78bd
00000180: 4dea 1bbe 1bb1 af3c 0412 05be ae2a 3abe
00000190: 3d4a 73be 49e1 563e 6f45 813d a962 bebd
000001a0: 43c9 303e 6081 1fbe 9177 83bc a660 dbbc
000001b0: 3991 7bbe af11 5abe a436 61be 137e 48bd
000001c0: 3576 0abe 30d6 f7bd 61df 9d3d 3558 d9bc
000001d0: 4427 7b3e 6b75 fa3d f9f8 2d3e bdfa 653d
000001e0: 7228 31be 5f19 523d 9ff8 513e 1a5d 463d
000001f0: b066 3fbe 996d 34be 0789 51be 49b3 3ebe
00000200: e1b1 37be ddfe 07be b852 4d3e 7cce 9bbd
00000210: 97a2 8f3e af29 523e 78fb 963e 9523 13be
00000220: d0da a33e 0da0 f2bd bb9a 94bd 55c6 b13e
00000230: 6fa9 95be d757 01be aa02 4d3e a6ba 8bbe
00000240: 9bba 9d3d 9f83 a1bd 00ba bf3b cb05 96be
00000250: 1e6e 92bd 3114 293e a8ec c5bd a1d6 133e
00000260: ba9c 5abe d7ab 193d 8465 5cbe 61cd cfbd
00000270: 3ec5 843d 1c9b 85bd ee4d 3c3e 211e 0f3e
00000280: b6c2 163e 418f 323e ff61 6abe 4eb3 233e
00000290: dc62 18bd 314c ebbd ad27 2f3e adc7 86be
000002a0: d821 973e fbfc 483e 6e19 45be a1d0 4d3e
000002b0: f881 8ebd 311f b3bd 84f9 203d 6829 a33b
000002c0: 46df f13d 0b7a 08bd bc84 8fbe aa64 cebd
000002d0: 525b 30be 897c 873e ea14 21be 166f 8dbe
000002e0: a423 183d cb41 453e 51a4 76be f591 dcbc
000002f0: 2c17 613e 5bc8 da3d d99b 91be ef83 6ebb
00000300: ced1 433e b219 40be 2f3a 563c e495 503e
00000310: 4f66 873e 82c7 113e 13c3 f1bd b67e 833e
00000320: 2a1e d4bd 6d3d 4abd 7914 84be 6e99 8ebe
00000330: d614 093c 95df 593e e420 be3d ed36 073d
00000340: 9048 2abd ad76 3cbe ef5d 2d3e c32e c5bd
00000350: 520b 19be 191a 853e 1991 3dbe 08aa 833e
00000360: c1a1 873e 2428 89be dcb7 07be e19f 873d
00000370: 34a3 51be d15c e2bd e9ef 913e cee4 4dbe
00000380: 1969 9a3d 2c82 21be fa22 733e 5dce 703e
00000390: dfe5 7fbe 086a d23d f7e0 1f3e ca19 5fbe
000003a0: dc7e 823d d644 83be 502e 033e d642 733d
000003b0: d090 aa3d ed90 9d3d 95f0 2bbe 8cf8 0abe
000003c0: 1254 27bc c5d7 b63d c5b4 293e a5ce 6bbe
000003d0: 0272 733e a56c a13d b44b 36bd 19de d43d
000003e0: 27ac 7e3d 2161 903e cab4 a73d 442b ae3d
000003f0: e8ed 17be 3cb3 543e a92c 17bd 132c 1c3e
-0.2333642 0.0044240365 0.11911384 -0.22953339 -0.074715905 -0.11069486 0.043472383 0.2098165
-0.12159488 -0.06852438 0.24930325 0.08161339 -0.20992005 0.0369589 -0.16357727 -0.05043804
-0.1913108 0.19379665 0.032235507 -0.071383104 -0.03342106 0.058259293 -0.1923836 0.103345014
0.062198814 -0.18773766 -0.27059114 -0.17051503 -0.06782057 -0.24946165 0.019122984 -0.24048361
0.023682244 -0.13478214 -0.22020878 0.274443 0.15100864 0.028951438 0.19301268 0.13433573
0.2310519 -0.13442111 0.009075431 -0.1969305 0.098925985 0.21674743 0.029501373 0.17361015
-0.011258069 -0.011296326 0.108421855 -0.20800014 -0.253666 0.25453192 -0.09015111 0.0816586
0.05793532 -0.04983368 0.18445663 0.029922467 0.0096591385 0.19392975 -0.12555555 0.18684329
0.12579413 -0.058569483 0.017108632 -0.011071149 -0.036170322 0.05387653 -0.18879138 -0.073533945
0.07348035 -0.1387548 -0.1539418 0.075604506 -0.17965773 0.22123548 0.20793505 -0.24898666
0.2764951 -0.21077341 0.11706992 0.2347955 0.24461417 0.17154008 0.2806336 0.07331401
0.11606606 0.092744604 -0.10575431 -0.080642805 -0.122130804 0.21332596 0.10059455 -0.060757466
-0.15226097 0.021446755 -0.12995154 -0.18180344 -0.23758788 0.20984377 0.063120715 -0.09296162
0.17264275 -0.15576696 -0.016048225 -0.026779484 -0.24567117 -0.21295808 -0.219935 -0.04894836
-0.13521655 -0.121014 0.07708622 -0.026531318 0.24526697 0.12229427 0.16989507 0.056147326
-0.17300585 0.051293727 0.20504998 0.048428632 -0.18691516 -0.17619933 -0.20462428 -0.1862308
-0.17938949 -0.13280816 0.20051086 -0.07607743 0.28053734 0.20523714 0.2948873 -0.14369042
0.32002878 -0.118469335 -0.07256075 0.34721628 -0.2923083 -0.12631164 0.20020548 -0.2729084
0.07701608 -0.07886433 0.0058510303 -0.29301295 -0.071499094 0.16511609 -0.09664279 0.14437343
-0.21348849 0.037517395 -0.215231 -0.10146595 0.064829335 -0.065237254 0.18389103 0.13976337
0.14722714 0.1743746 -0.22888945 0.15986368 -0.037203655 -0.11489142 0.17104979 -0.26324216
0.29518008 0.19627754 -0.19247982 0.20099117 -0.06958383 -0.08746184 0.039300457 0.0049793012
0.11810164 -0.033319514 -0.28030956 -0.10077794 -0.17222336 0.264622 -0.15730634 -0.27623814
0.037143365 0.1926338 -0.24086119 -0.026925066 0.21981496 0.10682746 -0.28439215 -0.0036394557
0.19123003 -0.18759802 0.0130753955 0.20369679 0.26445243 0.14236262 -0.118047856 0.2568261
-0.10357316 -0.049374986 -0.2579687 -0.27851433 0.008366784 0.21276696 0.09283617 0.033011366
-0.041573107 -0.18404646 0.16930364 -0.0962806 -0.14945725 0.25996473 -0.18512382 0.2571566
0.26490596 -0.26788437 -0.1325373 0.06622291 -0.20472413 -0.110528596 0.2850335 -0.20106813
0.07539577 -0.15772313 0.23743811 0.23516221 -0.24990033 0.1027413 0.15613161 -0.21787181
0.06371853 -0.25638455 0.12810636 0.05938991 0.08328402 0.07693658 -0.16790994 -0.13571376
-0.010212915 0.089278735 0.16572864 -0.23028047 0.2377396 0.078820504 -0.04450579 0.10393924
0.062175896 0.28199103 0.0818878 0.08504346 -0.14836848 0.20771497 -0.036907826 0.15251188

nnECG.8.bias f4 [16]
00000000: f974 003c 2da3 5ebb 3263 353b 8bbf e23c
00000010: a587 c53c 1ada ccb9 072c ff3c 668f e5bb
00000020: 2314 0f3d 6e47 f83c 69b0 f43c f2ce 9dbc
00000030: 7570 a83c a7d7 8b3c bb3f 043d 4a96 11bc
0.007840388 -0.0033971772 0.0027677533 0.027679225 0.024112532 -0.0003907241 0.031148924 -0.00700562
0.034931313 0.030307498 0.029869275 -0.019263718 0.020561436 0.017070604 0.03228734 -0.008885929

nnECG.9.weight f4 [16]
00000000: 627a 7f3f 6930 7c3f b787 853f eca6 823f
00000010: 801b 8a3f 08e2 7f3f b38b 883f f2ef 7e3f
00000020: 5063 853f ba6f 7e3f 3e29 873f d917 7c3f
00000030: 9e58 8a3f 86b0 813f 845c 883f 2fab 843f
0.99796116 0.9851137 1.0432042 1.020719 1.0789642 0.9995427 1.0667633 0.9958488
1.0420933 0.9938923 1.0559461 0.9847389 1.0808294 1.0131996 1.0653234 1.0364741

nnECG.9.bias f4 [16]
00000000: effa f0ba 6daf fbbc 3b5f b9bc e51b 063d
00000010: 699d fb3c 762f 6ebc a122 0f3d 5cbb 91bc
00000020: 010d 1c3c 4afe 343c 4d99 ba3c a695 12bd
00000030: ab72 743a fa6d 133c 6249 a63c e05f 12bc
-0.0018385331 -0.030723298 -0.022628417 0.032741446 0.030714707 -0.014537683 0.034945134 -0.017789535
0.009524585 0.011046955 0.022778178 -0.035787247 0.0009324948 0.008998388 0.020298664 -0.008933991

nnECG.9.running_mean f4 [16]
00000000: dab9 3bbe 7aeb 61bd c07d c8ba 28d3 a23e
00000010: a17f dd3e fed6 1a3e b720 89be 1498 e93e
00000020: b2bc fcbe 290c afbe 2f54 0e3f e4ed e1be
00000030: 93be 49be ea46 363e 1512 03bd 6346 3f3f
-0.18332615 -0.05515621 -0.0015296265 0.31801724 0.43261436 0.15121076 -0.26782772 0.4562384
-0.49362713 -0.34188965 0.55597204 -0.4412681 -0.19701605 0.17800489 -0.031999666 0.74716777

nnECG.9.running_var f4 [16]
00000000: ba4a 9b3f aa38 b53f e555 d33f f16c c53f
00000010: 4a56 953f e6de c93f fe2b c73f 50a3 be3f
00000020: 9406 2240 c750 9b3f a941 cb3f 6b7c dd3f
00000030: 7a58 cb3f a453 b93f 7990 9d3f 2e5b f63f
1.213218 1.4157917 1.6510588 1.5423871 1.1666958 1.5771148 1.55603 1.4893589
2.5316515 1.2134026 1.5879413 1.7303594 1.5886376 1.447865 1.2309715 1.9246576

nnECG.12.weight f4 [4, 16]
00000000: a906 92be dc61 023f b184 d93e 6cbd caba
00000010: b61a e6be 1816 a03e deec a4bc f726 a53e
00000020: 8efd 97be c23c debd 7dda 9bbe 2a68 b83d
00000030: fd24 edbb 9cf2 863e dbe2 0dbf ebdb 72be
00000040: 18ab 9dbe 85f6 adbc d982 963d ff6a 883e
00000050: a55d 663e 6099 1bbf 4369 d7bd 784e f53e
00000060: 0548 813e d7d4 963e 7dbe 33be aa21 48bd
00000070: 1dd0 cf3e ee4d ca3e bde7 043d 3c6d aa3e
00000080: 16c2 08be 070e 823d e58d 2fbe 3c1d 19be
00000090: 9c6d f3be b396 813d 2db6 f93e 8035 a6be
000000a0: 916e ed3e cd13 813e 9758 32be c2ad 6ebe
000000b0: 3c02 08bf 44b0 103f b5c3 c6bc 3c82 0abf
000000c0: 99d3 943e d5ad f23c 5bf8 613e dc0d 09bf
000000d0: 8dd7 d63e f4ac ac3d 5902 fc3e b20e 10bf
000000e0: f2a6 9ebe 3522 a9bd 83eb 8abe 790c f4bd
000000f0: ccf1 253e 4a96 bdbe 05b2 3abe 3eea 8dbe
-0.28520706 0.5093057 0.42484048 -0.0015467829 -0.44942254 0.31266856 -0.020132478 0.3225629
-0.29685634 -0.108514324 -0.3044013 0.09004243 -0.0072370754 0.2635697 -0.5542428 -0.23716705
-0.30794597 -0.021235714 0.07349176 0.26644132 0.2249666 -0.60780907 -0.10518124 0.4791143
0.2525026 0.2945926 -0.17553134 -0.04886023 0.40588465 0.3951258 0.032447565 0.33286464
-0.13355288 0.06350332 -0.17143972 -0.14952558 -0.47544563 0.06327572 0.48771802 -0.32462692
0.46373418 0.2521042 -0.17416607 -0.23308471 -0.5312841 0.5651896 -0.024263242 -0.5410497
0.29067686 0.029623905 0.22067396 -0.5353677 0.41961327 0.08431426 0.4922054 -0.56272423
-0.30986744 -0.082584776 -0.27132806 -0.119164415 0.1620552 -0.37028724 -0.18231972 -0.27717775

nnECG.12.bias f4 [4]
00000000: b889 46bc 6150 523c 41a8 393d 3b03 703c
-0.012117796 0.012836547 0.045326475 0.014649208

nnECG.13.weight f4 [4]
00000000: 8214 7f3f fb8d 813f 9c26 863f 4995 863f
0.9964067 1.0121454 1.0480533 1.0514308

nnECG.13.bias f4 [4]
00000000: 4973 c3bc 8bd1 cabb da20 fb3c 75ee 1bbc
-0.023858683 -0.0061895302 0.030655313 -0.009517302

nnECG.13.running_mean f4 [4]
00000000: 384d 90bd a414 ea3e e743 76be d458 71be
-0.07045978 0.45718873 -0.2404934 -0.23569041

nnECG.13.running_var f4 [4]
00000000: 4f0e ae3f 5293 bc3f 1984 c63f cf08 9e3f
1.3598117 1.4732459 1.5509063 1.2346438

nnECG.16.weight f4 [1, 4]
00000000: 7476 633f e639 c23e ecef abbe a4d4 2d3f
0.8885262 0.37934798 -0.33581483 0.6790259
