Models/net_3_2_epoch_86.pth (torch, 57997 bytes, 25 tensors)

nnECG.0.weight f4 [128, 12]
00000000: d4e4 75be 5606 dcbc d7d7 54bd b424 d2bd
00000010: f5f3 963e 8e98 d0bd 36ef 80bd 3ee0 333e
00000020: e185 1abe 8c8e 5f3e 5902 253d 32f0 16bc
00000030: 52cd 0fbd 4622 34be ec26 49be a77d aa3d
00000040: 88aa aabe b8dc 6fbe 12ec 5abc 158f 423c
00000050: db37 6a3e 6fcb 0cbe a72d 093e 4e3f b9bd
00000060: 6251 89bd 6a63 79bd 9fa8 babc 2b5a 20be
00000070: a866 d23d c02b 953d 437c 593e f2f8 433e
00000080: 12f3 6dbd c9f0 5abe 5319 2f3e aac2 11be
00000090: e3d1 733c 49b2 f6bd f7cd a33d cfd7 2dbe
000000a0: e626 233d 1896 413e d8ec 433e 3b2e 563e
000000b0: 3abd 4b3d 233b cabd 140c 6cbd 4950 a63d
000000c0: ece7 90be bca5 ab3d 6b53 673e b28e cabb
000000d0: 26eb 873e 74db 3c3d dbc0 62be 5e48 2abe
000000e0: cbad 8fbd d95d 703d b919 b3bd 709f de3d
000000f0: 05de 04be d186 49be 49a7 dabd 0d29 7c3e
00000100: 1e90 8b3e bcd1 153e fd07 7dbe a5af eb3d
00000110: 8c10 14be 9cb5 8fbc 6fee 093e f28c 213e
00000120: 3480 843d 407b 303e 1f51 cb3d db77 183e
00000130: 9791 2b3d 7844 073d dc40 f7bd 0123 0cbe
00000140: 8290 353e 7390 2ebe 813e a4bd 277b 5d3e
00000150: a535 933d fb1e 3a3d 13bb 14be 5a45 783c
00000160: 7eed 893e afba 4a3d 12c4 0abe 3172 adbd
00000170: df98 fa3c 2fb6 4c3e 3378 083e 0beb 543d
00000180: 20bb 63be a974 a13d bb95 3ebe 8d19 d93d
00000190: 5cab dabc 4adb f1bc 6c22 5d3e c04b e6bd
000001a0: 0cb5 a3bd 44d1 8abc 5af6 753d 7c29 003e
000001b0: 77a4 71be 51fd 66be bb27 423d caf3 05be
000001c0: 399d 853e b35a 91bd 0740 53bd 4250 363e
000001d0: 635a 123d 7c27 7c3e b0a6 b93d e1d8 42bd
000001e0: 3410 763e 8832 283d b52c 89bd 0a1c 673d
000001f0: b7d0 06bd 42ab 383e 86bb e93d 5c9e 633e
00000200: 270c 043e 990c 9a3d 65e9 023d 99f0 86bd
00000210: 5e7d 85bd 99d0 ff3b aecf 35be a5d8 9abc
00000220: 66dc b43d cea1 debc fa86 b8bd 6fb3 003d
00000230: 2a81 bfbd 997c 4f3e 00b3 7a3d 077b eb3d
00000240: bc93 da3c f3f9 81bd d737 c6bd 20f5 3f3d
00000250: 4f02 00be 363d 69ba 1d5c 48be ce42 c33d
00000260: 8905 393d b2c1 803e 3567 ccbd 08fc 543d
00000270: 37e4 173e efd4 5c3e 4b3f be3d 391e 88bd
00000280: b232 173e f36b 0dbd e70a 8bbd 1501 a73d
00000290: bfbb 5ebe c153 253d 806b 143e 1cd6 d93d
000002a0: 646c 1f3c 9828 d13d 6f24 1c3e ee27 503c
000002b0: 7c62 83be 12bc 073e aced 9fbc 3877 cebd
000002c0: ac3b 413e 04a7 38be fb3e a33d d416 953d
000002d0: f7a8 043e b301 3b3d 7727 ac3d cab0 eabb
000002e0: 61a3 d1bd 8687 b8bc 0194 9b3d a600 fabc
000002f0: 231b f0bd 3d2b 553e cc7f 5f3e 6853 95bd
00000300: 61fc a5bd 9ce1 013e 8828 61be d7d3 923c
00000310: bb8e b73d 10b1 71be 1568 00bd 32a9 46be
00000320: 5ce3 333d af5b 04be b6ab 1ebd 2c6c 243e
00000330: d1c2 d7bd 5ac0 583e b485 febc 14ed bc3c
00000340: e227 12be a145 893d 634d 45be 7733 20bd
00000350: 1373 54bd 2be9 d0bd 651a a03d 628d 3fbe
00000360: 9825 4f3e 329e 10be 1cec 73be 6396 c5bd
00000370: fae9 d23c 22ac 483d 1d94 0dbe ae96 7ebe
00000380: 08b9 e8bd 5848 883c 91d1 3ebe f145 0e3e
00000390: 746b 4e3d 7541 2bbe d861 d2bb 89e2 db3d
000003a0: ee2f 8dbe 6536 78be 0af7 453e 6ef8 3cbd
000003b0: a8fc 5d3e b4ea c4bc f165 d03d fd21 87bd
000003c0: fbb3 9d3c 8a20 eb3d 9d57 5b3e 98c4 6e3c
000003d0: 5ae9 933d 1ae7 143d 22e1 9cbd 78ca 123d
000003e0: 453f 1b3e d199 74bd 8764 1cbe e079 243e
000003f0: c624 123e 659a 003e f9b1 ebbd f6f6 023d
-0.24013072 -0.02685849 -0.051963653 -0.10260907 0.29483 -0.101853475 -0.06295626 0.1756601
-0.15090133 0.21831721 0.040285442 -0.00921254 -0.035107918 -0.175912 -0.19643754 0.083247475
-0.3333323 -0.23424041 -0.013361948 0.011874934 0.2287287 -0.13749479 0.13396321 -0.090452775
-0.06704976 -0.060885824 -0.022785483 -0.15659396 0.102734864 0.07283735 0.21238808 0.19137934
-0.058093138 -0.21380915 0.17099504 -0.14234415 0.014881584 -0.12045724 0.07998269 -0.16976856
0.03983202 0.18904912 0.19133317 0.20916073 0.049741007 -0.09874561 -0.057628706 0.08120782
-0.28301942 0.08381221 0.22590415 -0.0061815614 0.26546592 0.046107724 -0.22143881 -0.16629168
-0.0701557 0.05868325 -0.087451406 0.10870254 -0.12975319 -0.19680335 -0.10676438 0.24625035
0.2725839 0.14630789 -0.24710079 0.11508111 -0.14459437 -0.017542653 0.13469861 0.15776423
0.06469765 0.17234516 0.09927582 0.14889471 0.041886892 0.03302428 -0.12072918 -0.13685228
0.17730907 -0.1704729 -0.08019734 0.2162901 0.07187966 0.0454397 -0.14524488 0.015153253
0.26939005 0.04949444 -0.13551357 -0.08469046 0.030590473 0.19991373 0.13327102 0.051981967
-0.22239351 0.07883579 -0.18611805 0.106005765 -0.026693039 -0.02952351 0.21595162 -0.11244917
-0.07993516 -0.016945489 0.060049392 0.12515825 -0.23597895 -0.2255757 0.04740117 -0.1308128
0.26096514 -0.07097378 -0.051574733 0.17804053 0.03573073 0.24624437 0.09064996 -0.047570113
0.24029619 0.041063815 -0.0669798 0.056423225 -0.03291389 0.1803408 0.114127204 0.22228378
0.12895261 0.07521934 0.031960864 -0.06588859 -0.065180525 0.007806849 -0.17755005 -0.018902132
0.088311 -0.027176764 -0.0901012 0.03142112 -0.09350808 0.20262374 0.061205864 0.11498075
0.026681773 -0.06346502 -0.09678619 0.04686463 -0.1250088 -0.0008897366 -0.19566388 0.09534226
0.045171294 0.25147778 -0.09980623 0.05199817 0.14833151 0.21565603 0.09289416 -0.066463895
0.14765432 -0.034526777 -0.06789189 0.08154503 -0.21751307 0.040363077 0.14494133 0.10636541
0.009730432 0.10212821 0.15248273 0.0127048325 -0.25661075 0.13255337 -0.01952251 -0.10081333
0.1887042 -0.18032461 0.07970997 0.07279745 0.1295508 0.045655917 0.08405965 -0.007162188
-0.1023624 -0.02252556 0.07596589 -0.030517887 -0.11723926 0.20817275 0.21826094 -0.07291299
-0.08104778 0.1268372 -0.21988118 0.017923279 0.089627706 -0.236027 -0.03134926 -0.1940048
0.043918 -0.129256 -0.038737975 0.1605689 -0.10535205 0.21167126 -0.031069614 0.023062266
-0.14273027 0.06702734 -0.19267802 -0.03911158 -0.051867556 -0.10200723 0.07817534 -0.18706277
0.20229185 -0.14122847 -0.23820537 -0.096478246 0.025746334 0.048992284 -0.13826032 -0.24862167
-0.11363417 0.016636059 -0.1863463 0.13893868 0.050395444 -0.16724189 -0.0064203553 0.107365675
-0.2757563 -0.242395 0.19332519 -0.04613536 0.21678412 -0.024037696 0.10175694 -0.065982796
0.01925086 0.11480816 0.2142014 0.014573239 0.07222243 0.036353208 -0.07660128 0.03583762
0.15160854 -0.059717003 -0.15272723 0.16062117 0.1427184 0.12558897 -0.11508555 0.0319738

nnECG.0.bias f4 [128]
00000000: 986e df3c 50e9 5a3c b9de d93a 5f4e 61bc
00000010: b5c4 a73c 5876 853c cad6 5d3b 3cc0 f23b
00000020: 4a74 043d aecd a43c a6e6 f1bc 1767 143c
00000030: 389c 08bb 015c eeba de89 51bc e5ef 543b
00000040: add7 1e3d 526f 493c 350f 8f3c 9008 20bb
00000050: 9691 8abc e7b0 6c3c ef4c ab3c e737 0f3c
00000060: 0d74 d83c 8600 16bb ce0a ca3b 060b 1c3c
00000070: 1595 80bb c42c 2bbc 30d3 993c 9921 883c
00000080: e45d 2a3b 5f23 e33c bf1c cd3c 29df 1f39
00000090: b7fa 8a3b d513 22bb 02c9 953c 5905 12ba
000000a0: c745 423c 27c2 853c 2f0d 863b 1d29 ed39
000000b0: d43a 283c 0061 f23c 0c6c 9d3c e728 dc3a
000000c0: 68cd c23a 9bbd 27bb 3caf 8bbb 060b 043d
000000d0: 96b9 9ebb 2158 a73c ef01 bb3b 4ee3 c0bc
000000e0: d26b e03c 798b 723b 0e18 193c 89ea ccbb
000000f0: 6ae7 8b3c cad9 b9bc 918f 103b 3505 a33b
00000100: d9af b83c 4dfb 71bb a869 883a 6ab2 983c
00000110: a62c ab3b 5c6a b43b f9e5 783c 98c5 34bc
00000120: fa3e c93c cbad 693c aaf3 f63a 0861 f93a
00000130: 01be 133c fe90 753c 4886 6f3c da2f 55bc
00000140: 051a 6a3c a306 f23c 4b10 02bb 5566 3cb9
00000150: 04ed ab3c 4511 36bc 2aa4 833c 781b b93b
00000160: 837b 0ebb 59ac c1bb f5e2 923c e11d 9b3c
00000170: 637f b43c 4aa9 c73c 4328 1e3c cf69 d33c
00000180: 7d86 11bc 77de 4bbc 48cb c23c 45a0 c23c
00000190: 5af4 fbba 357a 3dbc 36ff be3c f103 163c
000001a0: a8fb f4bb d492 8d3c 3f7e 71ba a228 013b
000001b0: e031 df3a 8453 ed3c e423 a73c ad36 373c
000001c0: 1454 423c 80cf 913b 0508 1f3d a766 2abc
000001d0: 6f97 4b3c ffa2 9abc e95f 9c3b 98f2 4d3c
000001e0: 8c07 893c f071 723c b7f9 9cbb 2fcb ee3c
000001f0: bb8a 1fbc 3be3 a2ba 8785 bc3c c862 5a3c
0.027274415 0.01336129 0.0016622163 -0.013751595 0.02047954 0.016291782 0.0033849948 0.00740817
0.032337464 0.020117607 -0.029528927 0.009057782 -0.0020845067 -0.0018185378 -0.012789218 0.003249162
0.038779903 0.012294607 0.017463306 -0.0024419166 -0.016915124 0.014446474 0.020910708 0.0087413555
0.026422525 -0.0022888496 0.006165839 0.009524113 -0.003924022 -0.010447685 0.01877746 0.016617583
0.0025995905 0.027726827 0.025038121 0.00015246555 0.0042413133 -0.002473106 0.018284325 -0.0005570255
0.0118574565 0.01632793 0.004090927 0.00045234794 0.010267932 0.029587269 0.01921656 0.0016796858
0.0014862241 -0.0025595191 -0.004262833 0.032237075 -0.004843901 0.020427765 0.0057070176 -0.023545887
0.027395163 0.0037009402 0.009344114 -0.0062535447 0.01707812 -0.022686858 0.0022058228 0.004974986
0.022544788 -0.0036923469 0.0010407465 0.018639762 0.0052238284 0.005505843 0.0151915485 -0.011033438
0.024566162 0.014262627 0.0018840928 0.001902611 0.009017468 0.014988182 0.0146194175 -0.013011897
0.01428843 0.02954418 -0.0019846137 -0.00017967199 0.020987041 -0.011112516 0.01606949 0.0056490265
-0.00217411 -0.005910438 0.017930487 0.018935146 0.022033399 0.024372716 0.009653154 0.02580729
-0.008882162 -0.0124431765 0.023778573 0.023758063 -0.0019222603 -0.011564781 0.023315053 0.009156213
-0.007476289 0.017281927 -0.00092122325 0.0019708057 0.0017028414 0.028970487 0.020402856 0.011182469
0.011860866 0.0044497848 0.038826007 -0.010400451 0.012426241 -0.01887655 0.0047721756 0.012570046
0.016727231 0.014797673 -0.0047905105 0.02914962 -0.009737666 -0.0012427339 0.02301289 0.013329215

nnECG.1.weight f4 [128]
00000000: 979d 7d3f e35b 853f d55d 653f 230e 8c3f
00000010: d3da 8b3f e274 8b3f acb0 833f d2f9 8a3f
00000020: f192 863f 5504 823f 067f 993f 0847 823f
00000030: af34 843f 829b 853f 3402 943f f96c 883f
00000040: b7c6 893f 1d12 823f b566 873f 7a74 853f
00000050: ff8d 983f 3b14 843f ddf8 963f a42c 833f
00000060: 5e4a 823f 6892 823f a6ed 803f d5ae 763f
00000070: 8e6c 8b3f 55f4 8f3f 8be3 933f 2b76 883f
00000080: 10a4 883f 0b82 853f 6510 933f ce47 7e3f
00000090: 09b4 813f 7a58 853f 7760 7f3f e432 813f
000000a0: b1ee 903f 6b55 643f 2cb0 893f 97af 793f
000000b0: 5250 903f 8f10 983f 6731 883f 460d 853f
000000c0: 953b 763f 244f 893f 004b 833f adaa 8b3f
000000d0: 2e78 953f ab4d 8c3f 9d30 883f 4a1c a93f
000000e0: 4481 883f 5e69 7c3f 1a2f 913f 38a5 883f
000000f0: b190 713f f1b8 883f dbe6 8a3f 05b1 803f
00000100: 5378 963f 199f 813f df1a 993f db01 863f
00000110: c5ae 863f 6f7a 893f e22d 783f 8d58 7b3f
00000120: dab4 8b3f b366 7e3f 0491 863f a826 903f
00000130: bf47 803f 571f 833f 5889 813f 2e72 923f
00000140: 1316 8c3f d48f 863f cbf3 823f a7fb 803f
00000150: 03a8 833f 8587 813f 9d50 673f 3e8e 843f
00000160: 9cb3 7d3f d21b 853f 7b5a 743f 22fd 903f
00000170: 8eba 903f c5c3 7d3f c5a7 863f 468c 853f
00000180: 77ab 913f c055 a53f 219a 883f 122e 973f
00000190: 4fa5 7d3f 1bbd 9d3f 116b 873f 7887 893f
000001a0: fb11 933f 53b5 863f a640 853f 87a6 813f
000001b0: 671a 873f d5af 893f 5fa4 8b3f de12 823f
000001c0: 3cf8 813f 3768 893f d1a7 943f c06c 8a3f
000001d0: db57 843f 56f7 8b3f d61d 783f ecab 8b3f
000001e0: 3388 8a3f fd4c 8f3f 78e1 7d3f 4289 873f
000001f0: 4589 863f 5bab 723f ad18 903f 3141 7c3f
0.9906859 1.0418667 0.895963 1.0941814 1.0926155 1.0895045 1.0288291 1.0857489
1.0513593 1.0157572 1.199189 1.0177927 1.0328578 1.0438082 1.1563172 1.0658256
1.0763768 1.0161778 1.0578219 1.0426171 1.1918334 1.0318674 1.1794697 1.0247998
1.0178945 1.020093 1.0072525 0.9636052 1.0892503 1.1246439 1.1553816 1.0661062
1.0675068 1.0430311 1.1489378 0.99328315 1.0133067 1.0417626 0.9975657 1.0093656
1.1322843 0.8919284 1.0756888 0.97533554 1.1274512 1.1880053 1.0640076 1.0394676
0.96184665 1.0727277 1.0257263 1.0911461 1.1677301 1.0961202 1.0639836 1.3211758
1.0664449 0.9859828 1.1342499 1.0675421 0.94361407 1.068144 1.0851701 1.0054022
1.175547 1.0126678 1.1961325 1.0469316 1.0522085 1.0740489 0.9694501 0.9818199
1.0914567 0.99375457 1.0513005 1.1261797 1.0021895 1.0243939 1.0120039 1.1441095
1.0944237 1.0512643 1.023065 1.0076798 1.0285648 1.0119482 0.9035738 1.0355909
0.9910219 1.0399115 0.9545056 1.132725 1.1306932 0.99126846 1.0519949 1.0433433
1.1380452 1.2916794 1.0672036 1.1810935 0.99080366 1.2323335 1.0579549 1.0744467
1.1489862 1.0524086 1.0410354 1.0128945 1.0554932 1.0756785 1.0909537 1.0162008
1.015388 1.0734929 1.1613714 1.0814438 1.0339311 1.0934856 0.96920526 1.0911841
1.0822815 1.119537 0.99172163 1.0588763 1.0510641 0.9479272 1.125753 0.98536974

nnECG.1.bias f4 [128]
00000000: b0ca 3f3c 3f5b 723b 0ead 5dbc d4d8 b7bc
00000010: e06f 483c 047e 953c 7646 5ebb eb88 a03b
00000020: cdbc 783c d28b b83b af13 07bd 3e19 bdba
00000030: 3a6c 30bc d54e 18bc 1878 88bc 72d6 3fbc
00000040: 1bee 133d d8e5 b3bb 673a 943b cf08 3abc
00000050: ff75 a6bc c8ac b13b fd34 8d3c 182b 923b
00000060: 86ad b33c 4cd6 3ebc eee4 a5bc 697b bcba
00000070: 52a1 2fbc 4237 a4bc ae9a 8f3c 6b51 1f3c
00000080: a3af 3ebc 0a27 923c 0e66 b73c 3d39 8fbc
00000090: 6c39 a7bb 4dc6 f7bb 82c7 763c 5fca 24bc
000000a0: c131 0d3b 50bb 923c e1d7 dab9 3465 48bc
000000b0: 290f 20bc d101 cb3b eda3 333c 3091 93bc
000000c0: 960f 54bb d991 8ebc 7846 0fbc c394 033d
000000d0: 90f6 c4bb c9b5 653c c0c6 00ba 658b a3bc
000000e0: fbb5 673c 4029 d83b a3ce 89bb b03a 86bc
000000f0: bdf0 093b c399 c7bc decc 29bb 64b3 c4bb
00000100: 5635 ca3c bc86 67bc ce2f 7bbb f35a 8c3c
00000110: eec0 983a a996 a03a c0f6 613c 0e52 a3bc
00000120: cd6e 893c 53df c53b b93f 933a 797a 133c
00000130: b073 f63b 9faa daba 6f88 d2bb e865 17bc
00000140: 7575 bdb9 e24b c33c b457 b8ba 915a 8dbc
00000150: fa44 033c 4411 17bc 6762 a23b 3e81 d83b
00000160: c56e 80bc 727c f1bc d7e2 093c 9b27 b23c
00000170: dd9b db3b eb9d 503c a90c c33b a69a 433c
00000180: 794a e2bc 6ee1 6fbc 2751 293c a26b d93b
00000190: 94c3 b9bb 8009 a0bc 191d a53c d50d 213c
000001a0: 180c 5cbc a89d 7aba 9001 22bc a3ff 37bb
000001b0: e2f8 43bc 0047 d73c 8ec8 e6ba 293c 28bc
000001c0: 0a58 5d3b 6f64 15bb 7728 3e3c 4b00 bfbc
000001d0: bf52 4e3b 9dc3 dcbc b4b2 f23b 6a27 63bb
000001e0: dfa3 1f3c 3be3 6d3b ea0c c4bb ac11 6c3c
000001f0: d52e e6bc b915 74bc d5c0 483c 14fd 1c3b
0.011706039 0.0036980656 -0.013530029 -0.022442259 0.012233704 0.018248565 -0.003391651 0.0048991344
0.015181732 0.0056319023 -0.032977756 -0.0014427078 -0.010767991 -0.009296139 -0.016658828 -0.011708843
0.036115747 -0.005490046 0.0045235637 -0.011354639 -0.020319937 0.0054222085 0.01723718 0.0044607036
0.021933328 -0.011647772 -0.020250764 -0.0014380041 -0.010719614 -0.02004588 0.017529812 0.009724001
-0.011638555 0.01784088 0.02238753 -0.017483348 -0.005103281 -0.007561481 0.015062215 -0.010058015
0.0021544548 0.017911583 -0.00041741043 -0.01223116 -0.009769239 0.006195285 0.010964376 -0.018013567
-0.0032357923 -0.01740353 -0.008744828 0.032124292 -0.006010838 0.014020392 -0.00049124286 -0.01996393
0.014142509 0.0065967143 -0.004205541 -0.016385406 0.0021048032 -0.024365311 -0.0025909464 -0.0060028303
0.024683636 -0.014131244 -0.0038328054 0.017133212 0.0011654177 0.0012251931 0.01379174 -0.019936588
0.016776467 0.006038585 0.0011234201 0.009001368 0.0075211152 -0.0016682929 -0.0064249556 -0.009240605
-0.00036136401 0.023839895 -0.0014064224 -0.0172551 0.008012051 -0.009220425 0.004955578 0.0066072037
-0.015677819 -0.029478285 0.008415899 0.021747401 0.00670193 0.012732963 0.005952437 0.0119387265
-0.027623402 -0.014641149 0.01033429 0.0066351453 -0.0056690667 -0.01953578 0.020155476 0.009829958
-0.013430618 -0.0009560236 -0.009888068 -0.0028075955 -0.011961194 0.026278973 -0.0017607377 -0.01026825
0.00337744 -0.0022795459 0.011606327 -0.02331557 0.0031482426 -0.026948744 0.007406557 -0.0034660944
0.00974366 0.003629877 -0.005982985 0.01440851 -0.028098503 -0.014897757 0.012253006 0.0023954557

nnECG.1.running_mean f4 [128]
00000000: 5593 0abe f5f0 713c 44f5 6e3e ea8e c93e
00000010: c4c1 f2be 7875 8cbe 27c9 c9bd 0e7c 593e
00000020: 73cb 14be 3c5a f13d ff80 3f3f 60d1 84bd
00000030: 5482 f93c c2f4 353e cb1e 673e 6641 043f
00000040: 545f 02bf f059 88be 9b2d b8be 7ca5 c53e
00000050: 5d12 b13d 56fa 57be 074e 56be aaba de3e
00000060: 78f2 6e3c a461 cd3d 5bcb 7e3e 2543 99bb
00000070: d7ca e33d a022 9a3d 8e94 8ebe c6ff 16bd
00000080: 2c6a 25be 73cf f9be 0dbd c7be da80 ccbd
00000090: f357 d2bd d775 2b3e c3ad d53c d88a 863e
000000a0: d59e 8b3e 27ce 02be bbc2 b53e 896c ef3d
000000b0: dd61 913d 56a8 803d c2df 0a3e a5f0 113e
000000c0: 2c09 12be 07d0 963e ab8d 5a3e af8e d5be
000000d0: fe49 76be cfd4 093e f4b7 a13e 8c90 18bd
000000e0: 0c2e cabe 0129 cbbd 4bbb c1bd be57 2f3e
000000f0: a593 d53e 4dd3 7c3e 16f0 353e 95e1 b63d
00000100: 8040 6abe 7428 01bc 3f4c 6bbe 6854 45bd
00000110: 0d64 73bc 15a1 653d 8d9d a4be 1037 873e
00000120: f7d6 843d e562 00be 5bc2 f93e d167 ca3d
00000130: 60a2 0b3e babb aa3c fcc6 c2be 11c5 fa3e
00000140: 4ba0 a9be 96f4 173d 9e2a 0fbc 9009 403e
00000150: 2b2a 86be 15a2 f3bd 5531 713e 4d63 f83e
00000160: b5b8 b43e 6fd3 81bd da3a 11bd 5ca7 6cbe
00000170: a604 86be 96d8 9cbe fafa c3bc 4d3a b13e
00000180: d643 613e 7583 e13e bc9c f5bb f0cd 06be
00000190: f7d9 003c 02be 85bd f87a 2abc 1676 0fbe
000001a0: 48e0 393d 8129 4c3d b6e8 563e a897 523e
000001b0: 1251 943e b618 ecbe dd24 313e 78ed 243e
000001c0: c3b0 3e3e e7ff 24be 6786 eebe 6716 913d
000001d0: 5dc9 a2be 1ffe f13e dd0f 913e 9f39 a63e
000001e0: 95a5 e83e 748d d23d 6904 85be c0c3 b2be
000001f0: 61cd 2a3e a9eb 09be e6ec f3bc 3dec 0cbc
-0.13532765 0.014766921 0.23335749 0.39366847 -0.47413456 -0.27433372 -0.0985282 0.2123873
-0.14530735 0.11784789 0.7480621 -0.064852476 0.030457653 0.17769149 0.2257034 0.5166229
-0.5092671 -0.26631117 -0.35972294 0.38602817 0.08646081 -0.2109159 -0.20928203 0.43501788
0.014584176 0.10028389 0.24882261 -0.0046771937 0.11122673 0.075261354 -0.27847713 -0.03686502
-0.16153783 -0.48791084 -0.39011422 -0.09985514 -0.10270681 0.16744171 0.026083833 0.26277804
0.27269617 -0.12773953 0.3550013 0.11690623 0.07098744 0.062821075 0.1356192 0.14251955
-0.14261311 0.29455587 0.21343105 -0.4171042 -0.24051663 0.13460086 0.31585658 -0.037247226
-0.39488256 -0.0991993 -0.094595514 0.17123315 0.41714206 0.2468998 0.17767367 0.08929745
-0.22876167 -0.00788318 -0.22978304 -0.0481762 -0.014855397 0.056061823 -0.32151452 0.26409197
0.06486314 -0.12537725 0.48781094 0.09883083 0.1363616 0.020841468 -0.38042438 0.48978475
-0.33130106 0.03709849 -0.008738188 0.18753648 -0.26204047 -0.11896149 0.23553975 0.4851326
0.3529717 -0.06339156 -0.035456516 -0.23110718 -0.2617542 -0.30633992 -0.023923386 0.34614792
0.21998534 0.44045606 -0.007495491 -0.13164496 0.007864467 -0.06530382 -0.010405295 -0.1400989
0.045379907 0.04984427 0.2098721 0.20565665 0.28968102 -0.46112603 0.17299218 0.16106212
0.18622117 -0.16113244 -0.46586916 0.07084351 -0.31794253 0.47264192 0.28332415 0.32465836
0.4543883 0.10280886 -0.25979927 -0.3491497 0.16679908 -0.13468803 -0.029776048 -0.0086012455

nnECG.1.running_var f4 [128]
00000000: 1d0e 953d 3820 983d 3341 9a3d 6f80 a03d
00000010: fdbd 953d 5279 953d 5d54 953d 20d0 983d
00000020: 7e46 983d 9a2c 963d c435 9c3d 676e 973d
00000030: f7cb 933d ba62 9c3d 1926 963d 9bed 973d
00000040: f61f 9d3d 0937 943d 7ea5 9b3d bd35 963d
00000050: 6487 983d ca92 983d 6936 963d fbd7 963d
00000060: 503b 953d d55b 953d d6af 953d 7096 953d
00000070: bcb4 953d efe6 943d 4adb 973d 242d 993d
00000080: 5352 973d 2e61 973d 3e37 943d e645 993d
00000090: 8c78 943d 99c5 973d 8fd7 943d cc5b 963d
000000a0: 18e6 993d 2afc 953d e02b a03d bbb3 a53d
000000b0: ac23 943d 2735 9b3d e4d3 9a3d b478 9c3d
000000c0: bd38 963d fb66 a73d 6be3 983d b487 963d
000000d0: 8983 963d 90f1 a23d c3a4 973d 2014 963d
000000e0: a2c5 953d 622f 933d 0fd4 9b3d 9cff 953d
000000f0: 0d9d 993d 445a 973d 1464 9a3d 6a9f 983d
00000100: bef7 943d 84c4 973d dbe6 953d 658d 943d
00000110: 5abc 943d 9ded 983d 2551 983d 29a5 963d
00000120: c821 993d 4d34 973d e013 983d 8dfe 9a3d
00000130: 3ea5 933d 1a77 943d 6367 9c3d c87a 9e3d
00000140: 4dc9 993d 55ee 9b3d fadd 9a3d c6e4 993d
00000150: 2ec8 953d ee51 a33d 7ea3 943d 6da6 973d
00000160: 2a80 9e3d 4c1f 973d 3123 963d 0dba 973d
00000170: 9832 973d aae2 9b3d 0122 9b3d 3af5 983d
00000180: 43bf 973d 6367 9b3d c6fa 9a3d d065 9a3d
00000190: 0ae3 953d 2c9c 953d 4907 963d e30c 953d
000001a0: 984f 973d 7d1c 9a3d ba3a 953d 7207 9e3d
000001b0: 7b35 953d 8f32 943d d373 9d3d 2f36 953d
000001c0: 3f6b 963d 12b2 9b3d 1006 9b3d 4e42 9e3d
000001d0: 34c7 a53d 8d52 953d 0b1d 9f3d 0951 983d
000001e0: 7e4d 953d 8384 953d 7c1d 963d de4d 993d
000001f0: e2b4 963d 4b08 963d 1b4f 953d a4d6 973d
0.072780825 0.0742802 0.07531967 0.07836997 0.07311628 0.07298531 0.07291482 0.07461572
0.0743532 0.07332726 0.076274425 0.073941045 0.072166376 0.07636018 0.07331485 0.074183665
0.07672112 0.072370596 0.075999245 0.073344685 0.07447699 0.07449873 0.07334597 0.07365414
0.072867036 0.07292906 0.07308929 0.07304084 0.07309863 0.072706096 0.07414873 0.07479313
0.07388749 0.073915824 0.07237099 0.07484035 0.07249555 0.07410736 0.07267677 0.073417276
0.0751459 0.07323487 0.078208685 0.080909215 0.07233366 0.075784974 0.07559946 0.0764021
0.07335041 0.08173939 0.074652515 0.07350102 0.07349307 0.07956231 0.07404473 0.07328057
0.07313086 0.07186772 0.07608806 0.07324144 0.07500658 0.07390264 0.0753862 0.07452281
0.072738156 0.07410529 0.07319423 0.07253531 0.07262488 0.07467196 0.07437352 0.073557205
0.074771464 0.073830225 0.07425666 0.07568083 0.07209252 0.07249279 0.07636907 0.077382624
0.07509098 0.076138176 0.0756187 0.07514338 0.07313572 0.07974611 0.07257746 0.0740479
0.07739289 0.07379016 0.07330931 0.07408533 0.07382697 0.07611592 0.07574845 0.07468648
0.07409527 0.07588079 0.075673625 0.075389504 0.07318695 0.07305178 0.07325608 0.072778486
0.07388228 0.07524965 0.07286592 0.07716264 0.07285591 0.07236206 0.07688107 0.07285725
0.07344674 0.076023236 0.07569516 0.0772749 0.080946356 0.07291136 0.077692114 0.07437331
0.07290171 0.07300665 0.073298424 0.07485555 0.073587194 0.073258005 0.07290479 0.07413986

nnECG.4.weight f4 [64, 128]
00000000: 2062 64be 15de c0bd 64c3 993d db1d 403e
00000010: 1693 3fbd 3e07 8cbe a9fc 223e 5beb a6bd
00000020: 827d dbbd c262 f0bd 8b5e 683d 9061 0c3d
00000030: fbda c7bd 53c4 e3bd 7db6 9a3b ea6a a1bd
00000040: d9b8 9fbd 1cf5 b7bd 02a0 f5bd dc82 96bd
00000050: ee51 203e 2505 1c3d 20d8 91bc d885 183d
00000060: 7eeb 96bc 31bf 0f3d ae7a 83bd 3eb8 90bc
00000070: 103e a93d 92fb 933c 09c8 02be 9b21 c13c
00000080: b23d 32be 1bd2 d73d d2e2 ed3c e3f2 06be
00000090: 9665 c63d 8e31 0dbd b21b 413e 53f2 533d
000000a0: 1f8b d3bd 1d4f 79bd 8f53 8d3c 9fe1 7f3c
000000b0: 7199 5bbd 9f81 643e a6bf 063d 0713 afbc
000000c0: b02b b03c 67f7 93bd 18b8 c7bd 4709 4bbc
000000d0: 76f5 903c 7505 c03c 03d2 dc3d 52c1 9c3d
000000e0: 77db 0ebe 9821 813d c34a 20be 8818 0abe
000000f0: 1b21 08be 28ea 0fbe cbe2 1abe 9b76 78bc
00000100: 2084 bdbd b42a 44bc 1bbf a83d 6572 9abd
00000110: 3a41 333b c3eb 51bd 6f36 08be 579e 0abe
00000120: 9d57 d13d cdc4 093e 58d1 8d3d f67a 0b3d
00000130: b25b 2cbd a534 c63d 201d 4c3e 961e ed3d
00000140: d4c9 96be 127a 9a3c 119d 8b3d 719c 103e
00000150: fe8a 7ebd 95f8 cf3b e37b 28bd a3f2 c6bc
00000160: 67b3 133e 463c 173d cfb0 0ebe ff38 0dbd
00000170: 87b0 88bd 4d3f 35be 7c31 c4bd 1fe6 fe3d
00000180: 2271 343e 4719 a83e ea29 bd3d 0fcb 0b3d
00000190: 2b2f 0d3e 5a4b 88bd b9aa 86be 3c02 abbd
000001a0: 03f6 4e3d 04b2 36be e3ca 3abe 48c0 283e
000001b0: c5a6 aabd f2f4 febd debb 51be 2768 4c3d
000001c0: 562f 45be b39e 3ebe 64bc 2abd 437e 113d
000001d0: 46af 10be cce4 4d3e 29b0 7639 8b7e a8bc
000001e0: 54f2 ee3d 85c8 e2bd 9590 dfbc 9fc3 bfbd
000001f0: 363b 0c3e c2b6 983c c9d0 3d3e f957 293d
00000200: 6a99 63be a6f5 78bd 9711 debd d029 c23d
00000210: 9e72 e7bd 8f9f 1abe 9dd6 e0bd 81fc acbd
00000220: b12f 1cbe 6e5b b7bd c48f 9f3c 2f0f 3fbc
00000230: bb46 e63d 0777 79bd 4f8a fe3d 34e7 0ebe
00000240: d4f6 173e dff5 15bd 5836 063e b5c3 3f3e
00000250: 3474 e5bd 4719 a83d f9dc 3bbe 5366 08bb
00000260: 9c27 a7bd dc03 7abd 6651 08bc 63cd 433d
00000270: f4d1 053e 666b f7ba abf8 42be 7a84 2f3d
00000280: 8561 77bd 3708 d83c eb0a 8cbd 9fbe 4fbe
00000290: 4998 a3bd c57b 85bd 4103 263d 30a5 eabd
000002a0: f2d1 6dbd a431 b2bd 8a71 1dbb 2021 f93d
000002b0: 15c7 bb3c d711 c23d 3518 1fbc 8e73 c23b
000002c0: 695a 1a3d 90fe 693d f2b1 f8bd 43d3 ddbd
000002d0: a739 b63c 3fd0 debc 3fc4 a6bd 4e87 e1bd
000002e0: f0e8 1d3d 0944 d4bc 0e37 33be 67b8 a53d
000002f0: b09f 5d3d 63ed 86bd 0b2c 7cbd b33b 223e
00000300: cdc1 cf3d 8440 a93d 0604 d63d 0f0e 133d
00000310: 56fe 08be d141 36bd fd4b 1ebe efe6 39bb
00000320: db67 c83d 7b6b 07bd 9fe0 0dbd 4da0 6ebd
00000330: a7ea 423e 95ea c93d 179e 85bd 49c0 383e
00000340: efe2 05be 660b 6ebc 67f1 f03d d65d 203e
00000350: 41e2 313d 20c4 b73d 9b75 febc 8b22 e93d
00000360: caa5 84bd b8ec 1bbe 6f31 b3bd a42c a23c
00000370: 9235 e53c 5df1 4dbd e9ca dc3d 32e3 18be
00000380: 0efe 8dbc 9eb4 d03e 25fb edbd be13 8e3e
00000390: e2bb c63d 960c 0cbe 4933 83bd acc1 f3bd
000003a0: 5d3c 3f3e c59b 10bd e8f7 9c3d f3f8 84bb
000003b0: 23df 3bbd a8f0 243c f621 5cbe 33b5 8fbd
000003c0: b470 913d a283 133b 5dd7 f8bb 08bb 27be
000003d0: d2c1 08bd f4cd ef3d b63b 033e 31cb 5bbd
000003e0: a83a 0ebe 27d3 7dbe 5ee6 bfbd 7396 283d
000003f0: 453e 2d3e 4205 11be d436 d6bd 6ff5 1e3d
-0.22303057 -0.09417359 0.07507971 0.18761389 -0.04677113 -0.27349275 0.15916695 -0.08150359
-0.10717298 -0.117375866 0.05673079 0.03427273 -0.09758564 -0.1112143 0.0047214613 -0.0788172
-0.07798929 -0.08982298 -0.1199341 -0.07349178 0.15656254 0.038090844 -0.017803252 0.03723702
-0.018422838 0.035094444 -0.06419884 -0.017665979 0.082637906 0.018064294 -0.1277162 0.023575595
-0.17406347 0.10538121 0.02903882 -0.13178591 0.09687345 -0.034471087 0.18858221 0.05174477
-0.103292696 -0.060866464 0.017251758 0.015617757 -0.05361313 0.22315072 0.032897614 -0.021371378
0.021505207 -0.072249226 -0.0975191 -0.012392349 0.01769517 0.023440102 0.10782244 0.076540604
-0.13950907 0.063052356 -0.1565352 -0.1348592 -0.13293879 -0.14054167 -0.15125577 -0.0151649965
-0.092537165 -0.011973072 0.082395755 -0.0754135 0.002735211 -0.05125023 -0.13302015 -0.13536964
0.10221789 0.1345398 0.06924695 0.03405281 -0.042079635 0.0967801 0.19932985 0.115780994
-0.29450858 0.018857036 0.068170674 0.14122178 -0.062144272 0.006346772 -0.041133773 -0.02428562
0.14423905 0.036922716 -0.13934635 -0.034478184 -0.06674295 -0.17699929 -0.09579751 0.12446236
0.17621282 0.32831785 0.0923651 0.0341292 0.13787524 -0.06654997 -0.26302126 -0.083500355
0.050527584 -0.17841345 -0.18241458 0.164796 -0.0833259 -0.12449063 -0.20481822 0.049904015
-0.19256338 -0.18615226 -0.04168357 0.035520803 -0.14129362 0.2010681 0.00023526013 -0.020568153
0.11667314 -0.11073402 -0.027290622 -0.09363484 0.13694462 0.018641833 0.18536676 0.041343663
-0.22226492 -0.060781144 -0.10843199 0.09480631 -0.11301158 -0.1509993 -0.10978434 -0.08446599
-0.15252568 -0.08952986 0.019477732 -0.011661335 0.112439595 -0.06090453 0.12428724 -0.13955384
0.14840251 -0.036611434 0.13106668 0.18727 -0.112038046 0.08207946 -0.18346013 -0.0020812943
-0.08161852 -0.061038837 -0.008320188 0.047803294 0.13068372 -0.0018876612 -0.19040172 0.04285095
-0.060395736 0.026371105 -0.0683802 -0.2028756 -0.079880305 -0.06517748 0.040530447 -0.11457288
-0.058061548 -0.087008744 -0.0024023973 0.12164521 0.022922078 0.09476059 -0.009710361 0.0059341853
0.037683878 0.057127535 -0.121433154 -0.108313106 0.022244288 -0.027198909 -0.081429 -0.110121354
0.038552225 -0.025911348 -0.1750147 0.080918126 0.054107368 -0.06588247 -0.06156544 0.15843086
0.101443864 0.082642585 0.10449986 0.03590208 -0.13378271 -0.04449636 -0.15458675 -0.0028366407
0.09785434 -0.033061486 -0.034638043 -0.058258343 0.19034825 0.09859196 -0.06524294 0.18042101
-0.1307485 -0.014529085 0.11764794 0.15660796 0.043428663 0.08972955 -0.031061938 0.11383542
-0.06476934 -0.1522702 -0.08749663 0.019796677 0.027979646 -0.05027901 0.107808895 -0.14930418
-0.017333057 0.407628 -0.11620168 0.27749437 0.097038046 -0.13676676 -0.06406266 -0.11902174
0.1867537 -0.035304803 0.07664472 -0.0040579974 -0.045867097 0.010067143 -0.2149733 -0.07016983
0.071015745 0.002250888 -0.0075940327 -0.1637994 -0.033387966 0.11709204 0.12815747 -0.053660575
-0.13889563 -0.2478758 -0.09370111 0.041159105 0.16918285 -0.14162162 -0.104596764 0.038808282

nnECG.4.bias f4 [64]
00000000: bdfb 5d3c 7870 9e3c ccc4 a93c f10b 213d
00000010: 49eb 1d3b 1954 24bc 8d16 183c 3a91 d53c
00000020: f304 e73c 957f 4b3c ccf9 09bd 4c6b 85bb
00000030: 9019 273a 9bf2 d7bb 12ec 10bd 4659 5e3c
00000040: e080 e2bb a9d6 6bbc bc25 373b ea05 f83c
00000050: 03dc 68bb d067 f63b fa90 87bc bfc2 483d
00000060: c3c5 be3c 2738 393c ff6d 4c3d 3499 133d
00000070: 4e6b df3c 650e 31bd a5f4 49bd 4738 403b
00000080: 3363 063c 01b9 adbc 7766 cb3c 64fa 883c
00000090: 5616 543d f5d9 95bc 9853 9a3d fc8e 013d
000000a0: d56f d4bc 741f eabb 9aad 05bc 06f0 f1bc
000000b0: 791b 5a3c 82d6 263d a639 b53b bae5 943c
000000c0: 236c 693b 9531 b43c 9c7b f83b 79dd 5ebc
000000d0: 8315 0c3d 82f0 48bc c8ab 733c d5a3 1e3d
000000e0: 8dd1 df3a 948b 673d 0c77 17bc 7b45 81bb
000000f0: d334 273c dc56 123d 4a5d 73bc f0bf 0f3c
0.013548789 0.019340739 0.020723723 0.03931803 0.002409654 -0.010029816 0.00928272 0.026070226
0.028200602 0.012420555 -0.03368549 -0.0040716287 0.00063743535 -0.0065902 -0.035381384 0.013571089
-0.0069123358 -0.014394441 0.0027946075 0.030276258 -0.0035531528 0.0075196996 -0.016548622 0.04901385
0.02328766 0.011304892 0.049909588 0.036034778 0.027272847 -0.04322662 -0.049305577 0.002933042
0.008202362 -0.02120638 0.024829132 0.016720958 0.051779114 -0.018292407 0.075354755 0.0316305
-0.025932232 -0.007144863 -0.008159066 -0.029533397 0.013312214 0.040731914 0.005530554 0.018175948
0.0035617433 0.021996299 0.0075830948 -0.013602608 0.034200203 -0.012264373 0.014872499 0.03873046
0.0017076001 0.056529596 -0.009244692 -0.0039450503 0.010205465 0.035727367 -0.014853785 0.008773789

nnECG.5.weight f4 [64]
00000000: c1a9 833f b5e9 863f d5cc 843f 9fa2 8a3f
00000010: 89c0 8d3f 12d0 803f d755 8e3f e255 8c3f
00000020: 2d32 933f 4bf1 8f3f 4d27 763f b1ff 8c3f
00000030: 46df 8d3f aa25 753f 5d66 803f ed28 853f
00000040: 0a1a 8e3f 794e 7e3f 935f 863f 0145 913f
00000050: 4725 8f3f 6708 8e3f 3313 953f f0ea 8c3f
00000060: 9438 873f f99c 8e3f b570 8f3f add1 833f
00000070: 3d78 8f3f 6a7e 843f 3626 823f 3ecb 7f3f
00000080: 8f69 8b3f fd96 873f b631 903f bbb9 973f
00000090: 7f15 9e3f dbae 923f d0c4 903f 7f43 8b3f
000000a0: 7ab8 883f 9399 863f 4461 8b3f 6363 8c3f
000000b0: 7421 8c3f 6082 893f b98f 823f 9180 8e3f
000000c0: 0f3e 973f 4942 853f 5212 8d3f 8bd9 843f
000000d0: a236 8a3f 5221 8a3f e56b 953f 67fb 963f
000000e0: 55d4 813f af07 9a3f a380 8d3f c33c 913f
000000f0: 1e01 813f e1e7 873f 061b 983f 6050 903f
1.028618 1.0540072 1.037501 1.0830878 1.1074382 1.0063498 1.1119946 1.0963709
1.1499687 1.1245512 0.9615372 1.1015531 1.1083763 0.95760596 1.0031239 1.0403115
1.1101696 0.9933849 1.0497917 1.1349183 1.1183251 1.1096314 1.1646484 1.1009197
1.0564141 1.1141654 1.120627 1.0298363 1.1208569 1.0351079 1.0167911 0.999195
1.0891589 1.0592953 1.126517 1.1853555 1.235031 1.1459612 1.1310062 1.0879973
1.0681298 1.0515617 1.0889058 1.096783 1.0947709 1.0742912 1.0200111 1.1132985
1.1815814 1.0410854 1.1021216 1.0378889 1.0797923 1.0791419 1.1673552 1.1795472
1.0142924 1.2033595 1.1054882 1.1346668 1.0078466 1.0617639 1.1883247 1.1274529

nnECG.5.bias f4 [64]
00000000: d30e b23a c948 e23b bf02 953c 980b 063d
00000010: ceaf 813b 8a28 83bc 01aa c03b e3d3 cf3c
00000020: d65d 333c 8a73 883a 8de3 48bd a6ff a1bc
00000030: 49db 0bbc 300e 94bc f62d 27bd e45c 91bb
00000040: af18 97bc 2956 dabc cc9b 24bc e684 ec3c
00000050: 74f8 03bc 8584 01ba 3468 cabc 195e 273d
00000060: fabb 783c 9ecd 253c b699 533d 506a be3c
00000070: c2cb b23c 9820 41bd 42c6 75bd a400 0bbc
00000080: 75a1 513c 2b0f 18bd 1758 5d3c 9ae8 d53b
00000090: 6d7f 3b3d 9ead c1bc af68 6f3d 7490 073d
000000a0: e36e 2cbd 5d67 d1bc 6e30 72bc ea30 49bd
000000b0: d88d d4ba 9f47 113d 85bf 84bb e9e8 683b
000000c0: 58a6 403b 3606 0f3c 1123 04bb c5d4 cbbc
000000d0: b68b ca3c 28bb f0bc 2f3d 813b 7670 a23c
000000e0: ec75 85bc b209 4b3d ec3c bcbc 19a7 0abc
000000f0: 4b97 4fb9 e343 da3c cd73 dcbc 7deb dd39
0.001358474 0.0069056493 0.018189786 0.0327259 0.003957725 -0.016010541 0.005879641 0.02536959
0.010947665 0.001041041 -0.049045134 -0.019775223 -0.008536168 -0.018073171 -0.040815316 -0.0044361223
-0.018444387 -0.026652412 -0.0100469105 0.028871965 -0.008054841 -0.00049407064 -0.024707891 0.040861223
0.015181536 0.010119824 0.051660262 0.023244053 0.021825675 -0.047150224 -0.060003527 -0.008484039
0.012794842 -0.03712384 0.013509772 0.0065279724 0.04577582 -0.023642357 0.058449443 0.033096746
-0.042097937 -0.025561983 -0.014782054 -0.049118914 -0.0016216589 0.035468694 -0.004051151 0.0035539216
0.0029396024 0.008729508 -0.0020162503 -0.02488173 0.024724822 -0.029386118 0.003944061 0.019829016
-0.016291581 0.049569793 -0.022978269 -0.008462691 -0.0001979742 0.026643699 -0.026910687 0.00042327857

nnECG.5.running_mean f4 [64]
00000000: 5661 00bf 900d e2be 1481 03bf 41e0 25bf
00000010: fde5 87bb 940e 14bf 36ba 2ebe 9923 893d
00000020: 6a64 993e 8c35 ed3d 9b60 55be 3dc4 463e
00000030: 8731 72be f381 cfbd 9a92 bebe 388d 9dbe
00000040: ddb0 483d a305 f5be 09b2 40be 3788 5f3e
00000050: 8c49 8e3d 59d5 01bf 8c0b 983e 9575 bfbd
00000060: cad7 6bbe 788b 22be b204 9fbd cf05 02bf
00000070: 2f78 b1bc ba5c 22bf 1408 85bd d56f e3be
00000080: c24a a6bb 95db c8be 89dd 383d 9c18 0f3e
00000090: 80d1 5d3e d80b 8ebe a5e5 1fbe d6b6 ec3e
000000a0: adb3 c9be 91ba 49be bf05 7dbc e7ce 0cbe
000000b0: a108 00bf 5aa3 a5be 0b20 1a3e bbc9 603e
000000c0: b74f 443e 1e52 fd3e 87be 363e a81b 4abe
000000d0: aa6a 733e 91dd a03e cf36 fbbe e17e e83e
000000e0: e1ed ad3e 71ee be3d a695 a33e 53af 3b3b
000000f0: da1b ca3e 3f70 c83d 6192 d63e 700f 973d
-0.5014852 -0.44150972 -0.5136883 -0.6479531 -0.00414729 -0.57834744 -0.17063221 0.06696243
0.29959422 0.11582479 -0.20837633 0.19410796 -0.23651706 -0.10132208 -0.37221223 -0.30771804
0.048996795 -0.47855863 -0.18817915 0.21829306 0.06947622 -0.5071617 0.2969631 -0.09348599
-0.23031536 -0.15873516 -0.077645674 -0.50790113 -0.021663753 -0.6342274 -0.064956814 -0.4442126
-0.00507483 -0.39230028 0.045133147 0.13974231 0.21661949 -0.2774341 -0.15614946 0.46233243
-0.39394894 -0.19700076 -0.0154432645 -0.13750802 -0.50013167 -0.3235119 0.15051286 0.21951954
0.19171034 0.49476713 0.17846118 -0.19737113 0.23771158 0.31419042 -0.49065253 0.454093
0.3397055 0.09322823 0.3195011 0.0028638437 0.39474374 0.09787034 0.41908553 0.07375991

nnECG.5.running_var f4 [64]
00000000: 62a0 9b3f 992a 423f 2989 a53f 7e47 f43f
00000010: f572 4c3f 541d 8c3f 9c11 3340 0b63 563f
00000020: c2c4 0a40 420b 913f 1361 9f3f 9569 a43f
00000030: d7ff a33f cff3 f83f e1ac 893f da25 883f
00000040: dd91 783f 3f71 723f d98c 973f 57ea 503f
00000050: d39e 6a3f a9da f33f e1c9 ad3f 35c5 613f
00000060: 1949 a93f bbdb ac3f 4223 1340 5a6c 6f3f
00000070: 6afa 843f 4976 be3f 1c4a 0440 be34 ba3f
00000080: aa96 663f 0b9a a83f 544f 993f e2be 883f
00000090: ce27 6c3f 88c1 613f c6b8 c83f 6454 d43f
000000a0: fa58 be3f c877 d03f adb2 813f 4571 913f
000000b0: 8115 6f3f 7382 7b3f faaf 8d3f 75e6 823f
000000c0: b11c 8f3f 0b71 b73f 679d df3f d7f5 e13f
000000d0: 5251 933f 9ba3 b43f 154a f43f d577 843f
000000e0: bb87 983f 6c1f 9e3f ae4c 5f3f 7baa 893f
000000f0: 6e3b 763f e4cd c93f fe31 843f 2007 793f
1.215832 0.7584625 1.2932483 1.9084318 0.7986291 1.094645 2.7979498 0.8374488
2.1682591 1.1331561 1.24515 1.2844721 1.2812451 1.9449404 1.0755883 1.0636551
0.9709757 0.9470405 1.1839858 0.81607574 0.91648597 1.9051105 1.3577234 0.8819154
1.3225433 1.3504556 2.299027 0.93524706 1.038892 1.4879848 2.0670233 1.4547346
0.90073645 1.317201 1.1977334 1.0683253 0.9224824 0.8818593 1.5681388 1.6588254
1.4870903 1.6286554 1.0132653 1.1362692 0.9339219 0.98245925 1.1069329 1.022658
1.1180631 1.4331373 1.746991 1.7653149 1.1509192 1.4112428 1.9085108 1.034907
1.1916422 1.2353339 0.8722638 1.0755152 0.9618443 1.5765958 1.0327756 0.97276497

nnECG.8.weight f4 [16, 64]
00000000: d226 76be b5d1 053d 5ae5 c83d 0137 65be
00000010: 9d3c a8bd 7bcc f6bd 17ce 873c cf50 283e
00000020: 8995 d8bd 2c3f 4fbd 44c4 883e 3c5f 613d
00000030: 6cea 54be a3d2 123d f480 ddbd c7de 89bd
00000040: 3c7a 3ebe 37ef 383e dcfe 9dbc cd30 46bd
00000050: 92c1 31bd b875 743c 542b 87be 6a73 993d
00000060: 3061 753d a5e8 76be ff6e 87be 2305 37be
00000070: 0d23 86bd d001 7dbe 8691 8dbc f2d0 5ebe
00000080: 39ff bd3c 2e9b 1cbe 183e 68be 10ae 8d3e
00000090: a328 0c3e 8020 a8bd 261a 353e 395e ca3d
000000a0: de69 643e 1c5e 15be 976e 8fbc c0c1 3fbe
000000b0: f0fb 9e3d b257 613e 4e84 d13c 5ff7 153e
000000c0: 2d4f 6ebc 3b70 17bd 0597 d33d 5aa7 64be
000000d0: f6a8 a5be 56e3 563e fd24 02be cc1d ec3c
000000e0: 0380 8e3c 5a60 b5bd d840 1c3e 7e5a e23c
000000f0: aa3a ff3b ea36 253e 8477 a1bd ade8 4c3e
00000100: 46ba 043e 8d04 94bd d5b9 4c3c 3187 d4bc
00000110: 444f 81bd 5ea6 5d3d 724f 38be ee1e f0bc
00000120: 1e83 d33d 11a6 23be 1ae8 2ebe 301c ef3d
00000130: e3ff 36be 8a78 4a3e 09b9 063e c440 7ebe
00000140: 06cd 933e abd9 86be a2a3 533e 5dfb 413e
00000150: 6a5d 883e 27ff 6d3e 46b2 cb3e 99d3 c43d
00000160: ec99 0e3e 8f1c 0a3e a561 dabd 93bb 96bd
00000170: 1d5c 4dbe 4d2a 723e 9bf4 ca3d 8229 94bd
00000180: cd8b 25be 6aef 7b3c 95a1 59be 72bb 64be
00000190: 758b 80be ef2a 953e 8572 163c 33f8 49bd
000001a0: 783a 3b3e 1ce8 2dbe 58c7 c4bb 65a5 a6bd
000001b0: 7ab7 8ebe 2cc8 75be 98e2 89be f100 15bc
000001c0: 4e17 f0bd b827 72bd 5ac4 ca3d 5892 70bd
000001d0: 0cb5 a13e a2ab 543e c15e 123e 6acb f03d
000001e0: 4cec bfbd 1771 c63c aae2 a53e 1615 25bd
000001f0: c56e 26be 740e 2abe a2af 92be a437 77be
00000200: 47ba 42be bf47 24be 94ca 503e a5d7 d6bd
00000210: 08be 913e 9dcf 573e 8bec a33e 05c5 ffbd
00000220: b903 c23e af83 b7bd a35d 87bd d3ce be3e
00000230: 92d9 b2be a4cc edbd 69e5 493e 188d 94be
00000240: 0b6f fd3d 1f8c debd de5f b3bc 83e9 a9be
00000250: 0227 88bc 2d52 0c3e d12b 8fbd 5685 1d3e
00000260: 7348 6ebe fb5a 6e3d 5b42 70be 1dc5 dcbd
00000270: 825e 143d 2b60 dcbd 0f5a 423e 0236 073e
00000280: ce72 253e 4144 413e 4d3b a4be c8be d33d
00000290: 2897 abbd a668 22be 8924 273e 6582 99be
000002a0: 18b3 a43e e7a1 563e 2ebd 30be fb57 6a3e
000002b0: b40a 01be 370a dfbd 9cb2 2e3d faf1 e2bc
000002c0: 2360 2c3e c510 363b 3afe 9ebe 8b4e dfbd
000002d0: edb9 1fbe c782 853e 3b31 81be d89d bbbe
000002e0: cabd 973d 50d6 e83d 47cd 64be c849 19be
000002f0: e246 873e 8cec e93d faaa c8be 52c4 6abd
00000300: 1c44 623e d762 50be 8e98 123d b206 4f3e
00000310: 0cc1 8c3e 3d46 103e 529c f6bd 8ea8 833e
00000320: ea0d 1dbe 9da5 8cbd 3d85 8dbe f5c6 90be
00000330: 9f7a a43d d623 693e 39ab d73d 6e32 833d
00000340: fe3e 8abd 7482 fabd b59d 623e 7067 cebd
00000350: 8ba0 41be 56ef b33e da52 4cbe 648b 883e
00000360: 7c89 8d3e bebd 8fbe 2749 13be d4e4 8b3d
00000370: bb8f 3dbe a8c4 d0bd 939b a23e 10e2 5bbe
00000380: ebd9 8d3d c493 22be 3ebd 843e e381 563e
00000390: 2cfd abbe 9c9f 5a3e eacd 173e 9364 6bbe
000003a0: 3381 5c3d d5a7 85be 33ed 0b3e 86eb 023d
000003b0: ae2a c43d 4c60 af3d bc90 21be 9070 d1bd
000003c0: ab66 40bd 77eb 613d 3fa5 533e fc4a 57be
000003d0: 3ebc 733e 2724 993d e5a3 d1bc 2f0e 7b3d
000003e0: 292e 123d ddaa 903e 485f 7c3d 4024 943d
000003f0: 71c0 31be 106a 763e 0052 6f3d 74e8 4f3e
-0.24038246 0.032670695 0.0980937 -0.22384264 -0.08214686 -0.1205072 0.016577763 0.16437076
-0.105753966 -0.050597355 0.2671224 0.055022463 -0.2079255 0.03584541 -0.108156115 -0.067319445
-0.18601316 0.18060003 -0.019286565 -0.048386384 -0.043397494 0.014920644 -0.26400244 0.074927166
0.05990714 -0.24112184 -0.2645187 -0.17873053 -0.06549654 -0.24707723 -0.017281305 -0.21759394
0.023192989 -0.15293571 -0.22679937 0.27671862 0.13687377 -0.08209324 0.17685756 0.09881253
0.2230601 -0.14586681 -0.017508788 -0.18726254 0.07762897 0.2200611 0.025575783 0.14645146
-0.014545244 -0.036972266 0.10331539 -0.22329465 -0.3235547 0.2098516 -0.12709422 0.028822802
0.017395025 -0.08856268 0.15259111 0.02763104 0.0077889757 0.1613423 -0.07884124 0.20010634
0.12961683 -0.072274305 0.012495478 -0.02594337 -0.06313947 0.05411374 -0.17999056 -0.029311623
0.10327743 -0.15981318 -0.17080727 0.11675298 -0.1787105 0.19772545 0.13156523 -0.24829394
0.28867358 -0.26337942 0.2066789 0.18943544 0.2663377 0.23241864 0.3978445 0.096106716
0.13925904 0.13487457 -0.106631555 -0.07359996 -0.2005467 0.23648949 0.09909936 -0.072344795
-0.16166611 0.015376905 -0.21253045 -0.2233713 -0.25106397 0.29134318 0.009182577 -0.049308967
0.18284023 -0.16983074 -0.006005209 -0.08137015 -0.27874357 -0.24002141 -0.2693069 -0.009094463
-0.11723195 -0.05911991 0.09900732 -0.058733314 0.3158344 0.20768598 0.14293958 0.11757548
-0.09371242 0.024223847 0.32399493 -0.040303312 -0.16253193 -0.16607076 -0.28649622 -0.24142319
-0.19016372 -0.16042994 0.20389777 -0.1049035 0.28465295 0.21075292 0.32016405 -0.1248875
0.37893465 -0.089606635 -0.06609657 0.3726717 -0.34931618 -0.11611298 0.1971642 -0.29013896
0.123746954 -0.1086657 -0.021896299 -0.33185968 -0.016620163 0.13703223 -0.06990779 0.15382895
-0.23269825 0.058192234 -0.23462813 -0.10779784 0.036222942 -0.1076053 0.18979667 0.13204196
0.16157076 0.18873693 -0.32076493 0.10339123 -0.0837844 -0.15860233 0.16322531 -0.29982296
0.32167888 0.20960198 -0.17259666 0.22885124 -0.12601739 -0.1089062 0.042650804 -0.027703274
0.16833548 0.0027780992 -0.31053334 -0.10903653 -0.15598269 0.26076338 -0.25232872 -0.36643863
0.07409246 0.11369002 -0.22343932 -0.14969552 0.26421267 0.11422071 -0.39192945 -0.057316132
0.22096294 -0.20350204 0.03579002 0.20217398 0.27491033 0.14089294 -0.120415345 0.25714535
-0.15337339 -0.06867526 -0.27640715 -0.28276792 0.080312006 0.22767577 0.10530705 0.06406103
-0.06750296 -0.12231913 0.22130473 -0.10078323 -0.18908899 0.35143536 -0.1995348 0.26668847
0.27643955 -0.2807445 -0.14383374 0.06830755 -0.1851186 -0.10193759 0.3175932 -0.21472955
0.0692633 -0.1587668 0.2592563 0.20947985 -0.33591592 0.21349949 0.14824644 -0.22987585
0.05383415 -0.26104608 0.13664703 0.031962894 0.09578453 0.08563289 -0.15777868 -0.10226548
-0.04697291 0.055156197 0.20668505 -0.21024698 0.23802277 0.07477599 -0.025590846 0.061292823
0.035688553 0.28255358 0.061614305 0.07233477 -0.17358567 0.24063897 0.05842781 0.20303518

nnECG.8.bias f4 [16]
00000000: b488 6cbc cc1b 54bc 9adb f2bb 6b8a 353d
00000010: f22a 753c e598 99ba b13d a13c 6ee3 6c3c
00000020: 1cc5 df3c ff6e 003d ae6a 043d 6964 a33c
00000030: d7d3 88bb b492 bd3c 6ccc 323d 8e54 19bc
-0.014436889 -0.01294608 -0.0074114325 0.04432146 0.014963852 -0.001171854 0.019682737 0.01445852
0.027315669 0.031355854 0.0323283 0.01994534 -0.004175644 0.023141243 0.043651983 -0.009358538

nnECG.9.weight f4 [16]
00000000: a7cc 6d3f 95c8 8d3f 4c96 8a3f 15dd 883f
00000010: 5831 923f d967 883f 55fd 8d3f 8097 893f
00000020: 3f41 8e3f f46d 993f db22 8d3f e8cb 893f
00000030: 770e 933f 9694 953f 4961 8d3f 859b 853f
0.928904 1.1076838 1.0827117 1.0692469 1.1421309 1.0656692 1.1092936 1.0749359
1.1113662 1.198668 1.1026262 1.0765352 1.1488789 1.168597 1.1045314 1.0438086

nnECG.9.bias f4 [16]
00000000: 76e1 cabc 00fa 21bd 01ba 00bd d3a0 4b3d
00000010: 1a3b b83c 5a04 75bc 2be1 c53c b304 943b
00000020: ac0c 413b 731a 623c 201d d63c e4a9 903b
00000030: 5fe3 b7bc 3df7 853c 7b33 053d 1fe7 1dbc
-0.024765711 -0.03954506 -0.031427387 0.04971392 0.02248912 -0.014954651 0.02415522 0.0045171618
0.0029457016 0.013800251 0.026136935 0.004414784 -0.022447286 0.016353244 0.0325198 -0.009637623

nnECG.9.running_mean f4 [16]
00000000: dab9 3bbe 7aeb 61bd c07d c8ba 28d3 a23e
00000010: a17f dd3e fed6 1a3e b720 89be 1498 e93e
00000020: b2bc fcbe 290c afbe 2f54 0e3f e4ed e1be
00000030: 93be 49be ea46 363e 1512 03bd 6346 3f3f
-0.18332615 -0.05515621 -0.0015296265 0.31801724 0.43261436 0.15121076 -0.26782772 0.4562384
-0.49362713 -0.34188965 0.55597204 -0.4412681 -0.19701605 0.17800489 -0.031999666 0.74716777

nnECG.9.running_var f4 [16]
00000000: ba4a 9b3f aa38 b53f e555 d33f f16c c53f
00000010: 4a56 953f e6de c93f fe2b c73f 50a3 be3f
00000020: 9406 2240 c750 9b3f a941 cb3f 6b7c dd3f
00000030: 7a58 cb3f a453 b93f 7990 9d3f 2e5b f63f
1.213218 1.4157917 1.6510588 1.5423871 1.1666958 1.5771148 1.55603 1.4893589
2.5316515 1.2134026 1.5879413 1.7303594 1.5886376 1.447865 1.2309715 1.9246576

nnECG.12.weight f4 [4, 16]
00000000: f64c 8abe 224a 233f 1c72 e73e 0757 603c
00000010: 7e52 cdbe 6ef9 953e 278c 21bd ed6d c13e
00000020: fbec bcbe 5964 6abe 9b67 abbe e699 e13d
00000030: 8f0a 123d 2b4e 253e 2b4f 1abf 2011 34be
00000040: c026 96be 5c39 9d3d d885 ee3d 84ae 823e
00000050: 4a38 8f3e 7631 2fbf d541 a7bd 7cd0 ff3e
00000060: 2b5f 573e aa8f 733e f304 76be c7bb a3bd
00000070: 77c5 ee3e 5280 ad3e 680b a93b 4256 b63e
00000080: 19d7 05be 3518 b8bc 3bf3 71be 57dd 14be
00000090: 43bb 0dbf eef0 b63d febc 013f f9a2 cfbe
000000a0: 5ec0 083f 32c6 d63e 8cb5 0ebe 1f6f a2be
000000b0: 2b96 17bf 0c0c 323f facc 293c 6b49 11bf
000000c0: d0d8 903e aa66 ab3d 908b 823e 3be0 10bf
000000d0: b0b7 ef3e 05b2 513d a7a3 023f 43a1 11bf
000000e0: 23a2 b3be 3edb 2cbe 4654 a1be 6a19 16be
000000f0: ede0 513e 33f8 f3be c59a 4dbe 4f78 85be
-0.27011842 0.6378499 0.45204246 0.013692624 -0.40102 0.29291862 -0.0394403 0.3777918
-0.36899552 -0.22889842 -0.33477482 0.11015682 0.0356546 0.161431 -0.6027705 -0.17584658
-0.2932644 0.07676956 0.116466224 0.2552377 0.27972633 -0.68434846 -0.08166853 0.49963748
0.21032397 0.23785272 -0.24025325 -0.079948 0.4663503 0.33886963 0.0051588304 0.35612684
-0.13070334 -0.02247248 -0.23627941 -0.1453756 -0.55363864 0.089326724 0.50679004 -0.40554026
0.5341853 0.41948086 -0.13936442 -0.31725404 -0.59213513 0.6954963 0.010363812 -0.5675265
0.28290415 0.08369191 0.25497103 -0.5659215 0.4681983 0.051195163 0.51030964 -0.5688669
-0.35084638 -0.1688051 -0.31509608 -0.14658132 0.20495959 -0.47650298 -0.20078571 -0.2606835

nnECG.12.bias f4 [4]
00000000: 0699 86bc 47ad 9db9 deb6 223d 83bc e83b
-0.01643039 -0.00030074475 0.039725177 0.0071025505

nnECG.13.weight f4 [4]
00000000: 6cc0 863f bb9c 8b3f 1edf 913f 8aa9 8e3f
1.0527472 1.0907205 1.1396215 1.1145489

nnECG.13.bias f4 [4]
00000000: e088 ddbc 005c 94bc 49ea d63c f617 83bc
-0.027042806 -0.018110275 0.026234763 -0.016002636

nnECG.13.running_mean f4 [4]
00000000: 384d 90bd a414 ea3e e743 76be d458 71be
-0.07045978 0.45718873 -0.2404934 -0.23569041

nnECG.13.running_var f4 [4]
00000000: 4f0e ae3f 5293 bc3f 1984 c63f cf08 9e3f
1.3598117 1.4732459 1.5509063 1.2346438

nnECG.16.weight f4 [1, 4]
00000000: d148 713f c8f8 e73e b19c d8be 7b9d 3d3f
0.94251734 0.45306993 -0.42307046 0.7406842
