Models/net_3_0_epoch_48.pth (torch, 57997 bytes, 25 tensors)

nnECG.0.weight f4 [128, 12]
0	0x3d75080a	0.05982212
1	0xbc9e6575	-0.019335488
2	0xbdcfcada	-0.10146113
3	0x3b339845	0.0027403992
4	0x3d971df0	0.07378757
5	0xbd4e3b0f	-0.05034929
6	0xbded7e6b	-0.11596378
7	0xbe4bee78	-0.19915187
8	0xba594eb4	-0.0008289621
9	0xbe64e1ef	-0.22351812
10	0xbe34ba45	-0.17649181
11	0xbde7069e	-0.11280559
12	0x3b5912fe	0.0033122892
13	0xbd257e81	-0.040403847
14	0x3d98b04b	0.074555
15	0x3dbbd60e	0.09171687
16	0x3e1f6ce9	0.1556889
17	0x3d1c2c29	0.038128052
18	0xbe30def3	-0.17272548
19	0x3c855b95	0.016279021
20	0x3e139edc	0.14416069
21	0x3c3bbe34	0.011458922
22	0x3e465781	0.19369318
23	0x3e335919	0.17514457
24	0xbc8c756f	-0.01714584
25	0xbd8220a1	-0.0635388
26	0x3e236270	0.1595552
27	0xbc4697e7	-0.012121177
28	0x3dd3440b	0.103157125
29	0x3e03132f	0.12800287
30	0xbe46746c	-0.19380349
31	0x3c73886d	0.014864069
32	0x3d8396fc	0.06425282
33	0xbd9ae697	-0.07563513
34	0xbe2240ea	-0.15845075
35	0x3e2d05d3	0.16896753
36	0xbe2fe3a4	-0.17176682
37	0x3dee7ace	0.11644517
38	0x3de8514e	0.11343633
39	0x3d274563	0.040837657
40	0x3dad692f	0.08467328
41	0x3e0d1d35	0.13780673
42	0x3d87ebc5	0.06636766
43	0x3d8ced95	0.06881253
44	0x3dba4aff	0.090963356
45	0x3d5f76c0	0.05455661
46	0xbe48d36f	-0.19611906
47	0xbb4fe8e8	-0.0031724516
48	0x3e3fa51a	0.18715325
49	0xbcecc2ea	-0.028901536
50	0xbe2ca70d	-0.168606
51	0xbda73abf	-0.08165502
52	0x3ce9a43a	0.028520692
53	0xbd83b4d9	-0.06430978
54	0x3e539b58	0.20664728
55	0xbe7d460e	-0.24733755
56	0x3e05c7c6	0.13064489
57	0xbdd1a002	-0.10235597
58	0x3d8a335c	0.06748077
59	0xbcafa616	-0.0214415
60	0xbe5aa161	-0.21350624
61	0xbeb5cfa6	-0.35509986
62	0x3e3b28c3	0.18277268
63	0x3e18b94a	0.14914432
64	0x3dd3225d	0.10309289
65	0x3d7faf2a	0.06242291
66	0xbda1a123	-0.078920625
67	0xbda19a0d	-0.07890711
68	0xbe2e2bff	-0.1700897
69	0xbd068aef	-0.03284734
70	0x3dbe494a	0.092913225
71	0x3e2e3bcc	0.17014998
72	0xbc7d03c2	-0.01544279
73	0x3abe55af	0.0014521385
74	0x3dac65f2	0.08417882
75	0x3e0227be	0.12710473
76	0xbda5a5f6	-0.08088295
77	0x3e164dcf	0.14678119
78	0xbc609730	-0.013707921
79	0x3e2ec900	0.17068863
80	0xbd428388	-0.04748872
81	0xbe134445	-0.14381512
82	0xbe72a5e0	-0.23696089
83	0x3dd6e86d	0.104935504
84	0xbe1ec9eb	-0.15506713
85	0xbc91c1d2	-0.017792616
86	0xbd85eea7	-0.0653966
87	0x3e5f5806	0.21810922
88	0x3ce477ed	0.027889216
89	0x3e059b95	0.13047631
90	0xbdf9ba4c	-0.121937364
91	0xbe40d22f	-0.18830179
92	0xbe11442c	-0.14186162
93	0xbd745908	-0.05965522
94	0x3b372990	0.0027948357
95	0xbd87ec1c	-0.06636831
96	0x3dd92b9b	0.1060402
97	0xbcb3c09e	-0.021942433
98	0xbe895abd	-0.2682704
99	0xbe59f139	-0.21283425
100	0xbde4741b	-0.11154958
101	0xbe37567d	-0.17904086
102	0x3db3b1ba	0.08774133
103	0xbcce9847	-0.025219096
104	0xbd990bc6	-0.07472949
105	0xbdcc952b	-0.09989389
106	0xbe140b56	-0.1445745
107	0xbe24acf6	-0.16081604
108	0xbcb5bf98	-0.022186086
109	0xbea625f3	-0.32450828
110	0xbe1cdca1	-0.15318538
111	0x3d9cda0b	0.07658776
112	0x3cdf38d7	0.027248783
113	0x3e493663	0.19649653
114	0x3b5e9422	0.0033962806
115	0x3e136655	0.14394505
116	0xbe2a20cf	-0.16614078
117	0x3e196bf5	0.14982589
118	0x3e19eba7	0.150313
119	0xbdc02211	-0.09381498
120	0x3deda2e7	0.11603337
121	0x3e5267cf	0.20547412
122	0xbe2d5db2	-0.16930273
123	0x3e08a88f	0.1334555
124	0x3e8a9d25	0.27073017
125	0x3e4a088d	0.19729824
126	0xbe257ef7	-0.16161714
127	0xbd91727e	-0.07101916
128	0xbe5d96e7	-0.21639596
129	0x3e5056fc	0.20345682
130	0xbc3afdc9	-0.011413046
131	0x3d1a4a02	0.037668236
132	0x3da31608	0.079631865
133	0x3ded1420	0.11576104
134	0x3de1e69c	0.110303134
135	0x3d4cc272	0.049990125
136	0x3d3304a8	0.043705612
137	0xbe227224	-0.15863854
138	0x3d7c243e	0.061558
139	0x3d4be47c	0.049778447
140	0xbe4b6d0a	-0.19865814
141	0x3dc0fa40	0.094227314
142	0xbda70535	-0.0815529
143	0x3e3c2773	0.18374424
144	0x3c17f444	0.009274546
145	0xbe12239f	-0.14271401
146	0xbe184d56	-0.14873251
147	0xbe40ec6f	-0.18840192
148	0xbb2afe5f	-0.0026091558
149	0x3e278e5a	0.16362897
150	0x3e49a017	0.19689976
151	0xbbc3c4a4	-0.005974369
152	0xbc245e43	-0.010032239
153	0x3e3a5197	0.18195187
154	0xbe4540c5	-0.19262989
155	0x3cb80a76	0.022465926
156	0xbddacf7c	-0.10684106
157	0x3e4a5ba2	0.19761518
158	0x3dccc8f0	0.09999263
159	0x3bd26ff3	0.006422037
160	0xbc725160	-0.014789909
161	0xbe32caf5	-0.17460234
162	0x3c43b458	0.011944853
163	0x3ccd0c93	0.02503041
164	0xbe64ab3e	-0.22330949
165	0x3e269496	0.16267619
166	0x3d282c06	0.04105761
167	0xbdb2112f	-0.08694684
168	0xbe399684	-0.18123823
169	0xbed66443	-0.4187337
170	0xbd6777d3	-0.056510758
171	0x3db5e041	0.08880664
172	0xbd1cbee8	-0.038268
173	0x3e109a38	0.1412133
174	0xbd9bc12d	-0.07605205
175	0x3e4882a5	0.19581087
176	0x3c1e4dd6	0.009662112
177	0x3dad55cb	0.08463629
178	0x3d422c3a	0.04740546
179	0x3cb5eeb3	0.022208547
180	0x3d668280	0.0562768
181	0x3dac9e82	0.084286705
182	0x3e107e3b	0.14110653
183	0x3d2022ee	0.03909581
184	0x3c9c9ee7	0.01911874
185	0xbe515602	-0.20442966
186	0xbd85381e	-0.06504844
187	0xbd73484e	-0.059395127
188	0xbb7d2ba4	-0.0038630748
189	0x3d6f9e42	0.058500536
190	0x3de2817f	0.11059856
191	0xbc88b91d	-0.016689831
192	0xbe21711b	-0.15765803
193	0x3e2d6344	0.16932398
194	0x3e00c52b	0.12575214
195	0xbda8243a	-0.08210035
196	0xbe4ed5db	-0.20198767
197	0xbccfc1a0	-0.025360882
198	0x3d4e8678	0.05042121
199	0x3d4e9454	0.050434425
200	0x3e558a8e	0.20853636
201	0xbd71b52d	-0.059010673
202	0x3bc94705	0.0061424994
203	0xbe1d5fa8	-0.15368521
204	0xbd1a4c05	-0.037670154
205	0x3bb4110d	0.0054951967
206	0xbe300a5b	-0.1719145
207	0xbd3751c6	-0.04475572
208	0xbe952c7f	-0.2913551
209	0xbde487ca	-0.11158712
210	0x3e36f28b	0.1786596
211	0xbce8dc1f	-0.028425274
212	0x3e367010	0.17816186
213	0xbba29185	-0.004961195
214	0xbc118b07	-0.008883244
215	0x3dab07af	0.08351075
216	0x3dddd7a1	0.108321436
217	0xbddf15f7	-0.10892861
218	0xbd30d5f1	-0.04317278
219	0x3d63cb7c	0.05561398
220	0xbe194958	-0.14969385
221	0xbdb3abf3	-0.08773031
222	0xbdb8c527	-0.09021979
223	0x3e1f65de	0.15566203
224	0xbd8a247b	-0.06745239
225	0xbe08d34b	-0.13361852
226	0x3d34daf0	0.044154108
227	0x3e542768	0.20718157
228	0x3d5f7505	0.054554958
229	0xbd3db883	-0.046318542
230	0xbda67e30	-0.08129537
231	0xbcbad729	-0.022807674
232	0xbe652149	-0.22375979
233	0xbe3f2982	-0.18668178
234	0x3c058b68	0.008150913
235	0x3e38c66a	0.18044439
236	0x3e01275e	0.12612674
237	0xbda0df30	-0.0785507
238	0xbe2253e6	-0.15852317
239	0x3cd8cdcc	0.02646532
240	0x3b864214	0.0040972326
241	0xbda1f823	-0.079086564
242	0xbd5dae95	-0.054121573
243	0xbe648b5c	-0.22318786
244	0xbdf8008e	-0.12109481
245	0x3e30c266	0.17261657
246	0x3dce39ee	0.10069643
247	0x3e17ffb7	0.14843641
248	0x3e235464	0.15950161
249	0xbda8d102	-0.0824299
250	0x3d8f51ad	0.06998
251	0x3b0556b7	0.0020345876
252	0x3e6545c9	0.22389902
253	0xbd20b2d0	-0.03923303
254	0x3dbd48ed	0.09242425
255	0xbd95ed48	-0.073206484

nnECG.0.bias f4 [128]
0	0x3ca0e0cb	0.01963844
1	0x3b3cb592	0.0028794748
2	0x3c442b25	0.011973177
3	0xbb9978bc	-0.004683582
4	0x3c419ef0	0.011817679
5	0x3c312af2	0.010813462
6	0x3a37f393	0.00070171914
7	0x3d0b0a78	0.03394553
8	0x3c8f977b	0.017528286
9	0x3c86c817	0.016452832
10	0x3c4c1bf2	0.012457835
11	0x3b8d5e02	0.004314185
12	0x3b015764	0.0019735927
13	0x3b89a9db	0.0042011566
14	0x3ca2be26	0.01986606
15	0x3b8395a2	0.0040156404
16	0x3bef06a6	0.0072944937
17	0x3b8aca3e	0.004235535
18	0x3ae5e63b	0.0017539928
19	0x3be271b3	0.0069105267
20	0xbc2a4dfb	-0.010394569
21	0x3c40c844	0.011766497
22	0x3c9b1439	0.018930541
23	0x3b8209c8	0.003968451
24	0x3cce6cf0	0.02519843
25	0x3c61bd0f	0.013777985
26	0x3bfb3e7f	0.007667362
27	0x3cb178af	0.021663992
28	0x3c90c6e6	0.017672967
29	0x3b82e582	0.0039946446
30	0x3c73e9d5	0.014887293
31	0x3bc128bb	0.005894748
32	0xbb34bcb5	-0.0027578298
33	0x3b1efc01	0.0024259093
34	0x3bd033eb	0.0063538454
35	0x3c69d824	0.014272723
36	0x3a7d75e7	0.0009668753
37	0x3c10fc4b	0.008849214
38	0x3c4a371f	0.012342243
39	0xbb6137fa	-0.003436564
40	0xbba87a79	-0.005141553
41	0x3bdf8540	0.0068213046
42	0x3afa0b3e	0.0019076837
43	0x3ce5941d	0.028024727
44	0x3ca0b9a4	0.01961977
45	0xbbac14db	-0.0052515096
46	0x3bc3cfca	0.005975698
47	0xbc577104	-0.013149504
48	0x3bccd7c9	0.0062513095
49	0x3bdc2eb7	0.006719436
50	0x3c615cc5	0.013755028
51	0x3c000d48	0.0078156665
52	0x3c152788	0.009103663
53	0x3caf6535	0.021410564
54	0x38d7ba4c	0.000102866994
55	0x3c0a5624	0.008443389
56	0x3c71a3fd	0.0147485705
57	0x3c2d9771	0.0105951885
58	0x3c2d8505	0.010590796
59	0xba55a273	-0.0008149512
60	0xbb6684f6	-0.0035174466
61	0x37b866bd	2.198235e-05
62	0x3ca3f4c0	0.020014167
63	0x389449fe	7.070972e-05
64	0x3cc1e001	0.023666384
65	0xbbf90640	-0.007599622
66	0x3bf2ab59	0.00740568
67	0x3c84cab1	0.016209932
68	0xbb4d3da1	-0.0031317251
69	0x3c050253	0.00811823
70	0x3b8cf1aa	0.0043012695
71	0x3ca0bc2c	0.019620977
72	0x3cb886c0	0.022525191
73	0x3974b7d7	0.00023338139
74	0x3c800763	0.015628522
75	0x3c8264f6	0.015917283
76	0x3b470b80	0.0030371845
77	0xbbbb856c	-0.0057226922
78	0xb82d0022	-4.1246538e-05
79	0x3bf88cdc	0.007585151
80	0x3c6f9f54	0.014625389
81	0x3c06f287	0.008236534
82	0x3cbb189c	0.022838883
83	0x3b803b8a	0.0039133476
84	0x3c76f816	0.015073797
85	0xb9d2bcad	-0.00040194896
86	0x3c1a7d05	0.009429221
87	0xb8d235d1	-0.000100236044
88	0x3b345472	0.0027516154
89	0x3b7660b5	0.0037594263
90	0x3ca14fe1	0.01969141
91	0x3c0044db	0.007828916
92	0x3b88c059	0.0041733203
93	0x3c771f37	0.015083126
94	0x3bdd44e3	0.0067525967
95	0x3c66a77a	0.014078015
96	0x3cc83cd6	0.024443071
97	0x3c84abcd	0.016195202
98	0x3c0b3c94	0.00849833
99	0x3c01e329	0.007927694
100	0x3bd98833	0.0066385507
101	0xba9442c6	-0.0011311404
102	0x3cc8b094	0.024498262
103	0x3ae58dac	0.0017513535
104	0x3c900a5b	0.017583063
105	0x3b0f7e0a	0.0021895193
106	0x3c182737	0.009286693
107	0x3c340049	0.010986396
108	0xbaacb261	-0.001317572
109	0x3c2a01fe	0.010376452
110	0x3c8093ed	0.015695537
111	0x3b08bc8c	0.0020864336
112	0x3bcc0765	0.0062264674
113	0x3c37f820	0.011228591
114	0x3c3b7bcb	0.011443089
115	0x3c45c596	0.012071034
116	0x3d0e901f	0.034805413
117	0x3d03ffc8	0.032226354
118	0x3b7911f9	0.0038005097
119	0x3cab6861	0.020923795
120	0x3be501ef	0.006988756
121	0x3b66d775	0.0035223637
122	0x3bf56e76	0.0074899746
123	0x3c508bc1	0.012728632
124	0x3cb905c2	0.022585753
125	0x3ccca1d0	0.024979502
126	0x3cba5a1a	0.022748042
127	0x3bc24c49	0.005929504

nnECG.1.weight f4 [128]
0	0x3f88f74a	1.0700467
1	0x3f6f5fe8	0.93505716
2	0x3f73d635	0.9524873
3	0x3f7c5058	0.98560095
4	0x3f8f20f9	1.1181937
5	0x3f8a3422	1.079716
6	0x3f81be06	1.0136116
7	0x3f8fe8cd	1.124292
8	0x3f85c469	1.0450565
9	0x3f8babe0	1.0911827
10	0x3f8c6909	1.0969554
11	0x3f87c7c6	1.0607841
12	0x3f7c8c7a	0.9865185
13	0x3f81d8d5	1.0144297
14	0x3f86a7d4	1.0519967
15	0x3f8873f1	1.0660383
16	0x3f7b0aca	0.9806334
17	0x3f8a4e59	1.080516
18	0x3f851a51	1.0398656
19	0x3f81e779	1.0148765
20	0x3f829b4b	1.0203642
21	0x3f8c2e92	1.0951712
22	0x3f7b4093	0.9814541
23	0x3f7d73dc	0.9900491
24	0x3f920426	1.1407516
25	0x3f8b6b92	1.0892203
26	0x3f77b031	0.9675322
27	0x3f87903f	1.0590895
28	0x3f98298b	1.1887678
29	0x3f76ee7d	0.96457654
30	0x3f8eabfc	1.1146235
31	0x3f751129	0.9572931
32	0x3f729cca	0.9477049
33	0x3f6e7649	0.9314924
34	0x3f84b1eb	1.0366796
35	0x3f830d77	1.0238484
36	0x3f8b5baf	1.0887355
37	0x3f88da31	1.0691587
38	0x3f8217f4	1.016356
39	0x3f82a4d5	1.0206553
40	0x3f81aced	1.0130898
41	0x3f86e8b5	1.0539767
42	0x3f7da924	0.99086213
43	0x3f831c9b	1.0243105
44	0x3f89eddb	1.0775713
45	0x3f820d7e	1.0160367
46	0x3f8862b8	1.0655127
47	0x3f7e164c	0.9925277
48	0x3f7c6cdf	0.98603624
49	0x3f845dce	1.0341127
50	0x3f82719a	1.0190918
51	0x3f84d690	1.0377979
52	0x3f88ccb3	1.0687469
53	0x3f843d50	1.0331211
54	0x3f71afd3	0.9440891
55	0x3f88c13e	1.0683973
56	0x3f81a07c	1.0127101
57	0x3f817583	1.0113987
58	0x3f809ad9	1.0047256
59	0x3f7cb181	0.9870835
60	0x3f7d6aa5	0.9899085
61	0x3f8b50a7	1.0883988
62	0x3f7b6663	0.98203105
63	0x3f805a58	1.0027571
64	0x3f82347e	1.0172269
65	0x3f910936	1.1330936
66	0x3f7afaa2	0.98038685
67	0x3f87e99f	1.061817
68	0x3f8b7bd9	1.089717
69	0x3f6f89e8	0.93569803
70	0x3f6c937a	0.9241253
71	0x3f84dbd7	1.037959
72	0x3f92c5e9	1.1466647
73	0x3f839a1d	1.0281407
74	0x3f7eea58	0.9957633
75	0x3f6ad601	0.91732794
76	0x3f8fc653	1.1232399
77	0x3f8565c6	1.0421684
78	0x3f830234	1.0235047
79	0x3f82e200	1.022522
80	0x3f718d77	0.94356483
81	0x3f914606	1.1349494
82	0x3f7cfd44	0.9882395
83	0x3f816870	1.0109997
84	0x3f7723d4	0.96539044
85	0x3f877f8c	1.0585799
86	0x3f927322	1.1441386
87	0x3f867dd9	1.0507156
88	0x3f82145a	1.0162461
89	0x3f872426	1.0557907
90	0x3f82e14b	1.0225004
91	0x3f89ca0d	1.0764786
92	0x3f814645	1.009957
93	0x3f805f91	1.0029165
94	0x3f88425a	1.0645249
95	0x3f7ee7b5	0.99572307
96	0x3f8c4bd2	1.0960639
97	0x3f8bc228	1.0918627
98	0x3f8afccf	1.0858401
99	0x3f8134d8	1.0094252
100	0x3f741bd7	0.9535498
101	0x3f812940	1.0090714
102	0x3f8a8b52	1.0823767
103	0x3f7cecbc	0.9879873
104	0x3f86d57d	1.0533901
105	0x3f8c5a1e	1.0965002
106	0x3f737a0a	0.9510809
107	0x3f8b6e16	1.089297
108	0x3f7947fa	0.9737545
109	0x3f801772	1.0007155
110	0x3f837d71	1.0272657
111	0x3f806ab9	1.0032569
112	0x3f7c328b	0.9851462
113	0x3f8c2e1f	1.0951575
114	0x3f88526d	1.0650154
115	0x3f809e0e	1.0048234
116	0x3f8fcb04	1.123383
117	0x3f80641d	1.0030552
118	0x3f805ea9	1.0028888
119	0x3f810446	1.0079429
120	0x3f854571	1.0411817
121	0x3f7b4df9	0.9816585
122	0x3f879a88	1.0594034
123	0x3f8f8f1a	1.1215546
124	0x3f8489c5	1.0354544
125	0x3f870e9e	1.0551336
126	0x3f837f71	1.0273267
127	0x3f85c5b9	1.0450965

nnECG.1.bias f4 [128]
0	0x3c5fa533	0.013650226
1	0xbc8caf53	-0.017173445
2	0xbbdbb85f	-0.0067053284
3	0xbcb46416	-0.022020381
4	0x3c05c431	0.008164451
5	0xb9581a8f	-0.00020609259
6	0xbb1c9ce7	-0.0023897232
7	0x3c1a058c	0.009400737
8	0x3c245af2	0.010031449
9	0x3b91d134	0.004449988
10	0x3a5526fd	0.0008131115
11	0xbba1873f	-0.0049294527
12	0xba446a3a	-0.00074926356
13	0xbc977e80	-0.018492937
14	0x390dd29b	0.00013525265
15	0x3a819b5b	0.0009888218
16	0xbaf5ff6e	-0.001876814
17	0xb9c67c89	-0.0003785829
18	0xbcf6a5db	-0.030108383
19	0xba410a3c	-0.0007363891
20	0xbc869709	-0.016429441
21	0xbba943f8	-0.005165573
22	0x3bd5de8b	0.0065267733
23	0xbbc767e6	-0.0060853837
24	0x3c401d24	0.011725698
25	0xbaff686c	-0.0019486076
26	0xb9db36d8	-0.00041811797
27	0x3c799889	0.015234121
28	0x3c5fcdae	0.013659878
29	0xb9da217b	-0.00041605145
30	0xbc237b16	-0.009978076
31	0xbc386e03	-0.011256698
32	0xbc4655ec	-0.012105446
33	0xbbb0898b	-0.00538749
34	0x3aee74f8	0.0018192818
35	0x3bc671b1	0.0060560335
36	0xbb20b9c7	-0.0024524794
37	0xb9fb49ae	-0.00047929346
38	0x3c775c3f	0.015097677
39	0xbc344340	-0.011002362
40	0xbc385652	-0.011251049
41	0xbc7524fa	-0.014962429
42	0xbcac7a69	-0.021054463
43	0x3c690eec	0.014224749
44	0x3c27872b	0.010225098
45	0xbc5e492d	-0.013567251
46	0xbc5c6db3	-0.013453889
47	0xbcc35825	-0.023845742
48	0xbc5d6053	-0.013511735
49	0xbbeb53ad	-0.007181606
50	0x3bd25850	0.006419219
51	0xbbb84271	-0.005623155
52	0xbab26409	-0.0013610135
53	0x3bac3be2	0.005256162
54	0xbb800aca	-0.003907536
55	0x389d0497	7.487198e-05
56	0x3bd42685	0.0064743184
57	0x3b5f90c7	0.0034113394
58	0xbc3a79f9	-0.01138162
59	0xbb9a7ac8	-0.0047143437
60	0xbc3e16e9	-0.011602142
61	0xbc2d882d	-0.010591549
62	0x3c0af59c	0.008481409
63	0xbca020df	-0.019546924
64	0xbb2c9a66	-0.0026337146
65	0xbc8475b7	-0.016169412
66	0xbbce17c4	-0.006289454
67	0x3b431ce3	0.0029771856
68	0xbc656727	-0.014001644
69	0x3b9bbb9b	0.004752589
70	0xbbc1e8fe	-0.0059176674
71	0xba80e717	-0.0009834495
72	0x3c99912c	0.018745981
73	0x3ad56561	0.0016280824
74	0x3bcbb8de	0.0062171062
75	0x39ebe85a	0.00044995808
76	0xbbc4894f	-0.005997814
77	0xbc35bd0d	-0.0110924365
78	0xbc78f7a8	-0.015195765
79	0xbc12fe5f	-0.00897178
80	0x3bf77935	0.007552291
81	0x3a233e62	0.00062272523
82	0x3bb3bd89	0.005485241
83	0x3abf6906	0.0014603443
84	0x3b82b700	0.0039891005
85	0xbba3090d	-0.004975444
86	0x3c5fdec3	0.01366395
87	0xbbbe2508	-0.0058027543
88	0xbc49b6a6	-0.012311613
89	0xbbb40045	-0.005493196
90	0x3c2856c8	0.0102745965
91	0x39f8fab0	0.00047489023
92	0xbb1d74c9	-0.0024025908
93	0xbbbaf50a	-0.0057054805
94	0x3a0cb579	0.00053676177
95	0x3b9b51b1	0.004739963
96	0x3cd62e79	0.026145207
97	0x3c182fd9	0.0092887515
98	0xbae79214	-0.0017667436
99	0xbbb318d1	-0.005465605
100	0xbc574a43	-0.013140264
101	0x390d0323	0.00013447976
102	0x3c47ff4f	0.012206866
103	0xbc956b45	-0.018239627
104	0x3c2232c6	0.009899801
105	0xbb3c5278	-0.0028735679
106	0xbbef0e45	-0.007295402
107	0xb9b5bd99	-0.00034664272
108	0xbc08d26a	-0.008350948
109	0xbbeb1702	-0.0071743736
110	0x3b9c28ee	0.0047656214
111	0xbc47fb27	-0.0122058755
112	0xbbc9784d	-0.006148374
113	0x3be30ab8	0.006928768
114	0x39f82329	0.00047328442
115	0x3b785517	0.0037892514
116	0x3cc975f7	0.024592383
117	0x3c0070b2	0.007839369
118	0xbc27fe32	-0.010253476
119	0x3c3d0356	0.01153644
120	0x398ca397	0.00026824765
121	0xbbcb439a	-0.006203127
122	0x3a3e7693	0.0007265594
123	0x3c278efd	0.010226962
124	0x3cc55731	0.024089428
125	0x3c985ddf	0.018599449
126	0x3c73ab8b	0.014872442
127	0xbad3f9bd	-0.001617245

nnECG.1.running_mean f4 [128]
0	0xbf1703f8	-0.5899043
1	0x3e920a7b	0.2852362
2	0xbe248b0c	-0.16068667
3	0x3dd49eda	0.10381861
4	0x3e853fe1	0.26025298
5	0xbea0d473	-0.31412086
6	0xbe40d4dd	-0.18831201
7	0xbef9d2db	-0.48793682
8	0xbea2bf13	-0.31786403
9	0x3e424bab	0.18974178
10	0xbd47d526	-0.04878726
11	0xbd58ffc0	-0.052978277
12	0x3e50c5fd	0.20388027
13	0xbdd3d828	-0.10343963
14	0x3d28d7ca	0.041221417
15	0x3d4dc4af	0.0502364
16	0x3e12b196	0.14325556
17	0x3e410c1e	0.18852279
18	0xbe04b753	-0.12960558
19	0xbdd3da8d	-0.1034442
20	0x3ededa2a	0.4352582
21	0xbe216053	-0.15759401
22	0xbe2c1412	-0.16804531
23	0x3de95b67	0.11394387
24	0xbd49dbfe	-0.049282067
25	0xbe0741c7	-0.13208686
26	0x3e336682	0.17519572
27	0xbeb01f26	-0.34398764
28	0xbdbd7a17	-0.092518024
29	0x3ee310a2	0.44348627
30	0xbe2c2341	-0.16810323
31	0xbe8c8ea9	-0.2745259
32	0xbd37c35d	-0.044864047
33	0x3e18c54b	0.14919011
34	0xbe85f0f8	-0.26160407
35	0x3eecbce6	0.46237868
36	0x3f0091de	0.50222576
37	0x3dd31960	0.10307574
38	0xbcfbcb8f	-0.030736713
39	0x3ecb6462	0.39725024
40	0x3e0af5ca	0.13570324
41	0xbd73bb94	-0.05950506
42	0x3ea6e984	0.32600033
43	0xbe94972c	-0.29021585
44	0xbeadb362	-0.3392592
45	0x3eef3213	0.4671789
46	0x3d77dbd9	0.060512397
47	0x3e8646ba	0.26225835
48	0x3e826692	0.2546888
49	0x3ea31741	0.3185368
50	0xbcbb9ba9	-0.022901373
51	0xbe2acf36	-0.16680607
52	0xbd93b641	-0.072124965
53	0xbf053741	-0.52037436
54	0x3e4a5fa3	0.19763045
55	0x3e6c0b61	0.23051216
56	0x3da50e5e	0.08059381
57	0xbed19b26	-0.4093868
58	0x3e035432	0.12825087
59	0x3dbd728c	0.09250364
60	0x3e2366ee	0.15957233
61	0x3ede4b8a	0.43417007
62	0x3eac3b0a	0.33638793
63	0xbebc12ad	-0.36732998
64	0xbec56d17	-0.3855979
65	0x3e99e14c	0.300547
66	0xbe35d677	-0.17757593
67	0xbec8ab80	-0.39193344
68	0x3edf8eb0	0.4366355
69	0xbd9fbf32	-0.078001395
70	0x3e04b7e6	0.12960777
71	0xbeabf8dd	-0.33588305
72	0x3c3cbc8b	0.0115195615
73	0xbec353d7	-0.38149902
74	0x3eecc3dc	0.4624318
75	0x3dbd1e43	0.092342876
76	0xbb7136a9	-0.0036806262
77	0xbc275256	-0.0102125015
78	0xbc8fce87	-0.017554535
79	0xbbee6ff4	-0.0072765294
80	0xbee32155	-0.44361368
81	0x3e722c2f	0.23649667
82	0xbe40f35e	-0.18842837
83	0xbd9e0922	-0.07716586
84	0xbf02fed2	-0.51170075
85	0x3e896d0f	0.26841018
86	0xbdd33f86	-0.103148505
87	0x3e9c403a	0.3051775
88	0xbd0094d6	-0.03139194
89	0xbdbab9bc	-0.09117457
90	0xbea73a90	-0.32661867
91	0x3ddc16c1	0.107465275
92	0x3d9cfe2c	0.07665667
93	0xbd61483e	-0.055000536
94	0xbd9bbd89	-0.0760451
95	0x3e6acb58	0.22929132
96	0x3cce285f	0.025165735
97	0x3d0bed44	0.03416182
98	0xbdf123a8	-0.11774379
99	0xbda62df0	-0.08114231
100	0x3f1a9653	0.60385627
101	0xbe1f5066	-0.15558013
102	0x3d0d5d30	0.0345127
103	0xbc9c8d7a	-0.01911043
104	0xbc759d9f	-0.014991193
105	0xbeb65b07	-0.35616323
106	0xbe8b185f	-0.2716703
107	0x3e9d5270	0.30726957
108	0x3e3fc13b	0.18726055
109	0xbec1f29c	-0.3788041
110	0x3c9cb757	0.019130392
111	0x3f0be2cb	0.54642934
112	0xbeaa7fef	-0.3330073
113	0x3e220c94	0.1582511
114	0x3d9f10cb	0.07766875
115	0x3cf67d59	0.030089067
116	0xbe4b95c6	-0.19881353
117	0xbed8d081	-0.42346576
118	0x3db321e5	0.08746699
119	0xbe1d57b4	-0.15365487
120	0xbd9a20e7	-0.07525807
121	0x3d40660b	0.046972316
122	0x3edecf10	0.4351735
123	0x3e47939d	0.19489904
124	0x3de33b9c	0.11095354
125	0x3e686c2a	0.22697511
126	0xbf3d60c7	-0.73975796
127	0x3de29965	0.11064414

nnECG.1.running_var f4 [128]
0	0x3d98589c	0.07438776
1	0x3d950b08	0.07277495
2	0x3d99b703	0.0750561
3	0x3d9ed05e	0.07754587
4	0x3d98a810	0.074539304
5	0x3d9597c8	0.073043406
6	0x3d9ff41e	0.078102335
7	0x3d957c78	0.07299131
8	0x3d97cdab	0.07412275
9	0x3d95f6f5	0.07322494
10	0x3d9992ea	0.07498725
11	0x3d94905a	0.072540954
12	0x3d95c128	0.07312232
13	0x3d968776	0.07350056
14	0x3d9853e2	0.074378744
15	0x3d95044b	0.072762094
16	0x3d9880fe	0.07446478
17	0x3d95d5e8	0.0731619
18	0x3d941e25	0.07232312
19	0x3d94603d	0.072449185
20	0x3d979f5b	0.074034415
21	0x3d95b8a7	0.0731061
22	0x3d979b8a	0.074027136
23	0x3d96472d	0.073377945
24	0x3d988761	0.074476965
25	0x3d9c9efc	0.07647511
26	0x3d947937	0.072496824
27	0x3d953844	0.072861224
28	0x3d96a7f6	0.07356255
29	0x3d95ad68	0.07308465
30	0x3d972fe2	0.0738218
31	0x3d93fcf0	0.072259784
32	0x3d959d31	0.073053725
33	0x3d96c3ba	0.07361551
34	0x3d97c334	0.07410279
35	0x3d963184	0.07333663
36	0x3d94c35f	0.072638266
37	0x3d97db1a	0.07414837
38	0x3d9e92db	0.07742854
39	0x3d98a690	0.07453644
40	0x3d974853	0.073868416
41	0x3da18dfb	0.07888409
42	0x3d98be36	0.07458155
43	0x3d9643be	0.073371395
44	0x3d9574f7	0.072977
45	0x3da2ef41	0.0795579
46	0x3d9996d6	0.07499473
47	0x3da88259	0.08227987
48	0x3d9752cc	0.07388839
49	0x3d949222	0.07254435
50	0x3d958063	0.072998784
51	0x3d95c6b2	0.07313289
52	0x3d96187b	0.07328888
53	0x3d989427	0.07450133
54	0x3d949c0e	0.072563276
55	0x3d979366	0.07401161
56	0x3d95e3d8	0.07318848
57	0x3d9469a4	0.07246712
58	0x3d9a243b	0.07526442
59	0x3d969c76	0.07354061
60	0x3d980bd6	0.074241325
61	0x3d9a0094	0.075196415
62	0x3d97feb4	0.07421628
63	0x3d99b9c9	0.07506139
64	0x3d98803f	0.07446336
65	0x3d990229	0.07471115
66	0x3d9646d0	0.07337725
67	0x3d94a6fb	0.072584115
68	0x3d9429cb	0.07234534
69	0x3d942e0b	0.072353445
70	0x3d9841f9	0.07434458
71	0x3d947d86	0.07250504
72	0x3d9cab28	0.07649833
73	0x3d960578	0.07325262
74	0x3d9971d6	0.074924156
75	0x3d96b9a5	0.07359628
76	0x3d9ba845	0.07600454
77	0x3d98da54	0.07463518
78	0x3d9978c4	0.07493737
79	0x3d94ab0d	0.07259188
80	0x3d936471	0.07196892
81	0x3d949f62	0.07256962
82	0x3d945a58	0.07243794
83	0x3d9b172b	0.07572778
84	0x3d9582b2	0.07300319
85	0x3da0e598	0.078562915
86	0x3d958c60	0.07302165
87	0x3d96170c	0.073286146
88	0x3d982ce8	0.0743044
89	0x3d98f5a0	0.07468724
90	0x3d97315d	0.07382462
91	0x3d945516	0.07242791
92	0x3d9835ae	0.074321136
93	0x3d94b14f	0.072603814
94	0x3da09d30	0.07842481
95	0x3d976caf	0.073937766
96	0x3d945a57	0.072437935
97	0x3d99b8b8	0.075059354
98	0x3d9787eb	0.07398971
99	0x3d963448	0.073341906
100	0x3d94a21b	0.07257482
101	0x3d9a5c09	0.075370856
102	0x3d94761a	0.072490886
103	0x3d99e458	0.07514256
104	0x3d97a627	0.07404738
105	0x3d95761c	0.07297918
106	0x3d965341	0.07340098
107	0x3d9dd31a	0.0770628
108	0x3d94fb0d	0.07274447
109	0x3d9cce5e	0.07656549
110	0x3d9604d0	0.07325137
111	0x3d9f4fd1	0.07778896
112	0x3d977f16	0.073972866
113	0x3d94fe1e	0.072750315
114	0x3d9449cc	0.07240638
115	0x3d96ca5b	0.07362815
116	0x3d9ab05f	0.07553171
117	0x3d96f23d	0.07370422
118	0x3d965335	0.07340089
119	0x3d935229	0.07193405
120	0x3d9fac70	0.07796562
121	0x3d955089	0.072907515
122	0x3d9b1d14	0.075739056
123	0x3d990ce9	0.074731655
124	0x3d99d9bd	0.075122334
125	0x3d9c03d3	0.07617917
126	0x3d9839e0	0.07432914
127	0x3d997ead	0.074948646

nnECG.4.weight f4 [64, 128]
0	0x3baf208f	0.0053444575
1	0xbd84dbc4	-0.064872295
2	0xbe2c31f1	-0.16815926
3	0xbc16822f	-0.009186312
4	0xbc621854	-0.013799746
5	0x3bfac36c	0.0076526906
6	0xbdbb5377	-0.09146779
7	0x3e282243	0.1641932
8	0x3dea566e	0.114422664
9	0xbe733832	-0.23751906
10	0xbe5e1afa	-0.21689978
11	0x3daf0704	0.0854626
12	0x3dea4f3c	0.11440894
13	0x3e04e58b	0.12978189
14	0xbe62c4a7	-0.2214533
15	0x3e3a97db	0.18221991
16	0xbe16e046	-0.14733991
17	0x3e1074e0	0.14107084
18	0xbdeb2117	-0.11480921
19	0xbe17b691	-0.14815737
20	0xbd09e117	-0.033661928
21	0xbdab36d6	-0.083600685
22	0x3d233911	0.039849345
23	0xbddbc554	-0.10730997
24	0x3e6dfed4	0.2324174
25	0xbd0c71d8	-0.034288257
26	0xbd664648	-0.05621937
27	0x3d579beb	0.05263893
28	0x3e31c69c	0.1736092
29	0xbdcf7f69	-0.101317234
30	0x3e151dd7	0.14562164
31	0x3dd368aa	0.103226975
32	0xbe3fa777	-0.18716227
33	0xbdcb5bde	-0.09929632
34	0xbddf2f1e	-0.10897659
35	0x3e27d803	0.16390996
36	0xbcd69fd9	-0.026199268
37	0x3e0c6727	0.13711224
38	0x3c997dd6	0.018736761
39	0x3e3c5248	0.18390763
40	0x3d4e3709	0.050345454
41	0x3bdca418	0.0067334287
42	0xbe0f6c08	-0.14006054
43	0xbe1661a8	-0.1468569
44	0xbdec4880	-0.11537266
45	0xbd5b913f	-0.053605314
46	0xbc4185bf	-0.011811673
47	0x3db692d7	0.08914726
48	0xbc81220f	-0.01576331
49	0x3e1c65ef	0.1527326
50	0xbd961c45	-0.07329611
51	0x3e17045d	0.14747758
52	0xbd50c4bf	-0.05096888
53	0x3e053775	0.13009436
54	0x3c845f8c	0.016158842
55	0xbe25d735	-0.16195376
56	0xbd032a5f	-0.03202283
57	0x3de3d3c8	0.111243784
58	0x3e31a09a	0.17346421
59	0xbde51c30	-0.11187017
60	0xbdfb40ae	-0.12268196
61	0xbdb8ff56	-0.090330765
62	0xbe109aa5	-0.14121492
63	0xbd5eab11	-0.05436236
64	0x3e17ceb6	0.14824948
65	0x3db4e1f2	0.08832158
66	0x3d9d3a17	0.076770954
67	0xbd118974	-0.035531476
68	0xbd18795a	-0.037225105
69	0xbe22d685	-0.15902145
70	0xbd3076b8	-0.04308197
71	0xbcadb7b3	-0.021205759
72	0xbe9c0b59	-0.30477408
73	0xbe049b75	-0.12949927
74	0xbc2e9ea6	-0.010657942
75	0x3d6c9aab	0.05776469
76	0x3be0a126	0.006855148
77	0x3d1077eb	0.035270613
78	0x3d7bf7e6	0.06151571
79	0xbd831da9	-0.064021416
80	0xbdd6cb3e	-0.10487984
81	0x3d0d4c2a	0.034496464
82	0x3d3fde15	0.046842653
83	0x3e3e4560	0.18581152
84	0xbe0f1d35	-0.13975985
85	0x3d7b41ad	0.06134193
86	0xbe89b8f2	-0.26898915
87	0x3d15ad99	0.03654251
88	0xbc37125d	-0.011173812
89	0x3da3ba14	0.07994476
90	0x3db1d429	0.086830445
91	0x3e58063a	0.21096125
92	0xbd36ebb4	-0.044658378
93	0x3dc66bf9	0.09688563
94	0x3deb396b	0.11485561
95	0x3d576ed3	0.052595925
96	0x3e770012	0.2412112
97	0x3d56cecb	0.052443307
98	0xbbfbe998	-0.0076877587
99	0x3d5454af	0.051838573
100	0xbdd343fc	-0.10315701
101	0xbd319774	-0.043357328
102	0x3d9911dc	0.074741095
103	0xbe293307	-0.16523372
104	0x3d1c01a6	0.03808751
105	0x3d8a522b	0.067539535
106	0xbe4ae4bb	-0.19813816
107	0x3d17d08f	0.03706413
108	0xbd19128b	-0.0373712
109	0x3e04f1bd	0.12982841
110	0x3c4ec9a6	0.012621319
111	0xbdcd58ef	-0.10026728
112	0xbd179c4f	-0.037014302
113	0x3e790de0	0.24321699
114	0xbdcea267	-0.100895695
115	0x3e0087ac	0.12551755
116	0x3e27cbdb	0.16386358
117	0xbde44300	-0.11145592
118	0x3d20989c	0.03920804
119	0xbe118bb2	-0.14213446
120	0x3df1b7a6	0.11802606
121	0x3d586413	0.052829813
122	0x3cafa62c	0.021441542
123	0xbdcb689f	-0.09932064
124	0x3e0719f7	0.13193499
125	0xbe1e26b0	-0.15444446
126	0x3c280fcf	0.010257675
127	0x3d85e183	0.065371536
128	0x3dbb1d0f	0.09136402
129	0xbd073e36	-0.033018313
130	0x3d86e2d0	0.0658623
131	0x3dfd62b9	0.123723455
132	0x3e0f8ec4	0.14019305
133	0x3e3c0903	0.18362813
134	0x3e1dbc21	0.15403797
135	0xbdedec38	-0.11617321
136	0xbe3cea23	-0.18448691
137	0x3da4f64d	0.08054791
138	0x3e0bba1a	0.13645211
139	0x3e1095b0	0.14119601
140	0xbd912922	-0.070879236
141	0xbc946db6	-0.01811872
142	0x3e1f1b2b	0.15537708
143	0xbe17fcdf	-0.14842556
144	0xbd86d975	-0.065844454
145	0xbd6ba801	-0.057533268
146	0xbdfbc583	-0.12293532
147	0xbd35bd41	-0.04436994
148	0x3d17ed6d	0.03709166
149	0x3da34458	0.0797202
150	0x3e16b7d8	0.14718568
151	0x3cf1e796	0.029529374
152	0xbc9f7a18	-0.019467399
153	0x3df6b279	0.1204576
154	0x3c0af653	0.00848158
155	0x3dd9d682	0.10636617
156	0xbe0026f3	-0.12514858
157	0xbe22911f	-0.15875672
158	0xbe53a452	-0.20668152
159	0xbd878aeb	-0.066182934
160	0x3c5fe993	0.013666528
161	0x3e110b8c	0.14164561
162	0x3e1642dd	0.14673944
163	0xbd0861e8	-0.033296496
164	0x3dc34a70	0.09535682
165	0xbe399bc8	-0.18125832
166	0xbcdc0950	-0.02685991
167	0xbe168684	-0.14699751
168	0x3d2215c4	0.03957154
169	0x3dd7ca0a	0.10536583
170	0xbd8159d8	-0.063159645
171	0xbd8e3075	-0.06942836
172	0xbe103f7b	-0.14086716
173	0xbe2f2ad6	-0.17106184
174	0xbe459719	-0.1929592
175	0xbe3e77f6	-0.18600449
176	0x3d505923	0.050866257
177	0xbe533b19	-0.20628013
178	0xbcad6bc5	-0.021169553
179	0x3da966ab	0.082715355
180	0x3d5b50f0	0.053543985
181	0x3e2bffb1	0.16796757
182	0xbdac5102	-0.084138885
183	0xbcf3a3f5	-0.029741267
184	0x3d8a4e5c	0.06753227
185	0x394a3694	0.00019284553
186	0xbda0592f	-0.078295104
187	0x3ccc68d2	0.024952326
188	0x3dd260d2	0.10272373
189	0x3de7d186	0.1131926
190	0x3d65ae5a	0.056074478
191	0xbd92806f	-0.07153403
192	0xbe01b231	-0.12665631
193	0xbe1168a3	-0.14200072
194	0x3dbce7eb	0.09223922
195	0x3d89f601	0.06736375
196	0x3d0d3f0a	0.034483947
197	0xbcbbc65f	-0.02292174
198	0x3d4c1d42	0.04983259
199	0x3e0c12a5	0.13678987
200	0x3d43d7e3	0.047813307
201	0xbd71c693	-0.059027266
202	0x3d8e470d	0.069471456
203	0x3dea6c4e	0.11446439
204	0x3d8e1bb4	0.06938878
205	0xbe01f6b0	-0.1269176
206	0x3e05d9a2	0.13071302
207	0x3dc946de	0.0982797
208	0xbdb4cded	-0.0882834
209	0x3e354743	0.17702965
210	0x3d7937fa	0.0608444
211	0x3e1763b2	0.14784124
212	0xbcecd271	-0.02890894
213	0xbe3e7a27	-0.18601285
214	0xbd43feb6	-0.047850333
215	0x3dadb7b9	0.08482308
216	0xbd8b8ce1	-0.0681398
217	0x3db06813	0.086136006
218	0x3dff217a	0.12457557
219	0xbd851f3a	-0.065000966
220	0x3da34f9f	0.07974171
221	0x3e29464f	0.16530727
222	0x3de406d2	0.11134113
223	0xbdc6a1f2	-0.09698857
224	0xbdf3dfba	-0.11907907
225	0x3d7286c5	0.059210557
226	0xbdc26a04	-0.09492877
227	0xbde61224	-0.11233929
228	0x3d720007	0.059082057
229	0xbc8ea499	-0.01741247
230	0xbd7af1c7	-0.061265733
231	0x3d829006	0.063751265
232	0xbe5ae46b	-0.21376197
233	0x3c84e66b	0.016223153
234	0xbdb8f60a	-0.09031303
235	0xbe1e223c	-0.15442747
236	0x3d072a04	0.032999054
237	0xbd0f5075	-0.03498884
238	0xbd701462	-0.05861319
239	0xbbeb988b	-0.0071898154
240	0xbe088077	-0.13330255
241	0x3e393210	0.18085504
242	0x3d8f32e0	0.069921255
243	0xbc7a5e09	-0.015281209
244	0xbcb0f26c	-0.02159997
245	0x3e052bb2	0.1300495
246	0xbe40c418	-0.18824804
247	0xbcfcebfe	-0.030874249
248	0x3d6e5319	0.058184717
249	0x3d722051	0.05911285
250	0x3c95cfc2	0.018287543
251	0xbe2a681e	-0.1664128
252	0x3e5b0966	0.21390304
253	0x37837f07	1.5675569e-05
254	0xbd86301e	-0.065521464
255	0x3d86bf33	0.06579437

nnECG.4.bias f4 [64]
0	0x3cc9a667	0.02461548
1	0xbc114025	-0.008865391
2	0x3d213cc6	0.0393646
3	0x3ce24af1	0.027623625
4	0xbc5ffd39	-0.013671213
5	0x3d005a62	0.031336196
6	0x3a99b912	0.0011728129
7	0x3c9885ea	0.018618543
8	0xbab96dc4	-0.0014147093
9	0x3ca5bb05	0.02023078
10	0xbc90c158	-0.017670318
11	0x3b40aabb	0.0029398638
12	0xbc439e5e	-0.011939613
13	0x3cc7c206	0.02438451
14	0x3ce0412a	0.027374823
15	0x3cc6a48b	0.024248382
16	0x3c8df32c	0.017327867
17	0x3c050950	0.008119896
18	0xba8bde51	-0.0010671114
19	0xbc0c1625	-0.008550202
20	0x3d135ffa	0.035980202
21	0xbc5876cc	-0.013211917
22	0xbc872caf	-0.016500799
23	0x3caf87c1	0.021427037
24	0xbaaea490	-0.001332419
25	0xbbda0414	-0.006653318
26	0xbbc05f28	-0.0058707185
27	0xbcbe1379	-0.023202645
28	0x3c647416	0.013943693
29	0x3d0f9130	0.03505057
30	0xbc26105d	-0.010135737
31	0x3d04452f	0.03229254
32	0x3cb33449	0.021875517
33	0x3c88946c	0.016672336
34	0x3c0abb37	0.008467487
35	0x3c228f70	0.0099218935
36	0x3b36941f	0.0027859283
37	0x3cc5cb2a	0.024144728
38	0xbc9f392f	-0.019436447
39	0x3cc84d7f	0.024451016
40	0xbbab1c78	-0.0052218996
41	0xbd26a9a2	-0.04068912
42	0x3d03a1a7	0.032136586
43	0x3cb4ad5b	0.022055319
44	0xbcb97975	-0.022640923
45	0x3cc1de0d	0.023665452
46	0x3c1d3481	0.009595037
47	0x3c9ad99f	0.018902598
48	0x3d218fee	0.039443903
49	0xbb2688ac	-0.0025411053
50	0x3cb407dd	0.021976406
51	0xbcbfc13d	-0.023407573
52	0x3cbbea85	0.022938976
53	0x3d11182d	0.035423446
54	0xbd39400b	-0.04522709
55	0x3d04e7ed	0.032447744
56	0x3c8cb718	0.01717715
57	0x3b4ffa9c	0.0031735068
58	0xbc8201ec	-0.015870057
59	0xbc264ff6	-0.0101509
60	0x3a4c5b9f	0.0007795635
61	0xbbfcfd85	-0.0077206516
62	0x3cdfdf0c	0.027328037
63	0xbc6560f4	-0.014000166

nnECG.5.weight f4 [64]
0	0x3f9104af	1.1329554
1	0x3f7d4162	0.9892789
2	0x3f94df99	1.1630737
3	0x3f836088	1.0263834
4	0x3f8a4a1e	1.0803869
5	0x3f824eaf	1.0180262
6	0x3f89d3b4	1.0767732
7	0x3f7afc38	0.98041105
8	0x3f7e96f8	0.9944911
9	0x3f97d196	1.1860836
10	0x3f7d1e07	0.98873943
11	0x3f86c804	1.052979
12	0x3f838ef3	1.0278
13	0x3f8357a4	1.0261121
14	0x3f86c24c	1.0528045
15	0x3f877a70	1.058424
16	0x3f8583db	1.0430864
17	0x3f88aaf2	1.0677168
18	0x3f813fb2	1.0097563
19	0x3f80b154	1.0054116
20	0x3fa94651	1.3224584
21	0x3f83ebe6	1.0306365
22	0x3f89ab6d	1.075544
23	0x3f8b31b3	1.0874542
24	0x3f916506	1.1358955
25	0x3f82d8f5	1.022246
26	0x3f863ec4	1.0487905
27	0x3f82074a	1.0158474
28	0x3f835417	1.0260037
29	0x3f96ae43	1.177193
30	0x3f85a75c	1.0441699
31	0x3f8b99cf	1.0906314
32	0x3f83462c	1.025579
33	0x3f791837	0.97302574
34	0x3f8b7edc	1.089809
35	0x3f855251	1.0415746
36	0x3f75bd19	0.95991665
37	0x3f90974f	1.1296176
38	0x3f793d5d	0.9735926
39	0x3f906bbe	1.128288
40	0x3f84e386	1.0381935
41	0x3f808408	1.0040293
42	0x3f85ec85	1.0462805
43	0x3f9384c0	1.1524887
44	0x3f811541	1.0084611
45	0x3f83904f	1.0278414
46	0x3f885019	1.0649444
47	0x3f8b19be	1.0867231
48	0x3f8ce3d4	1.1007028
49	0x3f945cf4	1.1590867
50	0x3f853bd8	1.0408888
51	0x3f7ed745	0.99547225
52	0x3f84b554	1.0367837
53	0x3f8d873e	1.1056898
54	0x3f912cd5	1.1341807
55	0x3fa00196	1.2500484
56	0x3f85bf13	1.0448936
57	0x3f7e2a72	0.99283516
58	0x3f87ea18	1.0618315
59	0x3f92ca88	1.1468058
60	0x3f838417	1.0274686
61	0x3f89d246	1.0767295
62	0x3f8d6db2	1.1049101
63	0x3f816cd5	1.0111338

nnECG.5.bias f4 [64]
0	0x3cc23fc0	0.023712039
1	0xbce24c8c	-0.027624391
2	0x3d10ba58	0.03533396
3	0x3cc31c3f	0.02381718
4	0xbcd4caee	-0.02597567
5	0x3cc4a8d2	0.024006281
6	0xbb3f5c7d	-0.0029199414
7	0x3c07dd6c	0.008292537
8	0xbcc464b4	-0.0239738
9	0x3c8200c9	0.015869515
10	0xbd017dda	-0.031614162
11	0xbb95ebe3	-0.004575239
12	0xbcf88132	-0.030335043
13	0x3c741424	0.01489738
14	0x3c830a17	0.015996022
15	0x3beee35a	0.007290286
16	0x3b4cd0cd	0.0031252385
17	0xbc45ab97	-0.012064836
18	0xbca4c9d8	-0.020115778
19	0xbccbd685	-0.024882564
20	0x3cf2e1be	0.029648658
21	0xbc92325d	-0.01784628
22	0xbc881cce	-0.016615298
23	0x3be5b43c	0.007010011
24	0xbc229901	-0.009924174
25	0xbcd9ed44	-0.026602395
26	0xbce67045	-0.028129706
27	0xbc9e602b	-0.019332966
28	0x3c347f57	0.011016688
29	0x3cd9be5e	0.026580032
30	0xbcf804be	-0.030275699
31	0x3c979439	0.018503295
32	0xbb3c4d61	-0.0028732645
33	0x3c553fb4	0.013015676
34	0xbb9087ca	-0.0044107186
35	0x3ac5043c	0.0015031169
36	0xbc8647e7	-0.016391708
37	0x3cacf685	0.021113643
38	0xbce1bb95	-0.027555266
39	0x3c32c0c7	0.0109102195
40	0xbc4f3344	-0.0126465
41	0xbd3c569b	-0.04598103
42	0x3c9f1f8d	0.019424224
43	0x3c9e7ceb	0.019346675
44	0xbd05c56e	-0.032658987
45	0x3c677341	0.0141266
46	0xb985144c	-0.0002538286
47	0xbb2929fd	-0.002581238
48	0x3cfe470d	0.031039739
49	0xbb92070e	-0.0044564074
50	0x3c84efa1	0.016227545
51	0xbd28f8d7	-0.041252937
52	0x3c2b1d1b	0.010443951
53	0x3ccb0778	0.024783835
54	0xbd441b1a	-0.04787741
55	0x3d192807	0.03739169
56	0x3c3725d8	0.011178456
57	0xbc611678	-0.013738267
58	0xbcddb396	-0.027063172
59	0xbc5f9d54	-0.01364835
60	0x3a52e037	0.0008044275
61	0xbc83fc1b	-0.016111424
62	0x3be1e9b4	0.0068943147
63	0xbd01ef2f	-0.031722244

nnECG.5.running_mean f4 [64]
0	0x3da5b8ce	0.08091889
1	0x3eac1e25	0.33616748
2	0x3f0fdcc6	0.5619625
3	0x3e00d0e8	0.12579691
4	0x3d7a41c5	0.06109788
5	0x3f6a5dff	0.91549677
6	0x3e17a5ac	0.14809293
7	0x3eeae833	0.4588028
8	0xbf68f303	-0.90995806
9	0x3e10c298	0.14136732
10	0xbef5429b	-0.47902378
11	0x3e76568d	0.24056454
12	0xbe2dc05b	-0.16967909
13	0x3e8100cb	0.25195917
14	0xbec25b3b	-0.37960228
15	0xbade2f27	-0.0016951308
16	0xbedc46d9	-0.43022802
17	0xbe0685e9	-0.1313702
18	0x3de2498c	0.11049184
19	0xbf193ed7	-0.5986151
20	0x3ed3d9b7	0.4137704
21	0x3f1044ca	0.56354964
22	0xbea81331	-0.32827142
23	0x3dfc7937	0.123278074
24	0x3d480ea0	0.048842072
25	0xbf21bdcc	-0.6318023
26	0xbd4cee75	-0.050032098
27	0xbd1ebd3c	-0.038754687
28	0xbf0de2aa	-0.55423987
29	0x3e6455de	0.2229838
30	0x3d56347b	0.052296143
31	0xbe12a547	-0.14320861
32	0x3e47e66a	0.1952149
33	0x3dfe524f	0.12418043
34	0xbe467124	-0.19379097
35	0xbf02cf0b	-0.5109717
36	0x3f033dbd	0.5126608
37	0x3e377806	0.17916879
38	0xbebca6b7	-0.36845943
39	0x3ed3fcf1	0.41403916
40	0x3e77e0e4	0.24206883
41	0xbf08986b	-0.5335757
42	0xbdfdff23	-0.12402179
43	0x3e7fb539	0.24971475
44	0xbe6aa6cb	-0.22915189
45	0xbcb303f4	-0.021852471
46	0x3e41f916	0.18942675
47	0x3e92ae80	0.28648758
48	0x3d65569d	0.055990804
49	0xbd394515	-0.045231897
50	0xbe397cb2	-0.18113974
51	0xbe6bb7ec	-0.2301938
52	0xbe4be0ed	-0.19910021
53	0x3f04b6f3	0.5184166
54	0x3e0d0999	0.13773192
55	0x3e980d2f	0.29697558
56	0xbd693a10	-0.05694014
57	0xbf20c9e3	-0.62808055
58	0xbe1ea27a	-0.15491667
59	0x3e096d54	0.13420612
60	0xbe4a8ad7	-0.19779526
61	0x3d5ffc04	0.0546837
62	0x3c4f8532	0.012666034
63	0x3c94468f	0.018100051

nnECG.5.running_var f4 [64]
0	0x3fbb407a	1.4629052
1	0x3fa9dd83	1.3270725
2	0x3fb6c20c	1.4277968
3	0x3f720601	0.9454041
4	0x3fda6023	1.7060589
5	0x3fbfd06e	1.4985483
6	0x3f7d5098	0.989511
7	0x3fb72035	1.4306704
8	0x3f862368	1.0479555
9	0x3fc83fcf	1.5644473
10	0x3f662f54	0.89915967
11	0x3f5950dd	0.8488901
12	0x3f60386f	0.8758611
13	0x3fa4a075	1.2861468
14	0x4006c37b	2.1056812
15	0x3f9a2797	1.2043332
16	0x3f9a6d80	1.2064667
17	0x3f8608bb	1.0471414
18	0x3f65e6df	0.89805406
19	0x3f90b6cd	1.1305786
20	0x3f9ddd37	1.2333134
21	0x3f820f91	1.0161
22	0x3fa4383f	1.2829665
23	0x3fc6222f	1.5479182
24	0x3fa5bdb6	1.294852
25	0x3fadce31	1.357855
26	0x3f8811e3	1.0630459
27	0x3f850113	1.0390953
28	0x3f680840	0.9063759
29	0x3fb0a723	1.3801006
30	0x3f776dcd	0.9665192
31	0x3f813f60	1.0097466
32	0x3f933245	1.1499716
33	0x3fb01b8f	1.375841
34	0x3f953813	1.1657737
35	0x3fa31db6	1.2743442
36	0x3faf2014	1.3681664
37	0x400b07f7	2.1723611
38	0x3f8bfcfe	1.0936582
39	0x3fd37bf8	1.6522207
40	0x3f63b4f3	0.8894798
41	0x3f59b8bb	0.850475
42	0x3f8f9801	1.1218263
43	0x3fbabf7e	1.4589689
44	0x401a680c	2.4126005
45	0x3f6d3d53	0.926717
46	0x3f9985ea	1.1993992
47	0x3fb2e9d7	1.3977612
48	0x3f887c0d	1.0662857
49	0x3f839918	1.0281096
50	0x3f86d382	1.0533297
51	0x3f894d17	1.0726651
52	0x3f98e39f	1.1944464
53	0x3fa826ea	1.3136876
54	0x3f8b4b3e	1.0882337
55	0x3f68d118	0.9094405
56	0x3fb7a454	1.4347024
57	0x3fc32356	1.5245159
58	0x3f984163	1.1894954
59	0x3f8f5012	1.119631
60	0x3f84d556	1.0377605
61	0x3f8e2d27	1.1107529
62	0x3faa077a	1.3283532
63	0x3f879cfa	1.059478

nnECG.8.weight f4 [16, 64]
0	0x3e232884	0.15933424
1	0xbdbb256e	-0.091379985
2	0xbd884a2b	-0.066547714
3	0xbe8b0e29	-0.2715924
4	0xbe1ce6ff	-0.15322493
5	0x3d51f8aa	0.051262535
6	0x3c56be39	0.013106876
7	0x3d3be8a5	0.045876164
8	0x3d8d7299	0.069066234
9	0xbde2545e	-0.11051248
10	0x3e21dc1d	0.15806623
11	0xbde7b1fa	-0.11313243
12	0x3e4694eb	0.19392745
13	0xbdf2545f	-0.11832499
14	0xbe84ce10	-0.25938463
15	0xbcff4c55	-0.031164328
16	0xbc15e7b2	-0.009149479
17	0x3e81d37e	0.25356668
18	0xbe168d4a	-0.14702335
19	0x3bbe7893	0.0058127134
20	0x3c535a34	0.012899924
21	0xbe2fd1bd	-0.17169853
22	0x3d65cc93	0.0561033
23	0x3d9fc3ab	0.078009926
24	0xbd45bd08	-0.048275977
25	0x3d61c970	0.055123746
26	0x3e1679a0	0.14694834
27	0xbdba3f24	-0.09094074
28	0x3e046205	0.12928016
29	0xbe8db18c	-0.2767452
30	0xbce12fbe	-0.027488586
31	0xbded4748	-0.115858614
32	0x3e0531fc	0.13007349
33	0xbd739f83	-0.059478294
34	0xbe4ea8b9	-0.2018155
35	0x3e005249	0.1253139
36	0xbe10047c	-0.1406421
37	0xbd2dadb5	-0.042401988
38	0x3e8374e4	0.25675118
39	0xbe5293a2	-0.2056413
40	0x3e7e50ba	0.24835482
41	0x3d004adb	0.031321388
42	0xbe0ead7d	-0.13933368
43	0xbe7d5a80	-0.24741554
44	0x3ddba1f7	0.10724252
45	0xbdfd9138	-0.12381214
46	0xbe9c5ddc	-0.3054036
47	0xbd327f88	-0.043578655
48	0xbe0a61df	-0.13513897
49	0x3e1ab6b6	0.15108761
50	0xbe67ec60	-0.22648764
51	0x3e1db0b9	0.15399446
52	0xbe8cbc3b	-0.27487358
53	0x3db71e65	0.08941344
54	0xbe200ab0	-0.15629077
55	0x3e485e84	0.19567305
56	0xbe3b54f6	-0.18294129
57	0x3d36619c	0.04452668
58	0x3e48b685	0.19600876
59	0x3c7866b8	0.015161209
60	0xbd9f521c	-0.07779333
61	0x3db48695	0.08814732
62	0x3e10327e	0.14081761
63	0x3e2109f1	0.15726449
64	0xbe075a5f	-0.13218068
65	0x3e492928	0.19644606
66	0xbe188f81	-0.14898492
67	0x3df83248	0.121189654
68	0xbd2f0230	-0.042726696
69	0xbdc70bd6	-0.097190544
70	0xbe8bf4fd	-0.2733535
71	0xbe0620ba	-0.13098422
72	0x3e2d255c	0.16908783
73	0x3deb59bf	0.11491727
74	0xbe2dc289	-0.1696874
75	0xbdf305e2	-0.118663564
76	0xbde4b572	-0.111674204
77	0x3da29fe0	0.0794065
78	0x3dea6a1a	0.114460185
79	0x3e28f3f7	0.16499315
80	0xbd514b97	-0.05109748
81	0x3d8a7604	0.06760791
82	0x3dab2446	0.08356528
83	0x3e4fd011	0.20294215
84	0x3e1a42d6	0.15064558
85	0xbe4f2c00	-0.20231628
86	0xbc887749	-0.016658442
87	0x3e4d8cec	0.20073289
88	0xbc9cd6c7	-0.019145383
89	0x3cf896bc	0.030345313
90	0xbd78e0f2	-0.0607614
91	0xbd653423	-0.055957925
92	0x3d967721	0.07346941
93	0x3e9091d2	0.28236252
94	0x3d10c218	0.035341352
95	0x3e2a720b	0.16645066
96	0x3e8af7c9	0.2714217
97	0xbe2164f8	-0.15761173
98	0xbcd2ce64	-0.02573318
99	0x3dac05e2	0.083995596
100	0x3e0482a0	0.12940454
101	0xbe01fc50	-0.12693906
102	0xbe0ec568	-0.13942492
103	0x3caf1fc0	0.021377444
104	0xbe138d02	-0.14409259
105	0xbe7680a5	-0.24072511
106	0x3dffc101	0.124879844
107	0xbdf62225	-0.12018231
108	0x3e3a7d73	0.18211918
109	0x3c7e6d84	0.01552904
110	0x3b5bc814	0.0033536004
111	0x3e84c3fb	0.2593077
112	0x3e50c3ab	0.20387141
113	0x3e116a5e	0.14200732
114	0x3e971fef	0.2951655
115	0x3e4d9c53	0.20079164
116	0x3e99820f	0.2998204
117	0x3b2e8935	0.0026632075
118	0x3e84eb5a	0.2596081
119	0xbd01faca	-0.03173331
120	0x3e1e87df	0.15481518
121	0x3dffb6a9	0.124860115
122	0x3c4b2355	0.0123985605
123	0x3dcc1e17	0.09966677
124	0xbdc10bdd	-0.09426091
125	0x3e2cc435	0.16871722
126	0x3da4a363	0.08038976
127	0x3d9ae878	0.07563871
128	0xbe8da95a	-0.27668267
129	0xbdbe4b90	-0.09291756
130	0x3f0445ea	0.5166918
131	0xbdc97e22	-0.09838511
132	0x3d0df10e	0.034653716
133	0xbe4e3637	-0.20137869
134	0x3d304a03	0.043039333
135	0x3dbe06e9	0.09278662
136	0x3c4bba9f	0.012434631
137	0x3ead0306	0.3379137
138	0x3e1d00a8	0.15332282
139	0x3e211ec0	0.15734386
140	0xbdf0d8fc	-0.117601365
141	0x3e427b31	0.18992306
142	0x3e08fd82	0.13377956
143	0xbd1d54b9	-0.038410876
144	0xbe850af9	-0.25984934
145	0x3d89d57f	0.06730174
146	0x3e2d0625	0.16896875
147	0x3e49005a	0.1962904
148	0xbeb27171	-0.34852174
149	0x3d90ef85	0.07076935
150	0x3dea2702	0.114332214
151	0x3dc99352	0.09842552
152	0x3e37dd07	0.17955409
153	0x3dc4c40c	0.096077055
154	0x3e048f89	0.1294538
155	0x3e305a5e	0.17221972
156	0x3e4449b3	0.19168739
157	0x3e0dcb89	0.13847174
158	0x3cbc4a7f	0.022984741
159	0xbda6dec3	-0.08147957
160	0x3d1da739	0.038489554
161	0x3de0ac60	0.10970378
162	0x3d63d32a	0.055621304
163	0x3adb10b4	0.0016713352
164	0xbe94eebe	-0.29088396
165	0x3ed057ca	0.40691978
166	0xbd5d95c8	-0.05409792
167	0xbe78a231	-0.24280621
168	0x3d6ae155	0.0573438
169	0x3dd5b998	0.1043579
170	0x3d9c4a45	0.07631353
171	0x3e4601f3	0.19336681
172	0xbe3c0128	-0.18359816
173	0x3c957d2b	0.018248161
174	0x3ea978f1	0.33100083
175	0xbe027af6	-0.12742218
176	0xbe472cd6	-0.19450697
177	0x3da5d80f	0.080978505
178	0xbc754468	-0.014969923
179	0xbc12e82b	-0.008966486
180	0xbe946e82	-0.2899056
181	0x3da19a21	0.07890726
182	0xbe6bc2d5	-0.23023541
183	0x3dcbe504	0.09955791
184	0xbe13e225	-0.14441736
185	0xbdbce4c5	-0.09223322
186	0xbdec10d5	-0.11526648
187	0xbd51417e	-0.05108785
188	0x3d190667	0.03735962
189	0x3e0e5d2d	0.13902731
190	0x3e4a9a04	0.19785315
191	0xbdd92766	-0.10603218
192	0xbc3069b8	-0.010767393
193	0xbe5d2f42	-0.21600059
194	0x3dcf74f3	0.10129728
195	0x3def13fe	0.11673735
196	0x3dc0e58e	0.09418784
197	0x3e33d55d	0.1756186
198	0x3e59ef8b	0.21282785
199	0xbe115099	-0.14190902
200	0x3e8a4b0b	0.27010378
201	0x3ebc7a44	0.3681203
202	0xbd1f3926	-0.03887286
203	0x3e895448	0.26822114
204	0x3c8ae361	0.016954126
205	0xbdde6808	-0.10859686
206	0x3e684cd0	0.22685552
207	0x3dddd40d	0.10831461
208	0xbd29e435	-0.0414774
209	0xbcc9a57f	-0.024615047
210	0xbd954df0	-0.07290256
211	0xbd0b5d34	-0.034024432
212	0x3c1640ff	0.00917077
213	0xbe777af7	-0.24168001
214	0x3e15a454	0.14613467
215	0xbd3c2925	-0.045937676
216	0x3eaeb3aa	0.34121448
217	0xbbcfe2e3	-0.0063441857
218	0xbdbb23d1	-0.09137691
219	0xbc8aab66	-0.016927432
220	0x3e191fe1	0.14953567
221	0x3e4290d9	0.19000567
222	0x3e32eb72	0.17472628
223	0xbe180738	-0.14846504
224	0x3e740694	0.23830634
225	0x3dd84ed7	0.105619125
226	0x3e31b7d9	0.17355289
227	0xbd3ff8b2	-0.046868034
228	0xbdf311cd	-0.118686296
229	0x3dcb414e	0.09924565
230	0xbd49dcdb	-0.04928289
231	0x3e406ce6	0.18791541
232	0x3df65393	0.12027659
233	0xbd3c08f5	-0.04590698
234	0x3e756087	0.23962604
235	0x3e83141a	0.25601274
236	0xbe2debaa	-0.1698443
237	0x3b6ad7de	0.0035834233
238	0xbdfa10f4	-0.12210265
239	0xbc931fa6	-0.017959427
240	0x3d76a7b1	0.060218517
241	0x3da279c8	0.07933384
242	0x3e4c625c	0.19959396
243	0xbe0d68fb	-0.13809578
244	0xbe1eb3e5	-0.15498312
245	0x3e7ebf61	0.24877693
246	0x3e032b45	0.12809475
247	0x3e15276e	0.14565822
248	0x3d80b5b9	0.06284661
249	0xbe58045c	-0.21095413
250	0x3dae95b4	0.08524647
251	0x3dcf6d6e	0.10128294
252	0xbddf3c00	-0.10900116
253	0x3deb89ca	0.115008906
254	0x3eb4512a	0.35218173
255	0x3e6fccdd	0.23417993

nnECG.8.bias f4 [16]
0	0xbc5fe36d	-0.013665062
1	0x3c9877c6	0.0186118
2	0x3ca0e968	0.019642547
3	0x3ce47735	0.027888874
4	0x3d11e6c3	0.035620462
5	0x3c5e4219	0.013565564
6	0x3c094c39	0.008379989
7	0xbccc19fc	-0.024914734
8	0x3cbadd21	0.02281052
9	0x3c5e0113	0.013550061
10	0x3cb8ec54	0.022573628
11	0xbcaaf4b3	-0.020868635
12	0x3cf60566	0.030031871
13	0x3c991031	0.018684478
14	0x3cd7ad5e	0.026327785
15	0xbc5f33a5	-0.013623153

nnECG.9.weight f4 [16]
0	0x3f83baf6	1.0291431
1	0x3f837ccc	1.027246
2	0x3f9a24e7	1.2042512
3	0x3f8d8e2d	1.1059014
4	0x3f96fea5	1.1796461
5	0x3f846474	1.0343156
6	0x3f82b490	1.0211353
7	0x3f93d579	1.1549522
8	0x3f91902c	1.1372123
9	0x3f8d4105	1.1035467
10	0x3f952482	1.1651766
11	0x3f8120d1	1.008814
12	0x3f899d05	1.0751044
13	0x3f82bfa4	1.0214734
14	0x3f87d415	1.0611597
15	0x3f8a6ed3	1.0815071

nnECG.9.bias f4 [16]
0	0xbbde6abe	-0.006787627
1	0x3c31f4a6	0.010861551
2	0x3ca9495c	0.020664863
3	0x3d0719a9	0.032983456
4	0x3c953df6	0.018218022
5	0xbc44dec8	-0.012016006
6	0xbc76d834	-0.015066195
7	0xbd036960	-0.032082915
8	0x3c817de2	0.015807096
9	0xbb4f3619	-0.0031617938
10	0x3c993dca	0.018706221
11	0xbcb13b0c	-0.021634601
12	0x3bfb9fed	0.0076789767
13	0xbbeee8b6	-0.007290925
14	0x3c990097	0.01867704
15	0xbbf0461e	-0.0073325774

nnECG.9.running_mean f4 [16]
0	0x3e663795	0.2248214
1	0x3f097b2e	0.5370358
2	0x3e6f3325	0.23359354
3	0x3e73e973	0.23819523
4	0xbe7cb944	-0.24680048
5	0xbd957425	-0.072975434
6	0xbd342ff4	-0.043991044
7	0x3ddfab9a	0.10921402
8	0x3d992bcf	0.07479059
9	0xbf274f8f	-0.6535577
10	0x3f1802f8	0.5937953
11	0x3eb4dcb4	0.35324633
12	0x3e98c711	0.29839376
13	0xbeb6abb7	-0.35677883
14	0x3df97bc7	0.12181812
15	0xbd06e0c5	-0.0329292

nnECG.9.running_var f4 [16]
0	0x3fa4ba64	1.2869382
1	0x3f9ffc48	1.2498865
2	0x3f924f0c	1.1430373
3	0x3f99c21d	1.2012364
4	0x3fc7871e	1.558811
5	0x3f93b2b6	1.1538913
6	0x3fa5ece9	1.2962924
7	0x3fa7905f	1.3090934
8	0x3fce9f5f	1.6142386
9	0x3fa6f35e	1.304302
10	0x3fded54d	1.7408844
11	0x3fc1f328	1.515233
12	0x3fb4a3b6	1.4112461
13	0x3fb01283	1.3755649
14	0x3f9c00b5	1.2187716
15	0x400269a6	2.0376983

nnECG.12.weight f4 [4, 16]
0	0x3ee5f0bb	0.44910225
1	0xbeafbbe5	-0.3432304
2	0xbe6185ad	-0.2202365
3	0xbecbbec9	-0.39793995
4	0x3e96f64a	0.2948478
5	0xbf0f7014	-0.5603039
6	0xbee215de	-0.44157308
7	0x3d197d7b	0.037473183
8	0x3e357a1c	0.17722362
9	0x3ea475ad	0.3212103
10	0x3d923f08	0.071409285
11	0x3df8c64c	0.12147197
12	0xbc1d5ef5	-0.009605159
13	0xbe5c9e48	-0.21544755
14	0x3e540487	0.20704852
15	0xbe5c0ac7	-0.21488486
16	0xbe93a8e0	-0.2883978
17	0x3eca8e36	0.39561623
18	0xbe841ba9	-0.25802353
19	0x3e8cb4d5	0.27481714
20	0xbe59ecbd	-0.21281715
21	0x3f0a8bed	0.5411976
22	0x3f05b806	0.5223392
23	0x3e1b12da	0.1514391
24	0xbd1a42b3	-0.037661266
25	0xbf08a09b	-0.53370064
26	0xbe15dfc6	-0.14636144
27	0xbe4491b4	-0.19196206
28	0xbd6d898c	-0.057992503
29	0x3eb6fedb	0.35741314
30	0x3e8b3723	0.27190503
31	0xbe13519a	-0.14386597
32	0xbe99cf77	-0.30041096
33	0x3cf9509a	0.030433942
34	0x3e67bb62	0.22630075
35	0x3eaa74ad	0.33292142
36	0x3e63e08b	0.22253625
37	0xbe50d78d	-0.20394726
38	0xbe524d97	-0.2053741
39	0xbf191a57	-0.59805816
40	0xbf08fc42	-0.53509915
41	0x3ef80ccf	0.48447272
42	0x3e91ae22	0.28453165
43	0xbe3294bf	-0.17439555
44	0x3ed1967d	0.40935126
45	0xbf012b95	-0.50457126
46	0xbea27eff	-0.31737515
47	0xbf1bbf25	-0.6083854
48	0xbedb8c41	-0.42880443
49	0xbedd95c0	-0.43278313
50	0x3e8581b7	0.26075527
51	0x3e4d70b1	0.2006252
52	0xbe8ae700	-0.27129364
53	0x3e4b4b67	0.19852982
54	0xbd3a4e96	-0.0454851
55	0x3f10ebfd	0.5661009
56	0x3e994170	0.29932737
57	0xbeecefe0	-0.4627676
58	0xbea586c0	-0.3232937
59	0x3d64a1ef	0.055818494
60	0x3da9da5d	0.082936026
61	0x3f09c079	0.53809315
62	0xbec00249	-0.37501743
63	0x3c943a88	0.018094316

nnECG.12.bias f4 [4]
0	0x3c811b53	0.0157601
1	0x3c548443	0.012970987
2	0x3cded1c2	0.02719963
3	0x3c147b89	0.009062656

nnECG.13.weight f4 [4]
0	0x3f860d29	1.0472766
1	0x3f835876	1.0261371
2	0x3f8f7c31	1.1209775
3	0x3f846673	1.0343765

nnECG.13.bias f4 [4]
0	0x3b8d261d	0.004307522
1	0xbabe6c2c	-0.0014528087
2	0x3c7423cf	0.014901116
3	0xbb37efd4	-0.0028066533

nnECG.13.running_mean f4 [4]
0	0xbe650660	-0.22365713
1	0x3e18eaba	0.14933291
2	0xbef14865	-0.47125545
3	0xbdabef47	-0.08395248

nnECG.13.running_var f4 [4]
0	0x3fb89408	1.4420176
1	0x3fb5f8f2	1.4216597
2	0x3fa717f9	1.3054191
3	0x3fb1afa7	1.388173

nnECG.16.weight f4 [1, 4]
0	0x3ddbd0f0	0.10733211
1	0xbf388f0c	-0.7209327
2	0x3f2883e8	0.6582627
3	0xbe2dcdf8	-0.16973102
