Models/net_3_0_epoch_22.pth (torch, 57997 bytes, 25 tensors)

nnECG.0.weight f4 [128, 12]
0.05864703 -0.036097772 -0.08414723 0.02879044 0.104764946 -0.04049093 -0.12674843 -0.18651111
-0.010758043 -0.21746589 -0.17083417 -0.112200946 0.0002878078 -0.050359055 0.07328401 0.08209121
0.13602412 0.034238487 -0.16778745 0.022792302 0.14894874 0.0008540477 0.18350217 0.18039627
-0.018229295 -0.03782654 0.16218418 -0.001768381 0.1161353 0.1350908 -0.193592 0.011529632
0.06400248 -0.07299266 -0.1559117 0.17511743 -0.17166764 0.12310409 0.11870514 0.05356811
0.11155262 0.14437015 0.06509284 0.065753065 0.08973218 0.06660812 -0.18460652 -0.0077279024
0.18915428 -0.022625612 -0.1482427 -0.04748413 0.07592204 -0.049761146 0.19509144 -0.2304338
0.120167665 -0.09318703 0.076132126 -0.0166376 -0.19720258 -0.27008027 0.1792648 0.1267681
0.05143787 0.05323338 -0.06824644 -0.08096613 -0.1599599 -0.0432097 0.0837218 0.18046966
-0.02552476 0.009754535 0.08063626 0.14041865 -0.040416438 0.15084687 -0.01992557 0.1567955
-0.053693227 -0.12987207 -0.22407499 0.08609808 -0.124499135 -0.0026689323 -0.06601985 0.19733573
-0.013221052 0.121355064 -0.13548918 -0.17434302 -0.1542947 -0.0768239 -0.012796793 -0.048278093
0.11058715 -0.019183539 -0.23758887 -0.17866892 -0.07661453 -0.16086468 0.0737982 0.0011197362
-0.08744852 -0.09607428 -0.14077742 -0.1505615 -0.011325342 -0.24408169 -0.15428151 0.059740625
-0.013348504 0.1929855 0.012556037 0.14814016 -0.15743081 0.13765258 0.13915263 -0.07982122
0.11582024 0.20643437 -0.17584798 0.11181933 0.2389567 0.19434358 -0.14996983 -0.06907065
-0.20527035 0.1949109 -0.019444995 0.04157388 0.06752715 0.11847026 0.095367834 0.03610814
0.050714206 -0.15508175 0.06748864 0.04786004 -0.19287835 0.09261787 -0.08290287 0.17415744
0.02105972 -0.17415842 -0.14883305 -0.18703975 0.009948601 0.1503995 0.1818283 -0.002151588
-0.023878084 0.18982129 -0.18550369 0.019484831 -0.10580459 0.19207041 0.09107075 -0.013170617
-0.043378145 -0.18351525 0.0228078 0.02799429 -0.21251254 0.15700398 0.035957042 -0.08144594
-0.17152993 -0.27449745 -0.05420898 0.07596257 -0.0753735 0.14842826 -0.068374805 0.19962427
0.016597325 0.06926943 0.03382614 0.036765963 0.05071629 0.0748488 0.13441819 0.027927777
0.01205574 -0.20394063 -0.057891905 -0.05057059 0.0036248672 0.053493984 0.106138736 -0.015322269
-0.15994747 0.172234 0.12994316 -0.06817692 -0.17597088 -0.018327823 0.05207946 0.048621744
0.21022671 -0.04577754 0.018818207 -0.15900527 -0.040198173 -0.01084015 -0.1512158 -0.018789696
-0.25341752 -0.100384824 0.16928837 -0.011107179 0.16966422 0.0045272326 7.401469e-05 0.089348175
0.08736508 -0.046535138 -0.07403845 0.056954704 -0.1091214 -0.09045868 -0.082838476 0.12244943
-0.060942125 -0.11714968 0.059119053 0.16337489 0.050589226 -0.06193909 -0.08798502 -0.014244552
-0.18405455 -0.18211065 -0.0025231598 0.16534229 0.115858085 -0.0653829 -0.14625686 0.0003702004
-0.008711815 -0.07466994 -0.05934472 -0.21393865 -0.08199691 0.1746135 0.09687254 0.134407
0.1557265 -0.06360033 0.08728751 -0.020312266 0.20997177 -0.005537259 0.077821635 -0.07216216
00000000: de37 703d 42db 13bd 6255 acbd eed9 eb3c
00000010: 018f d63d d1d9 25bd 57ca 01be c5fc 3ebe
00000020: 8142 30bc 61af 5ebe 27ef 2ebe 9cc9 e5bd
00000030: e9e4 9639 4c45 4ebd ed15 963d 701f a83d
00000040: e849 0b3e a83d 0c3d 79d0 2bbe ecb6 ba3c
00000050: 0586 183e 2ce2 5f3a fee7 3b3e cdb9 383e
00000060: 9a55 95bc 01f0 1abd 9c13 263e 05c9 e7ba
00000070: 58d8 ed3d 3e55 0a3e fb3c 46be c8e6 3c3c
00000080: bb13 833d 2d7d 95bd 51a7 1fbe fc51 333e
00000090: a4c9 2fbe ff1d fc3d ae1b f33d 3c6a 5b3d
000000a0: b375 e43d c5d5 133e 654f 853d 8ba9 863d
000000b0: 81c5 b73d d769 883d 7e09 3dbe 583a fdbb
000000c0: a9b1 413e 5959 b9bc efcc 17be b87e 42bd
000000d0: 047d 9b3d 58d2 4bbd 0dc6 473e d7f6 6bbe
000000e0: 771a f63d d7d8 bebd 29eb 9b3d 934b 88bc
000000f0: 79ef 49be f647 8abe 3191 373e 7fcf 013e
00000100: 84b0 523d 3f0b 5a3d cac4 8bbd 92d1 a5bd
00000110: 87cc 23be a8fc 30bd 5676 ab3d 0acd 383e
00000120: 4d19 d1bc 7cd1 1f3c a024 a53d e8c9 0f3e
00000130: b58b 25bd 9a77 1a3e f33a a3bc 008f 203e
00000140: 6eed 5bbd 2ffd 04be ea73 65be 3154 b03d
00000150: 67f9 febd 41e9 2ebb 6a35 87bd 6112 4a3e
00000160: 1c9d 58bc 0189 f83d adbd 0abe fa86 32be
00000170: 6eff 1dbe d955 9dbd a4a9 51bc 40bf 45bd
00000180: 847b e23d cc26 9dbc 7f4a 73be fcf4 36be
00000190: 14e8 9cbd b6b9 24be 8323 973d 1dc4 923a
000001a0: 3618 b3bd 98c2 c4bd f527 10be cb2c 1abe
000001b0: ed8d 39bc 8df0 79be f9fb 1dbe 96b2 743d
000001c0: afb3 5abc fe9d 453e d6b7 4d3c 0eb2 173e
000001d0: 8b35 21be ccf4 0c3e 077e 0e3e 4f79 a3bd
000001e0: 2933 ed3d 8863 533e 7e11 34be 8801 e53d
000001f0: 11b1 743e 0102 473e b191 19be ea74 8dbd
00000200: 6432 52be b996 473e 1c4b 9fbc 5f49 2a3d
00000210: ad4b 8a3d 89a0 f23d 3650 c33d 21e6 133d
00000220: b3b9 4f3d c0cd 1ebe 7c37 8a3d e408 443d
00000230: e781 45be 70ae bd3d fbc8 a9bd 5456 323e
00000240: 6f85 ac3c 9656 32be b167 18be 5987 3fbe
00000250: 75ff 223c 5402 1a3e 3331 3a3e a801 0dbb
00000260: f99b c3bc 8360 423e aef4 3dbe a79e 9f3c
00000270: 14b0 d8bd 1bae 443e 4d83 ba3d 92c9 57bc
00000280: 48ad 31bd 6ceb 3bbe 6cd7 ba3c 4854 e53c
00000290: e39c 59be a7c5 203e b147 133d 21cd a6bd
000002a0: 8ba5 2fbe ee8a 8cbe 3c0a 5ebd 4492 9b3d
000002b0: 6c5d 9abd 94fd 173e 1708 8cbd 4e6a 4c3e
000002c0: 1df7 873c 22dd 8d3d 478d 0a3d e897 163d
000002d0: e2bb 4f3d 544a 993d eca4 093e cbc8 e43c
000002e0: 7085 453c d0d5 50be 1020 6dbd 1b23 4fbd
000002f0: 2e8f 6d3b 821c 5b3d 445f d93d 410a 7bbc
00000300: 45c9 23be 1c5e 303e d20f 053e 57a0 8bbd
00000310: b631 34be 3b24 96bc 4651 553d 9827 473d
00000320: ac45 573e 3b81 3bbd a428 9a3c 47d2 22be
00000330: d7a6 24bd e29a 31bc 51d8 1abe d9ec 99bc
00000340: f1bf 81be 8f96 cdbd ee59 2d3e e3fa 35bc
00000350: 75bc 2d3e 2e59 943b 5638 9b38 2dfc b63d
00000360: 77ec b23d a19b 3ebd 79a1 97bd 5649 693d
00000370: 0a7b dfbd 6742 b9bd 38a7 a9bd c4c6 fa3d
00000380: 739e 79bd 2cec efbd d226 723d bf4b 273e
00000390: a636 4f3d d8b3 7dbd 7d31 b4bd fb61 69bc
000003a0: cc78 3cbe 377b 3abe 995b 25bb 7d4f 293e
000003b0: 0147 ed3d 78e7 85bd 5cc4 15be 7517 c239
000003c0: 00bc 0ebc 8eec 98bd 7313 73bd bc12 5bbe
000003d0: ffed a7bd e2cd 323e 1c65 c63d fda1 093e
000003e0: c576 1f3e e440 82bd cbc3 b23d e965 a6bc
000003f0: d702 573e e571 b5bb f360 9f3d c1c9 93bd

nnECG.0.bias f4 [128]
0.017898794 -0.00048608027 0.013041682 0.0008079609 0.011235008 0.010883299 0.004531221 0.019530663
0.013587185 0.014716081 0.013546757 0.006431709 -0.0011501237 0.00633892 0.016280321 0.0052664825
0.014875978 0.004901293 0.012989047 0.008428386 -0.0033347716 0.017560711 0.022507105 0.0072649308
0.02859269 0.010449021 0.0055573075 0.01324651 0.016540814 0.0022894393 0.013243122 0.0017562981
0.0036528308 0.0001499567 0.005149419 0.0142850485 0.0076721227 0.010629612 -0.0012338997 0.0006138802
-0.0007797367 0.005545891 0.008749325 0.024862802 0.015675802 0.0035606918 0.009004645 -0.009036661
0.0056055696 0.013552972 0.011808316 0.013341165 0.0042836457 0.016435608 -0.00058189436 0.013602207
0.012758657 0.008414318 0.0059045623 0.008074373 0.000783143 0.00062837213 0.022953715 0.004062926
0.025257712 0.0017663931 0.003015807 0.013872239 -0.001368759 0.0076499945 0.0066664754 0.019239213
0.021930408 0.0074249245 0.014019448 -0.0002034208 0.00965628 0.0032229088 0.00359954 0.013749757
0.015999803 0.00837658 0.02119741 -0.0013570196 0.009669778 0.00700149 0.008577287 0.0009969891
0.008507175 0.0078058485 0.02376688 0.009931593 0.00615417 0.011908006 0.010478705 0.019283542
0.025247212 0.005473398 0.008586706 0.0050811293 0.009024436 0.00032407002 0.025376264 -0.0053995894
0.016054632 0.008871483 0.012691282 0.007803926 -0.0021146561 0.010884323 0.011583766 -0.0032945408
0.010563534 0.01162586 0.011915961 0.006680594 0.036560237 0.027489753 0.0052017276 0.017644802
0.008742914 0.0038135005 0.013210534 0.020071741 0.026823396 0.022944493 0.025048494 0.007668786
00000000: 7ea0 923c 97d8 feb9 c7ac 553c 57cd 533a
00000010: 0a13 383c dd4f 323c a37a 943b c5fe 9f3c
00000020: c99c 5e3c b81b 713c 38f3 5d3c 16c1 d23b
00000030: bfbf 96ba b7b6 cf3b 4f5e 853c 7592 ac3b
00000040: 60ba 733c 079b a03b 03d0 543c 3717 0a3c
00000050: 2f8c 5abb 7bdb 8f3c d260 b83c a80e ee3b
00000060: 383b ea3c 5f32 2b3c 131a b63b e407 593c
00000070: 9a80 873c 6b0a 163b aef9 583c 9633 e63a
00000080: 5564 6f3b b23d 1d39 75bc a83b d60b 6a3c
00000090: 6e66 fb3b d327 2e3c ceba a1ba ceec 203a
000000a0: 3f67 4cba 4eba b53b 5459 0f3c 13ad cb3c
000000b0: 8a6a 803c 7f5a 693b 3888 133c 810e 14bc
000000c0: edae b73b 490d 5e3c ab77 413c e794 5a3c
000000d0: d35d 8c3b f8a3 863c 458a 18ba cbdb 5e3c
000000e0: b009 513c 35dc 093c 0f7b c13b 604a 043c
000000f0: d64b 4d3a 57b9 243a 6e09 bc3c 4b22 853b
00000100: 43e9 ce3c 5186 e73a d8a4 453b 6348 633c
00000110: ee67 b3ba ceac fa3b 7372 da3b 8e9b 9d3c
00000120: 66a7 b33c c84c f33b d4b1 653c 5b4d 55b9
00000130: 6035 1e3c 7037 533b 43e6 6b3b a946 613c
00000140: 0512 833c ec3d 093c 31a6 ad3c 06de b1ba
00000150: fd6d 1e3c c16c e53b c087 0c3c 67ad 823a
00000160: ae61 0b3c 34c8 ff3b c3b2 c23c 1fb8 223c
00000170: eba8 c93b cc19 433c e0ae 2b3c 85f8 9d3c
00000180: 3ed3 ce3c 315a b33b 41af 0c3c 9a7f a63b
00000190: 3adb 133c f1e7 a939 e2e1 cf3c 0aef b0bb
000001a0: 0185 833c b259 113c 18ef 4f3c 13b8 ff3b
000001b0: 0b96 0abb 2954 323c d6c9 3d3c 39e9 57bb
000001c0: ac12 2d3c 647a 3e3c 2a3b 433c e2e8 da3b
000001d0: 30c0 153d 3132 e13c 4173 aa3b d58b 903c
000001e0: 703e 0f3c eceb 793b ff70 583c 7e6d a43c
000001f0: bdbc db3c 17f6 bb3c 8032 cd3c 714a fb3b

nnECG.1.weight f4 [128]
1.0647331 0.9600754 0.97808886 0.9941026 1.0886487 1.0552986 1.0130124 1.0068622
1.02203 1.0716892 1.0836062 1.0303553 0.9558733 1.0218736 1.0449026 1.0456299
0.99236155 1.0450544 0.97734237 0.98770547 1.0079154 1.0062251 0.9928505 0.9784409
1.1212403 1.0309768 0.9772551 0.9911767 1.096927 0.97035253 1.0547465 0.98654044
0.95761776 0.9574051 1.0109181 0.99900603 1.0365715 1.0720816 0.97534823 1.0044893
0.99604994 1.0090518 0.9896821 1.0190479 1.0267845 1.0227685 1.0489813 0.98218703
0.9784845 1.02694 1.0066408 0.9832946 1.0170512 0.97654486 0.96688473 1.0660557
0.9857867 1.0068711 0.98662406 0.9913257 0.9653942 1.0710444 0.99342924 1.0028958
1.0088034 1.0031316 0.95104516 1.0463158 1.074641 0.96413034 0.951806 1.012896
1.1354614 1.0370828 0.98639107 0.9486542 1.0722431 0.9977235 0.99379635 0.95618606
0.9704101 1.1156433 0.9867443 0.9759639 0.9871598 1.0145859 1.1173414 1.0424598
0.98950565 1.0355959 1.0324878 1.0521722 1.0147344 0.99668086 1.0419962 0.9984366
1.0886936 0.9964562 1.0817047 0.99632525 0.9544048 1.007054 1.0743983 0.9945082
1.0636743 1.0581478 0.97864276 1.0714141 0.97431415 0.97561485 0.9911272 1.0127656
0.9813493 1.0650626 1.0453765 0.9928298 1.1103299 0.9727986 1.0024029 0.99686927
1.0405908 0.9971332 1.0534403 1.1089194 1.0422806 1.0574645 1.0262408 1.0500841
00000000: 2d49 883f 80c7 753f 0864 7a3f 827d 7e3f
00000010: d758 8b3f 0614 873f 64aa 813f dce0 803f
00000020: e1d1 823f 1d2d 893f 9cb3 8a3f afe2 833f
00000030: 1db4 743f c1cc 823f 5ebf 853f 33d7 853f
00000040: 680b 7e3f 58c4 853f 1c33 7a3f 44da 7c3f
00000050: 5f03 813f fccb 803f 732b 7e3f 1a7b 7a3f
00000060: cd84 8f3f 0cf7 833f 642d 7a3f c2bd 7d3f
00000070: 1b68 8c3f 0669 783f ef01 873f ea8d 7c3f
00000080: 7026 753f 8018 753f c465 813f dcbe 7f3f
00000090: 60ae 843f f839 893f 6cb0 793f 1b93 803f
000000a0: 21fd 7e3f 9c28 813f ce5b 7d3f 2970 823f
000000b0: ad6d 833f 14ea 823f 0545 863f 9c70 7b3f
000000c0: f67d 7a3f c572 833f 9bd9 803f 32b9 7b3f
000000d0: bc2e 823f d8fe 793f c285 773f 8374 883f
000000e0: 845c 7c3f 27e1 803f 6593 7c3f 85c7 7d3f
000000f0: 1324 773f fc17 893f 6151 7e3f e45e 803f
00000100: 7820 813f 9e66 803f b277 733f aded 853f
00000110: d68d 893f 3fd1 763f 8fa9 733f 93a6 813f
00000120: cd56 913f 21bf 843f 2084 7c3f 00db 723f
00000130: 433f 893f cf6a 7f3f 7069 7e3f 9cc8 743f
00000140: cc6c 783f 66cd 8e3f 469b 7c3f c5d8 793f
00000150: 81b6 7c3f f3dd 813f 0b05 8f3f 536f 853f
00000160: 3e50 7d3f 688e 843f 8f28 843f 94ad 863f
00000170: d1e2 813f 7a26 7f3f 2260 853f 8b99 7f3f
00000180: 505a 8b3f c117 7f3f 4d75 8a3f 2c0f 7f3f
00000190: df53 743f 25e7 803f e285 893f 1798 7e3f
000001a0: 7b26 883f 6371 873f 5588 7a3f 1924 893f
000001b0: a76c 793f e5c1 793f 83ba 7d3f 4ea2 813f
000001c0: b539 7b3f f953 883f e6ce 853f 182a 7e3f
000001d0: 4a1f 8e3f 5409 793f bd4e 803f d332 7f3f
000001e0: 1432 853f 1f44 7f3f 22d7 863f 12f1 8d3f
000001f0: 7369 853f ff5a 873f dc5b 833f 2869 863f

nnECG.1.bias f4 [128]
0.01165949 -0.020293865 -0.0055990927 -0.016543109 0.0072338884 -0.0006993659 0.0009452037 -0.004517512
0.0057584895 0.002152538 0.0015391688 -0.003028576 -0.003935793 -0.016340349 -0.0037846968 0.0021694656
0.0056879916 0.00012184612 -0.01925128 0.00049791014 -0.00988584 0.00041620285 0.009920575 -0.002992865
0.014518191 -0.0054825596 -0.0025956002 0.0072336863 0.012293277 -0.0021719558 -0.011528112 -0.015540566
-0.005817836 -0.007765619 0.0005820449 0.006117044 0.0040773493 0.0008841906 0.0015850449 -0.006997701
-0.007108585 -0.01623737 -0.014306877 0.010552536 0.0061207036 -0.0050763926 -0.010605895 -0.02001922
-0.014417117 -0.0003773324 0.0042110174 -0.00033252515 -0.006201576 -6.791825e-05 -0.004573422 0.0050016223
0.004387889 0.00061305205 -0.016166938 0.004330559 -0.0072700246 -0.010255515 0.011227191 -0.015279383
-0.0012840863 -0.0074368487 -0.010829249 0.0004925716 -0.012335113 0.004463464 -0.0034488617 -0.00202171
0.01751421 0.008902144 0.004120527 -0.016181776 0.00014211787 -0.0025111707 -0.011731967 -0.0030365018
0.008963464 4.441738e-05 0.0031627032 -0.00409107 -0.0013035071 0.0018351537 0.012252771 -0.0048013376
-0.006786385 -0.0018659931 0.014023536 0.0026405011 -0.00037076062 -0.009329698 0.0035285298 0.009631022
0.026313422 -0.0012489221 -0.0014597 -0.008117804 -0.010912506 0.0016399097 0.012497484 -0.025100384
0.00786952 0.0036030642 -0.0038697426 -0.0034805739 -0.009165654 -0.006962274 0.0006063076 -0.017349545
-0.0018655672 0.0071366536 0.0004581026 -0.001718623 0.025786221 0.0032056032 -0.008946137 0.008168571
0.0018017961 -0.0056496644 0.0062736776 0.01730255 0.027945012 0.015885456 0.016959708 -0.00025187916
00000000: 7207 3f3c 523f a6bc 9878 b7bb 6a85 87bc
00000010: 410a ed3b a755 37ba 8cc7 773a a307 94bb
00000020: b6b1 bc3b 9811 0d3b efbd c93a 137b 46bb
00000030: d3f7 80bb 32dc 85bc ad08 78bb 982d 0e3b
00000040: 5562 ba3b a387 ff38 dcb4 9dbc 2f86 023a
00000050: 38f8 21bc cd35 da39 e889 223c f123 44bb
00000060: b5dd 6d3c 0ba7 b3bb f21a 2abb 8f08 ed3b
00000070: be69 493c 5f57 0ebb 68e0 3cbc dc9d 7ebc
00000080: 8ca3 bebb bc76 febb 5f94 183a 7c71 c83b
00000090: 499b 853b 07c9 673a 48c1 cf3a f84c e5bb
000000a0: 22ef e8bb 3c04 85bc 6467 6abc 8be4 2c3c
000000b0: 2f90 c83b de57 a6bb 59c4 2dbc 59ff a3bc
000000c0: c635 6cbc b3d4 c5b9 93fc 893b c556 aeb9
000000d0: 9736 cbbb 556f 8eb8 a5dc 95bb a6e4 a33b
000000e0: 48c8 8f3b 3ab5 203a 8770 84bc 5de7 8d3b
000000f0: 6339 eebb bf06 28bc 41f2 373c 6156 7abc
00000100: c94e a8ba cfb0 f3bb 2a6d 31bc ec1f 013a
00000110: 3719 4abc 4042 923b 4c06 62bb aa7e 04bb
00000120: f679 8f3c 4cda 113c 7c05 873b a58f 84bc
00000130: 7a05 1539 7492 24bb 7037 40bc 0c00 47bb
00000140: 7edb 123c cc4c 3a38 5b45 4f3b 620e 86bb
00000150: 71da aaba 8a89 f03a d9bf 483c 8a54 9dbb
00000160: 5360 debb 5794 f4ba f9c2 653c 420c 2d3b
00000170: a662 c2b9 97db 18bc e83e 673b 6fcb 1d3c
00000180: 3f8f d73c dfb2 a3ba 6853 bfba 8a00 05bc
00000190: 5eca 32bc 3df2 d63a 3fc2 4c3c 529f cdbc
000001a0: 29ef 003c 6321 6c3b 829b 7dbb 571a 64bb
000001b0: 8a2b 16bc ca23 e4bb 9df0 1e3a a220 8ebc
000001c0: 0c86 f4ba 97da e93b 7d2d f039 6b43 e1ba
000001d0: a03d d33c 1915 523b d192 12bc 78d5 053c
000001e0: 3f2a ec3a d220 b9bb 6c93 cd3b 14be 8d3c
000001f0: f0ec e43c 3722 823c 16ef 8a3c a60e 84b9

nnECG.1.running_mean f4 [128]
-0.5899043 0.2852362 -0.16068667 0.10381861 0.26025298 -0.31412086 -0.18831201 -0.48793682
-0.31786403 0.18974178 -0.04878726 -0.052978277 0.20388027 -0.10343963 0.041221417 0.0502364
0.14325556 0.18852279 -0.12960558 -0.1034442 0.4352582 -0.15759401 -0.16804531 0.11394387
-0.049282067 -0.13208686 0.17519572 -0.34398764 -0.092518024 0.44348627 -0.16810323 -0.2745259
-0.044864047 0.14919011 -0.26160407 0.46237868 0.50222576 0.10307574 -0.030736713 0.39725024
0.13570324 -0.05950506 0.32600033 -0.29021585 -0.3392592 0.4671789 0.060512397 0.26225835
0.2546888 0.3185368 -0.022901373 -0.16680607 -0.072124965 -0.52037436 0.19763045 0.23051216
0.08059381 -0.4093868 0.12825087 0.09250364 0.15957233 0.43417007 0.33638793 -0.36732998
-0.3855979 0.300547 -0.17757593 -0.39193344 0.4366355 -0.078001395 0.12960777 -0.33588305
0.0115195615 -0.38149902 0.4624318 0.092342876 -0.0036806262 -0.0102125015 -0.017554535 -0.0072765294
-0.44361368 0.23649667 -0.18842837 -0.07716586 -0.51170075 0.26841018 -0.103148505 0.3051775
-0.03139194 -0.09117457 -0.32661867 0.107465275 0.07665667 -0.055000536 -0.0760451 0.22929132
0.025165735 0.03416182 -0.11774379 -0.08114231 0.60385627 -0.15558013 0.0345127 -0.01911043
-0.014991193 -0.35616323 -0.2716703 0.30726957 0.18726055 -0.3788041 0.019130392 0.54642934
-0.3330073 0.1582511 0.07766875 0.030089067 -0.19881353 -0.42346576 0.08746699 -0.15365487
-0.07525807 0.046972316 0.4351735 0.19489904 0.11095354 0.22697511 -0.73975796 0.11064414
00000000: f803 17bf 7b0a 923e 0c8b 24be da9e d43d
00000010: e13f 853e 73d4 a0be ddd4 40be dbd2 f9be
00000020: 13bf a2be ab4b 423e 26d5 47bd c0ff 58bd
00000030: fdc5 503e 28d8 d3bd cad7 283d afc4 4d3d
00000040: 96b1 123e 1e0c 413e 53b7 04be 8dda d3bd
00000050: 2ada de3e 5360 21be 1214 2cbe 675b e93d
00000060: fedb 49bd c741 07be 8266 333e 261f b0be
00000070: 177a bdbd a210 e33e 4123 2cbe a98e 8cbe
00000080: 5dc3 37bd 4bc5 183e f8f0 85be e6bc ec3e
00000090: de91 003f 6019 d33d 8fcb fbbc 6264 cb3e
000000a0: caf5 0a3e 94bb 73bd 84e9 a63e 2c97 94be
000000b0: 62b3 adbe 1332 ef3e d9db 773d ba46 863e
000000c0: 9266 823e 4117 a33e a99b bbbc 36cf 2abe
000000d0: 41b6 93bd 4137 05bf a35f 4a3e 610b 6c3e
000000e0: 5e0e a53d 269b d1be 3254 033e 8c72 bd3d
000000f0: ee66 233e 8a4b de3e 0a3b ac3e ad12 bcbe
00000100: 176d c5be 4ce1 993e 77d6 35be 80ab c8be
00000110: b08e df3e 32bf 9fbd e6b7 043e ddf8 abbe
00000120: 8bbc 3c3c d753 c3be dcc3 ec3e 431e bd3d
00000130: a936 71bb 5652 27bc 87ce 8fbc f46f eebb
00000140: 5521 e3be 2f2c 723e 5ef3 40be 2209 9ebd
00000150: d2fe 02bf 0f6d 893e 863f d3bd 3a40 9c3e
00000160: d694 00bd bcb9 babd 903a a7be c116 dc3d
00000170: 2cfe 9c3d 3e48 61bd 89bd 9bbd 58cb 6a3e
00000180: 5f28 ce3c 44ed 0b3d a823 f1bd f02d a6bd
00000190: 5396 1a3f 6650 1fbe 305d 0d3d 7a8d 9cbc
000001a0: 9f9d 75bc 075b b6be 5f18 8bbe 7052 9d3e
000001b0: 3bc1 3f3e 9cf2 c1be 57b7 9c3c cbe2 0b3f
000001c0: ef7f aabe 940c 223e cb10 9f3d 597d f63c
000001d0: c695 4bbe 81d0 d8be e521 b33d b457 1dbe
000001e0: e720 9abd 0b66 403d 10cf de3e 9d93 473e
000001f0: 9c3b e33d 2a6c 683e c760 3dbf 6599 e23d

nnECG.1.running_var f4 [128]
0.07438776 0.07277495 0.0750561 0.07754587 0.074539304 0.073043406 0.078102335 0.07299131
0.07412275 0.07322494 0.07498725 0.072540954 0.07312232 0.07350056 0.074378744 0.072762094
0.07446478 0.0731619 0.07232312 0.072449185 0.074034415 0.0731061 0.074027136 0.073377945
0.074476965 0.07647511 0.072496824 0.072861224 0.07356255 0.07308465 0.0738218 0.072259784
0.073053725 0.07361551 0.07410279 0.07333663 0.072638266 0.07414837 0.07742854 0.07453644
0.073868416 0.07888409 0.07458155 0.073371395 0.072977 0.0795579 0.07499473 0.08227987
0.07388839 0.07254435 0.072998784 0.07313289 0.07328888 0.07450133 0.072563276 0.07401161
0.07318848 0.07246712 0.07526442 0.07354061 0.074241325 0.075196415 0.07421628 0.07506139
0.07446336 0.07471115 0.07337725 0.072584115 0.07234534 0.072353445 0.07434458 0.07250504
0.07649833 0.07325262 0.074924156 0.07359628 0.07600454 0.07463518 0.07493737 0.07259188
0.07196892 0.07256962 0.07243794 0.07572778 0.07300319 0.078562915 0.07302165 0.073286146
0.0743044 0.07468724 0.07382462 0.07242791 0.074321136 0.072603814 0.07842481 0.073937766
0.072437935 0.075059354 0.07398971 0.073341906 0.07257482 0.075370856 0.072490886 0.07514256
0.07404738 0.07297918 0.07340098 0.0770628 0.07274447 0.07656549 0.07325137 0.07778896
0.073972866 0.072750315 0.07240638 0.07362815 0.07553171 0.07370422 0.07340089 0.07193405
0.07796562 0.072907515 0.075739056 0.074731655 0.075122334 0.07617917 0.07432914 0.074948646
00000000: 9c58 983d 080b 953d 03b7 993d 5ed0 9e3d
00000010: 10a8 983d c897 953d 1ef4 9f3d 787c 953d
00000020: abcd 973d f5f6 953d ea92 993d 5a90 943d
00000030: 28c1 953d 7687 963d e253 983d 4b04 953d
00000040: fe80 983d e8d5 953d 251e 943d 3d60 943d
00000050: 5b9f 973d a7b8 953d 8a9b 973d 2d47 963d
00000060: 6187 983d fc9e 9c3d 3779 943d 4438 953d
00000070: f6a7 963d 68ad 953d e22f 973d f0fc 933d
00000080: 319d 953d bac3 963d 34c3 973d 8431 963d
00000090: 5fc3 943d 1adb 973d db92 9e3d 90a6 983d
000000a0: 5348 973d fb8d a13d 36be 983d be43 963d
000000b0: f774 953d 41ef a23d d696 993d 5982 a83d
000000c0: cc52 973d 2292 943d 6380 953d b2c6 953d
000000d0: 7b18 963d 2794 983d 0e9c 943d 6693 973d
000000e0: d8e3 953d a469 943d 3b24 9a3d 769c 963d
000000f0: d60b 983d 9400 9a3d b4fe 973d c9b9 993d
00000100: 3f80 983d 2902 993d d046 963d fba6 943d
00000110: cb29 943d 0b2e 943d f941 983d 867d 943d
00000120: 28ab 9c3d 7805 963d d671 993d a5b9 963d
00000130: 45a8 9b3d 54da 983d c478 993d 0dab 943d
00000140: 7164 933d 629f 943d 585a 943d 2b17 9b3d
00000150: b282 953d 98e5 a03d 608c 953d 0c17 963d
00000160: e82c 983d a0f5 983d 5d31 973d 1655 943d
00000170: ae35 983d 4fb1 943d 309d a03d af6c 973d
00000180: 575a 943d b8b8 993d eb87 973d 4834 963d
00000190: 1ba2 943d 095c 9a3d 1a76 943d 58e4 993d
000001a0: 27a6 973d 1c76 953d 4153 963d 1ad3 9d3d
000001b0: 0dfb 943d 5ece 9c3d d004 963d d14f 9f3d
000001c0: 167f 973d 1efe 943d cc49 943d 5bca 963d
000001d0: 5fb0 9a3d 3df2 963d 3553 963d 2952 933d
000001e0: 70ac 9f3d 8950 953d 141d 9b3d e90c 993d
000001f0: bdd9 993d d303 9c3d e039 983d ad7e 993d

nnECG.4.weight f4 [64, 128]
-2.4927918e-05 -0.0813035 -0.15347293 -0.0061903303 -0.035366613 0.032399632 -0.080098644 0.13924153
0.10463533 -0.21250542 -0.20413575 0.094088964 0.09464609 0.11783786 -0.19968778 0.17280419
-0.13672073 0.119908065 -0.076282375 -0.117069125 -0.02802478 -0.05544211 0.05900783 -0.10352541
0.22473036 -0.044038903 -0.042534586 0.044506084 0.12477359 -0.1110485 0.14320698 0.09663099
-0.16066833 -0.099637836 -0.07557706 0.16701971 -0.010109499 0.13054468 0.0038018897 0.17146419
0.07587635 -0.0067014266 -0.14333476 -0.11773026 -0.10948894 -0.05303922 -9.277421e-05 0.10005245
-0.012255909 0.15456195 -0.06854772 0.15330598 -0.038607858 0.12858237 0.02009617 -0.17491771
-0.042853065 0.104279034 0.15799035 -0.10833433 -0.12015516 -0.077596866 -0.12034819 -0.07050203
0.1450115 0.105337866 0.067588575 -0.024012227 -0.045157697 -0.17430632 -0.030035593 -0.010323722
-0.27446985 -0.13696077 0.010293852 0.063667424 -0.0235113 0.04682205 0.08616556 -0.04667494
-0.109025985 0.056081165 0.04336309 0.16526908 -0.15057851 0.061157286 -0.24362049 0.05050469
-0.0067253835 0.070614986 0.09885015 0.20739119 -0.045178 0.11137004 0.10555153 0.06419045
0.24497479 0.024434302 -0.035227828 0.04544643 -0.09652718 -0.025172498 0.07498229 -0.16576056
0.039396103 0.09108178 -0.19539887 0.053040948 -0.02997655 0.11639837 0.0110616805 -0.10734747
-0.026133142 0.2212109 -0.075638905 0.12180505 0.16214292 -0.10497171 0.048505045 -0.1356597
0.08921911 0.052314326 0.03533997 -0.08772474 0.13959236 -0.13318373 0.017276274 0.057659663
0.08428198 -0.030109663 0.07365462 0.1336178 0.14870952 0.14943594 0.17512417 -0.15883166
-0.17304835 0.07980854 0.13936529 0.14662789 -0.07211179 -0.014226942 0.1524995 -0.13427913
-0.070648864 -0.060167287 -0.10885272 -0.02802525 0.049648922 0.10536764 0.12955886 0.036196586
-0.0034736965 0.11987333 0.012086652 0.094304174 -0.13093284 -0.1558617 -0.19360943 -0.06844911
0.02328888 0.1505867 0.15258686 -0.028492782 0.118621014 -0.1778659 -0.042051453 -0.13394421
0.049932577 0.11046067 -0.04895295 -0.06771472 -0.15084739 -0.15467495 -0.1822018 -0.15762681
0.029211076 -0.18952599 -0.021871297 0.10108272 0.073719025 0.13602634 -0.07762531 -0.021363312
0.05271909 -0.023042759 -0.106445156 0.01694049 0.11303954 0.11802886 0.05169698 -0.06772513
-0.14636506 -0.11860447 0.08889778 0.056192808 0.04292177 -0.020108085 0.05047838 0.10935517
0.04324179 -0.056694437 0.05971861 0.12578706 0.08963076 -0.11013627 0.1456193 0.113221034
-0.09391116 0.13665175 0.04329127 0.14604285 -0.02756844 -0.1421942 -0.07138435 0.09369362
-0.05664525 0.10907875 0.1066729 -0.056649543 0.0802498 0.14299315 0.13927916 -0.09596298
-0.0924191 0.044750154 -0.10696566 -0.12437474 0.069692254 -0.0070895543 -0.04090472 0.06573268
-0.21729074 0.01799565 -0.08673893 -0.15567756 0.039333723 -0.024646753 -0.07865945 0.0046274224
-0.12661901 0.17715268 0.057599824 -0.027438918 -0.022044241 0.14435294 -0.18386172 -0.033849616
0.0660461 0.06956939 0.026921073 -0.15836857 0.18527316 0.0024837095 -0.108927116 0.07260787
00000000: 4c1c d1b7 7382 a6bd 0228 1dbe 41d8 cabb
00000010: 95dc 10bd 7ab5 043d c20a a4bd 5595 0e3e
00000020: 0c4b d63d 059b 59be f608 51be b7b1 c03d
00000030: cfd5 c13d fa54 f13d f47a 4cbe 95f3 303e
00000040: 8500 0cbe 5c92 f53d ef39 9cbd f0c1 efbd
00000050: 3994 e5bc 4417 63bd 32b2 713d 2105 d4bd
00000060: b71f 663e 2362 34bd bf38 2ebd 034c 363d
00000070: 4c89 ff3d 656d e3bd daa4 123e 78e6 c53d
00000080: 3d86 24be ec0e ccbd 25c8 9abd 3707 2b3e
00000090: 50a2 25bc 81ad 053e 2029 793b 4f94 2f3e
000000a0: 0f65 9b3d a497 dbbb 59c6 12be 901c f1bd
000000b0: bd3b e0bd a73f 59bd c68f c2b8 4de8 cc3d
000000c0: 02cd 48bc 7d45 1e3e bf62 8cbd 3efc 1c3e
000000d0: 4623 1ebd 19ab 033e b9a0 a43c a11d 33be
000000e0: b286 2fbd 3f90 d53d 39c8 213e 64de ddbd
000000f0: e913 f6bd 1beb 9ebd 1d79 f6bd 5e63 90bd
00000100: e57d 143e 61bb d73d e16b 8a3d 4ab5 c4bc
00000110: 47f7 38bd 5b7d 32be 340d f6bc d424 29bc
00000120: 5087 8cbe 723f 0cbe 8ba7 283c 1164 823d
00000130: c59a c0bc 7ac8 3f3d 9277 b03d 392e 3fbd
00000140: 0449 dfbd 5db5 653d 7f9d 313d 4c3c 293e
00000150: 4131 1abe 1080 7a3d a677 79be 01de 4e3d
00000160: 9b60 dcbb 979e 903d f371 ca3d 5b5e 543e
00000170: 910c 39bd fa15 e43d 672b d83d 4876 833d
00000180: acda 7a3e 722a c83c 0e4b 10bd 0926 3a3d
00000190: 0bb0 c5bd 8e36 cebc 5190 993d 23bd 29be
000001a0: cf5d 213d 1689 ba3d a416 48be 7741 593d
000001b0: 6291 f5bc 4562 ee3d 0d3c 353c fed8 dbbd
000001c0: 2c15 d6bc 1c85 623e 92e8 9abd ed74 f93d
000001d0: cb08 263e 68fb d6bd 3aad 463d 60ea 0abe
000001e0: 82b8 b63d 8c47 563d a5c0 103d 07a9 b3bd
000001f0: 4df1 0e3e 5161 08be f986 8d3c 8a2c 6c3d
00000200: 089c ac3d 8aa8 f6bc 3cd8 963d 1bd3 083e
00000210: 4f47 183e bc05 193e c053 333e c4a4 22be
00000220: 9633 31be a972 a33d c6b5 0e3e 9f25 163e
00000230: 59af 93bd 1f18 69bc d428 1c3e 7880 09be
00000240: 5ab0 90bd f971 76bd 2dee debd 3695 e5bc
00000250: ab5c 4b3d fdca d73d 14ab 043e df42 143d
00000260: f5a6 63bb 2680 f53d 1807 463c 8c22 c13d
00000270: 4213 06be 369a 1fbe 8d41 46be 0c2f 8cbd
00000280: 52c8 be3c 6633 1a3e bb3f 1c3e b269 e9bc
00000290: 93ef f23d 7a22 36be 253e 2cbd ac28 09be
000002a0: 1a86 4c3d 3439 e23d e382 48bd 04ae 8abd
000002b0: bd77 1abe 1c63 1ebe 1c93 3abe ec68 21be
000002c0: 114c ef3c 1a13 42be 6f2b b3bc 7504 cf3d
000002d0: 00fa 963d 7d4a 0b3e 05fa 9ebd 1d02 afbc
000002e0: f9ef 573d 2bc4 bcbc ebff d9bd c8c6 8a3c
000002f0: 4681 e73d 1db9 f13d 36c0 533d 79b3 8abd
00000300: b9e0 15be e6e6 f2bd 0a10 b63d 6e2a 663d
00000310: bdce 2f3d b6b9 a4bc 6bc2 4e3d 9af5 df3d
00000320: 4e1e 313d 6d38 68bd 809b 743d 53ce 003e
00000330: 5590 b73d 208f e1bd 3a1d 153e 6ee0 e73d
00000340: 7f54 c0bd 70ee 0b3e 3052 313d 428c 153e
00000350: 36d7 e1bc 5b9b 11be f531 92bd 71e2 bf3d
00000360: da04 68bd ae64 df3d 5277 da3d 5a09 68bd
00000370: 025a a43d cc6c 123e 329f 0e3e 3d88 c4bd
00000380: 3a46 bdbd f04b 373d d010 dbbd 2fb8 febd
00000390: d0ba 8e3d 7e4f e8bb b58b 27bd db9e 863d
000003a0: 7781 5ebe 9d6b 933c 2ea4 b1bd f069 1fbe
000003b0: 661c 213d fde7 c9bc 3518 a1bd a2a1 973b
000003c0: 6aa8 01be 8367 353e cbed 6b3d 95c7 e0bc
000003d0: 2096 b4bc 42d1 133e 3f46 3cbe e5a5 0abd
000003e0: 2d43 873d 657a 8e3d 9589 dc3c 5f2b 22be
000003f0: 3fb8 3d3e bbc5 223b 2e15 dfbd 6fb3 943d

nnECG.4.bias f4 [64]
0.03345414 -0.015595834 0.03895054 0.021383567 0.0076643317 0.031532727 0.008106345 -0.0046130386
-0.0020211453 0.028082214 -7.2431e-05 0.012688574 -0.004081345 0.012897303 0.024445867 0.026892738
0.021472508 0.0008056695 -0.009279015 0.012342155 0.03012896 -0.01691035 -0.0033639837 0.026958583
0.011488586 -0.0002887365 0.003526089 -0.022336733 0.015873112 0.034566917 -0.0023061647 0.03428337
0.027595282 0.017426303 0.017740322 0.019088717 -0.0113624 0.029568147 -0.022409743 0.023275096
-0.012765115 -0.014316535 0.036885567 0.02169239 -0.023936557 0.022858812 0.009270476 0.025110792
0.03924823 0.0071323807 0.016899437 -0.0019410338 0.024874821 0.041802417 -0.032074884 0.030725436
0.02141624 0.0076686507 -0.005289607 0.004181979 0.0026781121 -0.0007867313 0.03148486 0.0003300605
00000000: 3507 093d ab85 7fbc 9a8a 1f3d 972c af3c
00000010: 1325 fb3b 7628 013d 7ad0 043c f928 97bb
00000020: 3175 04bb ac0c e63c 19e6 97b8 bde3 4f3c
00000030: cebc 85bb 364f 533c b342 c83c 294e dc3c
00000040: 1de7 af3c 9133 533a 0207 18bc c036 4a3c
00000050: 02d1 f63c 9387 8abc 4876 5cbb 3fd8 dc3c
00000060: 9f3a 3c3c 8f61 97b9 f515 673b 86fb b6bc
00000070: 5408 823c 0a96 0d3d 0623 17bb b86c 0c3d
00000080: 800f e23c 9bc1 8e3c 2754 913c f15f 9c3c
00000090: 5c29 3abc e638 f23c a394 b7bc 6aab be3c
000000a0: c624 51bc e68f 6abc 5215 173d 3db4 b13c
000000b0: 9916 c4bc 6742 bb3c 32e3 173c 26b5 cd3c
000000c0: c1c2 203d bfb6 e93b b070 8a3c 496a feba
000000d0: 48c6 cb3c 0339 2b3d f460 03bd e9b3 fb3c
000000e0: 1c71 af3c 4e49 fb3b 7154 adbb fc08 893b
000000f0: 4483 2f3b a53c 4eba 45f6 003d f80b ad39

nnECG.5.weight f4 [64]
1.1044555 0.98041767 1.1259505 1.0270447 1.07751 0.98165035 1.0624739 0.99829453
0.9826619 1.1617877 1.0026668 1.0358698 1.0292227 1.0119188 1.0461284 1.0544677
1.0396488 1.0271695 0.9843391 1.0130494 1.1366503 1.0479208 1.0758501 1.0837628
1.1200162 1.0136981 1.0189642 1.0058311 1.0284008 1.1149448 1.0258226 1.0769502
1.0174038 0.9923458 1.078915 1.0427779 0.97772896 1.1001176 0.9764305 1.0549161
1.0324507 1.0170873 1.0199423 1.1132529 0.9877663 1.0217087 1.0554941 1.0284257
1.0577356 1.1356937 1.0295631 1.0121413 1.0331335 1.0443071 1.0527799 1.1336632
1.0361067 0.9966893 1.0531934 1.1090488 1.0149344 1.0100266 1.0780399 0.95558816
00000000: cc5e 8d3f a7fc 7a3f 251f 903f 3376 833f
00000010: d9eb 893f 704d 7b3f 25ff 873f 3b90 7f3f
00000020: bb8f 7b3f 76b5 943f 6357 803f 6297 843f
00000030: 92bd 833f 8e86 813f 89e7 853f ccf8 863f
00000040: 3613 853f 4a7a 833f a6fd 7b3f 9aab 813f
00000050: c27d 913f 4522 863f 75b5 893f bdb8 8a3f
00000060: b15c 8f3f dcc0 813f 6b6d 823f 13bf 803f
00000070: a3a2 833f 83b6 8e3f 284e 833f 81d9 893f
00000080: 4a3a 823f 600a 7e3f e319 8a3f bf79 853f
00000090: 724c 7a3f a7d0 8c3f 59f7 793f 7e07 873f
000000a0: 5827 843f eb2f 823f 788d 823f 127f 8e3f
000000b0: 41de 7c3f 5ac7 823f 6e1a 873f 74a3 833f
000000c0: e163 873f 695e 913f b9c8 833f d98d 813f
000000d0: b83d 843f dbab 853f 7ec1 863f e01b 913f
000000e0: 259f 843f 0827 7f3f 0bcf 863f 50f5 8d3f
000000f0: 5fe9 813f 8d48 813f 36fd 893f 6da1 743f

nnECG.5.bias f4 [64]
0.032043308 -0.034234196 0.0349822 0.017614463 -0.005395561 0.024359956 0.0037578742 -0.014860577
-0.025062144 0.023352299 -0.0143096335 0.005184986 -0.023160556 0.0037932112 0.012683688 0.009612194
0.0069239773 -0.020034764 -0.028225249 -0.004075046 0.024091015 -0.0214091 -0.0041732355 0.0122608105
0.0024097278 -0.020742573 -0.019277064 -0.018505292 0.0125001 0.026081983 -0.022494918 0.020199185
0.002609862 0.013936818 0.004332165 0.010206457 -0.030503238 0.026120665 -0.031121755 0.00976779
-0.019677578 -0.019998562 0.023790093 0.018807786 -0.034298763 0.013050206 -0.0006648853 0.0030113738
0.030117366 0.004901733 0.010898638 -0.01967974 0.012119292 0.03017826 -0.035079885 0.03588627
0.015035573 -0.009697106 -0.016935237 -1.9500601e-05 0.0027043975 -0.009884783 0.010551049 -0.017746154
00000000: d83f 033d 2839 0cbd 7f49 0f3d 354c 903c
00000010: 3fcd b0bb 888e c73c ab46 763b c779 73bc
00000020: 204f cdbc 524d bf3c f472 6abc d1e6 a93b
00000030: 35bb bdbc 8697 783b 3ecf 4f3c 777c 1d3c
00000040: 88e2 e23b f21f a4bc a338 e7bc f787 85bb
00000050: 855a c53c 2362 afbc a3bf 88bb 91e1 483c
00000060: 86ec 1d3b 54ec a9bc efea 9dbc 6998 97bc
00000070: 38cd 4c3c e2a9 d53c 4347 b8bc c378 a53c
00000080: 380a 2b3b 4057 643c d5f4 8d3b fc38 273c
00000090: ede1 f9bc 01fb d53c 0df3 febc 1509 203c
000000a0: df32 a1bc 06d4 a3bc 71e3 c23c c912 9a3c
000000b0: dc7c 0cbd 88d0 553c b24b 2eba 785a 453b
000000c0: b2b8 f63c b79e a03b 3390 323c 6837 a1bc
000000d0: ff8f 463c 6638 f73c edaf 0fbd 7bfd 123d
000000e0: c457 763c 9ce0 1ebc c4bb 8abc 3995 a3b7
000000f0: 433c 313b c9f3 21bc 4fde 2c3c 6260 91bc

nnECG.5.running_mean f4 [64]
0.08091889 0.33616748 0.5619625 0.12579691 0.06109788 0.91549677 0.14809293 0.4588028
-0.90995806 0.14136732 -0.47902378 0.24056454 -0.16967909 0.25195917 -0.37960228 -0.0016951308
-0.43022802 -0.1313702 0.11049184 -0.5986151 0.4137704 0.56354964 -0.32827142 0.123278074
0.048842072 -0.6318023 -0.050032098 -0.038754687 -0.55423987 0.2229838 0.052296143 -0.14320861
0.1952149 0.12418043 -0.19379097 -0.5109717 0.5126608 0.17916879 -0.36845943 0.41403916
0.24206883 -0.5335757 -0.12402179 0.24971475 -0.22915189 -0.021852471 0.18942675 0.28648758
0.055990804 -0.045231897 -0.18113974 -0.2301938 -0.19910021 0.5184166 0.13773192 0.29697558
-0.05694014 -0.62808055 -0.15491667 0.13420612 -0.19779526 0.0546837 0.012666034 0.018100051
00000000: ceb8 a53d 251e ac3e c6dc 0f3f e8d0 003e
00000010: c541 7a3d ff5d 6a3f aca5 173e 33e8 ea3e
00000020: 03f3 68bf 98c2 103e 9b42 f5be 8d56 763e
00000030: 5bc0 2dbe cb00 813e 3b5b c2be 272f deba
00000040: d946 dcbe e985 06be 8c49 e23d d73e 19bf
00000050: b7d9 d33e ca44 103f 3113 a8be 3779 fc3d
00000060: a00e 483d ccbd 21bf 75ee 4cbd 3cbd 1ebd
00000070: aae2 0dbf de55 643e 7b34 563d 47a5 12be
00000080: 6ae6 473e 4f52 fe3d 2471 46be 0bcf 02bf
00000090: bd3d 033f 0678 373e b7a6 bcbe f1fc d33e
000000a0: e4e0 773e 6b98 08bf 23ff fdbd 39b5 7f3e
000000b0: cba6 6abe f403 b3bc 16f9 413e 80ae 923e
000000c0: 9d56 653d 1545 39bd b27c 39be ecb7 6bbe
000000d0: ede0 4bbe f3b6 043f 9909 0d3e 2f0d 983e
000000e0: 103a 69bd e3c9 20bf 7aa2 1ebe 546d 093e
000000f0: d78a 4abe 04fc 5f3d 3285 4f3c 8f46 943c

nnECG.5.running_var f4 [64]
1.4629052 1.3270725 1.4277968 0.9454041 1.7060589 1.4985483 0.989511 1.4306704
1.0479555 1.5644473 0.89915967 0.8488901 0.8758611 1.2861468 2.1056812 1.2043332
1.2064667 1.0471414 0.89805406 1.1305786 1.2333134 1.0161 1.2829665 1.5479182
1.294852 1.357855 1.0630459 1.0390953 0.9063759 1.3801006 0.9665192 1.0097466
1.1499716 1.375841 1.1657737 1.2743442 1.3681664 2.1723611 1.0936582 1.6522207
0.8894798 0.850475 1.1218263 1.4589689 2.4126005 0.926717 1.1993992 1.3977612
1.0662857 1.0281096 1.0533297 1.0726651 1.1944464 1.3136876 1.0882337 0.9094405
1.4347024 1.5245159 1.1894954 1.119631 1.0377605 1.1107529 1.3283532 1.059478
00000000: 7a40 bb3f 83dd a93f 0cc2 b63f 0106 723f
00000010: 2360 da3f 6ed0 bf3f 9850 7d3f 3520 b73f
00000020: 6823 863f cf3f c83f 542f 663f dd50 593f
00000030: 6f38 603f 75a0 a43f 7bc3 0640 9727 9a3f
00000040: 806d 9a3f bb08 863f dfe6 653f cdb6 903f
00000050: 37dd 9d3f 910f 823f 3f38 a43f 2f22 c63f
00000060: b6bd a53f 31ce ad3f e311 883f 1301 853f
00000070: 4008 683f 23a7 b03f cd6d 773f 603f 813f
00000080: 4532 933f 8f1b b03f 1338 953f b61d a33f
00000090: 1420 af3f f707 0b40 fefc 8b3f f87b d33f
000000a0: f3b4 633f bbb8 593f 0198 8f3f 7ebf ba3f
000000b0: 0c68 1a40 533d 6d3f ea85 993f d7e9 b23f
000000c0: 0d7c 883f 1899 833f 82d3 863f 174d 893f
000000d0: 9fe3 983f ea26 a83f 3e4b 8b3f 18d1 683f
000000e0: 54a4 b73f 5623 c33f 6341 983f 1250 8f3f
000000f0: 56d5 843f 272d 8e3f 7a07 aa3f fa9c 873f

nnECG.8.weight f4 [16, 64]
0.17258307 -0.083200485 -0.050006475 -0.27214935 -0.14253153 0.06817391 0.02012221 0.043607242
0.06246952 -0.10270915 0.15482049 -0.10590826 0.18749355 -0.09034173 -0.25860286 -0.02137585
0.00049674354 0.21858427 -0.123959735 0.009640919 0.0907466 -0.19399159 0.0557438 0.084643476
-0.039531514 0.06445302 0.17507371 -0.089590356 0.13103075 -0.26579872 -0.021165146 -0.09959001
0.15136175 -0.065575086 -0.19920027 0.12956078 -0.1306161 -0.03165542 0.23691456 -0.17638098
0.26132405 0.0002770369 -0.12415095 -0.23277657 0.10157845 -0.113083966 -0.2933111 0.020466011
-0.11120322 0.1560529 -0.18802965 0.15350206 -0.26217908 0.13466582 -0.11006003 0.23251925
-0.15725675 0.045964148 0.20222344 0.02421003 -0.08022054 0.15338612 0.15544994 0.18342587
-0.15057069 0.19897328 -0.14244273 0.1220329 -0.05270215 -0.121048056 -0.2679376 -0.12712735
0.17063613 0.13006425 -0.17737535 -0.11846514 -0.13651872 0.07681827 0.10841889 0.15874664
-0.05535494 0.10607424 0.08218624 0.19580121 0.06181989 -0.18759172 -0.024981499 0.19204244
-0.011900488 0.024938652 -0.07962173 -0.059003837 0.07271474 0.25767723 0.037229326 0.15525329
0.26425275 -0.14321302 -0.01855032 0.079234324 0.12524335 -0.12633884 -0.13704242 -0.028272465
-0.15534171 -0.24755633 0.11885765 -0.10473663 0.17250167 0.008748092 0.005040716 0.20719059
0.189182 0.1533629 0.2919042 0.19521526 0.2945878 -0.033652723 0.22252543 -0.07501495
0.14724003 0.12397013 0.01767193 0.10923719 -0.09350387 0.11614575 0.07448621 0.022746172
-0.25469312 -0.09654571 0.45109168 -0.086404085 0.018834742 -0.20796193 0.026215395 0.08676108
0.03292191 0.30988723 0.16512054 0.103276774 -0.105507456 0.17202961 0.13282776 -0.036291227
-0.25385833 0.06841418 0.16498801 0.2016289 -0.342533 0.061311655 0.116030164 0.09010417
0.16439489 0.10954116 0.12559359 0.15375979 0.20646939 0.13478744 0.015995108 -0.07369147
0.044928897 0.09464161 0.042814363 0.014688423 -0.29098946 0.38319132 -0.018158369 -0.24017099
0.060496368 0.1136604 0.06277949 0.15022673 -0.17489187 0.02949367 0.31908274 -0.08542843
-0.15663789 0.05997399 -0.042182606 -0.0063846675 -0.28653824 0.1534138 -0.2243515 0.1137822
-0.15498619 -0.08261126 -0.12756371 -0.0984214 0.06411138 0.13772678 0.1848682 -0.10630308
-0.015979588 -0.20339298 0.056815397 0.112484336 0.057581943 0.11475704 0.18984795 -0.1352335
0.28873292 0.34439617 -0.02501382 0.23858817 0.001283483 -0.12331478 0.22157781 0.093516186
-0.040877644 0.034589253 -0.052976448 -0.056649674 -0.008633731 -0.21537922 0.1380628 -0.07000475
0.32266518 0.020642264 -0.097235285 -0.04529334 0.14987494 0.17114985 0.18258713 -0.16805588
0.22762293 0.12113652 0.16124323 -0.046892915 -0.124792896 0.06531194 0.001334328 0.1640062
0.088398226 -0.039640926 0.19940181 0.2278588 -0.15166813 -0.0036279517 -0.14512073 -0.0833444
0.03694025 0.061773833 0.18044661 -0.154162 -0.16685694 0.20750077 0.11340368 0.11612601
0.044537444 -0.21152519 0.07200095 0.060158186 -0.10247251 0.029389922 0.31598002 0.15461665
00000000: 9eb9 303e 0465 aabd 97d3 4cbd 2957 8bbe
00000010: c9f3 11be c39e 8b3d 55d7 a43c 829d 323d
00000020: 0ae0 7f3d 2d59 d2bd 4389 1e3e 6ee6 d8bd
00000030: 4ffe 3f3e 1605 b9bd 9867 84be 681c afbc
00000040: e537 023a 8ed4 5f3e 9ade fdbd f2f4 1d3c
00000050: 5ad9 b93d bba5 46be 9c53 643d 8f59 ad3d
00000060: cceb 21bd f2ff 833d 8646 333e 267b b7bd
00000070: ed2c 063e c516 88be 8762 adbc d9f5 cbbd
00000080: 93fe 1a3e 3b4c 86bd 28fb 4bbe 95ab 043e
00000090: 3ac0 05be 1da9 01bd bb99 723e 379d 34be
000000a0: 44cc 853e 433f 9139 da42 febd fb5c 6ebe
000000b0: 5d08 d03d 9198 e7bd df2c 96be 56a8 a73c
000000c0: 84be e3bd 55cc 1f3e d88a 40be a52f 1d3e
000000d0: 563c 86be d6e5 093e 2767 e1bd 8719 6e3e
000000e0: ea07 21be e744 3c3d a913 4f3e 1d54 c63c
000000f0: ab4a a4bd 4011 1d3e 452e 1f3e fed3 3b3e
00000100: 342f 1abe a7bf 4b3e 82dc 11be 63ec f93d
00000110: 36de 57bd 0be8 f7bd 1e2f 89be ac2d 02be
00000120: 3dbb 2e3e 902f 053e e2a1 35be da9d f2bd
00000130: 90cb 0bbe e652 9d3d b90a de3d 7b8e 223e
00000140: ddbb 62bd 733d d93d 4251 a83d 1d80 483e
00000150: da36 7d3d 0b18 40be 00a6 ccbc c6a6 443e
00000160: 44fa 42bc 254c cc3c b810 a3bd 02ae 71bd
00000170: 77eb 943d 45ee 833e c77d 183d b8fa 1e3e
00000180: 234c 873e 6fa6 12be d7f6 97bc 9b45 a23d
00000190: cb3f 003e f85e 01be d954 0cbe a89b e7bc
000001a0: e611 1fbe 687f 7dbe a46b f33d 2980 d6bd
000001b0: 47a4 303e 2854 0f3c 972c a53b c529 543e
000001c0: edb8 413e 2a0b 1d3e 7874 953e 82e6 473e
000001d0: 36d4 963e 70d7 09bd b5dd 633e 70a1 99bd
000001e0: 17c6 163e 0de4 fd3d b9c4 903c bfb7 df3d
000001f0: f57e bfbd d3dd ed3d 3a8c 983d 2e56 ba3c
00000200: 2367 82be c2b9 c5bd 7df5 e63e a0f4 b0bd
00000210: 514b 9a3c f9f3 54be abc1 d63c cbaf b13d
00000220: 20d9 063d 8aa9 9e3e 5c15 293e c682 d33d
00000230: 4b14 d8bd 8828 303e 0004 083e 1ca6 14bd
00000240: b8f9 81be bc1c 8c3d 9ef2 283e ce77 4e3e
00000250: 7c60 afbe ee21 7b3d 39a1 ed3d 8988 b83d
00000260: 2257 283e 1e57 e03d 9b9b 003e 3573 1d3e
00000270: b66c 533e b805 0a3e 2c08 833c 8eeb 96bd
00000280: 5d07 383d 76d3 c13d 1d5e 2f3d b6a7 703c
00000290: 92fc 94be a731 c43e dcc0 94bc 62ef 75be
000002a0: 0acb 773d c9c6 e83d 8992 803d 09d5 193e
000002b0: db16 33be b69c f13c d05e a33e 1af5 aebd
000002c0: af65 20be 49a7 753d abc7 2cbd 7936 d1bb
000002d0: 24b5 92be 8218 1d3e 66bc 65be a406 e93d
000002e0: b3b4 1ebe 1830 a9bd 10a0 02be 2991 c9bd
000002f0: d44c 833d 4008 0d3e 174e 3d3e 6eb5 d9bd
00000300: a0e7 82bc 4046 50be 43b7 683d 305e e63d
00000310: 0bdb 6b3d bd05 eb3d 8067 423e a77a 0abe
00000320: cdd4 933e b254 b03e c8e9 ccbc 7550 743e
00000330: 8b3a a83a 768c fcbd 4be5 623e 6a85 bf3d
00000340: 516f 27bd 76ad 0d3d d5fd 58bd 7d09 68bd
00000350: 7e74 0dbc 5f8c 5cbe 5660 0d3e a65e 8fbd
00000360: 5f34 a53e f719 a93c 4b23 c7bd 8285 39bd
00000370: d178 193e e841 2f3e 1ff8 3a3e d716 2cbe
00000380: fc15 693e 6c16 f83d f21c 253e c912 40bd
00000390: 6b93 ffbd 44c2 853d 9ee4 ae3a 3ef1 273e
000003a0: 210a b53d 865e 22bd fd2f 4c3e d153 693e
000003b0: e44e 1bbe eec2 6dbb 879a 14be 78b0 aabd
000003c0: a94e 173d 8f06 7d3d ffc6 383e a5dc 1dbe
000003d0: 8cdc 2abe 157b 543e 3040 e83d 79d3 ed3d
000003e0: e56c 363d 0f9a 58be 3c75 933d 6e68 763d
000003f0: 1bdd d1bd 22c3 f03c 22c8 a13e d453 1e3e

nnECG.8.bias f4 [16]
-0.014890555 0.016787827 0.028873112 0.029350463 0.036506224 0.018064449 0.01207361 -0.006917996
0.0238694 0.016699152 0.03095492 -0.027815463 0.034271967 0.023836032 0.024167571 0.0043671266
00000000: 84f7 73bc a086 893c 4e87 ec3c 6270 f03c
00000010: 8d87 153d e5fb 933c 64d0 453c 5bb0 e2bb
00000020: c389 c33c a9cc 883c 2c95 fd3c 41dd e3bc
00000030: c360 0c3d c843 c33c 12fb c53c 1d1a 8f3b

nnECG.9.weight f4 [16]
1.0219738 1.018256 1.1767035 1.05114 1.1540303 1.0169644 1.0003525 1.084194
1.1223598 1.0902556 1.1355966 1.0166994 1.0434122 1.0147959 1.0538617 1.0804793
00000000: 0ad0 823f 3656 823f 389e 963f c18b 863f
00000010: 44b7 933f e42b 823f 8d0b 803f dec6 8a3f
00000020: 7ca9 8f3f 7f8d 8b3f 3b5b 913f 3523 823f
00000030: 888e 853f d5e4 813f f1e4 863f 254d 8a3f

nnECG.9.bias f4 [16]
-0.007948703 0.008787546 0.02924316 0.034483433 0.018885896 -0.007833818 -0.011659488 -0.014486018
0.016483942 -0.0004276721 0.02660618 -0.028447177 0.011476148 -0.0025252013 0.016221965 0.010122791
00000000: 473b 02bc a4f9 0f3c 5a8f ef3c 803e 0d3d
00000010: 98b6 9a3c 6a59 00bc 7007 3fbc c356 6dbc
00000020: 5509 873c 2d39 e0b9 34f5 d93c 0e0a e9bc
00000030: 7406 3c3c d97d 25bb ede3 843c 10da 253c

nnECG.9.running_mean f4 [16]
0.2248214 0.5370358 0.23359354 0.23819523 -0.24680048 -0.072975434 -0.043991044 0.10921402
0.07479059 -0.6535577 0.5937953 0.35324633 0.29839376 -0.35677883 0.12181812 -0.0329292
00000000: 9537 663e 2e7b 093f 2533 6f3e 73e9 733e
00000010: 44b9 7cbe 2574 95bd f42f 34bd 9aab df3d
00000020: cf2b 993d 8f4f 27bf f802 183f b4dc b43e
00000030: 11c7 983e b7ab b6be c77b f93d c5e0 06bd

nnECG.9.running_var f4 [16]
1.2869382 1.2498865 1.1430373 1.2012364 1.558811 1.1538913 1.2962924 1.3090934
1.6142386 1.304302 1.7408844 1.515233 1.4112461 1.3755649 1.2187716 2.0376983
00000000: 64ba a43f 48fc 9f3f 0c4f 923f 1dc2 993f
00000010: 1e87 c73f b6b2 933f e9ec a53f 5f90 a73f
00000020: 5f9f ce3f 5ef3 a63f 4dd5 de3f 28f3 c13f
00000030: b6a3 b43f 8312 b03f b500 9c3f a669 0240

nnECG.12.weight f4 [4, 16]
0.4355161 -0.32724863 -0.22788465 -0.40213853 0.28441978 -0.52721524 -0.40943864 0.05506121
0.19416307 0.313254 0.06068327 0.11456906 -0.019798523 -0.2070278 0.22381352 -0.22911526
-0.28711247 0.38678926 -0.24116026 0.25727332 -0.19392122 0.52399504 0.50258183 0.03416983
-0.047838897 -0.51895744 -0.13119836 -0.19289339 -0.043821342 0.3508563 0.26528323 -0.15117812
-0.30150923 0.022783687 0.20949195 0.30799776 0.20297347 -0.19548808 -0.18367112 -0.57557154
-0.5178976 0.47412947 0.2581828 -0.17742397 0.3801941 -0.49607182 -0.30837956 -0.60107535
-0.41994187 -0.4421942 0.25911546 0.15863144 -0.26556063 0.1812902 -0.06414122 0.45192653
0.29244867 -0.4425988 -0.31699294 0.051002346 0.08432409 0.53397626 -0.379155 0.015416376
00000000: f7fb de3e 228d a7be 985a 69be 1ae5 cdbe
00000010: 789f 913e 94f7 06bf f1a1 d1be dd87 613d
00000020: afd2 463e d462 a03e 058f 783d 2fa3 ea3d
00000030: 8330 a2bc 18ff 53be 5f2f 653e 319d 6abe
00000040: 6800 93be 3e09 c63e b7f2 76be 54b9 833e
00000050: 4993 46be 8a24 063f 34a9 003f aaf5 0b3d
00000060: b8f2 43bd 65da 04bf dd58 06be d885 45be
00000070: 027e 33bd 70a3 b33e 34d3 873e 70ce 1abe
00000080: 6b5f 9abe dba4 ba3c 0f85 563e e2b1 9d3e
00000090: 47d8 4f3e 072e 48be 4814 3cbe a858 13bf
000000a0: f094 04bf 19c1 f23e 8930 843e a1ae 35be
000000b0: cda8 c23e 20fd fdbe ede3 9dbe 13e0 19bf
000000c0: 9f02 d7be 4767 e2be c8aa 843e 4870 223e
000000d0: 90f7 87be 23a4 393e 795c 83bd ea62 e73e
000000e0: d5bb 953e 4f9c e2be e64c a2be d6e7 503d
000000f0: 1cb2 ac3d abb2 083f 9b20 c2be f894 7c3c

nnECG.12.bias f4 [4]
0.01691774 0.01475233 0.02682833 0.015333451
00000000: 1397 8a3c c2b3 713c 16c7 db3c 2839 7b3c

nnECG.13.weight f4 [4]
1.0313126 1.012354 1.0996894 1.0196999
00000000: 0d02 843f d194 813f 9fc2 8c3f 8785 823f

nnECG.13.bias f4 [4]
0.005054214 2.2964505e-05 0.014303764 0.0029337644
00000000: d29d a53b e6a3 c037 565a 6a3c 6644 403b

nnECG.13.running_mean f4 [4]
-0.22365713 0.14933291 -0.47125545 -0.08395248
00000000: 6006 65be baea 183e 6548 f1be 47ef abbd

nnECG.13.running_var f4 [4]
1.4420176 1.4216597 1.3054191 1.388173
00000000: 0894 b83f f2f8 b53f f917 a73f a7af b13f

nnECG.16.weight f4 [1, 4]
0.09488864 -0.7073604 0.63790786 -0.15497251
00000000: fa54 c23d 9215 35bf ee4d 233f 1db1 1ebe
