Models/net_2_1_epoch_63.pth (torch, 57997 bytes, 25 tensors)

nnECG.0.weight f4 [128, 12]
0.1310043 0.06399443 -0.10576434 0.15118137 -0.053270843 0.028766472 -0.22977905 -0.02608168
-0.15422091 0.023735067 0.0065240553 0.03403781 -0.06494901 0.028098797 0.1984273 0.18111981
0.048774697 -0.11686992 -0.17828824 0.054394856 -0.016742246 0.21732695 0.14546761 -0.1602027
-0.08763196 -0.12995543 -0.048596017 0.009913469 -0.015783595 -0.13338646 0.14641647 0.13772734
-0.040443692 -0.21107863 -0.17525122 -0.16103964 0.22162633 0.17962646 0.015607006 -0.07697195
0.051581763 -0.19287781 -0.036234036 0.15657474 -0.10989499 0.17103373 -0.014911148 0.15028629
0.15698029 -0.25349447 0.10486858 0.05384736 -0.12728289 0.15853214 -0.23817909 -0.10024414
0.12051633 0.106984764 0.10608213 -0.17658614 0.14239085 -0.13456117 0.1549416 -0.096378334
0.044486195 -0.06427656 0.07534792 0.005977015 0.07318448 0.20619845 0.10164261 -0.21885656
0.040885776 -0.10906143 -0.0056862333 0.018686242 -0.17883098 0.16449092 0.16928765 -0.18408765
0.0025037203 0.08786938 -0.12920205 0.2027219 0.18422067 0.22724429 0.11963143 0.2022703
0.09489457 0.13888563 -0.21765405 -0.059604358 -0.20079416 0.06438544 -0.10551086 0.09937211
-0.005822849 -0.048412953 0.054949533 -0.13469172 0.050193407 0.0029087842 -0.09446587 -0.04305193
0.06260239 -0.14727119 0.13246647 0.038721338 0.08911353 -0.018277824 0.10017483 0.11106731
-0.15611824 -0.07592433 -0.039409224 0.013256757 0.14946322 0.02895911 0.12550347 0.061593994
-0.03637721 0.042804357 -0.2523243 -0.038902972 -0.2192375 -0.24117172 0.044525143 -0.08579489
0.03234103 -0.04680909 0.17201808 0.06468622 0.17808282 -0.19853531 -0.034383785 -0.15371121
-0.19069916 0.16085117 0.10769669 -0.18702076 -0.049526297 0.20632076 -0.016146237 0.18946548
0.1731209 0.14641482 -0.09468247 -0.110613994 0.22455806 0.018312065 -0.009041019 -0.14213933
-0.049286798 0.13282542 0.15868735 -0.08947137 -0.012974419 -0.012181361 0.11065908 -0.039132908
-0.10654183 0.039721586 -0.1090358 0.10471536 -0.10105238 0.23631606 -0.039869104 0.049381554
-0.12720965 0.14879207 -0.0713532 -0.043772478 0.16640206 -0.20729488 -0.017279405 -0.090237655
0.21851291 -0.043849494 0.081084706 -0.085807845 0.121972725 0.010208519 0.041061465 0.08524445
0.030401245 -0.0070313024 0.10131333 -0.032711606 0.04695177 -0.073825374 -0.16845198 0.03185041
0.12262881 0.067655414 0.1611102 -0.062109463 -0.05119964 -0.13814276 0.07004738 0.03722114
0.13381344 -0.060926627 -0.24889828 -0.040379383 -0.028418835 0.012507425 0.078788765 -0.04946511
-0.010071875 0.20865697 -0.17289963 0.012315783 0.09107708 0.06238498 0.16633265 -0.22668868
0.06693407 0.022021193 -0.07006154 -0.19828662 0.13285905 0.06945409 0.15697701 0.1725327
-0.14413548 -0.05195193 0.0675321 0.030359827 0.07277283 0.013809235 -0.24941069 -0.06651212
-0.16957186 -0.17575885 0.022043508 -0.038991086 -0.08775394 -0.21066079 -0.19087124 -0.04736751
0.10993079 0.006791893 0.11969882 -0.06292931 0.26156875 -0.062089965 -0.21724083 0.017997595
-0.15240884 0.07912399 0.14376792 0.21467896 -0.07604408 -0.16701734 -0.18461367 0.07719736
00000000: fe25 063e 830f 833d f99a d8bd 4acf 1a3e
00000010: 8732 5abd aaa7 eb3c 334b 6bbe 3fa9 d5bc
00000020: 16ec 1dbe 0b70 c23c bec7 d53b 3b6b 0b3d
00000030: fd03 85bd 732f e63c 8730 4b3e 7977 393e
00000040: fac7 473d 7f59 efbd 3191 36be 24cd 5e3d
00000050: 0927 89bc f58a 5e3e 76f5 143e 2d0c 24be
00000060: 6378 b3bd 0913 05be 9e0c 47bd 1a6c 223c
00000070: 994c 81bc 7696 08be 33ee 153e 6508 0d3e
00000080: 49a8 25bd ff24 58be 0e75 33be 93e7 24be
00000090: 03f2 623e 00f0 373e 87b4 7f3c 78a3 9dbd
000000a0: 6647 533d c381 45be 246a 14bd 2155 203e
000000b0: a010 e1bd 7723 2f3e e34d 74bc a6e4 193e
000000c0: 71bf 203e 07ca 81be 57c5 d63d 0d8f 5c3d
000000d0: 7256 02be 4056 223e 38e5 73be cd4c cdbd
000000e0: 44d1 f63d d41a db3d 9641 d93d ffd2 34be
000000f0: e8ce 113e 67ca 09be 03a9 1e3e 0162 c5bd
00000100: 2837 363d 6ea3 83bd 0350 9a3d d6da c33b
00000110: bfe1 953d b025 533e 002a d03d ef1b 60be
00000120: d877 273d 995b dfbd 9553 babb e413 993c
00000130: 781f 37be 4f70 283e be59 2d3e 7981 3cbe
00000140: 7515 243b ddf4 b33d 8b4d 04be 5496 4f3e
00000150: 58a4 3c3e bab2 683e 5301 f53d f21f 4f3e
00000160: 1658 c23d 0938 0e3e b4e0 5ebe b323 74bd
00000170: fc9c 4dbe 83dc 833d 1416 d8bd 9b83 cb3d
00000180: 99cd bebb a94c 46bd c312 613d a0ec 09be
00000190: 9a97 4d3d 4da1 3e3b 5277 c1bd 3857 30bd
000001a0: af35 803d 42ce 16be 4aa5 073e 449a 1e3d
000001b0: 2881 b63d 60bb 95bc 7628 cd3d 4277 e33d
000001c0: 76dd 1fbe 377e 9bbd 916b 21bd de32 593c
000001d0: e30c 193e a83b ed3c fb83 003e fc49 7c3d
000001e0: 4500 15bd 9f53 2f3d a730 81be b958 1fbd
000001f0: cc7f 60be b8f5 76be ff5f 363d 3bb5 afbd
00000200: 0778 043d e3ba 3fbd 8225 303e 357a 843d
00000210: 585b 363e d74c 4bbe 03d6 0cbd 7966 1dbe
00000220: a446 43be 2bb6 243e 1590 dc3d 5f82 3fbe
00000230: 16dc 4abd c045 533e 1d45 84bc 3d03 423e
00000240: 9b46 313e c4ed 153e e2e8 c1bd 9789 e2bd
00000250: 8cf2 653e 2f03 963c c820 14bc f98c 11be
00000260: f4e0 49bd 6303 083e f07e 223e c43c b7bd
00000270: a892 54bc 5594 47bc 3aa1 e23d d449 20bd
00000280: 9a32 dabd 1ab3 223d 294e dfbd 0275 d63d
00000290: 8df4 cebd d6fc 713e c94d 23bd 5044 4a3d
000002a0: 3f43 02be f35c 183e a021 92bd c54a 33bd
000002b0: 4d65 2a3e 1c45 54be 8a8d 8dbc 85ce b8bd
000002c0: d9c1 5f3e 879b 33bd bd0f a63d 06bc afbd
000002d0: d6cc f93d a241 273c 1130 283d a494 ae3d
000002e0: 080c f93c d766 e6bb 5d7d cf3d 9bfc 05bd
000002f0: 8050 403d c231 97bd ad7e 2cbe 9375 023d
00000300: d024 fb3d ec8e 8a3d 13fa 243e 7e66 7ebd
00000310: b7b6 51bd 4c75 0dbe 0075 8f3d 3275 183d
00000320: 6406 093e 338e 79bd 31df 7ebe da64 25bd
00000330: 9ece e8bc f1eb 4c3c 015c a13d ed9b 4abd
00000340: 8104 25bc 2caa 553e 9a0c 31be 23c8 493c
00000350: 9f86 ba3d 6587 7f3d 1b53 2a3e 1421 68be
00000360: bb14 893d ca65 b43c 6d7c 8fbd a60b 4bbe
00000370: 340c 083e f23d 8e3d 95be 203e 69ac 303e
00000380: 4098 13be 8ccb 54bd 454e 8a3d 2cb5 f83c
00000390: ec09 953d 2140 623c 8465 7fbe 8237 88bd
000003a0: 3fa4 2dbe 21fa 33be 9694 b43c 1eb5 1fbd
000003b0: 56b8 b3bd 76b7 57be c073 43be 6f04 42bd
000003c0: 6523 e13d 878e de3b a824 f53d 15e1 80bd
000003d0: 57ec 853e 0c52 7ebd 6174 5ebe b16f 933c
000003e0: 1011 1cbe c20b a23d e637 133e cdd4 5b3e
000003f0: 00bd 9bbd 9806 2bbe 5e0b 3dbe a619 9e3d

nnECG.0.bias f4 [128]
0.0066654766 0.017360304 0.027386025 0.0023421517 0.008190811 -0.0014796552 -0.0016355972 -0.003859083
0.010659415 -0.0037549094 0.029356025 0.0026414876 -0.004717582 0.01365566 0.02179179 0.013427038
0.0027158828 0.004953734 -0.008829491 0.016330048 0.0044893846 0.0065124594 0.021695603 0.020376217
0.020939508 0.0046445928 0.0039471295 0.0059881825 0.0003725031 -0.010801693 -0.0039473996 0.016863788
0.026253121 -0.012597164 0.009676728 0.013839135 0.004885411 0.012423145 0.025995482 -0.00022778576
0.016304925 0.00021109566 0.01166726 0.003070538 0.0076135485 0.006310857 0.013507219 0.009915358
0.019824423 -0.013768856 -0.019306798 0.027383998 0.025503092 0.019550106 0.016789481 0.01163199
0.0066908207 -0.023486588 0.018707413 0.02212862 0.020555958 0.008570101 0.016116561 0.014912719
-0.014449969 0.0055992287 0.024112381 0.007737469 9.475881e-05 0.0018585543 0.0068028104 0.016934535
-0.009605163 -0.002919632 0.017108621 0.022340184 0.009773413 -0.010393898 0.011228991 0.0028348495
0.017596282 0.029195676 0.023043802 -0.012873447 0.014524848 0.0096131945 -0.0034875844 0.019978797
-0.012245373 0.020105261 0.017872032 -0.0013045917 0.009248803 -0.004529566 0.010540822 0.029969966
0.007730939 0.025086274 0.014632264 0.021554599 0.02512636 0.0050109196 0.02040154 -0.005638899
0.0060062013 0.005783024 0.036103476 0.029877052 0.01806845 0.026799746 0.016484572 -0.005112514
0.0009271003 -0.003274839 0.004388378 0.019966116 0.023191204 0.012890995 0.012965457 0.014301643
-0.008447579 0.010071466 0.016758524 -0.00022748085 -0.0033100096 0.00845525 0.021880852 0.0025684757
00000000: 126a da3b 3237 8e3c a858 e03c c97e 193b
00000010: c032 063c fdf0 c1ba 8961 d6ba abe8 7cbb
00000020: d4a4 2e3c ed14 76bb 0c7c f03c cf1c 2d3b
00000030: f295 9abb fdbb 5f3c b284 b23c 14fd 5b3c
00000040: f4fc 313b ef52 a23b 92a9 10bc 98c6 853c
00000050: b01b 933b 7866 d53b faba b13c 06ec a63c
00000060: 5589 ab3c ab31 983b ec56 813b 8438 c43b
00000070: 854c c339 96f9 30bc 3059 81bb ed25 8a3c
00000080: c910 d73c 5664 4ebc 248b 1e3c 8abd 623c
00000090: cc15 a03b 728a 4b3c 7af4 d43c c6d9 6eb9
000000a0: e891 853c 8f59 5d39 0928 3f3c 143b 493b
000000b0: 137b f93b 4ecb ce3b 624d 5d3c 0774 223c
000000c0: d466 a23c c596 61bc 4a29 9ebc 6854 e03c
000000d0: dceb d03c 8b27 a03c 188a 893c 1a94 3e3c
000000e0: ac3e db3b f266 c0bc 4a40 993c 1447 b53c
000000f0: f864 a83c 9c69 0c3c e106 843c 7a54 743c
00000100: 90bf 6cbc bc79 b73b 5487 c53c 988a fd3b
00000110: 40b9 c638 bc9a f33a 1cea de3b 4bba 8a3c
00000120: f95e 1dbc 4c57 3fbb 6127 8c3c c302 b73c
00000130: aa20 203c 2b4b 2abc cdf9 373c e2c8 393b
00000140: 1426 903c c52b ef3c 5bc6 bc3c 26eb 52bc
00000150: a1f9 6d3c a980 1d3c f58f 64bb 93aa a33c
00000160: d1a0 48bc cab3 a43c 5e68 923c d5fe aaba
00000170: 4b88 173c c16c 94bb 69b3 2c3c 9383 f53c
00000180: d153 fd3b bb81 cd3c 2abc 6f3c 4593 b03c
00000190: ccd5 cd3c a432 a43b 2121 a73c 83c6 b8bb
000001a0: abcf c43b 857f bd3b 3de1 133d b8c0 f43c
000001b0: 4904 943c 248b db3c a70a 873c e086 a7bb
000001c0: a608 733a ae9e 56bb 62cc 8f3b fb8f a33c
000001d0: 7bfb bd3c c034 533c 116d 543c 7051 6a3c
000001e0: b767 0abc ca02 253c 2c49 893c ed87 6eb9
000001f0: bfec 58bb e487 0a3c 793f b33c df53 283b

nnECG.1.weight f4 [128]
1.057875 1.0601225 1.0137451 1.0304457 1.0358211 0.99997556 1.0495663 1.0657175
0.9197164 0.95806354 1.0843513 1.0481619 1.0131403 0.9803599 1.0370569 1.0901471
1.0397805 0.9428594 0.9732936 1.1150333 1.1395198 0.9560468 1.0560304 1.0306187
1.0821471 0.94743085 1.2191545 1.0731028 0.97809017 1.1002752 0.9841128 1.0248871
1.108995 0.9981899 1.1231517 1.1076158 1.0576441 0.9707819 1.0442456 1.0147624
1.0127409 1.0407759 1.0225662 0.9691519 0.9999144 1.1079181 1.0918112 1.035665
1.1755875 1.0363345 1.0816882 1.0647705 1.0076839 1.0218829 1.0228142 1.0633657
1.0487864 1.2743553 1.0524875 1.1150249 0.94677955 1.0596086 1.0219115 0.9834298
1.1957662 1.0795255 1.0192993 1.050349 1.054274 1.0431137 0.93376845 0.96162105
1.0299691 1.1132345 1.1084616 1.0930408 1.0166982 1.1405514 1.033916 0.9679872
1.1437126 1.0784041 1.0091176 1.1816012 1.1058254 1.1294805 1.0646871 1.0180318
1.0188339 1.0742055 1.1257527 1.0221198 1.0020945 1.1200467 0.99055284 1.0934365
1.0452199 1.0557553 1.0280648 1.1152964 1.0219994 0.90493464 1.0996319 1.0727048
0.9893772 1.0290488 1.1202542 1.0843915 1.0141224 1.1032234 0.98949665 0.9647876
0.95616984 1.0091739 1.0817835 1.105412 1.0216872 1.0576875 1.0306901 1.0957077
1.1260233 1.1006118 1.0145178 1.0822024 1.0435843 1.0117232 1.0105876 1.0068583
00000000: 7368 873f 18b2 873f 66c2 813f a5e5 833f
00000010: c995 843f 66fe 7f3f 3058 863f 6e69 883f
00000020: 8972 6b3f a743 753f 06cc 8a3f 2b2a 863f
00000030: 95ae 813f def8 7a3f 48be 843f f189 8b3f
00000040: 8717 853f 3c5f 713f c529 793f 69b9 8e3f
00000050: c9db 913f 7cbf 743f 012c 873f 50eb 833f
00000060: cc83 8a3f d48a 723f 410d 9c3f 6f5b 893f
00000070: 1e64 7a3f d1d5 8c3f d1ee 7b3f 802f 833f
00000080: 8cf3 8d3f 6089 7f3f 6fc3 8f3f 5bc6 8d3f
00000090: e260 873f 2a85 783f d7a9 853f bce3 813f
000000a0: 7ea1 813f 2538 853f 73e3 823f 571a 783f
000000b0: 64fa 7f3f 43d0 8d3f 78c0 8b3f ac90 843f
000000c0: a779 963f 9ca6 843f c274 8a3f 664a 883f
000000d0: c9fb 803f 0fcd 823f 93eb 823f 5e1c 883f
000000e0: a23e 863f 131e a33f e9b7 863f 23b9 8e3f
000000f0: 2560 723f 41a1 873f ffcd 823f 0ec2 7b3f
00000100: de0e 993f e42d 8a3f 6678 823f d671 863f
00000110: 73f2 863f c084 853f 730b 6f3f cc2c 763f
00000120: 07d6 833f 787e 8e3f 12e2 8d3f c3e8 8b3f
00000130: 2b23 823f 97fd 913f 5c57 843f 02ce 773f
00000140: 2d65 923f 2509 8a3f c42a 813f b53e 973f
00000150: b08b 8d3f d192 903f ab47 883f de4e 823f
00000160: 2669 823f 917f 893f aa18 903f d2d4 823f
00000170: a244 803f b15d 8f3f df94 7d3f baf5 8b3f
00000180: c4c9 853f fd22 873f a197 833f 08c2 8e3f
00000190: e0d0 823f cca9 673f bdc0 8c3f 644e 893f
000001a0: d347 7d3f dfb7 833f 7d64 8f3f 57cd 8a3f
000001b0: c3ce 813f 6d36 8d3f a74f 7d3f 52fc 763f
000001c0: 8cc7 743f 9c2c 813f e277 8a3f 247e 8d3f
000001d0: a5c6 823f 4e62 873f a7ed 833f 2640 8c3f
000001e0: 8821 903f d9e0 8c3f b8db 813f 9c85 8a3f
000001f0: 2c94 853f 2580 813f ef5a 813f bce0 803f

nnECG.1.bias f4 [128]
-0.0062661865 0.010509236 0.023021324 0.0017460826 -0.010699601 -0.005699095 -0.006453556 -0.016981285
-0.016848337 -0.013946151 0.008278927 -0.013062328 -0.023835631 0.0074286098 -0.0009830364 -0.0058775605
-0.0022321052 -0.0003037535 -0.02755046 0.018909685 -0.004815567 -0.008047197 0.018712675 0.010524218
0.006694221 0.0011761098 -0.021519257 -0.008702747 -0.009754477 -0.015695145 -0.008505799 0.005476783
0.018697066 -0.024446877 -0.00019205688 0.019160343 0.0017342939 0.0054809786 0.01359957 -0.015442921
0.0052434197 -0.012284092 0.0045465627 -0.0038187345 -0.004503241 0.0063148276 -0.007400903 -0.0045490824
0.025097905 -0.016429149 -0.011168706 0.023129161 0.026097074 0.01680108 0.0008491571 0.01088119
-0.0039864476 -0.033737432 0.0077810413 0.0011116375 0.010978732 -0.004944652 0.00952494 0.009716452
-0.0071422546 0.00015303388 0.008543925 0.0099964775 -0.012423077 -0.0044219973 -0.0077065257 0.007884297
0.0011249378 0.0007718413 -0.001725285 0.012355584 0.001123138 -0.008261595 -0.003319776 0.009727568
0.013219163 0.024437862 0.010993269 -0.01797761 -0.0007314615 0.011870944 -0.007196113 0.0073816413
-0.011872735 0.007377258 0.022685755 -0.010557164 0.0025990054 -0.01630094 -0.013843564 0.02070119
-0.0035029843 0.013742277 0.0039196312 -0.004666243 0.024204265 0.0038934562 0.015293047 -0.016544823
0.005951121 -0.01812386 0.021740155 0.0046200603 0.013187309 0.024647199 0.0074874363 -0.008422382
-0.008729915 -0.008619726 -0.015127009 0.01059039 0.014177071 -0.0038717492 -0.0040340135 0.0103739165
-0.00952671 -0.009815315 0.0067169876 -0.016022408 -0.011560899 0.002551704 0.017895088 -0.0071960823
00000000: 9554 cdbb ee2e 2c3c 3797 bc3c cfdc e43a
00000010: 614d 2fbc 79bf babb 5a78 d3bb 561c 8bbc
00000020: 8605 8abc 667e 64bc 56a4 073c 6003 56bc
00000030: f142 c3bc b26b f33b 3ad9 80ba 8d98 c0bb
00000040: 8348 12bb 1b41 9fb9 81b1 e1bc 7ce8 9a3c
00000050: e7cb 9dbb 64d8 03bc 534b 993c c56d 2c3c
00000060: 325b db3b b227 9a3a 2749 b0bc f795 0ebc
00000070: 3ed1 1fbc 1b93 80bc e85b 0bbc 9676 b33b
00000080: 972a 993c d144 c8bc e062 49b9 27f6 9c3c
00000090: 3f51 e33a c899 b33b bbd0 5e3c 4e04 7dbc
000000a0: fed0 ab3b 3743 49bc 55fb 943b bc43 7abb
000000b0: ec8f 93bb 9dec ce3b 4683 f2bb 7810 95bb
000000c0: 1f9a cd3c 6c96 86bc f3fc 36bc 5e79 bd3c
000000d0: 88c9 d53c 6ba2 893c f899 5e3a 0547 323c
000000e0: bfa0 82bb 4330 0abd 1bf8 fe3b 5db4 913a
000000f0: 24e0 333c bf06 a2bb 7e0e 1c3c c131 1f3c
00000100: 9309 eabb b877 2039 d2fb 0b3c 44c8 233c
00000110: 298a 4bbc 67e6 90bb 0687 fcbb 232d 013c
00000120: a672 933a 6555 4a3a f522 e2ba 136f 4a3c
00000130: 4236 933a a45b 07bc 9990 59bb 6160 1f3c
00000140: 3095 583c e931 c83c 1d1d 343c c845 93bc
00000150: 8dbf 3fba 597e 423c 5fcd ebbb b2e1 f13b
00000160: dc85 42bc edbc f13b 7ad7 b93c f5f7 2cbc
00000170: 1354 2a3b 8d89 85bc 1ed0 62bc 8b95 a93c
00000180: 5392 65bb 4a27 613c 4070 803b 49e7 98bb
00000190: 0648 c63c 5b29 7f3b b08f 7a3c 0289 87bc
000001a0: 9f01 c33b 7d78 94bc 6918 b23c e063 973b
000001b0: 950f 583c ece8 c93c 2b59 f53b 08fe 09bc
000001c0: eb07 0fbc c039 0dbc 46d7 77bc 5183 2d3c
000001d0: f246 683c 2cbd 7dbb c22f 84bb 5cf7 293c
000001e0: eb15 1cbc 6ad0 20bc 2d1a dc3b 6d41 83bc
000001f0: ed69 3dbc 7d3a 273b b898 923c 1dcd ebbb

nnECG.1.running_mean f4 [128]
-0.23666453 0.076556064 -0.46597165 0.21761397 0.28373897 0.56073415 0.17853746 -0.08239293
-0.026987674 0.3218214 -0.06314814 0.3947251 0.33717364 0.087469384 0.00018769798 0.026929263
-0.008007261 0.32191965 0.22288796 -0.5912885 -0.002975818 -0.30930847 -0.1857421 -0.3736831
-0.114080764 -0.10701308 0.19503324 0.13839905 0.06614192 0.27806622 0.43015927 -0.58636403
-0.24460557 -0.28474358 0.104681104 -0.16312616 -0.2723062 -0.024876073 -0.2192262 0.30697328
-0.21079311 0.30164796 0.3598701 -0.07392509 0.086529516 -0.12890273 -0.3194608 -0.25393862
0.017007936 0.1639337 0.1249305 -0.16009027 -0.47693673 -0.26853454 0.24717943 -0.10837788
-0.07136015 0.391642 0.08237209 -0.27504942 0.068557665 -0.30445394 -0.24058825 -0.1783743
0.27294186 0.36713514 -0.08725519 -0.32191393 0.21489379 0.06579524 -0.1842147 0.11357317
-0.36058748 -0.021743052 -0.07791721 -0.16906744 0.15214862 0.031560935 0.31338966 -0.13297945
0.19879834 -0.08817991 0.16968915 0.36981267 0.22043936 0.050731312 0.09954545 -0.28361827
-0.087328315 0.07499697 -0.46091783 0.42337328 0.17471668 -0.28112617 0.41981885 -0.31048912
-0.11347164 -0.18874753 -0.09155749 0.16367844 0.121176705 0.01010741 -0.25530794 -0.19558054
0.16639602 -0.081918836 -0.45556617 -0.2035506 0.035172183 -0.14006372 -0.17758046 0.26972917
-0.16868457 0.33122548 -0.12774034 -0.16524556 -0.10896124 0.014244177 -0.079566725 -0.36561042
0.26876563 -0.055853464 -0.13391207 0.25129053 -0.2832101 0.36715156 -0.34177798 -0.21739691
00000000: 3058 72be 6dc9 9c3d d693 eebe 32d6 5e3e
00000010: 3c46 913e 468c 0f3f 86d2 363e a0bd a8bd
00000020: 4115 ddbc c6c5 a43e d053 81bd 6919 ca3e
00000030: 06a2 ac3e 2623 b33d cbd0 4439 c29a dc3c
00000040: e330 03bc a7d2 a43e be3c 643e af5e 17bf
00000050: f105 43bb ae5d 9ebe 2d33 3ebe 6453 bfbe
00000060: 2da3 e9bd ac29 dbbd cbb6 473e 7bb8 0d3e
00000070: 6a75 873d b25e 8e3e d63d dc3e f41b 16bf
00000080: e279 7abe e9c9 91be 0c63 d63d 8b0a 27be
00000090: b86b 8bbe e8c8 cbbc d57c 60be 9a2b 9d3e
000000a0: 26da 57be 9a71 9a3e e540 b83e 0a66 97bd
000000b0: 6336 b13d 14ff 03be 5e90 a3be 3e04 82be
000000c0: 3a54 8b3c 3cde 273e 90db ff3d b4ee 23be
000000d0: 0d31 f4be 5c7d 89be 9b1c 7d3e 39f5 ddbd
000000e0: 4525 92bd 4d85 c83e b3b2 a83d 47d3 8cbe
000000f0: f667 8c3d 63e1 9bbe c45c 76be c1a7 36be
00000100: 09bf 8b3e 23f9 bb3e d9b2 b2bd e7d1 a4be
00000110: 1e0d 5c3e a8bf 863d c7a2 3cbe 0d99 e83d
00000120: ec9e b8be 7c1e b2bc 0f93 9fbd 0420 2dbe
00000130: d9cc 1b3e 0a46 013d 9c74 a03e c42b 08be
00000140: cb91 4b3e ab97 b4bd fec2 2d3e 1658 bd3e
00000150: dbba 613e a3cb 4f3d 7cde cb3d 6a36 91be
00000160: 30d9 b2bd 0398 993d 6cfd ebbe 62c4 d83e
00000170: eee8 323e c5ef 8fbe 7ff2 d63e 6ef8 9ebe
00000180: d263 e8bd 0847 41be 7e82 bbbd 529b 273e
00000190: 7e2b f83d 8d99 253c b9b7 82be 4446 48be
000001a0: b863 2a3e 10c5 a7bd f83f e9be 926f 50be
000001b0: b510 103d dd6c 0fbe a7d7 35be f119 8a3e
000001c0: a6bb 2cbe 6396 a93e 5dce 02be 2236 29be
000001d0: 1227 dfbd 6960 693c e1f3 a2bd 4a31 bbbe
000001e0: a69b 893e 9ac6 64bd 3f20 09be 27a9 803e
000001f0: ea00 91be 4afb bb3e 86fd aebe 4c9d 5ebe

nnECG.1.running_var f4 [128]
0.07442831 0.07354323 0.074657775 0.07674441 0.07345926 0.072879046 0.07272595 0.07632025
0.072291836 0.07268059 0.07499843 0.0727144 0.07711274 0.07466253 0.074737504 0.0721045
0.07349243 0.075713865 0.07356725 0.07463875 0.07507601 0.07561756 0.073327266 0.07420316
0.07655174 0.07326825 0.07345436 0.07325972 0.07330589 0.07799417 0.07561661 0.07645764
0.0795761 0.07350926 0.07240537 0.07389069 0.07246066 0.07320829 0.077035055 0.07425305
0.0724745 0.0760791 0.07753928 0.07248513 0.072159246 0.075437255 0.07260583 0.07315819
0.07326243 0.07661735 0.07894191 0.074197955 0.072223045 0.0736985 0.07824761 0.072948076
0.07249722 0.07657602 0.074443385 0.074337766 0.07689828 0.080689505 0.07428747 0.07693016
0.07422647 0.07410858 0.07267284 0.07568232 0.073301554 0.07439354 0.07357967 0.074499175
0.07480864 0.072726786 0.079842135 0.07458001 0.07368331 0.07380757 0.07488878 0.07244827
0.07479493 0.07542132 0.07279286 0.07444152 0.07417943 0.07565022 0.07407772 0.07294169
0.079989165 0.07333023 0.07364322 0.081032746 0.07437987 0.07254956 0.07310724 0.072736636
0.075036876 0.07506491 0.07307401 0.07475682 0.0733704 0.07227971 0.07517108 0.08028231
0.07373934 0.07513644 0.07339568 0.07452097 0.07359922 0.072957456 0.0730668 0.073410414
0.0722678 0.07361846 0.075480476 0.07472033 0.0748742 0.085803114 0.07269458 0.0755775
0.07507806 0.0739631 0.07290415 0.07629255 0.07391286 0.07573818 0.072756715 0.07597008
00000000: df6d 983d d59d 963d 2de6 983d 2c2c 9d3d
00000010: cf71 963d 9c41 953d 58f1 943d cb4d 9c3d
00000020: be0d 943d 90d9 943d c798 993d 4aeb 943d
00000030: 49ed 9d3d abe8 983d fa0f 993d 86ab 933d
00000040: 3383 963d df0f 9b3d 6daa 963d 33dc 983d
00000050: 73c1 993d 61dd 9a3d 9b2c 963d d4f7 973d
00000060: 29c7 9c3d aa0d 963d 3d6f 963d 3109 963d
00000070: 6621 963d 68bb 9f3d e2dc 9a3d d395 9c3d
00000080: cbf8 a23d 068c 963d 4449 943d 0154 973d
00000090: 4166 943d 3aee 953d 8ec4 9d3d fc11 983d
000000a0: 836d 943d 5ccf 9b3d eacc 9e3d 1573 943d
000000b0: 3ac8 933d d97e 9a3d 5eb2 943d f6d3 953d
000000c0: 9d0a 963d 8fe9 9c3d 4cac a13d 19f5 973d
000000d0: ade9 933d 3def 963d 4840 a03d cd65 953d
000000e0: 6c79 943d e3d3 9c3d c675 983d 663e 983d
000000f0: d87c 9d3d 8a40 a53d 0724 983d 8f8d 9d3d
00000100: 0c04 983d 3dc6 973d 7fd5 943d 55ff 9a3d
00000110: 201f 963d a45b 983d f0b0 963d 0693 983d
00000120: 4635 993d c8f1 943d 4684 a33d 67bd 983d
00000130: 46e7 963d 6c28 973d 4a5f 993d c25f 943d
00000140: 162e 993d 7e76 9a3d 6c14 953d cc74 983d
00000150: 63eb 973d 81ee 9a3d 0fb6 973d 7462 953d
00000160: 5cd1 a33d 292e 963d 42d2 963d 7ff4 a53d
00000170: 7954 983d dd94 943d 40b9 953d f2f6 943d
00000180: efac 993d a2bb 993d d4a7 953d 1b1a 993d
00000190: 3843 963d 6207 943d 4cf3 993d 0d6b a43d
000001a0: a704 973d 22e1 993d 7950 963d 739e 983d
000001b0: 30bb 963d b86a 953d 0ca4 953d 3358 963d
000001c0: 2401 943d 46c5 963d 8295 9a3d f906 993d
000001d0: a557 993d 8bb9 af3d e5e0 943d 60c8 9a3d
000001e0: 87c2 993d f779 973d c54e 953d 453f 9c3d
000001f0: a05f 973d 9e1c 9b3d 7901 953d 3496 9b3d

nnECG.4.weight f4 [64, 128]
-0.08613556 -0.13777308 -0.019884601 -0.19717924 0.02988987 0.1472452 0.14512 -0.06443283
-0.11928348 0.016630903 -0.19430976 -0.044324618 -0.0026153056 -0.002728521 -0.14194141 -0.063728206
-0.19546403 -0.08062833 0.07870725 -0.12655924 -0.20472708 -0.049166333 -0.09610914 0.087067164
0.111006334 -0.17794025 0.10939931 0.01717159 0.1529748 0.01812058 0.12983875 -0.011657199
0.08103838 -0.04016866 0.028964318 0.09555218 -0.13364631 -0.19765334 0.018452218 0.15104815
-0.045949373 -0.031388197 0.023505963 -0.00082845334 -0.07679732 0.005685451 0.0019487459 -0.02926852
0.14342436 0.069663905 -0.14837758 -0.015545215 0.14707622 0.1292327 0.15218164 -0.15563205
-0.157981 0.15719865 -0.17793843 0.22674905 -0.17149583 0.08774091 -0.0070699593 0.18140543
0.14486201 0.071541585 0.11502473 -0.08936947 -0.06136353 0.13021174 0.16675338 -0.090292744
-0.07662725 -0.076187916 -0.105666496 -0.055359907 -0.0027945663 -0.18366995 -0.070849255 0.025381487
0.04204804 -0.14685793 -0.05849498 -0.16250668 -0.04774018 0.1437419 0.026394648 0.07812882
-0.021824026 -0.11690965 0.18148291 0.032490034 -0.0022399295 0.030516604 0.1396375 -0.09196339
-0.07523505 0.010149255 -0.2252486 -0.0236104 0.20869634 0.18373746 -0.05215035 0.002297558
-0.17344809 0.124426425 -0.047286127 0.0074932035 0.10825865 -0.13572273 -0.08872571 -0.08017185
-0.028289549 -0.016794674 -0.2220476 -0.118817 0.081165 0.08678324 0.030232368 0.09647263
-0.15916091 -0.18344575 -0.036582816 0.03894215 -0.06639404 -0.054831155 -0.065682404 -0.04361073
0.010431962 -0.045268394 0.12013594 0.14307447 0.20525968 0.119616345 0.014033125 -0.082284875
-0.035429128 -0.019126013 0.05612259 0.017390652 0.0056734686 0.100888215 -0.023578387 -0.17912348
-0.22606124 -0.055852987 -0.023551982 -0.03844154 0.1512639 0.12225221 -0.17990747 0.04070557
-0.013038786 -0.013940212 -0.07685145 -0.13269475 -0.09311975 0.0488412 -0.10201326 0.052391574
0.13876578 0.06664974 -0.13512523 0.034283444 0.008224118 -0.11631584 0.060694814 -0.192013
0.09202843 -0.054806177 -0.103899725 -0.14228365 -0.0977658 0.13679576 -0.14782326 -0.0501464
0.11005697 -0.20351836 0.1649695 -0.15250154 -0.04848057 -0.10687319 0.16729271 0.04648527
-0.19282733 -0.10379411 0.088715956 -0.03293459 -0.044188034 0.12984549 -0.09478587 -0.19264719
-0.10742894 0.09852609 -0.20246442 0.048376646 0.053566698 0.0024469187 -0.059239868 -0.016921978
-0.06562145 -0.028056659 0.085827924 0.02398006 -0.16188863 0.10204726 0.1472612 -0.026836881
0.10704184 -0.23550825 0.13883813 -0.21414109 -0.12405342 0.14779253 0.13591708 -0.0059179747
0.10575942 0.11756579 0.02649573 -0.039132684 0.106335014 0.1071828 -0.021890372 -0.106162585
-0.13206893 0.012111454 0.002340226 0.03262115 0.106762365 0.069521554 -0.16484131 -0.033256356
-0.045876686 0.0044019725 -0.18444954 0.11963311 -0.030101884 -0.11673366 -0.14570095 0.08695415
0.14351724 0.12571411 0.112458035 0.209656 -0.055827968 -0.0071629505 0.054982346 0.03963948
0.034897927 0.0928692 0.019892627 0.08938471 -0.058395155 -0.014008475 -0.10033508 0.055856388
00000000: d767 b0bd 6314 0dbe 08e5 a2bc 5be9 49be
00000010: 9adb f43c 72c7 163e 569a 143e 5cf5 83bd
00000020: e64a f4bd 883d 883c 23f9 46be bb8d 35bd
00000030: 8c65 2bbb fcd0 32bb 1759 11be ef83 82bd
00000040: b927 48be 7720 a5bd 4431 a13d bf98 01be
00000050: faa3 51be a362 49bd ded4 c4bd 4550 b23d
00000060: 4a57 e33d f835 36be bf0c e03d 6fab 8c3c
00000070: 6da5 1c3e 9c71 943c 73f4 043e d6fd 3ebc
00000080: 73f7 a53d e587 24bd 9446 ed3c ddb0 c33d
00000090: 94da 08be a365 4abe 1b29 973c 5eac 1a3e
000000a0: 6935 3cbd e990 00bd 948f c03c 902c 59ba
000000b0: ea47 9dbd 054d ba3b 106d ff3a 89c4 efbc
000000c0: d6dd 123e f3ab 8e3d 4bf0 17be 5cb1 7ebc
000000d0: 269b 163e 9455 043e 81d5 1b3e 025e 1fbe
000000e0: c5c5 21be aff8 203e 7e35 36be e730 683e
000000f0: 9a9c 2fbe 82b1 b33d 1eab e7bb 58c2 393e
00000100: b556 143e 6584 923d 1692 eb3d 5707 b7bd
00000110: 5358 7bbd 3a56 053e 66c1 2a3e 67eb b8bd
00000120: bfee 9cbd 6908 9cbd ad67 d8bd 12c1 62bd
00000130: 0b25 37bb fa13 3cbe 6a19 91bd d6ec cf3c
00000140: 913a 2c3d ed61 16be 6f98 6fbd 2768 26be
00000150: 358b 43bd 1431 133e 9739 d83c 0102 a03d
00000160: 4dc8 b2bc 546e efbd a8d6 393e 4514 053d
00000170: c8cb 12bb f5fd f93c 22fd 0e3e 4d57 bcbd
00000180: d514 9abd 1049 263c 92a7 66be 996a c1bc
00000190: 7eb4 553e ac25 3c3e 9b9b 55bd a092 163b
000001a0: 609c 31be 48d3 fe3d 19af 41bd 8c89 f53b
000001b0: b6b6 dd3d e6fa 0abe d3b5 b5bd 2431 a4bd
000001c0: 7cbf e7bc fc94 89bc 7260 63be 5456 f3bd
000001d0: d639 a63d 69bb b13d dfa9 f73c 7193 c53d
000001e0: 14fb 22be 34d9 3bbe ddd7 15bd ce81 1f3d
000001f0: 99f9 87bd a296 60bd 7f84 86bd 2aa1 32bd
00000200: d2ea 2a3c 5a6b 39bd d509 f63d 1d82 123e
00000210: 982f 523e 6af9 f43d 31eb 653c f984 a8bd
00000220: 221e 11bd 28ae 9cbc cde0 653d d776 8e3c
00000230: 81e8 b93b 7b9e ce3d 7627 c1bc 256c 37be
00000240: 997c 67be 1ac6 64bd 16f0 c0bc e074 1dbd
00000250: ece4 1a3e 5e5f fa3d aa39 38be e2ba 263d
00000260: a2a0 55bc 7d65 64bc 4b64 9dbd 22e1 07be
00000270: 91b5 bebd b60d 483d 54ec d0bd 8c98 563d
00000280: 9e18 0e3e a97f 883d 455e 0abe cc6c 0c3d
00000290: 73be 063c 0037 eebd 209b 783d 0e9f 44be
000002a0: 6779 bc3d 717c 60bd 61c9 d4bd ceb2 11be
000002b0: 7039 c8bd 3014 0c3e fb5e 17be 5066 4dbd
000002c0: 8c65 e13d 1e67 50be c4ed 283e 5d29 1cbe
000002d0: 9093 46bd 55e0 dabd c84e 2b3e 5767 3e3d
000002e0: 8774 45be 0292 d4bd b6b0 b53d 6ce6 06bd
000002f0: 83fe 34bd 37f6 043e 181f c2bd 4e45 45be
00000300: b403 dcbd 0cc8 c93d d552 4fbe 9726 463d
00000310: c168 5b3d 7c5c 203b 81a5 72bd f69f 8abc
00000320: 8a64 86bd 14d7 e5bc 8dc6 af3d d571 c43c
00000330: 22c6 25be 27fe d03d a4cb 163e 05d9 dbbc
00000340: c138 db3d 1329 71be 952b 0e3e cd47 5bbe
00000350: b80f febd ed56 173e d92d 0b3e 92eb c1bb
00000360: 6598 d83d 55c6 f03d 930d d93c 9849 20bd
00000370: 2cc6 d93d a882 db3d 7053 b3bc c56b d9bd
00000380: 143d 07be 1f6f 463c 7a5e 193b c19d 053d
00000390: 3aa6 da3d 5161 8e3d 29cc 28be d137 08bd
000003a0: 31e9 3bbd 6c3e 903b 57e0 3cbe 3402 f53d
000003b0: 3a98 f6bc 0f12 efbd a132 15be 0415 b23d
000003c0: 2ff6 123e 33bb 003e 6650 e63d 10b0 563e
000003d0: deab 64bd 2fb7 eabb 2b35 613d 025d 223d
000003e0: 21f1 0e3d 3532 be3d ddf5 a23c 550f b73d
000003f0: c22f 6fbd cd83 65bc 7a7c cdbd abc9 643d

nnECG.4.bias f4 [64]
0.011224277 -0.03323315 0.021435853 0.002180485 -0.038502693 0.02228013 0.030820291 -0.003603532
0.025720507 0.04027608 -0.010612134 0.033736147 0.023079975 0.03922748 -0.0070455777 0.018847827
0.022416564 0.0025518013 -0.00909555 0.03278087 0.041281737 0.016891686 0.03691298 -0.03276984
0.014850241 0.0032965688 0.017211301 0.03481065 -0.05893991 0.0065943785 -0.020447461 0.017166533
0.00060544943 0.0072268695 0.0009911556 0.014830917 0.036891215 -0.00024944358 0.0027143983 0.036315393
0.0022025146 0.004185896 -0.039478745 -0.02628519 0.023418654 0.00063738687 0.033814266 0.0017132408
-0.028827662 -0.042640932 0.00537319 0.009848986 0.022439042 -0.0073491475 0.007707373 0.033404816
0.015322946 0.009552038 0.016026877 -0.039361086 -0.014127923 0.017415265 0.019687824 -0.0071009113
00000000: 08e6 373c 7c1f 08bd 3e9a af3c 78e6 0e3b
00000010: 00b5 1dbd d284 b63c d67a fc3c 3c29 6cbb
00000020: d0b3 d23c 88f8 243d 84de 2dbc ea2e 0a3d
00000030: 3712 bd3c feac 203d 97de e6bb c266 9a3c
00000040: f1a2 b73c 1f3c 273b 8005 15bc 3c45 063d
00000050: 0a17 293d 6f60 8a3c 1132 173d ab39 06bd
00000060: 6d4e 733c 3f0b 583b b7fe 8c3c 9d95 0e3d
00000070: fa6a 71bd a815 d83b 6f81 a7bc d4a0 8c3c
00000080: 06b7 1e3a 60cf ec3b aae9 813a 60fd 723c
00000090: 3e1b 173d c0c7 82b9 0ce4 313b 73bf 143d
000000a0: 1058 103b d729 893b 77b4 21bd 0a54 d7bc
000000b0: 7ad8 bf3c 4f16 273a d480 0a3d d28e e03a
000000c0: fd27 ecbc 42a8 2ebd 9611 b03b a45d 213c
000000d0: 15d2 b73c 1ed1 f0bb 218e fc3b 7dd3 083d
000000e0: 180d 7b3c 2780 1c3c cc4a 833c 1739 21bd
000000f0: ce78 67bc 75aa 8e3c 5c48 a13c c3ae e8bb

nnECG.5.weight f4 [64]
1.0757039 1.03822 1.0495979 1.1103418 0.9762145 1.063666 1.0853254 1.0514435
1.1405528 1.1375682 1.1293031 1.0933077 1.0822002 1.0663164 1.0523183 1.0267811
1.0509435 1.0585724 1.1173568 1.1270604 1.120495 1.0850781 1.1436429 1.0265324
1.1051736 1.0659853 1.0098807 1.0878333 1.0477052 1.0792389 1.0175695 1.0420098
1.0600705 1.128978 1.0614433 1.0168282 1.0763756 1.0787302 1.097045 1.0665586
1.0732617 0.9727643 0.9756268 0.9828954 0.9702322 1.0763025 1.0344197 1.0870154
0.980473 1.0681733 1.1201844 1.1241777 1.0454507 1.0106968 1.1703597 1.108954
1.0527018 1.0977199 1.0083624 0.9465798 1.1340182 1.0273813 1.036628 1.0620681
00000000: aab0 893f 65e4 843f 3959 863f ae1f 8e3f
00000010: 32e9 793f 3526 883f f1eb 8a3f b395 863f
00000020: a2fd 913f d69b 913f 018d 903f 82f1 8b3f
00000030: 8985 8a3f 0e7d 883f 5eb2 863f 906d 833f
00000040: 5185 863f 4d7f 873f 8c05 8f3f 8443 903f
00000050: 616c 8f3f d7e3 8a3f e462 923f 6a65 833f
00000060: 5476 8d3f 3572 883f c543 813f 1f3e 8b3f
00000070: 341b 863f 8024 8a3f b83f 823f 9460 853f
00000080: 64b0 873f 5a82 903f 60dd 873f 6d27 823f
00000090: adc6 893f d513 8a3f f86b 8c3f fe84 883f
000000a0: a460 893f 1507 793f aec2 793f 089f 7b3f
000000b0: 2361 783f 48c4 893f dd67 843f 5223 8b3f
000000c0: 4700 7b3f e7b9 883f 3462 8f3f 0ee5 8f3f
000000d0: 54d1 853f 835e 813f 59ce 953f 34f2 8d3f
000000e0: efbe 863f 1682 8c3f 0512 813f 0e53 723f
000000f0: 8227 913f 3b81 833f 3ab0 843f d9f1 873f

nnECG.5.bias f4 [64]
0.001099052 -0.0427905 0.008429887 -0.008114235 -0.04659164 0.014333057 0.025957972 -0.016596777
0.023998294 0.027465532 -0.0112863 0.023877272 0.019162314 0.028422728 -0.011285577 -0.0044457037
0.0077673565 0.0032093045 -0.008586187 0.03187331 0.040087204 0.0047223098 0.033595152 -0.04215799
0.0069155055 -0.011088984 0.016521309 0.021039665 -0.07155223 -0.010603213 -0.023160543 -1.6320517e-05
-0.008175671 -0.0046155215 -0.0013073091 0.014441776 0.015971417 -0.011469817 -0.012055449 0.013265864
-0.024620205 -0.0061515435 -0.04657396 -0.03457675 0.0038663032 -0.011050204 0.02211356 -0.012093538
-0.04795205 -0.057781525 0.00014082699 0.0049389666 0.0080830585 -0.021807598 0.001047662 0.025000405
-0.0033715414 -0.0013189506 0.00499088 -0.06313084 -0.029150806 0.00920426 0.01777241 -0.0091112545
00000000: 110e 903a 1745 2fbd 821d 0a3c 91f1 04bc
00000010: e0d6 3ebd 33d5 6a3c d0a5 d43c f7f5 87bc
00000020: 1298 c43c 65ff e03c 2cea 38bc 459a c33c
00000030: 49fa 9c3c c8d6 e83c 24e7 38bc 44ad 91bb
00000040: 4f85 fe3b 3253 523b 14ad 0cbc 978d 023d
00000050: 7b32 243d 9bbd 9a3b 129b 093d dbad 2cbd
00000060: 779b e23b 92ae 35bc b257 873c 605b ac3c
00000070: fa89 92bd 19b9 2dbc 2ebb bdbc 0be8 88b7
00000080: 40f3 05bc cd3d 97bb 045a abba 339d 6c3c
00000090: 7dd6 823c e6eb 3bbc 3884 45bc 1159 593c
000000a0: 50b0 c9bc e392 c9bb 56c4 3ebd 5aa0 0dbd
000000b0: ce61 7d3b ea0b 35bc 7f27 b53c fa23 46bc
000000c0: 5e69 44bd 52ac 6cbd f5aa 1339 0ed7 a13b
000000d0: ce6e 043c d9a5 b2bc b451 893a a6cd cc3c
000000e0: 14f5 5cbb a3e0 acba 898a a33b be4a 81bd
000000f0: accd eebc 77cd 163c 7297 913c 5f47 15bc

nnECG.5.running_mean f4 [64]
0.12568605 0.17053962 0.050047126 0.10440542 -0.34733412 0.15021221 -0.30231294 0.0500072
0.09857969 0.12344617 0.0493517 0.25800785 -0.24498574 0.08482683 0.064642034 -0.50138944
0.21462253 -0.17344439 -0.17193691 0.10147429 -0.13103251 -0.21354118 -0.2041124 -0.4998224
0.18539262 -0.3092472 -0.37652883 0.13799071 -0.12229587 0.03468903 -0.17229569 -0.020183021
-0.044951823 -0.40059978 -0.0078053004 -0.08555039 0.08099548 0.081705384 -0.031373877 0.43277505
0.0719758 0.45917913 -0.41971454 0.45698217 -0.13431993 -0.23207535 -0.17382056 0.17657754
0.1446695 -0.06418326 0.31195658 0.38801157 -0.15510084 -0.40208828 0.06468367 0.6762576
-0.38743624 0.12085331 0.7698531 -0.2778788 -0.35016713 -0.44431236 0.34929335 -0.33679077
00000000: d8b3 003e f0a1 2e3e 37fe 4c3d 82d2 d53d
00000010: c7d5 b1be 3bd1 193e c3c8 9abe 5ad4 4c3d
00000020: 26e4 c93d 58d1 fc3d 0225 4a3d 9b19 843e
00000030: 8bdd 7abe b0b9 ad3d 0b63 843d 0f5b 00bf
00000040: 02c6 5b3e 689b 31be 3b10 30be c1d1 cf3d
00000050: 632d 06be 8aaa 5abe d702 51be b9e8 ffbe
00000060: 90d7 3d3e a655 9ebe 63c8 c0be 704d 0d3e
00000070: 4276 fabd 1616 0e3d 486e 30be dd56 a5bc
00000080: 671f 38bd 6a1b cdbe 9bc3 ffbb 0b35 afbd
00000090: f5e0 a53d 2755 a73d e581 00bd b194 dd3e
000000a0: 0c68 933d 8719 eb3e d3e4 d6be 91f9 e93e
000000b0: 2a8b 09be 29a5 6dbe 04fe 31be bed0 343e
000000c0: 3e24 143e 8372 83bd c6b8 9f3e 74a9 c63e
000000d0: c1d2 1ebe 84de cdbe df78 843d 381f 2d3f
000000e0: 0b5e c6be f181 f73d 1815 453f 2146 8ebe
000000f0: 1b49 b3be e97c e3be 94d6 b23e d76f acbe

nnECG.5.running_var f4 [64]
1.0620118 1.2362362 1.0459021 1.7472792 0.84548295 1.2927915 1.140681 0.89474773
0.98178494 1.3954654 1.0590777 1.5044814 1.1088043 1.6560571 0.92753273 1.298622
0.9389188 1.5750346 0.93943745 0.9798866 1.1747017 1.4354656 2.1993098 1.3393629
1.4138206 1.5044006 0.91686285 0.9707448 1.5517746 0.86703074 1.5275108 1.2139797
1.6423467 1.6579634 1.0319389 1.2845347 1.2845023 0.9769129 1.0285778 0.9097269
1.1407479 1.5630926 0.8847626 0.892418 0.8683485 0.98738074 1.0186356 1.1299587
0.85632575 1.0766363 0.8467147 1.1495663 1.5709833 1.7147273 1.0490248 1.7270435
1.0813465 1.0028793 0.93255895 1.5868442 1.5405363 1.1373717 0.8514465 0.76526994
00000000: 01f0 873f fd3c 9e3f 1fe0 853f d8a6 df3f
00000010: 9271 583f 317a a53f d601 923f 300e 653f
00000020: 4256 7b3f 9c9e b23f dc8f 873f d992 c03f
00000030: 4ded 8d3f aef9 d33f c972 6d3f 3f39 a63f
00000040: fc5c 703f bc9a c93f f97e 703f d9d9 7a3f
00000050: a05c 963f 56bd b73f 7ec1 0c40 3e70 ab3f
00000060: 13f8 b43f 3390 c03f 86b7 6a3f bb82 783f
00000070: 8da0 c63f baf5 5d3f 7985 c33f b063 9b3f
00000080: 6b38 d23f 2538 d43f 9316 843f a26b a43f
00000090: 926a a43f f716 7a3f 70a8 833f dde3 683f
000000a0: 0704 923f 6b13 c83f cd7f 623f 8275 643f
000000b0: 164c 5e3f fcc4 7c3f a762 823f 7da2 903f
000000c0: 2a38 5b3f 38cf 893f 4bc2 583f fd24 933f
000000d0: fb15 c93f 2f7c db3f 7246 863f c30f dd3f
000000e0: 9069 8a3f 595e 803f 2fbc 6e3f b61d cb3f
000000f0: 4b30 c53f 6595 913f 66f8 593f bbe8 433f

nnECG.8.weight f4 [16, 64]
0.26226112 0.06383904 -0.19165267 -0.089335695 -0.17062178 -0.29476222 0.06819122 -0.063505344
-0.14288135 0.26735848 -0.03600485 0.04600462 -0.114568196 0.207295 0.20331411 -0.105096936
-0.21483922 0.112091094 -0.079342686 0.27196047 -0.164064 -0.005279292 0.035059176 0.22717986
-0.1644632 0.1395055 0.18928318 0.18070747 0.32052192 0.019393178 -0.124435656 -0.13282388
0.1708623 0.08990722 0.14955918 -0.0038105538 -0.07112019 0.13274124 -0.3007306 -0.16622566
0.16668724 -0.018043973 -0.30840147 0.20599036 -0.21841823 0.027350014 -0.12211436 -0.30959767
-0.26707187 0.021693897 -0.02488053 0.0027244652 -0.012256969 -0.16259994 -0.021924675 0.13995227
0.20687065 -0.1818051 0.096514195 0.12557818 0.18026978 -0.006854032 0.2318953 -0.21973462
-0.1600351 -0.20775348 -0.1631236 0.16552533 -0.17332134 0.108701214 0.029482765 -0.21169308
-0.28653556 0.2507782 -0.31944227 0.34937796 0.18541998 0.12904434 0.22604774 0.22660063
0.15880579 0.014520495 -0.18628551 0.16460027 0.17464568 0.10796966 0.33423626 -0.22095978
-0.13096072 -0.111424595 0.23585163 0.14896512 -0.06026051 0.20720237 0.038901642 -0.024966948
0.104821 -0.040595777 0.13269572 0.25309858 0.34315974 -0.13929096 0.06794609 0.27386576
-0.17976725 -0.14144233 -0.26171073 -0.26343888 0.21415552 0.17959206 0.26643527 -0.06062418
-0.2233022 -0.09950392 -0.010846593 -0.2612586 -0.029776236 0.16094679 -0.14372769 -0.34354615
0.14976345 0.09561503 0.09355662 -0.12158281 -0.0017066512 0.032329988 -0.17702949 0.0759673
-0.04346806 0.1472431 -0.19983518 0.120037094 0.17617927 0.19485052 -0.3477651 0.28465983
0.1836088 -0.26757103 0.38940805 0.029552026 -0.23791417 -0.23606972 -0.2810926 -0.026374357
-0.025716629 0.16939029 -0.13643627 -0.27676538 0.19914834 0.34686032 -0.21957354 0.090074465
0.089422904 0.019577052 -0.0063976725 -0.28501752 -0.22009842 -0.20885931 0.058263335 0.019465754
0.23244497 -0.08835743 -0.019538978 -0.21707398 -0.12255739 0.33821994 0.32047677 -0.05892252
-0.030421209 0.030017467 -0.12465219 -0.098454975 -0.1917928 0.25488445 0.10144785 0.021270636
-0.21679267 0.030919699 0.18742508 0.12240331 0.14068922 -0.16608864 0.20938979 0.09951492
-0.17290764 0.3378598 -0.24594729 -0.16967763 0.16050677 -0.036904667 -0.057754334 0.35168746
0.1558731 0.19208997 0.0808636 -0.0758531 0.10029327 -0.052373413 -0.14146656 -0.046169985
0.08034018 -0.044212338 -0.07023576 0.13060965 0.016334586 -0.04780564 -0.14070302 -0.09110332
0.12831773 -0.19125651 0.14212574 -0.07213669 0.2350215 -0.17574534 -0.37508652 -0.20170575
0.28169832 -0.1855021 -0.24193904 -0.11418329 0.21391055 0.08418106 0.1604606 -0.117943674
0.24488284 -0.11489171 -0.124331035 -0.21033458 -0.20698377 0.25796863 -0.27423388 0.27103034
-0.07800349 0.26518506 -0.138735 -0.10822894 0.12452582 0.21269707 0.1822398 0.10023315
-0.15150127 -0.1115103 0.050152868 0.32407802 -0.1799489 -0.19484547 0.27858981 0.02343487
-0.16096312 0.052046277 -0.1331125 -0.09229112 0.12948558 -0.25284016 -0.14500847 0.026269041
00000000: 1747 863e 0bbe 823d 9940 44be a2f5 b6bd
00000010: 7ab7 2ebe 13eb 96be d7a7 8b3d 170f 82bd
00000020: 7d4f 12be 36e3 883e d279 13bd 576f 3c3d
00000030: bba2 eabd 2445 543e 9331 503e 103d d7bd
00000040: d0fe 5bbe 0490 e53d 6b7e a2bd 673e 8b3e
00000050: 6500 28be e9fd acbb 369a 0f3d d6a1 683e
00000060: 0b69 28be 88da 0e3e 73d3 413e 610b 393e
00000070: 731b a43e 71de 9e3c 1fd8 febd fc02 08be
00000080: 87f6 2e3e 4721 b83d 0b26 193e 7cba 79bb
00000090: 76a7 91bd 52ed 073e 5cf9 99be 0f37 2abe
000000a0: 0fb0 2a3e f4d0 93bc cce6 9dbe 23ef 523e
000000b0: 07a9 5fbe 230d e03c 1817 fabd 9683 9ebe
000000c0: a5bd 88be 66b7 b13c 41d2 cbbc f18c 323b
000000d0: 74d1 48bc 9980 26be 609b b3bc a64f 0f3e
000000e0: e6d5 533e 1e2b 3abe 3ca9 c53d 9197 003e
000000f0: a498 383e ca97 e0bb f675 6d3e 1d02 61be
00000100: 3ee0 23be 54bd 54be df09 27be 797f 293e
00000110: 267b 31be be9e de3d d785 f13c 12c6 58be
00000120: cab4 92be 0066 803e f08d a3be abe1 b23e
00000130: bcde 3d3e 3324 043e 0f79 673e ff09 683e
00000140: fc9d 223e 5fe7 6d3c a1c1 3ebe f98c 283e
00000150: 51d6 323e 321f dd3d 0421 ab3e 4843 62be
00000160: 911a 06be 9432 e4bd 1783 713e 508a 183e
00000170: b9d3 76bd dc2c 543e 5457 1f3d 7c87 ccbc
00000180: 64ac d63d c247 26bd 63e1 073e 2396 813e
00000190: a2b2 af3e 4aa2 0ebe 5227 8b3d 2238 8c3e
000001a0: e814 38be 42d6 10be f3fe 85be 76e1 86be
000001b0: 964b 5b3e fbe6 373e 346a 883e 0f51 78bd
000001c0: 55a9 64be b6c8 cbbd e9b5 31bc b0c3 85be
000001d0: 4bed f3bc 3ccf 243e 5a2d 13be 48e5 afbe
000001e0: 975b 193e d0d1 c33d 9d9a bf3d 6900 f9bd
000001f0: b6b1 dfba 736c 043d 3847 35be be94 9b3d
00000200: 910b 32bd e5c6 163e 98a1 4cbe 02d6 f53d
00000210: 5768 343e e586 473e 440e b2be efbe 913e
00000220: f203 3c3e 12ff 88be 7e60 c73e 1717 f23c
00000230: c69f 73be 43bc 71be 5feb 8fbe 090f d8bc
00000240: aeab d2bc a674 2d3e f3b5 0bbe 31b4 8dbe
00000250: 8bed 4b3e ad97 b13e e3d7 60be f678 b83d
00000260: 5b23 b73d 0e60 a03c 91a3 d1bb d1ed 91be
00000270: 7b61 61be 37df 55be 89a5 6e3d a576 9f3c
00000280: 0e06 6e3e bef4 b4bd 3510 a0bc a448 5ebe
00000290: 5eff fabd 2a2b ad3e 8815 a43e be58 71bd
000002a0: e635 f9bc 31e7 f53c a649 ffbd c3a2 c9bd
000002b0: 5565 44be 3780 823e e4c3 cf3d c23f ae3c
000002c0: e6fe 5dbe 4f4b fd3c 5cec 3f3e 96ae fa3d
000002d0: d610 103e 2413 2abe 476a 563e 7ace cb3d
000002e0: b30e 31be f6fb ac3e 9bd9 7bbe f9bf 2dbe
000002f0: e35b 243e 5929 17bd cf8f 6cbd 6110 b43e
00000300: 339d 1f3e 3cb3 443e d19b a53d df58 9bbd
00000310: 8f66 cd3d 8185 56bd 9cdc 10be bd1c 3dbd
00000320: 6489 a43d ff17 35bd c4d7 8fbd 89be 053e
00000330: 1cd0 853c d9cf 43bd 7414 10be 6194 babd
00000340: b965 033e bfd8 43be 6989 113e 67bc 93bd
00000350: 7aa9 703e 96f6 33be 570b c0be f48b 4ebe
00000360: c33a 903e 43f4 3dbe debe 77be eed8 e9bd
00000370: 5e0b 5b3e 1f67 ac3d c94f 243e 748c f1bd
00000380: 91c2 7a3e 584c ebbd 45a1 febd f361 57be
00000390: 8ef3 53be 7714 843e 6268 8cbe 7dc4 8a3e
000003a0: 4bc0 9fbd 56c6 873e 8c10 0ebe 22a7 ddbd
000003b0: 6507 ff3d 43cd 593e 129d 3a3e 0a47 cd3d
000003c0: 2623 1bbe 835f e4bd 186d 4d3d 8eed a53e
000003d0: 8644 38be 9285 47be 53a3 8e3e 7cfa bf3c
000003e0: 84d3 24be 7a2e 553d a54e 08be 2003 bdbd
000003f0: de97 043e 4474 81be 1a7d 14be 2c32 d73c

nnECG.8.bias f4 [16]
-0.023087848 0.040032 0.030009609 -0.026029186 0.07653271 2.3778437e-05 0.003319119 0.045756754
-0.010441853 -0.0070423693 -0.031031238 0.04064387 0.0055301366 0.031185571 -0.06726567 0.02225113
00000000: ba22 bdbc 98f8 233d b6d6 f53c 293b d5bc
00000010: 2ebd 9c3d ce77 c737 9485 593b 6f6b 3b3d
00000020: 4e14 2bbc adc3 e6bb 3935 febc 307a 263d
00000030: 2636 b53b e278 ff3c 95c2 89bd 0048 b63c

nnECG.9.weight f4 [16]
0.9986909 1.0654645 1.105347 1.0487223 1.1636345 1.0980135 0.9659087 1.1216552
1.1277729 1.040206 1.0829602 1.0918643 1.0423021 1.058637 1.0873793 1.086713
00000000: 35aa 7f3f 2461 883f 037c 8d3f 883c 863f
00000010: faf1 943f b58b 8c3f cb45 773f 6692 8f3f
00000020: dd5a 903f 7825 853f 719e 8a3f 36c2 8b3f
00000030: 286a 853f 6b81 873f 3f2f 8b3f 6919 8b3f

nnECG.9.bias f4 [16]
-0.034164157 0.0235982 0.029621061 -0.023023818 0.063183516 -0.015282841 -0.0031255549 0.02354235
-0.024525458 -0.019273458 -0.030745637 0.027485866 -0.024744682 0.011859847 -0.07997954 -0.0039693466
00000000: b7ef 0bbd 0351 c13c dea7 f23c 729c bcbc
00000010: 5c66 813d e264 7abc 1cd6 4cbb e3db c03c
00000020: 9de9 c8bc 5fe3 9dbc 46de fbbc 0a2a e13c
00000030: 5cb5 cabc ce4f 423c 50cc a3bd 4b11 82bb

nnECG.9.running_mean f4 [16]
-0.057594135 0.034844555 -0.07153334 -0.072662435 -0.045806278 0.3613243 -0.0762481 -0.053340707
-0.09170852 -0.026482148 0.24656571 -0.20733534 0.2012556 0.13565068 0.045139864 -0.06901768
00000000: d4e7 6bbd 2ab9 0e3d 1280 92bd 0bd0 94bd
00000010: 5d9f 3bbd 80ff b83e f727 9cbd c97b 5abd
00000020: add1 bbbd 17f1 d8bc b97b 7c3e b74f 54be
00000030: f315 4e3e 03e8 0a3e 94e4 383d 2459 8dbd

nnECG.9.running_var f4 [16]
1.4906573 1.3393703 1.5800017 1.2873385 1.3012136 1.2518958 1.8385005 1.5110787
1.071332 1.2825263 1.5555863 1.4254556 1.2138435 1.3236939 1.542178 1.3843572
00000000: dccd be3f 7c70 ab3f 7f3d ca3f 82c7 a43f
00000010: 2b8e a63f 1f3e a03f fc53 eb3f 076b c13f
00000020: 6821 893f d229 a43f 741d c73f 5475 b63f
00000030: 395f 9b3f cd6e a93f 1766 c53f 9e32 b13f

nnECG.12.weight f4 [4, 16]
0.016959043 -0.20750183 0.25429946 0.26872113 -0.27641836 0.24996957 0.50714266 0.3904365
-0.33951962 0.013637032 -0.3705982 0.41543394 0.33428335 0.07083458 0.13546482 -0.57954043
0.112808764 -0.47511125 0.5845885 -0.08931754 0.32024458 0.4009175 -0.008826058 -0.6681477
-0.08049321 0.18367027 -0.51814556 0.41697416 -0.09236865 0.38836887 -0.5045368 0.30132744
0.14561582 0.4584849 0.2814198 -0.57974607 0.29109976 -0.449854 -0.3516225 -0.123873025
-0.35775042 0.10577413 -0.13715847 0.5856781 0.35005194 0.5607132 -0.53546107 -0.07585202
-0.26838517 0.29300442 0.5140706 0.30731073 0.0630713 0.107253596 0.33140862 -0.26757678
0.07834892 -0.25126958 -0.2003233 0.05063888 0.1546714 -0.5884325 0.025718378 0.33356705
00000000: b1ed 8a3c 5c7b 54be 8a33 823e d195 893e
00000010: b586 8dbe 06f8 7f3e 1ad4 013f 4be7 c73e
00000020: 84d5 adbe dc6d 5f3c 0cbf bdbe c2b3 d43e
00000030: 3027 ab3e b811 913d 4ab7 0a3e c35c 14bf
00000040: 4808 e73d c841 f3be 98a7 153f 1dec b6bd
00000050: 19f7 a33e 0f45 cd3e 2c9b 10bc ba0b 2bbf
00000060: a0d9 a4bd 0f14 3c3e 30a5 04bf a37d d53e
00000070: c62b bdbd 49d8 c63e 5329 01bf 9747 9a3e
00000080: 501c 153e 88be ea3e 4216 903e 3d6a 14bf
00000090: 070b 953e 4353 e6be dd07 b4be 24b1 fdbd
000000a0: 102b b7be 1ba0 d83d 4573 0cbe 00ef 153f
000000b0: 023a b33e e68a 0f3f fa13 09bf 4e58 9bbd
000000c0: c869 89be ad04 963e 219a 033f d557 9d3e
000000d0: 872b 813d c6a7 db3d 64ae a93e d3ff 88be
000000e0: 6675 a03d 68a6 80be 8d21 4dbe b76a 4f3d
000000f0: 2e62 1e3e 83a3 16bf 59af d23c 4dc9 aa3e

nnECG.12.bias f4 [4]
0.012959918 0.008013635 0.025982505 0.024992734
00000000: d655 543c 9f4b 033c 43d9 d43c 90bd cc3c

nnECG.13.weight f4 [4]
1.0427259 1.0595498 1.0484309 1.1031058
00000000: 0b78 853f 549f 873f fc32 863f 9232 8d3f

nnECG.13.bias f4 [4]
-0.005236319 -0.002260576 0.0124287605 0.013613607
00000000: 6d95 abbb 2c26 14bb 00a2 4b3c 9b0b 5f3c

nnECG.13.running_mean f4 [4]
0.31749198 0.012941691 0.08405673 0.13861805
00000000: 4f8e a23e 6309 543c ef25 ac3d e4f1 0d3e

nnECG.13.running_var f4 [4]
1.3663262 1.9364414 1.9318585 0.9159731
00000000: c7e3 ae3f 50dd f73f 2447 f73f 377d 6a3f

nnECG.16.weight f4 [1, 4]
-0.6675939 0.6932646 -0.6615139 0.41899428
00000000: 6fe7 2abf ca79 313f fa58 29bf 6b86 d63e
