Models/net_3_2_epoch_68.pth (torch, 57997 bytes, 25 tensors)

nnECG.0.weight f4 [128, 12]
-0.23050387 -0.028050644 -0.050975222 -0.10217102 0.2816052 -0.10063856 -0.060344152 0.17615812
-0.14624935 0.21583652 0.037907563 -0.0089249285 -0.0375271 -0.17726167 -0.18505864 0.08570094
-0.32784128 -0.23012562 -0.01483295 0.013197756 0.22590943 -0.13886103 0.13253883 -0.0842015
-0.08026742 -0.07116613 -0.030599445 -0.1592417 0.1056325 0.07462455 0.21376812 0.18842265
-0.05670766 -0.21304536 0.17183219 -0.15796264 0.013997597 -0.12094586 0.07432389 -0.16630799
0.06187733 0.18950877 0.18621553 0.20754015 0.044714157 -0.09108057 -0.050315432 0.077392906
-0.27438483 0.06741558 0.2220023 -0.011278699 0.24893796 0.043491997 -0.21861896 -0.16973601
-0.06558337 0.055345193 -0.09061029 0.10613771 -0.12948403 -0.18713455 -0.10827805 0.23797892
0.2545389 0.14212991 -0.24274327 0.11221916 -0.14025852 -0.021003947 0.13144755 0.15620129
0.06786559 0.17110209 0.087502055 0.14102563 0.049434673 0.02535145 -0.121437475 -0.13716088
0.17582779 -0.16470152 -0.074588016 0.21367939 0.07194178 0.0464895 -0.14625947 0.0043766396
0.26201868 0.047083966 -0.13204488 -0.084701166 0.033646576 0.19817545 0.13170032 0.046911247
-0.21360439 0.061327074 -0.18249916 0.11181019 -0.04053302 -0.02919642 0.2169381 -0.106100984
-0.07726558 -0.019601924 0.057581097 0.1283867 -0.23848638 -0.21101768 0.04836975 -0.13225499
0.24549958 -0.07033514 -0.04796489 0.17527375 0.04007991 0.24336636 0.08787967 -0.048524972
0.2276079 0.037723918 -0.064687334 0.0604559 -0.014571478 0.18058854 0.11278431 0.22338097
0.12669888 0.08035863 0.036557816 -0.07958436 -0.064545445 0.023271916 -0.17787226 -0.031065715
0.07621763 -0.0314553 -0.08759386 0.0306313 -0.09132095 0.20096198 0.059790093 0.10774553
0.029541165 -0.061876997 -0.09984054 0.041876838 -0.12643279 -0.0011364379 -0.1936154 0.09368062
0.0470878 0.24994032 -0.10116684 0.043569468 0.1465348 0.21259877 0.08827406 -0.07638055
0.1395724 -0.036385898 -0.06396875 0.0839651 -0.21351795 0.038106643 0.14268076 0.10691442
0.010133954 0.08893096 0.14015755 0.014192428 -0.22891185 0.13079406 -0.027250072 -0.08715317
0.18200663 -0.17101894 0.08843134 0.07937468 0.1290598 0.045076653 0.0779149 -0.016456524
-0.10310054 -0.020551186 0.07931159 -0.029780293 -0.11415896 0.20586772 0.21622145 -0.076178424
-0.0757221 0.116447255 -0.21946146 0.023869887 0.085645266 -0.22950609 -0.03505501 -0.19441085
0.04188487 -0.1311375 -0.040798932 0.16050836 -0.09522358 0.19926967 -0.034335088 0.023209823
-0.14095373 0.07046207 -0.19392246 -0.031450648 -0.050187286 -0.10625205 0.07431971 -0.17446996
0.2098324 -0.135734 -0.22830357 -0.09353938 0.04539253 0.059757147 -0.14079632 -0.23629911
-0.11673718 0.013476052 -0.18868357 0.13932061 0.042405415 -0.15459481 0.0013490077 0.10900836
-0.26494154 -0.23876643 0.19518761 -0.04601318 0.21656594 -0.02248778 0.10331394 -0.06512192
0.020769972 0.10247832 0.19210473 0.0050207316 0.09992834 0.032353528 -0.081595115 0.036048133
0.14726885 -0.047153823 -0.1407797 0.15214959 0.14596783 0.120422065 -0.11639616 0.028269427
00000000: 3509 6cbe 77ca e5bc 65cb 50bd 0a3f d1bd
00000010: 8f2e 903e 971b cebd 6e2b 77bd cb62 343e
00000020: 64c2 15be 4004 5d3e f644 1b3d dd39 12bc
00000030: 04b6 19bd 1584 35be 0380 3dbe f983 af3d
00000040: d0da a7be 0da6 6bbe e705 73bc 673b 583c
00000050: cd54 673e 9631 0ebe 42b8 073e d671 acbd
00000060: 3f63 a4bd 8cbf 91bd b0ab fabc 4210 23be
00000070: da55 d83d c2d4 983d 08e6 5a3e def1 403e
00000080: 4b46 68bd 9028 5abe c7f4 2f3e f5c0 21be
00000090: 2d56 653c 77b2 f7bd 2037 983d a44c 2abe
000000a0: 1573 7d3d 960e 423e 49af 3e3e 6885 543e
000000b0: 3126 373d 7388 babd 8e17 4ebd 2c80 9e3d
000000c0: 2b7c 8cbe 2e11 8a3d 9254 633e 4bca 38bc
000000d0: 98e9 7e3e aa24 323d a6dd 5fbe 47cf 2dbe
000000e0: 9350 86bd a4b1 623d e391 b9bd ba5e d93d
000000f0: 7697 04be 33a0 3fbe e2c0 ddbd bfb0 733e
00000100: ec52 823e 818a 113e b191 78be 29d3 e53d
00000110: ee9f 0fbe 7810 acbc 309a 063e 3bf3 1f3e
00000120: 1dfd 8a3d 6335 2f3e 4734 b33d 0669 103e
00000130: 037c 4a3d d8ad cf3c 36b4 f8bd e773 0cbe
00000140: 330c 343e 84a7 28be 9ac1 98bd c5ce 5a3e
00000150: 3656 933d c66b 3e3d 0bc5 15be ea69 8f3b
00000160: 5027 863e 1edb 403d c636 07be ce77 adbd
00000170: fed0 093d 81ee 4a3e 73dc 063e 0226 403d
00000180: 1cbb 5abe 1932 7b3d 0fe1 3abe befc e43d
00000190: f405 26bd 552d efbc 0525 5e3e 794b d9bd
000001a0: 6b3d 9ebd 3794 a0bc 28da 6b3d ce77 033e
000001b0: c635 74be 0515 58be 5c1f 463d da6d 07be
000001c0: 3e64 7b3e df0b 90bd d576 44bd f67a 333e
000001d0: d52a 243d 0835 793e 42fa b33d 1fc2 46bd
000001e0: 0c12 693e 6584 1a3d cb7a 84bd 9ba0 773d
000001f0: 35bd 6ebc 34ec 383e 76fb e63d fbbd 643e
00000200: 5abd 013e 1193 a43d a6bd 153d 20fd a2bd
00000210: 6730 84bd bfa4 be3c 2524 36be 877d febc
00000220: fd17 9c3d 46d7 00bd 6964 b3bd 7eee fa3c
00000230: 7a06 bbbd fac8 4d3e 75e6 743d b0a9 dc3d
00000240: 5000 f23c bc72 7dbd 3279 ccbd 0c87 2b3d
00000250: 9977 01be 87f4 94ba 1e43 46be a0db bf3d
00000260: 23df 403d 5bf0 7f3e 8f30 cfbd e675 323d
00000270: 380d 163e 7eb3 593e 08c9 b43d 686d 9cbd
00000280: 11ec 0e3e 6109 15bd 0c02 83bd e5f5 ab3d
00000290: 73a4 5abe b615 1c3d e81a 123e f3f5 da3d
000002a0: e208 263c 6f21 b63d 7685 0f3e 5c87 683c
000002b0: de67 6abe e1ee 053e 8b3b dfbc 5c7d b2bd
000002c0: f25f 3a3e 971f 2fbe 7e1b b53d 318f a23d
000002d0: 4128 043e 4ca2 383d d991 9f3d d5cf 86bc
000002e0: 6026 d3bd f65a a8bc 1d6e a23d cdf5 f3bc
000002f0: 2ccc e9bd fdce 523e 2869 5d3e 6f03 9cbd
00000300: 3014 9bbd e67b ee3d 81ba 60be c88a c33c
00000310: c966 af3d a503 6bbe d895 0fbd a313 47be
00000320: 788f 2b3d e948 06be c81c 27bd 4e5c 243e
00000330: 9504 c3bd 590d 4c3e f3a2 0cbd 8722 be3c
00000340: 2d56 10be 6b4e 903d 9c93 46be 65d2 00bd
00000350: 2f91 4dbd ad9a d9bd ef34 983d 41a8 32be
00000360: 4ede 563e dbfd 0abe 69c8 69be 9391 bfbd
00000370: 84ed 393d e9c3 743d e92c 10be 65f8 71be
00000380: e713 efbd a9ca 5c3c 4436 41be 10aa 0e3e
00000390: 4db1 2d3d 1a4e 1ebe 30d1 b03a c63f df3d
000003a0: 6ba6 87be 307f 74be 43df 473e 5178 3cbd
000003b0: 76c3 5d3e 4b38 b8bc 4296 d33d a45e 85bd
000003c0: ca25 aa3c 27e0 d13d 1ab7 443e f384 a43b
000003d0: 3ba7 cc3d 2285 043d 571b a7bd 35a7 133d
000003e0: a5cd 163e 5e24 41bd 8e28 10be 1acd 1b3e
000003f0: 9778 153e d89f f63d 1c61 eebd 4995 e73c

nnECG.0.bias f4 [128]
0.027231121 0.0118419705 0.0031520992 -0.01211575 0.020058986 0.016379103 0.0063347532 0.007974184
0.03129919 0.020231292 -0.027820738 0.009223046 -0.0018640442 -0.0015323088 -0.01185689 0.00356468
0.03564298 0.009497685 0.014899335 -0.00065629574 -0.013345785 0.012919657 0.020378102 0.0077561093
0.02657604 -0.0017720978 0.00700816 0.010422471 -0.0025758562 -0.007430004 0.01605569 0.016221408
0.0035982882 0.027613558 0.023637006 0.00012944739 0.0049988288 -0.0018450787 0.011806975 0.0038248287
0.01168617 0.013642774 0.0050631156 -0.0011345536 0.010841764 0.028477667 0.020576388 0.0019562456
-0.0013344993 0.0022673998 -0.0024235754 0.032340504 -0.0028034174 0.020946193 0.0049245968 -0.020063823
0.0281612 0.002113868 0.009505885 -0.00469154 0.016676035 -0.019567372 0.0025983823 0.007340584
0.020225829 -0.0011327458 0.0016930087 0.012115047 0.0044945767 0.005060693 0.01705916 -0.0062761987
0.025154013 0.012560514 0.0031565498 0.0011164076 0.007237191 0.014185015 0.014198365 -0.014160046
0.0146463 0.02942374 0.0005146799 -4.8154743e-06 0.02143064 -0.010522443 0.014144218 0.0058738776
-9.9516554e-05 -0.0021060829 0.017695807 0.021301024 0.023403088 0.024012245 0.006741262 0.023930859
-0.006160953 -0.010010427 0.025640765 0.024616132 -0.0019592913 -0.009160809 0.02062597 0.008173063
-0.004139449 0.01456259 0.0033561748 0.00319595 0.0012853162 0.027185766 0.019707216 0.01313607
0.011815051 0.0036881622 0.03539087 -0.008181709 0.01188528 -0.017024232 0.003938576 0.012870375
0.015042653 0.016347524 -0.010049827 0.027871689 -0.0068135434 -6.921998e-05 0.021880975 0.013393083
00000000: cd13 df3c d304 423c 7393 4e3b 2481 46bc
00000010: be52 a43c 782d 863c c393 cf3b 27a6 023c
00000020: 9433 003d 18bc a53c 51e8 e3bc 421c 173c
00000030: f252 f4ba c0d7 c8ba 6743 42bc 689d 693b
00000040: 60fe 113d 2e9c 1b3c 571c 743c 430b 2cba
00000050: 48a8 5abc f8ac 533c faef a63c f626 fe3b
00000060: ffb5 d93c bc45 e8ba b5a4 e53b 03c3 2a3c
00000070: b2cf 28bb 6477 f3bb 3987 833c c2e2 843c
00000080: 42d1 6b3b d435 e23c 65a2 c13c 45bc 0739
00000090: 37cd a33b 91d6 f1ba 0b72 413c faa9 7a3b
000000a0: 5977 3f3c f185 5f3c 7ee8 a53b 4db5 94ba
000000b0: a7a1 313c ff49 e93c d08f a83c 5b34 003b
000000c0: 5eea aeba a898 143b d9d4 1ebb 7a77 043d
000000d0: 8ab9 37bb 5a97 ab3c 835e a13b e35c a4bc
000000e0: 51b2 e63c d288 0a3b 92be 1b3c 7dbb 99bb
000000f0: 2e9c 883c c14b a0bc 9f49 2a3b 4889 f03b
00000100: a3b0 a53c a478 94ba f2e7 dd3a 317e 463c
00000110: 3e47 933b 2bd4 a53b a7bf 8b3c 92a8 cdbb
00000120: ca0f ce3c 9dca 4d3c 1ede 4e3b 6c54 923a
00000130: f525 ed3b 4468 683c 42a0 683c 8aff 67bc
00000140: 09f7 6f3c 0e0a f13c 95eb 063a 9c94 a1b6
00000150: 4f8f af3c 5366 2cbc 26bd 673c a879 c03b
00000160: 8bb3 d0b8 3506 0abb ccf6 903c 7c7f ae3c
00000170: d5b7 bf3c 54b5 c43c cee5 dc3b a60a c43c
00000180: d2e1 c9bb c602 24bc 950c d23c c5a7 c93c
00000190: 7467 00bb 3817 16bc cbf7 a83c 50e8 053c
000001a0: 37a4 87bb ee97 6e3c 45f3 5b3b 2573 513b
000001b0: 0e78 a83a afb4 de3c 0771 a13c ac38 573c
000001c0: ea93 413c 18b5 713b 04f6 103d 930c 06bc
000001d0: 7aba 423c 6776 8bbc 2c0f 813b 44de 523c
000001e0: 7675 763c 3eeb 853c 08a8 24bc 2b53 e43c
000001f0: 2544 dfbb 322a 91b8 bb3f b33c a96e 5b3c

nnECG.1.weight f4 [128]
0.9878019 1.0375034 0.9131075 1.0938538 1.0928159 1.0836004 1.0027196 1.0795857
1.0393112 1.0227755 1.182668 1.0117911 1.0394783 1.0432117 1.088355 1.0732385
1.0634662 0.98546046 1.0605083 1.049998 1.1046305 1.0339375 1.1708889 1.0187167
1.0183711 1.0144138 1.0132017 0.96575844 0.9997033 1.1058437 1.125311 1.0652373
1.065664 1.0443517 1.1380423 0.99654037 1.0168997 0.99005866 0.99073553 1.0005344
1.1280481 0.9085443 1.0777966 0.99055326 1.0519009 1.1799952 1.0652401 1.0336607
0.96178 1.0593891 1.0104885 1.0825126 1.1607603 1.0967274 1.0428593 1.2443397
1.0735298 0.98987067 1.1294677 1.0562686 0.9497645 1.0530112 1.0729078 0.998827
1.1538715 1.0134376 1.1211095 1.0393062 1.0540458 1.076286 0.9789826 0.98111826
1.0928546 0.9903412 1.0477086 1.1146444 0.9575853 1.018605 1.014864 1.1315204
1.0910078 1.0531868 1.0176647 1.0046264 1.036189 1.0124431 0.9092176 1.0395302
0.9893446 1.0218416 0.9330794 1.1336033 1.1065043 0.99684656 1.0452876 1.0426176
1.1165211 1.2646449 1.0669432 1.1767372 1.0026642 1.1886729 1.0473686 1.0745062
1.127324 1.0463903 1.0443132 0.98886794 1.0505421 1.0725371 1.0910367 1.016031
1.007696 1.0600393 1.1268462 1.0494193 1.0334542 1.0818082 0.9708432 1.0889885
1.0551873 1.1234983 0.99394923 1.045669 1.0362078 0.96061283 1.1012639 0.98812485
00000000: 96e0 7c3f e9cc 843f 6ac1 693f 6703 8c3f
00000010: 64e1 8b3f 6bb3 8a3f 1e59 803f dd2f 8a3f
00000020: 2608 853f 4fea 823f aa61 973f 5f82 813f
00000030: a00d 853f f687 853f 374f 8b3f e15f 893f
00000040: a91f 883f 2347 7c3f bcbe 873f 5666 863f
00000050: 8864 8d3f 1058 843f b0df 953f 4f65 823f
00000060: fc59 823f 50d8 813f 98b0 813f f23b 773f
00000070: 8eec 7f3f 498c 8d3f 310a 903f b259 883f
00000080: ae67 883f 51ad 853f 5fab 913f 451d 7f3f
00000090: c529 823f 7c74 7d3f d8a0 7d3f 8311 803f
000000a0: e163 903f 5c96 683f 3df5 893f e694 7d3f
000000b0: b0a4 863f 150a 973f ca59 883f fe4e 843f
000000c0: 3737 763f 109a 873f b057 813f c68f 8a3f
000000d0: cb93 943f 9061 8c3f 6a7c 853f 8646 9f3f
000000e0: 6d69 893f 2a68 7d3f 6692 903f cf33 873f
000000f0: c423 733f 12c9 863f 0b55 893f 20b3 7f3f
00000100: 10b2 933f 53b8 813f 8480 8f3f fc07 853f
00000110: f9ea 863f bdc3 893f 9b9e 7a3f 912a 7b3f
00000120: a9e2 8b3f 0087 7d3f 511b 863f abac 8e3f
00000130: 4f24 753f a661 823f 10e7 813f a9d5 903f
00000140: 25a6 8b3f d3ce 863f d642 823f 9997 803f
00000150: d7a1 843f bc97 813f 7cc2 683f 530f 853f
00000160: b045 7d3f b5cb 823f 4bde 6e3f ea19 913f
00000170: efa1 8d3f 5631 7f3f fccb 853f 7e74 853f
00000180: 2aea 8e3f e2df a13f 9891 883f 539f 963f
00000190: 4d57 803f 6f26 983f 2d10 863f 6b89 893f
000001a0: 274c 903f 1ef0 853f 0eac 853f 7326 7d3f
000001b0: 2a78 863f e548 893f 17a7 8b3f 4e0d 823f
000001c0: 2ffc 803f 5eaf 873f 7f3c 903f 5f53 863f
000001d0: 3a48 843f b178 8a3f 2e89 783f fa63 8b3f
000001e0: 6110 873f cbce 8f3f 7573 7e3f 7bd8 853f
000001f0: 75a2 843f b9ea 753f 37f6 8c3f c0f5 7c3f

nnECG.1.bias f4 [128]
0.011394927 0.0020408565 -0.012031672 -0.021096848 0.011629874 0.018093025 -0.00046743246 0.0054140105
0.013983126 0.0055326875 -0.031171832 -0.0012832247 -0.010560329 -0.009092053 -0.015935678 -0.011591274
0.032922026 -0.008173382 0.0019666897 -0.009570937 -0.017171314 0.003999985 0.016397053 0.003561734
0.021960417 -0.011145802 -0.019452954 -0.00055393047 -0.009749787 -0.016984934 0.0147800455 0.009153411
-0.010610248 0.017617932 0.020877095 -0.017549936 -0.004260732 -0.006914582 0.008733406 -0.0057506226
0.0016435187 0.015101626 0.0004575691 -0.013961115 -0.009276777 0.0048220134 0.012159573 -0.01777706
-0.0059039625 -0.012892917 -0.0068627745 0.032114856 -0.0041835085 0.014224501 -0.001229098 -0.017053798
0.014766007 0.0050004963 -0.004147966 -0.014691208 0.0017113992 -0.021481423 -0.0022079684 -0.0037786576
0.022315921 -0.011713489 -0.0033099111 0.010663412 0.0003682838 0.00090396684 0.015710885 -0.0152744
0.017065087 0.0040940032 0.002342611 0.008202556 0.005704559 -0.0025818509 -0.0068472936 -0.010747474
-0.00034533924 0.023458341 0.00086430454 -0.017272966 0.008341529 -0.008802611 0.0029566383 0.006754244
-0.0136219 -0.025951073 0.00814673 0.023893809 0.007859212 0.012279588 0.0031438367 0.009889008
-0.024923237 -0.012542578 0.011901052 0.0072514103 -0.0056965994 -0.017617334 0.017409997 0.008658146
-0.010227565 -0.0036101977 -0.0057031005 -0.0018283621 -0.012436932 0.024255654 -0.0027146486 -0.008372171
0.003158551 -0.0030505394 0.008178183 -0.021511432 0.002591869 -0.02514993 0.0065724016 -0.0033615038
0.007959233 0.0049006836 -0.011281625 0.013062686 -0.025415953 -0.013732454 0.011060602 0.0022801857
00000000: cab1 3a3c e4bf 053b 7d20 45bc 4cd3 acbc
00000010: 3a8b 3e3c d337 943c b911 f5b9 0368 b13b
00000020: 7b19 653c 8c4b b53b 125c ffbc e031 a8ba
00000030: 3b05 2dbc d6f6 14bc 8a8b 82bc 54e9 3dbc
00000040: 3fd9 063d a6e9 05bc 94e3 003b 6bcf 1cbc
00000050: dbaa 8cbc 4e12 833b 1d53 863c fb6b 693b
00000060: 55e6 b33c e29c 36bc cd5b 9fbc a535 11ba
00000070: 92bd 1fbc fd23 8bbc 0128 723c 30f8 153c
00000080: 9bd6 2dbc 7b53 903c 7106 ab3c e2c4 8fbc
00000090: 9c9d 8bbb b893 e2bb 8f16 0f3c b86f bcbb
000000a0: 566b d73a cf6c 773c e3e5 ef39 29bd 64bc
000000b0: 9ffd 17bc fb01 9e3b f238 473c 32a1 91bc
000000c0: 0776 c1bb d03c 53bc 20e1 e0bb de8a 033d
000000d0: d015 89bb e20d 693c af19 a1ba 68b4 8bbc
000000e0: 1fed 713c 34db a33b a9eb 87bb 64b3 70bc
000000f0: 0751 e03a cff9 afbc 90b3 10bb 5ba3 77bb
00000100: e1cf b63c efe9 3fbc 18eb 58bb 97b5 2e3c
00000110: 3716 c139 30f8 6c3a 1db4 803c 7a41 7abc
00000120: 15cc 8b3c fd26 863b 7e86 193b 0364 063c
00000130: 4fed ba3b 4534 29bb 435f e0bb 2c16 30bc
00000140: a60e b5b9 b52b c03c 7f92 623a 0980 8dbc
00000150: e9aa 083c d438 10bc 29c4 413b b552 dd3b
00000160: 642e 5fbc 5897 d4bc dd79 053c f3bc c33c
00000170: edc3 003c 5330 493c d408 4e3b 8105 223c
00000180: d12b ccbc 637f 4dbc a1fc 423c 3d9d ed3b
00000190: 8aaa babb 3a52 90bc 699f 8e3c e5da 0d3c
000001a0: 8491 27bc 1199 6cbb 13e1 babb a7a5 efba
000001b0: 46c4 4bbc cbb3 c63c 3fe8 31bb 6e2b 09bc
000001c0: b1ff 4e3b 8feb 47bb c9fd 053c be38 b0bc
000001d0: 59dc 293b 3a07 cebc 4d5d d73b ad4c 5cbb
000001e0: 7167 023c ea95 a03b 91d6 38bc e004 563c
000001f0: 1e35 d0bc 16fe 60bc 8737 353c 2b6f 153b

nnECG.1.running_mean f4 [128]
-0.13532765 0.014766921 0.23335749 0.39366847 -0.47413456 -0.27433372 -0.0985282 0.2123873
-0.14530735 0.11784789 0.7480621 -0.064852476 0.030457653 0.17769149 0.2257034 0.5166229
-0.5092671 -0.26631117 -0.35972294 0.38602817 0.08646081 -0.2109159 -0.20928203 0.43501788
0.014584176 0.10028389 0.24882261 -0.0046771937 0.11122673 0.075261354 -0.27847713 -0.03686502
-0.16153783 -0.48791084 -0.39011422 -0.09985514 -0.10270681 0.16744171 0.026083833 0.26277804
0.27269617 -0.12773953 0.3550013 0.11690623 0.07098744 0.062821075 0.1356192 0.14251955
-0.14261311 0.29455587 0.21343105 -0.4171042 -0.24051663 0.13460086 0.31585658 -0.037247226
-0.39488256 -0.0991993 -0.094595514 0.17123315 0.41714206 0.2468998 0.17767367 0.08929745
-0.22876167 -0.00788318 -0.22978304 -0.0481762 -0.014855397 0.056061823 -0.32151452 0.26409197
0.06486314 -0.12537725 0.48781094 0.09883083 0.1363616 0.020841468 -0.38042438 0.48978475
-0.33130106 0.03709849 -0.008738188 0.18753648 -0.26204047 -0.11896149 0.23553975 0.4851326
0.3529717 -0.06339156 -0.035456516 -0.23110718 -0.2617542 -0.30633992 -0.023923386 0.34614792
0.21998534 0.44045606 -0.007495491 -0.13164496 0.007864467 -0.06530382 -0.010405295 -0.1400989
0.045379907 0.04984427 0.2098721 0.20565665 0.28968102 -0.46112603 0.17299218 0.16106212
0.18622117 -0.16113244 -0.46586916 0.07084351 -0.31794253 0.47264192 0.28332415 0.32465836
0.4543883 0.10280886 -0.25979927 -0.3491497 0.16679908 -0.13468803 -0.029776048 -0.0086012455
00000000: 5593 0abe f5f0 713c 44f5 6e3e ea8e c93e
00000010: c4c1 f2be 7875 8cbe 27c9 c9bd 0e7c 593e
00000020: 73cb 14be 3c5a f13d ff80 3f3f 60d1 84bd
00000030: 5482 f93c c2f4 353e cb1e 673e 6641 043f
00000040: 545f 02bf f059 88be 9b2d b8be 7ca5 c53e
00000050: 5d12 b13d 56fa 57be 074e 56be aaba de3e
00000060: 78f2 6e3c a461 cd3d 5bcb 7e3e 2543 99bb
00000070: d7ca e33d a022 9a3d 8e94 8ebe c6ff 16bd
00000080: 2c6a 25be 73cf f9be 0dbd c7be da80 ccbd
00000090: f357 d2bd d775 2b3e c3ad d53c d88a 863e
000000a0: d59e 8b3e 27ce 02be bbc2 b53e 896c ef3d
000000b0: dd61 913d 56a8 803d c2df 0a3e a5f0 113e
000000c0: 2c09 12be 07d0 963e ab8d 5a3e af8e d5be
000000d0: fe49 76be cfd4 093e f4b7 a13e 8c90 18bd
000000e0: 0c2e cabe 0129 cbbd 4bbb c1bd be57 2f3e
000000f0: a593 d53e 4dd3 7c3e 16f0 353e 95e1 b63d
00000100: 8040 6abe 7428 01bc 3f4c 6bbe 6854 45bd
00000110: 0d64 73bc 15a1 653d 8d9d a4be 1037 873e
00000120: f7d6 843d e562 00be 5bc2 f93e d167 ca3d
00000130: 60a2 0b3e babb aa3c fcc6 c2be 11c5 fa3e
00000140: 4ba0 a9be 96f4 173d 9e2a 0fbc 9009 403e
00000150: 2b2a 86be 15a2 f3bd 5531 713e 4d63 f83e
00000160: b5b8 b43e 6fd3 81bd da3a 11bd 5ca7 6cbe
00000170: a604 86be 96d8 9cbe fafa c3bc 4d3a b13e
00000180: d643 613e 7583 e13e bc9c f5bb f0cd 06be
00000190: f7d9 003c 02be 85bd f87a 2abc 1676 0fbe
000001a0: 48e0 393d 8129 4c3d b6e8 563e a897 523e
000001b0: 1251 943e b618 ecbe dd24 313e 78ed 243e
000001c0: c3b0 3e3e e7ff 24be 6786 eebe 6716 913d
000001d0: 5dc9 a2be 1ffe f13e dd0f 913e 9f39 a63e
000001e0: 95a5 e83e 748d d23d 6904 85be c0c3 b2be
000001f0: 61cd 2a3e a9eb 09be e6ec f3bc 3dec 0cbc

nnECG.1.running_var f4 [128]
0.072780825 0.0742802 0.07531967 0.07836997 0.07311628 0.07298531 0.07291482 0.07461572
0.0743532 0.07332726 0.076274425 0.073941045 0.072166376 0.07636018 0.07331485 0.074183665
0.07672112 0.072370596 0.075999245 0.073344685 0.07447699 0.07449873 0.07334597 0.07365414
0.072867036 0.07292906 0.07308929 0.07304084 0.07309863 0.072706096 0.07414873 0.07479313
0.07388749 0.073915824 0.07237099 0.07484035 0.07249555 0.07410736 0.07267677 0.073417276
0.0751459 0.07323487 0.078208685 0.080909215 0.07233366 0.075784974 0.07559946 0.0764021
0.07335041 0.08173939 0.074652515 0.07350102 0.07349307 0.07956231 0.07404473 0.07328057
0.07313086 0.07186772 0.07608806 0.07324144 0.07500658 0.07390264 0.0753862 0.07452281
0.072738156 0.07410529 0.07319423 0.07253531 0.07262488 0.07467196 0.07437352 0.073557205
0.074771464 0.073830225 0.07425666 0.07568083 0.07209252 0.07249279 0.07636907 0.077382624
0.07509098 0.076138176 0.0756187 0.07514338 0.07313572 0.07974611 0.07257746 0.0740479
0.07739289 0.07379016 0.07330931 0.07408533 0.07382697 0.07611592 0.07574845 0.07468648
0.07409527 0.07588079 0.075673625 0.075389504 0.07318695 0.07305178 0.07325608 0.072778486
0.07388228 0.07524965 0.07286592 0.07716264 0.07285591 0.07236206 0.07688107 0.07285725
0.07344674 0.076023236 0.07569516 0.0772749 0.080946356 0.07291136 0.077692114 0.07437331
0.07290171 0.07300665 0.073298424 0.07485555 0.073587194 0.073258005 0.07290479 0.07413986
00000000: 1d0e 953d 3820 983d 3341 9a3d 6f80 a03d
00000010: fdbd 953d 5279 953d 5d54 953d 20d0 983d
00000020: 7e46 983d 9a2c 963d c435 9c3d 676e 973d
00000030: f7cb 933d ba62 9c3d 1926 963d 9bed 973d
00000040: f61f 9d3d 0937 943d 7ea5 9b3d bd35 963d
00000050: 6487 983d ca92 983d 6936 963d fbd7 963d
00000060: 503b 953d d55b 953d d6af 953d 7096 953d
00000070: bcb4 953d efe6 943d 4adb 973d 242d 993d
00000080: 5352 973d 2e61 973d 3e37 943d e645 993d
00000090: 8c78 943d 99c5 973d 8fd7 943d cc5b 963d
000000a0: 18e6 993d 2afc 953d e02b a03d bbb3 a53d
000000b0: ac23 943d 2735 9b3d e4d3 9a3d b478 9c3d
000000c0: bd38 963d fb66 a73d 6be3 983d b487 963d
000000d0: 8983 963d 90f1 a23d c3a4 973d 2014 963d
000000e0: a2c5 953d 622f 933d 0fd4 9b3d 9cff 953d
000000f0: 0d9d 993d 445a 973d 1464 9a3d 6a9f 983d
00000100: bef7 943d 84c4 973d dbe6 953d 658d 943d
00000110: 5abc 943d 9ded 983d 2551 983d 29a5 963d
00000120: c821 993d 4d34 973d e013 983d 8dfe 9a3d
00000130: 3ea5 933d 1a77 943d 6367 9c3d c87a 9e3d
00000140: 4dc9 993d 55ee 9b3d fadd 9a3d c6e4 993d
00000150: 2ec8 953d ee51 a33d 7ea3 943d 6da6 973d
00000160: 2a80 9e3d 4c1f 973d 3123 963d 0dba 973d
00000170: 9832 973d aae2 9b3d 0122 9b3d 3af5 983d
00000180: 43bf 973d 6367 9b3d c6fa 9a3d d065 9a3d
00000190: 0ae3 953d 2c9c 953d 4907 963d e30c 953d
000001a0: 984f 973d 7d1c 9a3d ba3a 953d 7207 9e3d
000001b0: 7b35 953d 8f32 943d d373 9d3d 2f36 953d
000001c0: 3f6b 963d 12b2 9b3d 1006 9b3d 4e42 9e3d
000001d0: 34c7 a53d 8d52 953d 0b1d 9f3d 0951 983d
000001e0: 7e4d 953d 8384 953d 7c1d 963d de4d 993d
000001f0: e2b4 963d 4b08 963d 1b4f 953d a4d6 973d

nnECG.4.weight f4 [64, 128]
-0.20368843 -0.07488364 0.08341324 0.19739702 -0.07172205 -0.2521065 0.13865367 -0.070423365
-0.11579193 -0.11398549 0.062476557 0.06473928 -0.08260023 -0.116015516 -0.027147535 -0.08270142
-0.07273905 -0.10318888 -0.108977176 -0.06662733 0.12584127 0.040077843 -0.0018914106 0.04403876
-0.021636233 0.040076576 -0.058857203 -0.021042783 0.085591525 0.021340737 -0.14564924 0.032778915
-0.16537641 0.10073132 0.023626458 -0.1343807 0.09558239 -0.06402085 0.1769059 0.041223075
-0.09534959 -0.04387876 0.024013193 0.009456854 -0.052436545 0.21410716 0.02744022 -0.0139005445
0.010453628 -0.080896676 -0.0761325 -0.040890634 0.021490587 0.02816133 0.10168647 0.052223407
-0.1378521 0.069712035 -0.15489836 -0.10687472 -0.14046146 -0.14412224 -0.14545232 -0.012760443
-0.0907697 -0.007520634 0.07281318 -0.0912803 -0.018134722 -0.06276983 -0.13311988 -0.13521068
0.09906277 0.11643802 0.07181492 0.053044762 -0.030567823 0.08181516 0.19425224 0.11489703
-0.28310937 0.020338856 0.067628056 0.1292262 -0.057360128 0.007238138 -0.0529521 -0.027358565
0.13276972 0.04408823 -0.12949993 -0.033095017 -0.056644212 -0.16246888 -0.0782733 0.11537672
0.17464082 0.31170243 0.089628585 0.026511932 0.14470007 -0.064794265 -0.23143272 -0.081995204
0.030616345 -0.15857685 -0.19132063 0.16273986 -0.072042294 -0.12877566 -0.20483981 0.03136818
-0.18160772 -0.1720103 -0.034176312 0.041224208 -0.13129933 0.19527932 -0.005317892 -0.02502853
0.08724927 -0.122784 -0.04055561 -0.10386403 0.14957778 0.013146088 0.16882084 0.045912668
-0.22370236 -0.0588142 -0.10669226 0.0970812 -0.11461597 -0.15818246 -0.107327856 -0.08542574
-0.1562498 -0.09290405 0.01606789 -0.011782813 0.1043666 -0.060845815 0.12830196 -0.1434127
0.1556051 -0.038438924 0.12910941 0.18780346 -0.10760891 0.088847 -0.18043262 -0.0044389865
-0.08080272 -0.05970903 -0.019967252 0.045840897 0.12863056 -0.0050381827 -0.17735197 0.045863457
-0.06047258 0.0317235 -0.06874752 -0.20962532 -0.07527019 -0.060314633 0.04051823 -0.11271229
-0.056289807 -0.09097625 -0.009327165 0.12428488 -0.001916437 0.0953136 -0.0063111465 0.011584914
0.034854826 0.048697297 -0.11543089 -0.110703774 0.020055143 -0.025223143 -0.07297217 -0.10696528
0.036954194 -0.024558062 -0.1673358 0.06865877 0.05162462 -0.064810544 -0.06075055 0.16484426
0.10486691 0.07943279 0.10681002 0.022917468 -0.1385916 -0.047609907 -0.15422732 -0.0042503723
0.100327104 -0.038886108 -0.039043453 -0.056075573 0.18134986 0.09704356 -0.06794205 0.17356728
-0.13329035 -0.018245999 0.121508315 0.1557421 0.051094275 0.089197874 -0.026760451 0.111736454
-0.06563988 -0.15172274 -0.085056454 0.020285886 0.027081126 -0.05129735 0.1104531 -0.15082632
-0.0189202 0.38861907 -0.115570076 0.27743053 0.089625806 -0.13015004 -0.064537674 -0.12560868
0.17794532 -0.031726237 0.07086303 -0.0029954202 -0.059131227 0.0064043645 -0.21262094 -0.07400132
0.076922126 0.0012721404 -0.013654233 -0.16003688 -0.034723368 0.1159466 0.12838423 -0.049691007
-0.14022084 -0.25129628 -0.08055024 0.03555238 0.16226707 -0.1409972 -0.09674123 0.030330002
00000000: b393 50be 985c 99bd 90d4 aa3d 7222 4a3e
00000010: 03e3 92bd 1a14 81be 3afb 0d3e 203a 90bd
00000020: 5224 edbd 3971 e9bd 6be7 7f3d 0796 843d
00000030: 4f2a a9bd 8b99 edbd 8264 debc 5d5f a9bd
00000040: 36f8 94bd b154 d3bd 6d2f dfbd e973 88bd
00000050: 89dc 003e aa28 243d 35e9 f7ba fd61 343d
00000060: 783e b1bc 5627 243d 4014 71bd ea61 acbc
00000070: 9c4a af3d c5d2 ae3c 1325 15be 2f43 063d
00000080: 6f58 29be 394c ce3d 468c c13c 189b 09be
00000090: b3c0 c33d 5d1d 83bd d226 353e 87d9 283d
000000a0: a546 c3bd 37ba 33bd 51b7 c43c ecf0 1a3c
000000b0: b4c7 56bd e83e 5b3e 50ca e03c 1cbf 63bc
000000c0: b245 2b3c 28ad a5bd 5beb 9bbd f07c 27bd
000000d0: 070d b03c 97b2 e63c ff40 d03d 36e8 553d
000000e0: 1a29 0dbe 2fc5 8e3d ad9d 1ebe 22e1 dabd
000000f0: 21d5 0fbe c894 13be 74f1 14be 2d11 51bc
00000100: 77e5 b9bd a76f f6bb 141f 953d 2af1 babd
00000110: 458f 94bc 788d 80bd 9450 08be ab74 0abe
00000120: 6ce1 ca3d 0e77 ee3d b313 933d 7745 593d
00000130: 5f69 fabc b58e a73d 0fea 463e 224f eb3d
00000140: b6f3 90be ac9d a63c 9480 8a3d df53 043e
00000150: 74f2 6abd e72d ed3b 4de4 58bd 121f e0bc
00000160: c9f4 073e dc95 343d a19b 04be a48e 07bd
00000170: c303 68bd 3e5e 26be c04d a0bd a14a ec3d
00000180: 0bd5 323e 7697 9f3e 318f b73d 8d2f d93c
00000190: 412c 143e dbb2 84bd b3fc 6cbe 1aed a7bd
000001a0: 21cf fa3c f861 22be 8ee9 43be 47a5 263e
000001b0: e98a 93bd c4dd 03be 87c1 51be ec7b 003d
000001c0: 60f7 39be 7823 30be 76fc 0bbd b7da 283d
000001d0: 5573 06be 4df7 473e b641 aebb a208 cdbc
000001e0: bfaf b23d 2e76 fbbd a41d 26bd aab6 d4bd
000001f0: eb2a 193e b162 573c 5fdf 2c3e ec0e 3c3d
00000200: 3b12 65be 29e7 70bd 7981 dabd 82d2 c63d
00000210: c7bb eabd 95fa 21be b5ce dbbd b1f3 aebd
00000220: f3ff 1fbe 7b44 bebd cfa0 833c b30c 41bc
00000230: 28be d53d 7639 79bd 9761 033e c7da 12be
00000240: f156 1f3e 2272 1dbd 4235 043e 8d4f 403e
00000250: 0f62 dcbd 6af5 b53d 54c3 38be eb74 91bb
00000260: e57b a5bd 7591 74bd 5d92 a3bc aac3 3b3d
00000270: bbb7 033e 5717 a5bb c19b 35be 52db 3b3d
00000280: 19b2 77bd 80f0 013d 80cb 8cbd 05a8 56be
00000290: 4227 9abd 7a0c 77bd 72f6 253d b3d5 e6bd
000002a0: 2490 66bd c251 babd f7d0 18bc 1289 fe3d
000002b0: f430 fbba c733 c33d bccd cebb a7ce 3d3c
000002c0: efc3 0e3d d176 473d 0867 ecbd a9b8 e2bd
000002d0: af4a a43c c4a0 cebc 6f72 95bd 9d10 dbbd
000002e0: 485d 173d fd2d c9bc 135a 2bbe f89c 8c3d
000002f0: 5674 533d 64bb 84bd 92d5 78bd efcc 283e
00000300: 76c4 d63d a9ad a23d 36bf da3d 6abd bb3c
00000310: f5ea 0dbe 9b02 43bd c4ed 1dbe b546 8bbb
00000320: 4c78 cd3d 0a47 1fbd 07ec 1fbd 80af 65bd
00000330: c7b3 393e c6be c63d 3425 8bbd 9fbb 313e
00000340: 447d 08be a278 95bc 5ad9 f83d db7a 1f3e
00000350: 3b48 513d 60ad b63d bc38 dbbc 15d6 e43d
00000360: 346e 86bd 355d 1bbe 1432 aebd 962e a63c
00000370: 3dd9 dd3c 2c1d 52bd 3c35 e23d 3772 1abe
00000380: 89fe 9abc 14f9 c63e 01b0 ecbd 600b 8e3e
00000390: bc8d b73d 0d46 05be 542c 84bd 909f 00be
000003a0: 4c37 363e 5ff3 01bd a320 913d d04e 44bb
000003b0: 9633 72bd b4db d13b 4eb9 59be 018e 97bd
000003c0: 5989 9d3d f3bd a63a 01b6 5fbc b5e0 23be
000003d0: 173a 0ebd 6975 ed3d 2877 033e cc88 4bbd
000003e0: 0d96 0fbe e8a9 80be 86f7 a4bd 5f9f 113d
000003f0: 5729 263e 9261 10be 4420 c6bd a076 f83c

nnECG.4.bias f4 [64]
0.014146457 0.019983478 0.018691631 0.037640736 0.009557869 -0.014430652 0.0127913905 0.021053148
0.02986564 0.017339306 -0.033757206 -0.0020045398 -4.292811e-06 -0.004137318 -0.031195572 0.015950948
-0.0022361535 -0.013508749 0.0011540911 0.035419382 0.0029754352 -0.0008051236 -0.009952342 0.04570623
0.028011354 0.010976965 0.049707 0.03579123 0.03054302 -0.027895767 -0.046324406 0.00074850064
0.010554083 -0.013222704 0.024202138 0.021752968 0.05154875 -0.018083492 0.07827623 0.032368593
-0.018339463 -0.0021340346 -0.0027339554 -0.022106793 0.01631907 0.040760726 -0.0020982444 0.024840968
0.0084506385 0.022244925 0.014160987 -0.008375898 0.031137006 -0.0089964755 0.013575235 0.03593099
0.011605342 0.056354962 -0.00611118 -0.0014199871 0.01079905 0.034457665 -0.010725951 0.013989338
00000000: 8bc6 673c 64b4 a33c 311f 993c 2c2d 1a3d
00000010: 9c98 1c3c 8b6e 6cbc fb92 513c a777 ac3c
00000020: c9a8 f43c 290b 8e3c ff44 0abd 995e 03bb
00000030: f70a 90b6 5792 87bb db8d ffbc 90ab 823c
00000040: 6e8c 12bb cd53 5dbc df44 973a ea13 113d
00000050: 85ff 423b ee0e 53ba 260f 23bc 7536 3b3d
00000060: 1178 e53c bad8 333c 9199 4b3d d399 123d
00000070: 5b35 fa3c aa85 e4bc a9be 3dbd 0737 443a
00000080: 08eb 2c3c 0aa4 58bc 9043 c63c 4833 b23c
00000090: c824 533d d523 94bc 4a4f a03d ee94 043d
000000a0: a43c 96bc 29db 0bbb 292c 33bb 4e19 b5bc
000000b0: 92af 853c b8f4 263d b382 09bb 497f cb3c
000000c0: 8c74 0a3c fd3a b63c 7c03 683c 103b 09bc
000000d0: 0913 ff3c f465 13bc aa6a 5e3c 602c 133d
000000e0: 5524 3e3c 76d4 663d 4b40 c8bb dc1e baba
000000f0: 80ee 303c 7b23 0d3d e6bb 2fbc 8933 653c

nnECG.5.weight f4 [64]
1.0237712 1.0610207 1.0331786 1.0870665 1.0974725 0.9888262 1.1124296 1.0959039
1.1434677 1.111741 0.96385336 1.0974332 1.0928973 0.96270937 1.0036174 1.0376749
1.1046083 0.9952528 1.0155048 1.1212082 1.1157154 1.0593126 1.1435317 1.0999035
1.0521121 1.1125492 1.1222887 1.0334796 1.1197422 1.0237067 1.0183499 0.99333704
1.0859689 1.0605512 1.1187521 1.1543573 1.2355033 1.0990231 1.132282 1.0846964
1.0657736 1.0540289 1.088967 1.0893397 1.0909696 1.0783331 1.0125753 1.0559539
1.1638553 1.0382438 1.0147189 1.0336627 1.0730588 1.0482658 1.1618613 1.160352
1.0205868 1.1917794 1.0846863 1.126289 1.0084258 1.0622077 1.1634343 1.1124159
00000000: ef0a 833f 87cf 873f 323f 843f ff24 8b3f
00000010: fb79 8c3f b723 7d3f 1864 8e3f 9446 8c3f
00000020: 265d 923f 874d 8e3f 18bf 763f b178 8c3f
00000030: 0fe4 8b3f 1f74 763f 8976 803f 88d2 843f
00000040: ce63 8d3f e3c8 7e3f 10fc 813f c083 8f3f
00000050: c3cf 8e3f 8e97 873f 3f5f 923f a3c9 8c3f
00000060: 9cab 863f 0368 8e3f 28a7 8f3f 0f49 843f
00000070: b653 8f3f d208 833f 4a59 823f 564b 7e3f
00000080: 0701 8b3f 24c0 873f 4533 8f3f fbc1 933f
00000090: f924 9e3f caac 8c3f 9eee 903f 55d7 8a3f
000000a0: 456b 883f 6bea 863f 4563 8b3f 7c6f 8b3f
000000b0: e4a4 8b3f d206 8a3f 119c 813f 7f29 873f
000000c0: 36f9 943f 2ce5 843f 4fe2 813f 0f4f 843f
000000d0: fe59 893f 932d 863f dfb7 943f 6a86 943f
000000e0: 97a2 823f 3a8c 983f 00d7 8a3f 3d2a 903f
000000f0: 1914 813f 6cf6 873f 6aeb 943f a563 8e3f

nnECG.5.bias f4 [64]
0.00163074 0.0072017177 0.015838914 0.030804196 0.010840324 -0.0203962 0.009086135 0.02014754
0.012351741 0.005647056 -0.04902527 -0.017890856 -0.009410474 -0.015567261 -0.036894735 -0.0023455862
-0.013967627 -0.026105596 -0.011750181 0.033797532 -0.0018071467 -0.0085606 -0.018391248 0.037288405
0.019737473 0.009516836 0.051313333 0.022763908 0.024879256 -0.032214735 -0.057265315 -0.010694242
0.014995587 -0.029336248 0.012549984 0.011356329 0.045248114 -0.023577023 0.06121865 0.033747625
-0.034812465 -0.020804908 -0.009595124 -0.041961018 0.0009832596 0.035225276 -0.011657733 0.009589204
0.0074847476 0.008876697 0.003996258 -0.019798813 0.02147022 -0.026054943 0.0023673265 0.016959403
-0.0066897324 0.049141686 -0.019905435 -0.0063552223 0.00062046223 0.025082137 -0.023112947 0.0053260266
00000000: 8ebe d53a 63fc eb3b 9cc0 813c 1559 fc3c
00000010: 9d9b 313c ee15 a7bc 03de 143c 740c a53c
00000020: f55e 4a3c f00a b93b b9ce 48bd d88f 92bc
00000030: 642e 1abc d30d 7fbc ef1e 17bd 68b8 19bb
00000040: 79d8 64bc 67db d5bc d583 40bc 486f 0a3d
00000050: c8dd ecba c241 0cbc 3ea9 96bc babb 183d
00000060: 7bb0 a13c 81ec 1b3c ee2d 523d 607b ba3c
00000070: 95cf cb3c 99f3 03bd 098f 6abd e736 2fbc
00000080: 0db0 753c 9252 f0bc 739e 4d3c e50f 3a3c
00000090: 1656 393d 9a24 c1bc 68c0 7a3d f33a 0a3d
000000a0: 8497 0ebd 0e6f aabc de34 1dbc 51df 2bbd
000000b0: b8e0 803a 6148 103d 1300 3fbc 091c 1d3c
000000c0: 9d42 f53b 916f 113c 0bf3 823b 1f31 a2bc
000000d0: 51e2 af3c 2d71 d5bc 2625 1b3b 72ee 8a3c
000000e0: 8b35 dbbb cb48 493d b910 a3bc 783f d0bb
000000f0: 84a6 223a 0e79 cd3c 5d57 bdbc f385 ae3b

nnECG.5.running_mean f4 [64]
-0.5014852 -0.44150972 -0.5136883 -0.6479531 -0.00414729 -0.57834744 -0.17063221 0.06696243
0.29959422 0.11582479 -0.20837633 0.19410796 -0.23651706 -0.10132208 -0.37221223 -0.30771804
0.048996795 -0.47855863 -0.18817915 0.21829306 0.06947622 -0.5071617 0.2969631 -0.09348599
-0.23031536 -0.15873516 -0.077645674 -0.50790113 -0.021663753 -0.6342274 -0.064956814 -0.4442126
-0.00507483 -0.39230028 0.045133147 0.13974231 0.21661949 -0.2774341 -0.15614946 0.46233243
-0.39394894 -0.19700076 -0.0154432645 -0.13750802 -0.50013167 -0.3235119 0.15051286 0.21951954
0.19171034 0.49476713 0.17846118 -0.19737113 0.23771158 0.31419042 -0.49065253 0.454093
0.3397055 0.09322823 0.3195011 0.0028638437 0.39474374 0.09787034 0.41908553 0.07375991
00000000: 5661 00bf 900d e2be 1481 03bf 41e0 25bf
00000010: fde5 87bb 940e 14bf 36ba 2ebe 9923 893d
00000020: 6a64 993e 8c35 ed3d 9b60 55be 3dc4 463e
00000030: 8731 72be f381 cfbd 9a92 bebe 388d 9dbe
00000040: ddb0 483d a305 f5be 09b2 40be 3788 5f3e
00000050: 8c49 8e3d 59d5 01bf 8c0b 983e 9575 bfbd
00000060: cad7 6bbe 788b 22be b204 9fbd cf05 02bf
00000070: 2f78 b1bc ba5c 22bf 1408 85bd d56f e3be
00000080: c24a a6bb 95db c8be 89dd 383d 9c18 0f3e
00000090: 80d1 5d3e d80b 8ebe a5e5 1fbe d6b6 ec3e
000000a0: adb3 c9be 91ba 49be bf05 7dbc e7ce 0cbe
000000b0: a108 00bf 5aa3 a5be 0b20 1a3e bbc9 603e
000000c0: b74f 443e 1e52 fd3e 87be 363e a81b 4abe
000000d0: aa6a 733e 91dd a03e cf36 fbbe e17e e83e
000000e0: e1ed ad3e 71ee be3d a695 a33e 53af 3b3b
000000f0: da1b ca3e 3f70 c83d 6192 d63e 700f 973d

nnECG.5.running_var f4 [64]
1.215832 0.7584625 1.2932483 1.9084318 0.7986291 1.094645 2.7979498 0.8374488
2.1682591 1.1331561 1.24515 1.2844721 1.2812451 1.9449404 1.0755883 1.0636551
0.9709757 0.9470405 1.1839858 0.81607574 0.91648597 1.9051105 1.3577234 0.8819154
1.3225433 1.3504556 2.299027 0.93524706 1.038892 1.4879848 2.0670233 1.4547346
0.90073645 1.317201 1.1977334 1.0683253 0.9224824 0.8818593 1.5681388 1.6588254
1.4870903 1.6286554 1.0132653 1.1362692 0.9339219 0.98245925 1.1069329 1.022658
1.1180631 1.4331373 1.746991 1.7653149 1.1509192 1.4112428 1.9085108 1.034907
1.1916422 1.2353339 0.8722638 1.0755152 0.9618443 1.5765958 1.0327756 0.97276497
00000000: 62a0 9b3f 992a 423f 2989 a53f 7e47 f43f
00000010: f572 4c3f 541d 8c3f 9c11 3340 0b63 563f
00000020: c2c4 0a40 420b 913f 1361 9f3f 9569 a43f
00000030: d7ff a33f cff3 f83f e1ac 893f da25 883f
00000040: dd91 783f 3f71 723f d98c 973f 57ea 503f
00000050: d39e 6a3f a9da f33f e1c9 ad3f 35c5 613f
00000060: 1949 a93f bbdb ac3f 4223 1340 5a6c 6f3f
00000070: 6afa 843f 4976 be3f 1c4a 0440 be34 ba3f
00000080: aa96 663f 0b9a a83f 544f 993f e2be 883f
00000090: ce27 6c3f 88c1 613f c6b8 c83f 6454 d43f
000000a0: fa58 be3f c877 d03f adb2 813f 4571 913f
000000b0: 8115 6f3f 7382 7b3f faaf 8d3f 75e6 823f
000000c0: b11c 8f3f 0b71 b73f 679d df3f d7f5 e13f
000000d0: 5251 933f 9ba3 b43f 154a f43f d577 843f
000000e0: bb87 983f 6c1f 9e3f ae4c 5f3f 7baa 893f
000000f0: 6e3b 763f e4cd c93f fe31 843f 2007 793f

nnECG.8.weight f4 [16, 64]
-0.23649971 0.023389703 0.10044929 -0.22637282 -0.08485086 -0.11651333 0.01996159 0.16998392
-0.11638311 -0.0614254 0.2641664 0.049153782 -0.21604182 0.031041492 -0.12588583 -0.06089089
-0.19388363 0.18063585 0.0005244177 -0.05121202 -0.046723034 0.029713415 -0.2372227 0.07629773
0.062904425 -0.23262778 -0.26386777 -0.17498852 -0.064546734 -0.23427923 -0.0227956 -0.22009589
0.018174822 -0.15570576 -0.2378911 0.2747968 0.14088643 -0.054458816 0.17292398 0.115773536
0.21568118 -0.1457725 -0.015265256 -0.19334826 0.077314585 0.21640803 0.026831161 0.15383898
-0.018223694 -0.034823477 0.106178865 -0.2326254 -0.31180218 0.22481082 -0.12280095 0.05750382
0.023041835 -0.0844317 0.17528097 0.026562981 0.0028698116 0.16338837 -0.090500355 0.19862399
0.12042514 -0.07630609 0.015623562 -0.030531282 -0.045234103 0.060749598 -0.17636442 -0.035054743
0.116024174 -0.14076881 -0.16648553 0.11755712 -0.16592613 0.21254835 0.15634575 -0.2629605
0.29982138 -0.246714 0.16957209 0.202356 0.27478057 0.21510507 0.37097028 0.09464808
0.13685171 0.12691729 -0.1172603 -0.07798507 -0.18522453 0.21903566 0.10682604 -0.069338396
-0.1506296 0.023505105 -0.21415578 -0.21377714 -0.27987757 0.25973025 0.017735295 -0.07381525
0.18921265 -0.16170771 -0.008024628 -0.068085514 -0.28571963 -0.23728985 -0.2538591 -0.027988337
-0.10783344 -0.06427919 0.07602171 -0.048798084 0.3008704 0.142778 0.12002495 0.07395511
-0.101632394 0.002355604 0.29263029 -0.05606845 -0.1601915 -0.16164306 -0.26448387 -0.23210663
-0.1871828 -0.16142525 0.2036134 -0.1021382 0.28594524 0.2080945 0.31965032 -0.12653695
0.3728775 -0.092042655 -0.07044272 0.36922956 -0.34319702 -0.11746859 0.20513502 -0.2821922
0.118805476 -0.09719965 -0.010308649 -0.32735458 -0.021698784 0.13962047 -0.07772526 0.15227348
-0.2302791 0.05581859 -0.23566724 -0.10953089 0.036674775 -0.10393574 0.1912572 0.13073665
0.1610649 0.18902251 -0.30285197 0.10554959 -0.08247828 -0.1431748 0.16179492 -0.30367786
0.31871083 0.21098031 -0.16964868 0.2311872 -0.11553331 -0.10999 0.037346154 -0.011422964
0.16506037 -0.0008886517 -0.28853747 -0.102568164 -0.15906048 0.26545632 -0.23644358 -0.36665428
0.07033893 0.11966032 -0.22197253 -0.12822865 0.2513175 0.113814585 -0.38328996 -0.051712655
0.20830132 -0.1967137 0.03367591 0.20176241 0.27634263 0.13891032 -0.12106824 0.2540531
-0.13797472 -0.056512192 -0.26796484 -0.27556267 0.0675058 0.22746336 0.10459669 0.048881143
-0.056848787 -0.1320668 0.1913985 -0.09872161 -0.17862238 0.31617582 -0.20683089 0.2663461
0.2711923 -0.28391635 -0.14134876 0.06734624 -0.19025284 -0.109718926 0.3134978 -0.20904112
0.07411049 -0.15717705 0.25309575 0.22085871 -0.31858185 0.165041 0.15182494 -0.22685966
0.060941912 -0.25713938 0.13439403 0.038849223 0.089879386 0.085951895 -0.14913145 -0.1265237
-0.037094 0.05940545 0.17296922 -0.2131689 0.23187101 0.06779817 -0.0284747 0.06627458
0.036434878 0.28805557 0.05456462 0.07017363 -0.16179484 0.2379994 0.048289686 0.19208515
00000000: fb2c 72be c39b bf3c 5bb8 cd3d 47ce 67be
00000010: 4ac6 adbd 8a9e eebd 7d86 a33c 4410 2e3e
00000020: 455a eebd 3399 7bbd d240 873e 7a55 493d
00000030: 113a 5dbe ba4a fe3c 37e8 00be ba68 79bd
00000040: 6e89 46be 9bf8 383e 1379 093a b2c3 51bd
00000050: a760 3fbd 8c69 f33c 82ea 72be fc41 9c3d
00000060: 09d4 803d fa35 6ebe ad19 87be 3130 33be
00000070: 1431 84bd e5e6 6fbe d7bd babc d160 61be
00000080: 5de3 943c 5571 1fbe b999 73be 2bb2 8c3e
00000090: 8844 103e 3510 5fbd fc12 313e ad1a ed3d
000000a0: 87db 5c3e 6345 15be 201b 7abc 16fd 45be
000000b0: 1c57 9e3d 119a 5d3e 06cd db3c f787 1d3e
000000c0: db49 95bc 10a3 0ebd 4e74 d93d 5a35 6ebe
000000d0: 89a4 9fbe cf34 663e 117f fbbd 2089 6b3d
000000e0: 3bc2 bc3c 87ea acbd db7c 333e 9c9a d93c
000000f0: 7313 3c3b 484f 273e 4058 b9bd 1664 4b3e
00000100: 75a1 f63d 5e46 9cbd f8f9 7f3c bd1c fabc
00000110: 6547 39bd 92d4 783d e098 34be 9095 0fbd
00000120: 159e ed3d b325 10be 2f7b 2abe cac1 f03d
00000130: 8ae8 29be 46a6 593e 1a19 203e c2a2 86be
00000140: 3082 993e 98a2 7cbe 4ea4 2d3e 6936 4f3e
00000150: 0ab0 8c3e 8144 5c3e d1ef bd3e dad6 c13d
00000160: db22 0c3e 9bf6 013e 2b26 f0bd a3b6 9fbd
00000170: 80ab 3dbe e24a 603e 9cc7 da3d 4a01 8ebd
00000180: a53e 1abe c78d c03c a74b 5bbe 65e8 5abe
00000190: 1d4c 8fbe 5dfb 843e 9c49 913c 732c 97bd
000001a0: f6c0 413e b596 25be bb79 03bc 6b70 8bbd
000001b0: d849 92be 1cfc 72be d2f9 81be cc47 e5bc
000001c0: c7d7 dcbd cfa4 83bd 45b1 9b3d 80e0 47bd
000001d0: af0b 9a3e 6534 123e a4cf f53d c775 973d
000001e0: a524 d0bd 7a60 1a3b a3d3 953e 08a8 65bd
000001f0: 3e09 24be c285 25be 6e6a 87be 5cad 6dbe
00000200: d9ac 3fbe a94c 25be 0880 503e d52d d1bd
00000210: 6a67 923e b916 553e 35a9 a33e e792 01be
00000220: cde9 be3e dc80 bcbd 4644 90bd a80b bd3e
00000230: 85b7 afbe 5f93 f0bd ea0e 523e 7f7b 90be
00000240: 4950 f33d 9c10 c7bd 9ce5 28bc 059b a7be
00000250: a6c1 b1bc abf8 0e3e 6c2e 9fbd 94ed 1b3e
00000260: 49ce 6bbe 09a2 643d c152 71be bb51 e0bd
00000270: 4a38 163d 43dc d4bd edd8 433e d4df 053e
00000280: 32ee 243e 1e8f 413e 6a0f 9bbe 622a d83d
00000290: 5fea a8bd 6a9c 12be 91ad 253e aa7b 9bbe
000002a0: 112e a33e 390b 583e 62b8 2dbe 56bc 6c3e
000002b0: ba9c ecbd 7042 e1bd 48f8 183d 6227 3bbc
000002c0: 9605 293e 68f4 68ba 2fbb 93be 420f d2bd
000002d0: c0e0 22be e4e9 873e 441e 72be 1cba bbbe
000002e0: db0d 903d 7810 f53d c44c 63be 5f4e 03be
000002f0: b0ac 803e 9f17 e93d 953e c4be a6d0 53bd
00000300: f14c 553e 516f 49be c0ef 093d ce9a 4e3e
00000310: c87c 8d3e 823e 0e3e a0f2 f7bd 3f13 823e
00000320: 3f49 0dbe 5479 67bd b032 89be 8d16 8dbe
00000330: 7b40 8a3d 28ec 683e ca36 d63d 9837 483d
00000340: 46da 68bd 853c 07be f8fd 433e 8e2e cabd
00000350: c9e8 36be cce1 a13e 7acb 53be 845e 883e
00000360: b8d9 8a3e 7c5d 91be bbbd 10be d3ec 893d
00000370: a4d1 42be 51b4 e0bd c982 a03e e00e 56be
00000380: 3ec7 973d 05f3 20be c495 813e c928 623e
00000390: 291d a3be 8200 293e ff77 1b3e e64d 68be
000003a0: 3a9e 793d c6a7 83be 979e 093e 5d20 1f3d
000003b0: af12 b83d 8c07 b03d eab5 18be 6e8f 01be
000003c0: e1ef 17bd 2153 733d d81e 313e f348 5abe
000003d0: 986f 6d3e c4d9 8a3d c643 e9bc f8ba 873d
000003e0: bd3c 153d 057c 933e 277f 5f3d 31b7 8f3d
000003f0: 8cad 25be 1db6 733e 68cb 453d f8b1 443e

nnECG.8.bias f4 [16]
-0.013378845 -0.013382411 -0.004957616 0.041195855 0.018595695 0.0009792643 0.024682472 0.018897034
0.032940015 0.036200374 0.029890802 0.01671463 0.0019333094 0.022636162 0.040884107 -0.017021261
00000000: f132 5bbc e641 5bbc 7f73 a2bb fcbc 283d
00000010: 0056 983c a85a 803a e532 ca3c f4cd 9a3c
00000020: 1cec 063d d846 143d 8edd f43c 1fed 883c
00000030: 1967 fd3a 796f b93c 1876 273d 2c70 8bbc

nnECG.9.weight f4 [16]
0.9299698 1.0735339 1.0801332 1.0449182 1.1361779 1.0507879 1.0989759 1.0685414
1.1072873 1.1929809 1.1061622 1.07085 1.1430463 1.1524087 1.1032013 1.0468475
00000000: 8012 6e3f 8f69 893f ce41 8a3f e1bf 853f
00000010: 476e 913f 3880 863f 3eab 8c3f f7c5 883f
00000020: 97bb 8d3f 99b3 983f b996 8d3f 9d11 893f
00000030: 574f 923f 2182 933f b335 8d3f 19ff 853f

nnECG.9.bias f4 [16]
-0.023560656 -0.040097807 -0.02925602 0.046564166 0.02586118 -0.012865751 0.028946152 0.008590163
0.008322281 0.018314132 0.023542507 0.00085326843 -0.016628066 0.015630038 0.029540416 -0.017172134
00000000: 4702 c1bc 993d 24bd 52aa efbc 11ba 3e3d
00000010: d3da d33c dfca 52bc 7b20 ed3c c1bd 0c3c
00000020: 2d5a 083c 8507 963c 37dc c03c e0ad 5f3a
00000030: 9537 88bc 910a 803c befe f13c 93ac 8cbc

nnECG.9.running_mean f4 [16]
-0.18332615 -0.05515621 -0.0015296265 0.31801724 0.43261436 0.15121076 -0.26782772 0.4562384
-0.49362713 -0.34188965 0.55597204 -0.4412681 -0.19701605 0.17800489 -0.031999666 0.74716777
00000000: dab9 3bbe 7aeb 61bd c07d c8ba 28d3 a23e
00000010: a17f dd3e fed6 1a3e b720 89be 1498 e93e
00000020: b2bc fcbe 290c afbe 2f54 0e3f e4ed e1be
00000030: 93be 49be ea46 363e 1512 03bd 6346 3f3f

nnECG.9.running_var f4 [16]
1.213218 1.4157917 1.6510588 1.5423871 1.1666958 1.5771148 1.55603 1.4893589
2.5316515 1.2134026 1.5879413 1.7303594 1.5886376 1.447865 1.2309715 1.9246576
00000000: ba4a 9b3f aa38 b53f e555 d33f f16c c53f
00000010: 4a56 953f e6de c93f fe2b c73f 50a3 be3f
00000020: 9406 2240 c750 9b3f a941 cb3f 6b7c dd3f
00000030: 7a58 cb3f a453 b93f 7990 9d3f 2e5b f63f

nnECG.12.weight f4 [4, 16]
-0.27118537 0.60230726 0.4524343 0.009984351 -0.40406176 0.290206 -0.03230087 0.37516004
-0.3664111 -0.23644118 -0.34017175 0.11530249 0.033483647 0.14318056 -0.5989018 -0.20129485
-0.2946308 0.045525655 0.11727313 0.25609174 0.27758732 -0.6730696 -0.07671031 0.49861923
0.20996141 0.23538138 -0.23593254 -0.069404714 0.46185395 0.33650786 0.002746664 0.3569014
-0.13155302 -0.004169478 -0.22959603 -0.14541769 -0.54334444 0.08446248 0.4958272 -0.3991763
0.5303348 0.413203 -0.1409635 -0.3034429 -0.5852334 0.686904 0.013246133 -0.56046826
0.2789464 0.06546793 0.24999273 -0.55503786 0.46424842 0.05696049 0.5103871 -0.5635544
-0.34863904 -0.16456282 -0.3110173 -0.14052422 0.2022826 -0.46640158 -0.20314522 -0.26403806
00000000: cfd8 8abe cf30 1a3f 78a5 e73e 6795 233c
00000010: 2fe1 cebe e195 943e eb4d 04bd fa14 c03e
00000020: 3c9a bbbe a31d 72be fe2a aebe b623 ec3d
00000030: 2626 093d ed9d 123e a151 19bf 3d20 4ebe
00000040: d9d9 96be 1c79 3a3d e52c f03d 751e 833e
00000050: ed1f 8e3e 4a4e 2cbf 4c1a 9dbd 054b ff3e
00000060: 2000 573e d107 713e 4d98 71be 0f24 8ebd
00000070: 1f78 ec3e c24a ac3e 6001 343b c8bb b63e
00000080: d6b5 06be 1ea0 88bb 391b 6bbe 60e8 14be
00000090: 9f18 0bbf aafa ac3d 10dd fd3e d660 ccbe
000000a0: 05c4 073f 588f d33e bc58 10be de5c 9bbe
000000b0: dbd1 15bf f1d8 2f3f 4f06 593c d97a 0fbf
000000c0: 10d2 8e3e 0d14 863d 18fe 7f3e f616 0ebf
000000d0: f8b1 ed3e 674f 693d bba8 023f 1a45 10bf
000000e0: d180 b2be 2883 28be a93d 9fbe 95e5 0fbe
000000f0: 2b23 4f3e 30cc eebe 4d05 50be ff2f 87be

nnECG.12.bias f4 [4]
-0.014055937 0.0033781864 0.042742547 0.009544814
00000000: df4a 66bc 9064 5d3b cf12 2f3d da61 1c3c

nnECG.13.weight f4 [4]
1.0453511 1.077625 1.1315651 1.1092606
00000000: 11ce 853f 9eef 893f 20d7 903f 40fc 8d3f

nnECG.13.bias f4 [4]
-0.024869373 -0.014746525 0.028976522 -0.0137869045
00000000: dbba cbbc 699b 71bc 2c60 ed3c 78e2 61bc

nnECG.13.running_mean f4 [4]
-0.07045978 0.45718873 -0.2404934 -0.23569041
00000000: 384d 90bd a414 ea3e e743 76be d458 71be

nnECG.13.running_var f4 [4]
1.3598117 1.4732459 1.5509063 1.2346438
00000000: 4f0e ae3f 5293 bc3f 1984 c63f cf08 9e3f

nnECG.16.weight f4 [1, 4]
0.93545103 0.44084623 -0.4153689 0.73560387
00000000: b879 6f3f 99b6 e13e 3cab d4be 8950 3c3f
