Models/net_3_1_epoch_44.pth (torch, 57997 bytes, 25 tensors)

nnECG.0.weight f4 [128, 12]
000000 82 d1 2c 3e a6 c1 b4 3c 74 23 99 3c fc 49 81 3d
       0.16876796 0.022064995 0.018693663 0.063129395
000010 77 2c fc bd 0b 03 5e be 41 9f 00 bd 74 79 bb bd
       -0.123131685 -0.21680848 -0.031401876 -0.09154025
000020 a9 96 e7 3c 37 59 bb bd ae 94 18 bc 07 1b 3f 3e
       0.028270083 -0.09147876 -0.009312792 0.18662654
000030 74 90 5a 3d 9d 1f e6 bd a6 3f 63 3e 5e e4 d0 bd
       0.053360417 -0.112364985 0.22192249 -0.101998076
000040 d2 a3 6c bd 6c ec 77 3d 47 3a e3 3d 6c 1f 61 3e
       -0.05777342 0.060528204 0.110951 0.21984643
000050 0a 2d 3e be 42 36 6d bd 81 13 80 3d 7f ef 0a be
       -0.18571869 -0.057913072 0.0625372 -0.13567923
000060 73 a7 48 3d d6 b0 8a bb c7 bd 42 be ee bd 06 3e
       0.048987817 -0.0042325063 -0.19017707 0.1315839
000070 47 e7 3d 3e 29 62 0c 3d 30 a7 9c bc 48 d6 24 3e
       0.18545257 0.0342733 -0.01912269 0.16097367
000080 57 6e 09 3e 7d bd 0a be 83 db cc 3d d8 81 1c be
       0.13420998 -0.13548847 0.10002806 -0.15283906
000090 90 17 b2 3d 53 28 81 be 40 31 dc 3d e3 8e 10 be
       0.086959004 -0.25226077 0.10751581 -0.14117007
0000a0 46 a2 0c 3d 0c 14 0c 3c f9 30 6e be 53 6b 23 be
       0.034334444 0.008549701 -0.23260869 -0.1595891
0000b0 8f d1 8b 3d 17 95 ee 3c 91 38 3b 3e 76 47 61 bb
       0.068270795 0.029123826 0.18283297 -0.003437487
0000c0 8a 4e 11 3e 0e d5 52 be 57 2c 16 3e bf b9 26 be
       0.14190117 -0.20589086 0.14665352 -0.16281794
0000d0 da fd 37 be 7e 28 49 be c0 dc 2b be ba a2 17 be
       -0.1796793 -0.19644353 -0.16783428 -0.14808169
0000e0 86 61 0f be 00 40 1f be 92 d3 40 be 57 f2 5d 3d
       -0.14002046 -0.15551758 -0.18830708 0.05418619
0000f0 23 ff 13 be 41 5f 03 be 14 fc 21 3e 4f 99 08 be
       -0.14452796 -0.12829305 0.15818816 -0.13339733
000100 96 3d 58 bc f2 6d 20 be 43 8e 7f 3c 3d 04 ff bd
       -0.013198277 -0.15666941 0.015597883 -0.1245198
000110 b2 e7 7e 3e 39 2d 9f bd 96 ad 61 be 80 fd bf bd
       0.24893072 -0.077722974 -0.22038874 -0.09374523
000120 51 2b 68 be b8 c8 00 3e e9 c7 63 bd 3e 92 51 3e
       -0.22672774 0.12576568 -0.05561057 0.20465943
000130 8c 45 59 3e cd 82 1b 3e 84 b5 94 bc 2d 89 0f be
       0.21217936 0.15186615 -0.01815296 -0.14017172
000140 41 5b d5 3d 65 59 4d 3e 0d 83 a6 3d 0a 08 b8 ba
       0.10417796 0.20053633 0.08130465 -0.0014040482
000150 22 d4 b4 3d 6e b0 80 bd 9e 01 eb bd 13 0d 47 be
       0.088295236 -0.06283651 -0.11474918 -0.19438581
000160 15 0f 14 be 72 b7 8a bd 51 3a 79 3e a9 ef a9 3d
       -0.14458878 -0.06773271 0.24338652 0.08297665
000170 69 b9 44 3d 8f 58 b5 bd 14 66 23 be 75 69 9f 3d
       0.048028383 -0.08854782 -0.15956908 0.07783786
000180 ca e4 a1 3c e6 da fc bd 53 f9 e6 bd c9 62 1a bd
       0.019762415 -0.12346439 -0.112780236 -0.037691865
000190 3b df 00 3d e8 2d a2 3c 76 2e 2b 3e 5f 8f db bd
       0.03146289 0.01979728 0.16716942 -0.10720705
0001a0 1a fe 03 bd ff 4d 5f be 09 b2 0e be 1f 94 fc 3d
       -0.032224752 -0.21807097 -0.13935103 0.12332939
0001b0 29 b6 2c 3d 96 12 ef bd 29 31 13 3e 50 40 3b 3e
       0.04216591 -0.11673467 0.14374222 0.18286252
0001c0 68 be 72 3e f2 ae 31 be 8c cd 6e be ae 24 b9 bd
       0.23705447 -0.17351893 -0.23320597 -0.09040199
0001d0 71 8d b7 3c 37 bd cc 3d e7 6b 25 3e 3e 33 6b 3d
       0.022406312 0.09997027 0.16154443 0.057421915
0001e0 d1 d8 4f 3e a4 13 c5 3d 38 38 3b 3e bd 39 d3 bd
       0.20297553 0.09622887 0.18283165 -0.10313747
0001f0 c0 f5 53 be e7 61 6d 3c af e7 12 be 97 d7 a3 3d
       -0.20699215 0.014488674 -0.14346193 0.08000105
000200 6a f9 2c 3e ad df 1c be ab 7d 14 be 4f 4d 0c 3e
       0.16892019 -0.153197 -0.14501064 0.13701366
000210 2b dd 32 3b 65 e7 ea bd 55 8f 9f 3d 98 41 53 be
       0.002729247 -0.11469916 0.0779101 -0.20630491
000220 dc 4d 8c be 8b d0 14 be db 2a 4c 3e eb 94 22 be
       -0.27403152 -0.14532678 0.19938223 -0.1587712
000230 c3 5b 80 bc b1 8f 20 3d 64 5c 5f be 05 71 e2 bd
       -0.015668755 0.039199535 -0.21812588 -0.11056713
000240 38 73 a7 bd 49 e5 57 3e d0 6a 70 3d d5 41 ae 3d
       -0.08176273 0.21083559 0.058695614 0.0850865
000250 f6 44 42 3e fb 72 23 be ba cf 5d bd e3 a8 8d bd
       0.18971619 -0.1596183 -0.05415318 -0.06916978
000260 9a 77 99 bd 93 09 47 3e e6 83 0c be e9 09 ee 3d
       -0.07493515 0.19437246 -0.1372219 0.11622984
000270 98 2e e3 bd 6e b7 18 3e e7 e8 01 3d 68 60 85 3e
       -0.110928714 0.14913723 0.031716254 0.26050115
000280 7e 5b a4 bd 6d 94 78 bd ce fd 44 be f0 2a 20 be
       -0.08025263 -0.060688425 -0.19237444 -0.1564138
000290 62 72 1a 3e f5 a3 61 3e fd ff 1d 3e 0f 73 17 be
       0.15082696 0.22035201 0.15429683 -0.14789985
0002a0 23 ff 50 bd b9 6c a8 3d 80 f7 53 be 92 77 7f 3c
       -0.051024567 0.08223862 -0.20699883 0.015592473
0002b0 00 3e d6 bd 22 70 38 3e 9a e2 99 bd aa 0b 23 bc
       -0.10461044 0.18011525 -0.07513924 -0.009951511
0002c0 e0 1e b0 3d 69 82 11 3e 4d 5a 54 be f7 3d 06 3e
       0.08599639 0.14209904 -0.20737572 0.13109575
0002d0 fb d9 30 3e e3 4c 04 3e 7e db 84 bd cd 9b 0c be
       0.17270653 0.12919955 -0.06487177 -0.13731308
0002e0 60 ee bf 3d b0 4d 03 be 91 c8 3f be ea 7f 79 bc
       0.09371638 -0.12822604 -0.18728854 -0.015228251
0002f0 09 72 25 ba 3d 48 81 3d ed 28 17 3e 88 d4 08 be
       -0.0006311243 0.063126065 0.14761706 -0.13362324
000300 68 b4 21 be 3f ba 21 3e ad 1b a0 bd 30 7b e1 3d
       -0.15791476 0.15793703 -0.07817779 0.11009824
000310 6a 7b 13 3d ab 7f d5 bd 9a bf 0f be cc 3e 08 bd
       0.03600637 -0.10424741 -0.14037934 -0.033263013
000320 f7 10 a3 3d 35 ce 32 be ec a3 3e be 07 d6 19 be
       0.0796222 -0.17461474 -0.18617219 -0.15023051
000330 cc 56 30 3b 74 2c 01 be 4b 43 0e 3e 79 21 96 ba
       0.0026907204 -0.12614614 0.13892858 -0.0011454067
000340 93 11 dd bd 30 3a 89 bd 14 fa 6b 3d 05 a1 2c 3e
       -0.10794368 -0.067005515 0.05761154 0.16858299
000350 23 ac 42 3d eb 8a 69 be 57 c8 d3 3b 23 cd 60 3e
       0.047527444 -0.22806899 0.0064630914 0.21953253
000360 b4 7e 7a be fc 47 8e 3d a1 e1 16 be b6 c1 bd 3d
       -0.24462396 0.06947324 -0.14734508 0.09265463
000370 1a 0c 7e bd a7 2e e5 3c 1e 83 1f be 7d 2f 21 bc
       -0.06202326 0.027976347 -0.15577361 -0.009837982
000380 7f 29 33 3e b3 b0 f3 bd 9d 04 33 be 50 b2 0c be
       0.17496298 -0.11898937 -0.17482229 -0.13739896
000390 cd a2 65 3e ad 6e 1d 3e fb 92 c1 3d fa d0 39 bd
       0.22425385 0.1537425 0.094518624 -0.04536531
0003a0 76 bd 92 3e 76 0f 36 be 68 51 a1 b9 5c 82 63 3d
       0.28660172 -0.17779335 -0.00030768965 0.055544242
0003b0 eb a7 19 bd 9f 6a 6b 3e f0 69 f1 3d 43 1a d1 3c
       -0.037513655 0.22989891 0.11787784 0.025525218
0003c0 af 81 10 3d e9 73 f4 bd ae 3a c7 bd d7 1e 03 be
       0.035279926 -0.119361706 -0.09727989 -0.12804733
0003d0 26 88 fd bd c3 ed 38 be e2 1b 21 3e c7 ef 1d 3e
       -0.12379484 -0.18059449 0.15733293 0.15423499
0003e0 b4 16 82 3e e3 df 64 be 6f 3f 78 bd e6 81 30 3e
       0.25407946 -0.22351031 -0.06060737 0.17237052
0003f0 81 09 c6 3d 5c b4 03 3e 3e b3 70 3d d4 29 bb 3c
       0.096697815 0.1286177 0.05876469 0.022847094

nnECG.0.bias f4 [128]
000000 d6 e5 1b 3c 94 aa 4d bb b5 17 7a bb 97 c6 51 3c
       0.009515246 -0.003138219 -0.0038161103 0.012803695
000010 fe 02 75 3c ba 48 d3 3c 96 5c 33 3c d4 37 29 3c
       0.014954327 0.025791515 0.010947367 0.010328252
000020 d8 28 ad 3c ad 85 55 3c 39 0e 29 ba be 81 70 3c
       0.02113764 0.013032359 -0.0006448958 0.01467937
000030 6f df b1 3c 28 c6 da ba bc 87 0f 3b 3e 9b 22 39
       0.021712987 -0.0016691135 0.0021900972 0.00015507356
000040 70 8b be 3c 89 e1 0e bc 05 c2 4b 3b 9e 1b ec bb
       0.023259848 -0.008720764 0.0031090986 -0.0072054407
000050 c9 55 db 3c 8a f6 39 3c d3 f7 46 3c 15 dd a9 3c
       0.026774304 0.011350283 0.012144047 0.020735303
000060 cb a2 d4 3b 28 cf 64 3c 7b a2 8c 3b 9b c2 21 3b
       0.006489133 0.0139654055 0.00429183 0.0024682644
000070 b2 42 6a 3c fe 0e 88 3b 73 fe d3 3c 09 f7 d1 3c
       0.014298128 0.004152178 0.025878167 0.02563049
000080 9f 41 17 bc 8a c0 43 3c f4 9f c7 3a 2d cb 85 3c
       -0.009231954 0.01194776 0.0015230165 0.016332233
000090 0e a3 9a 3c 0d ef 2e 3c d3 67 09 3d 6e 15 e2 3a
       0.018876579 0.010677111 0.03354628 0.0017248818
0000a0 bd 58 d3 3c ea 84 dd 3c f7 5c a5 3b 7b f6 1a 3c
       0.02579915 0.027040917 0.0050464827 0.00945818
0000b0 dc 1d 2a bb aa 4c 1c 3c 1e 5b 55 3a 42 bb 69 3c
       -0.002595774 0.0095397625 0.00081388827 0.014265837
0000c0 af 39 80 3c 6f 42 30 3c 0d 98 cd 3c 2d b5 4d 3c
       0.015652506 0.0107580265 0.025096918 0.012555403
0000d0 eb 81 34 3c 22 c9 dc b9 85 02 65 bb d0 a5 90 3c
       0.011017303 -0.00042111526 -0.0034944129 0.01765719
0000e0 ab d2 47 3c 66 a0 81 3c 91 a1 e5 bb 56 3a 47 3c
       0.012196223 0.015823554 -0.0070077856 0.012159904
0000f0 c4 84 a3 3a ec 61 42 3c c8 bf 9f 3c ef 12 e7 ba
       0.001247548 0.011864167 0.019500628 -0.0017629544
000100 50 c5 69 3b 04 33 90 3b 93 71 19 bc bb ab 62 3c
       0.0035670586 0.004400613 -0.009365457 0.013834889
000110 87 37 97 38 07 91 fe 3c 98 52 79 3c b8 d1 01 ba
       7.210584e-05 0.031075014 0.015217446 -0.000495221
000120 97 66 58 bb 75 a2 f6 bb 94 55 87 3c 5a 35 42 3c
       -0.0033020133 -0.0075266906 0.016520299 0.01185354
000130 a1 f2 04 3c b0 82 c5 3b c5 e7 ce 3b 1f 6a bf 3c
       0.008114488 0.006027542 0.00631425 0.023366032
000140 b4 52 bd 3c b7 8d 64 3c f3 4b 6e 3c 5c 66 21 3c
       0.023110725 0.013949803 0.014544475 0.0098510645
000150 db cd 8c 3c 6d cb 12 3c 6d 67 16 bb 27 c8 5f 3c
       0.017188003 0.008959633 -0.002294983 0.01365856
000160 20 fb 39 bc e4 03 73 3c 1a e0 38 3c f3 fa 97 39
       -0.011351377 0.014832471 0.011283899 0.00028987936
000170 2d b8 33 3c f7 1e 3b 3c 0c 8a 3f 3c 4a e4 9d 3c
       0.010969204 0.011420957 0.011690628 0.019273896
000180 79 ad 5f bb 58 20 7b 3b 94 5c 6f 3b 36 10 17 3c
       -0.0034130497 0.003831884 0.0036523687 0.009220174
000190 3f 00 cc 3b f2 d8 b0 3c 44 bf 9b 3c e0 16 da 3c
       0.0062256153 0.021587823 0.019012101 0.026622236
0001a0 1c ae 98 3c f2 c7 20 3c c2 d9 56 3c 27 d0 d2 3c
       0.01863771 0.009813296 0.013113441 0.02573402
0001b0 35 d8 d6 3b b7 7b 70 3c 98 b5 59 3c c8 19 d0 3b
       0.0065565356 0.014677933 0.013287924 0.0063507296
0001c0 e2 30 88 bc 72 cc 43 3c d8 d9 91 bb dd de b2 3a
       -0.016624872 0.011950599 -0.004451018 0.0013646741
0001d0 52 b3 bf ba 21 08 d7 3b 61 88 3a 3c 0a cc 2d 3c
       -0.0014625585 0.0065622483 0.011385054 0.010607729
0001e0 58 76 c1 3c 8c 1c a6 3b 50 0d 95 3b 1e 8f 17 3c
       0.023616001 0.005069321 0.004548706 0.00925043
0001f0 3a 0a 9f 3c f6 00 a6 3c d4 89 39 3c 6b ce 15 bc
       0.019414056 0.02026413 0.011324365 -0.009143452

nnECG.1.weight f4 [128]
000000 36 9e 7f 3f 17 13 85 3f d3 7f 73 3f a8 1a 88 3f
       0.99850786 1.0396451 0.9511692 1.0633135
000010 ad 13 82 3f 4b 46 86 3f 20 57 86 3f 56 b1 8a 3f
       1.0162255 1.0490202 1.0495338 1.0835369
000020 8f 84 88 3f 47 82 86 3f e8 2a 97 3f 58 6f 82 3f
       1.0665454 1.0508507 1.1809969 1.019023
000030 64 64 82 3f 17 17 86 3f 81 77 7a 3f 03 f9 88 3f
       1.0186887 1.0475796 0.978386 1.0700992
000040 cb 7b 89 3f 11 37 8c 3f dd 3d 8b 3f a3 34 8a 3f
       1.0740904 1.0954305 1.0878254 1.0797313
000050 f0 91 94 3f e4 be 84 3f db d9 81 3f eb 1b 7f 3f
       1.1607037 1.0370755 1.0144609 0.99651974
000060 c9 39 81 3f 33 f5 72 3f 45 84 7a 3f a2 ab 83 3f
       1.009576 0.94905394 0.9785808 1.0286753
000070 a1 16 90 3f 54 20 83 3f e6 ab 85 3f 4e 3d 88 3f
       1.1256906 1.0244241 1.0443084 1.0643709
000080 96 32 8b 3f 58 e5 85 3f 9f 3a 83 3f 66 02 82 3f
       1.0874813 1.0460615 1.0252265 1.0156982
000090 91 43 7e 3f c4 6f 7b 3f 41 ee 8b 3f d5 02 93 3f
       0.9932185 0.98217416 1.0932084 1.1485239
0000a0 85 89 85 3f ed 2f 86 3f 82 00 86 3f 3d 2e 8b 3f
       1.0432593 1.0483376 1.0468905 1.0873486
0000b0 b1 ac 86 3f 69 73 81 3f d4 58 7e 3f e3 a0 7e 3f
       1.0521451 1.0113345 0.9935429 0.99464244
0000c0 0d de 86 3f 25 45 84 3f f7 36 84 3f 49 31 80 3f
       1.0536515 1.0333601 1.0329274 1.0015041
0000d0 be f3 86 3f df 02 83 3f 05 dc 72 3f 8d 73 86 3f
       1.0543134 1.0235251 0.94866973 1.0504013
0000e0 fe 38 73 3f 3a 07 81 3f cf 21 88 3f 12 45 7e 3f
       0.9500884 1.008033 1.0635318 0.9932414
0000f0 18 4e 7e 3f 25 33 7d 3f 08 13 87 3f 15 c8 80 3f
       0.9933791 0.98906165 1.0552683 1.006106
000100 9a 4b 86 3f b3 49 83 3f 35 01 81 3f 26 b6 87 3f
       1.0491822 1.0256866 1.0078493 1.0602462
000110 ba f3 81 3f 96 c2 77 3f e3 91 82 3f ee 36 84 3f
       1.0152504 0.9678129 1.0200771 1.0329263
000120 e2 07 73 3f 4e 1f 87 3f c6 b7 90 3f 9b 14 81 3f
       0.94933903 1.0556428 1.1306083 1.0084413
000130 d0 46 85 3f 29 20 7a 3f 8e d2 85 3f db da 84 3f
       1.0412235 0.9770532 1.0454881 1.0379289
000140 f8 50 85 3f 21 14 86 3f e8 37 86 3f e7 12 85 3f
       1.0415335 1.0474893 1.0485811 1.0396394
000150 09 cc 84 3f 44 7e 7d 3f 0b ba 84 3f 80 76 89 3f
       1.0374767 0.9902079 1.0369276 1.0739288
000160 f5 44 85 3f 8a 14 83 3f 1f 79 80 3f c3 9d 7f 3f
       1.0411669 1.0240643 1.0036963 0.998501
000170 c6 c8 8b 3f aa a5 93 3f cf 73 83 3f df 64 97 3f
       1.0920646 1.1534932 1.0269717 1.1827658
000180 b7 4a 89 3f a8 10 82 3f 2d cb 84 3f 04 10 83 3f
       1.0725926 1.0161333 1.0374504 1.0239263
000190 25 a9 83 3f e6 87 8d 3f 8c 97 86 3f b2 10 7f 3f
       1.0285994 1.1057098 1.0514998 0.9963485
0001a0 6e ac 7d 3f e8 d1 7b 3f 20 9e 7e 3f ec b0 8e 3f
       0.9909123 0.98367167 0.9946003 1.1147742
0001b0 c3 3b 71 3f d8 56 87 3f 73 6a 7f 3f c4 ce 72 3f
       0.94231814 1.0573378 0.99771804 0.9484675
0001c0 d8 12 85 3f 26 4a 85 3f 8a e4 7e 3f 4d f0 80 3f
       1.0396376 1.0413253 0.9956747 1.0073334
0001d0 42 12 86 3f e4 03 88 3f dd c9 88 3f ae 35 80 3f
       1.0474322 1.0626187 1.0686604 1.0016382
0001e0 5c 22 87 3f 22 c3 86 3f 3b c1 81 3f cd 79 82 3f
       1.0557361 1.05283 1.0137094 1.0193421
0001f0 4c 2e 8c 3f 8c 3d 8a 3f 87 fa 7e 3f 09 43 86 3f
       1.0951629 1.0800033 0.99601024 1.0489208

nnECG.1.bias f4 [128]
000000 f0 61 2c 3c 3f e2 27 bc 6f 9f 61 bc ff fd 4a 3c
       0.010521397 -0.010246812 -0.013770922 0.012389659
000010 04 01 0f 3c b0 ae 80 3c 3b 41 88 3a b0 d7 bb 3b
       0.0087282695 0.015708297 0.0010395417 0.005732499
000020 e0 22 66 3c 6e 9e eb 3b 5c 83 95 bc 7b 24 b1 ba
       0.014046401 0.007190517 -0.018251114 -0.00135149
000030 3a c6 bf 3c 93 e2 7a bc 4b 7b d3 bb f5 5a ee ba
       0.023409951 -0.015312809 -0.0064539067 -0.0018185066
000040 88 2c 7c 3c 10 e8 8d bc 0b bc 72 3b 6f 0a cf bb
       0.015391476 -0.01732257 0.0037038352 -0.0063183825
000050 10 c8 d8 3c 25 0d c7 3b 19 ce 24 3c ac ba b5 3b
       0.026462585 0.006074565 0.010058903 0.0055459347
000060 38 f3 8c 3b 3f 7a b6 3b 45 d1 5e 3b c6 c4 a5 ba
       0.004301455 0.005568772 0.0033999246 -0.0012647144
000070 2d a9 0d 3c 9d 66 64 3a fb 37 6f 3c 4c de 60 3c
       0.008646292 0.00087128003 0.014600749 0.013724875
000080 f6 06 ac bc ed 07 3c 3c cd 6c f1 b8 0b d7 a0 3b
       -0.020999413 0.011476499 -0.00011512041 0.0049084476
000090 17 b5 d3 3b bb b7 1e bb b1 a3 05 3d 81 65 67 bc
       0.0064607966 -0.0024218399 0.03262681 -0.0141233215
0000a0 c6 d1 20 3c 32 27 69 3c 8a d0 00 bc 05 4e 21 bb
       0.009815639 0.014230536 -0.00786222 -0.0024613154
0000b0 e1 b8 1d bc d8 8a 6b 39 e0 e5 35 bc 30 9e 2c 3c
       -0.009626598 0.0002246307 -0.01110217 0.010535762
0000c0 3e b0 67 3c 14 4a 2f bb 58 dd 59 3c 3e 40 71 3c
       0.0141411405 -0.0026747035 0.013297401 0.014724789
0000d0 0b e9 3b bc 0d be 99 bb 8d a0 11 bc 7c 9d 16 3c
       -0.011469136 -0.0046918453 -0.008888376 0.009192821
0000e0 2f 31 a1 bb ea 18 20 3c 68 98 dc bc f1 2a 64 3b
       -0.004919193 0.009771565 -0.026928142 0.0034815634
0000f0 1c 9e cb bb a9 c1 80 bb ba 35 86 3c f9 4f 81 bc
       -0.0062139165 -0.003929336 0.01638304 -0.015785204
000100 fe d9 02 bc 53 7e d5 bb 3b 58 1e bc 7c c8 1d 3c
       -0.007986544 -0.006515303 -0.0096645905 0.009630319
000110 11 ff 15 bc 9b 78 8d 3b cf 1b 9c ba 19 be 17 bc
       -0.009155051 0.004317356 -0.0011910143 -0.009261631
000120 87 b5 3f bc ef f2 66 bc ce bf bc 3b 3f 23 54 bb
       -0.011700994 -0.014096006 0.0057601696 -0.003236964
000130 d6 27 c3 bb 9c f5 6b bc 80 71 8c bc ce 4a ac 3c
       -0.0059556765 -0.01440182 -0.017143965 0.021031763
000140 2a f3 12 3c 82 94 42 3c 7e 7a 26 bb 3b 34 24 bc
       0.008969108 0.011876227 -0.00254026 -0.010022218
000150 e9 7f 43 3c 26 4e 88 3a a2 66 2c bc ad fc 88 3b
       0.011932352 0.0010399267 -0.010522516 0.004180512
000160 31 96 9e bc 62 7d 9c 3b 36 ef 96 ba 90 ae 53 bb
       -0.019358726 0.004775689 -0.0011515382 -0.0032300092
000170 c2 8d 50 3b 32 e8 5d 3b db dd 2a 3b 2b 59 ae 3b
       0.0031822775 0.0033860323 0.0026072178 0.0053206882
000180 fb 41 8c bb 9c ff bd 3b 82 82 2e bb 0f 97 80 3b
       -0.0042803264 0.0057982933 -0.0026628082 0.0039242576
000190 79 d2 83 3b 4c d7 9e 3c ca 31 02 3c ad c8 93 3c
       0.004022893 0.01938977 0.007946441 0.018040026
0001a0 5f 9f 11 3b fe d9 a0 bb b7 83 c2 bb 1c c0 aa 3c
       0.0022220237 -0.004908799 -0.005936112 0.020843558
0001b0 c8 d5 36 bb 73 66 7d 3c f4 64 0b 3c 09 fa 90 bc
       -0.002789842 0.01546632 0.008507956 -0.017697351
0001c0 5a d3 9f bc ee 00 b6 3b 38 26 42 bc 10 6e d7 bb
       -0.01950996 0.00555431 -0.011849932 -0.0065744
0001d0 9d a8 ac bc 52 f1 37 bb 34 cf 52 3a b9 c0 de bb
       -0.021076495 -0.0028067422 0.000804174 -0.0067978767
0001e0 76 aa ed 3b 04 05 49 bc 2a 75 aa 3b 29 95 8c 3b
       0.0072529865 -0.012269262 0.0052019553 0.004290242
0001f0 62 ec 8c 3c 43 81 9b 3c 50 4c 9c 3b d3 33 79 bc
       0.01720256 0.018982535 0.0047698393 -0.01521011

nnECG.1.running_mean f4 [128]
000000 88 ff 8c bd 68 33 8d 3e e5 31 42 3e 02 ca 85 3d
       -0.06884676 0.27578282 0.18964346 0.065326706
000010 ed 23 20 bf 40 e6 c4 be 4c 40 71 3e 63 ef 14 3d
       -0.6255482 -0.38456917 0.23559684 0.03636111
000020 0b 4a a1 be 2e eb 74 bd 9b 20 8a 3d ab 75 e4 bd
       -0.31501803 -0.059794597 0.067445 -0.11155256
000030 6d 07 58 be 3b 79 32 3e 44 cd 30 bd 30 07 ba 3d
       -0.21096583 0.17429058 -0.043164507 0.09083402
000040 43 37 0a bf 23 70 9f 3c 00 de cb be c4 1e f3 3e
       -0.5399057 0.01946265 -0.3981781 0.4748441
000050 7a 27 cd 3c 10 8c 98 3e e6 f3 57 be 7b ed 77 be
       0.025043238 0.2979436 -0.21089134 -0.24211685
000060 42 bd 52 bd 40 15 a4 bd 2f 53 5f 3e e7 00 25 be
       -0.05145002 -0.080118656 0.21809076 -0.16113625
000070 fb a7 e1 3d 6b 04 1b 3f 26 1a 9d be 48 e0 0c bf
       0.11018368 0.60553616 -0.30684012 -0.55029726
000080 a9 24 76 3e 0e fb 5f be bf 5a 3e be 89 a0 6f be
       0.24037422 -0.21873114 -0.18589304 -0.23401083
000090 40 2c 9d be d9 1b 9d 3e e8 e3 eb be 64 fb 42 3e
       -0.30697823 0.3068531 -0.46072316 0.1904121
0000a0 6f d4 9d be 1e 1e 0f be af 92 1e 3e 50 79 37 bd
       -0.30826136 -0.13976333 0.15485643 -0.044793427
0000b0 ad 4d cb 3e 51 50 ca be d4 80 cd 3e 99 4e d8 3c
       0.397077 -0.39514402 0.4013735 0.026404666
0000c0 48 fb 2c be a8 b1 6e 3d 6e 13 4c be 43 27 7c be
       -0.16892731 0.058274895 -0.19929287 -0.24624352
0000d0 d5 75 c8 bb 41 fe d1 3d bc 2a f3 3e 02 82 84 3d
       -0.0061175623 0.10253573 0.4749354 0.064701095
0000e0 f1 97 49 be 11 36 e0 be 98 7f 49 bc 1b 82 0e bd
       -0.19686867 -0.4379125 -0.012298487 -0.034792047
0000f0 9d d1 82 3e b6 21 d5 bd e7 9c 98 be 88 29 dc 3b
       0.25550547 -0.104068205 -0.29807207 0.006718818
000100 b4 88 59 3e b7 00 fe bc 24 2d 04 3f 66 37 da be
       0.21243554 -0.0310062 0.5163138 -0.4262039
000110 53 82 17 be 49 43 05 be d1 d1 a9 3e 8e f0 a1 3e
       -0.14795808 -0.13013949 0.3316789 0.3162884
000120 83 17 ac 3d e1 73 03 3f d3 52 35 3e 63 b3 a7 3e
       0.08402922 0.5134869 0.17707376 0.3275405
000130 e3 64 f6 3d f6 17 2f 3e a9 6a 19 3d 0e 73 71 3e
       0.12030961 0.17098984 0.037455235 0.23579046
000140 50 df d7 3d 63 89 a5 be 60 d7 c8 bc 81 c4 92 3c
       0.1054064 -0.3233138 -0.024516761 0.017915966
000150 99 aa 39 be 3f 2b 64 3c 9b 00 c4 3e 16 c2 00 be
       -0.18131484 0.013926326 0.38281712 -0.12574038
000160 f2 37 e0 3e a1 5a 95 3e 2f 49 40 3d 9a 6e ee 3d
       0.43792683 0.29170707 0.046944793 0.11642189
000170 75 a3 22 3e e4 79 5e be 36 2c 34 3d 14 9a 5d be
       0.15882666 -0.21726185 0.043987475 -0.21640807
000180 c1 83 05 3e 8f f1 0b be aa f5 2e be 2c 30 ae 3d
       0.13038541 -0.13666366 -0.17085901 0.08505282
000190 b3 8b 42 be 53 59 55 bd ef 08 44 3d 2f d9 92 be
       -0.18998604 -0.05208714 0.047860082 -0.28681323
0001a0 8e ed 5b be 90 a3 68 3d d5 21 19 bf ec e7 fa bd
       -0.21477339 0.05679661 -0.5981725 -0.12251267
0001b0 b4 1b ff be a5 98 50 bd 9e 46 96 3c d3 5c 0f bf
       -0.49825823 -0.050926823 0.01834422 -0.56001014
0001c0 99 87 03 3f e4 d6 30 3e 22 07 24 3f ec d4 51 3e
       0.5137878 0.17269474 0.64073384 0.2049138
0001d0 cf dc 12 3e 79 4c cf 3e 6d 99 4b be 70 f3 b1 be
       0.14342044 0.40488032 -0.19882746 -0.3475604
0001e0 06 43 ed bd a1 0f 53 3d 69 ff dd be a6 c3 18 3f
       -0.11585049 0.051528577 -0.43358925 0.59673536
0001f0 63 0f df be e6 ac 2e be d0 51 a1 be 50 18 b6 3e
       -0.43566427 -0.17058143 -0.3150773 0.35565424

nnECG.1.running_var f4 [128]
000000 93 1a 99 3d 5b d7 9d 3d 3a 1b 94 3d b2 2b 98 3d
       0.07475772 0.077070914 0.072317556 0.07430209
000010 15 b8 97 3d cc d6 9f 3d 2c ca 94 3d cc 6a 94 3d
       0.07408158 0.07804641 0.07265124 0.072469324
000020 10 8e 98 3d d6 be 9b 3d fd 2f 9a 3d 72 77 98 3d
       0.07448971 0.076047584 0.07528684 0.074446574
000030 8f 3e 95 3d 14 72 99 3d 9b 2a 94 3d fb 8f 9e 3d
       0.07287323 0.07492462 0.07234689 0.07742306
000040 8f 42 96 3d 12 7b 96 3d 88 26 97 3d c3 40 9b 3d
       0.07336914 0.073476925 0.07380396 0.07580712
000050 7b 1c 97 3d ce 86 98 3d 3e f3 99 3d 6e c2 94 3d
       0.07378479 0.07447587 0.07517098 0.07263647
000060 22 ff 96 3d cf b0 99 3d f1 6b 96 3d 69 3d 9e 3d
       0.073728815 0.07504427 0.07344807 0.07726557
000070 4a db 99 3d fe 6b 93 3d b1 58 95 3d 9f f0 9a 3d
       0.07512529 0.07198332 0.07292307 0.07565426
000080 71 97 a0 3d 18 cc 97 3d 76 7e 98 3d c5 32 98 3d
       0.07841385 0.07411975 0.074459955 0.074315585
000090 ba 7e 94 3d 51 41 96 3d c1 d8 ad 3d a4 ec 94 3d
       0.07250734 0.07336677 0.08488608 0.07271698
0000a0 34 50 99 3d 82 a1 95 3d 2f 86 9f 3d 30 8e 95 3d
       0.07486001 0.07306196 0.07789265 0.07302511
0000b0 a3 46 a0 3d 44 f2 9a 3d d1 bd 94 3d 1c ed 96 3d
       0.07825973 0.0756574 0.07262767 0.07369444
0000c0 d1 98 96 3d a6 cc 96 3d b1 30 9b 3d 0b 13 95 3d
       0.07353366 0.07363252 0.075776465 0.07279023
0000d0 6b 02 98 3d 4e a3 97 3d 86 da 94 3d 18 47 9f 3d
       0.07422336 0.07404195 0.072682425 0.07777232
0000e0 62 ec 93 3d 3b d6 94 3d 0c 18 98 3d d9 5d 9b 3d
       0.07222821 0.07267424 0.074264616 0.075862594
0000f0 7d d8 95 3d cb 1b a0 3d a9 ef 9c 3d fb 8f 94 3d
       0.073166825 0.07817801 0.07662899 0.072540246
000100 30 8d 96 3d 18 b3 96 3d 81 a0 95 3d 67 62 95 3d
       0.07351148 0.07358378 0.07306004 0.072941594
000110 fd e3 96 3d 3d 93 97 3d e5 cc 95 3d 6a 78 95 3d
       0.07367704 0.0740113 0.07314471 0.07298358
000120 03 76 96 3d c0 de 96 3d e7 de 96 3d 9f 26 9d 3d
       0.07346728 0.07366705 0.07366734 0.07673382
000130 14 88 95 3d d5 4d 98 3d d6 dc 9c 3d b5 09 99 3d
       0.073013455 0.0743672 0.076593086 0.074725546
000140 70 14 99 3d 32 12 96 3d 81 7a 96 3d ea e0 9d 3d
       0.07474601 0.07327689 0.073475845 0.077089146
000150 a4 d1 97 3d 64 b2 94 3d f9 d2 94 3d 73 a7 94 3d
       0.07413033 0.07260588 0.07266802 0.07258501
000160 4a 24 96 3d 38 62 96 3d f2 1d 94 3d a5 aa 94 3d
       0.0733114 0.073429525 0.07232274 0.0725911
000170 16 be a3 3d 7d 47 9b 3d 52 59 98 3d dd 98 9c 3d
       0.079952404 0.07581995 0.074389115 0.07646344
000180 b5 22 96 3d 26 9e 95 3d 62 fe 9d 3d 5d 6b a3 3d
       0.073308386 0.07305555 0.07714535 0.07979462
000190 21 19 95 3d 72 aa 96 3d 99 0a 97 3d 78 18 9d 3d
       0.072801836 0.073567286 0.07375068 0.07670683
0001a0 46 59 96 3d b4 ef 94 3d 62 96 9f 3d aa 98 96 3d
       0.07341246 0.07272282 0.07792355 0.07353337
0001b0 d3 ec 93 3d 7e 3c 94 3d 41 d4 95 3d 98 0f 9e 3d
       0.07222905 0.072381005 0.07315875 0.07717818
0001c0 a3 2f 96 3d f1 2d 96 3d ec ba 97 3d a8 b7 95 3d
       0.07333305 0.073329814 0.074086994 0.0731042
0001d0 5e 84 9b 3d 0b e8 99 3d 00 c4 9c 3d ac cc 95 3d
       0.075936064 0.07514962 0.076545715 0.07314429
0001e0 15 15 99 3d 6a d3 98 3d 8a 95 95 3d ab 04 95 3d
       0.07474724 0.07462199 0.07303913 0.07276281
0001f0 a9 b0 96 3d 3e 57 97 3d 15 86 94 3d 5b 7e a7 3d
       0.07357914 0.07389687 0.072521366 0.08178397

nnECG.4.weight f4 [64, 128]
000000 da 11 34 be b2 6f 4a 3c 19 17 70 bc 66 e1 12 3e
       -0.17584935 0.012355732 -0.014653944 0.14343795
000010 68 3c 50 3d a5 6f 6e bc d0 42 1d 3d 67 71 a6 3d
       0.050838858 -0.014552985 0.038393795 0.081270985
000020 f4 b5 ca 3d 2d 11 27 be 37 4a e9 3c 21 56 c9 bd
       0.09897986 -0.16315146 0.028477771 -0.09830881
000030 9d ea ee 3d 04 2c 00 3e ba af 2b 3e c2 02 ff 3b
       0.11665843 0.1251679 0.16766253 0.007782311
000040 b5 88 cc 3c 30 24 37 be c2 5e dd 3d 1b b6 eb 3d
       0.02496753 -0.17884898 0.10809089 0.11509343
000050 ed a1 07 be fa 01 d6 3c aa 93 41 3e e0 d9 21 bd
       -0.13245364 0.02612399 0.18903986 -0.039514422
000060 51 00 32 3e 0b 59 19 3e b2 b3 e7 bd 1b a6 9a bd
       0.17382933 0.14975373 -0.11313571 -0.07551213
000070 c7 9a fc 3d fa 22 99 3d 4a a7 02 be d5 c8 2f 3e
       0.12334209 0.074773744 -0.12759128 0.17166455
000080 41 c1 ff bc fe fc cd bd c9 bf de bd a4 26 00 bd
       -0.03122008 -0.1005802 -0.10876424 -0.03128685
000090 e6 cb 24 3c 76 b5 3f bd 04 79 c1 bd f4 9b c7 bb
       0.010058379 -0.046803914 -0.0944691 -0.006091589
0000a0 88 7e cc bd dc c2 cd 3c e0 3b 88 3d ba 4e 62 3d
       -0.099850714 0.02511733 0.06652045 0.05525086
0000b0 9e 04 c9 bd 7e 10 27 3e 73 b6 cd bd e8 f1 a9 3d
       -0.09815334 0.16314885 -0.10044565 0.08298093
0000c0 bc ff 72 3b 44 1e 25 3e 50 76 aa bd ef 22 3c bd
       0.00370787 0.16124827 -0.083233476 -0.045931753
0000d0 37 69 c7 bd ab 7d c2 bc 6b 89 40 b8 74 1d 3c bd
       -0.09736865 -0.023741564 -4.5904348e-05 -0.045926526
0000e0 aa b3 93 bd 58 d4 2a 3d b2 b3 d4 3d b8 6f b4 bd
       -0.072120026 0.041706413 0.10385837 -0.08810371
0000f0 ae e4 ba 3c 4a 0a 08 3e cb 09 06 be d1 de 20 3e
       0.022814121 0.13285175 -0.13089673 0.15709998
000100 33 3a d8 bd 2a 5b 1a 3e d7 8c 8e 3d 2e c0 18 be
       -0.105579756 0.15073839 0.06960457 -0.1491706
000110 65 73 0b 3e 7e 97 cb 3d 3c 2b d3 3d d4 e1 a1 bb
       0.13618238 0.09941004 0.10310981 -0.004940251
000120 b1 57 a6 bd 67 d3 43 be 45 34 33 3e d1 4f 33 bd
       -0.081221946 -0.19123612 0.17500408 -0.04377729
000130 f1 4e ef bd 0c 40 0d bd 86 2b 0f be c8 66 fd bd
       -0.11684979 -0.034484908 -0.13981447 -0.123731196
000140 55 1a fe 3d c0 bd 0f 3e be d7 d8 bc f4 46 32 3e
       0.12407366 0.14037228 -0.026470061 0.17409879
000150 a9 7f 41 3e 47 a6 0d bd 0e d5 00 be be bb 45 3e
       0.18896355 -0.034582403 -0.12581274 0.19309899
000160 d2 38 95 3d 8d 83 0c 3e 03 0b 0f 3d 68 03 1c be
       0.07286228 0.13722058 0.03492261 -0.15235674
000170 c2 bf 31 be a3 13 30 3e b6 3b 07 be e1 81 0f 3e
       -0.17358306 0.17194991 -0.13206372 0.14014389
000180 5d af ef bc 3b cf 09 3e 0e 16 9e bd e8 36 8f 3d
       -0.029258424 0.13457958 -0.0771905 0.069928944
000190 a7 b6 65 bd 7b 59 03 bd 08 79 fe 3d 4f b9 03 bc
       -0.056082394 -0.032067757 0.12425429 -0.0080397865
0001a0 88 e9 f4 3d 1b 8c 61 bb 6a 78 05 be c8 e4 23 3e
       0.11958605 -0.0034415785 -0.13034216 0.16005242
0001b0 ae c2 d1 bd 87 60 0a bd dc 95 9d 3c ff b6 05 3e
       -0.1024221 -0.033783462 0.019236498 0.13058089
0001c0 f0 c2 42 bc 16 78 35 3d 64 5b 2b be 89 25 86 3d
       -0.011887297 0.044303976 -0.16734082 0.06550128
0001d0 8b ec d9 3d 8b 0d 29 be aa c3 10 be 48 b6 e7 3d
       0.1064082 -0.16509072 -0.1413714 0.11314064
0001e0 85 18 d5 3d 25 70 b8 3d 1a 8b 19 3e 9a b9 e7 3d
       0.10405067 0.09005765 0.1499447 0.113146976
0001f0 f7 31 47 3d d7 c5 0d 3e 11 28 ff 3d 57 92 88 bd
       0.048631635 0.13845001 0.12458814 -0.06668537
000200 16 97 43 3e 6a 20 32 3d 7d aa b5 3b d2 f0 2a 3e
       0.19100603 0.043487944 0.0055440054 0.16693428
000210 b1 4f 49 3e 63 33 6b be fe 87 a0 bd 73 ee 20 3c
       0.19659306 -0.22968821 -0.078384385 0.009822476
000220 d1 82 19 3d 55 6e ac 3d 6e df 13 3e 9b 75 43 be
       0.037478272 0.08419482 0.144407 -0.19087832
000230 d7 f0 0e bd ba 23 0d 3e a8 2d 92 3d 3d 3c ff 3c
       -0.03489765 0.1378316 0.071376145 0.031156654
000240 d2 69 7f be 5a 5c 1c be ec e0 62 be 1d dd 12 3e
       -0.24942711 -0.15269604 -0.22156113 0.1434216
000250 3d 75 d9 bd 86 ad 14 be 92 74 14 be c0 4f 05 3e
       -0.106180646 -0.14519319 -0.14497593 0.13018703
000260 5b c8 13 3e 08 1c 49 bd 72 b1 02 be 93 9b 59 3e
       0.14431898 -0.049099 -0.12763003 0.21250753
000270 de 47 72 be 73 f0 0a 3e 11 2b 81 bd 08 0f 43 3e
       -0.23660228 0.13568287 -0.063070424 0.19048703
000280 e9 b2 07 3e 62 5b 64 be ea 84 7d be 09 7e 0c 3c
       0.13251843 -0.22300485 -0.24757734 0.008574971
000290 3a f6 cf 3d fa d4 ea bd a3 30 2f bd d5 a2 bf 3d
       0.10154386 -0.11466403 -0.042770993 0.093572296
0002a0 7c b4 36 be b6 fb 29 bd 84 6f aa bb cd 83 bf bd
       -0.17842287 -0.041499816 -0.005201282 -0.09351311
0002b0 a5 95 6f 3e ce 08 91 3d b3 ad 9d 3d 29 d8 08 3d
       0.23396929 0.070817575 0.07699146 0.03340927
0002c0 f4 bf a1 3d d6 5e 31 3e de 4e be 3b a2 ae 92 bc
       0.0789794 0.17321333 0.0058077415 -0.017905537
0002d0 54 5b fa 3d 0b b8 47 bc 38 c5 f2 bb e3 db 20 3e
       0.12224451 -0.012189875 -0.007408764 0.1570888
0002e0 3c fd be 3c 3a 77 f7 bc 18 0c 0e be 03 0b 36 bd
       0.023314111 -0.030208219 -0.13871801 -0.044444095
0002f0 24 48 fa 3d 31 fa 23 be 6a 3f 59 be 4a 99 07 bd
       0.12220791 -0.16013409 -0.21215597 -0.033105172
000300 ea 1c 83 3d 60 94 8a 3e 22 e9 0f 3d 05 ca ee bc
       0.06401999 0.27066326 0.035134442 -0.029149065
000310 b7 8f d5 3d 12 8c 3a be e7 2f 10 3e 00 38 f7 3d
       0.10427802 -0.18217495 0.14080773 0.12071228
000320 8d 91 5c 3d ec be cb bc 1a f0 4c ba 46 4c 86 bd
       0.053849746 -0.024871312 -0.00078177603 -0.06557517
000330 df fd a6 3d a2 2f 44 bd 5b e9 81 3e 6a 0b 2b be
       0.08153891 -0.04789699 0.2537335 -0.16703573
000340 b3 b5 a5 bc 94 f3 1a be e5 9f e8 3d e6 78 63 be
       -0.020228243 -0.1513198 0.113586225 -0.22214088
000350 28 70 02 bd 37 33 b7 3d 0b 4d c2 3d e8 1c 55 3e
       -0.03184524 0.08945315 0.09487351 0.20811808
000360 35 07 13 3e 7f 53 8c bc ca 34 68 3c 96 fc a6 3d
       0.14358218 -0.017129658 0.014172742 0.08153646
000370 de 31 55 be 57 1a 82 be 4f 12 c2 3d e1 01 81 be
       -0.20819804 -0.2541072 0.09476148 -0.25196746
000380 6e 62 d4 3d f2 19 95 3c b2 19 60 3d b5 83 f3 3d
       0.103703365 0.018200848 0.054712005 0.118903555
000390 de 24 bd bd 81 d2 e2 3d b8 86 4f 3e 30 9a 31 be
       -0.092355475 0.11075307 0.20266235 -0.17343974
0003a0 2c d6 28 3d e5 22 17 3e a0 4c 4a 3d 95 a2 24 be
       0.041219875 0.14759405 0.04938948 -0.16077645
0003b0 f9 60 57 bd 65 3d bf 3d 0e 08 e3 3b 4a c8 51 bd
       -0.052582715 0.09337882 0.0069284504 -0.0512164
0003c0 da 08 54 bd 9d 18 09 3c 43 c7 53 3e 76 bb 03 3e
       -0.051766254 0.008367685 0.20681481 0.1286448
0003d0 af 7d 30 be 01 c5 e0 bc 74 da 55 3e fb cd 40 3e
       -0.17235444 -0.027437689 0.20884115 0.18828575
0003e0 f6 40 28 bd 08 fe 08 3e 73 1d 4e 3c d9 1a d3 bd
       -0.041077577 0.13378155 0.012580263 -0.10307855
0003f0 23 82 81 bd db fb 99 bd 9b 10 69 3d 18 01 75 3c
       -0.0632365 -0.07518741 0.0569006 0.014953874

nnECG.4.bias f4 [64]
000000 bf d8 e7 3c f1 2d 3a 3d 31 22 de bc 08 c2 31 3c
       0.028301595 0.04545397 -0.027115913 0.010849483
000010 ad 90 28 3d a3 5f 9e 3c 04 4a 8a ba 4b dc 60 3c
       0.0411536 0.019332713 -0.0010550623 0.013724397
000020 1e f7 2e bc 78 43 fa bb da 4d e5 bc ed eb 8b 3c
       -0.0106790345 -0.0076374374 -0.027991224 0.017080272
000030 66 e5 7c 3c 00 09 47 3d a5 b0 cd 3c f7 90 bf 3a
       0.015435552 0.048592567 0.025108645 0.0014615346
000040 e1 d5 c0 3c df 27 c7 3c 0d 29 4f 3c 9f 87 a1 3c
       0.023539485 0.024311004 0.012644065 0.01971799
000050 25 37 71 bb fd fe 5f 3c 16 e6 91 bc 6c 0a 8c 3d
       -0.003680655 0.013671634 -0.017809909 0.06837925
000060 40 f5 fa 3c 89 26 6f 3c a1 93 07 bc 99 2b f8 3a
       0.030634522 0.01459659 -0.008274944 0.0018933892
000070 ac ee 57 bc dc 1b ea 3c 51 55 9e 3c 8b 88 e8 bc
       -0.013179462 0.028577738 0.019327791 -0.028385421
000080 56 98 04 bc 3f 0b 3d 3c 29 7d d3 bb 71 67 29 3c
       -0.00809296 0.011538326 -0.0064541292 0.010339604
000090 5b 77 2d 3d ce c4 3e 3d d3 54 1d 3d 65 b6 c5 3c
       0.042350154 0.046574406 0.038410973 0.024134824
0000a0 b1 20 3d 3c 40 c0 b8 bc 97 13 47 3d 31 f0 ab 3b
       0.011543439 -0.02255261 0.048602667 0.005247139
0000b0 b8 2d 82 bb 11 2b a5 bb 4a eb 9e 38 78 63 46 bc
       -0.0039727353 -0.0050405343 7.577853e-05 -0.012108676
0000c0 a5 a1 11 3d 8b a8 2f 3c c4 e7 23 3d 85 8a 01 3d
       0.035554547 0.010721336 0.04001595 0.031626243
0000d0 0c 8e 7e bb 75 45 5d bb 00 73 e7 3b 77 0e f3 bc
       -0.003884199 -0.0033763323 0.0070632696 -0.029669983
0000e0 9b f5 8f bc 55 24 58 bb 49 5c af 3b 63 5e 48 3c
       -0.017573169 -0.003298064 0.0053515774 0.012229535
0000f0 16 d8 03 3c 24 08 d6 3c 63 24 5e 3c bb 7d b0 3b
       0.008047124 0.026126929 0.01355848 0.005386082

nnECG.5.weight f4 [64]
000000 b2 79 77 3f b6 1e 94 3f 2f 7a 80 3f 94 21 82 3f
       0.9667007 1.1571872 1.0037287 1.0166497
000010 fb 79 96 3f 06 3d 87 3f 5a aa 80 3f f9 2a 85 3f
       1.1755975 1.0565498 1.0051987 1.0403739
000020 88 59 86 3f ab 98 83 3f 70 b9 84 3f cf ea 86 3f
       1.0496073 1.0280966 1.0369091 1.0540408
000030 61 48 82 3f cb 01 8d 3f 56 ef 91 3f a8 1e 80 3f
       1.0178338 1.1016172 1.1401165 1.0009356
000040 f8 2d 86 3f 72 a6 8a 3f 9a 6e 84 3f d0 82 79 3f
       1.0482779 1.0832045 1.0346253 0.9746523
000050 42 80 7e 3f ae 91 88 3f 5f 70 81 3f 96 05 85 3f
       0.99414456 1.0669458 1.0112418 1.039233
000060 dc cd 8f 3f f6 c1 8c 3f 8c b9 80 3f c0 84 86 3f
       1.1234698 1.0996692 1.0056624 1.0509262
000070 e4 3d 89 3f fa a5 8e 3f 9f 32 81 3f ad 47 7c 3f
       1.0722013 1.1144402 1.0093573 0.9854687
000080 a2 37 85 3f 5c c6 83 3f db 22 80 3f 14 cd 81 3f
       1.0407603 1.029491 1.0010637 1.014071
000090 7c b1 86 3f 49 3e 84 3f 57 d8 90 3f 6c 33 8c 3f
       1.0522914 1.0331508 1.1316022 1.0953193
0000a0 79 b3 82 3f c1 9d 84 3f db f2 8f 3f 57 35 82 3f
       1.0211021 1.0360643 1.1245989 1.0172528
0000b0 a6 25 7e 3f 39 4a 83 3f 4f e8 86 3f 44 d7 84 3f
       0.99276197 1.0257026 1.0539645 1.0378194
0000c0 07 1a 8d 3f de 8b 7b 3f 00 17 7e 3f 88 0b 8a 3f
       1.1023568 0.98260295 0.99253845 1.0784769
0000d0 39 61 81 3f 84 3a 84 3f fa 1b 86 3f 57 f5 7c 3f
       1.0107795 1.0330358 1.0477288 0.9881186
0000e0 13 3e 77 3f 7c 09 8d 3f e7 f7 8a 3f ca 06 82 3f
       0.9657909 1.1018519 1.0856904 1.0158322
0000f0 71 cb 86 3f 9a 86 90 3f 3d 03 8a 3f 5a c6 85 3f
       1.0530835 1.1291077 1.0782238 1.0451157

nnECG.5.bias f4 [64]
000000 78 a4 d8 3b 2f 01 0c 3d 12 aa 0c bd 93 9c c0 3a
       0.006611403 0.034180816 -0.03434188 0.00146951
000010 08 8d 03 3d c6 0c 88 3c 3b 4f 81 bc 11 6d 66 3b
       0.03211692 0.016607653 -0.01578485 0.0035160223
000020 59 c9 b9 bc 59 b0 4e bc 91 17 26 bd 5f 7a 3f 3c
       -0.022679018 -0.012615287 -0.04054982 0.01168689
000030 06 1a 08 bb 99 c7 93 3c a2 26 6a 3c be 75 ce bc
       -0.0020767464 0.018039512 0.014291437 -0.025202628
000040 74 2f 7d 3c 4d c3 03 3d 5c b4 1f 3c e0 32 28 3c
       0.015453208 0.032168675 0.009747591 0.010266036
000050 12 b6 53 bc 60 ea 15 bc 8c 29 c2 bc 41 57 75 3d
       -0.012921827 -0.009150118 -0.023701452 0.059897665
000060 e4 cb 8d 3c 8a 22 0b 3c 3e c8 40 bc 50 88 35 bc
       0.017309137 0.0084921215 -0.011766491 -0.011079863
000070 8a fb 1d bc d3 e9 99 3b 43 46 73 3c f1 cc 2c bd
       -0.009642491 0.0046970635 0.014848295 -0.042187635
000080 9b d7 5e bc 71 03 46 3c 5c 34 b6 bc eb a9 74 bc
       -0.013601209 0.012085781 -0.022241764 -0.01493309
000090 7e b9 02 3d 67 50 bf 3c e1 ed 94 3c 00 c4 8c 3c
       0.03191518 0.023353769 0.018179836 0.017183304
0000a0 07 11 00 3b 6c 87 18 bd a7 33 20 3d fe a3 f1 bb
       0.00195414 -0.037238523 0.03911176 -0.0073742857
0000b0 23 21 36 bc b2 52 9f bb b4 14 b0 ba 51 12 81 bc
       -0.011116299 -0.004862153 -0.0013433904 -0.015755804
0000c0 ed f3 50 3c 7b ef 83 ba 87 00 98 3c fd f3 a4 3c
       0.012753469 -0.0010065878 0.018554939 0.020135874
0000d0 25 f0 c9 bc 59 35 38 bc d9 a8 25 bc 7b b2 1f bd
       -0.024650643 -0.011243188 -0.010111057 -0.03898857
0000e0 00 17 07 bd 61 3a a7 bc 84 eb 25 bc fd f7 3e 3b
       -0.03298092 -0.02041358 -0.010126952 0.0029139512
0000f0 a7 c5 5a 3c 86 ef 15 3c 9e 75 33 bb 4f 63 2c 3b
       0.013352788 0.009151345 -0.0027383338 0.002630431

nnECG.5.running_mean f4 [64]
000000 0c d0 07 3f 6e ec 06 3e ab 89 b9 bd da 14 39 be
       0.5305183 0.13176128 -0.09059461 -0.1807436
000010 24 9f 3c 3f f5 14 45 bd 68 34 01 3e be 09 1f 3e
       0.7368033 -0.04811569 0.12617648 0.1553106
000020 e8 a6 71 bd 23 21 08 bd 9a 16 dc 3e 70 26 0d 3d
       -0.058997065 -0.033234727 0.42985994 0.034460485
000030 71 7e 1b 3e e5 fd ee 3e d5 57 23 3e af 2b da be
       0.15184952 0.4667808 0.15951474 -0.42611453
000040 88 0a e4 3d bc 40 4d 3c 29 28 17 bf a9 85 2f 3f
       0.11134821 0.012527641 -0.59045655 0.68563324
000050 72 34 91 be 24 d9 78 3e d5 19 c7 bd e2 70 48 3f
       -0.28360325 0.24301583 -0.09721724 0.78297246
000060 76 f6 31 3e ca 35 73 3e 72 d5 b1 be ab 65 ca bd
       0.17379174 0.23750988 -0.34733158 -0.09882673
000070 e4 c6 1f bd c6 ff d6 3e c2 24 0b 3e d0 0e 8c bd
       -0.039008036 0.41992015 0.1358824 -0.06838763
000080 35 ad 1a 3e e0 53 ac 3d 25 56 d8 be 3c 55 db 3e
       0.15105136 0.084144354 -0.42253223 0.42838466
000090 2b d9 40 3e e7 19 08 3f 96 6d c7 3e 50 b9 a3 3e
       0.18832843 0.53164524 0.38950795 0.3197732
0000a0 90 77 d4 be 9b 68 86 be 15 87 53 3f a7 8d 5a bf
       -0.4149747 -0.26251683 0.82627994 -0.85372394
0000b0 4e 18 44 3e fb a9 8e be 72 7b 18 be 94 f1 cb bb
       0.19149897 -0.2786406 -0.1489084 -0.0062238667
0000c0 2f 77 ad 3e 69 b8 63 be 29 72 8e 3e b3 1f 49 bd
       0.33879992 -0.22238316 0.27821472 -0.049102496
0000d0 b1 61 7e be 7e e4 ad be eb 76 f0 3d a2 7e 53 3e
       -0.24841954 -0.33963388 0.11741432 0.20653775
0000e0 cd 86 1b 3e d1 3c cd 3e f8 71 e3 bd 68 14 a0 bd
       0.15188141 0.40085462 -0.11105722 -0.07816392
0000f0 15 3d e8 be 27 bb 2d 3e f4 46 f0 be 41 70 9c be
       -0.45359102 0.16965924 -0.46929133 -0.30554393

nnECG.5.running_var f4 [64]
000000 f8 d1 c9 3f a3 44 b5 3f dd 7b 76 3f 80 10 70 3f
       1.5767202 1.4161571 0.9628275 0.93775177
000010 ca 74 8b 3f 8e 5d 79 3f c2 00 72 3f df 51 5e 3f
       1.0895016 0.9740838 0.94532406 0.86843675
000020 42 38 a3 3f 58 39 66 3f 87 69 73 3f 5d cb 9e 3f
       1.2751544 0.8993125 0.95082897 1.2405812
000030 37 fc 97 3f e6 f3 82 3f db be aa 3f d3 6f bd 3f
       1.1873845 1.0230682 1.3339494 1.4799751
000040 ef 67 70 3f 20 0c a4 3f 98 aa a3 3f e8 eb 87 3f
       0.9390859 1.28162 1.2786436 1.0618868
000050 4c 3f 7b 3f 49 e1 9b 3f 79 20 fb 3f 62 15 a9 3f
       0.9814346 1.2178127 1.9619285 1.320965
000060 2f dc b7 3f 5e d4 e8 3f 95 46 99 3f 27 5d b7 3f
       1.436407 1.8189809 1.1974665 1.4325303
000070 0f da 60 3f 9e 96 c3 3f d5 05 7b 3f 11 03 ba 3f
       0.8783273 1.528034 0.98055774 1.4532186
000080 c6 be 96 3f 60 c8 2c 40 03 e3 aa 3f c7 3c fa 3f
       1.177697 2.69973 1.3350528 1.9549798
000090 b6 2a 78 3f 28 d9 c8 3f f2 e2 b8 3f 2f 46 76 3f
       0.9694017 1.5691271 1.4444258 0.9620084
0000a0 74 11 8e 3f 4a 50 91 3f 9a ce b5 3f ac df c0 3f
       1.1099076 1.1352627 1.4203675 1.5068259
0000b0 ae 1b 48 3f f3 26 61 3f cc 64 a7 3f 06 6e 82 3f
       0.78167236 0.87950057 1.3077636 1.0189826
0000c0 ab d3 90 3f f4 10 07 40 6d ca 8b 3f 9f b3 5a 3f
       1.1314596 2.1104097 1.092115 0.8543033
0000d0 38 65 6d 3f 1c 36 76 3f af 7b 3f 40 c8 c5 b4 3f
       0.9273257 0.96176314 2.991924 1.4122858
0000e0 43 92 ea 3f e9 2d 93 3f 32 68 21 40 8d 14 e9 3f
       1.8325886 1.1498386 2.5219846 1.8209397
0000f0 ab 95 ab 3f 96 d9 60 3f f2 a2 c2 3f f0 7c ae 3f
       1.340505 0.8783201 1.5205977 1.3631878

nnECG.8.weight f4 [16, 64]
000000 aa 89 b7 bc 61 c0 41 3b b4 e7 93 3d 8c a9 d0 3d
       -0.02240451 0.002956413 0.07221928 0.101885885
000010 b1 f9 35 be af 3d 92 bd 00 15 62 be 0c a2 ae 3d
       -0.17771031 -0.071406715 -0.22078323 0.08527002
000020 6a c3 84 bd cc 86 e9 bd a9 8d 77 be 75 3a 6e be
       -0.06482585 -0.114026636 -0.24175133 -0.23264487
000030 5e 69 82 3e 64 c0 6b be 33 15 7c be ec 64 5a 3e
       0.25471014 -0.2302261 -0.24617462 0.21327561
000040 e2 4a 86 3e 02 56 7b 3e 3a bc 83 be 1f 44 8c bd
       0.26229006 0.24544528 -0.25729543 -0.068489306
000050 fe aa 6e be 98 6f df bd 68 9f 07 bd 2c ff a5 bc
       -0.23307416 -0.10909957 -0.033111006 -0.020263277
000060 d5 fa 92 bd 82 5e 1c 3e e4 27 3e bc ba d9 9a 3e
       -0.07176749 0.15270427 -0.01160619 0.30244237
000070 0f e2 02 bd 06 28 86 be 4b 1a 3c 3d 9f 41 3f bd
       -0.031953868 -0.2620241 0.045923512 -0.04669344
000080 d6 c2 c4 bc 13 a0 23 3e 3c bd a2 ba d6 8f 6a 3e
       -0.024018686 0.15979032 -0.0012416015 0.22906432
000090 53 e5 f1 3d 4d 38 91 3e da 64 a2 be 0f 46 7a be
       0.11811318 0.28363267 -0.3171757 -0.24440788
0000a0 0f 7e 69 3e ce 19 e8 bd 38 e6 66 3d 60 0a 82 be
       0.22801994 -0.11333047 0.056371897 -0.2539854
0000b0 33 a3 44 be 4e c4 eb 3d e1 cd 08 3e f9 71 30 be
       -0.1920288 0.115120515 0.13359787 -0.17230977
0000c0 83 d0 82 3e 47 dc 7f be 8b f0 84 be 7e d0 40 3e
       0.25549707 -0.24986373 -0.2596477 0.18829533
0000d0 07 3e 10 3d 2d 78 a1 3e 05 ea 79 3e 37 bf dd bb
       0.035215404 0.31537 0.24405678 -0.0067671794
0000e0 ba 52 d7 bd 6f d0 a1 be c0 cb 08 be 45 8c 80 3e
       -0.10513826 -0.31604335 -0.13358974 0.25107017
0000f0 6c 89 84 3e e0 19 35 be 87 ea d1 bb c0 4f d1 bc
       0.25886095 -0.17685652 -0.0064061317 -0.025550723
000100 a8 00 84 be d0 0e b8 3e 99 15 02 3e fc 41 9a 3d
       -0.2578175 0.359488 0.12703551 0.07532117
000110 46 e2 a9 be 26 b6 d9 bc 93 01 7e 3d 2a 6a d1 3d
       -0.33180445 -0.026576113 0.06201322 0.10225327
000120 8d 85 51 38 c5 ea 10 be 96 3a 91 be c9 5f a9 3e
       4.9953862e-05 -0.14152057 -0.2836501 0.3308089
000130 b0 8c 36 3e 8e 6d a9 3d e4 f0 a0 3e cd 67 76 3e
       0.17827106 0.08272849 0.31433785 0.24063034
000140 00 d0 26 3e fb 26 12 bd 7b 46 e5 bd 3f e6 3e bd
       0.16290283 -0.035681706 -0.11195084 -0.0466063
000150 ef 55 cd bd fa bc 28 bd 0d 9a 3a be b2 e9 95 3e
       -0.10026156 -0.041195847 -0.18222828 0.29279858
000160 c9 0c be 3e 40 2c a4 3d fc c1 1e be cc 94 ec bc
       0.3711913 0.080162525 -0.15503687 -0.028879546
000170 8e f3 7a 3e fe a3 9c 3e 5b 4f d6 bd 6b 38 8d bd
       0.24506971 0.30593866 -0.104643546 -0.068955265
000180 71 a7 5b be 55 e6 6c be be c4 0b be e3 7b 9d 3d
       -0.21450593 -0.2313474 -0.1364927 0.07689645
000190 de 04 87 3d 1b 26 8c 3d bc f7 de 3d a7 eb 6b 3e
       0.06592725 0.068432055 0.10887095 0.23039113
0001a0 51 29 7f be 35 aa 7f be 37 cc 60 3e 54 64 5b 3e
       -0.24918105 -0.24967273 0.21952902 0.21424991
0001b0 e3 d5 ce bd 82 dc 52 be 21 f2 1e bc 98 f1 da bc
       -0.100993894 -0.2059193 -0.009701283 -0.026726529
0001c0 ca 37 b6 3d 89 01 47 be b7 44 05 3e a3 76 aa 3e
       0.0889736 -0.1943418 0.13014494 0.33293638
0001d0 93 16 88 3e ff 3f f7 3d f3 0a 64 3e 26 47 2a 3e
       0.26579723 0.12072753 0.22269802 0.16628703
0001e0 4a 31 87 be 2b a0 4d be ee 9b 96 bd 81 48 62 3e
       -0.26404792 -0.2008063 -0.0735396 0.2209797
0001f0 50 00 8e be b7 95 3f 3d 03 e5 57 3e 00 4f 3b 3e
       -0.27734613 0.04677364 0.21083455 0.18291855
000200 b6 b0 a2 3d 64 1d 83 bd 1a 1d 54 3e 4f df ae 3d
       0.07943861 -0.0640209 0.20714226 0.085386865
000210 e0 fd 2c bd ce 85 cc bd 19 a4 81 3d 70 04 13 3e
       -0.0422343 -0.09986459 0.06330127 0.14357162
000220 20 5c 16 3d 64 93 61 be 82 6b 48 be 56 1a 74 be
       0.03670895 -0.22028881 -0.19572261 -0.23838171
000230 9a cc c4 3d cc af 1f bd 89 cd 8b be 96 d7 80 be
       0.09609337 -0.038986012 -0.27305248 -0.2516448
000240 3a 39 68 3d 4f 4f f5 bd 41 99 ea 3d 21 fb 8c be
       0.0566952 -0.119780175 0.11455012 -0.27535346
000250 0a dd 56 bd a1 d0 22 3e 13 b0 fb bd cc c8 0a be
       -0.052456893 0.15899898 -0.12289443 -0.1355316
000260 29 db 8b bd 01 f7 65 bd 20 2f a4 3c 79 69 d5 3c
       -0.06828911 -0.056143764 0.020042002 0.02605127
000270 6e ce 22 3e fa 29 5f be 2c 3d 28 3d 74 0c 96 3c
       0.15899059 -0.21793357 0.041073963 0.018316485
000280 fd d7 b6 bd 54 e5 c1 3d b5 97 9b be 39 03 8a be
       -0.08927915 0.09467569 -0.3038918 -0.26955584
000290 a4 db 3b 3e 3b f9 98 be db 56 88 bc 90 28 04 be
       0.18345505 -0.29877648 -0.016642978 -0.12906098
0002a0 d7 3b 6f bd 9d f8 87 3e ce dd 16 3c cc 5b 88 bd
       -0.058406677 0.26556864 0.009208156 -0.06658134
0002b0 f8 10 18 3e d1 15 1c 3e c8 79 21 be 07 e5 1f be
       0.14850223 0.15242697 -0.15769112 -0.15614711
0002c0 5f ba 0c 3e 6e 0e e7 bb 7c 51 e2 3d 4d 48 45 be
       0.1374297 -0.0070512807 0.11050698 -0.19265862
0002d0 20 07 7a 3e 26 2d 4d bd 8f f3 3a be 30 6f 56 be
       0.2441678 -0.050091885 -0.18256973 -0.20940852
0002e0 b5 ef f1 bc 43 d1 ca 3d 5c fd 87 be 09 a9 96 bd
       -0.029533247 0.09903195 -0.26560485 -0.0735646
0002f0 f2 71 84 bc b8 86 40 bd b2 37 97 be 61 07 62 be
       -0.016167615 -0.047003478 -0.2953468 -0.22073127
000300 04 e0 3e be 6c cd 10 bc 28 2b 52 be 02 59 45 be
       -0.18640143 -0.008838039 -0.20524275 -0.19272235
000310 49 85 28 3e 62 a1 90 be 01 a5 76 3e 88 ee 31 3e
       0.16457094 -0.28248125 0.24086381 0.17376149
000320 fb bd 4c be 04 1f 92 bd 19 b7 37 3d 7b 43 19 3e
       -0.19994347 -0.07134822 0.04485235 0.14967148
000330 08 99 23 3e 0f 1a 04 3e 50 f6 cf bd ca 2d 85 3d
       0.15976346 0.12900566 -0.10154402 0.06502874
000340 5a b1 80 be bf 63 1f 3e 6c eb ec bc b3 b0 34 be
       -0.25135309 0.15565394 -0.028920852 -0.1764553
000350 8d d0 12 3e 60 4c 58 3e 78 0d c4 3d 3b 26 34 3e
       0.14337368 0.21122885 0.095728815 0.17592709
000360 69 e9 9e be 56 3a e3 3d c7 2d 4c be a7 1d 8e 3e
       -0.31037453 0.11095111 -0.19939338 0.27756998
000370 7f 97 89 3e 2d 15 66 be f4 c4 51 3e 71 cb 0c ba
       0.26873395 -0.22469015 0.20485288 -0.00053708913
000380 6a 95 26 be 87 e9 c1 3d 63 23 a9 be e4 c3 eb bd
       -0.16267934 0.0946837 -0.3303481 -0.115119725
000390 99 10 0e 3e 8a d2 52 3e e1 88 49 be e6 4b 47 bc
       0.13873519 0.20588127 -0.19681121 -0.012164092
0003a0 78 a2 44 3e c1 fe ab bd 15 e1 3b be 30 89 14 be
       0.19202602 -0.083982 -0.1834758 -0.14505458
0003b0 b7 9b b8 3d 6f 34 63 be 99 1a 67 3e 0e 92 53 3c
       0.09014075 -0.2218797 0.2256874 0.01291324
0003c0 cf 36 a7 3e 33 ce 70 be 61 c3 21 3e 46 93 56 3e
       0.32659003 -0.23516159 0.15797187 0.20954618
0003d0 f2 6e 0b 3e d6 b6 60 be ed 40 e0 bd b7 46 d0 bc
       0.13616541 -0.21944746 -0.109498836 -0.025424344
0003e0 93 6f 54 3e 25 d1 4f be 44 db cc 3d 41 40 97 3d
       0.20745687 -0.20294626 0.10002759 0.07385302
0003f0 7d 3b 02 be 8a 0f c5 be 71 49 fc bc f9 63 fc bd
       -0.12718005 -0.38488418 -0.030796738 -0.12323756

nnECG.8.bias f4 [16]
000000 52 9b e0 3c c3 f3 0b 3d 41 05 86 3c c8 f7 5b 3c
       0.027417812 0.034168016 0.016359927 0.013425775
000010 fe fa c1 3c 5d 87 36 ba d1 17 f9 3c c7 f5 79 bc
       0.023679253 -0.000696292 0.030406864 -0.015256352
000020 4f 8f 86 bc 71 f0 3c 3c bb 93 8c 3c b2 4b 0c 3c
       -0.016425757 0.011531935 0.017160287 0.008562969
000030 90 68 6a bb a3 3f 04 3d 6a 61 95 3c d1 2b de 3c
       -0.003576789 0.03228725 0.018234927 0.027120503

nnECG.9.weight f4 [16]
000000 b8 e7 82 3f 1b 31 90 3f d8 e3 85 3f 16 b2 86 3f
       1.0226965 1.1264986 1.0460157 1.0523098
000010 04 e2 81 3f 04 ef 83 3f 51 6b 7d 3f 33 9b 8b 3f
       1.01471 1.0307317 0.98991877 1.0906738
000020 29 88 7d 3f ac a3 8e 3f 99 d3 6f 3f be 84 84 3f
       0.9903589 1.1143699 0.9368225 1.035301
000030 22 40 8a 3f e2 e4 8d 3f 03 54 85 3f 62 67 84 3f
       1.0800822 1.1085474 1.0416263 1.034405

nnECG.9.bias f4 [16]
000000 f2 21 3a 3b ef db 04 3d 96 ed 45 3c 12 a4 04 bc
       0.002840158 0.032436308 0.012080571 -0.008095758
000010 7c 0e 79 3b bf 5d d7 3b 92 93 35 3d c5 44 91 bc
       0.0038003018 0.0065724547 0.044330187 -0.017732987
000020 90 5e d1 bc f4 65 81 bb d6 f7 87 bc d5 9a 83 3c
       -0.025557786 -0.0039489213 -0.01659767 0.01606504
000030 06 3c 16 b9 79 ab 88 3c 43 cf 94 bc 97 a1 85 bb
       -0.00014327475 0.016683327 -0.018165236 -0.004078101

nnECG.9.running_mean f4 [16]
000000 20 00 f8 bd 46 14 bc bc 8f 4a 2a bf e5 59 38 3e
       -0.12109399 -0.022958886 -0.6652002 0.18003042
000010 38 60 9e 3e e9 06 27 3e 1a aa 67 3f b0 a0 ff 3c
       0.30932784 0.1631123 0.9049393 0.031204551
000020 93 77 0a be c7 a6 b6 bc 82 83 b0 3e 7f 57 b5 be
       -0.13522176 -0.022296323 0.34475332 -0.35418317
000030 e5 47 a8 be 72 9b 1b 3f 6d 00 04 3f ee 9d 06 be
       -0.3286735 0.60784066 0.5156315 -0.13146183

nnECG.9.running_var f4 [16]
000000 3b 5b c4 3f b9 88 b0 3f b0 0b c5 3f 52 fe bf 3f
       1.5340341 1.3791724 1.5394192 1.4999487
000010 1d be ca 3f 6e be 91 3f 2f 21 f6 3f b3 8c ab 3f
       1.5839268 1.138624 1.9228877 1.3402313
000020 48 6c f9 3f c9 70 cc 3f e8 dd dc 3f 17 aa 0f 40
       1.948617 1.5971919 1.725522 2.2447565
000030 82 dc cb 3f 53 1b ca 3f c9 c9 c4 3f 42 80 e2 3f
       1.5926669 1.5789589 1.537408 1.7695391
