Models/net_2_0_epoch_81.pth (torch, 57997 bytes, 25 tensors)

nnECG.0.weight f4 [128, 12]
0	0x3dbd718f	0.09250175
1	0xbd1fcfe7	-0.03901663
2	0x3daf8e7d	0.08572099
3	0xbe143683	-0.1447392
4	0xbcad8276	-0.021180373
5	0xbdd3d0b8	-0.10342544
6	0xbd3bf017	-0.045883264
7	0x3cc77064	0.024345584
8	0x3dd9b3f7	0.10630029
9	0x3db55155	0.088534035
10	0xbe331711	-0.17489268
11	0xbe0206a3	-0.12697844
12	0x3da0b885	0.07847694
13	0x3e0d38ba	0.1379117
14	0xbda84c56	-0.08217685
15	0xbe117613	-0.14205198
16	0xbe863298	-0.26210475
17	0x3de0def9	0.10980029
18	0x3e3903c6	0.18067846
19	0x3e31bf48	0.17358124
20	0x3e4079c4	0.1879645
21	0xbe39b769	-0.18136372
22	0x3deaefc6	0.114715144
23	0xbcaf4ad8	-0.021397993
24	0x3e66c33f	0.22535418
25	0x3d3b7b64	0.04577197
26	0x3e33c824	0.17556816
27	0xbbd9ac46	-0.006642851
28	0xbe3a095f	-0.18167637
29	0x3d4497da	0.04799638
30	0x3dad10a7	0.08450442
31	0x3e383155	0.17987569
32	0x3c0c2504	0.008553747
33	0x3e038f74	0.12847692
34	0x3e3057c3	0.17220978
35	0xbcbf7023	-0.0233689
36	0xbdf4279f	-0.119216196
37	0xbe0b7cfc	-0.13621897
38	0x3e0af17d	0.13568683
39	0x3e558139	0.20850076
40	0x3e38b965	0.18039472
41	0x3def2551	0.116770394
42	0x3bb54c7d	0.0055327998
43	0xbe38534b	-0.18000524
44	0x3d2df4ab	0.04246966
45	0x3d10bebb	0.035338145
46	0xbd9f4a0c	-0.07777795
47	0xbdaa95af	-0.08329331
48	0x3db4f7e3	0.08836343
49	0xbd92482e	-0.071426734
50	0xbe3e27dd	-0.18569894
51	0x3cadc816	0.021213572
52	0xbe458d67	-0.19292222
53	0xbd3da454	-0.046299294
54	0x3e6ee51a	0.23329583
55	0xbe52fe21	-0.20604755
56	0x3e306567	0.17226182
57	0xbd0ba715	-0.03409489
58	0xb9a1a3f0	-0.00030830456
59	0x3d16b5e9	0.036794577
60	0x3d15b66c	0.036550924
61	0xbe141a81	-0.14463235
62	0xbd5de613	-0.054174494
63	0xbe09f0f1	-0.13470818
64	0x3dbbcbea	0.09169753
65	0xbe203f44	-0.15649134
66	0xbdf3153f	-0.11869287
67	0xbc5db004	-0.013530735
68	0xbd30e08f	-0.043182906
69	0x3e534089	0.20630087
70	0xbce17bab	-0.02752479
71	0x3cbb895b	0.022892645
72	0x3d8829e0	0.06648612
73	0x3e8171d2	0.2528215
74	0xbe03bc8d	-0.12864895
75	0xbc924704	-0.017856129
76	0x3c920a90	0.017827302
77	0x3e33d560	0.17561865
78	0x3de8423c	0.11340758
79	0x3d944191	0.07239068
80	0xbe408767	-0.18801652
81	0x3e47b521	0.19502689
82	0xbc7a8149	-0.015289613
83	0xbe05ea7b	-0.13077728
84	0xbe10b6c7	-0.14132224
85	0xbdf1e3ca	-0.118110254
86	0xbe5cb05a	-0.21551648
87	0x3cb59028	0.022163466
88	0x3cdc369f	0.026881514
89	0xbdd41235	-0.10355035
90	0x3d5002f5	0.05078407
91	0xbcbcdec2	-0.023055438
92	0x3d5b0d87	0.053479698
93	0x3d64e9ea	0.05588714
94	0xbd61340d	-0.05498128
95	0xbe588136	-0.2114304
96	0xbe2d45f2	-0.16921213
97	0x3e1d0263	0.15332942
98	0xbcc66227	-0.024216725
99	0x3e4fc48c	0.2028982
100	0x3e950bb8	0.29110503
101	0xbd19d187	-0.037553336
102	0xbdc4fe1f	-0.09618782
103	0x3c2cd1c4	0.010548059
104	0xbe63e677	-0.22255884
105	0x3e26d8b7	0.16293608
106	0x3e886a68	0.26643682
107	0xbe0c93b4	-0.1372822
108	0x3e078111	0.13232829
109	0xbe687401	-0.22700502
110	0x3e0b51e4	0.13605458
111	0x3dd61e4b	0.10454997
112	0x3da3e7f2	0.080032244
113	0x3e317b49	0.17332186
114	0xbe2f31cf	-0.17108844
115	0x3dc7196f	0.09721648
116	0x3dba38a3	0.09092834
117	0x3e79064e	0.24318811
118	0x3c5598e2	0.013036938
119	0xbe387df7	-0.18016802
120	0x3d44b823	0.04802717
121	0x3dd09b82	0.10185911
122	0x3db8738e	0.09006415
123	0x3c91ba44	0.017789014
124	0x3d182562	0.037145026
125	0xbe728b7d	-0.23686023
126	0xbd5a17ab	-0.053245228
127	0x3e617ff2	0.22021464
128	0x3d86cbfa	0.06581874
129	0xbdd03994	-0.10167232
130	0x3df338ab	0.11876043
131	0xbd84b6f6	-0.064802095
132	0xbe270cba	-0.16313449
133	0xbdad0556	-0.084482834
134	0x3da97f5f	0.08276247
135	0xbdb99c48	-0.090630114
136	0x3dbef1db	0.09323474
137	0xbd82dc26	-0.06389646
138	0x3dd35fe9	0.10321028
139	0x3d9a7a53	0.07542863
140	0x3d83acd4	0.06429449
141	0xbd841054	-0.06448427
142	0x3cea69eb	0.028614959
143	0xbdbed07f	-0.09317111
144	0x3dddd0af	0.10830819
145	0xbdbd481b	-0.09242269
146	0x3e0a45f4	0.13503247
147	0x3e3e6a2d	0.1859519
148	0x3e2856f5	0.16439421
149	0x3c840650	0.016116291
150	0xbe39ac9b	-0.1813225
151	0xbd6c0f44	-0.057631746
152	0xbe436216	-0.19080386
153	0x3e614ee7	0.22002755
154	0xbc95693a	-0.018238652
155	0x3e2fbb61	0.17161323
156	0xbcd287a5	-0.025699446
157	0xbcd72540	-0.02626288
158	0xbe2337d5	-0.15939267
159	0x3b829a16	0.0039856536
160	0x3d69adc6	0.05705049
161	0x3d65dbef	0.05611795
162	0xbd8c63bc	-0.0685496
163	0x3dcd74a8	0.10032016
164	0xbda66e9f	-0.08126568
165	0xbd4bcf89	-0.049758468
166	0x3e49cdb3	0.19707374
167	0x3dbb6170	0.09149444
168	0xbe3034a7	-0.17207585
169	0xbeb2b7e4	-0.34905922
170	0x3df05c46	0.1173635
171	0xbcfc01df	-0.030762611
172	0x3eab6eac	0.33482873
173	0x3e56ab1b	0.20963709
174	0x3dab2484	0.08356574
175	0x3e227f1a	0.15868798
176	0xbe60a620	-0.21938372
177	0x3e08fc7b	0.13377564
178	0x3e5145be	0.20436761
179	0xbe108df5	-0.14116652
180	0x3de09ccf	0.10967409
181	0xbe6c0e50	-0.23052335
182	0x3d9799ff	0.07402419
183	0x3e6ba222	0.23011068
184	0xbda528e5	-0.08064441
185	0x3e322585	0.17397125
186	0xbe376732	-0.1791046
187	0x3e540e07	0.20708476
188	0x3e266c9d	0.1625237
189	0x3d2770ec	0.040879175
190	0xbd6b36c9	-0.057425294
191	0x3d885c00	0.066581726
192	0x3e6b70e0	0.22992277
193	0xbe4e84aa	-0.20167795
194	0x3e638996	0.22220454
195	0x3dbaf87f	0.09129428
196	0xbc901371	-0.017587395
197	0xbd8a4826	-0.067520425
198	0xbdf90323	-0.121588014
199	0x3e421d2c	0.1895644
200	0x3e142cd0	0.1447022
201	0xbc3e9352	-0.011631804
202	0x3cf93895	0.030422488
203	0x3e732b8b	0.23747079
204	0xbdf0702b	-0.11740144
205	0xbec468b2	-0.38361126
206	0x3e29a31c	0.16566128
207	0xbd11e176	-0.035615407
208	0xbd41d04f	-0.0473178
209	0x3c3ec64c	0.011643957
210	0xbe65ca31	-0.22440411
211	0xbddaf12c	-0.10690531
212	0xbe614da5	-0.22002275
213	0x3e3740c3	0.17895798
214	0x3e093333	0.13398437
215	0xbdefe5cd	-0.11713753
216	0x3c96b8b9	0.01839863
217	0x3c6463f0	0.013939843
218	0x3ceba7a1	0.028766455
219	0xbde03850	-0.10948241
220	0xbe4c7a56	-0.19968542
221	0xbe563a14	-0.20920593
222	0x3e66a26b	0.22522895
223	0x3d8b2de3	0.067958616
224	0x3e7351f0	0.23761725
225	0x3ca177fb	0.019710531
226	0xbd213573	-0.039357614
227	0xbd22bede	-0.039732806
228	0x3d26b118	0.040696234
229	0xbe2329af	-0.1593387
230	0xbe73483b	-0.23758022
231	0x3e0a1f93	0.13488607
232	0xbdcff437	-0.10154002
233	0x3e51a316	0.20472369
234	0x3e57a74c	0.21059912
235	0xbca5c22b	-0.020234188
236	0x3d9c79e2	0.07640435
237	0x3d84686d	0.0646523
238	0xbd5ece26	-0.054395817
239	0x3e1a0c9e	0.15043876
240	0xbbafd18b	-0.0053655556
241	0x3e1a8fd4	0.15093929
242	0x3b8ae0e8	0.0042382367
243	0xbce24379	-0.027620064
244	0xbda75b6d	-0.08171735
245	0x3ca0fdfa	0.019652355
246	0xbc9b4d5c	-0.018957786
247	0x3dd99c24	0.106254846
248	0xbe0481dc	-0.12940162
249	0x3e3f87f1	0.18704201
250	0x3e70380c	0.2345888
251	0x3d8a3b5a	0.06749602
252	0x3e540ccc	0.20708007
253	0xbe80109c	-0.25012672
254	0xbe224e68	-0.15850222
255	0x3ddd7035	0.108124174

nnECG.0.bias f4 [128]
0	0x3c14649b	0.009057189
1	0x3b692fa0	0.0035581365
2	0xbbb27dbf	-0.005447119
3	0x3adc5c65	0.0016812204
4	0x3c4d6689	0.012536653
5	0xbaa9a5e2	-0.0012943114
6	0xbbd3f1f8	-0.006468054
7	0x3c6270c4	0.013820831
8	0x3c687cd8	0.014189921
9	0x3c21fdd7	0.00988718
10	0x3c154807	0.009111411
11	0x3c1bc4d1	0.009507374
12	0x3ca94d03	0.020666605
13	0x3be3e47d	0.006954728
14	0x3c9ae3b4	0.018907405
15	0xbc2978e2	-0.010343762
16	0xbc355bef	-0.011069282
17	0x3c6b6222	0.014366658
18	0x3ca7028b	0.020386955
19	0x3bf7dc67	0.007564116
20	0x3b8ff503	0.0043932213
21	0x3acd27a6	0.0015652075
22	0x3c8e27f3	0.017353034
23	0xbb995730	-0.004679583
24	0xbaf43706	-0.0018632121
25	0x3b3318df	0.0027328057
26	0x3c3be930	0.01146917
27	0xbb88b858	-0.004172366
28	0x3cfc0b5c	0.030767135
29	0x3a1375b4	0.0005625144
30	0x3d055745	0.03255393
31	0xbb54d48a	-0.0032475316
32	0x3cdca991	0.026936324
33	0x3bcdc634	0.006279731
34	0x3c9e64a2	0.019335095
35	0x3cac3a14	0.021023788
36	0x3bb2001b	0.0054321415
37	0x3c3f59c1	0.011679114
38	0xbaef9476	-0.0018278498
39	0xbc259cd2	-0.01010819
40	0x3bf1a5f2	0.0073745186
41	0x3ba432a8	0.0050109215
42	0xbc3d386f	-0.011549099
43	0x3cf1e05f	0.029525934
44	0xbbdd7ac5	-0.00675902
45	0x3c58bc1c	0.0132284425
46	0x3c66e922	0.014093669
47	0x3c1c2742	0.009530844
48	0x3caacafb	0.020848742
49	0x3b1d6332	0.0024015424
50	0xb7bf7c39	-2.282682e-05
51	0xbc0ef92a	-0.0087263975
52	0xbbab87f1	-0.0052347113
53	0x3ad08e50	0.0015911553
54	0x3b4627ab	0.0030236046
55	0x3c9ba0fb	0.01899766
56	0xbbf3edd5	-0.0074441233
57	0x3c282bc9	0.010264345
58	0x3ce1dab0	0.027570099
59	0xbbbec81d	-0.005822195
60	0x3bda250f	0.0066572498
61	0x3cb22dab	0.021750292
62	0x3c9eb6c0	0.019374251
63	0x3cbe839d	0.023256117
64	0x3cdee3fb	0.027208319
65	0x3b634c6b	0.0034683
66	0x3c3bea7a	0.011469478
67	0x3bf2c922	0.007409231
68	0x3cbd3733	0.02309761
69	0x3ba2b4ea	0.0049654143
70	0x3c304b37	0.01076012
71	0xbc49ee9c	-0.012324955
72	0xbc101564	-0.008794162
73	0xbb6ea77b	-0.0036415744
74	0xbc21bf34	-0.0098722465
75	0x39d6acff	0.00040946153
76	0x3d0d093d	0.03443264
77	0x3bc5a5fb	0.0060317493
78	0x3c10cb7c	0.008837577
79	0x3b3e28d6	0.002901604
80	0x3992fef4	0.00028037245
81	0x3c46c5c6	0.012132114
82	0xbb5e713a	-0.0033942
83	0x3cc28a4d	0.023747588
84	0x3b076e81	0.002066523
85	0x3c35bbd4	0.011092145
86	0x3cbdacf9	0.023153769
87	0x3c873dc2	0.01650894
88	0xbc3253b3	-0.010884213
89	0x3a0bd9da	0.00053348916
90	0xbc991c13	-0.018690145
91	0x3cf0f27f	0.029412506
92	0xbc1bfb17	-0.009520314
93	0x3c3a1afa	0.011358971
94	0x3caf0292	0.02136353
95	0xbc64c480	-0.013962865
96	0xb988128e	-0.00025953766
97	0x3bfa8e7e	0.007646381
98	0xbb174bfd	-0.0023086064
99	0x3ca84f2f	0.02054557
100	0x3bcdf2e8	0.00628506
101	0x3c9b9f1b	0.018996766
102	0xbbb791de	-0.0056021055
103	0xba1d4a0c	-0.00060001086
104	0x3c7eacda	0.015544141
105	0x3ca4428e	0.020051267
106	0xbb0e54b8	-0.0021717977
107	0x3b828868	0.003983546
108	0x3c7c3651	0.015393809
109	0x3cd112de	0.025521692
110	0xb936ffeb	-0.0001745221
111	0x3b98258d	0.0046431483
112	0x3b6978c5	0.0035624963
113	0x3ba258ab	0.0049544177
114	0x3c2e2c72	0.010630714
115	0xbc2c16ec	-0.010503512
116	0x3bc0ac56	0.005879919
117	0x3c126363	0.008934828
118	0x39f45973	0.00046605952
119	0x3b59ced4	0.0033234851
120	0x3cb9f257	0.022698564
121	0x3c8ef2c6	0.017449748
122	0x3c4d4e13	0.012530821
123	0x3c28407c	0.0102692805
124	0xbb5d3071	-0.0033750797
125	0x3c97447d	0.018465275
126	0x3be01a83	0.006839098
127	0x3cb30c8d	0.02185657

nnECG.1.weight f4 [128]
0	0x3f869518	1.051425
1	0x3f793176	0.97341096
2	0x3f8bf1c7	1.093316
3	0x3f75ec9b	0.96064156
4	0x3f90a2da	1.1299698
5	0x3f85cc0d	1.0452896
6	0x3f84b510	1.0367756
7	0x3f833494	1.025042
8	0x3f8c1c28	1.0946093
9	0x3f8246ef	1.0177897
10	0x3f7308e6	0.9493545
11	0x3f798621	0.9747029
12	0x3f89f751	1.07786
13	0x3f81238b	1.0088972
14	0x3f90fb44	1.132668
15	0x3f8b8cae	1.0902307
16	0x3f9dde73	1.2333511
17	0x3f85e534	1.0460572
18	0x3f8a0ed4	1.0785775
19	0x3f7c68eb	0.9859759
20	0x3f86b1df	1.0523032
21	0x3f902889	1.126237
22	0x3f877b15	1.0584437
23	0x3f821bc4	1.0164723
24	0x3f7b7317	0.9822249
25	0x3f69b37a	0.91289485
26	0x3f6e8306	0.93168676
27	0x3f774d63	0.9660246
28	0x3f7fdfd7	0.9995093
29	0x3f8e1b61	1.1102105
30	0x3f898a40	1.0745316
31	0x3f85bed1	1.0448858
32	0x3f8d6876	1.1047504
33	0x3f6f2755	0.9341939
34	0x3f81eef6	1.015105
35	0x3f872c58	1.0560408
36	0x3f8b9d79	1.0907432
37	0x3f7b137d	0.9807661
38	0x3f8afb16	1.0857875
39	0x3f8063f0	1.0030499
40	0x3f723d20	0.9462452
41	0x3f791331	0.9729491
42	0x3f8a625b	1.0811266
43	0x3f8e6973	1.112593
44	0x3f811062	1.0083125
45	0x3f8cced2	1.1000617
46	0x3f6f1d7a	0.9340435
47	0x3f832f96	1.0248897
48	0x3f89a62d	1.0753838
49	0x3f732cea	0.9499041
50	0x3f86e3a2	1.0538218
51	0x3f82faf0	1.023283
52	0x3f8c87ae	1.0978906
53	0x3f899c32	1.0750792
54	0x3f8111a7	1.0083512
55	0x3f83e273	1.0303482
56	0x3f8601b5	1.0469271
57	0x3f80a7eb	1.0051244
58	0x3f880119	1.0625335
59	0x3f7fd346	0.9993175
60	0x3f88a1a1	1.0674325
61	0x3f785e7d	0.9701918
62	0x3f808532	1.0040648
63	0x3f8282b9	1.0196143
64	0x3f8a7e5f	1.0819815
65	0x3f89cb71	1.076521
66	0x3f820206	1.0156868
67	0x3f88dd1d	1.0692478
68	0x3f8130e4	1.0093045
69	0x3f690745	0.9102672
70	0x3f899168	1.07475
71	0x3f8b415c	1.0879321
72	0x3f89189d	1.0710636
73	0x3f87ed79	1.0619346
74	0x3f77c0c4	0.9677851
75	0x3f81d854	1.0144143
76	0x3f87f28b	1.0620893
77	0x3f7c6138	0.98585844
78	0x3f8e4dac	1.1117454
79	0x3f8a194c	1.078897
80	0x3f89ecc0	1.0775375
81	0x3f8c8375	1.0977618
82	0x3f78b351	0.97148615
83	0x3f838c08	1.0277109
84	0x3f622ee4	0.883528
85	0x3f8c5834	1.0964417
86	0x3f83cfb4	1.0297761
87	0x3f899046	1.0747154
88	0x3f78ee82	0.97238934
89	0x3f872ebb	1.0561136
90	0x3f7d47e6	0.98937833
91	0x3f883653	1.0641578
92	0x3f80d15b	1.006389
93	0x3f82b202	1.0210574
94	0x3f8d0b03	1.1018986
95	0x3f791c63	0.9730894
96	0x3f998c95	1.1996027
97	0x3f6ea3e1	0.9321881
98	0x3f86caeb	1.0530676
99	0x3f7a78ab	0.97840375
100	0x3f8503b9	1.0391761
101	0x3f83561e	1.0260656
102	0x3f8c8dce	1.0980775
103	0x3f7791e9	0.96707016
104	0x3f86ce2c	1.0531669
105	0x3f897454	1.0738626
106	0x3f8c389d	1.0954777
107	0x3f874af7	1.0569752
108	0x3f83d24b	1.0298551
109	0x3f872a24	1.0559735
110	0x3f7c12b6	0.9846605
111	0x3f84b135	1.0366579
112	0x3f8042a8	1.0020342
113	0x3f7b6482	0.9820024
114	0x3f892a48	1.0716028
115	0x3f7dc485	0.9912799
116	0x3f7b9c37	0.9828524
117	0x3f8b1e6d	1.086866
118	0x3f778fd1	0.9670382
119	0x3f843a28	1.0330248
120	0x3f892399	1.0713989
121	0x3f83a67a	1.028518
122	0x3f8c705d	1.097179
123	0x3f8a0304	1.078217
124	0x3f82bae8	1.0213289
125	0x3f8285a1	1.019703
126	0x3f7f3522	0.9969045
127	0x3f8674a1	1.0504342

nnECG.1.bias f4 [128]
0	0x3b3ce010	0.0028820075
1	0xbb8d73ba	-0.004316774
2	0xbca68f7b	-0.020332089
3	0xbc585a3a	-0.013205105
4	0x3c397f23	0.011321816
5	0xbc92c1c0	-0.017914653
6	0xbc63d267	-0.013905144
7	0x3c0d75fa	0.008634085
8	0x3c6ff7db	0.014646496
9	0x3bbca628	0.005757112
10	0x3bd00ea2	0.0063494006
11	0xbaadffeb	-0.0013275122
12	0x3cb120ac	0.021622024
13	0xbc202b25	-0.009775911
14	0x3c52cc91	0.012866155
15	0xbc918afe	-0.017766472
16	0xbcb2b743	-0.021815902
17	0xbc2c877d	-0.01053035
18	0x3ba8c204	0.0051500816
19	0x3a7d5904	0.00096644484
20	0xbc07cdd0	-0.008288816
21	0xb94f2b1f	-0.00019757122
22	0xbb644263	-0.0034829609
23	0xbcabdb9e	-0.020978745
24	0xbc3b99a8	-0.011450209
25	0xbbba77c5	-0.005690547
26	0x3b47fb8e	0.0030514929
27	0xbc1ff059	-0.009761893
28	0x3c75f2e2	0.015011521
29	0xbc05e81d	-0.008173016
30	0x3c0173d8	0.007901154
31	0xbcf0684d	-0.02934661
32	0x3c2f4028	0.010696448
33	0xbc680479	-0.014161223
34	0x3bb1fe61	0.0054319357
35	0x3c592c18	0.013255142
36	0xbaa712c4	-0.0012746681
37	0x3b9b7715	0.0047444203
38	0xbb10ae5c	-0.0022076583
39	0xbcc6b234	-0.024254896
40	0x3b1022d0	0.0021993406
41	0x39cf28cc	0.00039512513
42	0xbcd62e5b	-0.02614515
43	0x3c9ff742	0.019527081
44	0xbc494b4b	-0.012286018
45	0xbb8b9819	-0.004260075
46	0x3cb4e97e	0.022083994
47	0x3c48e4a1	0.012261541
48	0x3c93ee24	0.01805789
49	0xba2ac453	-0.000651424
50	0xbc43f6d4	-0.011960704
51	0xbccb143f	-0.024789928
52	0xbc6d831c	-0.014496591
53	0xbc4b1219	-0.012394452
54	0xbb26ce17	-0.002545243
55	0x3bd8f835	0.0066213855
56	0xbc254481	-0.010087133
57	0xbc0e311f	-0.008678704
58	0x3963872e	0.00021698765
59	0xbc7e2ef7	-0.015514127
60	0xbc451857	-0.012029729
61	0xbafa433d	-0.0019093525
62	0x3c3318d1	0.01093121
63	0xbb6f8da7	-0.0036552937
64	0x3ccf5c47	0.025312556
65	0xbbce1e65	-0.0062902444
66	0xbbd01cef	-0.0063511054
67	0x3b5f4721	0.0034069496
68	0xbc02dfa5	-0.007987891
69	0xbc41f1f3	-0.01183747
70	0x3c27cbb1	0.010241435
71	0xbc21a09d	-0.009864953
72	0xbcbc6f29	-0.023002224
73	0xbc3463c2	-0.011010112
74	0xbbda864c	-0.0066688415
75	0xbb5506b4	-0.0032505216
76	0x3ce6b0d1	0.028160485
77	0xbcbbf7bb	-0.022945276
78	0xbc497aa9	-0.012297311
79	0x3c6dc0ef	0.014511331
80	0xbb21581e	-0.0024619172
81	0x3c139506	0.009007698
82	0xbc9fd084	-0.019508608
83	0x3c843a2a	0.016141016
84	0xbc956d8b	-0.01824071
85	0xbbdefda3	-0.006805138
86	0x3c7106c3	0.014711085
87	0x3c6750b6	0.014118364
88	0xbca21ce1	-0.019789161
89	0xbc65ca05	-0.014025216
90	0xbd0bce07	-0.03413203
91	0x3c59e252	0.013298588
92	0xbc8567ae	-0.01628479
93	0xbc3c4aef	-0.011492475
94	0x3bdf229a	0.0068095447
95	0xbca187ef	-0.019718139
96	0xbcb7d1f0	-0.022438973
97	0xbc364b82	-0.011126401
98	0xbc786124	-0.015159879
99	0xbbb0f7d8	-0.005400639
100	0xbc7db02a	-0.015483895
101	0x3c7bd018	0.015369438
102	0x39b95192	0.00035346724
103	0x3733b37a	1.0711019e-05
104	0x3bc23c6d	0.0059276135
105	0x3c49fa64	0.012327764
106	0xbc862071	-0.016372891
107	0xbbe84233	-0.0070879697
108	0xbbbe1c70	-0.00580173
109	0x3ce0028c	0.027344964
110	0xbc39e642	-0.011346402
111	0x3b7b41fc	0.003833889
112	0xbc35aad6	-0.011088094
113	0xbc30d67a	-0.010793323
114	0x3c1036b9	0.008802109
115	0xbc95a2d2	-0.018266115
116	0xbba016a3	-0.004885511
117	0x3c5de3ad	0.013543052
118	0xbb8e619d	-0.0043451325
119	0xbb255d63	-0.0025232665
120	0x3c4ea56e	0.012612684
121	0x3be113ae	0.006868801
122	0xbb4c7847	-0.003119962
123	0x3c22d086	0.009937411
124	0xbcb4fad9	-0.02209227
125	0x3b36f08f	0.002791438
126	0xbc1cdebc	-0.009574588
127	0x3b98426d	0.0046465904

nnECG.1.running_mean f4 [128]
0	0x3c96e0e4	0.018417783
1	0x3f0af3e5	0.54278404
2	0x3f43b022	0.7644063
3	0xbcb17b13	-0.021665132
4	0x3e809d5b	0.25120053
5	0xbda48b04	-0.080343276
6	0x3ea663b6	0.32497948
7	0xbe0b87aa	-0.1362597
8	0xbe0ee29f	-0.13953637
9	0x3ed8cdfc	0.42344654
10	0x3d6b3e1b	0.057432275
11	0xbb83ba14	-0.004019985
12	0xbdf893fa	-0.12137599
13	0x3d0fdae3	0.035120856
14	0x3e56fb0c	0.20994204
15	0x3e96778a	0.29388076
16	0x3ebaa846	0.36456507
17	0xbe9db3e4	-0.30801308
18	0x3eb88f2c	0.3604673
19	0x3ebd65b6	0.36991662
20	0x3eb6f799	0.35735777
21	0x3e704119	0.23462333
22	0x3e8caf67	0.2747757
23	0x3e7050a9	0.2346827
24	0x3d6c75d7	0.05772957
25	0x3cf59c47	0.029981745
26	0xbe315448	-0.17317307
27	0x3e0b388d	0.13595791
28	0xbe23704c	-0.15960807
29	0x3ec45cd0	0.3835206
30	0xbef57f6e	-0.47948784
31	0x3de59672	0.11210336
32	0x3d862f0b	0.065519415
33	0xbc9645af	-0.018343775
34	0x3e3bd1c2	0.18341735
35	0xbe0be806	-0.13662729
36	0x3e09c8dd	0.1345553
37	0xbf2b2c0c	-0.66864085
38	0x3da1d120	0.079012156
39	0x3ede1d2f	0.4338164
40	0xbe515d58	-0.20445764
41	0xbf351745	-0.7073863
42	0x3e5527d9	0.20815982
43	0xbc820aee	-0.015874352
44	0xbdb69233	-0.08914604
45	0x3db08133	0.08618393
46	0xbecce23d	-0.40016356
47	0xbea893c9	-0.3292525
48	0xbe85e400	-0.26150513
49	0xbe8003fc	-0.2500304
50	0xbe86263a	-0.2620104
51	0x3d3d91bf	0.046281572
52	0x3da6143d	0.08109329
53	0xbe1f3ce1	-0.15550567
54	0x3d52333d	0.051318396
55	0x3e11d532	0.14241484
56	0xbe41147d	-0.18855472
57	0xbe900f79	-0.28136805
58	0xbe2ad239	-0.16681756
59	0xbeb17448	-0.34659028
60	0x3e3ea5f7	0.18617998
61	0x3c689c7f	0.014197468
62	0x3ebe8874	0.3721348
63	0xbe97c2f6	-0.2964093
64	0xbe467ff4	-0.19384748
65	0x3f03d715	0.51500064
66	0xbd6b8214	-0.0574971
67	0xbea95081	-0.33069232
68	0xbeb4251d	-0.35184565
69	0x3dd87827	0.10569792
70	0x3d9ed4d1	0.07755435
71	0x3e85d955	0.26142374
72	0x3f0f562f	0.5599088
73	0x3e6c71f8	0.2309035
74	0x3eed6125	0.46363178
75	0xbe43ce10	-0.19121575
76	0xbef1d212	-0.47230583
77	0xbc9bf838	-0.019039258
78	0xbcdded6e	-0.027090754
79	0x3e7ba303	0.24573903
80	0x3d17e37f	0.03708219
81	0x3e5b7082	0.21429637
82	0x3ce906e7	0.028445674
83	0x3cfc9739	0.030833827
84	0xbccefdef	-0.02526757
85	0xbdeabddd	-0.11461995
86	0xbea8e941	-0.3299046
87	0x3ea27526	0.31730002
88	0x3f094966	0.5362762
89	0x3bfb7fb3	0.007675135
90	0x3f1c94be	0.6116446
91	0x3e41a105	0.1890908
92	0x3e1a4078	0.15063655
93	0xbe8b9c61	-0.27267745
94	0x3ea5b85a	0.32367212
95	0x3e66db22	0.2254453
96	0x3e961307	0.29311392
97	0xbe387684	-0.1801396
98	0xbdee664d	-0.11640606
99	0xbed45c88	-0.41476846
100	0x3e5d3dd5	0.21605618
101	0x3a0ba838	0.0005327496
102	0x3c06cb4c	0.008227181
103	0xbd95f3c5	-0.07321886
104	0x3dcd39f1	0.10020817
105	0x3eb9f472	0.3631931
106	0xbeb6c189	-0.3569453
107	0x3e842bc0	0.2581463
108	0xbe8e5eeb	-0.27806792
109	0x3ded23ca	0.11579092
110	0xbe7d305c	-0.24725479
111	0xbd97b69f	-0.07407879
112	0xbeafd50d	-0.34342232
113	0xbdf1167f	-0.11771869
114	0x3db7689b	0.08955499
115	0x3ed0d94b	0.4079078
116	0xbe45fc4d	-0.19334526
117	0xbdb944b0	-0.09046304
118	0x3e2dc672	0.16970232
119	0xbe375aa8	-0.17905676
120	0xbd4762a2	-0.048678048
121	0x3d76556c	0.06014006
122	0xbe090aeb	-0.13383071
123	0xbc9e0db2	-0.01929364
124	0x3d93d43b	0.07218214
125	0x3e41528f	0.1887915
126	0xbe94b0c7	-0.2904112
127	0x3e0b8edb	0.13628714

nnECG.1.running_var f4 [128]
0	0x3d934455	0.07190768
1	0x3d9f5758	0.077803314
2	0x3d9f38c7	0.07774501
3	0x3d96dd5c	0.0736644
4	0x3d99411b	0.07483121
5	0x3d981f87	0.07427888
6	0x3d987a0c	0.074451536
7	0x3d97afe5	0.07406596
8	0x3d9944f0	0.07483852
9	0x3d9a8a70	0.07545936
10	0x3d9719ce	0.07377969
11	0x3d951706	0.07279782
12	0x3d978801	0.073989876
13	0x3d93700b	0.07199105
14	0x3d9a369f	0.075299494
15	0x3d9a48db	0.07533427
16	0x3d97c177	0.07409947
17	0x3da19f68	0.078917325
18	0x3d945e40	0.07244539
19	0x3d94f73c	0.07273719
20	0x3d9838af	0.074326865
21	0x3d972e4a	0.07381876
22	0x3d967c5a	0.07347937
23	0x3d957741	0.072981365
24	0x3da00dc5	0.07815126
25	0x3d96ca75	0.07362834
26	0x3d93e590	0.0722152
27	0x3d9506cb	0.07276686
28	0x3d964f74	0.07339373
29	0x3d9c25c0	0.07624388
30	0x3d980185	0.07422165
31	0x3d95b429	0.073097534
32	0x3d953a07	0.072864585
33	0x3d952448	0.07282311
34	0x3d98918b	0.07449635
35	0x3d957433	0.07297554
36	0x3d97f4e7	0.07419758
37	0x3d9aa978	0.07551855
38	0x3d98e063	0.07464673
39	0x3d95b27a	0.07309432
40	0x3d9559c2	0.072925106
41	0x3d9a7f03	0.07543757
42	0x3d9b2854	0.07576051
43	0x3d9d4bec	0.076804966
44	0x3da125e6	0.07868557
45	0x3d9824f9	0.07428927
46	0x3d94039d	0.07227252
47	0x3da2e6da	0.07954188
48	0x3d976de7	0.07394009
49	0x3d96a0c2	0.07354881
50	0x3d98080d	0.074234106
51	0x3d95769c	0.072980136
52	0x3d9b9feb	0.07598861
53	0x3d985b61	0.07439304
54	0x3d97b888	0.074082434
55	0x3d93620f	0.071964376
56	0x3d999c2c	0.075004905
57	0x3d99a7d7	0.07502716
58	0x3d9741e3	0.07385614
59	0x3d93fb08	0.07225615
60	0x3d94e1ab	0.07269605
61	0x3d942aca	0.07234724
62	0x3d93fe20	0.07226205
63	0x3d95e59b	0.073191844
64	0x3d960833	0.073257826
65	0x3d9648fa	0.07338138
66	0x3d9433f6	0.07236473
67	0x3d946efc	0.07247731
68	0x3d9ccf63	0.076567434
69	0x3d955587	0.07291704
70	0x3d952ea8	0.072842896
71	0x3da0fedf	0.07861113
72	0x3d98dd3c	0.07464072
73	0x3d9f4333	0.07776489
74	0x3d9e855e	0.077402815
75	0x3d9bf66c	0.076153606
76	0x3d987365	0.07443885
77	0x3d96f163	0.073702596
78	0x3d9b4785	0.07582001
79	0x3d97958b	0.0740157
80	0x3d9c6101	0.076356895
81	0x3d9cce97	0.076565914
82	0x3d99361d	0.074810244
83	0x3d96c003	0.07360842
84	0x3d9898aa	0.07450993
85	0x3d950e2b	0.07278093
86	0x3da3f0a4	0.08004883
87	0x3d9a8b2e	0.07546078
88	0x3d97188c	0.07377729
89	0x3d953279	0.072850175
90	0x3d9b5506	0.07584576
91	0x3d95f1d5	0.073215164
92	0x3d96eb62	0.073691145
93	0x3d9d7178	0.07687658
94	0x3d993d12	0.07482351
95	0x3d975e0b	0.07390984
96	0x3d97d1a4	0.07413033
97	0x3d952d7a	0.072840646
98	0x3d9dc6c8	0.0770393
99	0x3d94f438	0.072731435
100	0x3d951753	0.07279839
101	0x3d95d668	0.07316285
102	0x3d9624f4	0.07331267
103	0x3d960437	0.07325023
104	0x3d96ee46	0.07369666
105	0x3d95418a	0.07287891
106	0x3da1472b	0.07874902
107	0x3d996db1	0.07491625
108	0x3d96cd47	0.07363372
109	0x3d9408b3	0.07228222
110	0x3d960865	0.0732582
111	0x3d9dc3d3	0.07703366
112	0x3d94ee86	0.07272057
113	0x3d9467c4	0.07246354
114	0x3d9756c0	0.07389593
115	0x3d963528	0.073343575
116	0x3d98e960	0.07466388
117	0x3d9762a9	0.07391865
118	0x3d9402c4	0.0722709
119	0x3d964047	0.07336479
120	0x3d97990e	0.0740224
121	0x3d98b83f	0.07457017
122	0x3d940853	0.0722815
123	0x3d9607c8	0.07325703
124	0x3d96fbc8	0.07372242
125	0x3d978fd0	0.07400477
126	0x3d98b78a	0.07456882
127	0x3d9585a7	0.07300883

nnECG.4.weight f4 [64, 128]
0	0x3e1ed75f	0.15511845
1	0x3e011c9e	0.12608573
2	0x3e067549	0.13130678
3	0xbe238e40	-0.15972233
4	0xbe21e60c	-0.15810412
5	0x3dffb552	0.12485756
6	0xbdcbbc00	-0.099479675
7	0xbce09186	-0.027413141
8	0x3dee1a08	0.11626059
9	0x3e051086	0.12994584
10	0xbbea1429	-0.0071435166
11	0xbe09a5eb	-0.13442199
12	0xbdbe8347	-0.09302383
13	0xbdc03199	-0.0938446
14	0x3d5c2762	0.053748496
15	0x3ca3d2dd	0.019998008
16	0xbdc8c3ce	-0.09802972
17	0x3bab1b33	0.0052217483
18	0xbc9d9788	-0.019237295
19	0xbd45f94f	-0.048333462
20	0x3e558846	0.20852765
21	0xbe4d5a45	-0.20053966
22	0x3dce38a8	0.100694
23	0x3db689d0	0.089130044
24	0x3dd97eb1	0.106198676
25	0xbe2e89f2	-0.1704481
26	0xbd005a8c	-0.031336352
27	0xbe1cc68a	-0.15310112
28	0xbd6a822d	-0.05725305
29	0x3ddb7238	0.10715145
30	0xbe1558f1	-0.1458471
31	0x3e2ace04	0.16680151
32	0x3e2f2845	0.17105205
33	0xbdedf041	-0.116180904
34	0xbbcbf37f	-0.0062240954
35	0x3dc2d115	0.095125355
36	0x3e3902b4	0.18067437
37	0xbdb6c1b6	-0.08923666
38	0xbca729cc	-0.020405672
39	0x3ddd2230	0.107975364
40	0xbd5adc9e	-0.053433053
41	0x3d2b5308	0.04182723
42	0xbce8a0e5	-0.028397033
43	0xbe6106d3	-0.2197526
44	0x3d1b139a	0.03786049
45	0xbc573375	-0.013134827
46	0x3c1aa623	0.009439024
47	0xbbe2eb3c	-0.006925015
48	0x3e67f1f4	0.22650892
49	0xbdff67bd	-0.124709584
50	0x3b2c72bb	0.0026313502
51	0xbe0c5cda	-0.13707295
52	0x3dc0fd33	0.09423294
53	0xbdbd31a2	-0.09237982
54	0x3d1c0e79	0.03809974
55	0xbdb4123d	-0.08792541
56	0x3c20aef0	0.009807333
57	0xbbc28e2b	-0.005937358
58	0xbd23280f	-0.039833125
59	0xbba3f56a	-0.005003621
60	0xbcebfebb	-0.028807988
61	0xbcd9cad3	-0.026585972
62	0x3db33d46	0.08751921
63	0x3df6f2c9	0.12058026
64	0x3ce01e0b	0.027358076
65	0xbd3b9e12	-0.045805044
66	0x3e426f22	0.18987706
67	0x3e0e2cd2	0.13884285
68	0xbdae9dba	-0.08526178
69	0x3df19dcd	0.11797676
70	0x3e5471d2	0.20746544
71	0x3cf98fb8	0.030464038
72	0x3d995955	0.07487742
73	0xbe23ba9a	-0.15989152
74	0xbda19b21	-0.078909166
75	0x3df9dda0	0.12200475
76	0x3d94f290	0.072728276
77	0x3df33d93	0.11876979
78	0x3e127fbc	0.1430654
79	0xbdcc1095	-0.099641
80	0x3cf95f4d	0.03044095
81	0x3cf08439	0.029359924
82	0xbdfd6e4c	-0.12374553
83	0xbd269214	-0.040666655
84	0x3cb07bfb	0.021543493
85	0x3df147bb	0.117812596
86	0xbdea9994	-0.11455074
87	0x3bccb29a	0.006246877
88	0xbaecca29	-0.001806562
89	0x3da3c507	0.07996564
90	0xbe176963	-0.14786296
91	0x3dc12dee	0.094325885
92	0x3cb39537	0.021921737
93	0x3e2a3431	0.16621472
94	0x3dfef425	0.124489106
95	0x3d340983	0.043954384
96	0xbe193a2b	-0.14963596
97	0xbdbf14f7	-0.093301706
98	0xbe33309f	-0.17499016
99	0x3c615674	0.013753522
100	0x3cb4a772	0.0220525
101	0xbdc52f0f	-0.09628116
102	0x3dd506ff	0.10401725
103	0xbde280dd	-0.11059735
104	0xbd1a042e	-0.037601642
105	0xbe4a5aa6	-0.19761142
106	0xbcd025c8	-0.02540864
107	0xbd6fa707	-0.0585089
108	0x3d12cab4	0.035837844
109	0xbd573381	-0.052539352
110	0x3e0f3dc9	0.13988413
111	0xbdf21879	-0.11821074
112	0x3e085c6e	0.13316509
113	0xbdb5066d	-0.08839116
114	0x3da9807e	0.08276461
115	0x3de3c961	0.11122394
116	0x3d0fc7c2	0.035102613
117	0x3c5171a5	0.012783443
118	0x3e06fb28	0.13181746
119	0x3d8da365	0.06915931
120	0xbd27d4d9	-0.04097447
121	0x3d414ab1	0.047190372
122	0x3dcd373c	0.10020301
123	0x3d196157	0.037446346
124	0xbd8cef49	-0.068815775
125	0x3dc86954	0.09785715
126	0xbc197c86	-0.009368068
127	0x3d32f532	0.043690868
128	0x3d71007d	0.058838356
129	0x3d23249e	0.039829843
130	0x3ddee46c	0.10883412
131	0xbd89df6e	-0.06732069
132	0x3d8f4e4b	0.06997355
133	0x3e8bea24	0.27327073
134	0x3e0f683c	0.14004606
135	0x3e125034	0.14288408
136	0x3e086301	0.13319017
137	0xbba38322	-0.0049899975
138	0x3e1b6539	0.15175332
139	0xbe637527	-0.22212659
140	0xbd232180	-0.03982687
141	0x3d2034bf	0.039112803
142	0xbdaf9528	-0.08573371
143	0xbe1565d0	-0.1458962
144	0x3dca973c	0.09892127
145	0x3e5fd5ed	0.2185895
146	0xbe48d1ea	-0.19611326
147	0xbd7bfae0	-0.06151855
148	0x3e2427a8	0.16030753
149	0x3c98c5bc	0.018648975
150	0xbce924ed	-0.02845999
151	0x3d68beb3	0.05682249
152	0x3df2f5c6	0.11863284
153	0xbcfea183	-0.031082874
154	0xbe138145	-0.14404781
155	0x3e04d9a4	0.12973648
156	0x3a112523	0.0005536845
157	0xbba0ad80	-0.0049034953
158	0x3dd55046	0.104157016
159	0x3d7b709d	0.061386693
160	0x3e5cd6e5	0.21566351
161	0x3c8ceb51	0.017202051
162	0xbe1f37f5	-0.1554869
163	0xbd1a4ce5	-0.03767099
164	0x3e01e862	0.12686303
165	0xbb7210b1	-0.0036936218
166	0xbe0231b0	-0.12714267
167	0xbd9f10e3	-0.07766893
168	0x3e0ab653	0.13546114
169	0xbceef2f0	-0.029168576
170	0x3da3b130	0.0799278
171	0xbe707810	-0.234833
172	0x3d7f7586	0.06236794
173	0x3e83d7ba	0.25750524
174	0x3df83bf5	0.12120811
175	0x3e464524	0.19362313
176	0xbdb993e6	-0.090614125
177	0xbde1d07d	-0.11026094
178	0x3d0b31d2	0.03398306
179	0xbdfa5a91	-0.122243054
180	0x3e0af043	0.13568215
181	0x3df05535	0.11735002
182	0xbe0bc752	-0.13650253
183	0xbd9ee47d	-0.077584244
184	0x3e5cc1d5	0.21558316
185	0xbcc5c848	-0.024143353
186	0x3d5d50f1	0.05403227
187	0xbd964c1c	-0.073387355
188	0x3e7010d2	0.23443916
189	0x3d86a41c	0.0657427
190	0x3d042083	0.032257568
191	0xbc8b4f06	-0.017005455
192	0x3c12ba2a	0.008955518
193	0x3debb4a3	0.11509063
194	0x3c48f074	0.01226436
195	0xbe410698	-0.18850172
196	0x3d842c38	0.064537466
197	0xbcf9e0c4	-0.030502684
198	0x3e0f7924	0.14011055
199	0xbe26f81d	-0.16305585
200	0xbd170dab	-0.03687827
201	0xbc88de8f	-0.016707687
202	0xbe245d30	-0.16051173
203	0x3cad7be3	0.021177238
204	0xbe34404d	-0.17602654
205	0xbe35af6a	-0.17742696
206	0x3d6ee3fc	0.05832289
207	0x3ded8aaa	0.11598714
208	0x3e07d741	0.13265707
209	0x3e69ddd8	0.22838533
210	0x3c9104f7	0.017702563
211	0xbdea63fc	-0.11444852
212	0x3df6a4fd	0.12043188
213	0x3dde08d0	0.108415246
214	0x3bd0e559	0.0063749966
215	0xbe47dbb5	-0.19517405
216	0xbc13a91d	-0.009012488
217	0xbdf414c0	-0.1191802
218	0x3d3e0716	0.046393476
219	0x3db1761e	0.08665107
220	0x3d33cb64	0.04389514
221	0xbe15407d	-0.14575382
222	0x3dc4d6f2	0.0961131
223	0xbb11e88d	-0.0022263855
224	0x3e62e558	0.221578
225	0xbdfe5298	-0.12418097
226	0x3deb1868	0.114792645
227	0x3a34b12d	0.00068928563
228	0xbd57db6b	-0.052699488
229	0x3e0b6868	0.13614047
230	0x3e5853cb	0.21125714
231	0x3c0f5352	0.008747892
232	0xbc0ea644	-0.008706633
233	0x3d2e6a64	0.04258193
234	0xbd561cdc	-0.052273616
235	0x3df7dc83	0.12102606
236	0xbd92521f	-0.071445696
237	0xbe2de696	-0.16982493
238	0xbdfa60dc	-0.12225506
239	0x3d7c6967	0.061623957
240	0x3e130867	0.14358674
241	0xbdae9cc5	-0.08525995
242	0x3b10ffe0	0.002212517
243	0xbd45ba5f	-0.04827344
244	0x3e3b324b	0.18280904
245	0xbd8841b9	-0.066531606
246	0xbe083399	-0.13300933
247	0x3ca508e0	0.020145833
248	0xbce24e47	-0.027625216
249	0x3d0b77be	0.034049742
250	0x3d5c42f3	0.053774785
251	0xbd8d605f	-0.06903147
252	0x3d9ddced	0.07708154
253	0xbcae2fab	-0.021262964
254	0x3be2e92c	0.006924769
255	0x3cecfc23	0.028928822

nnECG.4.bias f4 [64]
0	0x3c6d2ad0	0.014475539
1	0x3c899f73	0.016799664
2	0xbba952ec	-0.0051673558
3	0x3d0220d8	0.031769603
4	0xbc045bca	-0.008078525
5	0x3c2c2b06	0.010508304
6	0xbb9ddeff	-0.004817843
7	0x3cfcb7c6	0.030849349
8	0x3c3e68dd	0.011621681
9	0xbc89a5dd	-0.016802723
10	0xbc85f9aa	-0.0163544
11	0xbc212540	-0.009835541
12	0xbcc57a11	-0.024106057
13	0x3d0bb54f	0.034108456
14	0x3c07847f	0.008271336
15	0xbd4695d1	-0.04848272
16	0xbd011c52	-0.03152115
17	0xbd50c616	-0.05097016
18	0xbc9d90c0	-0.019234061
19	0xbc48a31d	-0.0122459205
20	0x3d32a717	0.04361638
21	0xbbfe979a	-0.007769537
22	0x3d6e915b	0.05824409
23	0x3c85f545	0.016352305
24	0xbcc91d2d	-0.024550045
25	0xbd0cba1d	-0.03435718
26	0x3d545b78	0.051845044
27	0x3d210af6	0.039317094
28	0x3c27ffab	0.010253827
29	0x3cfb0454	0.030641712
30	0xbc92db59	-0.017926859
31	0xbbf7e307	-0.0075649056
32	0xbca9872e	-0.020694342
33	0x3c4dee6d	0.012569052
34	0x3cb932ce	0.022607233
35	0x3d27288e	0.04081016
36	0x3cae43ac	0.021272503
37	0x3bcde186	0.006282988
38	0x3c9bb722	0.019008223
39	0xbc1c62b3	-0.009545016
40	0xbc1b6c8e	-0.009486331
41	0x3cffdfc2	0.031234626
42	0xbd456eaa	-0.04820124
43	0xbc0389a9	-0.008028426
44	0x3bef1357	0.0072960067
45	0x3bf1b243	0.007375987
46	0x3d085604	0.033285156
47	0xbc356ee8	-0.011073805
48	0xbc9c6d62	-0.019095127
49	0x3d226713	0.03964908
50	0x3c0e25c4	0.008675996
51	0x3c5aac9f	0.01334682
52	0xbb009dd5	-0.0019625325
53	0x3d926dbf	0.07149839
54	0x3aacfc16	0.0013197686
55	0xbc3fa9fd	-0.011698243
56	0xbc874a05	-0.016514787
57	0xbb912083	-0.0044289245
58	0x3cced7c9	0.025249379
59	0xbc67b79f	-0.0141429
60	0xbcf65b12	-0.030072723
61	0xbc8630c1	-0.01638067
62	0x3b5b8abf	0.0033499447
63	0xbc0c1088	-0.008548863

nnECG.5.weight f4 [64]
0	0x3f84e85e	1.0383413
1	0x3f8c6816	1.0969265
2	0x3f85e602	1.0460818
3	0x3f92249c	1.1417422
4	0x3f87ce5a	1.0609848
5	0x3f8b1f40	1.0868912
6	0x3f900d34	1.1254029
7	0x3f85cd0d	1.0453202
8	0x3f8cfce3	1.1014675
9	0x3f88d04d	1.0688568
10	0x3f829321	1.020115
11	0x3f7ea6eb	0.99473447
12	0x3f89ce35	1.0766054
13	0x3f8ac58d	1.0841538
14	0x3f89c65b	1.0763658
15	0x3f7df9ea	0.99209464
16	0x3f839015	1.0278345
17	0x3f77638c	0.9663627
18	0x3f892ad6	1.0716197
19	0x3f83e8bc	1.03054
20	0x3f88bf19	1.0683318
21	0x3f83c1d3	1.0293525
22	0x3f93d311	1.1548787
23	0x3f8c96cb	1.0983518
24	0x3f842d58	1.0326338
25	0x3f8c96bd	1.0983502
26	0x3f780691	0.9688502
27	0x3f8d6174	1.1045365
28	0x3f82c1b9	1.021537
29	0x3f799b45	0.9750255
30	0x3f7c27d3	0.98498267
31	0x3f89dec5	1.0771109
32	0x3f897fda	1.0742142
33	0x3f999bb2	1.200064
34	0x3f8a1e45	1.0790488
35	0x3f83a900	1.028595
36	0x3f936376	1.1514728
37	0x3f80daac	1.0066733
38	0x3f94fbbf	1.1639327
39	0x3f81bc68	1.0135622
40	0x3f874094	1.0566583
41	0x3f8d3f80	1.1035004
42	0x3f82df33	1.0224365
43	0x3f839263	1.0279049
44	0x3f7fc1a6	0.9990486
45	0x3f9ef220	1.2417641
46	0x3f6cbad1	0.9247256
47	0x3f82afc3	1.0209888
48	0x3f8802da	1.062587
49	0x3f8455da	1.03387
50	0x3f89a0c5	1.0752188
51	0x3f873e9e	1.0565984
52	0x3f8eac43	1.114632
53	0x3f7f235e	0.9966334
54	0x3f8de0a1	1.1084176
55	0x3f93ddcd	1.1552063
56	0x3f7b458b	0.9815299
57	0x3f8099d0	1.004694
58	0x3f83784f	1.027109
59	0x3f81fe4c	1.015573
60	0x3f846d7c	1.0345912
61	0x3f8fae4a	1.1225064
62	0x3f8d61e0	1.1045494
63	0x3f8d8a84	1.1057897

nnECG.5.bias f4 [64]
0	0x3c19bc64	0.009383295
1	0x3c92d7c4	0.01792515
2	0xbc86f9d2	-0.016476545
3	0x3c222f52	0.009898977
4	0xbca34b42	-0.019933347
5	0xba9b1847	-0.0011832797
6	0xbc6bdb0f	-0.014395489
7	0x3c350080	0.0110474825
8	0x3b920fc2	0.004457445
9	0xbc9b7cf9	-0.01898049
10	0xbce7ff91	-0.028320106
11	0xbd1e36b7	-0.0386264
12	0xbcc71f54	-0.02430693
13	0x3c8e359e	0.017359551
14	0xbb9018fc	-0.0043975096
15	0xbd8e929f	-0.069615595
16	0xbd2b8bd6	-0.041881405
17	0xbd7396f0	-0.059470117
18	0xbd0587fe	-0.032600395
19	0xbcbb1310	-0.022836238
20	0x3d1684c8	0.036747724
21	0xbca0270c	-0.019549869
22	0x3d131ced	0.035916258
23	0x3b37de3a	0.0028056041
24	0xbd287dfb	-0.04113577
25	0xbd2f5e4f	-0.04281455
26	0x3d2bc11d	0.041932214
27	0x3ca01768	0.019542411
28	0x3c1ccac5	0.009569828
29	0x3c00ea1b	0.007868315
30	0xbd163a67	-0.03667679
31	0xbb308ec6	-0.0026940568
32	0xbd0d922a	-0.03456322
33	0xbc2261c1	-0.009911002
34	0x3b98afdb	0.0046596355
35	0x3cbccd89	0.023047226
36	0x3c573f32	0.0131376255
37	0xbc7c3942	-0.015394511
38	0x3c6f526d	0.014607054
39	0xbcc10513	-0.02356199
40	0xbc17ebad	-0.009272498
41	0x3cbac6e8	0.022799924
42	0xbd985e43	-0.07439854
43	0xbcd40dd1	-0.025885494
44	0xbb4e22be	-0.0031453813
45	0xbc1ec912	-0.009691494
46	0x3d04e98f	0.0324493
47	0xbc9a4920	-0.018833697
48	0xbcb4085c	-0.021976642
49	0x3d12ad3b	0.035809737
50	0xbb9431f0	-0.0045225546
51	0xbc751975	-0.014959683
52	0xba146e9d	-0.00056622346
53	0x3d778857	0.06043276
54	0xbc700c27	-0.014651335
55	0xbcca7f90	-0.02471903
56	0xbd26ae07	-0.04069331
57	0xbc8d653e	-0.01726019
58	0x3c5715c7	0.013127751
59	0xbce4426a	-0.0278637
60	0xbd08da46	-0.033411287
61	0xbcf52645	-0.029925475
62	0x3c419119	0.011814379
63	0xbc04912d	-0.008091253

nnECG.5.running_mean f4 [64]
0	0x3ecfbb9d	0.40572825
1	0xbda586ef	-0.08082377
2	0xbe209bbe	-0.15684411
3	0x3e9ea790	0.30987215
4	0xbe83eabc	-0.25765026
5	0x3ebf9696	0.37419575
6	0x3e837710	0.25676775
7	0xbe93115c	-0.28724182
8	0xbd06606d	-0.032806803
9	0xbe6a980d	-0.22909565
10	0xbddd0187	-0.10791307
11	0xbdd3da25	-0.10344342
12	0x3c4cf9e2	0.012510749
13	0x3ecbb48d	0.39786187
14	0x3e290329	0.16505112
15	0xbc964491	-0.018343242
16	0x3e117cb5	0.14207728
17	0xbeb4c6ac	-0.35307825
18	0xbee58636	-0.44828957
19	0xbef28aea	-0.47371608
20	0x3f070c4e	0.5275315
21	0xbdc3785d	-0.09544442
22	0xbbd1a671	-0.006398015
23	0x3e9d6141	0.3073826
24	0x3d8532a6	0.06503801
25	0x3d59f824	0.05321516
26	0x3edd7299	0.43251494
27	0xbdc11406	-0.09427647
28	0xbf3ef2e4	-0.7458937
29	0x3efec799	0.49761656
30	0xbed9ee53	-0.4256464
31	0xbe7b9e95	-0.24572213
32	0x3e4f95ac	0.20271939
33	0x3f7f33a4	0.9968817
34	0xbf127215	-0.57205325
35	0x3dac7470	0.08420646
36	0x3cf9e207	0.030503286
37	0xbf0f51d3	-0.5598423
38	0x3ea89c2a	0.32931644
39	0x3f619468	0.88117075
40	0x3df505f2	0.119640246
41	0xbd8566a4	-0.06513718
42	0xbecfcc5a	-0.40585595
43	0x3ed0a855	0.40753427
44	0xbbbc05a3	-0.0057379766
45	0x3e7aee6d	0.24505015
46	0x3eb31505	0.34976974
47	0x3f103428	0.56329584
48	0x3e84ad93	0.25913677
49	0xbe9f5ade	-0.31124014
50	0xbdb33f3c	-0.087522954
51	0x3e4cca40	0.19999027
52	0x3ddda5ae	0.108226165
53	0x3f2906f9	0.66026264
54	0x3dc570c2	0.096406475
55	0xbd6618a7	-0.056175854
56	0xbebc0f60	-0.3673048
57	0xbe19545c	-0.14973587
58	0x3e2d2fef	0.16912816
59	0xbed6d0c6	-0.41956156
60	0xbe70340f	-0.23457359
61	0x3ddf6e6f	0.109097354
62	0xbde35b1c	-0.11101362
63	0x3d54414c	0.051820084

nnECG.5.running_var f4 [64]
0	0x3f8eed3d	1.1166149
1	0x3f4bf68f	0.79673094
2	0x3fea50da	1.8305924
3	0x3f867fc8	1.0507746
4	0x3fbba565	1.465985
5	0x3f875d79	1.05754
6	0x3f9fd6e4	1.2487454
7	0x3f3afa08	0.7303777
8	0x3f94a310	1.1612263
9	0x3fae60ac	1.3623252
10	0x3fb3711b	1.4018892
11	0x3fd744b4	1.6817842
12	0x3f7076e5	0.9393142
13	0x3f99cf9a	1.201648
14	0x3fd25730	1.6432858
15	0x3faeba97	1.3650693
16	0x3f778e92	0.9670192
17	0x3fb91670	1.4459972
18	0x3fabc22c	1.3418632
19	0x3fc4dff3	1.5380844
20	0x3f4debf5	0.80438167
21	0x3f96ff5e	1.1796682
22	0x3f976941	1.1828996
23	0x3f924ad4	1.1429086
24	0x3f874de3	1.0570644
25	0x3f801f0e	1.0009477
26	0x3f822984	1.016892
27	0x3fb60749	1.4220973
28	0x3f943490	1.1578541
29	0x3f4e7c32	0.80658257
30	0x3fa8fcf1	1.3202192
31	0x3f774516	0.9658979
32	0x3f4aa181	0.79152685
33	0x3fc04dbd	1.5023724
34	0x3f93250e	1.1495683
35	0x3f8cbbeb	1.0994848
36	0x3fb75939	1.4324104
37	0x3f89c98b	1.0764631
38	0x3fa7190a	1.3054516
39	0x3ffcc390	1.9747181
40	0x3f823f0f	1.0175494
41	0x3f929442	1.1451495
42	0x3f946f9c	1.159656
43	0x3f81ca3c	1.0139842
44	0x3f554f89	0.83324486
45	0x3f8eb676	1.1149433
46	0x3f8d9b6f	1.106306
47	0x3f61349a	0.8797089
48	0x3f86f515	1.0543543
49	0x3f8bf9b3	1.0935577
50	0x3f895c1a	1.0731232
51	0x3f85c76a	1.0451481
52	0x3f9a1c4f	1.2039889
53	0x3fbed04c	1.4907317
54	0x3f6a2d63	0.91475505
55	0x3fd62157	1.6728925
56	0x3fb18b7f	1.3870696
57	0x3fbb3bc0	1.4627609
58	0x3f80b6df	1.0055808
59	0x3f6c66ca	0.92344344
60	0x3fa434be	1.2828596
61	0x3fa690ea	1.3012974
62	0x3fd03741	1.6266862
63	0x3fd84684	1.689652

nnECG.8.weight f4 [16, 64]
0	0xbdebfc82	-0.115227714
1	0x3e8cd9cf	0.27509925
2	0xbe453cbb	-0.19261448
3	0x3e8a9876	0.27069443
4	0x3e893262	0.26796252
5	0x3dd8af2e	0.10580288
6	0xbd2524df	-0.040318366
7	0xbe24cba8	-0.16093314
8	0xbdd6acb9	-0.10482163
9	0xbd2ccbc8	-0.04218653
10	0x3e9ea615	0.30986086
11	0xbcb17938	-0.021664247
12	0x3d4ccce5	0.05000009
13	0x3ea49da0	0.32151508
14	0xbe829d9f	-0.2551088
15	0xbe03217d	-0.12805744
16	0xbe40e7c5	-0.18838413
17	0xbc1b74ad	-0.009488267
18	0x3ec15588	0.37760568
19	0xbe90d39e	-0.2828645
20	0x3d546221	0.051851396
21	0xbdfc1b7f	-0.12309932
22	0x3e9ca88a	0.30597335
23	0x3e5f20f3	0.21789913
24	0xbe2ecee6	-0.17071113
25	0x3e3a1aec	0.18174332
26	0x3b8f64cf	0.004376031
27	0xbde4986b	-0.11161884
28	0xbe031629	-0.12801422
29	0x3e103e00	0.14086151
30	0x3eb5aaea	0.3548196
31	0x3e0fed59	0.14055385
32	0x3d1379e3	0.036004912
33	0x3d63e0dd	0.05563437
34	0x3c0ca839	0.008585029
35	0x3dc661e0	0.09686637
36	0xbd7292f1	-0.059222165
37	0xbe9d8e58	-0.30772662
38	0xbe73ec99	-0.23820724
39	0x3e60606d	0.21911784
40	0xbe5e79c4	-0.21726137
41	0x3e92541e	0.285798
42	0x3e16ad96	0.14714655
43	0xbca9acc1	-0.020712258
44	0xbdd69113	-0.104768895
45	0x3ee775e4	0.4520713
46	0xbe125a43	-0.14292245
47	0x3c0ccbf4	0.008593548
48	0x3ea4de34	0.32200778
49	0xbdd4583b	-0.10368391
50	0xbe031814	-0.12802154
51	0x3ec8b823	0.39202985
52	0x3d4c7e94	0.0499254
53	0x3e58e1cb	0.21179883
54	0x3d95ca1d	0.07313941
55	0x3ec02bbb	0.37533364
56	0xbe154786	-0.14578065
57	0xbe85ded6	-0.26146573
58	0x3dc31e36	0.09527247
59	0x3deebbc0	0.11656904
60	0x3e749ce5	0.23887976
61	0xbeaf21da	-0.34205514
62	0xbdb2aa04	-0.08723834
63	0x3e0a747b	0.13520996
64	0x3d157ed7	0.036497917
65	0xbe4aa577	-0.19789682
66	0xbde7c934	-0.11317673
67	0x3d77d5a6	0.060506485
68	0xbe32b5d7	-0.17452179
69	0x3d498488	0.049198657
70	0x3cb744f8	0.022371754
71	0x3d675ac3	0.05648304
72	0x3ccfe47f	0.02537751
73	0xbcf24b79	-0.029577004
74	0x3e7ba01c	0.24572796
75	0xbd8985d6	-0.0671498
76	0xbe9160c2	-0.28394133
77	0xbe59a629	-0.21254791
78	0x3e8786a5	0.26469913
79	0xbbc87317	-0.0061172354
80	0x3dc0680e	0.09394847
81	0x3c53c333	0.012924957
82	0xbe1ffd93	-0.15624075
83	0xbc38be94	-0.011275906
84	0x3dbf3874	0.093369395
85	0xbe829626	-0.2550518
86	0xbd1decf6	-0.03855606
87	0xbe5a7ea6	-0.21337375
88	0x3e2ccef5	0.16875823
89	0x3dd55eca	0.1041847
90	0xbd953290	-0.07285035
91	0x3e075537	0.132161
92	0x3e143fa2	0.14477399
93	0x3e1ab422	0.15107778
94	0x3e61fd18	0.22069204
95	0x3ddc0a66	0.10744171
96	0xbdae9aa7	-0.08525591
97	0xbd9e7e08	-0.07738882
98	0xbe3d4fff	-0.18487547
99	0x3cc92d9d	0.024557883
100	0x3e2ea214	0.17054015
101	0xbd8ad610	-0.067791104
102	0xbe4aaf2f	-0.1979339
103	0x3c7b29fb	0.015329833
104	0x3daa8919	0.083269306
105	0xbd273e36	-0.040830813
106	0x3bc98204	0.0061495323
107	0x3dc447fd	0.09584043
108	0xbdea60a6	-0.114442155
109	0x3aaf85ee	0.0013391355
110	0x3d30aa16	0.043130957
111	0x3e8bed08	0.27329278
112	0x3dc60545	0.09668974
113	0xbe8aee82	-0.27135092
114	0xbd67c5f1	-0.056585256
115	0x3da0701f	0.078338854
116	0x3d621ed9	0.0552052
117	0xbc386f48	-0.011257
118	0x3d041300	0.032244682
119	0x3da49b02	0.08037378
120	0x3c248090	0.010040417
121	0x3de1b11d	0.1102011
122	0x3e77679b	0.24160616
123	0x3d4c209a	0.04983578
124	0xbd4a0faa	-0.049331345
125	0xbd8dfe34	-0.06933251
126	0x3e137c96	0.14402995
127	0x3e191333	0.1494873
128	0xbd67d0a6	-0.056595467
129	0x3e5e5040	0.217103
130	0x3e815a10	0.25264025
131	0x3b9afe39	0.0047300127
132	0xbc025c85	-0.007956629
133	0x3eac0cdd	0.33603564
134	0xbdc036b1	-0.093854316
135	0xbe891e05	-0.26780716
136	0xbdc5e08a	-0.09661968
137	0x3ea0ef1a	0.3143242
138	0xbe61fc7b	-0.2206897
139	0x3e73426e	0.2375581
140	0x3ec06463	0.3757659
141	0xbe146f5f	-0.1449561
142	0xbdc7e97c	-0.097613305
143	0xbce1429e	-0.027497586
144	0x3e29a6d3	0.16567545
145	0xbdf7c8ad	-0.12098823
146	0xbe7280f8	-0.2368201
147	0x3e9323b1	0.28738168
148	0x3da40676	0.08009045
149	0x3e0f6d3a	0.1400651
150	0xbe848021	-0.25879005
151	0x3d0d6256	0.03451761
152	0x3e8f3454	0.2796961
153	0x3e937cc0	0.28806114
154	0xbe898bab	-0.2686437
155	0xbe0c67cd	-0.13711472
156	0xbac81e76	-0.0015267867
157	0x3e4fa209	0.20276655
158	0x3dd777e9	0.10520918
159	0x3e4566f3	0.19277553
160	0x3e228fa7	0.15875112
161	0x3f0da1ab	0.5532481
162	0xbe3f0b18	-0.18656576
163	0xbe5048af	-0.20340227
164	0x3e9096cd	0.28240052
165	0xbe1f1eb2	-0.15539053
166	0x3e01fdff	0.12694548
167	0xbe098d17	-0.13432728
168	0x3cf0c10c	0.029388927
169	0x3e2696ff	0.16268538
170	0x3e5a4f5d	0.21319337
171	0xbae0a0da	-0.0017137781
172	0x3e35e74d	0.17764015
173	0xbd39c7d7	-0.045356598
174	0x3e2227b4	0.15835458
175	0x3c7b9e0b	0.015357505
176	0x3e90322f	0.28163287
177	0x3e418dd9	0.18901767
178	0x3e4cdad7	0.20005356
179	0xbe654017	-0.2238773
180	0xbe3ec531	-0.1862991
181	0x3e821b6f	0.25411555
182	0xbdd1f738	-0.10252231
183	0xbceeaaa0	-0.029134095
184	0xbe871af7	-0.2638776
185	0x3c14270a	0.009042511
186	0xbe67012e	-0.22559044
187	0xbdbed00d	-0.09317026
188	0x3e844334	0.25832522
189	0x3e8845ba	0.26615697
190	0xbe12a4fa	-0.14320746
191	0x3e4627d4	0.1935113
192	0x3e96abfb	0.29428086
193	0xbde40142	-0.111330524
194	0xbea4dfc3	-0.32201967
195	0xbd490366	-0.049075507
196	0xbea1b602	-0.31584173
197	0xbd958e36	-0.07302515
198	0xbe8c07ae	-0.2734961
199	0xbac1c926	-0.0014784678
200	0xbe316700	-0.17324448
201	0x3dc1fcae	0.09472023
202	0xbd0c70b8	-0.034287184
203	0xbe2d18fc	-0.16904062
204	0x3d17bf09	0.03704742
205	0xbd8eb02c	-0.06967196
206	0x3e7643c9	0.24049295
207	0x3e5122b1	0.2042339
208	0x3e4ae04c	0.19812125
209	0x3e3162dc	0.17322868
210	0xbd02c967	-0.031930353
211	0x398a7d05	0.00026414558
212	0xbe75daff	-0.24009322
213	0xbe059c14	-0.1304782
214	0xbe87d0ae	-0.26526397
215	0x3bb345c0	0.0054709613
216	0x3e67a657	0.22622047
217	0xbd9d8750	-0.076918244
218	0x3d1e7c45	0.03869273
219	0x3db01c65	0.08599166
220	0x3e69051f	0.2275586
221	0xbdc12458	-0.0943076
222	0xbd7586a2	-0.05994285
223	0xbe8bb356	-0.2728526
224	0xbdfbb54c	-0.12290439
225	0x3e3a2f6a	0.1818215
226	0x3da38f53	0.07986321
227	0xbd87a614	-0.06623474
228	0xbe577680	-0.21041298
229	0xbc7db6d9	-0.015485489
230	0xbe412223	-0.18860678
231	0xbdd2948a	-0.10282238
232	0x3e706f6b	0.23480003
233	0x3d4d46ce	0.050116353
234	0xbe479d6f	-0.1949365
235	0xbe640a8b	-0.22269647
236	0xbc39a3d9	-0.011330568
237	0xbe93669c	-0.28789222
238	0xbe5692f7	-0.209545
239	0x3e9b71d8	0.30360293
240	0x3d8c9870	0.06865013
241	0xbe642d2f	-0.22282861
242	0xbd15a389	-0.036532912
243	0xbe8d21ac	-0.27564752
244	0x3dc14bf8	0.09438318
245	0x3e4d6cac	0.20060986
246	0xbe0ab61e	-0.13546035
247	0xbdfbb696	-0.12290685
248	0x3e162f99	0.14666595
249	0xbe2c92bf	-0.16852854
250	0xbda8153b	-0.082071744
251	0xbe0709f5	-0.13187392
252	0x3e0151b5	0.12628825
253	0x3c66f972	0.014097558
254	0xbd625cb5	-0.055264194
255	0x3dddade8	0.108241856

nnECG.8.bias f4 [16]
0	0x3d017520	0.03160584
1	0x3c4ab766	0.012372827
2	0x39eae1a2	0.00044800068
3	0xbcd4d40a	-0.025980014
4	0x3c9abd30	0.01888904
5	0x3b24d01d	0.002514846
6	0x3cccd317	0.025003
7	0xbd0577cd	-0.032584954
8	0x3cce3124	0.025169916
9	0x3d50081d	0.050788987
10	0x3c53f1be	0.012936054
11	0x3d00a836	0.03141042
12	0x3cff4a1b	0.031163266
13	0x3c9366bd	0.017993325
14	0xbb30acdd	-0.0026958503
15	0x3ca94be3	0.020666068

nnECG.9.weight f4 [16]
0	0x3fa8cae5	1.3186918
1	0x3f79b63c	0.9754369
2	0x3f9094a9	1.1295367
3	0x3f83628f	1.0264453
4	0x3f80e373	1.0069412
5	0x3f9b4006	1.2128913
6	0x3f88ae23	1.0678142
7	0x3f885a39	1.0652534
8	0x3f93ec37	1.1556462
9	0x3f8d515e	1.1040456
10	0x3f7d5b12	0.9896709
11	0x3f83775a	1.0270798
12	0x3f88a6a2	1.0675852
13	0x3f94f28e	1.1636522
14	0x3f86a947	1.0520409
15	0x3f88536c	1.0650458

nnECG.9.bias f4 [16]
0	0x3c763fca	0.015029857
1	0x3cd639dc	0.026150636
2	0xbce8a50c	-0.028399013
3	0xbc87e265	-0.016587446
4	0xbbde010a	-0.006775026
5	0xbc6f86d4	-0.014619548
6	0x3c2f2592	0.01069011
7	0xbd09a8c8	-0.033608228
8	0x3c2aa69d	0.0104157
9	0x3d30cc4e	0.04316359
10	0xbbbcde32	-0.0057637924
11	0x3bcc1250	0.006227769
12	0x3c562d5d	0.013072339
13	0x3c5e8634	0.013581801
14	0xbd12b962	-0.035821326
15	0x3cb30693	0.02185372

nnECG.9.running_mean f4 [16]
0	0x3d5420c5	0.051789064
1	0x3f25fba4	0.648371
2	0x3ee16b07	0.44026968
3	0xbe26fb42	-0.16306785
4	0xbf37e815	-0.71838504
5	0xbc60fa6e	-0.013731582
6	0x3d6ce0c5	0.057831544
7	0xbe27215f	-0.16321324
8	0x3ea7f202	0.32801825
9	0x3eb87cf6	0.36032838
10	0xbef20044	-0.47265828
11	0xbe8d3887	-0.2758219
12	0xbdbb64d0	-0.09150088
13	0x3eb28d02	0.34873205
14	0xbda59a3b	-0.08086058
15	0x3dfc9ad2	0.12334217

nnECG.9.running_var f4 [16]
0	0x3fce6367	1.6124085
1	0x3fb7d720	1.4362526
2	0x3fd5b758	1.6696577
3	0x3fc2e26e	1.5225351
4	0x3fbff6d5	1.4997202
5	0x3f9100e5	1.1328398
6	0x3ff794a4	1.9342237
7	0x3fed2a95	1.852862
8	0x3fbc8e20	1.4730873
9	0x3fb3109c	1.3989444
10	0x3fdab63c	1.7086864
11	0x3fae95ee	1.3639505
12	0x3fb7914b	1.4341215
13	0x3faf0527	1.3673447
14	0x3fa73679	1.3063499
15	0x3fc2537b	1.5181726

nnECG.12.weight f4 [4, 16]
0	0x3ec43ab2	0.3832603
1	0xbe48a746	-0.1959506
2	0xbe531520	-0.20613527
3	0xbf02ea8b	-0.51139134
4	0x3eb62605	0.35575882
5	0x3f09a05d	0.5376032
6	0x3edadfb8	0.4274881
7	0xbefacf7d	-0.48986426
8	0x3eb46353	0.35232028
9	0x3ea7a7b4	0.32745135
10	0x3e2ea8ad	0.17056532
11	0x3dfe0fda	0.12405367
12	0x3e04339a	0.1291031
13	0x3f01067b	0.50400513
14	0xbec14bb7	-0.37753078
15	0xbe9b80d0	-0.30371714
16	0xbea84b32	-0.3286987
17	0xbc399a1d	-0.011328247
18	0x3e2442c8	0.160411
19	0xbecd4dfe	-0.40098566
20	0x3ecc3273	0.3988224
21	0xbea5388c	-0.32269704
22	0x3f0358e9	0.5130754
23	0xbf129136	-0.57252824
24	0xbdb8be1d	-0.09020636
25	0xbdd14150	-0.102175355
26	0xbdef3d8f	-0.11681663
27	0x3ed530f0	0.416389
28	0xbeabf397	-0.33584282
29	0x3d2b9fc7	0.041900422
30	0x3e8b21d1	0.27174237
31	0x3eaeaffc	0.3411864
32	0xbdeed9d7	-0.116626434
33	0xbe66eb5b	-0.22550718
34	0x3f105455	0.5637868
35	0xbe294fb0	-0.16534305
36	0xbd90b482	-0.07065679
37	0xbce3d91e	-0.02781349
38	0x3dbc4e7c	0.09194657
39	0x3df2e978	0.11860937
40	0xbd8875e0	-0.06663108
41	0x3df18b4d	0.11794148
42	0xbd881b51	-0.06645835
43	0xbee80e04	-0.45323193
44	0xbeaba927	-0.3352749
45	0xbf22875f	-0.6348781
46	0x3ef9f616	0.4882056
47	0xbe098a92	-0.13431767
48	0xbd1cd9df	-0.038293716
49	0x3cd39ae9	0.025830703
50	0x3de1ed6f	0.11031615
51	0xbe3d6682	-0.18496135
52	0xbe611b00	-0.21982956
53	0x3e6eaae0	0.23307371
54	0xbe4cb0e4	-0.19989353
55	0xbe4561aa	-0.19275537
56	0xbea96086	-0.33081454
57	0x3ee5ef84	0.44909298
58	0xbe42a327	-0.1900755
59	0xbee8ea12	-0.4549108
60	0xbef44981	-0.4771233
61	0x3e713a6d	0.23557444
62	0x3ec485bc	0.3838328
63	0x3e50baff	0.20383833

nnECG.12.bias f4 [4]
0	0x3cd89f79	0.02644323
1	0x3c24760e	0.010037912
2	0x3bc00a34	0.0058605913
3	0x3cd965f6	0.026537877

nnECG.13.weight f4 [4]
0	0x3f858945	1.0432516
1	0x3f7d4509	0.98933464
2	0x3f88d35f	1.0689505
3	0x3f8e1c09	1.1102306

nnECG.13.bias f4 [4]
0	0x3abf57de	0.001459833
1	0xbb123b58	-0.0022313204
2	0xbc22aa45	-0.009928291
3	0x3bc765da	0.0060851397

nnECG.13.running_mean f4 [4]
0	0x3e2b6fd9	0.16741885
1	0xbe29ed8d	-0.16594525
2	0xbe885a67	-0.26631472
3	0xbe27eb23	-0.16398291

nnECG.13.running_var f4 [4]
0	0x3f8dc0d5	1.1074473
1	0x4001d12d	2.028392
2	0x3f912ec7	1.13424
3	0x3f842186	1.032273

nnECG.16.weight f4 [1, 4]
0	0xbf8e1022	-1.1098673
1	0xbe38f7f6	-0.1806334
2	0x3f84cb91	1.0374624
3	0x3ecb191f	0.39667603
