Models/net_2_1_epoch_83.pth (torch, 57997 bytes, 25 tensors)

nnECG.0.weight f4 [128, 12]
00000000: 414b 083e 1cf9 823d e175 ccbd 9f7e 223e
00000010: dad6 59bd 13e5 e43c b959 6ebe 0bff eebc
00000020: afed 20be 910c d83c 3d10 143c 19b2 163d
00000030: bf1c 87bd dba6 e43c f8ad 4f3e cd41 423e
00000040: 9990 823d d32c ecbd e1df 3abe 5afe 633d
00000050: b12e afbc 6b92 613e 92dc 173e 8bdf 22be
00000060: f6da aebd de0c 05be 7e70 72bd ed11 173a
00000070: 5897 bcbc 6568 08be 4029 193e 5211 0d3e
00000080: 30c4 15bd b092 5abe f8b6 35be 42b7 25be
00000090: ef57 673e ddec 393e 3183 b13c 9d2e 8fbd
000000a0: ce6d 343d 261f 49be 32fd 1dbd 10a3 213e
000000b0: ae1b e5bd 8308 313e b8f4 56bc 3e0c 1d3e
000000c0: 1454 263e bd0d 90be ab9b de3d 866d 5b3d
000000d0: d008 0bbe a3d4 1c3e afd7 75be f816 cebd
000000e0: 4f4d f33d f7da de3d fa97 dc3d c056 2bbe
000000f0: f1a5 163e 01e5 0cbe 9c22 2f3e fc03 c5bd
00000100: e389 a93c 0615 91bd f2c9 953d 9ec7 d63b
00000110: af96 913d 62d8 523e 5f86 ce3d dbe1 57be
00000120: e5cb 083d c89e eebd 34f4 13bc fddb 8c3c
00000130: bc23 49be 307e 313e 3093 343e 2285 47be
00000140: 6fd5 353c 1bb7 a53d 694d 0bbe 0d61 563e
00000150: 4364 3c3e ab54 6c3e d110 013e 57da 573e
00000160: 4fb8 d93d 48ad 0c3e 833a 65be 8952 8abd
00000170: 39dc 54be ed00 883d 53f2 d3bd a132 c03d
00000180: 9eee 4ebb bbf0 1ebd 9b14 823d 1d46 05be
00000190: 4771 343d cbdb 983a 1718 cbbd 01a5 0fbd
000001a0: bd7d 693d d6d0 19be 4457 043e e90a 563d
000001b0: 4b13 d33d b4f7 7bbc 5b39 fb3d 9ead ea3d
000001c0: bbf7 3bbe 0ddd b3bd 8bf6 18bd 0ed4 523c
000001d0: ea22 1b3e 6853 c03c 9663 f63d 3ae2 6c3d
000001e0: 4dc1 fdbc 8a5f 5e3d 898b 8dbe ccdb 5abd
000001f0: 404a 5ebe ea29 87be e62b 433d 97b8 d0bd
00000200: 17ee 0d3d eadb 2abd 9db8 353e 7917 3c3d
00000210: 312c 333e e5fa 47be e54d 14bd 6d10 23be
00000220: 6abb 4dbe b538 243e 628e de3d 4ab7 45be
00000230: 5726 46bd 25d8 523e 87b0 88bc aa5a 493e
00000240: cd94 313e 1aa1 123e 7933 b7bd 7ca1 d4bd
00000250: ea90 693e d3b4 9f3c c990 29bc 550f 15be
00000260: 5bf7 4ebd e934 0a3e 6a84 243e c466 b3bd
00000270: 9060 65bc 6fc6 a2bc ac56 df3d de1a 12bd
00000280: 29ee c9bd bfef 1f3d 77fc e5bd e644 d03d
00000290: a644 d6bd 1ac7 743e 24d1 18bd 4e57 4f3d
000002a0: ca32 0ebe ab26 313e 3036 a1bd b09e 4dbd
000002b0: 284e 373e 7ce2 5cbe a91e 88bc 6a62 babd
000002c0: e6bb 5d3e 326a 1ebd 7232 b13d df13 bbbd
000002d0: b95d f73d ab88 ba3c f3bc 5a3d f8df b43d
000002e0: fc64 273c a92f ecba 594d d63d c305 0dbd
000002f0: 7f0c 4f3d ddf4 a7bd e5a9 34be cc3c 153d
00000300: bb0d 053e 5110 6a3d 6b8f 273e 0de4 85bd
00000310: a8fb 93bd c607 0ebe e424 953d e2f4 183d
00000320: 2ce7 0c3e 2464 88bd 0a50 82be d8b9 17bd
00000330: c3c0 e3bc 6ac1 48bd 51cc a63d d273 23bd
00000340: 02b3 c53b 88ce 593e 72dc 30be 7ed1 473c
00000350: d802 bc3d 0eee 8b3d f6e9 2f3e 1f92 73be
00000360: dec0 983d 57aa 8b3c e1bc 8cbd f645 4abe
00000370: 50a5 f63d 8275 8d3d 15b0 223e fa52 313e
00000380: a756 11be ad34 64bd 6603 833d a20b 303d
00000390: 68ae 993d 398c 5f3c 737e 84be afa2 9abd
000003a0: b495 35be 5dd3 35be 63ac d43c 42d0 35bd
000003b0: 916a aabd 84d1 57be 7569 43be 85e1 51bd
000003c0: 4d14 e33d f416 7d3c a5ec f83d 9c1b 69bd
000003d0: 2119 883e 7d1f 83bd 1088 63be abf5 813c
000003e0: 1068 21be ae84 aa3d 7638 173e f99e 5c3e
000003f0: e9bb 9ebd 2882 21be 5853 44be 6695 a23d
0.13309957 0.0639517 -0.09983421 0.15868615 -0.053183414 0.027941262 -0.23276414 -0.029174348
-0.15715669 0.02637318 0.009037075 0.03679094 -0.0659728 0.027911594 0.20281208 0.18970414
0.06375236 -0.11531987 -0.18249466 0.05566249 -0.021384569 0.2202851 0.14830235 -0.15905587
-0.08537857 -0.1299319 -0.059189312 0.0005762864 -0.023021385 -0.13321073 0.14957142 0.13776138
-0.036564052 -0.2134502 -0.17745578 -0.16183189 0.22592138 0.18156762 0.021669002 -0.06991313
0.04405003 -0.19640788 -0.038571544 0.1578486 -0.1118692 0.17288403 -0.013119869 0.15336701
0.16243011 -0.2813548 0.10869535 0.053571247 -0.1357758 0.1531549 -0.24008058 -0.10062975
0.1187998 0.10881608 0.10771175 -0.16732311 0.14711739 -0.13759233 0.17103046 -0.096199006
0.020695632 -0.07084088 0.07313909 0.006554558 0.07108819 0.20590356 0.10084223 -0.21082251
0.033397574 -0.11651379 -0.0090303905 0.017194742 -0.19642538 0.17333293 0.17634273 -0.1948438
0.01109825 0.08091565 -0.13603748 0.2093546 0.18397622 0.23079173 0.12604071 0.21079384
0.10630857 0.13737977 -0.22385602 -0.067540236 -0.20787133 0.066408016 -0.10348954 0.09384657
-0.0031575332 -0.038803797 0.063515864 -0.13015027 0.044053342 0.0011662183 -0.09916704 -0.03506947
0.05700468 -0.15021071 0.12923914 0.0522565 0.10306414 -0.015378881 0.12266799 0.11458896
-0.1835622 -0.087823965 -0.037344497 0.012867941 0.15150037 0.023477271 0.12030713 0.057832934
-0.030975962 0.054290332 -0.2764552 -0.05343227 -0.21708012 -0.26399165 0.047649287 -0.10191458
0.03465089 -0.041713633 0.17746206 0.045920823 0.17497326 -0.19529302 -0.0362071 -0.15924235
-0.20091024 0.16037257 0.10867001 -0.193082 -0.048376407 0.20590265 -0.016685737 0.19663492
0.17341919 0.14319268 -0.089453645 -0.10382363 0.22809187 0.019495403 -0.010349461 -0.1455663
-0.050528865 0.13496746 0.16066137 -0.08759835 -0.014000073 -0.019870011 0.10905203 -0.035670154
-0.098598786 0.039047 -0.112297945 0.10169391 -0.104623124 0.23904076 -0.037308827 0.05062037
-0.13886562 0.17299907 -0.078716636 -0.050200164 0.17900908 -0.21570772 -0.016616182 -0.09100802
0.21653709 -0.038675494 0.086522 -0.091346495 0.12078423 0.022770246 0.053402852 0.08831781
0.010216948 -0.0018019575 0.10463972 -0.034429323 0.050549027 -0.08201001 -0.17642935 0.036434934
0.12993519 0.057144467 0.16363303 -0.06537638 -0.07225734 -0.13870153 0.07282427 0.037342913
0.1376006 -0.06659725 -0.2545169 -0.03704247 -0.027801877 -0.04901258 0.08144439 -0.039905377
0.0060333023 0.21270192 -0.17271593 0.012195943 0.0918023 0.06832515 0.17179093 -0.2378621
0.074586615 0.017048998 -0.06871963 -0.1975325 0.120432496 0.069071785 0.15887482 0.1731681
-0.14193211 -0.055714298 0.063971326 0.042979844 0.075039685 0.0136442715 -0.25877723 -0.07550561
-0.17732888 -0.1775641 0.025961107 -0.044388063 -0.08321107 -0.21076018 -0.19083197 -0.051240463
0.110878564 0.015447367 0.12154511 -0.056911096 0.26581672 -0.0640249 -0.22219872 0.015864214
-0.15762353 0.08326088 0.14767632 0.21545018 -0.07750685 -0.15772307 -0.19172418 0.07938652

nnECG.0.bias f4 [128]
00000000: 7972 df3b cf0c 8d3c 96e8 e03c 3f4e 293b
00000010: eb95 063c c603 5abb e162 e2ba 3773 aebb
00000020: 4082 cd3b 4340 a8bb afca 0d3d 9d0b 2c3b
00000030: 3e68 86bb 12ee 5e3c 5171 cf3c 63ed 2e3c
00000040: e8ad 4e3a 2659 f63b 22a3 20bc 9bba 933c
00000050: 125b 943b 699d df3b 5d60 b13c 3347 9f3c
00000060: 7a65 af3c 345e 943b dc94 863b 2af1 8e3b
00000070: e6f3 9d3a 5656 73bc 5ac6 83bb c3e3 8e3c
00000080: 1088 ee3c 12d6 8abc cce2 103c c16d 5a3c
00000090: 182c bd3b 03a7 573c ec8f d33c ba1f b93a
000000a0: 9687 943c e02e be3a a39f 3c3c cf0d 583a
000000b0: 04df ac3b 8826 fb3b dad0 783c 13b4 1a3c
000000c0: 5476 9e3c 2e73 87bc 82dd afbc 149e d53c
000000d0: dbb5 cc3c e3cc 9a3c a910 853c 649f 5a3c
000000e0: 9b45 a93b f2c0 e0bc 4ebc 963c 2aea b63c
000000f0: 2dcc c03c 8fb1 1b3c 4f52 823c 741e 833c
00000100: 3e80 8abc c482 793b 6fd9 d03c e01a 383c
00000110: 8b6e cfb8 3586 a73a 5f88 743b 916d 973c
00000120: 427a 1bbc 0295 a9bb 2b65 8f3c 28d3 c43c
00000130: bd9b 373c 4fd4 37bc f304 3e3c 9996 813b
00000140: 7b0a 923c c906 de3c 81ee b93c 217d 7dbc
00000150: 080f 893c e1c9 303c f792 8cbb 1510 c43c
00000160: 64cf 9abc fb6b b13c 24ab ab3c 9745 6bbb
00000170: e320 083c 92d9 88bb 213e 313c 5d85 f33c
00000180: 7bd4 fe3b 035e ca3c 48d8 793c 023b b13c
00000190: 1af3 db3c 84cd 8b3b ee3b bf3c d103 1bbc
000001a0: 10b6 0f3c e34f d03b 4baa 163d 720d f43c
000001b0: 3e90 aa3c 5b7d f63c 1dbe 803c 4214 32bb
000001c0: 50c7 5d3a 04b2 5fbb 2246 4d3b 8a2e a33c
000001d0: 0372 a53c e5aa 8a3c 50d7 3d3c f83f 993c
000001e0: fdd9 35bc 9b1e 203c 6aa0 853c 20cb 0339
000001f0: a1e9 86bb dac7 ea3b b8a3 c03c 781e 553b
0.006819066 0.017218022 0.027454656 0.0025833992 0.008214454 -0.003326641 -0.00172719 -0.0053237933
0.0062716305 -0.0051346137 0.034617122 0.002625204 -0.004101782 0.013606565 0.025322588 0.010676715
0.00078841904 0.0075179515 -0.009804519 0.018033316 0.004527458 0.0068241847 0.021652395 0.01944313
0.021410692 0.0045278315 0.004107101 0.004362245 0.0012050837 -0.014852127 -0.004021448 0.01744259
0.029117614 -0.01694778 0.008843135 0.013331831 0.0057730787 0.013162377 0.025825463 0.0014123835
0.018131059 0.001450982 0.01151267 0.0008241804 0.005275609 0.0076645054 0.015186513 0.009442347
0.019343533 -0.016534414 -0.021467928 0.026076354 0.02498906 0.018896526 0.016243296 0.013343666
0.0051657683 -0.027435753 0.018400338 0.022328455 0.023534859 0.0095027825 0.015908388 0.016005732
-0.016906854 0.0038072327 0.025494305 0.011236876 -9.8911194e-05 0.0012781086 0.0037312729 0.018484863
-0.009489598 -0.005175234 0.017504295 0.024026468 0.0112065645 -0.011220052 0.01159786 0.00395472
0.017827263 0.027102845 0.022696735 -0.015471728 0.0167308 0.010790319 -0.0042899805 0.02393345
-0.01889772 0.021657934 0.02095563 -0.0035899633 0.008308622 -0.004176327 0.010818035 0.029726679
0.0077767945 0.024703031 0.015249319 0.021634582 0.026849318 0.0042664427 0.023344006 -0.009461359
0.008771434 0.0063571795 0.036783498 0.029791567 0.020820733 0.030089071 0.015715653 -0.002717272
0.0008460181 -0.0034133205 0.003132232 0.019919652 0.020195967 0.016927192 0.011586979 0.01870726
-0.011099336 0.009772922 0.016311843 0.00012568804 -0.004117206 0.0071649374 0.023515567 0.0032519381

nnECG.1.weight f4 [128]
00000000: 9517 873f 4004 873f 0fdb 803f f466 853f
00000010: e1f8 863f ffdb 853f 6f98 8a3f d022 893f
00000020: d29b 583f 4cd4 7b3f ce59 8e3f 6c53 853f
00000030: 12c7 803f e6b2 7a3f 2fde 863f c0cb 8f3f
00000040: 2f5d 863f 0de0 733f 6b95 763f c4f1 8e3f
00000050: 7cc0 933f fb03 773f c50c 873f 33c3 833f
00000060: 8c0e 8b3f c353 733f 7781 a53f 4cde 893f
00000070: 3f82 793f 028b 903f dcca 793f b017 863f
00000080: 0135 8e3f c101 863f b49a 943f 856b 8e3f
00000090: e5c9 883f 30b9 783f 6f68 853f b64e 813f
000000a0: 4993 893f 5003 853f 2bea 823f 61cd 793f
000000b0: 8b6b 8c3f 1810 903f 9704 903f 843c 873f
000000c0: 3074 973f 9464 853f 4e55 8c3f cfda 873f
000000d0: e576 853f b130 813f 3d3c 833f e711 8b3f
000000e0: 17b8 863f 23e6 a93f 6146 863f 0275 903f
000000f0: b35b 743f a008 8b3f 87a8 823f 51de 7a3f
00000100: 6110 a03f dc30 953f 8301 843f 9750 873f
00000110: fa83 873f 5c02 853f e2f8 653f f60c 743f
00000120: 2598 823f 6ff0 933f 97b0 923f 7a19 8d3f
00000130: 7c0f 883f 1eec 963f de8a 833f a6a4 783f
00000140: 3c0a 933f fcef 893f 183b 803f f2b9 9e3f
00000150: 4bd1 913f d23d 913f c8cc 883f cd1a 833f
00000160: 7da1 813f cfa4 8a3f 17b7 953f b033 823f
00000170: dca3 7b3f a506 963f b07f 843f 02cd 8b3f
00000180: 4ef8 853f 7d28 883f 66da 8c3f c240 903f
00000190: 7be1 813f 8a6c 613f e5d0 8f3f e79d 8a3f
000001a0: 0757 833f df84 853f 1eb7 923f 005b 8b3f
000001b0: 0d0f 843f 0db0 8f3f 4e2c 7c3f d73e 753f
000001c0: 95d9 713f 5d80 7f3f 9b77 8b3f 1da6 8d3f
000001d0: aa51 823f 85e1 8c3f 218d 843f 82a7 8e3f
000001e0: 9aee 993f 7a4e 8e3f c0f2 813f eafe 8a3f
000001f0: 4331 853f 942c 823f bd47 833f 5178 813f
1.0554072 1.0548172 1.0066851 1.0422044 1.0544702 1.0457762 1.0827769 1.0713749
0.8461276 0.98370814 1.1121156 1.0416083 1.0060751 0.9792923 1.0536555 1.1234055
1.0497187 0.9526375 0.96321744 1.1167531 1.1543117 0.9649045 1.0550772 1.0293945
1.0863814 0.95049685 1.2930135 1.0770965 0.97464365 1.1292422 0.97575164 1.0475979
1.1109926 1.0469285 1.1609712 1.1126562 1.0686613 0.97157574 1.0422496 1.0102146
1.0748073 1.0391636 1.0227712 0.9757901 1.097032 1.1254911 1.1251401 1.0565343
1.1832333 1.0421319 1.0963533 1.061365 1.0426909 1.0092984 1.0252758 1.0864838
1.052493 1.3273357 1.0490228 1.1285708 0.9545242 1.0862007 1.020768 0.9799548
1.2504998 1.1655536 1.0312961 1.0571469 1.0587151 1.0391345 0.8983289 0.95332277
1.0202681 1.155775 1.1460141 1.10234 1.0629725 1.1790807 1.0276754 0.97126234
1.1487498 1.0776362 1.0018034 1.2400496 1.1391996 1.1346991 1.0687494 1.0242554
1.0127407 1.0831546 1.16965 1.0172024 0.98296905 1.1720778 1.0351467 1.0921938
1.0466402 1.0637356 1.100415 1.1269763 1.0146936 0.8805624 1.1235625 1.0829438
1.0260934 1.0431174 1.1462133 1.0887146 1.0317093 1.1225601 0.98505104 0.9579901
0.9447263 0.9980524 1.0895876 1.1066319 1.0181172 1.1006323 1.0355569 1.1144869
1.202594 1.1117699 1.0152206 1.0859044 1.0405658 1.0169854 1.0256268 1.0114843

nnECG.1.bias f4 [128]
00000000: 5673 c3bb a75a 2f3c c1f0 be3c ba11 0a3b
00000010: a493 2dbc ba93 f5bb 0480 c8bb cf80 96bc
00000020: dabb aabc eafc 79bc 6ccd 5d3c 5766 57bc
00000030: de79 bdbc c00a f43b 2a07 2a3b 2519 09bc
00000040: e262 80bb fc84 113b 298a e9bc e5bc aa3c
00000050: 93a2 99bb b58e fcbb 8b66 9a3c cffb 1e3c
00000060: fdd5 f33b 27f5 8b3a ca99 adbc 7516 28bc
00000070: 9d26 13bc 79ab a0bc 982e 09bc 65b3 ca3b
00000080: ad57 b43c d116 e8bc 7f04 25ba d537 9b3c
00000090: 23c4 2a3b 5859 cd3b 09e9 613c fe84 60bc
000000a0: 044b e23b 36fa 31bc f731 923b 48e0 c0bb
000000b0: 1708 d5bb fe9d fa3b 7491 bebb 0dbb 98bb
000000c0: c380 cc3c 1b4f 9bbc e48d 58bc 81a5 b43c
000000d0: 7b1c d13c f41e 853c c790 103a dda6 4e3c
000000e0: 4f7c afbb 9fa3 18bd cd3c 003c 6bf2 c73a
000000f0: f3e5 643c 9e62 83bb 39e7 1a3c 3be5 333c
00000100: a1e2 1abc 80e5 d5ba de1d 263c f6d4 5a3c
00000110: 2bfd 4cbc a8ef 9cbb 44cc 32bc 982e 1b3c
00000120: 0e0f 9d3a 2e6e bdba f31c afba d910 653c
00000130: 6b48 233b 6d95 0dbc 0333 36bb 32ac 313c
00000140: f816 633c d676 b93c 61d9 303c 6acc a5bc
00000150: 4a47 c23a 0467 5a3c 4d96 00bc bd2c 383c
00000160: 8e0a 99bc 8631 123c 244e d23c 9c7b 4bbc
00000170: d470 e33a e4a9 80bc 960d 5bbc 8428 aa3c
00000180: 3198 5cbb d11c 603c edc9 8d3b 691b 94bb
00000190: 2a71 d63c 6921 533b 7f0f 953c 2001 a4bc
000001a0: 5f84 103c 3297 8ebc 3c7c b83c 00a1 a33b
000001b0: 7cb9 823c 6da8 e33c 5dca dc3b ae45 c6bb
000001c0: fce6 0fbc 9fd6 0fbc 6f54 85bc 4294 313c
000001d0: 1c2b 3b3c 78ff 4139 6976 a8bb 2637 6f3c
000001e0: ae69 44bc 6315 20bc d28d d23b 3154 7ebc
000001f0: c925 49bc 73fd a63a 7340 9f3c 5c9b d5bb
-0.005964677 0.010702766 0.02330816 0.0021067695 -0.010594282 -0.007494417 -0.0061187763 -0.018371968
-0.020841528 -0.015258053 0.013537746 -0.013146958 -0.0231294 0.0074475706 0.0025944212 -0.008367811
-0.0039180377 0.002220451 -0.028508263 0.020842025 -0.00468857 -0.0077074417 0.018847724 0.009703591
0.007441281 0.001067792 -0.021191496 -0.01025926 -0.008981374 -0.019613015 -0.008372925 0.0061859363
0.022014463 -0.028331192 -0.00062949205 0.018947521 0.0026056848 0.006266754 0.01378847 -0.013703583
0.006905915 -0.010862878 0.0044615227 -0.0058861114 -0.0065012085 0.0076482287 -0.005815679 -0.00466097
0.024963742 -0.018958619 -0.013217423 0.022051575 0.025526276 0.016250111 0.00055147376 0.0126130255
-0.005355395 -0.037265416 0.007826996 0.0015254741 0.01397084 -0.004009559 0.009454542 0.010979946
-0.009453447 -0.0016319007 0.010138957 0.013356438 -0.012511532 -0.0047893114 -0.0109129585 0.009471558
0.0011982636 -0.0014452392 -0.0013360068 0.013981068 0.002491499 -0.008641583 -0.0027801401 0.010844277
0.013860457 0.022639673 0.010794015 -0.020239074 0.0014822271 0.013330225 -0.0078483345 0.011241135
-0.01868179 0.00892294 0.025672026 -0.0124196075 0.0017352351 -0.01570601 -0.013369938 0.020771272
-0.003366005 0.013678745 0.00432705 -0.004519869 0.026177008 0.003221596 0.018195866 -0.020020068
0.008820622 -0.01740608 0.022520177 0.004993558 0.015957586 0.027790273 0.006737991 -0.006050787
-0.008783098 -0.008779197 -0.016275613 0.01083857 0.011423852 0.00018501084 -0.0051410687 0.014600551
-0.011988087 -0.009770724 0.0064255977 -0.0155230025 -0.012277075 0.0012740329 0.019439911 -0.0065187644

nnECG.1.running_mean f4 [128]
00000000: 3058 72be 6dc9 9c3d d693 eebe 32d6 5e3e
00000010: 3c46 913e 468c 0f3f 86d2 363e a0bd a8bd
00000020: 4115 ddbc c6c5 a43e d053 81bd 6919 ca3e
00000030: 06a2 ac3e 2623 b33d cbd0 4439 c29a dc3c
00000040: e330 03bc a7d2 a43e be3c 643e af5e 17bf
00000050: f105 43bb ae5d 9ebe 2d33 3ebe 6453 bfbe
00000060: 2da3 e9bd ac29 dbbd cbb6 473e 7bb8 0d3e
00000070: 6a75 873d b25e 8e3e d63d dc3e f41b 16bf
00000080: e279 7abe e9c9 91be 0c63 d63d 8b0a 27be
00000090: b86b 8bbe e8c8 cbbc d57c 60be 9a2b 9d3e
000000a0: 26da 57be 9a71 9a3e e540 b83e 0a66 97bd
000000b0: 6336 b13d 14ff 03be 5e90 a3be 3e04 82be
000000c0: 3a54 8b3c 3cde 273e 90db ff3d b4ee 23be
000000d0: 0d31 f4be 5c7d 89be 9b1c 7d3e 39f5 ddbd
000000e0: 4525 92bd 4d85 c83e b3b2 a83d 47d3 8cbe
000000f0: f667 8c3d 63e1 9bbe c45c 76be c1a7 36be
00000100: 09bf 8b3e 23f9 bb3e d9b2 b2bd e7d1 a4be
00000110: 1e0d 5c3e a8bf 863d c7a2 3cbe 0d99 e83d
00000120: ec9e b8be 7c1e b2bc 0f93 9fbd 0420 2dbe
00000130: d9cc 1b3e 0a46 013d 9c74 a03e c42b 08be
00000140: cb91 4b3e ab97 b4bd fec2 2d3e 1658 bd3e
00000150: dbba 613e a3cb 4f3d 7cde cb3d 6a36 91be
00000160: 30d9 b2bd 0398 993d 6cfd ebbe 62c4 d83e
00000170: eee8 323e c5ef 8fbe 7ff2 d63e 6ef8 9ebe
00000180: d263 e8bd 0847 41be 7e82 bbbd 529b 273e
00000190: 7e2b f83d 8d99 253c b9b7 82be 4446 48be
000001a0: b863 2a3e 10c5 a7bd f83f e9be 926f 50be
000001b0: b510 103d dd6c 0fbe a7d7 35be f119 8a3e
000001c0: a6bb 2cbe 6396 a93e 5dce 02be 2236 29be
000001d0: 1227 dfbd 6960 693c e1f3 a2bd 4a31 bbbe
000001e0: a69b 893e 9ac6 64bd 3f20 09be 27a9 803e
000001f0: ea00 91be 4afb bb3e 86fd aebe 4c9d 5ebe
-0.23666453 0.076556064 -0.46597165 0.21761397 0.28373897 0.56073415 0.17853746 -0.08239293
-0.026987674 0.3218214 -0.06314814 0.3947251 0.33717364 0.087469384 0.00018769798 0.026929263
-0.008007261 0.32191965 0.22288796 -0.5912885 -0.002975818 -0.30930847 -0.1857421 -0.3736831
-0.114080764 -0.10701308 0.19503324 0.13839905 0.06614192 0.27806622 0.43015927 -0.58636403
-0.24460557 -0.28474358 0.104681104 -0.16312616 -0.2723062 -0.024876073 -0.2192262 0.30697328
-0.21079311 0.30164796 0.3598701 -0.07392509 0.086529516 -0.12890273 -0.3194608 -0.25393862
0.017007936 0.1639337 0.1249305 -0.16009027 -0.47693673 -0.26853454 0.24717943 -0.10837788
-0.07136015 0.391642 0.08237209 -0.27504942 0.068557665 -0.30445394 -0.24058825 -0.1783743
0.27294186 0.36713514 -0.08725519 -0.32191393 0.21489379 0.06579524 -0.1842147 0.11357317
-0.36058748 -0.021743052 -0.07791721 -0.16906744 0.15214862 0.031560935 0.31338966 -0.13297945
0.19879834 -0.08817991 0.16968915 0.36981267 0.22043936 0.050731312 0.09954545 -0.28361827
-0.087328315 0.07499697 -0.46091783 0.42337328 0.17471668 -0.28112617 0.41981885 -0.31048912
-0.11347164 -0.18874753 -0.09155749 0.16367844 0.121176705 0.01010741 -0.25530794 -0.19558054
0.16639602 -0.081918836 -0.45556617 -0.2035506 0.035172183 -0.14006372 -0.17758046 0.26972917
-0.16868457 0.33122548 -0.12774034 -0.16524556 -0.10896124 0.014244177 -0.079566725 -0.36561042
0.26876563 -0.055853464 -0.13391207 0.25129053 -0.2832101 0.36715156 -0.34177798 -0.21739691

nnECG.1.running_var f4 [128]
00000000: df6d 983d d59d 963d 2de6 983d 2c2c 9d3d
00000010: cf71 963d 9c41 953d 58f1 943d cb4d 9c3d
00000020: be0d 943d 90d9 943d c798 993d 4aeb 943d
00000030: 49ed 9d3d abe8 983d fa0f 993d 86ab 933d
00000040: 3383 963d df0f 9b3d 6daa 963d 33dc 983d
00000050: 73c1 993d 61dd 9a3d 9b2c 963d d4f7 973d
00000060: 29c7 9c3d aa0d 963d 3d6f 963d 3109 963d
00000070: 6621 963d 68bb 9f3d e2dc 9a3d d395 9c3d
00000080: cbf8 a23d 068c 963d 4449 943d 0154 973d
00000090: 4166 943d 3aee 953d 8ec4 9d3d fc11 983d
000000a0: 836d 943d 5ccf 9b3d eacc 9e3d 1573 943d
000000b0: 3ac8 933d d97e 9a3d 5eb2 943d f6d3 953d
000000c0: 9d0a 963d 8fe9 9c3d 4cac a13d 19f5 973d
000000d0: ade9 933d 3def 963d 4840 a03d cd65 953d
000000e0: 6c79 943d e3d3 9c3d c675 983d 663e 983d
000000f0: d87c 9d3d 8a40 a53d 0724 983d 8f8d 9d3d
00000100: 0c04 983d 3dc6 973d 7fd5 943d 55ff 9a3d
00000110: 201f 963d a45b 983d f0b0 963d 0693 983d
00000120: 4635 993d c8f1 943d 4684 a33d 67bd 983d
00000130: 46e7 963d 6c28 973d 4a5f 993d c25f 943d
00000140: 162e 993d 7e76 9a3d 6c14 953d cc74 983d
00000150: 63eb 973d 81ee 9a3d 0fb6 973d 7462 953d
00000160: 5cd1 a33d 292e 963d 42d2 963d 7ff4 a53d
00000170: 7954 983d dd94 943d 40b9 953d f2f6 943d
00000180: efac 993d a2bb 993d d4a7 953d 1b1a 993d
00000190: 3843 963d 6207 943d 4cf3 993d 0d6b a43d
000001a0: a704 973d 22e1 993d 7950 963d 739e 983d
000001b0: 30bb 963d b86a 953d 0ca4 953d 3358 963d
000001c0: 2401 943d 46c5 963d 8295 9a3d f906 993d
000001d0: a557 993d 8bb9 af3d e5e0 943d 60c8 9a3d
000001e0: 87c2 993d f779 973d c54e 953d 453f 9c3d
000001f0: a05f 973d 9e1c 9b3d 7901 953d 3496 9b3d
0.07442831 0.07354323 0.074657775 0.07674441 0.07345926 0.072879046 0.07272595 0.07632025
0.072291836 0.07268059 0.07499843 0.0727144 0.07711274 0.07466253 0.074737504 0.0721045
0.07349243 0.075713865 0.07356725 0.07463875 0.07507601 0.07561756 0.073327266 0.07420316
0.07655174 0.07326825 0.07345436 0.07325972 0.07330589 0.07799417 0.07561661 0.07645764
0.0795761 0.07350926 0.07240537 0.07389069 0.07246066 0.07320829 0.077035055 0.07425305
0.0724745 0.0760791 0.07753928 0.07248513 0.072159246 0.075437255 0.07260583 0.07315819
0.07326243 0.07661735 0.07894191 0.074197955 0.072223045 0.0736985 0.07824761 0.072948076
0.07249722 0.07657602 0.074443385 0.074337766 0.07689828 0.080689505 0.07428747 0.07693016
0.07422647 0.07410858 0.07267284 0.07568232 0.073301554 0.07439354 0.07357967 0.074499175
0.07480864 0.072726786 0.079842135 0.07458001 0.07368331 0.07380757 0.07488878 0.07244827
0.07479493 0.07542132 0.07279286 0.07444152 0.07417943 0.07565022 0.07407772 0.07294169
0.079989165 0.07333023 0.07364322 0.081032746 0.07437987 0.07254956 0.07310724 0.072736636
0.075036876 0.07506491 0.07307401 0.07475682 0.0733704 0.07227971 0.07517108 0.08028231
0.07373934 0.07513644 0.07339568 0.07452097 0.07359922 0.072957456 0.0730668 0.073410414
0.0722678 0.07361846 0.075480476 0.07472033 0.0748742 0.085803114 0.07269458 0.0755775
0.07507806 0.0739631 0.07290415 0.07629255 0.07391286 0.07573818 0.072756715 0.07597008

nnECG.4.weight f4 [64, 128]
00000000: aa43 acbd 48a4 38be 8233 fbbc 5731 77be
00000010: 8254 bc3c 92d0 ff3d dd53 423e bc87 7fbd
00000020: ac76 e5bd e8f8 dabb d28a 82be c983 08bd
00000030: 9412 0b3b ce88 12bc 6e0d 2fbe 76fe 77bd
00000040: af67 5ebe 7d30 84bd 9688 8b3d 0a13 45be
00000050: 52c3 5ebe 3380 8cbd 56b5 a0bd 53ae da3d
00000060: 6870 bb3d b1aa 54be 3198 853d b96c 683c
00000070: 81a0 1b3e a1fa a63c e986 003e f2ce 5fbd
00000080: df0f b73d 4b97 59bd 9cd5 c63d cde4 c63d
00000090: 1c61 1ebe aba7 42be f8e9 ad3c 2215 0c3e
000000a0: e9c4 61bd cdbb 17bd a346 8d3c 1a2d 13b7
000000b0: a33f d9bb 4fc5 dbbb e11b c6bc 6d08 40bb
000000c0: f28f 283e ddbf 873d f0fb 25be 3472 b2bc
000000d0: dc15 3c3e 51e8 073e 5318 133e d880 2abe
000000e0: 630b 4cbe 6afd 223e ee5d 3cbe 3020 853e
000000f0: bc98 41be 9f92 823d 0e37 ccbb 3f00 5b3e
00000100: 77a2 203e bd93 c13d c595 c33d e252 cbbd
00000110: 87b0 4cbd 4d16 e63d 6b98 2b3e 0295 e5bd
00000120: ff0b a0bd 7a0e d8bd a052 07be 9c32 58bd
00000130: 78f7 773b 0161 72be b2dd 9abd 1e2c a03c
00000140: 1d40 2a3d 3708 17be 6645 89bd b176 2fbe
00000150: ffd2 c8bd ad60 0d3e 3519 af3c 8336 263d
00000160: 6e63 40bc 5623 1fbe 6258 453e 338d 333d
00000170: eed7 82bb 3410 e6bb b736 333e c34b c3bd
00000180: ce09 8fbd 76a2 c8bc bbf6 97be f50c a8bc
00000190: ebed 553e 85b7 353e 1b76 a3bd afe5 b2bb
000001a0: 0091 5cbe cba2 243e 1024 96bd 7d21 713c
000001b0: 513e b93d bcdd 36be a830 99bd f6e3 a5bd
000001c0: a111 03bd 3c07 59bc 006a 75be 8c52 00be
000001d0: a3de 823d 717e 843d 784c 003c 3ebd 9e3d
000001e0: de59 35be 44d2 38be ac54 81bd d89e 053d
000001f0: 99a0 87bd 4cff 40bd 27c3 71bd 2422 94bd
00000200: dde0 843c 91c8 61bd 8904 f63d 63af 0f3e
00000210: 3ecc 593e 7a89 fa3d 384d 963c 7f67 98bd
00000220: 5042 ebbc cd7d 93bc 3160 413d d2e6 a83c
00000230: 5b82 0a3c 3788 c83d 2f36 17bd 2482 35be
00000240: b478 72be aae7 6cbd aa7f 25bc 3eeb 2ebd
00000250: 74e6 273e 8d33 f53d 2655 46be b991 163d
00000260: 75a4 cfbc 4e71 6ebc e315 a3bd 1a36 02be
00000270: e983 c1bd 4c18 473d cbc8 d2bd f32d 213d
00000280: b425 0e3e e554 483d fc18 05be 4220 e43c
00000290: 3c72 7fbb c297 04be 587e 783d 0ba4 47be
000002a0: e861 9f3d 3292 6fbd 4b6c d6bd 5e21 0ebe
000002b0: 1c0f 98bd 3d23 173e db1a 11be 0d8a 29bd
000002c0: fac7 dc3d 10ae 50be 8945 233e 24b8 23be
000002d0: a029 fbbc 5e57 f2bd 5b56 2e3e 06fa 293d
000002e0: 8014 3fbe d970 f1bd 2f04 bd3d bad7 35bd
000002f0: 8b62 2bbd b892 0d3e 19a1 c6bd 88ca 4bbe
00000300: 7aca dbbd eb51 d13d 1047 52be 31fd 373d
00000310: d8f6 763d 8ffd c13b 3d0f 75bd 4a01 8abc
00000320: 4e45 8bbd de80 cbbc 7a60 bc3d c7d8 b43c
00000330: 965b 29be 4fda a83d 1591 153e b976 f6bc
00000340: b10b dd3d 991e 73be 4630 193e c8cb 5abe
00000350: 0e00 f3bd 426e 243e ef75 0e3e 9c76 e43b
00000360: d630 dc3d 2039 d13d a134 1f3c 33eb 3fbd
00000370: bde9 cf3d db62 ad3d 68f9 87bc f989 f5bd
00000380: 03b5 01be 9a14 d73b a344 20bb 1885 033d
00000390: e458 e33d 34df 953d af7a 2fbe 8737 0cbd
000003a0: b5a9 0bbd 8318 873c d924 52be 6b43 f23d
000003b0: f439 01bd 4816 ffbd 345d 18be 625d ac3d
000003c0: e284 093e a8d3 063e c806 033e b58d 503e
000003d0: 938c 71bd 4046 a7bb aaff 513d 98ca 373d
000003e0: 99f8 003d 9d61 d03d a7ee 833c 642a d23d
000003f0: c03b 68bd 76dd 1cbc 2824 bcbd af54 5c3d
-0.084113434 -0.18031418 -0.03066421 -0.24139915 0.022989515 0.124909535 0.18977304 -0.062385306
-0.112042755 -0.006682504 -0.25496536 -0.033328805 0.002122079 -0.00894375 -0.17094967 -0.060545407
-0.2171924 -0.06454561 0.06813161 -0.19245544 -0.21754196 -0.068603896 -0.07847087 0.10677781
0.09152299 -0.20768239 0.06523169 0.014186078 0.15197946 0.020383181 0.12551464 -0.054640718
0.08938574 -0.0531228 0.097087115 0.09711609 -0.15466732 -0.19009273 0.021229729 0.13679937
-0.05511943 -0.037044335 0.017245596 -8.772384e-06 -0.0066299005 -0.0067068706 -0.024183216 -0.0029301897
0.16461161 0.06628392 -0.16209388 -0.021782972 0.18367714 0.13272215 0.14364748 -0.16650712
-0.19926219 0.15916982 -0.18395206 0.2600112 -0.1890592 0.06375622 -0.006232149 0.21386813
0.15686975 0.09452007 0.09550051 -0.09927918 -0.049973037 0.11234722 0.16757362 -0.112100616
-0.07814788 -0.10549636 -0.13215113 -0.05278264 0.0037836712 -0.23669817 -0.07561816 0.019552287
0.04156505 -0.14749227 -0.0670269 -0.17135121 -0.09805869 0.1380641 0.021374324 0.04057933
-0.011742456 -0.15540823 0.19271997 0.04383583 -0.003993026 -0.0070209745 0.17501341 -0.09535935
-0.06984292 -0.02449153 -0.29680428 -0.02051399 0.2089154 0.17745788 -0.07981511 -0.0054595093
-0.21539688 0.16077726 -0.07331097 0.014717457 0.09045089 -0.17858022 -0.074799836 -0.08100121
-0.031999234 -0.013246354 -0.23966217 -0.12531489 0.06390121 0.06469429 0.007830732 0.07750939
-0.17710063 -0.1804896 -0.06314978 0.03262219 -0.066224284 -0.04711847 -0.059024002 -0.07233074
0.016220504 -0.055122916 0.12012584 0.14031748 0.21269318 0.12233253 0.018347368 -0.07441615
-0.028718144 -0.018004322 0.047210876 0.020617876 0.008453931 0.09791606 -0.036916908 -0.17725426
-0.23678857 -0.05783812 -0.010101238 -0.042704813 0.16396505 0.11972723 -0.19368419 0.036760066
-0.025346974 -0.014553381 -0.07963159 -0.1271595 -0.09448988 0.048607156 -0.102922045 0.03935046
0.1388157 0.048909087 -0.12997812 0.027847413 -0.0038978 -0.12948516 0.060667366 -0.19496171
0.07782346 -0.058489032 -0.10469874 -0.13879916 -0.07424757 0.14759536 -0.14170401 -0.04139142
0.1078033 -0.203789 0.15944494 -0.15988213 -0.030659497 -0.1183307 0.1702513 0.041498207
-0.18660164 -0.11789102 0.092293136 -0.044395186 -0.041842025 0.138255 -0.09698696 -0.19901478
-0.10731979 0.10220703 -0.2053492 0.044919197 0.060294002 0.005920119 -0.059828985 -0.016846318
-0.06800328 -0.024841722 0.09198089 0.022076024 -0.16538844 0.08244764 0.14606126 -0.030085908
0.107932456 -0.23742141 0.14959821 -0.21366799 -0.11865245 0.16057685 0.13912176 0.006972147
0.10751502 0.10215974 0.009717138 -0.046855163 0.10152004 0.08466121 -0.016598418 -0.11989207
-0.12666707 0.006563735 -0.0024454973 0.03210935 0.11100939 0.07317963 -0.17136644 -0.034232643
-0.034097392 0.01649118 -0.20521869 0.11829265 -0.03154941 -0.12455422 -0.14879304 0.08416249
0.13429597 0.13166678 0.12795556 0.20366557 -0.058971953 -0.00510481 0.05126921 0.044870943
0.03148708 0.10174868 0.01610501 0.102619916 -0.056697607 -0.009574285 -0.09186584 0.053791698

nnECG.4.bias f4 [64]
00000000: 97ee 303c c645 13bd a1e9 a73c 3aad 2ebb
00000010: 68b8 3bbd 1b35 b83c fc4e eb3c 20d6 ecbb
00000020: bff4 d73c cc4f 323d d1d9 9fbc b91e 0a3d
00000030: 3ec6 aa3c 6288 0c3d e7da 1ebc 97ec a13c
00000040: c375 6f3c ed04 24bc 0af8 ebbb 9fd7 f33c
00000050: fa5d 133d b5e0 213c acf7 213d 88f0 54bd
00000060: bf93 7d3c 803d 873b 4640 993c 1bcd 0a3d
00000070: e7c1 8bbd ac09 7dba 8b6a f8bc 887d 943c
00000080: d3c0 77ba 23f8 9b3b 1877 acbb d60b 813c
00000090: d7b4 0f3d b717 c5bb 8527 80b9 d2ed 0d3d
000000a0: 71b1 d3bb 28bf 903b 640b 44bd 3ce9 c0bc
000000b0: b032 c03c a19a 1fbc 7d5a eb3c f072 fdba
000000c0: e3b1 c1bc ceb5 4dbd 778c 233b 43bc 083c
000000d0: d7a2 b83c 7dad 4abc 4b5a d13a b79f fb3c
000000e0: 38a0 613c 85bf ab3b f627 823c 7766 32bd
000000f0: d628 59bc 27d1 b73c a902 ae3c 341c 4cbc
0.010799072 -0.035955213 0.020497145 -0.0026653544 -0.04583016 0.02248626 0.028724186 -0.007227674
0.026361821 0.04353313 -0.019513043 0.033720706 0.020846482 0.034309752 -0.009695745 0.019766135
0.014615479 -0.01001094 -0.0072011994 0.029765902 0.035978295 0.0098802345 0.03954284 -0.0519872
0.01547712 0.0041272044 0.018707406 0.03388701 -0.06824093 -0.00096526253 -0.030324241 0.018126264
-0.00094510353 0.004759805 -0.0052632205 0.015752714 0.03508457 -0.00601479 -0.00024443507 0.03465063
-0.0064603616 0.004417319 -0.047862425 -0.023548715 0.02346167 -0.009741456 0.028729672 -0.0019336622
-0.023644393 -0.05022221 0.002495555 0.008345666 0.022538586 -0.012370464 0.0015972344 0.030715806
0.013771109 0.0052413368 0.015888195 -0.04355475 -0.013254365 0.022438599 0.021241503 -0.012457896

nnECG.5.weight f4 [64]
00000000: b830 973f d339 853f 1a59 863f 32b2 913f
00000010: 6edf 783f 558e 893f 584f 8a3f e020 863f
00000020: a104 943f 1c5e 923f 705a 903f 7dad 8c3f
00000030: bfe7 893f abf5 873f bfc7 873f bb39 833f
00000040: 32c1 933f d3e5 873f 68da 903f 35c4 923f
00000050: bd1c 8f3f 04b2 8b3f c0e6 933f 419f 853f
00000060: 5fe3 953f 4da2 893f 337f 813f 7f9d 8a3f
00000070: 7ff6 883f 7a3f 8d3f b12d 843f eb26 863f
00000080: 9df4 873f af88 913f 4053 883f 0575 823f
00000090: 3154 893f d113 8a3f fb7f 8b3f ca7a 8a3f
000000a0: c3c0 883f d69e 793f 74c9 7b3f 53dc 783f
000000b0: 4d69 7b3f 5f7b 8a3f dc80 843f 3964 8f3f
000000c0: b30b 7a3f 4c2f 8d3f ad33 8f3f 5830 903f
000000d0: e371 863f 7543 823f d318 993f c7d4 903f
000000e0: 11ec 853f b37d 8c3f d2de 833f c5da 743f
000000f0: cb92 993f 7f2a 843f 006a 8c3f 45df 873f
1.1811743 1.0408272 1.0495942 1.1382506 0.97215927 1.0746561 1.0805464 1.0478783
1.1563913 1.143497 1.1277599 1.0990444 1.0773848 1.0621847 1.0607833 1.0251993
1.1543334 1.0617012 1.1316652 1.1466128 1.1180645 1.0913701 1.1554794 1.0439225
1.1710013 1.0752655 1.0116943 1.0829314 1.0700225 1.1034997 1.0326444 1.0480627
1.0621525 1.1369838 1.0650406 1.0191962 1.0728818 1.0787297 1.0898432 1.0818722
1.0683826 0.9750799 0.9835427 0.9721119 0.9820755 1.08189 1.0351825 1.120246
0.976741 1.1030059 1.1187645 1.1264753 1.0503505 1.0176836 1.1960701 1.1314934
1.0462667 1.097586 1.0302374 0.95646316 1.1997923 1.0325469 1.0969849 1.0615011

nnECG.5.bias f4 [64]
00000000: 41d8 5b3a 54b2 39bd fa90 f93b 2698 4cbc
00000010: 75d5 5cbd f5cf 743c b102 c53c d788 a4bc
00000020: d1ec cc3c be8f fd3c 78e3 a2bc 5475 c53c
00000030: e358 8c3c b1dd c13c 8767 63bc 67fc 5dbb
00000040: 981d d839 89be 15bc 9407 cebb de06 f03c
00000050: 600e 0f3d d09a 01bb ce94 153d 05c4 78bd
00000060: f02c f63b d7a7 21bc 4c2a 943c cb1f a63c
00000070: c4c9 a4bd cd09 91bc 97db 06bd 8e3c a03a
00000080: 2625 1abc 5459 ddbb fdcf efbb 03c3 7f3c
00000090: 2aa9 6b3c 6624 8bbc 9151 72bc 4e1e 443c
000000a0: 6468 07bd e6d8 c3bb 7283 60bd 7c4b 03bd
000000b0: 48d1 803b ea16 adbc f1d7 8c3c 2eae 80bc
000000c0: 2435 2fbd 5a8b 84bd 306e 32bb d829 713b
000000d0: 62e5 0a3c 8347 d8bc ece3 9bbb 777a b63c
000000e0: 675f 99bb 01e5 afbb 315d a23b da4a 89bd
000000f0: 778b e4bc 39b0 6b3c ebff 9f3c fd42 68bc
0.00083864114 -0.045336083 0.0076161595 -0.012487447 -0.053914506 0.014942159 0.024049135 -0.020084782
0.025015267 0.03095233 -0.019883856 0.024103798 0.017132228 0.023665281 -0.013879663 -0.0033872367
0.0004122078 -0.009139665 -0.0062875245 0.02930015 0.03492582 -0.0019776113 0.036518864 -0.060733814
0.007512681 -0.009866676 0.018086575 0.020278832 -0.08046296 -0.017704869 -0.03292426 0.0012225078
-0.009408271 -0.0067550335 -0.0073184953 0.015610459 0.014383594 -0.01698513 -0.014789955 0.011970116
-0.03305854 -0.005976784 -0.054812856 -0.03205441 0.0039311983 -0.02112909 0.017192813 -0.015708055
-0.04277529 -0.06471892 -0.0027226321 0.0036798622 0.008477541 -0.026401287 -0.004757395 0.022275193
-0.0046805623 -0.0053678756 0.004954957 -0.0670373 -0.027898533 0.0143852765 0.01953121 -0.0141761275

nnECG.5.running_mean f4 [64]
00000000: d8b3 003e f0a1 2e3e 37fe 4c3d 82d2 d53d
00000010: c7d5 b1be 3bd1 193e c3c8 9abe 5ad4 4c3d
00000020: 26e4 c93d 58d1 fc3d 0225 4a3d 9b19 843e
00000030: 8bdd 7abe b0b9 ad3d 0b63 843d 0f5b 00bf
00000040: 02c6 5b3e 689b 31be 3b10 30be c1d1 cf3d
00000050: 632d 06be 8aaa 5abe d702 51be b9e8 ffbe
00000060: 90d7 3d3e a655 9ebe 63c8 c0be 704d 0d3e
00000070: 4276 fabd 1616 0e3d 486e 30be dd56 a5bc
00000080: 671f 38bd 6a1b cdbe 9bc3 ffbb 0b35 afbd
00000090: f5e0 a53d 2755 a73d e581 00bd b194 dd3e
000000a0: 0c68 933d 8719 eb3e d3e4 d6be 91f9 e93e
000000b0: 2a8b 09be 29a5 6dbe 04fe 31be bed0 343e
000000c0: 3e24 143e 8372 83bd c6b8 9f3e 74a9 c63e
000000d0: c1d2 1ebe 84de cdbe df78 843d 381f 2d3f
000000e0: 0b5e c6be f181 f73d 1815 453f 2146 8ebe
000000f0: 1b49 b3be e97c e3be 94d6 b23e d76f acbe
0.12568605 0.17053962 0.050047126 0.10440542 -0.34733412 0.15021221 -0.30231294 0.0500072
0.09857969 0.12344617 0.0493517 0.25800785 -0.24498574 0.08482683 0.064642034 -0.50138944
0.21462253 -0.17344439 -0.17193691 0.10147429 -0.13103251 -0.21354118 -0.2041124 -0.4998224
0.18539262 -0.3092472 -0.37652883 0.13799071 -0.12229587 0.03468903 -0.17229569 -0.020183021
-0.044951823 -0.40059978 -0.0078053004 -0.08555039 0.08099548 0.081705384 -0.031373877 0.43277505
0.0719758 0.45917913 -0.41971454 0.45698217 -0.13431993 -0.23207535 -0.17382056 0.17657754
0.1446695 -0.06418326 0.31195658 0.38801157 -0.15510084 -0.40208828 0.06468367 0.6762576
-0.38743624 0.12085331 0.7698531 -0.2778788 -0.35016713 -0.44431236 0.34929335 -0.33679077

nnECG.5.running_var f4 [64]
00000000: 01f0 873f fd3c 9e3f 1fe0 853f d8a6 df3f
00000010: 9271 583f 317a a53f d601 923f 300e 653f
00000020: 4256 7b3f 9c9e b23f dc8f 873f d992 c03f
00000030: 4ded 8d3f aef9 d33f c972 6d3f 3f39 a63f
00000040: fc5c 703f bc9a c93f f97e 703f d9d9 7a3f
00000050: a05c 963f 56bd b73f 7ec1 0c40 3e70 ab3f
00000060: 13f8 b43f 3390 c03f 86b7 6a3f bb82 783f
00000070: 8da0 c63f baf5 5d3f 7985 c33f b063 9b3f
00000080: 6b38 d23f 2538 d43f 9316 843f a26b a43f
00000090: 926a a43f f716 7a3f 70a8 833f dde3 683f
000000a0: 0704 923f 6b13 c83f cd7f 623f 8275 643f
000000b0: 164c 5e3f fcc4 7c3f a762 823f 7da2 903f
000000c0: 2a38 5b3f 38cf 893f 4bc2 583f fd24 933f
000000d0: fb15 c93f 2f7c db3f 7246 863f c30f dd3f
000000e0: 9069 8a3f 595e 803f 2fbc 6e3f b61d cb3f
000000f0: 4b30 c53f 6595 913f 66f8 593f bbe8 433f
1.0620118 1.2362362 1.0459021 1.7472792 0.84548295 1.2927915 1.140681 0.89474773
0.98178494 1.3954654 1.0590777 1.5044814 1.1088043 1.6560571 0.92753273 1.298622
0.9389188 1.5750346 0.93943745 0.9798866 1.1747017 1.4354656 2.1993098 1.3393629
1.4138206 1.5044006 0.91686285 0.9707448 1.5517746 0.86703074 1.5275108 1.2139797
1.6423467 1.6579634 1.0319389 1.2845347 1.2845023 0.9769129 1.0285778 0.9097269
1.1407479 1.5630926 0.8847626 0.892418 0.8683485 0.98738074 1.0186356 1.1299587
0.85632575 1.0766363 0.8467147 1.1495663 1.5709833 1.7147273 1.0490248 1.7270435
1.0813465 1.0028793 0.93255895 1.5868442 1.5405363 1.1373717 0.8514465 0.76526994

nnECG.8.weight f4 [16, 64]
00000000: b71a 8d3e 19b8 7e3d dbca 38be 2621 42bd
00000010: f99f 32be 4626 9bbe 61df 693d a1cb 81bd
00000020: 0f6d 16be 7481 843e 3990 0dbd aad5 3d3d
00000030: 31ee 00be 7cc6 4b3e 112d 523e 4c5c eebd
00000040: 9fe5 71be a8eb e73d 3e35 a8bd 581d 883e
00000050: a483 41be 3c63 94bc 4ed0 c43c 5af3 713e
00000060: a4f1 53be 9555 063e db5b 383e 4370 2a3e
00000070: 7f9b bd3e 359f 203d b04f 0fbe 9a3f 09be
00000080: c92d 303e 61eb 993d 306d 123e b564 4fbc
00000090: c9bd 9bbd fe17 033e 5bf5 91be 88f3 27be
000000a0: 5969 373e 514c f23b 9319 a4be a5be 643e
000000b0: 42c3 75be cfec 503c 1f0d e2bd d9d9 9abe
000000c0: 17ed 86be 8ebb 7b3d c377 cbbc 1811 89ba
000000d0: 97e0 88bc 03af 36be 8ad3 f1bc ff30 0b3e
000000e0: aa48 413e ea50 40be 82f1 113e ed3e e83d
000000f0: b3d7 6f3e 9119 2dbc b6e9 683e 1573 64be
00000100: 98de 34be 567f 55be 4f00 33be 2a52 363e
00000110: 0ab6 29be 2033 ca3d 1ec6 d73c b01d 55be
00000120: b2d1 98be 1019 803e 8a69 a3be 22fd b33e
00000130: c7ce 3a3e 728d 013e 3733 543e 3193 633e
00000140: e18d 323e 5cb2 4a3c 7f40 41be 6b46 293e
00000150: cd1a 303e 1de1 df3d 8713 ad3e b502 5dbe
00000160: fc03 14be 6761 f5bd 4a1e 6a3e 0113 163e
00000170: 93fb 66bd ab66 583e bf7c 403d 1921 cdbc
00000180: 09c6 e13d c648 15bd 6901 113e a7f2 813e
00000190: 66af ad3e 55db 0bbe d280 a93d 3b00 923e
000001a0: 2dc2 2cbe c0c5 22be 9aba 85be 3171 85be
000001b0: 389f 5d3e 187c 3b3e 508e 8d3e 2c96 bcbd
000001c0: 8f61 66be 702d a3bd 787a 24bc e72c 87be
000001d0: 593b c2bc 4ed2 2a3e cc30 26be 098f b8be
000001e0: bc29 153e 9ea6 d33d 7d71 d83d 1df0 05be
000001f0: 9fe8 fabb 170d 0b3d 44d1 38be 1e30 ab3d
00000200: 689b 82bc 1783 163e 1e79 21be d39a 0a3e
00000210: 8112 293e c64d 523e 660d b7be 491f 8e3e
00000220: fcfa 503e 9a10 95be b64b c53e e918 193d
00000230: 279f 79be 0af7 70be c0e7 8ebe 9fe8 07bd
00000240: ab4a 43bd 6555 2b3e 8945 1ebe 7a35 8dbe
00000250: f1e7 4c3e 5e34 af3e eb76 78be f9d4 c33d
00000260: 4578 c43d 03f6 053d f375 33bc b869 9bbe
00000270: cb46 52be 91f0 4abe f039 6d3d e7c2 b43a
00000280: a4ba 713e 2bb4 fbbd 65c1 ccbc cb50 67be
00000290: bc8f 06be ebf3 aa3e a34d a43e f998 7dbd
000002a0: 00b0 f4bc e5c0 223d a8dd e8bd 870b cabd
000002b0: 60f1 4abe 7267 803e fad6 c63d 2be8 993d
000002c0: 3871 61be 9c17 9e3d 3ffe 333e a7f1 f23d
000002d0: ae7f 093e f9aa 35be f3eb 563e fd9a c13d
000002e0: faca 37be 9d11 aa3e cab4 60be 45ae 20be
000002f0: 8cf7 303e 18db 13bd ec19 93bd 09ba b53e
00000300: be96 303e e296 543e b125 be3d 81a7 85bd
00000310: 062c d23d b66d 1ebd 5971 10be 3bff 39bd
00000320: 10c0 c53d 8a5b 73bd c508 83bd 8841 0b3e
00000330: c101 a53c 4309 2abd d617 05be 85f9 b7bd
00000340: 9b62 003e 6190 3fbe 8f4c fa3d 32af 87bd
00000350: 450a 753e e497 36be c371 cabe 5f31 50be
00000360: ab97 953e 1200 33be 9809 73be ef3f 02be
00000370: 12db 633e 2cd5 b23d 041e 233e dde4 09be
00000380: 6b92 803e 9b70 0ebe 7de1 febd 3cce 61be
00000390: bc7d 4cbe 532c 863e 397c 8ebe a71d 8e3e
000003a0: 547d a4bd 19bc 8c3e 7f98 0abe ef18 e7bd
000003b0: 6828 fd3d 9219 563e ccb2 353e 25b1 eb3d
000003c0: 7b77 1abe 90f2 e2bd f223 643d 219b a93e
000003d0: ee68 33be 201f 58be 93a7 943e eddc 023d
000003e0: d458 1fbe 2a73 503d 0416 f6bd cbc4 92bd
000003f0: d81d 0d3e 2032 82be 7125 10be 3424 d33c
0.27559444 0.062187288 -0.18046133 -0.047394894 -0.17443837 -0.30302638 0.057097796 -0.06337667
-0.1469004 0.25880015 -0.03456137 0.046346344 -0.12590863 0.19899935 0.20525004 -0.11638698
-0.2362275 0.11324245 -0.0821328 0.26584888 -0.18897873 -0.018113725 0.024025109 0.23627988
-0.20697647 0.13118584 0.1800379 0.16644387 0.37032697 0.03921433 -0.13995242 -0.13403168
0.17204966 0.07515598 0.14299464 -0.012658288 -0.07604558 0.12802121 -0.28507504 -0.16401494
0.1791128 0.0073943515 -0.32050762 0.2233835 -0.24000266 0.012751772 -0.11037659 -0.3024433
-0.2635276 0.061458163 -0.02483738 -0.0010457365 -0.016708655 -0.17840199 -0.029519815 0.1359291
0.18875375 -0.18780866 0.14252284 0.11340127 0.23422126 -0.010565178 0.22745404 -0.22309525
-0.17663038 -0.20849356 -0.17480586 0.1780478 -0.16573349 0.098730326 0.026339587 -0.20812106
-0.29847485 0.2501912 -0.31916457 0.35154063 0.18242942 0.12651613 0.20722662 0.22224118
0.17436935 0.012371626 -0.1887226 0.16530769 0.17197724 0.10931609 0.3380396 -0.21583064
-0.14454645 -0.11981469 0.22863117 0.14655687 -0.056392264 0.21132915 0.046993967 -0.025040196
0.110241 -0.036446355 0.14160694 0.25380442 0.3392288 -0.13657887 0.08276524 0.285158
-0.16870947 -0.15895748 -0.26118928 -0.2606292 0.21642768 0.18309057 0.27647638 -0.092083305
-0.22498153 -0.07967651 -0.010038964 -0.26401445 -0.02370994 0.16681787 -0.16229552 -0.36046627
0.14566702 0.10334514 0.10568521 -0.13079877 -0.007657125 0.03394803 -0.18048579 0.08358787
-0.015943244 0.14698444 -0.15768859 0.13535623 0.16510965 0.2053748 -0.3575241 0.27758244
0.20408243 -0.29114228 0.38534325 0.03737727 -0.24377118 -0.23531738 -0.27911186 -0.03318083
-0.04767863 0.16731794 -0.15456213 -0.27579862 0.20010354 0.3421964 -0.24264114 0.09562106
0.09593252 0.03270532 -0.010953414 -0.30354095 -0.20534818 -0.19818331 0.05791658 0.0013790996
0.23606354 -0.12290224 -0.024994561 -0.22589414 -0.13140768 0.3338922 0.32090482 -0.061913464
-0.02986908 0.03973474 -0.113704026 -0.0986548 -0.1981864 0.25078923 0.09708972 0.07514986
-0.22015846 0.07719347 0.17577456 0.11862498 0.13427612 -0.17741002 0.20988445 0.0945339
-0.17948523 0.33216563 -0.21943966 -0.15691479 0.17281932 -0.036097616 -0.071826786 0.35493496
0.17245004 0.20760682 0.09284533 -0.065260895 0.10262303 -0.038678847 -0.14105739 -0.045409422
0.09655774 -0.05941347 -0.06398157 0.13599217 0.020142438 -0.04151274 -0.12997374 -0.08983139
0.12537615 -0.1870742 0.12221634 -0.06625213 0.23929699 -0.17831379 -0.39539918 -0.20331334
0.29217276 -0.17480496 -0.23734128 -0.12719701 0.22251537 0.087320656 0.15929419 -0.1346621
0.25111708 -0.13910143 -0.12445352 -0.22051328 -0.19969839 0.26205692 -0.2782915 0.27756998
-0.08031717 0.27487257 -0.13534735 -0.112840526 0.123612225 0.20908192 0.17743987 0.11508397
-0.1508464 -0.110814214 0.055698343 0.33126166 -0.17520496 -0.21105623 0.290341 0.031948972
-0.15561229 0.05089108 -0.12015918 -0.071664415 0.13780916 -0.25428867 -0.14076783 0.025774099

nnECG.8.bias f4 [16]
00000000: 7e15 06bd 5b73 2d3d 559a 033d b445 e1bc
00000010: 6f6b 9c3d 93f6 afbb a4e8 ed3b f1e4 443d
00000020: f9ca 38bb 8864 00bc 735f 09bd 89d8 1c3d
00000030: c251 ab3b ff01 023d 76f9 a4bd 85d7 bd3c
-0.03273534 0.04234634 0.032129604 -0.027499057 0.07637679 -0.00536997 0.007260399 0.048069898
-0.0028197153 -0.0078364685 -0.033538293 0.03829244 0.005228252 0.031740185 -0.080553934 0.023174057

nnECG.9.weight f4 [16]
00000000: 9e5f 803f f691 883f d56f 8d3f 59ef 863f
00000010: 3ed8 973f 6eed 8d3f 6ab1 773f 0607 913f
00000020: 55bc 953f 670d 873f 708b 8a3f d237 8c3f
00000030: d01a 883f cf83 873f 8a61 8e3f 6d9b 8b3f
1.002918 1.0669544 1.1049753 1.0541793 1.1862867 1.1088083 0.9675509 1.1330268
1.1698099 1.0550965 1.0823803 1.0954535 1.0633183 1.05871 1.1123517 1.0906807

nnECG.9.bias f4 [16]
00000000: 228f 32bd 8c78 d53c 2f53 033d dac9 c7bc
00000010: 352d 823d 7911 a7bc a650 5d3a 09b8 d53c
00000020: fbb7 8abc 5ddc a2bc a60b 08bd a46e d03c
00000030: 3235 c9bc 6f3d 4e3c e4ef bdbd dcd7 34bb
-0.043593533 0.026058458 0.032061752 -0.024388243 0.06356279 -0.020394074 0.00084424985 0.026088731
-0.016933432 -0.019880468 -0.033214234 0.025443383 -0.024561498 0.012587889 -0.09274271 -0.0027594483

nnECG.9.running_mean f4 [16]
00000000: d4e7 6bbd 2ab9 0e3d 1280 92bd 0bd0 94bd
00000010: 5d9f 3bbd 80ff b83e f727 9cbd c97b 5abd
00000020: add1 bbbd 17f1 d8bc b97b 7c3e b74f 54be
00000030: f315 4e3e 03e8 0a3e 94e4 383d 2459 8dbd
-0.057594135 0.034844555 -0.07153334 -0.072662435 -0.045806278 0.3613243 -0.0762481 -0.053340707
-0.09170852 -0.026482148 0.24656571 -0.20733534 0.2012556 0.13565068 0.045139864 -0.06901768

nnECG.9.running_var f4 [16]
00000000: dccd be3f 7c70 ab3f 7f3d ca3f 82c7 a43f
00000010: 2b8e a63f 1f3e a03f fc53 eb3f 076b c13f
00000020: 6821 893f d229 a43f 741d c73f 5475 b63f
00000030: 395f 9b3f cd6e a93f 1766 c53f 9e32 b13f
1.4906573 1.3393703 1.5800017 1.2873385 1.3012136 1.2518958 1.8385005 1.5110787
1.071332 1.2825263 1.5555863 1.4254556 1.2138435 1.3236939 1.542178 1.3843572

nnECG.12.weight f4 [4, 16]
00000000: c886 fe3c 5d6b 56be 3f15 783e bfe0 833e
00000010: 51a2 99be e176 5b3e 62d8 093f 4d44 c93e
00000020: ae64 c3be 7482 8d3c 079c c4be bb2a d73e
00000030: e893 b73e 2872 8b3d b437 d83d 6059 1abf
00000040: 2c18 bb3d c3e3 f5be d2db 153f 390c 8dbd
00000050: c2a4 a93e e089 d53e 7330 adbc bce9 2fbf
00000060: 8610 66bd 614c 453e 1b4a 02bf aaee d33e
00000070: c6f5 bebd c2cb c63e ee76 f5be 9da7 9a3e
00000080: 22d2 1c3e a8b3 ea3e b8c8 913e 11c7 15bf
00000090: 53df 933e 673d ecbe bdad abbe 720b 00be
000000a0: 8071 c8be 5b93 df3d 3864 1dbe 97ab 163f
000000b0: 7082 bd3e 7590 0f3f 667b 11bf 8000 94bd
000000c0: 5d18 8ebe 9b71 933e 6d5f 033f 13f5 a33e
000000d0: d1f2 8c3d 239f e33d 6660 a13e c79f 8abe
000000e0: dad7 dd3d 792d 81be c19a 3ebe 877a 463d
000000f0: 65ae 0b3e 594a 17bf 18e4 853d c236 aa3e
0.031070128 -0.20939393 0.24226855 0.25757405 -0.3000665 0.21432067 0.538458 0.39309922
-0.3816275 0.017274119 -0.3840029 0.42024788 0.3585503 0.06808883 0.105574995 -0.60292625
0.0913547 -0.4802533 0.58538544 -0.06887097 0.33133513 0.41706753 -0.021141266 -0.68716025
-0.0561681 0.19267417 -0.50894326 0.41393024 -0.09324221 0.3882733 -0.479423 0.30206004
0.15314534 0.45840192 0.2847345 -0.58506876 0.2888132 -0.46140596 -0.3353099 -0.12504366
-0.39149094 0.10916778 -0.15370262 0.58855575 0.37013578 0.560798 -0.56828916 -0.07226658
-0.27752963 0.28797612 0.51317483 0.32022914 0.06882251 0.11114337 0.3151886 -0.27075025
0.10832186 -0.25230005 -0.18613721 0.048456695 0.13640745 -0.5909782 0.06537646 0.33244902

nnECG.12.bias f4 [4]
00000000: 3f6e 443c a34c 113c 04e8 d93c e3d7 f03c
0.011989175 0.008868369 0.026599891 0.029399818

nnECG.13.weight f4 [4]
00000000: f353 883f 9760 883f 6ae9 863f f7f9 8c3f
1.0650619 1.0654477 1.0539982 1.1013783

nnECG.13.bias f4 [4]
00000000: 6d67 c1bb 40c5 9aba 50e8 583c 7f0e 963c
-0.005902222 -0.0011808053 0.013238981 0.01831746

nnECG.13.running_mean f4 [4]
00000000: 4f8e a23e 6309 543c ef25 ac3d e4f1 0d3e
0.31749198 0.012941691 0.08405673 0.13861805

nnECG.13.running_var f4 [4]
00000000: c7e3 ae3f 50dd f73f 2447 f73f 377d 6a3f
1.3663262 1.9364414 1.9318585 0.9159731

nnECG.16.weight f4 [1, 4]
00000000: cd62 30bf 14e8 323f e1b8 2abf 1ac0 d53e
-0.6890076 0.69885373 -0.6668835 0.41748124
