Models/net_3_1_epoch_83.pth (torch, 57997 bytes, 25 tensors)

nnECG.0.weight f4 [128, 12]
0.15501979 -0.0018056111 0.040430494 0.08016572 -0.17300934 -0.23839678 -0.02911782 -0.10907094
0.029276932 -0.0846542 -0.0036468545 0.16380402 0.06159372 -0.15856616 0.24666677 -0.10011962
-0.10814976 0.05762361 0.1233988 0.24278022 -0.17512365 -0.07240973 0.049835257 -0.111766465
0.047987625 -0.033979334 -0.19617835 0.11632257 0.16024859 0.030636882 -0.0075529376 0.16866936
0.14587864 -0.13979448 0.09625898 -0.1530174 0.08486173 -0.28863588 0.10262482 -0.13316847
0.051389486 0.007416166 -0.24217732 -0.16633576 0.05912679 0.034674037 0.18813296 -0.008313306
0.14917716 -0.2554829 0.13510579 -0.17979692 -0.2520086 -0.24173978 -0.1648585 -0.18775155
-0.13671006 -0.14114074 -0.17490262 0.027642021 -0.14179103 -0.11522151 0.14433251 -0.15393636
-0.036228932 -0.15896752 0.02255751 -0.12017443 0.25695437 -0.087711334 -0.23017927 -0.085458726
-0.2445317 0.1985825 -0.052444525 0.20384416 0.23869705 0.13996199 -0.025000148 -0.14936695
0.092048645 0.21454628 0.0945019 -0.0012180444 0.08931932 -0.061248872 -0.118447274 -0.21267678
-0.18623799 -0.07027119 0.25430217 0.08501291 0.05956323 -0.10054582 -0.17133379 0.0845228
0.014995243 -0.12003184 -0.1278339 -0.06019136 -0.0043793344 0.011955546 0.1684639 -0.12107584
-0.030016446 -0.23293652 -0.15399441 0.11350498 0.03676444 -0.15268955 0.14416325 0.19211973
0.25360537 -0.17302915 -0.24629556 -0.09528521 0.009304861 0.10137233 0.16262919 0.05527304
0.21387433 0.1333649 0.21413231 -0.10358693 -0.2846289 0.01158289 -0.13081802 0.085379146
0.17977668 -0.17757939 -0.16760142 0.15196392 0.0038391098 -0.124686636 0.07243091 -0.21156222
-0.29954314 -0.14901309 0.20772712 -0.16350073 -0.0059061353 0.034182966 -0.22335276 -0.11426894
-0.10844949 0.23546593 0.05166373 0.077565625 0.22559394 -0.16408212 -0.053784065 -0.10256321
-0.0810848 0.2113409 -0.12096752 0.084753744 -0.118908525 0.1718662 0.060553104 0.2921209
-0.048578937 -0.050758805 -0.19942658 -0.1532009 0.14215413 0.22811125 0.1611703 -0.14164828
-0.024923932 0.063238494 -0.2296947 0.0052571413 -0.109904714 0.18438472 -0.071323805 -0.016105738
0.093642786 0.14319442 -0.20594127 0.13250509 0.17803225 0.12372814 -0.05629543 -0.11609996
0.107102536 -0.13004605 -0.1977083 -0.029165924 -0.010584844 0.07318108 0.15740378 -0.14494492
-0.17954597 0.19065842 -0.104073614 0.083441705 0.046378296 -0.12107017 -0.14060605 -0.035586882
0.07331344 -0.16009471 -0.1721416 -0.13740249 0.037607532 -0.15587194 0.15110523 -0.0029196378
-0.15986201 -0.080574624 0.06321213 0.19469364 0.054462414 -0.24531913 -0.009133995 0.25894842
-0.27192065 0.11247195 -0.1622806 0.06651955 -0.071142085 -0.00043851451 -0.15622444 -0.010067471
0.16678283 -0.10807806 -0.16427174 -0.1311165 0.22749865 0.16110402 0.10853853 -0.025204621
0.30629888 -0.17761862 -0.012326362 0.046954613 -0.049862355 0.23687807 0.12475911 0.017935116
0.038663246 -0.11380824 -0.10585802 -0.14949152 -0.16653255 -0.18340746 0.16791572 0.15594372
0.26593274 -0.23672912 -0.07345474 0.17870528 0.0996898 0.110039435 0.0568347 0.004865925
00000000: 82bd 1e3e 41aa ecba 729a 253d ed2d a43d
00000010: 5c29 31be 491e 74be 7f88 eebc 9660 dfbd
00000020: 2dd6 ef3c 2e5f adbd 1100 6fbb 3ebc 273e
00000030: b249 7c3d 2b5f 22be 3796 7c3e 840b cdbd
00000040: 9f7d ddbd bc06 6c3d 83b8 fc3d 619b 783e
00000050: 9d53 33be 8d4b 94bd 0e20 4c3d d1e5 e4bd
00000060: ac8e 443d ea2d 0bbd fae2 48be 873a ee3d
00000070: 3518 243e 33fa fa3c a27e f7bb a9b7 2c3e
00000080: 3661 153e 4926 0fbe 6e23 c53d 98b0 1cbe
00000090: fdcb ad3d 15c8 93be f62c d23d 515d 08be
000000a0: c87d 523d 4f03 f33b 55fd 77be ec53 2abe
000000b0: ef2e 723d 5d06 0e3d eda5 403e 8834 08bc
000000c0: e6c1 183e a8ce 82be 2c59 0a3e af1c 38be
000000d0: 4507 81be a28a 77be abd0 28be f141 40be
000000e0: b9fd 0bbe 3387 10be ac19 33be 8571 e23c
000000f0: ab31 11be 41f9 ebbd e7cb 133e 7ea1 1dbe
00000100: ca64 14bd 62c8 22be 87ca b83c 031e f6bd
00000110: 868f 833e 00a2 b3bd 1db4 6bbe fc04 afbd
00000120: 8566 7abe 3659 4b3e 12d0 56bd 86bc 503e
00000130: 006d 743e 3252 0f3e 1ccd ccbc a6f3 18be
00000140: 0084 bc3d 05b2 5b3e 368a c13d caa6 9fba
00000150: 0ced b63d 19e0 7abd 7c94 f2bd f1c7 59be
00000160: 2cb5 3ebe 57ea 8fbd e533 823e 401b ae3d
00000170: 93f8 733d f8ea cdbd 2072 2fbe 4a1a ad3d
00000180: 9cae 753c 41d3 f5bd e4e6 02be 378b 76bd
00000190: 8580 8fbb 32e1 433c cd81 2c3e 9cf6 f7bd
000001a0: 0de5 f5bc e986 6ebe b6b0 1dbe 4d75 e83d
000001b0: 4f96 163d a65a 1cbe 889f 133e 09bb 443e
000001c0: 90d8 813e 8e2e 31be e734 7cbe e424 c3bd
000001d0: 6a73 183c 4c9c cf3d 4488 263e fc65 623d
000001e0: df01 5b3e cf90 083e 8045 5b3e 6225 d4bd
000001f0: e1ba 91be 29c6 3d3c 29f5 05be 43db ae3d
00000200: 6117 383e 5fd7 35be b59f 2bbe 6e9c 1b3e
00000210: 9399 7b3b b55b ffbd a856 943d c4a3 58be
00000220: b85d 99be e396 18be 6bb6 543e bc6c 27be
00000230: 4188 c1bb 7003 0c3d 96b6 64be d605 eabd
00000240: c41a debd fb1d 713e 599d 533d bada 9e3d
00000250: 1902 673e 2505 28be ae4c 5cbd a90c d2bd
00000260: ca0f a6bd c069 583e d2bd f7bd 5f93 ad3d
00000270: 5086 f3bd b1fd 2f3e 8806 783d df90 953e
00000280: b5fa 46bd 77e8 4fbd 7b36 4cbe b2e0 1cbe
00000290: da90 113e ff95 693e d409 253e 3f0c 11be
000002a0: 462d ccbc 2f83 813d 1635 6bbe 1944 ac3b
000002b0: b915 e1bd 59cf 3c3e 3712 92bd 2ef0 83bc
000002c0: cac7 bf3d 8fa1 123e 45e2 52be 6aaf 073e
000002d0: 164e 363e 2e65 fd3d 0996 66bd d1c5 edbd
000002e0: 9358 db3d cb2a 05be 0b74 4abe 60ed eebc
000002f0: 0e6c 2dbc f6df 953d 752e 213e 716c 14be
00000300: e6da 37be f63b 433e 8c24 d5bd 7ce3 aa3d
00000310: 2bf7 3d3d a3f3 f7bd 08fb 0fbe 8dc3 11bd
00000320: 5b25 963d deef 23be e345 30be 3db3 0cbe
00000330: 5b0a 1a3d e59c 1fbe 54bb 1a3e 6557 3fbb
00000340: deb2 23be 4f04 a5bd 5c75 813d c55d 473e
00000350: fb13 5f3d f034 7bbe c0a6 15bc e394 843e
00000360: 2f39 8bbe b257 e63d e32c 26be 673b 883d
00000370: f1b2 91bd 6ce8 e5b9 4df9 1fbe 09f2 24bc
00000380: 1ec9 2a3e 0858 ddbd da36 28be 6743 06be
00000390: 68f5 683e 74f8 243e 7349 de3d ec79 cebc
000003a0: 35d3 9c3e a8e1 35be 82f4 49bc 7b53 403d
000003b0: 783c 4cbd 2a90 723e b481 ff3d aaec 923c
000003c0: 5a5d 1e3d 4b14 e9bd 17cc d8bd 4e14 19be
000003d0: 8287 2abe 2acf 3bbe 19f2 2b3e b6af 1f3e
000003e0: 5628 883e 1e69 72be 706f 96bd 84fe 363e
000003f0: 2a2a cc3d 5b5c e13d 81cb 683d 5672 9f3b

nnECG.0.bias f4 [128]
0.013080017 -0.004778624 -0.0009520004 0.011380771 0.022334302 0.023482 0.014868062 0.0086581195
0.013565669 0.0077820853 -0.0063533564 0.015433945 0.03096004 -0.0010348678 0.004227708 0.000876305
0.030717662 -0.01483689 0.009055089 -0.008625241 0.02450097 0.0065867538 0.016293246 0.019604757
0.007731366 0.025703907 -0.0017473823 0.0035641259 0.011119622 0.005026403 0.031372324 0.027021866
-0.015142079 0.015475262 0.0090284115 0.013289955 0.018630872 0.013130761 0.03554588 -0.0050725644
0.031113643 0.031024965 0.0043275673 0.013343153 -0.0023928515 0.010360379 -0.0034721654 0.008618432
0.015910545 0.011773455 0.028064987 0.014216388 0.011328777 -0.0037117414 -0.007855893 0.016624196
0.016930982 0.0152044 -0.015506851 0.015257028 -0.00021316897 0.004101812 0.02242719 -0.008477971
0.0012873284 0.0047819223 -0.012470338 0.021668809 -0.007916493 0.02554721 0.011093476 -0.008071076
-0.0070229103 -0.013254272 0.016320838 0.008421598 0.004587481 0.0034797485 0.008312982 0.024336122
0.022498257 0.016358385 0.012098352 0.006294179 0.014798702 0.007326754 -0.012407986 0.013402409
-0.013611505 0.018644184 0.010554435 -0.0021160475 0.013519916 0.01234772 0.009442673 0.019959008
-0.0055784206 -0.0018296856 0.008057274 0.011671994 0.005937676 0.018510012 0.016822277 0.017927568
0.018488133 0.010789948 0.018272044 0.024958262 0.0069791167 0.013474956 0.014818355 0.012701538
-0.02111509 0.019462265 -0.0033644289 -0.0003366234 -0.0028802643 0.007687679 0.012100907 0.010348531
0.034112785 0.0013812542 0.0023066956 0.0067432863 0.019850645 0.025097914 0.0100349 -0.024861857
00000000: 914d 563c 0196 9cbb aa8f 79ba 6a76 3a3c
00000010: 6df6 b63c 535d c03c 2c99 733c c9da 0d3c
00000020: 8a42 5e3c dd00 ff3b d12f d0bb a8de 7c3c
00000030: e99f fd3c 67a4 87ba 9688 8a3b d5b7 653a
00000040: 9ba3 fb3c 6d16 73bc cc5b 143c e250 0dbc
00000050: 42b6 c83c b2d5 d73b 6a79 853c 289a a03c
00000060: 6657 fd3b 0091 d23c 6c08 e5ba 1c94 693b
00000070: 132f 363c 86b4 a43b 4480 003d f65c dd3c
00000080: 7c16 78bc f48b 7d3c e7eb 133c 1dbe 593c
00000090: c59f 983c 6722 573c 8f98 113d c137 a6bb
000000a0: 0ae2 fe3c 1128 fe3c 44ce 8d3b 3d9d 5a3c
000000b0: 63d1 1cbb 94be 293c 458d 63bb 5334 0d3c
000000c0: d556 823c 73e5 403c 8be8 e53c daeb 683c
000000d0: 569c 393c b040 73bb 01b6 00bc 772f 883c
000000e0: d8b2 8a3c e01b 793c 7210 7ebc 9df8 793c
000000f0: 1c86 5fb9 7e68 863b 3ab9 b73c 30e7 0abc
00000100: 93bb a83a acb1 9c3b 6350 4cbc c982 b13c
00000110: 2eb4 01bc 6248 d13c 69c1 353c 8c3c 04bc
00000120: 7120 e6bb 7228 59bc 47b3 853c befa 093c
00000130: 9452 963b 7e0c 643b 2c33 083c 8c5c c73c
00000140: 444e b83c 0502 863c 2b38 463c 663f ce3b
00000150: 4176 723c 4415 f03b de4a 4bbc c795 5b3c
00000160: ca02 5fbc b0bb 983c 82ec 2c3c 63ad 0abb
00000170: a382 5d3c 174e 4a3c 71b5 1a3c 1381 a33c
00000180: 2fcb b6bb 10d2 efba a802 043c e43b 3f3c
00000190: d690 c23b 4fa2 973c dfce 893c d6dc 923c
000001a0: 6d74 973c 52c8 303c 41af 953c 4575 cc3c
000001b0: 13b1 e43b 10c6 5c3c b0c8 723c 1d1a 503c
000001c0: 8ef9 acbc 546f 9f3c c07d 5cbb d47c b0b9
000001d0: d1c2 3cbb ede8 fb3b e242 463c e38c 293c
000001e0: d9b9 0b3d 330b b53a ee2b 173b c9f6 dc3b
000001f0: d29d a23c 249a cd3c 6c69 243c 18ab cbbc

nnECG.1.weight f4 [128]
0.99573404 1.088548 0.93522483 1.0844538 1.1313581 1.0280135 1.0616839 1.080664
1.0699843 1.0492395 1.3456101 1.0233271 1.0681436 1.0536925 0.9619155 1.0818436
1.0948701 1.1603069 1.0967513 1.0817546 1.1738044 1.0451525 1.0493882 0.999757
1.0870254 0.98489225 0.9895771 1.0403076 1.1472851 1.0334259 1.0822921 1.083013
1.1350236 1.0549072 1.0894923 1.0058477 0.99175423 1.0375328 1.100832 1.3320743
1.0942856 1.084828 1.1111177 1.132365 1.0535387 1.048254 0.99457324 0.9823307
1.0620475 1.0442721 1.0359042 1.0253165 1.0642488 1.0167098 1.0118173 1.0511435
0.9876074 1.0519391 1.0920023 0.9909995 0.99562055 0.97616065 1.1065427 1.0782458
1.0744606 1.0502211 1.0281559 1.0744753 1.0616828 0.9623685 1.0463579 1.0527024
0.9524344 1.1129831 1.1422349 0.9979748 1.047187 0.98860246 1.0838935 1.0305077
1.0470339 1.0945554 1.0614792 1.0407358 1.0330563 1.0011214 1.1281608 1.1134229
1.1579114 1.123786 1.0153779 1.0487 1.089336 1.17204 1.0331804 1.1988208
1.0743768 1.0235041 1.1342095 1.0635943 1.0532712 1.1142192 1.0492055 0.9849029
0.9962079 0.97011644 1.0012634 1.1156137 0.95928836 1.0652455 1.0350081 0.9744173
1.0716866 1.0685569 0.97703 1.0685302 1.0579145 1.078207 1.0961003 1.0060748
1.1296365 1.0604637 1.0730077 1.0257522 1.0992101 1.1413625 0.990811 1.0810972
00000000: 6de8 7e3f 8a55 8b3f e56a 6f3f 62cf 8a3f
00000010: 58d0 903f f295 833f 42e5 873f 3353 8a3f
00000020: 3ff5 883f 7b4d 863f f43c ac3f 62fc 823f
00000030: eeb8 883f 65df 863f 1840 763f da79 8a3f
00000040: b424 8c3f f084 943f 5962 8c3f ef76 8a3f
00000050: 393f 963f 8fc7 853f 5a52 863f 13f0 7f3f
00000060: a623 8b3f e621 7c3f ed54 7d3f cd28 853f
00000070: 3dda 923f 4d47 843f 8c88 8a3f 2ca0 8a3f
00000080: 7448 913f 3307 873f 7c74 8b3f 9ebf 803f
00000090: 9be3 7d3f e0cd 843f 10e8 8c3f 6981 aa3f
000000a0: 8d11 8c3f a5db 8a3f 1b39 8e3f 56f1 903f
000000b0: 5bda 863f 302d 863f 5a9c 7e3f 067a 7b3f
000000c0: 2cf1 873f b5aa 853f 8298 843f 923d 833f
000000d0: 4e39 883f 8c23 823f 3b83 813f df8b 863f
000000e0: d7d3 7c3f f1a5 863f bbc6 8b3f 25b2 7d3f
000000f0: fde0 7e3f aae5 793f 31a3 8d3f f503 8a3f
00000100: ed87 893f a56d 863f 9d9a 833f 6888 893f
00000110: 39e5 873f c85d 763f 0eef 853f f4be 863f
00000120: bed2 733f 3b76 8e3f c134 923f 477b 7f3f
00000130: 390a 863f 0d15 7d3f 06bd 8a3f ade7 833f
00000140: 3505 863f 641a 8c3f 8dde 873f d536 853f
00000150: 303b 843f bf24 803f 9367 903f a484 8e3f
00000160: 7136 943f 38d8 8f3f e7f7 813f cd3b 863f
00000170: 5d6f 8b3f 6805 963f 413f 843f f672 993f
00000180: 2e85 893f 2f02 833f c72d 913f dc23 883f
00000190: 97d1 863f bc9e 8e3f 5e4c 863f 9922 7c3f
000001a0: 7b07 7f3f 8d59 783f 6629 803f 6ecc 8e3f
000001b0: ec93 753f f759 883f 257b 843f 6a73 793f
000001c0: 072d 893f 79c6 883f a31e 7a3f 99c5 883f
000001d0: be69 873f b002 8a3f 044d 8c3f 0fc7 803f
000001e0: ee97 903f 46bd 873f 5158 893f d94b 833f
000001f0: ebb2 8c3f 2b18 923f caa5 7d3f 6561 8a3f

nnECG.1.bias f4 [128]
0.013885727 -0.011338946 -0.010736033 0.011201131 0.01585112 0.0139213 0.0048445673 0.0048000515
0.0067106425 0.0022695535 -0.023331732 -0.00052829215 0.033177305 -0.01489387 -0.004215357 -0.00066975533
0.023155032 -0.022322046 0.009891174 -0.0074748565 0.02499712 0.0020391657 0.013715152 0.0044856044
0.0056374585 0.016866049 -0.002656703 -0.00022678047 0.0063915476 0.0017960077 0.020171888 0.01592259
-0.02650879 0.015283119 0.0076902225 0.002105171 0.006449679 0.00071609515 0.035479657 -0.020307587
0.015273487 0.018480148 -0.008448236 0.0011913317 -0.009073977 0.0009205993 -0.015504458 0.0049718847
0.014550937 -0.0011087117 0.01676042 0.01649119 -0.010960543 -0.0078089074 -0.012460981 0.008773483
-0.00018691928 0.009226614 -0.034278173 0.0066828323 -0.007755092 -0.011820311 0.019583894 -0.021499967
-0.00983897 -0.0056104283 -0.012967334 0.017625056 -0.01702882 -0.0009496306 -0.0048884125 -0.016675003
-0.015468776 -0.019653954 0.0061037187 -0.0064674327 -0.009299618 -0.016755462 -0.015545904 0.022295082
0.008940623 0.014252793 -0.0047145905 -0.013369019 0.0099374205 -0.00056865544 -0.020104108 0.004566438
-0.021494435 0.008472841 -0.0018462569 -0.0054645776 0.0057669394 0.004981843 0.0005746771 0.0065147737
-0.0061024074 0.0005902808 0.0016101467 0.006682995 0.003480804 0.017063236 0.006232054 0.00940099
0.002857697 -0.003852455 -0.0005839001 0.020755779 -0.0027997817 0.014894353 0.010643327 -0.011568091
-0.023746677 0.012978264 -0.01075983 -0.007922593 -0.0215822 -0.0015395437 0.0018573252 -0.0067276056
0.017747844 -0.015264038 0.0035834424 0.0023837842 0.018112993 0.02395113 0.0035983152 -0.030236563
00000000: f680 633c fdc6 39bc 30e6 2fbc f384 373c
00000010: 35da 813c 2a16 643c 2dbf 9e3b c049 9d3b
00000020: f3e4 db3b cabc 143b 3022 bfbc 167d 0aba
00000030: ede4 073d 6b05 74bc fa20 8abb 8592 2fba
00000040: 9faf bd3c b9dc b6bc 970e 223c a4ef f4bb
00000050: c3c6 cc3c 86a3 053b 84b5 603c fafb 923b
00000060: 6eba b83b ab2a 8a3c 151c 2ebb ebcb 6db9
00000070: 3070 d13b 0568 eb3a 843f a53c 1770 823c
00000080: f628 d9bc 0c66 7a3c 43fe fb3b e9f6 093b
00000090: d457 d33b 55b8 3b3a 1e53 113d 195c a6bc
000000a0: a63d 7a3c ae63 973c 786a 0abc 7526 9c3a
000000b0: 05ab 14bc 6054 713a 6906 7ebc 31eb a23b
000000c0: 0e67 6e3c 3152 91ba 264d 893c 8818 873c
000000d0: d993 33bc dde1 ffbb 2429 4cbc a8be 0f3c
000000e0: c3ff 43b9 392b 173c 4567 0cbd a9fb da3b
000000f0: 6d1e febb faa9 41bc 676e a03c b320 b0bc
00000100: a233 21bc afd7 b7bb f174 54bc 6c62 903c
00000110: 0680 8bbc a1f0 78ba fa2e a0bb 049a 88bc
00000120: c070 7dbc 5401 a1bc b401 c83b c2ec d3bb
00000130: 6d5d 18bc c042 89bc 3fb4 7ebc 2da4 b63c
00000140: b17b 123c 8c84 693c da7c 9abb bb09 5bbc
00000150: 90d0 223c d211 15ba 5fb1 a4bc 0fa2 953b
00000160: 1915 b0bc acd1 0a3c 1afe f1ba 3310 b3bb
00000170: 98f8 bc3b ba3e a33b eda5 163a e279 d53b
00000180: b4f6 c7bb 13bd 1a3a 8f0b d33a 06fd da3b
00000190: 331e 643b 33c8 8b3c 4236 cc3b 9c06 1a3c
000001a0: 3348 3b3b 7879 7cbb df10 19ba 0608 aa3c
000001b0: 8b7c 37bb 7207 743c 5961 2e3c 1788 3dbc
000001c0: 6488 c2bc c9a2 543c ff49 30bc c3cd 01bc
000001d0: 27cd b0bc 84ca c9ba 7e71 f33a 3f73 dcbb
000001e0: ed63 913c 0416 7abc 30d8 6a3b 4339 1c3b
000001f0: b361 943c 2935 c43c b6d1 6b3b abb2 f7bc

nnECG.1.running_mean f4 [128]
-0.06884676 0.27578282 0.18964346 0.065326706 -0.6255482 -0.38456917 0.23559684 0.03636111
-0.31501803 -0.059794597 0.067445 -0.11155256 -0.21096583 0.17429058 -0.043164507 0.09083402
-0.5399057 0.01946265 -0.3981781 0.4748441 0.025043238 0.2979436 -0.21089134 -0.24211685
-0.05145002 -0.080118656 0.21809076 -0.16113625 0.11018368 0.60553616 -0.30684012 -0.55029726
0.24037422 -0.21873114 -0.18589304 -0.23401083 -0.30697823 0.3068531 -0.46072316 0.1904121
-0.30826136 -0.13976333 0.15485643 -0.044793427 0.397077 -0.39514402 0.4013735 0.026404666
-0.16892731 0.058274895 -0.19929287 -0.24624352 -0.0061175623 0.10253573 0.4749354 0.064701095
-0.19686867 -0.4379125 -0.012298487 -0.034792047 0.25550547 -0.104068205 -0.29807207 0.006718818
0.21243554 -0.0310062 0.5163138 -0.4262039 -0.14795808 -0.13013949 0.3316789 0.3162884
0.08402922 0.5134869 0.17707376 0.3275405 0.12030961 0.17098984 0.037455235 0.23579046
0.1054064 -0.3233138 -0.024516761 0.017915966 -0.18131484 0.013926326 0.38281712 -0.12574038
0.43792683 0.29170707 0.046944793 0.11642189 0.15882666 -0.21726185 0.043987475 -0.21640807
0.13038541 -0.13666366 -0.17085901 0.08505282 -0.18998604 -0.05208714 0.047860082 -0.28681323
-0.21477339 0.05679661 -0.5981725 -0.12251267 -0.49825823 -0.050926823 0.01834422 -0.56001014
0.5137878 0.17269474 0.64073384 0.2049138 0.14342044 0.40488032 -0.19882746 -0.3475604
-0.11585049 0.051528577 -0.43358925 0.59673536 -0.43566427 -0.17058143 -0.3150773 0.35565424
00000000: 88ff 8cbd 6833 8d3e e531 423e 02ca 853d
00000010: ed23 20bf 40e6 c4be 4c40 713e 63ef 143d
00000020: 0b4a a1be 2eeb 74bd 9b20 8a3d ab75 e4bd
00000030: 6d07 58be 3b79 323e 44cd 30bd 3007 ba3d
00000040: 4337 0abf 2370 9f3c 00de cbbe c41e f33e
00000050: 7a27 cd3c 108c 983e e6f3 57be 7bed 77be
00000060: 42bd 52bd 4015 a4bd 2f53 5f3e e700 25be
00000070: fba7 e13d 6b04 1b3f 261a 9dbe 48e0 0cbf
00000080: a924 763e 0efb 5fbe bf5a 3ebe 89a0 6fbe
00000090: 402c 9dbe d91b 9d3e e8e3 ebbe 64fb 423e
000000a0: 6fd4 9dbe 1e1e 0fbe af92 1e3e 5079 37bd
000000b0: ad4d cb3e 5150 cabe d480 cd3e 994e d83c
000000c0: 48fb 2cbe a8b1 6e3d 6e13 4cbe 4327 7cbe
000000d0: d575 c8bb 41fe d13d bc2a f33e 0282 843d
000000e0: f197 49be 1136 e0be 987f 49bc 1b82 0ebd
000000f0: 9dd1 823e b621 d5bd e79c 98be 8829 dc3b
00000100: b488 593e b700 febc 242d 043f 6637 dabe
00000110: 5382 17be 4943 05be d1d1 a93e 8ef0 a13e
00000120: 8317 ac3d e173 033f d352 353e 63b3 a73e
00000130: e364 f63d f617 2f3e a96a 193d 0e73 713e
00000140: 50df d73d 6389 a5be 60d7 c8bc 81c4 923c
00000150: 99aa 39be 3f2b 643c 9b00 c43e 16c2 00be
00000160: f237 e03e a15a 953e 2f49 403d 9a6e ee3d
00000170: 75a3 223e e479 5ebe 362c 343d 149a 5dbe
00000180: c183 053e 8ff1 0bbe aaf5 2ebe 2c30 ae3d
00000190: b38b 42be 5359 55bd ef08 443d 2fd9 92be
000001a0: 8eed 5bbe 90a3 683d d521 19bf ece7 fabd
000001b0: b41b ffbe a598 50bd 9e46 963c d35c 0fbf
000001c0: 9987 033f e4d6 303e 2207 243f ecd4 513e
000001d0: cfdc 123e 794c cf3e 6d99 4bbe 70f3 b1be
000001e0: 0643 edbd a10f 533d 69ff ddbe a6c3 183f
000001f0: 630f dfbe e6ac 2ebe d051 a1be 5018 b63e

nnECG.1.running_var f4 [128]
0.07475772 0.077070914 0.072317556 0.07430209 0.07408158 0.07804641 0.07265124 0.072469324
0.07448971 0.076047584 0.07528684 0.074446574 0.07287323 0.07492462 0.07234689 0.07742306
0.07336914 0.073476925 0.07380396 0.07580712 0.07378479 0.07447587 0.07517098 0.07263647
0.073728815 0.07504427 0.07344807 0.07726557 0.07512529 0.07198332 0.07292307 0.07565426
0.07841385 0.07411975 0.074459955 0.074315585 0.07250734 0.07336677 0.08488608 0.07271698
0.07486001 0.07306196 0.07789265 0.07302511 0.07825973 0.0756574 0.07262767 0.07369444
0.07353366 0.07363252 0.075776465 0.07279023 0.07422336 0.07404195 0.072682425 0.07777232
0.07222821 0.07267424 0.074264616 0.075862594 0.073166825 0.07817801 0.07662899 0.072540246
0.07351148 0.07358378 0.07306004 0.072941594 0.07367704 0.0740113 0.07314471 0.07298358
0.07346728 0.07366705 0.07366734 0.07673382 0.073013455 0.0743672 0.076593086 0.074725546
0.07474601 0.07327689 0.073475845 0.077089146 0.07413033 0.07260588 0.07266802 0.07258501
0.0733114 0.073429525 0.07232274 0.0725911 0.079952404 0.07581995 0.074389115 0.07646344
0.073308386 0.07305555 0.07714535 0.07979462 0.072801836 0.073567286 0.07375068 0.07670683
0.07341246 0.07272282 0.07792355 0.07353337 0.07222905 0.072381005 0.07315875 0.07717818
0.07333305 0.073329814 0.074086994 0.0731042 0.075936064 0.07514962 0.076545715 0.07314429
0.07474724 0.07462199 0.07303913 0.07276281 0.07357914 0.07389687 0.072521366 0.08178397
00000000: 931a 993d 5bd7 9d3d 3a1b 943d b22b 983d
00000010: 15b8 973d ccd6 9f3d 2cca 943d cc6a 943d
00000020: 108e 983d d6be 9b3d fd2f 9a3d 7277 983d
00000030: 8f3e 953d 1472 993d 9b2a 943d fb8f 9e3d
00000040: 8f42 963d 127b 963d 8826 973d c340 9b3d
00000050: 7b1c 973d ce86 983d 3ef3 993d 6ec2 943d
00000060: 22ff 963d cfb0 993d f16b 963d 693d 9e3d
00000070: 4adb 993d fe6b 933d b158 953d 9ff0 9a3d
00000080: 7197 a03d 18cc 973d 767e 983d c532 983d
00000090: ba7e 943d 5141 963d c1d8 ad3d a4ec 943d
000000a0: 3450 993d 82a1 953d 2f86 9f3d 308e 953d
000000b0: a346 a03d 44f2 9a3d d1bd 943d 1ced 963d
000000c0: d198 963d a6cc 963d b130 9b3d 0b13 953d
000000d0: 6b02 983d 4ea3 973d 86da 943d 1847 9f3d
000000e0: 62ec 933d 3bd6 943d 0c18 983d d95d 9b3d
000000f0: 7dd8 953d cb1b a03d a9ef 9c3d fb8f 943d
00000100: 308d 963d 18b3 963d 81a0 953d 6762 953d
00000110: fde3 963d 3d93 973d e5cc 953d 6a78 953d
00000120: 0376 963d c0de 963d e7de 963d 9f26 9d3d
00000130: 1488 953d d54d 983d d6dc 9c3d b509 993d
00000140: 7014 993d 3212 963d 817a 963d eae0 9d3d
00000150: a4d1 973d 64b2 943d f9d2 943d 73a7 943d
00000160: 4a24 963d 3862 963d f21d 943d a5aa 943d
00000170: 16be a33d 7d47 9b3d 5259 983d dd98 9c3d
00000180: b522 963d 269e 953d 62fe 9d3d 5d6b a33d
00000190: 2119 953d 72aa 963d 990a 973d 7818 9d3d
000001a0: 4659 963d b4ef 943d 6296 9f3d aa98 963d
000001b0: d3ec 933d 7e3c 943d 41d4 953d 980f 9e3d
000001c0: a32f 963d f12d 963d ecba 973d a8b7 953d
000001d0: 5e84 9b3d 0be8 993d 00c4 9c3d accc 953d
000001e0: 1515 993d 6ad3 983d 8a95 953d ab04 953d
000001f0: a9b0 963d 3e57 973d 1586 943d 5b7e a73d

nnECG.4.weight f4 [64, 128]
-0.17927003 -0.0017439546 -0.010331834 0.12577814 0.034340784 -0.007294054 0.02148306 0.08938843
0.07536742 -0.1572798 0.032073658 -0.13909501 0.15950942 0.14588541 0.1630035 0.026350489
0.017413296 -0.18616778 0.0691091 0.13799177 -0.10400971 0.049025483 0.18496013 -0.065027475
0.15297419 0.18317945 -0.124851316 -0.076383896 0.122869544 0.07259424 -0.08318072 0.19814894
-0.021451922 -0.13002758 -0.11837665 -0.020589607 0.038704265 -0.040382408 -0.073705725 0.002294423
-0.07893288 0.028596617 0.05688096 0.04498108 -0.061423212 0.20076475 -0.11768191 0.10988702
-0.01888975 0.19714618 -0.10530092 -0.046099596 -0.11021164 -0.02248082 -0.03761576 -0.0016799239
-0.055665504 0.07152352 0.07813696 -0.1054837 0.014465265 0.091716334 -0.109824665 0.16577446
-0.078997895 0.16104493 0.053122975 -0.18314129 0.14513299 0.110070996 0.11339344 0.0036062018
-0.10021779 -0.18716803 0.19723457 -0.08008048 -0.1221657 -0.05299059 -0.14465441 -0.12365255
0.12273149 0.11913487 -0.041190155 0.16074903 0.21438254 -0.04509414 -0.13100512 0.19386853
0.05849587 0.14502177 0.027477292 -0.17309426 -0.19096877 0.18092145 -0.13558461 0.15782751
-0.019703109 0.16320251 -0.082025535 0.07251872 -0.08149493 -0.0159623 0.13559255 -0.020740215
0.112671256 0.00068002695 -0.1480315 0.21205592 -0.08633278 -0.04959201 0.01636143 0.1416945
-0.020263249 0.03542149 -0.15112203 0.10074175 0.09677058 -0.17016228 -0.12518854 0.12201916
0.09157182 0.07118516 0.16852136 0.11056338 0.030658836 0.16349874 0.13853332 -0.10061617
0.20151737 0.061457787 0.023677377 0.18634017 0.21839027 -0.22664733 -0.08207708 0.009363044
0.038036667 0.088164754 0.17220607 -0.181897 -0.047393303 0.13323173 0.093968086 0.03470725
-0.27021396 -0.16339804 -0.23306417 0.14660943 -0.13665876 -0.1430535 -0.14725418 0.13350725
0.16656998 -0.05033457 -0.115606576 0.2348704 -0.24505381 0.13875537 -0.082008846 0.20866995
0.1522899 -0.24393544 -0.26936078 -0.009183205 0.10349373 -0.10861989 -0.030475037 0.10910406
-0.17644386 -0.06318123 0.014283646 -0.08250967 0.23340006 0.05609507 0.07533625 0.03335171
0.091202974 0.1772318 0.0022644068 -0.027940933 0.13226192 -0.009901718 0.038959317 0.15626444
0.017805003 -0.018873543 -0.12352417 -0.04000982 0.13507642 -0.15963535 -0.21513775 -0.023726989
0.057694234 0.27831554 0.037204865 -0.049590282 0.11551835 -0.18076609 0.1520481 0.1316243
0.04606873 -0.006628732 -0.004527781 -0.06385358 0.08967598 -0.02846165 0.2717316 -0.16573255
-0.012505264 -0.16032636 0.121806026 -0.22103539 -0.061690833 0.08680449 0.107744955 0.23430607
0.14753386 -0.005885123 0.024871485 0.07165311 -0.19576237 -0.2776297 0.10167418 -0.2579901
0.10990266 0.022172162 0.08925985 0.15125805 -0.06784153 0.12293845 0.2066324 -0.16611886
0.057251632 0.13754 0.049877893 -0.1659801 -0.061872814 0.12175014 0.022704538 -0.030471522
-0.031518847 -0.007856351 0.19193918 0.11926444 -0.17441255 -0.027888775 0.2147129 0.19374263
-0.026350953 0.1462294 0.017361881 -0.09687882 -0.07140166 -0.10010624 0.050982308 0.023353942
00000000: 9092 37be 6895 e4ba da46 29bc fccb 003e
00000010: eca8 0c3d f602 efbb 3efd af3c 4811 b73d
00000020: 3c5a 9a3d f50d 21be ab5f 033d ec6e 0ebe
00000030: 7056 233e fc62 153e 64ea 263e fbdc d73c
00000040: 54a6 8e3c c4a2 3ebe 1289 8d3d b74d 0d3e
00000050: 0b03 d5bd f2ce 483d 3066 3d3e 202d 85bd
00000060: 44a5 1c3e 6593 3b3e 0cb2 ffbd 296f 9cbd
00000070: 07a3 fb3d 4aac 943d a75a aabd 8ee7 4a3e
00000080: f1bb afbc f325 05be 756f f2bd 89ab a8bc
00000090: 5d88 1e3d 0668 25bd 07f3 96bd 085e 163b
000000a0: 90a7 a1bd 7443 ea3c 02fc 683d 153e 383d
000000b0: e896 7bbd 4695 4d3e 3703 f1bd 720c e13d
000000c0: adbe 9abc b0e0 493e 02a8 d7bd eed2 3cbd
000000d0: a4b6 e1bd b229 b8bc fc12 1abd e430 dcba
000000e0: 8301 64bd ec7a 923d 4506 a03d d707 d8bd
000000f0: b8ff 6c3c c6d5 bb3d c1eb e0bd c8c0 293e
00000100: a6c9 a1bd f6e8 243e 7a97 593d 6489 3bbe
00000110: be9d 143e e76c e13d d23a e83d 0756 6c3b
00000120: fc3e cdbd faa8 3fbe dcf7 493e 3c01 a4bd
00000130: 0332 fabd a90c 59bd 4920 14be 8c3d fdbd
00000140: a65a fb3d fcfc f33d 02b7 28bd 659b 243e
00000150: 1987 5b3e a2b4 38bd 3526 06be 7985 463e
00000160: 5e99 6f3d 9680 143e 0f18 e13c 9f3f 31be
00000170: 518d 43be 7943 393e b1d6 0abe 899d 213e
00000180: 6a68 a1bc 8f1e 273e 01fd a7bd b284 943d
00000190: d0e6 a6bd 5fc3 82bc c6d8 0a3e 62e7 a9bc
000001a0: 30c0 e63d d643 323a 9295 17be 3025 593e
000001b0: 3ecf b0bd fe20 4bbd 6808 863c 5d18 113e
000001c0: 1dff a5bc 2016 113d bcbf 1abe b151 ce3d
000001d0: a72f c63d 053f 2ebe 6d31 00be 2ee5 f93d
000001e0: 028a bb3d 86c9 913d dd90 2c3e 0e6f e23d
000001f0: 3d28 fb3c 376c 273e aedb 0d3e da0f cebd
00000200: 925a 4e3e 29bb 7b3d 0ff7 c13c f5cf 3e3e
00000210: b3a1 5f3e 3d16 68be 0718 a8bd 7467 193c
00000220: 56cc 1b3d b98f b43d ca56 303e 3543 3abe
00000230: 7b1f 42bd e66d 083e 5772 c03d 3029 0e3d
00000240: 7c59 8abe d151 27be 60a8 6ebe c820 163e
00000250: 46f0 0bbe 9e7c 12be cdc9 16be 20b6 083e
00000260: 5291 2a3e 9f2b 4ebd 24c3 ecbd de81 703e
00000270: 63ef 7abe e315 0e3e 41f4 a7bd 93ad 553e
00000280: e2f1 1b3e 36ca 79be a8e9 89be 2775 16bc
00000290: 85f4 d33d 1b74 debd c9a6 f9bc f371 df3d
000002a0: b3ad 34be 2965 81bd f405 6a3c d4fa a8bd
000002b0: 6d00 6f3e f2c3 653d e449 9a3d cd9b 083d
000002c0: a0c8 ba3d 417c 353e 7166 143b 62e4 e4bc
000002d0: ab6f 073e d13a 22bc ce93 1f3d c903 203e
000002e0: ccdb 913c b09c 9abc 3dfa fcbd 56e1 23bd
000002f0: 7951 0a3e 7377 23be 124d 5cbe 1a5f c2bc
00000300: ca50 6c3d 607f 8e3e 2164 183d 2e1f 4bbd
00000310: e294 ec3d bf1a 39be 7fb2 1b3e 85c8 063e
00000320: 91b2 3c3d d635 d9bb c85d 94bb aac5 82bd
00000330: 0aa8 b73d 6828 e9bc 6720 8b3e cbb5 29be
00000340: e1e2 4cbc 982c 24be 7075 f93d 1a57 62be
00000350: 87af 7cbd 8dc6 b13d 63a9 dc3d eeed 6f3e
00000360: 1e13 173e fdd7 c0bb 49bf cb3c debe 923d
00000370: ee75 48be 7b25 8ebe 8d3a d03d 4717 84be
00000380: a514 e13d 65a2 b53c decd b63d 64e3 1a3e
00000390: 80f0 8abd 27c7 fb3d 7297 533e 101b 2abe
000003a0: b080 6a3d 49d7 0c3e c34c 4c3d b0f6 29be
000003b0: 596e 7dbd 2358 f93d defe b93c 6a9f f9bc
000003c0: e819 01bd edb7 00bc b48b 443e ea40 f43d
000003d0: 3499 32be 0077 e4bc b3dd 5b3e 7864 463e
000003e0: f4dd d7bc 29bd 153e 813a 8e3c 6768 c6bd
000003f0: 093b 92bd 8004 cdbd d3d2 503d c450 bf3c

nnECG.4.bias f4 [64]
0.06155444 0.05024009 -0.037516944 0.0065468485 0.03199692 0.028516637 -0.005366156 0.00504197
-0.021171894 0.0038151785 -0.04229661 0.010491676 -0.0017951204 0.07338141 0.022468882 -0.011675659
-0.00073135336 0.016704319 0.008725361 0.04916547 -0.014471377 0.0019433555 -0.006859793 0.08891583
0.026851334 0.016992735 -0.017048743 -0.007162996 -0.03393745 0.02573161 0.009210158 -0.027842307
-0.008914677 -0.007596922 -0.0062681595 -0.008408328 0.03766132 0.05260136 0.04529051 0.019329531
0.00548092 -0.035436656 0.058094304 -0.009016604 -0.00036087778 -0.018038547 -0.01385911 -0.020242462
0.029368632 0.014464095 0.0027462633 0.011440601 -0.023615612 -0.0085009085 -0.0023092474 -0.005312497
-0.020915864 -0.020351034 -0.0034677463 0.009317335 0.007774772 0.024045998 0.0040083122 -0.010216724
00000000: 8220 7c3d 8dc8 4d3d 5eab 19bd f286 d63b
00000010: 340f 033d b99b e93c 94d6 afbb 1c37 a53b
00000020: ae70 adbc 1308 7a3b 363f 2dbd 47e5 2b3c
00000030: 3f4a ebba fe48 963d a910 b83c 434b 3fbc
00000040: 4bb8 3fba 7fd7 883c d1f4 0e3c bb61 493d
00000050: 5b19 6dbc 31b8 fe3a 1dc8 e0bb 8119 b63d
00000060: 54f7 db3c 5934 8b3c cea9 8bbc 91b7 eabb
00000070: ff01 0bbd 19cb d23c 34e6 163c 8d15 e4bc
00000080: de0e 12bc 9aef f8bb 2265 cdbb 15c3 09bc
00000090: c242 1a3d 8674 573d 8b82 393d f758 9e3c
000000a0: 4a99 b33b 0726 11bd 4bf4 6d3d 61ba 13bc
000000b0: 3234 bdb9 93c5 93bc 5211 63bc 85d3 a5bc
000000c0: 7c96 f03c d0fa 6c3c a7fa 333b 5c71 3b3c
000000d0: 8775 c1bc 6547 0bbc be56 17bb 7414 aebb
000000e0: bf57 abbc 36b7 a6bc 2143 63bb bca7 183c
000000f0: 84c3 fe3b 1dfc c43c 2958 833b 0c64 27bc

nnECG.5.weight f4 [64]
0.95631814 1.1679379 1.0672336 0.99960744 1.2446437 1.0962447 1.0507382 1.0328984
1.0471603 1.0668771 1.0639292 1.0670276 1.0221976 1.1700697 1.153898 1.0123438
1.0777676 1.0905863 1.0110633 0.9604168 0.9795343 1.1519763 1.0117611 1.0859771
1.1405867 1.1204919 1.0035721 1.0476166 1.1205273 1.1342139 1.0019171 0.9770785
1.0722109 1.0442516 0.99273974 1.0493987 1.0503583 1.0674858 1.1700855 1.1219271
1.0103217 1.069714 1.1330556 1.0086563 1.0327107 1.078564 1.0893818 1.0917294
1.1267402 0.96663034 1.0859313 1.0847602 0.99537003 1.0309508 1.0804183 1.0476975
1.0419905 1.1293234 1.1113436 1.0122002 1.0451046 1.1395849 1.0774077 1.0586181
00000000: 44d1 743f fd7e 953f 1c9b 883f 46e6 7f3f
00000010: 7c50 9f3f bf51 8c3f 977e 863f 0436 843f
00000020: 5909 863f 6e8f 883f d52e 883f 5c94 883f
00000030: 5fd7 823f d8c4 953f eeb2 933f 7b94 813f
00000040: 4af4 893f 5598 8b3f 866a 813f e0dd 753f
00000050: c3c2 7a3f f673 933f 6381 813f 4c01 8b3f
00000060: bffe 913f 476c 8f3f 0d75 803f 4d18 863f
00000070: 706d 8f3f ec2d 913f d23e 803f d121 7a3f
00000080: 353e 893f 09aa 853f 3124 7e3f b252 863f
00000090: 2472 863f 60a3 883f 5dc5 953f 4f9b 8f3f
000000a0: 3952 813f 63ec 883f f707 913f a61b 813f
000000b0: dd2f 843f 630e 8a3f dd70 8b3f cabd 8b3f
000000c0: 0639 903f 1675 773f ccff 8a3f 6cd9 8a3f
000000d0: 92d0 7e3f 32f6 833f 264b 8a3f f41a 863f
000000e0: f25f 853f ab8d 903f 8240 8e3f c78f 813f
000000f0: fdc5 853f ebdd 913f 7fe8 893f cc80 873f

nnECG.5.bias f4 [64]
0.039993796 0.03914774 -0.044346537 -0.002632661 0.024297742 0.02652087 -0.020195289 -0.005045254
-0.033243738 -0.00087300275 -0.05493878 0.0055516823 -0.018904071 0.04274512 0.011655097 -0.038337916
-0.008148906 0.025291508 0.006710805 0.040127143 -0.023533639 -0.019200556 -0.012082649 0.08031649
0.013791806 0.011690402 -0.020182287 -0.0194121 -0.029267993 0.00198743 0.004681954 -0.04174607
-0.014474417 -0.006417741 -0.021143135 -0.0331467 0.027789827 0.029945763 0.024800329 0.012449353
-0.0035121576 -0.049963508 0.04861193 -0.020966878 -0.0073031476 -0.016838832 -0.013959504 -0.023674058
0.0071741496 0.0026489168 -0.018710362 0.00054021896 -0.04416091 -0.015748484 -0.018651467 -0.01504463
-0.035615742 -0.037284464 -0.0186233 0.0006656723 0.013711084 0.0071752165 -0.011568739 -0.012513539
00000000: 89d0 233d 6159 203d b7a4 35bd b988 2cbb
00000010: 0f0c c73c 4c42 d93c 9770 a5bc a852 a5bb
00000020: 962a 08bd 39da 64ba 7c07 61bd e3ea b53b
00000030: b6dc 9abc 8215 2f3d 05f5 3e3c 3808 1dbd
00000040: fd82 05bc 2330 cf3c 50e6 db3b 5c5c 243d
00000050: 9ec9 c0bc 7c4a 9dbc 4ef6 45bc f97c a43d
00000060: 07f7 613c 1a89 3f3c 5355 a5bc 2006 9fbc
00000070: 6ec3 efbc 8b3f 023b 146b 993b edfd 2abd
00000080: 1b26 6dbc ea4b d2bb 5e34 adbc d6c4 07bd
00000090: 7ea7 e33c d150 f53c 0f2a cb3c 5ff8 4b3c
000000a0: 3a2c 66bb 89a6 4cbd 4e1d 473d bbc2 abbc
000000b0: 3e4f efbb 97f1 89bc 67b6 64bc 19f0 c1bc
000000c0: 2115 eb3b 7399 2d3b 7946 99bc 7b9d 0d3a
000000d0: 12e2 34bd f702 81bc f6ca 98bc c07d 76bc
000000e0: d0e1 11bd 98b7 18bd e48f 98bc 8380 2e3a
000000f0: 74a4 603c 141e eb3b cf8a 3dbc 9605 4dbc

nnECG.5.running_mean f4 [64]
0.5305183 0.13176128 -0.09059461 -0.1807436 0.7368033 -0.04811569 0.12617648 0.1553106
-0.058997065 -0.033234727 0.42985994 0.034460485 0.15184952 0.4667808 0.15951474 -0.42611453
0.11134821 0.012527641 -0.59045655 0.68563324 -0.28360325 0.24301583 -0.09721724 0.78297246
0.17379174 0.23750988 -0.34733158 -0.09882673 -0.039008036 0.41992015 0.1358824 -0.06838763
0.15105136 0.084144354 -0.42253223 0.42838466 0.18832843 0.53164524 0.38950795 0.3197732
-0.4149747 -0.26251683 0.82627994 -0.85372394 0.19149897 -0.2786406 -0.1489084 -0.0062238667
0.33879992 -0.22238316 0.27821472 -0.049102496 -0.24841954 -0.33963388 0.11741432 0.20653775
0.15188141 0.40085462 -0.11105722 -0.07816392 -0.45359102 0.16965924 -0.46929133 -0.30554393
00000000: 0cd0 073f 6eec 063e ab89 b9bd da14 39be
00000010: 249f 3c3f f514 45bd 6834 013e be09 1f3e
00000020: e8a6 71bd 2321 08bd 9a16 dc3e 7026 0d3d
00000030: 717e 1b3e e5fd ee3e d557 233e af2b dabe
00000040: 880a e43d bc40 4d3c 2928 17bf a985 2f3f
00000050: 7234 91be 24d9 783e d519 c7bd e270 483f
00000060: 76f6 313e ca35 733e 72d5 b1be ab65 cabd
00000070: e4c6 1fbd c6ff d63e c224 0b3e d00e 8cbd
00000080: 35ad 1a3e e053 ac3d 2556 d8be 3c55 db3e
00000090: 2bd9 403e e719 083f 966d c73e 50b9 a33e
000000a0: 9077 d4be 9b68 86be 1587 533f a78d 5abf
000000b0: 4e18 443e fba9 8ebe 727b 18be 94f1 cbbb
000000c0: 2f77 ad3e 69b8 63be 2972 8e3e b31f 49bd
000000d0: b161 7ebe 7ee4 adbe eb76 f03d a27e 533e
000000e0: cd86 1b3e d13c cd3e f871 e3bd 6814 a0bd
000000f0: 153d e8be 27bb 2d3e f446 f0be 4170 9cbe

nnECG.5.running_var f4 [64]
1.5767202 1.4161571 0.9628275 0.93775177 1.0895016 0.9740838 0.94532406 0.86843675
1.2751544 0.8993125 0.95082897 1.2405812 1.1873845 1.0230682 1.3339494 1.4799751
0.9390859 1.28162 1.2786436 1.0618868 0.9814346 1.2178127 1.9619285 1.320965
1.436407 1.8189809 1.1974665 1.4325303 0.8783273 1.528034 0.98055774 1.4532186
1.177697 2.69973 1.3350528 1.9549798 0.9694017 1.5691271 1.4444258 0.9620084
1.1099076 1.1352627 1.4203675 1.5068259 0.78167236 0.87950057 1.3077636 1.0189826
1.1314596 2.1104097 1.092115 0.8543033 0.9273257 0.96176314 2.991924 1.4122858
1.8325886 1.1498386 2.5219846 1.8209397 1.340505 0.8783201 1.5205977 1.3631878
00000000: f8d1 c93f a344 b53f dd7b 763f 8010 703f
00000010: ca74 8b3f 8e5d 793f c200 723f df51 5e3f
00000020: 4238 a33f 5839 663f 8769 733f 5dcb 9e3f
00000030: 37fc 973f e6f3 823f dbbe aa3f d36f bd3f
00000040: ef67 703f 200c a43f 98aa a33f e8eb 873f
00000050: 4c3f 7b3f 49e1 9b3f 7920 fb3f 6215 a93f
00000060: 2fdc b73f 5ed4 e83f 9546 993f 275d b73f
00000070: 0fda 603f 9e96 c33f d505 7b3f 1103 ba3f
00000080: c6be 963f 60c8 2c40 03e3 aa3f c73c fa3f
00000090: b62a 783f 28d9 c83f f2e2 b83f 2f46 763f
000000a0: 7411 8e3f 4a50 913f 9ace b53f acdf c03f
000000b0: ae1b 483f f326 613f cc64 a73f 066e 823f
000000c0: abd3 903f f410 0740 6dca 8b3f 9fb3 5a3f
000000d0: 3865 6d3f 1c36 763f af7b 3f40 c8c5 b43f
000000e0: 4392 ea3f e92d 933f 3268 2140 8d14 e93f
000000f0: ab95 ab3f 96d9 603f f2a2 c23f f07c ae3f

nnECG.8.weight f4 [16, 64]
-0.025639787 -0.00914061 0.045952603 0.09710936 -0.17306653 -0.10965604 -0.22900881 0.082933106
-0.05053072 -0.1319855 -0.27501008 -0.23388436 0.25495276 -0.2534155 -0.22318627 0.22636482
0.27760947 0.24991803 -0.24569461 -0.07241037 -0.24160837 -0.09061157 -0.06279495 -0.039117604
-0.084566295 0.16922513 0.0004907538 0.30443513 -0.0136546325 -0.27534863 0.041679457 -0.041086666
-0.044859707 0.16956007 0.01922083 0.24761054 0.11389947 0.3054408 -0.33167812 -0.25265184
0.22331138 -0.14728685 0.055634856 -0.23431216 -0.22296476 0.14353098 0.14116791 -0.17119098
0.24383399 -0.23747185 -0.30633628 0.19429068 0.024675705 0.32202473 0.27738947 -0.028585486
-0.15960144 -0.35898158 -0.13791597 0.24346428 0.2568728 -0.18196225 0.009075013 -0.02472021
-0.2552343 0.37191337 0.20014583 0.06857489 -0.30228093 -0.0070546754 0.063784175 0.091394156
-0.001569646 -0.13303606 -0.2733911 0.34080938 0.17339851 0.13965514 0.31100067 0.24796279
0.16288033 -0.037150532 -0.12687096 -0.03538506 -0.10431036 -0.018560128 -0.15617205 0.3394241
0.38912722 0.04776295 -0.15572603 -0.043112043 0.24665838 0.31060436 -0.10243415 -0.050491042
-0.19708104 -0.2218168 -0.14792259 0.12531075 0.07967927 0.074241035 0.12622991 0.287088
-0.2531681 -0.20904201 0.24051428 0.20416664 -0.060528968 -0.18347728 -0.012363103 -0.0005111597
0.14324763 -0.2017702 0.19667375 0.32923964 0.28287092 0.100964986 0.21341813 0.17497256
-0.25393024 -0.1718169 -0.06792107 0.24083194 -0.28839087 0.048312657 0.21117851 0.19155954
0.08838959 -0.056729734 0.14315064 0.08227724 -0.049270656 -0.15605725 0.035416946 0.1454109
0.016086454 -0.27244008 -0.19302666 -0.24297655 0.09867426 -0.15513973 -0.27873144 -0.27430534
0.057919335 -0.116727434 0.11098232 -0.2768015 -0.047523994 0.12911175 -0.15867916 -0.12745301
-0.07211031 -0.030147439 0.019397512 0.034451958 0.16505162 -0.2054758 0.03758259 0.00031243052
-0.12177856 0.09275438 -0.31932884 -0.25297976 0.19058515 -0.26815447 -0.040425055 -0.1089437
-0.06333256 0.23932427 0.010603039 -0.06330446 0.110216655 0.14313392 -0.14916645 -0.20135741
0.15082805 -0.0033351928 0.027439931 -0.19190478 0.24760167 -0.03584937 -0.1680815 -0.21592967
-0.07080351 0.07218114 -0.27437997 -0.06864341 -0.015839607 -0.03813086 -0.29570284 -0.22518188
-0.18428503 -0.015070413 -0.2251343 -0.1955845 0.19568536 -0.30986515 0.21617952 0.17547864
-0.20944187 -0.07676996 0.02210446 0.14708231 0.16426976 0.11305642 -0.118925944 0.054125767
-0.24111028 0.16278334 -0.03567007 -0.17904769 0.13392177 0.2434553 0.081401795 0.1761569
-0.31674728 0.12813362 -0.19465043 0.2777928 0.290764 -0.22804032 0.2044312 -0.009426721
-0.18530063 0.11329605 -0.33620086 -0.067829914 0.13763744 0.25504825 -0.22867267 -0.010354581
0.18198079 -0.11536205 -0.18370764 -0.14156155 0.102786094 -0.20270227 0.23655711 0.002870476
0.35488796 -0.2286524 0.13534439 0.2168838 0.13217819 -0.21841647 -0.07424383 -0.045092132
0.17501827 -0.23892513 0.075124145 0.070728965 -0.13059716 -0.38610595 -0.03253027 -0.12694225
00000000: 880a d2bc 7fc2 15bc cc38 3c3d 46e1 c63d
00000010: 5a38 31be 5993 e0bd 4981 6abe d5d8 a93d
00000020: 4df9 4ebd 3527 07be 1fce 8cbe 627f 6fbe
00000030: 2b89 823e adbf 81be f18a 64be 2ecc 673e
00000040: d422 8e3e 83ea 7f3e 5e97 7bbe e34b 94bd
00000050: 2f68 77be 8f92 b9bd a49a 80bd c839 20bd
00000060: 1831 adbd 5a49 2d3e eea5 003a ecde 9b3e
00000070: aeb7 5fbc 7ffa 8cbe 14b8 2a3d 7e4a 28bd
00000080: d0be 37bd 28a1 2d3e 0175 9d3c 9e8d 7d3e
00000090: 2044 e93d bd62 9c3e b7d1 a9be 955b 81be
000000a0: bdab 643e 5dd2 16be 60e1 633d 87ef 6fbe
000000b0: e050 64be c9f9 123e 528e 103e b04c 2fbe
000000c0: 9eaf 793e d22b 73be 1cd8 9cbe 23f4 463e
000000d0: b424 ca3c 6de0 a43e fe05 8e3e 1c2c eabc
000000e0: 8f6e 23be 6fcc b7be d839 0dbe b34e 793e
000000f0: d584 833e 5054 3abe 5daf 143c 0a82 cabc
00000100: 12ae 82be 6e6b be3e 07f3 4c3e fe70 8c3d
00000110: 91c4 9abe e82a e7bb 47a1 823d dc2c bb3d
00000120: 94bc cdba 9b3a 08be ebf9 8bbe 917e ae3e
00000130: 618f 313e c201 0f3e 7b3b 9f3e f5e9 7d3e
00000140: 1aca 263e 282b 18bd 76ea 01be edef 10bd
00000150: aca0 d5bd 690b 98bc 91eb 1fbe ffc8 ad3e
00000160: af3b c73e 15a3 433d a576 1fbe 4196 30bd
00000170: 0494 7c3e 8907 9f3e ffc8 d1bd b2cf 4ebd
00000180: 9dcf 49be f123 63be 0579 17be 7651 003e
00000190: e32e a33d af0b 983d 6a42 013e 33fd 923e
000001a0: 409f 81be 1c0f 56be 6049 763e 0f11 513e
000001b0: 39ed 77bd 78e1 3bbe 9d8e 4abc 59ff 05ba
000001c0: 82af 123e d99c 4ebe d864 493e 1992 a83e
000001d0: 75d4 903e bbc6 ce3d 488a 5a3e 022c 333e
000001e0: 2503 82be c5f0 2fbe 341a 8bbd a69c 763e
000001f0: f8a7 93be 7ee3 453d 2e3f 583e 2f28 443e
00000200: 9a05 b53d 705d 68bd 1596 123e f880 a83d
00000210: 07d0 49bd 79cd 1fbe 5c11 113d 98e6 143e
00000220: bdc7 833c 447d 8bbe c8a8 45be d8ce 78be
00000230: bb15 ca3d f3dc 1ebe e3b5 8ebe c071 8cbe
00000240: d33c 6d3d cb0e efbd b34a e33d edb8 8dbe
00000250: 85a8 42bd df35 043e ca7c 22be 0b83 02be
00000260: 92ae 93bd c3f7 f6bc 88e7 9e3c 7f1d 0d3d
00000270: 4b03 293e 4068 52be 34f0 193d b7cd a339
00000280: 0a67 f9bd 02f6 bd3d 127f a3be 9086 81be
00000290: c128 433e 8b4b 89be be94 25bd e01d dfbd
000002a0: 80b4 81bd 6c11 753e 5eb8 2d3c c5a5 81bd
000002b0: 45b9 e13d b391 123e 17bf 18be a330 4ebe
000002c0: ab72 1a3e 4093 5abb b5c9 e03c b082 44be
000002d0: 4b8b 7d3e cad6 12bd 8f1d 2cbe ab1c 5dbe
000002e0: 6e01 91bd b5d3 933d 887b 8cbe eb94 8cbd
000002f0: 10c2 81bc 1b2f 1cbd 5d66 97be 1496 66be
00000300: 37b5 3cbe e5e9 76bc 9b89 66be 4e47 48be
00000310: be61 483e a5a6 9ebe 2a5e 5d3e acb0 333e
00000320: ee77 56be 9239 9dbd 6a14 b53c bf9c 163e
00000330: 5536 283e 208a e73d 728f f3bd fbb2 5d3d
00000340: 9de5 76be adb0 263e c81a 12bd 4758 37be
00000350: ca22 093e 594c 793e fcb5 a63d 7962 343e
00000360: b32c a2be 7635 033e 7152 47be dc3a 8e3e
00000370: 05df 943e 6783 69be 6a56 513e 8972 1abc
00000380: 73bf 3dbe c207 e83d 8522 acbe 69ea 8abd
00000390: d4f0 0c3e af95 823e 2b29 6abe 43a6 29bc
000003a0: 2c59 3a3e f042 ecbd db1d 3cbe 83f5 10be
000003b0: 8481 d23d 2f91 4fbe 073c 723e 991e 3c3b
000003c0: e0b3 b53e db23 6abe b897 0a3e c916 5e3e
000003d0: b859 073e 91a8 5fbe 260d 98bd 87b2 38bd
000003e0: fd37 333e caa8 74be b0da 993d 59da 903d
000003f0: 43bb 05be aeaf c5be 763e 05bd 26fd 01be

nnECG.8.bias f4 [16]
0.0287205 0.025962345 0.0037295013 0.0064317915 0.023408307 -0.000458721 0.08482694 -0.00819944
-0.0272688 0.0030569355 0.0019033252 -0.000599286 -0.018420396 0.02816164 0.008267706 0.023845635
00000000: 4147 eb3c fcae d43c a66a 743b c7c1 d23b
00000010: c7c2 bf3c 7e80 f0b9 bfb9 ad3d f256 06bc
00000020: d262 dfbc de56 483b ff78 f93a 6719 1dba
00000030: 5fe6 96bc 3db3 e63c 4675 073c ec57 c33c

nnECG.9.weight f4 [16]
1.0293314 1.130602 1.0375682 1.0654887 1.0199827 1.0707843 0.9730798 1.1108664
1.0265825 1.1321974 0.9910568 1.0438774 1.0907599 1.1506085 1.0633699 1.0476576
00000000: 22c1 833f 91b7 903f 09cf 843f ef61 883f
00000010: cb8e 823f 760f 893f c21b 793f df30 8e3f
00000020: 0e67 833f d8eb 903f e6b5 7d3f c69d 853f
00000030: 059e 8b3f 2447 933f 811c 883f a519 863f

nnECG.9.bias f4 [16]
0.004710536 0.024915086 -0.0005743198 -0.014406035 0.003964544 0.007129159 0.10026306 -0.010746113
-0.03665751 -0.011673909 -0.030992365 0.0070102923 -0.014209912 0.013251417 -0.027403593 -0.0066522486
00000000: d75a 9a3b b91a cc3c f38d 16ba 4a07 6cbc
00000010: 01e9 813b b89b e93b b856 cd3d 7710 30bc
00000020: 2f26 16bd ec43 3fbc b3e3 fdbc 98b6 e53b
00000030: b1d0 68bc 791c 593c 807d e0bc 1bfb d9bb

nnECG.9.running_mean f4 [16]
-0.12109399 -0.022958886 -0.6652002 0.18003042 0.30932784 0.1631123 0.9049393 0.031204551
-0.13522176 -0.022296323 0.34475332 -0.35418317 -0.3286735 0.60784066 0.5156315 -0.13146183
00000000: 2000 f8bd 4614 bcbc 8f4a 2abf e559 383e
00000010: 3860 9e3e e906 273e 1aaa 673f b0a0 ff3c
00000020: 9377 0abe c7a6 b6bc 8283 b03e 7f57 b5be
00000030: e547 a8be 729b 1b3f 6d00 043f ee9d 06be

nnECG.9.running_var f4 [16]
1.5340341 1.3791724 1.5394192 1.4999487 1.5839268 1.138624 1.9228877 1.3402313
1.948617 1.5971919 1.725522 2.2447565 1.5926669 1.5789589 1.537408 1.7695391
00000000: 3b5b c43f b988 b03f b00b c53f 52fe bf3f
00000010: 1dbe ca3f 6ebe 913f 2f21 f63f b38c ab3f
00000020: 486c f93f c970 cc3f e8dd dc3f 17aa 0f40
00000030: 82dc cb3f 531b ca3f c9c9 c43f 4280 e23f

nnECG.12.weight f4 [4, 16]
0.5128696 0.4368916 0.275681 0.1433843 0.3110616 -0.41434848 0.36827424 -0.17027587
0.040032826 -0.10615298 0.39705783 0.05326094 0.13350964 -0.42290455 0.090347655 0.575143
0.20351557 -0.0047093933 -0.2648346 0.15046741 0.2815142 0.54477435 -0.28399765 -0.4755085
0.18075739 -0.15376261 0.54499865 -0.46351263 0.08249204 -0.19964589 0.39087865 0.51827985
-0.42287606 0.6310778 -0.36848247 -0.12984444 -0.56152725 -0.4151063 0.008136655 -0.5643569
0.18287118 0.11126488 -0.15837435 -0.17329685 0.0653122 0.026819615 -0.23624939 -0.21548928
-0.10341177 0.090977915 0.0587065 -0.39738968 0.02902892 0.6320553 0.0071533825 -0.27006742
-0.33130905 0.29364944 0.18203135 -0.49969956 -0.35410357 0.44144592 -0.61943245 -0.4278647
00000000: 6c4b 033f 41b0 df3e 0f26 8d3e 55d3 123e
00000010: 7743 9f3e 7c25 d4be 718e bc3e cc5c 2ebe
00000020: 76f9 233d bc66 d9bd 2a4b cb3e 2528 5a3d
00000030: c0b6 083e f286 d8be 3108 b93d 923c 133f
00000040: 6366 503e 4151 9abb 6798 87be 2114 1a3e
00000050: a122 903e 5576 0b3f 2468 91be da75 f3be
00000060: 7718 393e f273 1dbe 0885 0b3f 8751 edbe
00000070: 96f1 a83d f96f 4cbe 3f21 c83e fdad 043f
00000080: 3683 d8be 518e 213f bca9 bcbe f1f5 04be
00000090: 40c0 0fbf d088 d4be 9b4f 053c b279 10bf
000000a0: 9542 3b3e d7de e33d e32c 22be bb74 31be
000000b0: 67c2 853d cfb4 db3c 5ceb 71be 39a9 5cbe
000000c0: 8dc9 d3bd a152 ba3d 3a76 703d a976 cbbe
000000d0: 0fce ed3c 60ce 213f ec66 ea3b 4746 8abe
000000e0: 57a1 a9be 3859 963e 6d66 3a3e 9fd8 ffbe
000000f0: 104d b5be 3305 e23e 2093 1ebf 1511 dbbe

nnECG.12.bias f4 [4]
0.03984389 0.027618106 0.023900742 0.050833598
00000000: 5933 233d 5e3f e23c 7dcb c33c e436 503d

nnECG.13.weight f4 [4]
1.0333457 1.0484629 1.0565581 1.1362154
00000000: ac44 843f 0834 863f 4c3d 873f 826f 913f

nnECG.13.bias f4 [4]
0.024379555 0.006551547 0.008479838 0.03149971
00000000: a2b7 c73c 5cae d63b 05ef 0a3c d705 013d

nnECG.13.running_mean f4 [4]
0.56373286 0.24964103 -0.6028736 -0.3161254
00000000: cc50 103f e6a1 7f3e ed55 1abf 30db a1be

nnECG.13.running_var f4 [4]
1.2726308 1.636265 1.5065444 1.3874265
00000000: 91e5 a23f 2271 d13f 72d6 c03f 3197 b13f

nnECG.16.weight f4 [1, 4]
-0.4069262 -0.76991796 0.89238715 0.8196768
00000000: a258 d0be 5819 45bf 7c73 643f 57d6 513f
