Models/net_3_1_epoch_86.pth (torch, 57997 bytes, 25 tensors)

nnECG.0.weight f4 [128, 12]
000000 4e da 1d 3e 1a 1d 67 bb fd af 2b 3d 8a e8 a6 3d
       0.15415308 -0.0035265149 0.041915882 0.08149822
000010 ad c8 34 be 43 6b 75 be fc 47 ed bc e5 a0 e1 bd
       -0.17654677 -0.23966698 -0.028964989 -0.11017016
000020 b0 4f f0 3c 63 6c ac bd fd c0 54 bb 3a a7 26 3e
       0.029334873 -0.084191106 -0.0032463663 0.1627473
000030 ba 1a 7d 3d 6e 51 24 be 99 de 7d 3e 19 4e cd bd
       0.061793067 -0.16046688 0.24791946 -0.100246616
000040 0a 73 e4 bd 3a ee 6a 3d 02 c1 fd 3d 90 95 79 3e
       -0.111547545 0.057356097 0.12390329 0.2437346
000050 a2 ee 32 be 8f 09 96 bd 83 1b 49 3d 17 65 e2 bd
       -0.17473844 -0.07326042 0.049098503 -0.110544376
000060 8f 62 4d 3d 05 df 06 bd 34 bc 46 be d9 92 f1 3d
       0.05014282 -0.03292753 -0.19407731 0.11795587
000070 11 fb 24 3e f7 0c 07 3d 6f 3b 9a bb ed 9c 2f 3e
       0.16111399 0.03297135 -0.004706792 0.17149706
000080 4a 4a 18 3e 97 e4 0c be ca c0 c9 3d 57 6b 1a be
       0.14872089 -0.13759075 0.09851225 -0.1508001
000090 d6 2c ae 3d 13 cf 94 be 59 15 d2 3d 0d b3 07 be
       0.085046455 -0.29064235 0.10257978 -0.13251896
0000a0 9e da 56 3d eb 64 f4 3b ef 74 78 be 13 6f 2a be
       0.052454583 0.0074583194 -0.24263357 -0.16643934
0000b0 14 72 70 3d 08 e0 0f 3d 60 1a 41 3e 52 44 04 bc
       0.058702543 0.035125762 0.18857718 -0.008072929
0000c0 7f 7a 19 3e 41 64 85 be 43 c7 09 3e da 94 38 be
       0.14988135 -0.2605305 0.13454919 -0.18025532
0000d0 a7 ef 82 be bc cc 79 be 79 d6 28 be c0 26 42 be
       -0.25573465 -0.24394506 -0.16488065 -0.18960094
0000e0 e2 fc 0b be 92 bb 0f be 40 59 32 be 22 d6 d8 3c
       -0.13670686 -0.14036396 -0.17416859 0.026469294
0000f0 7c 27 11 be 45 51 ea bd b5 eb 12 3e 45 1c 1f be
       -0.14175218 -0.11441282 0.14347728 -0.15538128
000100 87 d6 1a bd ae 0c 23 be 07 ee bc 3c 2c b0 f5 bd
       -0.037802245 -0.15922806 0.023062719 -0.11996493
000110 55 d7 83 3e b3 dc b4 bd f0 50 6c be 6c 9a ae bd
       0.25750223 -0.088311575 -0.2307775 -0.085255474
000120 12 10 7b be 96 dc 4d 3e 80 50 57 bd 62 bf 50 3e
       -0.24517849 0.20103678 -0.052567005 0.20385507
000130 34 72 76 3e 11 af 0e 3e 02 a9 d0 bc 90 6d 19 be
       0.24067003 0.1393397 -0.025471214 -0.14983201
000140 29 1b bb 3d da 9c 5c 3e 8a 40 c3 3d 5f d9 69 ba
       0.0913604 0.21544209 0.09533794 -0.00089206354
000150 72 ed b6 3d c7 1c 7a bd 81 f7 f2 bd 5b 08 5b be
       0.08932008 -0.0610626 -0.11863614 -0.21389906
000160 e6 82 41 be 0f 1a 90 bd db 96 82 3e ac 2c ae 3d
       -0.1889759 -0.0703622 0.2550572 0.08504614
000170 fd 17 77 3d 24 54 cf bd 5c 24 30 be b3 81 ad 3d
       0.06032561 -0.101234704 -0.1720137 0.08472004
000180 eb c7 6e 3c 3b 22 f4 bd 74 7b 03 be 1b 1c 7b bd
       0.014574031 -0.119205914 -0.12840062 -0.0613061
000190 af 7a d6 bb 0b 95 42 3c 7c 00 2d 3e 16 7c f9 bd
       -0.0065453867 0.011876355 0.16894716 -0.12181871
0001a0 a7 bf f1 bc 4a 40 6f be c2 67 1e be 84 41 e7 3d
       -0.029510332 -0.23364368 -0.15469268 0.11291793
0001b0 41 20 14 3d bb 4e 1f be c5 75 13 3e 31 f2 44 3e
       0.036163572 -0.15557377 0.14400394 0.19233014
0001c0 09 28 82 3e e5 70 31 be df 4c 7d be 91 39 c4 bd
       0.2542117 -0.17328222 -0.24736355 -0.095812924
0001d0 32 01 07 3c 28 1e cf 3d 32 45 26 3e cf c7 61 3d
       0.008240031 0.10113174 0.16237333 0.055122193
0001e0 15 9d 5b 3e 04 59 0b 3e 18 c2 5c 3e 4d 8c d4 bd
       0.21446641 0.13608176 0.21558416 -0.10378323
0001f0 96 1e 94 be 0f 87 3a 3c 18 2e 05 be bd 91 ae 3d
       -0.28929585 0.01138474 -0.13005865 0.08523891
000200 b8 b1 38 3e af 0f 37 be 26 bc 2c be 24 1d 1c 3e
       0.18036544 -0.17877077 -0.16868648 0.15245491
000210 2b ac 61 3b 67 b5 00 be 39 a2 94 3d dd c8 58 be
       0.0034434895 -0.125692 0.07257504 -0.21170373
000220 5f 5c 9a be 2b ce 18 be ae 37 55 3e 53 06 28 be
       -0.301486 -0.14922397 0.20822021 -0.16408662
000230 58 03 b1 bb 4d 3e 0a 3d 15 30 65 be 75 5e eb bd
       -0.00540201 0.03375082 -0.22381623 -0.114926256
000240 76 02 e1 bd 1a 2a 72 3e 8f d7 50 3d 9f 7f 9d 3d
       -0.109867975 0.23648873 0.050986823 0.076903574
000250 a1 34 69 3e b1 93 28 be 42 f1 5c bd 88 e1 d5 bd
       0.22773983 -0.1646259 -0.05394102 -0.10443407
000260 91 fe a6 bd 7f 52 59 3e 7a 03 f6 bd 20 8d aa 3d
       -0.081540234 0.21222876 -0.12012382 0.08327699
000270 43 88 f4 bd 12 73 31 3e e0 5a 7c 3d 69 4c 96 3e
       -0.11940052 0.17329052 0.061610103 0.2935517
000280 b9 c3 3f bd 08 dd 4e bd 4e e0 4c be ac 6a 1d be
       -0.046817515 -0.05050376 -0.2000744 -0.15372723
000290 cb cb 10 3e 21 d6 69 3e 4e 3d 25 3e 54 05 11 be
       0.14140241 0.2283559 0.16136667 -0.14162189
0002a0 db e9 d3 bc 88 9a 71 3d 46 fd 6e be 79 66 39 3b
       -0.025868347 0.058985263 -0.23338804 0.0028289838
0002b0 7d e0 e2 bd a7 ff 3b 3e ff de 94 bd da 79 9c bc
       -0.11077974 0.18359242 -0.07269096 -0.019101072
0002c0 44 76 bd 3d f2 95 10 3e 62 e9 54 be f4 53 05 3e
       0.09251073 0.141197 -0.20792153 0.13020307
0002d0 23 9d 36 3e 23 c9 fb 3d d6 35 65 bd a3 3b eb bd
       0.1783338 0.12294223 -0.055959545 -0.11485984
0002e0 6f 36 dd 3d db 56 05 be be fd 4a be 65 23 f8 bc
       0.10801398 -0.13021414 -0.19823357 -0.030290315
0002f0 66 98 35 bc bf 52 97 3d 22 e4 21 3e 27 12 15 be
       -0.011083698 0.073888294 0.15809682 -0.14557706
000300 33 6e 38 be b4 38 46 3e 0a 8f d8 bd 74 1e a8 3d
       -0.18010788 0.19357568 -0.105741575 0.082089335
000310 ac 14 3e 3d 0d ec fa bd 1c 31 10 be 40 43 12 bd
       0.046406433 -0.12252054 -0.14081234 -0.035708666
000320 8f 4b 95 3d 2e 03 23 be e1 65 2f be a1 d7 0b be
       0.07289802 -0.15919182 -0.17128707 -0.13656475
000330 33 8d 1f 3d de 99 21 be a1 6b 1b 3e 71 33 4a bb
       0.038953017 -0.15781352 0.15177776 -0.0030853415
000340 a4 44 27 be 07 27 a6 bd 3c e6 82 3d 89 64 48 3e
       -0.16334778 -0.081129126 0.0639157 0.19569601
000350 d8 1d 62 3d 73 0a 7c be f5 67 21 bc fc 4f 85 3e
       0.055204242 -0.24613361 -0.009851445 0.26037586
000360 e5 fa 8b be f2 ed eb 3d 75 3a 27 be e9 2a 86 3d
       -0.27339855 0.11519994 -0.16330893 0.06551153
000370 73 c4 92 bd 7d b1 1a bb 14 2d 20 be be 41 20 bc
       -0.07166376 -0.0023604326 -0.15642196 -0.009781299
000380 11 41 2a 3e 30 a3 db bd 64 68 27 be e8 a3 05 be
       0.16626383 -0.10724485 -0.16348416 -0.13050807
000390 7d 31 69 3e c4 66 25 3e 1e 5c e0 3d fe 2c c2 bc
       0.22772785 0.16152483 0.1095507 -0.023703095
0003a0 8a 95 9d 3e e9 bf 35 be 51 a4 57 bc b5 72 3e 3d
       0.30778152 -0.17748989 -0.013161735 0.046496112
0003b0 d8 ad 4f bd ba ec 72 3e b1 1d 00 3e 0a d1 91 3c
       -0.0507029 0.23723117 0.12511326 0.017799873
0003c0 f5 22 1e 3d a3 e2 e8 bd 23 f8 d9 bd 95 a3 1a be
       0.038607556 -0.113713525 -0.106430314 -0.15101464
0003d0 5f 87 2d be 5c 0f 3c be fa a8 2c 3e 39 a0 1f 3e
       -0.16946171 -0.18365234 0.16861334 0.15588464
0003e0 0c 89 88 3e 11 46 73 be 3a 20 98 bd 0f 03 37 3e
       0.26667058 -0.23757197 -0.07428022 0.1787226
0003f0 75 13 cc 3d 6b 15 df 3d 7d df 68 3d 7b 3a 7b 3b
       0.09964649 0.10892757 0.05685376 0.0038334418

nnECG.0.bias f4 [128]
000000 a1 f2 5a 3c 8b 69 a4 bb b1 45 cc 3a 70 40 3b 3c
       0.013363511 -0.0050174645 0.0015584735 0.011428937
000010 5b 98 b9 3c 36 61 bf 3c ea 9a 77 3c c0 e9 0c 3c
       0.022655657 0.023361783 0.015112618 0.008600652
000020 57 48 5b 3c 62 eb ea 3b 96 3b d7 bb 28 07 7c 3c
       0.013383946 0.007169173 -0.0065683825 0.015382566
000030 11 81 00 3d ed 59 9c ba c9 f0 23 3b 10 17 87 3a
       0.031373087 -0.0011928655 0.0025015345 0.0010306556
000040 10 8f fe 3c b8 e1 74 bc 65 38 1a 3c fe c7 0f bc
       0.031074077 -0.014946394 0.00941286 -0.008775709
000050 73 6f c7 3c 7a c7 cf 3b 4b be 86 3c c9 f7 9f 3c
       0.024345135 0.006340918 0.01644816 0.019527333
000060 dd 7a 11 3c 06 a0 d5 3c 0e 39 08 bb 9f 77 6f 3b
       0.008879391 0.026077282 -0.002078596 0.0036539806
000070 07 f0 31 3c 95 d9 9a 3b 4e 8f 01 3d 3d ed dd 3c
       0.01086045 0.004725645 0.031630807 0.027090663
000080 31 79 76 bc 3f 00 80 3c 80 16 1a 3c 34 d7 55 3c
       -0.015043543 0.015625117 0.0094047785 0.013051797
000090 e6 f4 98 3c fe 52 59 3c 50 f0 11 3d 76 6e b1 bb
       0.018671464 0.013264416 0.03562957 -0.0054147793
0000a0 ce 68 00 3d 47 92 fe 3c d2 fd 99 3b 40 55 5f 3c
       0.03134995 0.03107561 0.004699447 0.013631165
0000b0 bc c8 1f bb 40 33 29 3c 7e 48 74 bb 3b a5 07 3c
       -0.0024381122 0.01032716 -0.0037274654 0.00827914
0000c0 2f e2 82 3c 9a 01 40 3c 1d d5 e6 3c a7 e6 69 3c
       0.015976993 0.011719132 0.028177792 0.014276183
0000d0 51 03 39 3c 29 92 75 bb 67 76 05 bc 3a 90 87 3c
       0.011292295 -0.0037471151 -0.008145905 0.016548265
0000e0 96 84 8f 3c d7 2f 7b 3c 69 5a 82 bc 5b 57 7f 3c
       0.017519277 0.01533123 -0.015912252 0.015584792
0000f0 2a 73 85 b9 33 db 7b 3b 25 7f b5 3c 0a 96 11 bc
       -0.0002545354 0.0038430213 0.022155354 -0.00888587
000100 86 9e 87 3a 2b b8 9b 3b ac 7e 52 bc 89 d8 b3 3c
       0.0010346926 0.004752179 -0.012847584 0.021953838
000110 e8 89 05 bc 91 98 ce 3c 19 9c 2f 3c fe ea 09 bc
       -0.008150555 0.025219234 0.010718369 -0.008417843
000120 63 1f d2 bb d7 c0 5e bc bd 9c 85 3c c7 05 09 3c
       -0.006412433 -0.013595781 0.01631009 0.008363194
000130 f1 45 97 3b b0 65 3f 3b db 47 0a 3c be 04 c8 3c
       0.004616492 0.0029204898 0.008439983 0.024416324
000140 20 1a b9 3c 3f af 87 3c 1b ae 49 3c 01 fa c5 3b
       0.022595465 0.016563056 0.012309576 0.0060417657
000150 9e 8d 70 3c ce 66 03 3c 01 b2 50 bc 72 84 5c 3c
       0.014682202 0.008020116 -0.012737752 0.013459312
000160 48 8b 63 bc 14 9f 99 3c 24 94 2d 3c bc ea eb ba
       -0.013888188 0.018752612 0.0105944015 -0.0017999033
000170 6e 15 5f 3c 88 bf 4a 3c 1c f1 14 3c cb 0b a4 3c
       0.013615949 0.012374766 0.009090688 0.020025155
000180 94 25 b8 bb b6 3f 0d bb 04 fb 0c 3c 77 f7 43 3c
       -0.005619714 -0.0021552867 0.008604769 0.011960856
000190 3c 5c bf 3b f0 96 95 3c 20 34 88 3c 95 71 8f 3c
       0.0058398526 0.01826045 0.016626418 0.017510215
0001a0 5c 1a 97 3c ed db 30 3c b5 9b 97 3c 8e 50 cc 3c
       0.018445186 0.010794622 0.018506864 0.024940755
0001b0 e7 41 e6 3b e5 a7 5d 3c 02 e8 72 3c ab 1d 56 3c
       0.007026899 0.013528799 0.014825823 0.013068597
0001c0 0c 01 ae bc 16 6a a1 3c 86 72 59 bb b6 15 2a ba
       -0.021240734 0.019703906 -0.0033179834 -0.00064882205
0001d0 63 ec 46 bb 12 28 02 3c 8e fa 48 3c 5c ad 28 3c
       -0.00303533 0.007944124 0.012266768 0.010295238
0001e0 59 d4 0d 3d de 27 a5 3a a8 40 09 3b b8 2f db 3b
       0.03462634 0.0012600382 0.002094308 0.006689038
0001f0 fe 65 a2 3c dd 2d cf 3c 56 b0 23 3c 91 91 d2 bc
       0.019824024 0.025290424 0.009990772 -0.025704177

nnECG.1.weight f4 [128]
000000 c2 cc 7e 3f 7c b1 8b 3f d5 4b 6f 3f de 05 8b 3f
       0.99531186 1.0913539 0.93475085 1.0861166
000010 27 8d 91 3f 2a 6d 83 3f 7b 05 88 3f 3e 45 8a 3f
       1.1371201 1.0267689 1.0626673 1.0802381
000020 28 0f 89 3f f9 54 86 3f 68 5a ad 3f a8 26 83 3f
       1.070775 1.0494682 1.3543215 1.0246172
000030 00 21 89 3f d7 ff 86 3f b0 13 77 3f 32 85 8a 3f
       1.0713196 1.0546826 0.96514416 1.0821898
000040 2b 57 8c 3f 6a ed 94 3f 93 68 8c 3f 2f 68 8a 3f
       1.0964102 1.1634953 1.0969414 1.0813044
000050 e6 52 96 3f b8 d9 85 3f 1f 87 86 3f d9 10 80 3f
       1.1744049 1.0457067 1.0509986 1.0005141
000060 81 02 8c 3f 9a 4a 7d 3f 78 8d 7e 3f 1a 42 85 3f
       1.0938264 0.9894196 0.99434614 1.0410798
000070 fc 02 93 3f a2 a1 84 3f 07 e5 8a 3f 8f c0 8a 3f
       1.1485286 1.0361826 1.0851144 1.0840014
000080 46 8d 91 3f 87 1e 87 3f b7 f2 8b 3f 1b ac 80 3f
       1.1371238 1.0556191 1.0933446 1.0052522
000090 f3 f4 7d 3f cc 64 85 3f 70 f1 8c 3f ae f4 ab 3f
       0.9920189 1.0421386 1.1011181 1.3434045
0000a0 2f 5d 8c 3f 2d 04 8b 3f 47 c4 8e 3f eb 25 91 3f
       1.0965937 1.0860649 1.1153649 1.1339697
0000b0 b7 db 86 3f b1 67 86 3f 20 98 7e 3f 04 84 7b 3f
       1.0535802 1.0500394 0.99450874 0.98248315
0000c0 07 13 88 3f 0f ab 85 3f 4f bc 84 3f 92 96 83 3f
       1.0630807 1.0442828 1.0369967 1.0280325
0000d0 90 47 88 3f 72 0a 82 3f 13 8a 82 3f d6 86 86 3f
       1.0646839 1.0159438 1.0198387 1.0509899
0000e0 1b 42 7e 3f 5b 13 87 3f be f7 8b 3f 2a d0 7d 3f
       0.9931962 1.0552782 1.093498 0.9914576
0000f0 af c4 7e 3f d1 9c 79 3f d2 10 8e 3f 13 87 8a 3f
       0.99518865 0.9750491 1.1098883 1.0822471
000100 e8 ac 89 3f 20 9d 86 3f f4 d0 83 3f 62 a0 89 3f
       1.0755892 1.0516701 1.0298142 1.075207
000110 d9 0e 88 3f 91 39 76 3f c2 3b 86 3f 6b f7 86 3f
       1.0629531 0.9618159 1.0486987 1.0544256
000120 cc ea 73 3f c6 ef 8e 3f c0 4a 92 3f cd 59 7f 3f
       0.95280147 1.1166923 1.1429062 0.997464
000130 ff 13 86 3f 61 a8 7d 3f c0 f8 8a 3f 03 df 83 3f
       1.0474852 0.9908505 1.0857162 1.0302433
000140 73 0f 86 3f 4d 89 8c 3f 97 f1 87 3f 17 1d 85 3f
       1.0473465 1.0979401 1.0620602 1.0399503
000150 d1 3e 84 3f ee 66 80 3f 06 0b 91 3f 9a c3 8e 3f
       1.033167 1.0031412 1.1331489 1.1153443
000160 82 1f 95 3f d0 a3 90 3f 83 1b 82 3f d8 b9 86 3f
       1.165024 1.1299992 1.0164646 1.0525465
000170 fe 63 8b 3f e5 1c 96 3f 98 5c 84 3f aa 85 99 3f
       1.088989 1.1727568 1.0340757 1.1993916
000180 34 8b 89 3f bf 15 83 3f fc ce 91 3f fe 6c 88 3f
       1.0745606 1.0241011 1.1391292 1.0658262
000190 d0 2d 87 3f 2d b1 8e 3f 50 45 86 3f fe 25 7c 3f
       1.0560856 1.114782 1.0489902 0.9849547
0001a0 2d 11 7f 3f ec 18 78 3f 0b 70 80 3f f5 c3 8e 3f
       0.99635583 0.9691303 1.0034193 1.1153551
0001b0 a7 df 75 3f 6a 4c 88 3f 06 e0 84 3f 1b 1f 7a 3f
       0.9604439 1.064832 1.0380867 0.97703713
0001c0 b8 70 89 3f aa f0 88 3f 72 7f 79 3f cf 41 89 3f
       1.0737524 1.0698445 0.9746009 1.0723208
0001d0 5a 80 87 3f 25 1a 8a 3f 26 88 8c 3f ac cb 80 3f
       1.0586045 1.0789229 1.0979049 1.0062156
0001e0 f3 18 91 3f 05 c8 87 3f 19 ea 89 3f ed 5b 83 3f
       1.1335739 1.0607916 1.0774566 1.0262429
0001f0 b9 9c 8c 3f 94 82 92 3f a4 bc 7d 3f b6 b3 8a 3f
       1.0985328 1.1446099 0.9911597 1.0836093

nnECG.1.bias f4 [128]
000000 a2 ca 67 3c e6 27 3d bc 8a 10 06 bc 47 7d 38 3c
       0.0141474325 -0.011545157 -0.008182654 0.011260337
000010 ce 6f 84 3c 1a c2 62 3c 6b bf a6 3b 54 f7 9c 3b
       0.016166594 0.013840223 0.005088737 0.004790226
000020 3b 58 d6 3b ea 19 db 3a 8e ad c0 bc 13 ac 15 ba
       0.0065412796 0.0016716097 -0.023520257 -0.000570954
000030 11 b4 09 3d 68 b1 76 bc eb 6e c2 bb ed f2 fd b9
       0.03361899 -0.015056945 -0.0059336326 -0.00048436914
000040 0e cb c0 3c 91 52 b7 bc 91 44 28 3c 18 2c f9 bb
       0.023534324 -0.022378238 0.010270254 -0.0076041333
000050 9a f1 cb 3c 46 7b f0 3a 5d dc 62 3c b6 bf 90 3b
       0.024895478 0.0018347285 0.013846484 0.004417385
000060 fe cf dd 3b 51 0b 8d 3c 13 65 43 bb 59 73 0b b9
       0.0067691794 0.01721731 -0.0029814884 -0.00013299043
000070 9a d3 ca 3b 4f ca c4 3a c8 62 a7 3c c0 6f 83 3c
       0.0061897757 0.0015013906 0.020432845 0.016044497
000080 9e 43 d8 bc 7b 31 7d 3c 2c 55 04 3c fc 6d f6 3a
       -0.02639943 0.015453692 0.008076947 0.0018801088
000090 66 08 d5 3b f3 9b 6a 3a ab e8 11 3d c0 eb a8 bc
       0.0065012453 0.000894963 0.03562228 -0.020620227
0000a0 ab 46 7e 3c fe f6 97 3c ba 54 04 bc 2f 6d c0 3a
       0.015519778 0.018550392 -0.008076841 0.0014680977
0000b0 e7 ff 14 bc 9e 93 67 3a 3e 20 81 bc 57 a8 97 3b
       -0.009094215 0.00088339474 -0.015762445 0.004628222
0000c0 0c a6 6f 3c c9 b7 92 ba 88 84 8a 3c 87 a6 87 3c
       0.014626991 -0.0011193688 0.016908899 0.016558899
0000d0 62 d8 33 bc 82 64 00 bc c0 6c 4f bc e2 2d 0f 3c
       -0.010976883 -0.007836463 -0.012660205 0.008738967
0000e0 c4 e7 ce 39 4e 89 19 3c 8c ce 0d bd e5 ef e5 3b
       0.0003946406 0.009371115 -0.034620807 0.007017123
0000f0 14 b4 ff bb 42 d8 45 bc 7b 6f 9e 3c 4c 0e b3 bc
       -0.0078034494 -0.012075486 0.019340267 -0.021857403
000100 4a c7 24 bc 00 84 b7 bb 10 d2 5a bc 39 d8 92 3c
       -0.01005728 -0.0056004524 -0.013355747 0.017925369
000110 9e 69 8d bc 5e 28 a5 ba 69 6d ab bb 32 60 8b bc
       -0.017262276 -0.0012600531 -0.0052315486 -0.017013643
000120 9e 66 73 bc af bc a3 bc 3c dc c8 3b 3e 18 d5 bb
       -0.014856009 -0.019987432 0.0061297696 -0.006503134
000130 cb d2 17 bc 2e b7 8d bc f0 ff 7c bc 22 78 b7 3c
       -0.009266566 -0.017299261 -0.01544188 0.022396151
000140 e1 c2 14 3c c8 dd 6c 3c 77 1b 93 bb 90 1d 5f bc
       0.009079666 0.014457174 -0.004489358 -0.013617888
000150 30 51 21 3c e3 78 01 39 2f 2b a7 bc 5d ef 98 3b
       0.009846017 0.00012347432 -0.020406334 0.004667206
000160 60 3a b2 bc be 7f 0c 3c ef c6 ec ba 3b a2 a8 bb
       -0.021756351 0.008575378 -0.0018064658 -0.0051462925
000170 2c 6d c0 3b 21 b9 a5 3b a6 35 7b 39 6f d5 d8 3b
       0.0058723893 0.0050574695 0.00023957211 0.00661724
000180 8e 6d c8 bb 42 49 9a 39 a3 7a 0c 3b 7b 37 e5 3b
       -0.0061165756 0.0002942775 0.0021435402 0.006995139
000190 07 83 5d 3b 43 1d 8a 3c 47 d5 c6 3b a7 3b 13 3c
       0.0033800022 0.016859656 0.006067905 0.00898639
0001a0 a8 e2 3b 3b 1a f3 7b bb c9 3f ae b9 86 42 aa 3c
       0.0028669033 -0.003844446 -0.0003323539 0.020783674
0001b0 83 df 36 bb 04 7e 75 3c 7f 17 2f 3c a0 f5 37 bc
       -0.002790422 0.014983658 0.010686754 -0.011227995
0001c0 64 67 c3 bc 82 b6 58 3c 18 8d 2f bc 75 8a 06 bc
       -0.023853011 0.013227107 -0.010714792 -0.008211722
0001d0 ac a7 b1 bc f0 90 a7 ba f1 1b 06 3b 3f 77 dd bb
       -0.021686397 -0.0012784284 0.0020463432 -0.0067586
0001e0 af c0 95 3c f7 55 7b bc 2d fa 60 3b 04 61 1b 3b
       0.018280355 -0.01534032 0.0034328804 0.002370895
0001f0 a7 64 94 3c b2 d8 c5 3c 7a 5b 69 3b c5 5a fe bc
       0.018114401 0.02415118 0.0035607503 -0.031049142

nnECG.1.running_mean f4 [128]
000000 88 ff 8c bd 68 33 8d 3e e5 31 42 3e 02 ca 85 3d
       -0.06884676 0.27578282 0.18964346 0.065326706
000010 ed 23 20 bf 40 e6 c4 be 4c 40 71 3e 63 ef 14 3d
       -0.6255482 -0.38456917 0.23559684 0.03636111
000020 0b 4a a1 be 2e eb 74 bd 9b 20 8a 3d ab 75 e4 bd
       -0.31501803 -0.059794597 0.067445 -0.11155256
000030 6d 07 58 be 3b 79 32 3e 44 cd 30 bd 30 07 ba 3d
       -0.21096583 0.17429058 -0.043164507 0.09083402
000040 43 37 0a bf 23 70 9f 3c 00 de cb be c4 1e f3 3e
       -0.5399057 0.01946265 -0.3981781 0.4748441
000050 7a 27 cd 3c 10 8c 98 3e e6 f3 57 be 7b ed 77 be
       0.025043238 0.2979436 -0.21089134 -0.24211685
000060 42 bd 52 bd 40 15 a4 bd 2f 53 5f 3e e7 00 25 be
       -0.05145002 -0.080118656 0.21809076 -0.16113625
000070 fb a7 e1 3d 6b 04 1b 3f 26 1a 9d be 48 e0 0c bf
       0.11018368 0.60553616 -0.30684012 -0.55029726
000080 a9 24 76 3e 0e fb 5f be bf 5a 3e be 89 a0 6f be
       0.24037422 -0.21873114 -0.18589304 -0.23401083
000090 40 2c 9d be d9 1b 9d 3e e8 e3 eb be 64 fb 42 3e
       -0.30697823 0.3068531 -0.46072316 0.1904121
0000a0 6f d4 9d be 1e 1e 0f be af 92 1e 3e 50 79 37 bd
       -0.30826136 -0.13976333 0.15485643 -0.044793427
0000b0 ad 4d cb 3e 51 50 ca be d4 80 cd 3e 99 4e d8 3c
       0.397077 -0.39514402 0.4013735 0.026404666
0000c0 48 fb 2c be a8 b1 6e 3d 6e 13 4c be 43 27 7c be
       -0.16892731 0.058274895 -0.19929287 -0.24624352
0000d0 d5 75 c8 bb 41 fe d1 3d bc 2a f3 3e 02 82 84 3d
       -0.0061175623 0.10253573 0.4749354 0.064701095
0000e0 f1 97 49 be 11 36 e0 be 98 7f 49 bc 1b 82 0e bd
       -0.19686867 -0.4379125 -0.012298487 -0.034792047
0000f0 9d d1 82 3e b6 21 d5 bd e7 9c 98 be 88 29 dc 3b
       0.25550547 -0.104068205 -0.29807207 0.006718818
000100 b4 88 59 3e b7 00 fe bc 24 2d 04 3f 66 37 da be
       0.21243554 -0.0310062 0.5163138 -0.4262039
000110 53 82 17 be 49 43 05 be d1 d1 a9 3e 8e f0 a1 3e
       -0.14795808 -0.13013949 0.3316789 0.3162884
000120 83 17 ac 3d e1 73 03 3f d3 52 35 3e 63 b3 a7 3e
       0.08402922 0.5134869 0.17707376 0.3275405
000130 e3 64 f6 3d f6 17 2f 3e a9 6a 19 3d 0e 73 71 3e
       0.12030961 0.17098984 0.037455235 0.23579046
000140 50 df d7 3d 63 89 a5 be 60 d7 c8 bc 81 c4 92 3c
       0.1054064 -0.3233138 -0.024516761 0.017915966
000150 99 aa 39 be 3f 2b 64 3c 9b 00 c4 3e 16 c2 00 be
       -0.18131484 0.013926326 0.38281712 -0.12574038
000160 f2 37 e0 3e a1 5a 95 3e 2f 49 40 3d 9a 6e ee 3d
       0.43792683 0.29170707 0.046944793 0.11642189
000170 75 a3 22 3e e4 79 5e be 36 2c 34 3d 14 9a 5d be
       0.15882666 -0.21726185 0.043987475 -0.21640807
000180 c1 83 05 3e 8f f1 0b be aa f5 2e be 2c 30 ae 3d
       0.13038541 -0.13666366 -0.17085901 0.08505282
000190 b3 8b 42 be 53 59 55 bd ef 08 44 3d 2f d9 92 be
       -0.18998604 -0.05208714 0.047860082 -0.28681323
0001a0 8e ed 5b be 90 a3 68 3d d5 21 19 bf ec e7 fa bd
       -0.21477339 0.05679661 -0.5981725 -0.12251267
0001b0 b4 1b ff be a5 98 50 bd 9e 46 96 3c d3 5c 0f bf
       -0.49825823 -0.050926823 0.01834422 -0.56001014
0001c0 99 87 03 3f e4 d6 30 3e 22 07 24 3f ec d4 51 3e
       0.5137878 0.17269474 0.64073384 0.2049138
0001d0 cf dc 12 3e 79 4c cf 3e 6d 99 4b be 70 f3 b1 be
       0.14342044 0.40488032 -0.19882746 -0.3475604
0001e0 06 43 ed bd a1 0f 53 3d 69 ff dd be a6 c3 18 3f
       -0.11585049 0.051528577 -0.43358925 0.59673536
0001f0 63 0f df be e6 ac 2e be d0 51 a1 be 50 18 b6 3e
       -0.43566427 -0.17058143 -0.3150773 0.35565424

nnECG.1.running_var f4 [128]
000000 93 1a 99 3d 5b d7 9d 3d 3a 1b 94 3d b2 2b 98 3d
       0.07475772 0.077070914 0.072317556 0.07430209
000010 15 b8 97 3d cc d6 9f 3d 2c ca 94 3d cc 6a 94 3d
       0.07408158 0.07804641 0.07265124 0.072469324
000020 10 8e 98 3d d6 be 9b 3d fd 2f 9a 3d 72 77 98 3d
       0.07448971 0.076047584 0.07528684 0.074446574
000030 8f 3e 95 3d 14 72 99 3d 9b 2a 94 3d fb 8f 9e 3d
       0.07287323 0.07492462 0.07234689 0.07742306
000040 8f 42 96 3d 12 7b 96 3d 88 26 97 3d c3 40 9b 3d
       0.07336914 0.073476925 0.07380396 0.07580712
000050 7b 1c 97 3d ce 86 98 3d 3e f3 99 3d 6e c2 94 3d
       0.07378479 0.07447587 0.07517098 0.07263647
000060 22 ff 96 3d cf b0 99 3d f1 6b 96 3d 69 3d 9e 3d
       0.073728815 0.07504427 0.07344807 0.07726557
000070 4a db 99 3d fe 6b 93 3d b1 58 95 3d 9f f0 9a 3d
       0.07512529 0.07198332 0.07292307 0.07565426
000080 71 97 a0 3d 18 cc 97 3d 76 7e 98 3d c5 32 98 3d
       0.07841385 0.07411975 0.074459955 0.074315585
000090 ba 7e 94 3d 51 41 96 3d c1 d8 ad 3d a4 ec 94 3d
       0.07250734 0.07336677 0.08488608 0.07271698
0000a0 34 50 99 3d 82 a1 95 3d 2f 86 9f 3d 30 8e 95 3d
       0.07486001 0.07306196 0.07789265 0.07302511
0000b0 a3 46 a0 3d 44 f2 9a 3d d1 bd 94 3d 1c ed 96 3d
       0.07825973 0.0756574 0.07262767 0.07369444
0000c0 d1 98 96 3d a6 cc 96 3d b1 30 9b 3d 0b 13 95 3d
       0.07353366 0.07363252 0.075776465 0.07279023
0000d0 6b 02 98 3d 4e a3 97 3d 86 da 94 3d 18 47 9f 3d
       0.07422336 0.07404195 0.072682425 0.07777232
0000e0 62 ec 93 3d 3b d6 94 3d 0c 18 98 3d d9 5d 9b 3d
       0.07222821 0.07267424 0.074264616 0.075862594
0000f0 7d d8 95 3d cb 1b a0 3d a9 ef 9c 3d fb 8f 94 3d
       0.073166825 0.07817801 0.07662899 0.072540246
000100 30 8d 96 3d 18 b3 96 3d 81 a0 95 3d 67 62 95 3d
       0.07351148 0.07358378 0.07306004 0.072941594
000110 fd e3 96 3d 3d 93 97 3d e5 cc 95 3d 6a 78 95 3d
       0.07367704 0.0740113 0.07314471 0.07298358
000120 03 76 96 3d c0 de 96 3d e7 de 96 3d 9f 26 9d 3d
       0.07346728 0.07366705 0.07366734 0.07673382
000130 14 88 95 3d d5 4d 98 3d d6 dc 9c 3d b5 09 99 3d
       0.073013455 0.0743672 0.076593086 0.074725546
000140 70 14 99 3d 32 12 96 3d 81 7a 96 3d ea e0 9d 3d
       0.07474601 0.07327689 0.073475845 0.077089146
000150 a4 d1 97 3d 64 b2 94 3d f9 d2 94 3d 73 a7 94 3d
       0.07413033 0.07260588 0.07266802 0.07258501
000160 4a 24 96 3d 38 62 96 3d f2 1d 94 3d a5 aa 94 3d
       0.0733114 0.073429525 0.07232274 0.0725911
000170 16 be a3 3d 7d 47 9b 3d 52 59 98 3d dd 98 9c 3d
       0.079952404 0.07581995 0.074389115 0.07646344
000180 b5 22 96 3d 26 9e 95 3d 62 fe 9d 3d 5d 6b a3 3d
       0.073308386 0.07305555 0.07714535 0.07979462
000190 21 19 95 3d 72 aa 96 3d 99 0a 97 3d 78 18 9d 3d
       0.072801836 0.073567286 0.07375068 0.07670683
0001a0 46 59 96 3d b4 ef 94 3d 62 96 9f 3d aa 98 96 3d
       0.07341246 0.07272282 0.07792355 0.07353337
0001b0 d3 ec 93 3d 7e 3c 94 3d 41 d4 95 3d 98 0f 9e 3d
       0.07222905 0.072381005 0.07315875 0.07717818
0001c0 a3 2f 96 3d f1 2d 96 3d ec ba 97 3d a8 b7 95 3d
       0.07333305 0.073329814 0.074086994 0.0731042
0001d0 5e 84 9b 3d 0b e8 99 3d 00 c4 9c 3d ac cc 95 3d
       0.075936064 0.07514962 0.076545715 0.07314429
0001e0 15 15 99 3d 6a d3 98 3d 8a 95 95 3d ab 04 95 3d
       0.07474724 0.07462199 0.07303913 0.07276281
0001f0 a9 b0 96 3d 3e 57 97 3d 15 86 94 3d 5b 7e a7 3d
       0.07357914 0.07389687 0.072521366 0.08178397

nnECG.4.weight f4 [64, 128]
000000 bc 61 33 be 1a 38 2b bb 26 c2 2a bc f7 9b fd 3d
       -0.17517751 -0.0026125968 -0.010422265 0.123832636
000010 81 39 14 3d 28 fc c5 bb 95 b4 8b 3c f5 35 bf 3d
       0.036187652 -0.0060420223 0.017053882 0.09336463
000020 7a a5 97 3d 47 b1 21 be d8 6b 01 3d 01 03 10 be
       0.07404609 -0.15790282 0.03159699 -0.14063646
000030 60 8b 25 3e b2 05 14 3e 53 d9 20 3e 70 b1 e1 3c
       0.16166449 0.14455298 0.15707903 0.02755043
000040 3e c9 8d 3c 36 26 3c be 2d 2b 86 3d c9 35 10 3e
       0.017307874 -0.18373951 0.06551204 0.14083017
000050 08 ed ca bd d8 52 50 3d 5d 13 3b 3e 55 7c 82 bd
       -0.099084914 0.050860256 0.18269105 -0.06371371
000060 73 bb 19 3e a8 0c 48 3e 48 29 03 be 06 e0 95 bd
       0.15012912 0.19536078 -0.12808716 -0.0731812
000070 d6 6c f9 3d 38 c2 90 3d de d8 99 bd a7 42 4b 3e
       0.12178962 0.07068294 -0.07512067 0.19849645
000080 d7 9e bb bc 53 d2 09 be 25 ee eb bd c2 7a 9c bc
       -0.02290289 -0.13459139 -0.11520032 -0.019101504
000090 f6 33 18 3d f8 8b 37 bd c6 84 95 bd 7d 2c a6 3b
       0.03715893 -0.04481122 -0.07300715 0.0050712214
0000a0 f9 7e 9b bd fe 53 e5 3c 46 ab 62 3d 54 44 29 3d
       -0.075925775 0.027994152 0.05533912 0.04132493
0000b0 20 83 78 bd c0 77 4e 3e 69 d9 f1 bd c6 c6 e2 3d
       -0.060671926 0.20162868 -0.11809046 0.11073069
0000c0 b5 71 9c bc 9d d3 4c 3e fd bc d9 bd 6e 6b 31 bd
       -0.019097188 0.20002599 -0.1063175 -0.043315344
0000d0 fa ae e2 bd 87 41 c8 bc 7b 47 26 bd 55 63 2c ba
       -0.110685304 -0.024445308 -0.040595513 -0.0006576081
0000e0 1d 0a 57 bd 0f cb 93 3d 5b 4b 9c 3d 86 f3 dc bd
       -0.05249988 0.07216465 0.076315604 -0.10788636
0000f0 f5 3f 64 3c ca 8b b3 3d 05 41 e0 bd d2 4f 2d 3e
       0.013931264 0.08766897 -0.109499015 0.1692498
000100 15 1f 98 bd 5a cf 25 3e 52 4c 55 3d 1e e2 3d be
       -0.074278034 0.1619238 0.052074738 -0.18543288
000110 ed a4 18 3e 81 87 e5 3d 91 96 ee 3d 73 6c 82 3a
       0.14906664 0.11207486 0.11649812 0.0009950533
000120 be 91 ce bd 56 bd 41 be 1a 4d 4b 3e d8 66 ad bd
       -0.10086392 -0.18919882 0.1985363 -0.084668815
000130 23 63 f6 bd c3 b8 65 bd a7 5e 12 be 34 6a 01 be
       -0.120306276 -0.056084406 -0.1429392 -0.1263817
000140 1f f3 f7 3d 58 ee f3 3d 64 c2 2d bd 31 5d 23 3e
       0.121069185 0.11910695 -0.042421713 0.15953518
000150 07 54 5e 3e 16 d1 35 bd bd 06 03 be 9f 5a 43 3e
       0.21711741 -0.044388853 -0.12795539 0.19077538
000160 36 2d 70 3d 7f 79 10 3e 3e c7 d2 3c ef 8c 30 be
       0.058636867 0.14108847 0.025729772 -0.17241262
000170 9e b5 45 be bf e5 3e 3e 94 ce 0b be d1 4e 2a 3e
       -0.19307563 0.18642329 -0.13653022 0.16631629
000180 2c a7 a0 bc 72 13 2a 3e 20 a9 ac bd 9d 5a 93 3d
       -0.019610964 0.1660898 -0.084306955 0.071950175
000190 58 3c ad bd e6 25 9a bc ad 2d 0c 3e 5e 78 b5 bc
       -0.08458775 -0.0188169 0.13689299 -0.022152122
0001a0 a7 d5 e3 3d ec 5f 0b 39 5a 7e 1a be 07 6d 5e 3e
       0.11124735 0.00013291807 -0.15087262 0.21721278
0001b0 84 82 b0 bd ce 0a 5c bd 4f a3 5a 3c 31 af 10 3e
       -0.08618644 -0.05372124 0.0133446 0.1412933
0001c0 1c 4e bd bc b0 59 0e 3d a6 2c 18 be 63 74 dc 3d
       -0.023108535 0.0347535 -0.14860782 0.107643865
0001d0 80 7a c8 3d 0d ab 2e be 2c 27 fe bd 35 bb f7 3d
       0.0978899 -0.17057438 -0.12409815 0.12096254
0001e0 d8 41 bd 3d a3 c4 8e 3d f4 8a 31 3e 18 98 e6 3d
       0.09241074 0.06971099 0.17338163 0.11259478
0001f0 20 20 e4 3c 80 53 29 3e f0 aa 0f 3e 48 d2 d2 bd
       0.02784735 0.16535759 0.14030051 -0.10294014
000200 3c 91 4d 3e 0c 5f 7f 3d 00 3c ad 3c 85 c6 3f 3e
       0.20074934 0.062346503 0.021146774 0.18728073
000210 93 51 60 3e 0e 18 68 be 90 57 a8 bd d2 d6 17 3c
       0.21906118 -0.22665426 -0.08219826 0.009267526
000220 3f 99 1a 3d 85 83 b4 3d 53 9b 31 3e 8d 53 3a be
       0.037743803 0.08814148 0.17344408 -0.18195935
000230 34 29 47 bd 84 fd 06 3e 95 54 c1 3d 5c da 0d 3d
       -0.04862328 0.13182646 0.09439961 0.03463207
000240 fd 15 8b be 32 44 28 be 38 76 6f be e6 99 15 3e
       -0.27165213 -0.16432264 -0.2338494 0.14609489
000250 b1 fd 0d be fe 93 12 be d5 5d 17 be f0 1e 08 3e
       -0.13866307 -0.14314267 -0.14781888 0.13293052
000260 e2 99 2c 3e 97 6d 57 bd 75 75 ea bd 1a 7e 71 3e
       0.16855577 -0.052594747 -0.114481844 0.2358326
000270 f5 50 7b be f7 9c 0e 3e f5 b3 ad bd 58 f5 56 3e
       -0.24542601 0.13927065 -0.0848159 0.20992029
000280 93 b1 1c 3e e7 44 7b be b5 ea 8a be f3 e2 34 bc
       0.15302114 -0.24538003 -0.27132192 -0.011040437
000290 d1 39 d5 3d 47 8c d9 bd 45 a0 f4 bc 4f 0d e0 3d
       0.10411418 -0.10622459 -0.029861579 0.109400384
0002a0 6e 22 36 be 87 f8 82 bd ac 3b 7c 3c 92 b0 a8 bd
       -0.17786571 -0.06395059 0.015395086 -0.08236803
0002b0 e9 c2 6e 3e fd 62 5f 3d 1a 09 9a 3d a0 3d 0b 3d
       0.2331654 0.054537762 0.07521267 0.033994317
0002c0 1e a9 ba 3d fd 2c 35 3e 1f bb ae 3a 87 45 f3 bc
       0.09114288 0.17692943 0.0013330913 -0.02969624
0002d0 ba fb 07 3e 8a 35 27 bc 8e ff 29 3d bc 78 1f 3e
       0.1327962 -0.010205636 0.04150348 0.155734
0002e0 a5 28 93 3c 16 fb 95 bc a1 f4 fb bd 31 43 23 bd
       0.017963717 -0.018308204 -0.12302519 -0.039859
0002f0 47 3d 0b 3e 35 3a 23 be 5c 7a 5c be fb 23 c1 bc
       0.13597594 -0.15940173 -0.21531051 -0.023576727
000300 2c 72 68 3d de 7f 8e 3e e0 1f 17 3d ed 1c 50 bd
       0.056749508 0.2783193 0.036895633 -0.050808836
000310 76 b4 ec 3d 9b 76 39 be af 10 1c 3e 02 70 07 3e
       0.11557858 -0.1811165 0.1524074 0.13226321
000320 44 d0 3b 3d 1b 80 be bb ab ad a1 bb ef 09 82 bd
       0.045852914 -0.005813611 -0.004934033 -0.06349551
000330 b1 de b8 3d be 82 e3 bc 01 87 8b 3e 86 e8 29 be
       0.0902685 -0.027772304 0.27251437 -0.16592607
000340 43 de 3e bc 96 9f 25 be 5a 50 fa 3d 26 9d 61 be
       -0.011649671 -0.16174158 0.12222357 -0.22032604
000350 2f c0 83 bd a3 2b b2 3d d8 30 dd 3d 29 c2 72 3e
       -0.064331405 0.08699729 0.10800332 0.23706879
000360 c0 bb 16 3e 55 bf a1 bb cd b9 d4 3c ca 9d 8f 3d
       0.14720058 -0.0049361386 0.025967503 0.07012518
000370 6f df 47 be 95 14 8f be 7b 34 d1 3d 1b 62 84 be
       -0.19518827 -0.2794539 0.10215088 -0.258561
000380 38 ee e0 3d bb f8 b2 3c c5 2d bb 3d 7b 21 1c 3e
       0.109829366 0.02184712 0.09139589 0.15247147
000390 59 74 86 bd 70 e2 fd 3d 7f 0f 54 3e 7a 47 2a be
       -0.0656516 0.12396705 0.20709036 -0.16628829
0003a0 f4 71 70 3d b6 36 0c 3e 46 26 4c 3d 09 7d 2a be
       0.058702424 0.13692746 0.049841188 -0.1664926
0003b0 ae 56 7a bd 63 00 fd 3d 53 83 cd 3c 07 20 f5 bc
       -0.06111782 0.123535894 0.025087034 -0.029922498
0003c0 bd 6d fa bc 00 0b 21 bc 89 f6 42 3e 55 ee f1 3d
       -0.030569905 -0.009829283 0.19039358 0.11813036
0003d0 6d 44 33 be 6d 88 db bc 90 d7 5b 3e e2 0f 47 3e
       -0.17506571 -0.026798451 0.2146895 0.19439653
0003e0 b9 dd d4 bc 38 83 17 3e 7b c0 89 3c 22 50 c6 bd
       -0.025984632 0.1479615 0.016815415 -0.09683253
0003f0 de 7e 92 bd a9 ae cf bd 8f 2b 4f 3d 8b ce be 3c
       -0.07153104 -0.10140736 0.05057865 0.023291847

nnECG.4.bias f4 [64]
000000 80 73 7e 3d 6d c6 4e 3d a6 1d 1d bd 4a 0d c8 3b
       0.062121868 0.050482202 -0.038358353 0.0061051
000010 c5 e1 01 3d 07 7c ea 3c 73 52 bb bb 14 b9 95 3b
       0.03170945 0.028623594 -0.005716616 0.004569182
000020 b9 43 b0 bc dd f7 2f 3b 2a ee 2f bd d8 5c 27 3c
       -0.021516668 0.002685062 -0.04295174 0.010215007
000030 fc 86 58 bb 7e 22 99 3d 0e 73 b5 3c 7f ce 34 bc
       -0.0033039441 0.07477282 0.022149589 -0.011035561
000040 87 c6 87 ba a6 0a 87 3c 84 8c 09 3c b0 ab 59 3d
       -0.0010358848 0.01648457 0.008395318 0.05314225
000050 d0 fa 76 bc 7d 20 ff 3a 83 3c f0 bb 2e 6d b9 3d
       -0.015074447 0.0019464638 -0.0073314323 0.090540275
000060 48 b1 da 3c 92 1e 8e 3c 6c 2c 98 bc cb 75 f9 bb
       0.026695862 0.017348561 -0.01857587 -0.007612919
000070 52 36 10 bd fe 2d cf 3c 9a 06 10 3c 85 fc e7 bc
       -0.035208054 0.025290485 0.008790636 -0.028318653
000080 62 84 18 bc d9 b5 11 bc 05 1e d9 bb 9a 85 21 bc
       -0.009308906 -0.0088934535 -0.006625893 -0.009858513
000090 c9 65 19 3d 90 b2 5a 3d bc 21 3a 3d 0f de 99 3c
       0.037450586 0.053392947 0.045442328 0.018782644
0000a0 c5 65 a9 3b 8f 4d 15 bd 61 43 70 3d 19 61 1d bc
       0.0051696026 -0.03645092 0.058658008 -0.009605669
0000b0 7d d2 bf ba 18 2e 9e bc ee bb 69 bc c3 17 a4 bc
       -0.0014634874 -0.019309089 -0.014265997 -0.020030862
0000c0 57 15 e9 3c 99 f9 5c 3c c5 0a 25 b9 ad 1c 1d 3c
       0.028452558 0.013487243 -0.00015739638 0.009589356
0000d0 db c5 cc bc 91 24 0f bc 63 9a 44 bb ba f6 96 bb
       -0.024996689 -0.008736745 -0.0029999248 -0.004607049
0000e0 5c be b1 bc 8c 54 a5 bc 72 96 82 bb 55 dc 0f 3c
       -0.021697216 -0.020181917 -0.0039852196 0.008780559
0000f0 af 58 f6 3b dd 0e c3 3c 2a 1d 54 3b 1e 75 35 bc
       0.007517896 0.023810798 0.0032366016 -0.011075286

nnECG.5.weight f4 [64]
000000 84 82 75 3f 1a 8e 95 3f f3 ed 88 3f 46 98 7f 3f
       0.95902276 1.1683991 1.0697616 0.99841726
000010 c5 be 9f 3f 2c 7a 8c 3f dc d2 86 3f e8 21 84 3f
       1.2480093 1.0974784 1.0533099 1.0322847
000020 11 ec 85 3f 9b c7 88 3f a7 75 88 3f 7a c8 88 3f
       1.0462667 1.0685915 1.0660905 1.068618
000030 93 e8 82 3f bc 17 96 3f f4 b6 93 3f d2 92 81 3f
       1.0227226 1.1725993 1.1540208 1.0122931
000040 9c 6f 8a 3f 85 9b 8b 3f aa 42 81 3f 18 03 76 3f
       1.081531 1.0906836 1.0098469 0.9609847
000050 66 9a 7a 3f 1a f1 93 3f c1 b8 81 3f 7d 70 8b 3f
       0.97891843 1.1557953 1.0134507 1.0893704
000060 11 27 92 3f 11 86 8f 3f 94 90 80 3f a4 fe 85 3f
       1.1418172 1.1212789 1.0044122 1.0468335
000070 d7 ca 8f 3f 4f 4b 91 3f 05 35 80 3f 69 f9 79 3f
       1.1233777 1.1351107 1.001618 0.97646195
000080 48 7d 89 3f 77 c6 85 3f 0b 06 7e 3f 97 9e 86 3f
       1.0741358 1.0451192 0.9922797 1.0517148
000090 b3 5c 86 3f ad f5 88 3f 3f fe 95 3f 3d dd 8f 3f
       1.049704 1.0699974 1.1718215 1.1239392
0000a0 64 36 81 3f 81 31 89 3f d6 1a 91 3f 1c 08 81 3f
       1.0094724 1.0718232 1.1336315 1.00806
0000b0 54 7c 84 3f 74 a2 8a 3f c0 b0 8b 3f 1c 3b 8c 3f
       1.0350442 1.0830827 1.0913315 1.0955539
0000c0 ad 5a 90 3f a6 33 77 3f 08 ac 8b 3f 5a ed 8a 3f
       1.1277672 0.96563184 1.0911875 1.0853684
0000d0 1b a8 7e 3f 3e ee 83 3f f2 86 8a 3f d1 76 86 3f
       0.9947526 1.0307081 1.0822432 1.050501
0000e0 21 1d 86 3f 31 b1 90 3f f5 70 8e 3f 10 80 81 3f
       1.047764 1.1304075 1.1128222 1.0117207
0000f0 f3 a7 85 3f c9 ea 91 3f d0 eb 89 3f 8c a3 87 3f
       1.0441879 1.1399776 1.0775089 1.0596786

nnECG.5.bias f4 [64]
000000 08 21 26 3d 8a 6e 21 3d bf f4 38 bd 2c bd 48 bb
       0.040558845 0.03941206 -0.045155283 -0.0030630333
000010 6e 25 c5 3c 09 87 da 3c ad 4e a8 bc ed aa b4 bb
       0.0240657 0.026675718 -0.020545328 -0.00551354
000020 f4 a2 09 bd 66 09 00 bb ab c5 63 bd 7e bf ad 3b
       -0.03360267 -0.0019536852 -0.055608433 0.0053023687
000030 12 05 a7 bc 77 d3 34 3d 34 b8 39 3c fb 7c 1a bd
       -0.02038816 0.04414698 0.011335421 -0.037716847
000040 6c ef 09 bc 92 c4 cd 3c 9d e1 d2 3b 8a e4 34 3d
       -0.008418899 0.025118146 0.0064355866 0.044163264
000050 86 a6 c5 bc 6f c1 9c bc fa f8 4c bc 54 c9 a7 3d
       -0.024127256 -0.019135205 -0.0125105325 0.08192697
000060 f7 ab 5f 3c c8 4e 46 3c ba 9b b1 bc d4 5e a2 bc
       0.013651839 0.012103744 -0.021680702 -0.019820608
000070 f1 98 f9 bc 18 81 cc 3a c9 a2 8b 3b 35 d5 2c bd
       -0.030468436 0.0015602438 0.004261349 -0.042195518
000080 24 82 73 bc 02 60 fb bb e8 8f af bc ea 83 0d bd
       -0.014862571 -0.007671357 -0.021430925 -0.03454963
000090 68 37 e2 3c d6 14 fc 3c 10 57 cc 3c cd 41 43 3c
       0.02761431 0.030771654 0.024943858 0.011917544
0000a0 25 c6 77 bb e4 bf 50 bd 79 6d 49 3d ef 40 b0 bc
       -0.0037807312 -0.05096425 0.049176667 -0.021515338
0000b0 18 b8 08 bc 40 88 93 bc 9b 40 6a bc a7 36 c0 bc
       -0.008344673 -0.018009305 -0.01429763 -0.02346356
0000c0 4c ae ce 3b c1 e0 d7 3a 42 fb b0 bc 42 64 a6 ba
       0.006307399 0.001647018 -0.021604184 -0.0012694674
0000d0 ed 89 3a bd 92 98 82 bc 0f f2 9d bc 4f 14 6b bc
       -0.045541693 -0.015941892 -0.019280462 -0.014348104
0000e0 58 d7 14 bd 48 21 18 bd 23 aa 9c bc de 45 31 39
       -0.03633818 -0.037141114 -0.019124096 0.00016906063
0000f0 96 21 5d 3c 9e b7 e3 3b 50 71 49 bc 00 95 5a bc
       0.013496777 0.006949379 -0.012295082 -0.013341188

nnECG.5.running_mean f4 [64]
000000 0c d0 07 3f 6e ec 06 3e ab 89 b9 bd da 14 39 be
       0.5305183 0.13176128 -0.09059461 -0.1807436
000010 24 9f 3c 3f f5 14 45 bd 68 34 01 3e be 09 1f 3e
       0.7368033 -0.04811569 0.12617648 0.1553106
000020 e8 a6 71 bd 23 21 08 bd 9a 16 dc 3e 70 26 0d 3d
       -0.058997065 -0.033234727 0.42985994 0.034460485
000030 71 7e 1b 3e e5 fd ee 3e d5 57 23 3e af 2b da be
       0.15184952 0.4667808 0.15951474 -0.42611453
000040 88 0a e4 3d bc 40 4d 3c 29 28 17 bf a9 85 2f 3f
       0.11134821 0.012527641 -0.59045655 0.68563324
000050 72 34 91 be 24 d9 78 3e d5 19 c7 bd e2 70 48 3f
       -0.28360325 0.24301583 -0.09721724 0.78297246
000060 76 f6 31 3e ca 35 73 3e 72 d5 b1 be ab 65 ca bd
       0.17379174 0.23750988 -0.34733158 -0.09882673
000070 e4 c6 1f bd c6 ff d6 3e c2 24 0b 3e d0 0e 8c bd
       -0.039008036 0.41992015 0.1358824 -0.06838763
000080 35 ad 1a 3e e0 53 ac 3d 25 56 d8 be 3c 55 db 3e
       0.15105136 0.084144354 -0.42253223 0.42838466
000090 2b d9 40 3e e7 19 08 3f 96 6d c7 3e 50 b9 a3 3e
       0.18832843 0.53164524 0.38950795 0.3197732
0000a0 90 77 d4 be 9b 68 86 be 15 87 53 3f a7 8d 5a bf
       -0.4149747 -0.26251683 0.82627994 -0.85372394
0000b0 4e 18 44 3e fb a9 8e be 72 7b 18 be 94 f1 cb bb
       0.19149897 -0.2786406 -0.1489084 -0.0062238667
0000c0 2f 77 ad 3e 69 b8 63 be 29 72 8e 3e b3 1f 49 bd
       0.33879992 -0.22238316 0.27821472 -0.049102496
0000d0 b1 61 7e be 7e e4 ad be eb 76 f0 3d a2 7e 53 3e
       -0.24841954 -0.33963388 0.11741432 0.20653775
0000e0 cd 86 1b 3e d1 3c cd 3e f8 71 e3 bd 68 14 a0 bd
       0.15188141 0.40085462 -0.11105722 -0.07816392
0000f0 15 3d e8 be 27 bb 2d 3e f4 46 f0 be 41 70 9c be
       -0.45359102 0.16965924 -0.46929133 -0.30554393

nnECG.5.running_var f4 [64]
000000 f8 d1 c9 3f a3 44 b5 3f dd 7b 76 3f 80 10 70 3f
       1.5767202 1.4161571 0.9628275 0.93775177
000010 ca 74 8b 3f 8e 5d 79 3f c2 00 72 3f df 51 5e 3f
       1.0895016 0.9740838 0.94532406 0.86843675
000020 42 38 a3 3f 58 39 66 3f 87 69 73 3f 5d cb 9e 3f
       1.2751544 0.8993125 0.95082897 1.2405812
000030 37 fc 97 3f e6 f3 82 3f db be aa 3f d3 6f bd 3f
       1.1873845 1.0230682 1.3339494 1.4799751
000040 ef 67 70 3f 20 0c a4 3f 98 aa a3 3f e8 eb 87 3f
       0.9390859 1.28162 1.2786436 1.0618868
000050 4c 3f 7b 3f 49 e1 9b 3f 79 20 fb 3f 62 15 a9 3f
       0.9814346 1.2178127 1.9619285 1.320965
000060 2f dc b7 3f 5e d4 e8 3f 95 46 99 3f 27 5d b7 3f
       1.436407 1.8189809 1.1974665 1.4325303
000070 0f da 60 3f 9e 96 c3 3f d5 05 7b 3f 11 03 ba 3f
       0.8783273 1.528034 0.98055774 1.4532186
000080 c6 be 96 3f 60 c8 2c 40 03 e3 aa 3f c7 3c fa 3f
       1.177697 2.69973 1.3350528 1.9549798
000090 b6 2a 78 3f 28 d9 c8 3f f2 e2 b8 3f 2f 46 76 3f
       0.9694017 1.5691271 1.4444258 0.9620084
0000a0 74 11 8e 3f 4a 50 91 3f 9a ce b5 3f ac df c0 3f
       1.1099076 1.1352627 1.4203675 1.5068259
0000b0 ae 1b 48 3f f3 26 61 3f cc 64 a7 3f 06 6e 82 3f
       0.78167236 0.87950057 1.3077636 1.0189826
0000c0 ab d3 90 3f f4 10 07 40 6d ca 8b 3f 9f b3 5a 3f
       1.1314596 2.1104097 1.092115 0.8543033
0000d0 38 65 6d 3f 1c 36 76 3f af 7b 3f 40 c8 c5 b4 3f
       0.9273257 0.96176314 2.991924 1.4122858
0000e0 43 92 ea 3f e9 2d 93 3f 32 68 21 40 8d 14 e9 3f
       1.8325886 1.1498386 2.5219846 1.8209397
0000f0 ab 95 ab 3f 96 d9 60 3f f2 a2 c2 3f f0 7c ae 3f
       1.340505 0.8783201 1.5205977 1.3631878

nnECG.8.weight f4 [16, 64]
000000 5d 12 d3 bc 7e c6 25 bc bc 4f 37 3d 2e e8 c5 3d
       -0.025765592 -0.010118125 0.044753775 0.096634254
000010 ea d8 30 be a9 10 e4 bd cd cb 6b be 68 fb a8 3d
       -0.17270246 -0.1113599 -0.23026963 0.08251077
000020 fc f5 49 bd 8f 8e 07 be 5a 92 8d be 01 49 70 be
       -0.049306855 -0.13237976 -0.2765072 -0.23465349
000030 94 8c 82 3e c8 ae 82 be 83 bb 62 be e3 9b 67 3e
       0.25497878 -0.25523973 -0.22141843 0.2261806
000040 2e 89 8e 3e d8 0d 80 3e ee 3d 7b be f5 90 94 bd
       0.27839035 0.25010562 -0.24535343 -0.07254211
000050 ea ed 77 be 89 24 b5 bd 48 5f 83 bd 24 c9 25 bd
       -0.24211851 -0.08844859 -0.06414658 -0.040475026
000060 d1 54 b0 bd 21 e4 2d 3e 12 aa f6 3a 89 c2 9b 3e
       -0.086099274 0.16981556 0.0018818995 0.30421856
000070 0f 37 45 bc 6c 7d 8d be 0e 98 29 3d 58 5e 29 bd
       -0.012037053 -0.27634752 0.041404776 -0.04134974
000080 bc e0 39 bd a5 2d 2e 3e 9e 6d 9e 3c 1c 92 7e 3e
       -0.04538034 0.170096 0.019339379 0.24860424
000090 52 37 e8 3d b2 d5 9c 3e a3 f4 a9 be d0 cc 81 be
       0.113386765 0.30631787 -0.33194456 -0.25351572
0000a0 b6 57 64 3e 40 44 18 be a8 cb 61 3d a0 cc 6e be
       0.22299084 -0.14869785 0.055125862 -0.23320246
0000b0 0d 07 66 be 82 b2 15 3e b1 a4 11 3e ec e0 2d be
       -0.22463627 0.14618877 0.14222981 -0.16980332
0000c0 a2 92 78 3e 7a fd 71 be ea 46 9d be 5a 62 47 3e
       0.24274686 -0.2363185 -0.30718166 0.19471112
0000d0 4e 83 c2 3c 4c fa a4 3e 7b d7 8e 3e 50 29 00 bd
       0.023744252 0.3222221 0.27898774 -0.0312894
0000e0 e3 2a 26 be 98 c6 b8 be f1 1e 0d be aa 8c 78 3e
       -0.16227297 -0.36089015 -0.13781334 0.24272409
0000f0 aa 58 83 3e 9c f8 3a be f2 d2 1f 3c aa e7 ce bc
       0.25653583 -0.182589 0.009754883 -0.02525695
000100 c3 67 83 be 38 aa be 3e 4a b9 51 3e 89 84 8c 3d
       -0.256651 0.37239242 0.20480838 0.068612166
000110 0e de 99 be e7 be c6 bb 9e f4 82 3d 72 58 b9 3d
       -0.30052227 -0.006065238 0.06394313 0.09050073
000120 e1 be 19 bb a8 e2 07 be ab c3 8b be f8 e0 ae 3e
       -0.002345972 -0.13270056 -0.2729772 0.34156013
000130 a5 bf 31 3e 1e fb 11 3e 22 a4 9e 3e dc c9 7e 3e
       0.17358263 0.1425595 0.30984598 0.2488169
000140 c1 de 27 3e 78 20 19 bd 31 ab 02 be 3c 47 0d bd
       0.16393568 -0.03738448 -0.12760617 -0.034491763
000150 09 70 d6 bd 96 8f 97 bc 45 05 20 be f7 10 af 3e
       -0.10470588 -0.018501084 -0.1562701 0.3419263
000160 d1 e1 c7 3e 0c b2 40 3d 25 9b 1f be 89 4c 32 bd
       0.39039472 0.0470448 -0.15586527 -0.04353002
000170 90 1f 7c 3e 4c ac 9e 3e 92 e9 d0 bd c8 ac 4b bd
       0.24621415 0.30990827 -0.102008 -0.049725324
000180 51 84 49 be 78 e2 61 be 73 e5 17 be d7 fc 03 3e
       -0.19679381 -0.22059047 -0.14833622 0.1288942
000190 b8 52 a4 3d 85 ee 9b 3d c0 4c 01 3e 93 7a 94 3e
       0.0802359 0.07613853 0.12626934 0.28999767
0001a0 97 90 81 be 85 b8 53 be 4b 9d 77 3e 4a 86 50 3e
       -0.25305626 -0.20675857 0.24181096 0.20363727
0001b0 a4 2b 6e bd e5 e5 38 be 2c ce 54 bc f2 4d 09 3a
       -0.058147088 -0.18056448 -0.012988608 0.000523775
0001c0 d8 65 16 3e 3a 7c 4f be 25 6e 4d 3e 17 97 a8 3e
       0.14687288 -0.20262232 0.20061548 0.32927772
0001d0 21 6c 91 3e 3b 6b cd 3d d3 a4 5a 3e 3a b2 34 3e
       0.28402808 0.10030218 0.21351938 0.17646113
0001e0 f1 c8 82 be 60 30 2e be bd bf 8b bd 54 89 78 3e
       -0.2554393 -0.17010641 -0.068236805 0.24271137
0001f0 0c 96 93 be 00 39 44 3d 6b 78 58 3e 67 09 45 3e
       -0.28825414 0.047905922 0.21139686 0.19241868
000200 e9 87 b6 3d 81 0f 6a bd 5b 93 12 3e 53 f0 a7 3d
       0.089126416 -0.057143692 0.14314024 0.08200135
000210 d1 1d 5e bd 06 cf 22 be 05 25 10 3d a0 a7 14 3e
       -0.054227654 -0.15899286 0.035191555 0.14517069
000220 fe bf 84 3c 6f ae 8b be 38 fe 42 be b2 c8 79 be
       0.01620483 -0.2728152 -0.1904229 -0.24392965
000230 29 44 c8 3d 4b 45 25 be 92 75 8e be f6 c4 8d be
       0.097786255 -0.16139714 -0.27824074 -0.27689332
000240 96 c0 6b 3d 58 00 f0 bd df 19 e1 3d a2 06 8e be
       0.05755671 -0.117188156 0.10991263 -0.27739435
000250 59 95 3f bd cc 3b 03 3e dd b7 24 be 56 41 02 be
       -0.04677329 0.1281578 -0.16085763 -0.12720236
000260 d3 b7 96 bd ed fd de bc 17 1e a0 3c d8 a9 0f 3d
       -0.073592804 -0.02722069 0.019545598 0.035074085
000270 d5 35 29 3e c6 30 52 be 30 8d 19 3d 77 00 1f bb
       0.16524442 -0.20526418 0.037488163 -0.0024261752
000280 5f 62 f6 bd 29 9b ba 3d 41 f0 a4 be c7 b6 80 be
       -0.120304815 0.09111626 -0.3221455 -0.25139448
000290 94 cd 44 3e 21 ce 87 be 74 92 27 bd 48 de de bd
       0.19219047 -0.2652445 -0.040911153 -0.108822405
0002a0 08 c8 81 bd 86 4c 76 3e de 86 22 3c cb de 80 bd
       -0.06336981 0.24052629 0.00991985 -0.062924944
0002b0 39 4b d7 3d 55 cd 10 3e f6 4e 18 be c5 07 50 be
       0.105123945 0.14140828 -0.14873871 -0.20315464
0002c0 80 f7 1a 3e d1 38 3f bb 54 b1 dc 3c 28 9a 44 be
       0.15133476 -0.0029178152 0.026940025 -0.19199431
0002d0 b0 f3 7d 3e 26 af 0c bd ef d4 2a be 5f e9 60 be
       0.2479999 -0.034346722 -0.1668279 -0.21964024
0002e0 a4 8a 97 bd 3a 73 98 3d 95 a2 8c be d2 8d 8b bd
       -0.073994905 0.07443853 -0.2746779 -0.068141595
0002f0 1e 5a 7d bc c3 04 1d bd dd a8 97 be de 98 67 be
       -0.01546338 -0.03833462 -0.2962102 -0.22616908
000300 fd 18 3d be 60 5f 7e bc 37 fc 65 be 62 d9 48 be
       -0.18466564 -0.015525669 -0.22459494 -0.19614175
000310 63 6d 4a 3e 2d ff 9e be fb fd 5b 3e af 5d 33 3e
       0.1976829 -0.3105406 0.21483605 0.17516206
000320 7c fa 55 be 42 45 9c bd 29 dc ad 3c 9a 60 16 3e
       -0.20896333 -0.076303974 0.021223145 0.14685288
000330 36 da 28 3e b3 56 e8 3d 26 1b f4 bd 8a 4f 57 3d
       0.16489491 0.113446616 -0.11919241 0.05256609
000340 c7 51 76 be 24 c3 26 3e 2d d0 15 bd 83 d8 37 be
       -0.24054633 0.16285378 -0.036575485 -0.17953686
000350 4c 46 08 3e 1e a0 7b 3e e2 c9 a5 3d e9 05 35 3e
       0.13308066 0.24572799 0.08095147 0.17678036
000360 2e 67 a2 be 07 bd 03 3e be 68 46 be 2a f5 8d 3e
       -0.31719345 0.12865077 -0.19375893 0.27726108
000370 59 77 95 3e aa cd 69 be a7 76 51 3e 38 e6 2b bc
       0.29192618 -0.22832361 0.20455419 -0.0104919
000380 6b 11 3e be d9 e3 ea 3d b5 f6 ac be a3 bd 84 bd
       -0.18561332 0.1146924 -0.33781973 -0.06481483
000390 31 37 0c 3e 53 3c 84 3e d4 8a 6b be f2 0e 2d bc
       0.13692929 0.25827274 -0.23002177 -0.010562645
0003a0 ff 44 39 3e 4c ab ee bd ff 38 3c be 27 c2 10 be
       0.18092726 -0.11653766 -0.18381117 -0.14136563
0003b0 f9 75 d5 3d ec 8e 4c be a0 14 73 3e 48 0b 81 3b
       0.10422892 -0.19976395 0.23738337 0.0039381124
0003c0 25 3c b6 3e 27 82 69 be 95 2f 0b 3e b4 c1 5e 3e
       0.35592762 -0.22803555 0.1359237 0.2175358
0003d0 aa b6 06 3e 5b 45 60 be 53 de 93 bd 3c 45 44 bd
       0.13155618 -0.21901457 -0.07220139 -0.04791759
0003e0 b8 ec 31 3e 67 07 76 be c1 8c 97 3d 96 9a 8f 3d
       0.17375457 -0.24026261 0.073998936 0.07011907
0003f0 54 7b 06 be 98 bf c5 be 2f 5a 05 bd 76 55 02 be
       -0.13132983 -0.38622737 -0.03255671 -0.12727913

nnECG.8.bias f4 [16]
000000 95 a0 ec 3c b5 89 d1 3c d4 59 3b 3b ec f3 c2 3b
       0.028885165 0.02557836 0.0028587477 0.005949488
000010 69 e1 be 3c ce bc bd ba c8 ab b5 3d 1d e3 06 bc
       0.023300843 -0.0014475824 0.08870655 -0.008232859
000020 3a 08 e3 bc 16 ef 3a 3b d7 a7 45 3a 25 b1 af b9
       -0.027713884 0.0028523854 0.00075399637 -0.00033510584
000030 54 6b 98 bc b7 8b e3 3c 5a 29 f7 3b 7e 7f c3 3c
       -0.018605866 0.027776582 0.0075427713 0.023864504

nnECG.9.weight f4 [16]
000000 b8 c7 83 3f 7a c0 90 3f 90 d8 84 3f 14 76 88 3f
       1.0295324 1.1308739 1.037859 1.0661035
000010 b6 9f 82 3f 63 de 89 3f 87 18 7b 3f e4 79 8e 3f
       1.020499 1.0770992 0.980843 1.1130948
000020 93 cc 83 3f 36 ff 90 3f ba 8c 7e 3f 74 e4 85 3f
       1.0296806 1.1327884 0.9943348 1.0460343
000030 ed af 8b 3f 41 8d 93 3f 1f 4c 88 3f 43 2a 86 3f
       1.0913063 1.1527482 1.064823 1.0481647

nnECG.9.bias f4 [16]
000000 c2 27 a1 3b 44 4f c9 3c 2a a4 bd ba 0b 3c 73 bc
       0.0049180696 0.02457393 -0.001446848 -0.014845858
000010 c1 04 7f 3b 3e a2 ca 3b 76 53 d5 3d bf ac 30 bc
       0.0038912746 0.0061838916 0.104163095 -0.010783373
000020 60 12 18 bd 64 dd 41 bc 4f 63 03 bd 92 00 ef 3b
       -0.0371269 -0.011832569 -0.03207713 0.007293769
000030 d4 25 6b bc 0e 7e 53 3c 91 17 e6 bc 7e da d7 bb
       -0.014352281 0.012908472 -0.02808741 -0.0065873256

nnECG.9.running_mean f4 [16]
000000 20 00 f8 bd 46 14 bc bc 8f 4a 2a bf e5 59 38 3e
       -0.12109399 -0.022958886 -0.6652002 0.18003042
000010 38 60 9e 3e e9 06 27 3e 1a aa 67 3f b0 a0 ff 3c
       0.30932784 0.1631123 0.9049393 0.031204551
000020 93 77 0a be c7 a6 b6 bc 82 83 b0 3e 7f 57 b5 be
       -0.13522176 -0.022296323 0.34475332 -0.35418317
000030 e5 47 a8 be 72 9b 1b 3f 6d 00 04 3f ee 9d 06 be
       -0.3286735 0.60784066 0.5156315 -0.13146183

nnECG.9.running_var f4 [16]
000000 3b 5b c4 3f b9 88 b0 3f b0 0b c5 3f 52 fe bf 3f
       1.5340341 1.3791724 1.5394192 1.4999487
000010 1d be ca 3f 6e be 91 3f 2f 21 f6 3f b3 8c ab 3f
       1.5839268 1.138624 1.9228877 1.3402313
000020 48 6c f9 3f c9 70 cc 3f e8 dd dc 3f 17 aa 0f 40
       1.948617 1.5971919 1.725522 2.2447565
000030 82 dc cb 3f 53 1b ca 3f c9 c9 c4 3f 42 80 e2 3f
       1.5926669 1.5789589 1.537408 1.7695391
