Models/net_2_1_epoch_41.pth (torch, 57997 bytes, 25 tensors)

nnECG.0.weight f4 [128, 12]
00000000: 8c1b 043e 33b4 813d afce e7bd 05cf 103e
00000010: 5384 5abd 56bf fd3c a73a 66be 9583 c1bc
00000020: e911 19be 6c80 ac3c 6243 843b 8508 033d
00000030: ce15 80bd a500 e03c 9716 463e ef3d 2e3e
00000040: 1ec9 e93c 837f f5bd be4f 31be 705d 5b3d
00000050: 7b32 34bc 560c 5a3e b1a1 103e 4216 23be
00000060: e03f babd eae1 06be 62fa 1cbd be93 b53c
00000070: 46f0 54bb 4f40 08be ea1f 113e ddfa 0c3e
00000080: a21b 3cbd d745 54be 52d3 2fbe 1f9d 26be
00000090: 0e4e 5e3e 0c38 373e da0d 223c f604 aebd
000000a0: c5e3 5f3d 8f05 40be 1747 03bd 452c 243e
000000b0: 48d8 d8bd d384 2b3e 41ac 95bc 9e13 1a3e
000000c0: f533 1d3e bd4f 58be f363 cc3d 994f 463d
000000d0: 1a2b 00be ce6f 263e a8fc 71be 2032 d3bd
000000e0: 17e2 f93d df4e d33d fff4 d13d a5e7 3bbe
000000f0: 9e14 0a3e 1ae5 05be f160 113e cfd6 cebd
00000100: 1283 603d 2c3a 7dbd 6584 953d 4bdb 443a
00000110: 8488 903d c5ec 4d3e e252 c63d a751 6bbe
00000120: d337 343d 8f18 fabd 4a69 2cbb e015 923c
00000130: ed9e 25be c8d5 1b3e 38d7 253e ae00 32be
00000140: dde7 eebb 8d21 c63d 1dc9 f6bd 357a 483e
00000150: 7c1c 3c3e 1b51 623e 7407 e23d a991 423e
00000160: 5006 a33d 0284 0e3e d7a9 57be 34b2 56bd
00000170: 3a64 45be c6c1 763d f862 e0bd c5fb d63d
00000180: 6469 07bc 854c 58bd d866 463d 1a94 13be
00000190: 7443 2f3d 0a8c 763a 18d9 b6bd f4ea 84bd
000001a0: 24c4 8b3d ac74 17be fd26 073e 29b6 943c
000001b0: 488a 823d d5bf 5cbd 0200 ae3d 1e3b e83d
000001c0: 7fdd 0abe b757 7abd 9746 1ebd b061 333c
000001d0: 4e52 193e ce4b 0d3d 0c9a 053e db56 763d
000001e0: 5ecf 2dbd 4db0 213d 6035 5cbe c37e 78bc
000001f0: 07c7 58be 6703 57be 0371 103d f214 5bbd
00000200: 9c16 bc3c 4f47 71bd 4fb6 233e 02dc b53d
00000210: 90dc 403e 5f87 34be d483 d1bc 750e 17be
00000220: f3f8 35be 0390 283e 7919 e33d 3cc5 34be
00000230: 2115 40bd 3ca4 553e 1efd 5dbc 7db9 3b3e
00000240: 5689 303e e898 183e 5075 d2bd 2532 f8bd
00000250: 57c5 633e 8e47 9a3c 247a d2bb 932b 10be
00000260: 3977 40bd dbaf 043e 7571 1f3e dec1 b8bd
00000270: fe72 25bc b969 b6bb 8ea2 ea3d 546d 2abd
00000280: 4cc9 ecbd 6ada 2d3d 4326 d4bd 60e4 e43d
00000290: 0121 c3bd 6715 6f3e f3e5 2dbd e47d 5a3d
000002a0: 35b1 e2bd 49df f53d 3d7c 6ebd 3757 ecbc
000002b0: 6726 213e a34e 48be 8fd7 9abc 4151 b1bd
000002c0: 69b2 613e 6978 45bd 8363 9c3d 4da7 9ebd
000002d0: c651 fe3d a230 083b 6b67 dd3c 5329 a93d
000002e0: 2bd6 693d f0e1 5bbc 9dc1 c43d cfbf 07bd
000002f0: 7809 283d 35bc 7dbd 2ca3 20be 4701 c23c
00000300: 9dcb ec3d e38b a53d 40df 1f3e 3879 75bd
00000310: 47f0 d4bc 7b95 0dbe 3d5a 8a3d 67c9 063d
00000320: 8cd7 043e 32df 50bd 61db 74be f929 4abd
00000330: bbe0 fdbc b416 893d 4f4e a13d 5154 6dbd
00000340: a3ec f6bc 4496 503e 63c6 31be 56a4 0d3c
00000350: 077b b83d f682 5d3d d33a 223e 0b86 66be
00000360: b709 6d3d 10a1 8e3c 28b7 9cbd edea 4fbe
00000370: 6020 193e 915a 8e3d bcd6 1f3e 120b 2e3e
00000380: 3a53 15be 3acb 31bd d506 9b3d 47eb 1f3c
00000390: f6a5 8a3d b4ac 963c ec53 70be 388a 5bbd
000003a0: fb9a 20be 238c 30be f395 923c 0541 f2bc
000003b0: 11db bebd 2bd6 56be 53b1 42be 0334 2dbd
000003c0: 3cf4 df3d 2f6c 7abc 0707 f23d 0462 8ebd
000003d0: e36d 823e ca66 7cbd 1f8e 57be f717 9f3c
000003e0: 20df 14be 24b8 9b3d 2b3f 103e a15a 593e
000003f0: 0ed9 98bd 327a 15be f318 3cbe 296e 953d
0.12901133 0.063331984 -0.11318719 0.14141472 -0.05334885 0.030975025 -0.22483312 -0.023622314
-0.14948238 0.02105733 0.004036353 0.031990547 -0.06254159 0.027344057 0.19344555 0.17015813
0.028538283 -0.119872116 -0.17315575 0.053555906 -0.010998364 0.21293768 0.1412418 -0.1592646
-0.090942144 -0.13172117 -0.03832472 0.022165176 -0.0032491847 -0.13305782 0.1417233 0.13767572
-0.04592479 -0.20729767 -0.17170456 -0.16270874 0.21709463 0.17892474 0.009890998 -0.0849704
0.054660577 -0.1875212 -0.03205022 0.16032512 -0.105881274 0.16749887 -0.018270614 0.15046546
0.15351851 -0.21124168 0.09980001 0.048415754 -0.12516442 0.16253588 -0.23631537 -0.10312295
0.12201326 0.10317778 0.102518074 -0.18350084 0.13484427 -0.13075677 0.14197136 -0.10099565
0.0548125 -0.061823055 0.07300643 0.0007509484 0.07057288 0.20109852 0.096837774 -0.22980367
0.04399855 -0.122117154 -0.0026307874 0.017832696 -0.16173907 0.1521827 0.1619538 -0.17383072
-0.007290824 0.09674368 -0.12050078 0.19577868 0.18370241 0.22101252 0.11036578 0.19000877
0.079601884 0.13917544 -0.21060883 -0.05241604 -0.19276515 0.06024339 -0.10956377 0.1049724
-0.008264873 -0.05280735 0.048437923 -0.14411965 0.042788938 0.0009405023 -0.08928126 -0.06490126
0.0682452 -0.147906 0.13198467 0.018153267 0.06374031 -0.053893883 0.08496095 0.11339401
-0.13561057 -0.061118808 -0.03864154 0.0109485835 0.14972803 0.03449612 0.13047045 0.060141426
-0.04243409 0.039474774 -0.21504736 -0.015166941 -0.21169673 -0.20997392 0.035264026 -0.053486772
0.02296 -0.058905896 0.15987514 0.08879854 0.18834138 -0.17629765 -0.025575556 -0.14751609
-0.17770748 0.16461186 0.11088843 -0.17653364 -0.04689515 0.20863432 -0.013549117 0.18332477
0.1723989 0.14902079 -0.10276282 -0.12118939 0.22243248 0.018832948 -0.0064232517 -0.14079122
-0.0469887 0.12957709 0.15570624 -0.09021352 -0.010098217 -0.0055668023 0.11456786 -0.04160817
-0.11561832 0.042444624 -0.1035886 0.111763716 -0.09527779 0.23348008 -0.042455625 0.053342715
-0.11068956 0.12005479 -0.05822395 -0.028850181 0.15737306 -0.19561248 -0.018901614 -0.08658076
0.22040714 -0.048210535 0.07636168 -0.07746754 0.12417941 0.002078094 0.027026853 0.08259835
0.057089012 -0.013420567 0.09607241 -0.033141907 0.041024655 -0.061947066 -0.15687245 0.02368225
0.11562274 0.08083322 0.15612507 -0.059930056 -0.02599348 -0.13826554 0.06755493 0.032906916
0.1297285 -0.050994106 -0.23911811 -0.049356434 -0.030990949 0.066937834 0.07876264 -0.05794174
-0.030142134 0.20369822 -0.17360835 0.008645138 0.090078406 0.054079972 0.15842752 -0.22512071
0.057870593 0.017410785 -0.07652122 -0.20304461 0.14953756 0.06950868 0.15609258 0.1699641
-0.1458253 -0.043406703 0.075696625 0.009760684 0.06769936 0.018392898 -0.23469514 -0.053598613
-0.1568412 -0.17240958 0.017893767 -0.02957202 -0.09319127 -0.20980136 -0.19012956 -0.04228593
0.10935256 -0.015284582 0.118177466 -0.06952289 0.25474462 -0.061621465 -0.21050309 0.019420607
-0.1453824 0.076034814 0.14086597 0.21225978 -0.07463275 -0.14597395 -0.18368892 0.07296402

nnECG.0.bias f4 [128]
00000000: 2618 f63b 3403 8d3c 688e df3c 896a 0f3b
00000010: 5823 eb3b fcd9 a1bb 4968 d8b9 5ab8 48bb
00000020: ff4e 553c e13d 82ba fde6 8f3c 3773 c93b
00000030: 3532 abbb 01fb 713c 6d65 913c 7ed4 8c3c
00000040: 5f76 e43b 7dc7 513a 0b08 a1bb 8e3d 743c
00000050: 9467 bf3b bbb3 ec3b fcfb 9c3c f996 aa3c
00000060: 6cbc a33c 2104 a73b a376 dd3b 54d5 1b3c
00000070: 16fd 34bb 5b60 88bb 6c33 54b9 afa5 693c
00000080: 9d1c bd3c 67a3 87bb fe36 363c 1af9 793c
00000090: 9266 153b 4fda 303c 0177 d73c 9734 723a
000000a0: e2ae 743c d5fc 5cba fca1 3f3c b004 b83b
000000b0: e557 0f3c ed59 0f3b 8d20 213c 6c90 ff3b
000000c0: d704 a23c 9fc0 d3bb eab0 28bc 5349 e93c
000000d0: 801d b73c cd87 a13c f94b 8a3c 184e 2c3c
000000e0: 27b4 2d3c 56ca 90bc e320 913c 81ca b03c
000000f0: d057 633c 66e3 d73b 8841 8b3c db46 3b3c
00000100: b713 0abc 5a25 ec3b 707f b03c 82da b63b
00000110: 093e ad3a bd91 1e3b a470 c73b d753 7b3c
00000120: 345c 0dbc d133 493a 3068 6c3c 2910 a33c
00000130: f32c b53b 80e6 e0bb 29de 343c a337 ba38
00000140: 97b5 8b3c ab35 043d 54ed d23c 5547 ebbb
00000150: 68f7 4e3c 6703 f53b d7c9 1fbb 50f4 6e3c
00000160: be4d 4dbb 9033 9a3c 6f96 5d3c f921 1d3b
00000170: 7bc3 2d3c 73ea 34ba 31d5 2d3c c2d8 ec3c
00000180: 36bf 073c 0ae5 cb3c 30c8 373c a9d5 b93c
00000190: b2f6 bc3c 2a23 013c ca45 843c f1b0 6b3b
000001a0: ed6c ae3a 88fb a63b 7415 063d c3e3 ef3c
000001b0: 3613 593c aa72 ad3c c2f1 983c 71bb 13bc
000001c0: 46da 723b 6574 03bb 2530 fe3b 177e a43c
000001d0: 389b d53c 547d 8d3b 6619 863c 1811 163c
000001e0: aec9 49bb 9b32 373c 1088 8e3c 8a1a 03ba
000001f0: c5ad eeba 271b 373c 521a 953c 58b8 9b3a
0.007510203 0.017213441 0.027289584 0.0021883568 0.007175844 -0.004939316 -0.0004127643 -0.003062746
0.013019322 -0.0009936654 0.017566198 0.006147768 -0.005224491 0.014769317 0.017748559 0.017191168
0.0069721187 0.00080024434 -0.004914289 0.014907254 0.005841205 0.007223574 0.019163124 0.020823942
0.019987307 0.0050969278 0.0067585274 0.009511311 -0.0027616671 -0.004161877 -0.00020237052 0.014260693
0.023084933 -0.004139352 0.01112151 0.015257144 0.0022796732 0.010794236 0.026301863 0.0009239404
0.014934273 -0.0008430009 0.011696335 0.005615793 0.008748983 0.0021873668 0.009834421 0.007799199
0.019777698 -0.006462171 -0.010296086 0.028477347 0.022352934 0.019718075 0.01688193 0.010516666
0.010602034 -0.017674606 0.017715877 0.021580936 0.013875917 0.0065883873 0.016999021 0.0114304675
-0.008427552 0.007206601 0.021545142 0.0055802474 0.001321734 0.0024195754 0.006086426 0.015339813
-0.00862794 0.0007675263 0.014429137 0.019905167 0.00552904 -0.0068634152 0.011039295 8.879534e-05
0.017054362 0.032277744 0.025747932 -0.0071801343 0.012632228 0.007477212 -0.002438178 0.014584616
-0.0031326856 0.018823415 0.013524636 0.0023976548 0.010605688 -0.0006901391 0.010609911 0.028911952
0.008285334 0.024889488 0.011217162 0.022684889 0.023066852 0.007881919 0.01614656 0.003596362
0.0013307609 0.005095903 0.032735303 0.02928341 0.013249209 0.02117284 0.018669967 -0.0090168575
0.003705637 -0.002005839 0.007757204 0.020079656 0.02607499 0.004317919 0.016369533 0.009159349
-0.0030790376 0.011181499 0.017398864 -0.0005001208 -0.0018209746 0.011175907 0.018201027 0.00118805

nnECG.1.weight f4 [128]
00000000: 1563 873f c680 883f b8c7 823f 12e5 823f
00000010: 1c12 823f 06a6 773f 9b20 813f 4a33 873f
00000020: 21a2 703f 147a 743f d3e8 833f d03e 863f
00000030: 5c1e 833f 5830 7d3f 8046 813f 7b85 873f
00000040: 5b2d 833f 2dd8 723f f8b0 7a3f dc84 8e3f
00000050: 5fdb 8e3f 8090 743f 63fa 863f 140f 833f
00000060: 278b 893f 7b6d 753f 4e59 8f3f e835 893f
00000070: 91fe 783f 6cb8 883f 40f7 7b3f 1720 803f
00000080: 025a 8d3f 8c18 7b3f 10b0 893f 97d4 8c3f
00000090: 34b4 853f 7c21 7b3f 81e0 853f 514b 823f
000000a0: 2d9c 7d3f 7c6f 853f 3808 833f 0a12 773f
000000b0: e52e 723f 0de1 893f bc4c 843f ef85 833f
000000c0: fc6e 943f d435 833f 5365 863f c7aa 883f
000000d0: 90d4 7c3f 550f 843f dbf4 823f b969 853f
000000e0: 27d1 843f 3976 973f 015d 873f ad34 8c3f
000000f0: f932 733f 8ab4 833f 34d7 823f a37d 7f3f
00000100: 4cc4 8d3f 1de1 803f ee11 803f 1f54 833f
00000110: 8a44 863f d654 853f c5eb 763f 7c22 7a3f
00000120: a212 853f c0ed 883f 3381 873f 3ab6 893f
00000130: e5cb 7e3f 54f3 8a3f 9d51 853f bc67 753f
00000140: aa3e 913f a0e1 893f 9e8e 823f 3cb4 8b3f
00000150: bc88 863f ea2e 8f3f 802d 873f c0a7 803f
00000160: e60c 843f f3c6 863f e101 863f 54d0 823f
00000170: 5af8 823f cdb6 833f 2107 773f 219a 8b3f
00000180: d8ee 853f faeb 853f df7a 7c3f a5ad 8c3f
00000190: eff0 833f d06a 733f 77a4 873f 6b08 873f
000001a0: 2820 793f 2abd 823f 7ca4 8a3f 37c9 893f
000001b0: 367e 7c3f 7100 8a3f 1d48 7e3f 22ad 7a3f
000001c0: 41fb 783f 6438 823f ad18 893f d4c1 8c3f
000001d0: 0828 833f 598e 7b3f d807 833f c088 893f
000001e0: bf64 833f 2367 8a3f e4bc 813f 7f18 8a3f
000001f0: cd33 853f bbe8 803f 8455 7f3f f358 7f3f
1.0577112 1.0664299 1.0217199 1.0226157 1.0161777 0.96737707 1.0088075 1.0562527
0.9399739 0.95498776 1.0305427 1.0487919 1.024364 0.9890189 1.009964 1.058761
1.0248216 0.9486111 0.9792628 1.1134295 1.1160697 0.9553299 1.0545162 1.0238976
1.0745591 0.9587018 1.1199129 1.0719576 0.9726344 1.0681281 0.9842415 1.0009793
1.1043093 0.9808433 1.0756855 1.1002377 1.0445619 0.9809797 1.0459138 1.0179235
0.9906643 1.0424647 1.0236883 0.965119 0.94602805 1.0771805 1.0335917 1.0275248
1.159637 1.0250802 1.0499672 1.0677117 0.98761845 1.0317179 1.0230974 1.0422889
1.0376328 1.1832954 1.0575258 1.0953575 0.94999653 1.0289471 1.0221925 0.9980108
1.107553 1.0068699 1.0005472 1.0260047 1.0489666 1.0416515 0.96453506 0.9770887
1.0396311 1.0697556 1.0586303 1.0758736 0.9952987 1.0855508 1.0415531 0.9586141
1.1347249 1.077198 1.0199773 1.0914378 1.0510478 1.1186192 1.056076 1.0051193
1.0316436 1.0529464 1.0469323 1.0219827 1.0232041 1.0290161 0.9649525 1.0906411
1.0463514 1.0462639 0.98624986 1.0990492 1.0307902 0.9508486 1.0597066 1.0549444
0.9731469 1.0213978 1.0831447 1.0764531 0.9863008 1.0781385 0.99328786 0.9792043
0.97258383 1.0173459 1.0710655 1.0996652 1.0246592 0.9826408 1.0236769 1.0744858
1.026512 1.0812725 1.013577 1.0788726 1.0406433 1.0071024 0.9973986 0.997451

nnECG.1.bias f4 [128]
00000000: 074d b6bb b6d1 223c 2779 b93c 5967 bb3a
00000010: d2a7 41bc a999 16bc 55d1 babb 3f7d 85bc
00000020: f1e5 6cbc d9de 38bc 5136 59bb 0fdc 1cbc
00000030: 7110 c8bc 48e4 093c 2922 a9bb 602a 1fbb
00000040: aaea df3a 5b23 91bb 7843 c1bc 4424 8d3c
00000050: db8d 69bb 4d17 f0bb 939d 823c 2d58 313c
00000060: cc8c b13b 823d d33a 0253 9bbc e87d afbb
00000070: 9a9a 52bc cf09 17bc 12c4 a1bb 86b2 2c3b
00000080: d653 763c db8f 83bc 7a59 573a 0152 a53c
00000090: fe1c 66ba 540f 763b be89 5c3c d471 6bbc
000000a0: 472f 813b 21bd 5dbc b14a 923b a710 b0ba
000000b0: f895 68bb 7cb5 1a3b 2e2c 33bc deaf e4bb
000000c0: 109e c93c 97ea 1bbc 6a54 28bb a6fd c33c
000000d0: 8584 bc3c 98b4 893c 827b 223a edfb 1d3c
000000e0: 391d 9db9 b577 eabc c08a cf3b 0be9 9d39
000000f0: f699 873b 208f debb b996 283c 4780 c23b
00000100: a30c b2ba b8c0 e43a 05bd bc3b 011c 013c
00000110: 6667 3abc 0835 86bb de92 0abc cf06 cc3b
00000120: 4852 0d3b c34a 923b d4ec 8bbb 89bd 213c
00000130: 9108 50bb c967 b6bb d844 74bb 5371 e23b
00000140: 22a4 473c 5c3f de3c 2884 5c3c 31bd 51bc
00000150: 59d5 2ebb 3284 1a3c bc66 d0bb c3b7 0c3b
00000160: 6eb1 30bb e011 c63b f3aa 963c 6e7b f2bb
00000170: 2d3c 7d3b 83b2 56bc 45c6 64bc fd95 9d3c
00000180: fb10 4abb 3bd8 573c 47b1 2d3a ceb7 70bb
00000190: d7f6 b23c 8427 dd3b c9c5 333c e0f7 00bc
000001a0: d281 9c3a 196b 9bbc 0c96 953c b4a5 623b
000001b0: de09 093c 4bd9 9c3c b2ed 1d3c e57f 48bc
000001c0: 8766 c3bb 9f78 efbb 7f52 43bc 402d 293c
000001d0: cec6 883c 04f1 49bc ff97 88ba a64f b03b
000001e0: 6308 91bb 2952 14bc f59d e93b aecd 86bc
000001f0: c61b 26bc 74f2 ab3b 61e7 693c 7b96 0cbc
-0.0055633816 0.009937694 0.022640778 0.0014297768 -0.011819797 -0.009191909 -0.005701224 -0.016295074
-0.014459119 -0.0112836 -0.0033143947 -0.00957395 -0.024421902 0.008416243 -0.005161543 -0.0024286732
0.0017083485 -0.0044292635 -0.023591742 0.017229207 -0.003563753 -0.0073269964 0.015944278 0.010824245
0.0054183956 0.0016116353 -0.01896048 -0.0053555854 -0.012854243 -0.009218647 -0.0049367035 0.0026351525
0.0150346365 -0.016059807 0.0008214932 0.020180704 -0.0008778124 0.0037545757 0.013460575 -0.0143704
0.0039424035 -0.013533861 0.0044644703 -0.0013432697 -0.003548978 0.0023606708 -0.010935826 -0.006978973
0.024611503 -0.00951638 -0.002568508 0.02392466 0.023012409 0.016809747 0.00061982137 0.009642583
-0.00029967146 -0.028621534 0.006333679 0.00030119004 0.0041382266 -0.006791964 0.010289841 0.005935702
-0.0013584088 0.0017452454 0.0057598376 0.007880212 -0.011377191 -0.0040956773 -0.008457867 0.0062263976
0.0021563936 0.0044644787 -0.0042701755 0.009871849 -0.0031743387 -0.0055665714 -0.003727248 0.006910482
0.012185128 0.027129821 0.013459243 -0.012801454 -0.0026677458 0.009430932 -0.006359903 0.0021471835
-0.0026961225 0.0060446113 0.018392062 -0.007399968 0.0038640604 -0.013104084 -0.013963287 0.019236559
-0.0030832875 0.013174112 0.00066258427 -0.003673065 0.021846218 0.0067490954 0.010972449 -0.007871598
0.0011940545 -0.018971967 0.018260024 0.003458363 0.008364169 0.019146582 0.0096391905 -0.012237524
-0.00596315 -0.0073080803 -0.011921524 0.01032573 0.01669636 -0.012325529 -0.0010421275 0.0053805886
-0.0044260486 -0.009052792 0.0071294256 -0.016455498 -0.010138458 0.0052474085 0.014276356 -0.008580799

nnECG.1.running_mean f4 [128]
00000000: 3058 72be 6dc9 9c3d d693 eebe 32d6 5e3e
00000010: 3c46 913e 468c 0f3f 86d2 363e a0bd a8bd
00000020: 4115 ddbc c6c5 a43e d053 81bd 6919 ca3e
00000030: 06a2 ac3e 2623 b33d cbd0 4439 c29a dc3c
00000040: e330 03bc a7d2 a43e be3c 643e af5e 17bf
00000050: f105 43bb ae5d 9ebe 2d33 3ebe 6453 bfbe
00000060: 2da3 e9bd ac29 dbbd cbb6 473e 7bb8 0d3e
00000070: 6a75 873d b25e 8e3e d63d dc3e f41b 16bf
00000080: e279 7abe e9c9 91be 0c63 d63d 8b0a 27be
00000090: b86b 8bbe e8c8 cbbc d57c 60be 9a2b 9d3e
000000a0: 26da 57be 9a71 9a3e e540 b83e 0a66 97bd
000000b0: 6336 b13d 14ff 03be 5e90 a3be 3e04 82be
000000c0: 3a54 8b3c 3cde 273e 90db ff3d b4ee 23be
000000d0: 0d31 f4be 5c7d 89be 9b1c 7d3e 39f5 ddbd
000000e0: 4525 92bd 4d85 c83e b3b2 a83d 47d3 8cbe
000000f0: f667 8c3d 63e1 9bbe c45c 76be c1a7 36be
00000100: 09bf 8b3e 23f9 bb3e d9b2 b2bd e7d1 a4be
00000110: 1e0d 5c3e a8bf 863d c7a2 3cbe 0d99 e83d
00000120: ec9e b8be 7c1e b2bc 0f93 9fbd 0420 2dbe
00000130: d9cc 1b3e 0a46 013d 9c74 a03e c42b 08be
00000140: cb91 4b3e ab97 b4bd fec2 2d3e 1658 bd3e
00000150: dbba 613e a3cb 4f3d 7cde cb3d 6a36 91be
00000160: 30d9 b2bd 0398 993d 6cfd ebbe 62c4 d83e
00000170: eee8 323e c5ef 8fbe 7ff2 d63e 6ef8 9ebe
00000180: d263 e8bd 0847 41be 7e82 bbbd 529b 273e
00000190: 7e2b f83d 8d99 253c b9b7 82be 4446 48be
000001a0: b863 2a3e 10c5 a7bd f83f e9be 926f 50be
000001b0: b510 103d dd6c 0fbe a7d7 35be f119 8a3e
000001c0: a6bb 2cbe 6396 a93e 5dce 02be 2236 29be
000001d0: 1227 dfbd 6960 693c e1f3 a2bd 4a31 bbbe
000001e0: a69b 893e 9ac6 64bd 3f20 09be 27a9 803e
000001f0: ea00 91be 4afb bb3e 86fd aebe 4c9d 5ebe
-0.23666453 0.076556064 -0.46597165 0.21761397 0.28373897 0.56073415 0.17853746 -0.08239293
-0.026987674 0.3218214 -0.06314814 0.3947251 0.33717364 0.087469384 0.00018769798 0.026929263
-0.008007261 0.32191965 0.22288796 -0.5912885 -0.002975818 -0.30930847 -0.1857421 -0.3736831
-0.114080764 -0.10701308 0.19503324 0.13839905 0.06614192 0.27806622 0.43015927 -0.58636403
-0.24460557 -0.28474358 0.104681104 -0.16312616 -0.2723062 -0.024876073 -0.2192262 0.30697328
-0.21079311 0.30164796 0.3598701 -0.07392509 0.086529516 -0.12890273 -0.3194608 -0.25393862
0.017007936 0.1639337 0.1249305 -0.16009027 -0.47693673 -0.26853454 0.24717943 -0.10837788
-0.07136015 0.391642 0.08237209 -0.27504942 0.068557665 -0.30445394 -0.24058825 -0.1783743
0.27294186 0.36713514 -0.08725519 -0.32191393 0.21489379 0.06579524 -0.1842147 0.11357317
-0.36058748 -0.021743052 -0.07791721 -0.16906744 0.15214862 0.031560935 0.31338966 -0.13297945
0.19879834 -0.08817991 0.16968915 0.36981267 0.22043936 0.050731312 0.09954545 -0.28361827
-0.087328315 0.07499697 -0.46091783 0.42337328 0.17471668 -0.28112617 0.41981885 -0.31048912
-0.11347164 -0.18874753 -0.09155749 0.16367844 0.121176705 0.01010741 -0.25530794 -0.19558054
0.16639602 -0.081918836 -0.45556617 -0.2035506 0.035172183 -0.14006372 -0.17758046 0.26972917
-0.16868457 0.33122548 -0.12774034 -0.16524556 -0.10896124 0.014244177 -0.079566725 -0.36561042
0.26876563 -0.055853464 -0.13391207 0.25129053 -0.2832101 0.36715156 -0.34177798 -0.21739691

nnECG.1.running_var f4 [128]
00000000: df6d 983d d59d 963d 2de6 983d 2c2c 9d3d
00000010: cf71 963d 9c41 953d 58f1 943d cb4d 9c3d
00000020: be0d 943d 90d9 943d c798 993d 4aeb 943d
00000030: 49ed 9d3d abe8 983d fa0f 993d 86ab 933d
00000040: 3383 963d df0f 9b3d 6daa 963d 33dc 983d
00000050: 73c1 993d 61dd 9a3d 9b2c 963d d4f7 973d
00000060: 29c7 9c3d aa0d 963d 3d6f 963d 3109 963d
00000070: 6621 963d 68bb 9f3d e2dc 9a3d d395 9c3d
00000080: cbf8 a23d 068c 963d 4449 943d 0154 973d
00000090: 4166 943d 3aee 953d 8ec4 9d3d fc11 983d
000000a0: 836d 943d 5ccf 9b3d eacc 9e3d 1573 943d
000000b0: 3ac8 933d d97e 9a3d 5eb2 943d f6d3 953d
000000c0: 9d0a 963d 8fe9 9c3d 4cac a13d 19f5 973d
000000d0: ade9 933d 3def 963d 4840 a03d cd65 953d
000000e0: 6c79 943d e3d3 9c3d c675 983d 663e 983d
000000f0: d87c 9d3d 8a40 a53d 0724 983d 8f8d 9d3d
00000100: 0c04 983d 3dc6 973d 7fd5 943d 55ff 9a3d
00000110: 201f 963d a45b 983d f0b0 963d 0693 983d
00000120: 4635 993d c8f1 943d 4684 a33d 67bd 983d
00000130: 46e7 963d 6c28 973d 4a5f 993d c25f 943d
00000140: 162e 993d 7e76 9a3d 6c14 953d cc74 983d
00000150: 63eb 973d 81ee 9a3d 0fb6 973d 7462 953d
00000160: 5cd1 a33d 292e 963d 42d2 963d 7ff4 a53d
00000170: 7954 983d dd94 943d 40b9 953d f2f6 943d
00000180: efac 993d a2bb 993d d4a7 953d 1b1a 993d
00000190: 3843 963d 6207 943d 4cf3 993d 0d6b a43d
000001a0: a704 973d 22e1 993d 7950 963d 739e 983d
000001b0: 30bb 963d b86a 953d 0ca4 953d 3358 963d
000001c0: 2401 943d 46c5 963d 8295 9a3d f906 993d
000001d0: a557 993d 8bb9 af3d e5e0 943d 60c8 9a3d
000001e0: 87c2 993d f779 973d c54e 953d 453f 9c3d
000001f0: a05f 973d 9e1c 9b3d 7901 953d 3496 9b3d
0.07442831 0.07354323 0.074657775 0.07674441 0.07345926 0.072879046 0.07272595 0.07632025
0.072291836 0.07268059 0.07499843 0.0727144 0.07711274 0.07466253 0.074737504 0.0721045
0.07349243 0.075713865 0.07356725 0.07463875 0.07507601 0.07561756 0.073327266 0.07420316
0.07655174 0.07326825 0.07345436 0.07325972 0.07330589 0.07799417 0.07561661 0.07645764
0.0795761 0.07350926 0.07240537 0.07389069 0.07246066 0.07320829 0.077035055 0.07425305
0.0724745 0.0760791 0.07753928 0.07248513 0.072159246 0.075437255 0.07260583 0.07315819
0.07326243 0.07661735 0.07894191 0.074197955 0.072223045 0.0736985 0.07824761 0.072948076
0.07249722 0.07657602 0.074443385 0.074337766 0.07689828 0.080689505 0.07428747 0.07693016
0.07422647 0.07410858 0.07267284 0.07568232 0.073301554 0.07439354 0.07357967 0.074499175
0.07480864 0.072726786 0.079842135 0.07458001 0.07368331 0.07380757 0.07488878 0.07244827
0.07479493 0.07542132 0.07279286 0.07444152 0.07417943 0.07565022 0.07407772 0.07294169
0.079989165 0.07333023 0.07364322 0.081032746 0.07437987 0.07254956 0.07310724 0.072736636
0.075036876 0.07506491 0.07307401 0.07475682 0.0733704 0.07227971 0.07517108 0.08028231
0.07373934 0.07513644 0.07339568 0.07452097 0.07359922 0.072957456 0.0730668 0.073410414
0.0722678 0.07361846 0.075480476 0.07472033 0.0748742 0.085803114 0.07269458 0.0755775
0.07507806 0.0739631 0.07290415 0.07629255 0.07391286 0.07573818 0.072756715 0.07597008

nnECG.4.weight f4 [64, 128]
00000000: 3cc1 bebd 2e30 debd 74d8 24bc 8b8b 2ebe
00000010: 4312 ef3c 2af7 1d3e af2c df3d 4486 8abd
00000020: 121b f9bd 2aab ea3c 6611 20be 1559 70bd
00000030: 61fb 7abc 40b9 2f3c afa5 e7bd 22b7 94bd
00000040: 42ed 34be b8de aabd 90f4 b73d d376 a5bd
00000050: caf6 45be 3b08 01bd be1b ccbd 4dda af3d
00000060: 1cd1 ff3d 2c99 28be 96ba 093e 46b9 923c
00000070: 9aad 1a3e 204c 863c 3eae 093e 4fb4 de3c
00000080: 8e67 963d b06c c7bc 7b41 bbbc f892 963d
00000090: 66e5 fabd 935c 42be f7ec 423c dae9 1e3e
000000a0: 7565 b4bc a161 24bd 24e3 d83c 8c02 fd3a
000000b0: 5afb 0ebe bca3 f13b 1aad 7b3c c608 59bd
000000c0: 99d2 0c3e a882 a13d ff20 fcbd c37e 52bc
000000d0: b0a4 ed3d 336e 0c3e b9f1 253e b46b 0ebe
000000e0: 6ced f7bd f1c2 2c3e c70f 33be b418 3b3e
000000f0: 38fb 2ebe 0ad8 cd3d 0b12 06bc 52a6 2c3e
00000100: 8858 103e 2d14 443d 8748 f63d bab4 8cbd
00000110: d0d8 79bd bed9 0c3e b759 293e b7c6 a8bd
00000120: f1a9 aabd 8710 60bd cb11 b9bd d395 47bd
00000130: c8c1 0b3c e4b6 08be 375c 9cbd ad19 1d3d
00000140: 7e65 1d3d bbed 17be 93c4 99bd 9b39 16be
00000150: fe96 8fbc 7862 f93d 36a8 af3c c5b5 c13d
00000160: 5b42 96bc 5bd9 9dbd e206 163e b5ec 123d
00000170: 7a38 21b9 1028 7f3d e1c7 f63d 814e a6bd
00000180: 2df7 acbd 3a3f 513d 3096 33be d71f 32bd
00000190: f6dc 3e3e 935c 3b3e e83b a6bc 3bbf 2c3c
000001a0: 227e 19be 7f9e ae3d 412f debc daaa d1ba
000001b0: 20d4 f33d 128f b4bd 840e cebd b2c3 99bd
000001c0: e8c3 c6bc cae9 b9bc a514 54be c4f6 d5bd
000001d0: 234c bf3d 7e25 bf3d 0f2d 1e3d de31 023e
000001e0: 5044 febd d2db 40be 1505 96bc 2b5f 343d
000001f0: 7c2b 8ebd d16d 58bd 995a aebd e65c 6dbc
00000200: e89a b23b cb76 09bd 032f f53d 7692 143e
00000210: 73bc 4c3e c06a fb3d 7302 073c 23e0 b3bd
00000220: daf8 29bd 20b0 f3bc c339 6d3d bde4 353c
00000230: 7cd0 bb3b 8b59 de3d aad2 42bc d6ca 38be
00000240: 0106 58be fbaf 40bd b523 18bd 4ea8 12bd
00000250: 500a 0b3e 6986 013e d884 2abe e106 373d
00000260: fc23 91ba b32b f1bb 6f98 95bd 55f7 09be
00000270: b1af b5bd 168e 583d b6e4 d0bd 4358 7d3d
00000280: 1a68 0c3e 2b44 803d 03f1 14be 1018 333d
00000290: fffa bb3c 618a d8bd d602 823d 1ac3 42be
000002a0: 4c1d d03d f6bb 36bd 1a90 c4bd 1828 20be
000002b0: 21da 01be 5c90 fe3d 637b 1fbe 698b 4abd
000002c0: 512a e03d 33f7 47be ca01 313e 9f3a 12be
000002d0: 3d00 62bd 4e0c bebd 74d2 2b3e 371b 4e3d
000002e0: 48ac 45be b4d8 a0bd 6d92 b23d b6f9 59bc
000002f0: 984e 52bd f96a f43d 7d13 bdbd 60b7 3ebe
00000300: ff15 c9bd 5e54 ca3d 3a22 4abe 4d46 2e3d
00000310: a00e 403d c361 a5bb 52ad 83bd 8eee 3abc
00000320: bc70 70bd 5392 09bd 03ec 9f3d 3009 aa3c
00000330: 4b5a 25be f6f8 053e 0729 203e e49a f9bc
00000340: ba69 d83d 31a4 6dbe 7bbb 033e 13d6 53be
00000350: 30ab 0abe 3b31 063e 81d9 083e e003 b7bc
00000360: 70ac de3d a0c8 063e 27f3 4f3d ff44 d2bc
00000370: 5392 e03d f0af fb3d 3902 02bd a803 babd
00000380: a1c2 07be d5ee a73c cb38 083c 55f9 043d
00000390: 39fd d23d 13bd 9e3d 8ee5 20be a320 b5bc
000003a0: 5cf1 8ebd 2f18 2f3b 2ba8 28be b307 f43d
000003b0: 6425 0fbd c694 e8bd 77b2 12be 55e6 b63d
000003c0: 3672 1a3e 9fa3 fa3d e400 c43d f031 593e
000003d0: 8703 48bd dbfd 44bc dbbd 7b3d 7c76 f83c
000003e0: 7417 353d a132 ad3d b01f b03c 27f9 a43d
000003f0: 5f81 67bd 61ae 5dbc 2949 d8bd c9bb 6c3d
-0.093142 -0.10849033 -0.010061372 -0.17045419 0.029183513 0.15426317 0.108971946 -0.067638904
-0.121633664 0.02864607 -0.15631637 -0.058678705 -0.015318722 0.010725319 -0.113108985 -0.07261492
-0.17668632 -0.083432615 0.089821935 -0.080793045 -0.19332424 -0.03150199 -0.09966229 0.085865594
0.12491056 -0.1646468 0.13450083 0.01791061 0.15105286 0.016393721 0.13445374 0.027185587
0.0734397 -0.024343818 -0.022858372 0.07352251 -0.122507855 -0.18980627 0.011897317 0.15518895
-0.022021035 -0.04013217 0.026475497 0.0019303127 -0.1396307 0.007374255 0.015361095 -0.052986883
0.13752212 0.07886249 -0.12310981 -0.012847605 0.11603677 0.13713913 0.16205491 -0.13908273
-0.121058315 0.16871239 -0.17486487 0.18271142 -0.1708802 0.10050972 -0.008183013 0.16860321
0.14096272 0.047870804 0.12025552 -0.06870408 -0.060997784 0.13754937 0.1653813 -0.08241027
-0.08333195 -0.05470326 -0.09036597 -0.048726868 0.008530088 -0.13351017 -0.07634776 0.038354564
0.03842687 -0.1483678 -0.07508197 -0.14670412 -0.017528053 0.121769845 0.021442514 0.09458498
-0.018342188 -0.07707473 0.14651063 0.035870273 -0.00015375196 0.062294066 0.120498426 -0.08120442
-0.084455825 0.05108569 -0.1753776 -0.043487396 0.18638977 0.18297033 -0.020292237 0.01054364
-0.14989522 0.085263245 -0.027122142 -0.0015996352 0.11905694 -0.08816351 -0.100613624 -0.07508029
-0.024263337 -0.022694487 -0.20711 -0.104474574 0.09340694 0.09333323 0.03861719 0.12714335
-0.12415373 -0.18833855 -0.01831297 0.04403607 -0.06941888 -0.052839104 -0.08513374 -0.014487481
0.005450595 -0.033560555 0.119718574 0.14508995 0.19993763 0.1227622 0.00824033 -0.08782985
-0.04149709 -0.029747069 0.057916414 0.011101899 0.0057316404 0.10856923 -0.011891047 -0.18046126
-0.2109604 -0.047042828 -0.037143428 -0.03580504 0.13578153 0.1264893 -0.16652238 0.044684295
-0.0011073346 -0.0073599457 -0.07304465 -0.13473256 -0.08871401 0.05286988 -0.10199873 0.06185175
0.13711587 0.06263002 -0.14545064 0.04372412 0.022946833 -0.10573269 0.06348197 -0.19019738
0.10161838 -0.044612847 -0.09597798 -0.15640295 -0.12680866 0.12429878 -0.15574412 -0.049449358
0.10945571 -0.19527893 0.17285839 -0.14280175 -0.05517601 -0.09279691 0.167795 0.050318923
-0.19304001 -0.07853833 0.08719335 -0.013304165 -0.051344484 0.11934466 -0.09232233 -0.1862464
-0.098186485 0.09879373 -0.19739619 0.042547513 0.046888947 -0.0050470545 -0.064295426 -0.011409415
-0.058701262 -0.03358681 0.078086875 0.020756334 -0.16147725 0.13083252 0.1564065 -0.030469365
0.10567041 -0.23207165 0.12864487 -0.20687132 -0.13541865 0.13104717 0.13364221 -0.022340715
0.108727336 0.1316247 0.050768998 -0.025667666 0.10965409 0.12289417 -0.0317404 -0.090827286
-0.13257839 0.020499626 0.008314322 0.032464344 0.10302205 0.07750907 -0.15712568 -0.022110289
-0.069796294 0.0026717295 -0.16470401 0.11915531 -0.034947768 -0.11356501 -0.14325891 0.08930651
0.1508263 0.122382395 0.095704824 0.21210456 -0.04883149 -0.0120234145 0.061460357 0.030329935
0.04421182 0.08456922 0.021499485 0.080553345 -0.056519862 -0.013530345 -0.10560829 0.057796273

nnECG.4.bias f4 [64]
00000000: efc7 2c3b bbaf eebc 606b b13c 1b98 353c
00000010: 5c00 d6bc 2db2 9c3c b627 0b3d 5b2f 903b
00000020: 5bdf b53c 6991 133d ee84 3f3a e7d5 153d
00000030: f785 d13c a503 343d c0db 7a3b 12df b73c
00000040: ab02 e13c 0290 3a3c 37e3 3cbc 3f48 1a3d
00000050: 8bc9 4c3d 21a2 c33c af6f 063d 2ac1 3dbc
00000060: 3b94 6b3c e78d 3f3b c040 b43c c7e5 143d
00000070: 90fd 4ebd 93e1 983c 4ecc 87bc 7fe2 8a3c
00000080: 0772 da3b da07 323c 655c 123c cf18 ae3c
00000090: 2bd2 1f3d 7c19 fa3b 959c 203c 702f 1e3d
000000a0: 0829 6b3c 7e61 01bb aa79 debc 826a e7bc
000000b0: 124f da3c 24f3 c53c 933c 193d 30c7 093c
000000c0: 6f1e 0dbd 6cbb ebbc 36d3 0e3c 2269 6e3c
000000d0: 9247 b13c ae97 713a e561 5c3c dfe4 013d
000000e0: b902 9a3c a1a1 8d3c 5b00 9d3c 0aaa 13bd
000000f0: 126a 2fbc 00a9 823c 876f 593c 8908 17bb
0.0026364287 -0.02913653 0.021657646 0.011083628 -0.026123218 0.01912793 0.03397342 0.0044001765
0.02220123 0.036027346 0.000730588 0.036580946 0.025576575 0.04394879 0.0038277954 0.022445235
0.027467092 0.011386873 -0.011528782 0.037666555 0.049996894 0.02388102 0.032821354 -0.011581698
0.014378603 0.0029228867 0.022003531 0.036351945 -0.050534785 0.01866225 -0.016576912 0.016953705
0.006666425 0.01086613 0.008933161 0.021252064 0.03901879 0.0076324325 0.009802957 0.03861946
0.014353044 -0.0019741948 -0.027157623 -0.02824903 0.026649032 0.02416379 0.037411284 0.008409306
-0.03445285 -0.028775893 0.008717349 0.014551433 0.021640573 0.00092160224 0.013451074 0.03171241
0.018800126 0.017288985 0.019165209 -0.036050834 -0.0107064415 0.015949726 0.013271219 -0.0023045859

nnECG.5.weight f4 [64]
00000000: ecb2 813f e728 843f 21d6 853f 5104 883f
00000010: 010d 7d3f 78e0 853f 1644 8b3f f7d4 863f
00000020: befe 8e3f f939 903f 6de0 8f3f 878c 893f
00000030: 1972 8a3f 32bf 883f 8070 863f fe82 843f
00000040: 393a 813f 61da 863f 7fb3 8b3f d880 8c3f
00000050: 2e6a 8f3f 8556 8a3f 7abb 8f3f ac67 823f
00000060: 953f 823f 044e 863f f09e 813f b089 8b3f
00000070: cd2d 823f 9b70 853f 5c29 813f 9b03 843f
00000080: f6e0 863f 7809 8f3f d837 873f 0eb3 823f
00000090: 234e 893f c9f3 893f 395e 8c3f 708a 843f
000000a0: 3117 8a3f 52e9 793f 4f40 773f b940 7f3f
000000b0: bbfa 773f 89cd 873f b31f 843f b2cc 853f
000000c0: a7a0 7b3f eefd 823f b6d4 8e3f b267 8f3f
000000d0: 96bb 853f f385 803f ae4e 913f cf20 8a3f
000000e0: 76dd 863f 3188 8c3f 929c 793f 24c5 723f
000000f0: da82 863f 5032 843f afeb 803f 62ed 873f
1.0132728 1.0324982 1.0455972 1.0626317 0.9884797 1.0459127 1.0880153 1.0533742
1.1171491 1.1267692 1.1240364 1.074601 1.081607 1.0683348 1.0503082 1.0352476
1.0095893 1.0535394 1.0914153 1.097682 1.1204278 1.0807654 1.1229088 1.0187888
1.0175654 1.0492558 1.0126629 1.0901394 1.0170227 1.042499 1.0090747 1.03136
1.0537403 1.1174765 1.0563917 1.0210893 1.072697 1.0777522 1.0966254 1.0354748
1.0788327 0.97621644 0.965825 0.99708134 0.9686696 1.0609599 1.0322174 1.0453093
0.9829201 1.0233743 1.1158664 1.120352 1.0447872 1.0040878 1.1352136 1.0791262
1.0536335 1.0979062 0.9750453 0.9483206 1.0508683 1.0327854 1.0071925 1.0619318

nnECG.5.bias f4 [64]
00000000: 8f6c efbb dc4e 1fbd 09e9 0a3c 8a47 1839
00000010: 4055 0cbd 73c7 2f3c 9623 ec3c 6f0d 10bc
00000020: f51a a43c 64a3 bc3c aa90 d3b9 5f3c d83c
00000030: 58e3 ae3c 48a0 063d d5ff fcb9 0b78 84ba
00000040: ae73 503c 2154 403c 8926 3bbc 8351 143d
00000050: b6a4 463d d9a1 393c 5334 ef3c 5b15 b0bc
00000060: 946c d33b 8d13 44bc 973d ae3c 3d99 b63c
00000070: d4ff 81bd 8ead 593a 5776 9ebc 7413 f0b9
00000080: 4219 22bb 20a4 b3ba 9f9c cf3b 3b89 a93c
00000090: 9ada 913c d9f7 7fbb 98b1 aebb dcb7 773c
000000a0: fe6a 52bc 1a61 49bc 6ba2 0cbd 545e 14bd
000000b0: 0580 e83b 1424 463c 81e0 d03c dc4b b4bb
000000c0: 0c51 5bbd d22e 38bd f3cc 603b ca35 193c
000000d0: 2e69 e43b 8b51 64bc b714 d43b 793b c03c
000000e0: 60c8 49b9 e2fe c53b 2def 063c 2e52 75bd
000000f0: 515b d8bc e7b4 f93b 46bd 373c cbbc 98bb
-0.0073066424 -0.038893566 0.0084784115 0.000145225 -0.03426099 0.010728705 0.028825562 -0.008792265
0.020032385 0.02302713 -0.0004035284 0.026395975 0.02134864 0.0328677 -0.00048255795 -0.0010106576
0.012722893 0.011738808 -0.011422762 0.036210548 0.048496924 0.011330091 0.029199755 -0.021494558
0.0064521525 -0.011967552 0.021269603 0.022289867 -0.063476235 0.0008303755 -0.019343538 -0.0004579086
-0.0024734293 -0.0013705529 0.0063358094 0.02069532 0.017804433 -0.003905764 -0.0053312294 0.015119519
-0.012842892 -0.012291217 -0.03433458 -0.03622277 0.0070953392 0.012093563 0.025497677 -0.005502207
-0.05354409 -0.044966526 0.0034301847 0.009351203 0.006970546 -0.013935457 0.006472196 0.023465859
-0.00019243499 0.0060423473 0.008235735 -0.059892826 -0.02641073 0.007620442 0.01121456 -0.0046611778

nnECG.5.running_mean f4 [64]
00000000: d8b3 003e f0a1 2e3e 37fe 4c3d 82d2 d53d
00000010: c7d5 b1be 3bd1 193e c3c8 9abe 5ad4 4c3d
00000020: 26e4 c93d 58d1 fc3d 0225 4a3d 9b19 843e
00000030: 8bdd 7abe b0b9 ad3d 0b63 843d 0f5b 00bf
00000040: 02c6 5b3e 689b 31be 3b10 30be c1d1 cf3d
00000050: 632d 06be 8aaa 5abe d702 51be b9e8 ffbe
00000060: 90d7 3d3e a655 9ebe 63c8 c0be 704d 0d3e
00000070: 4276 fabd 1616 0e3d 486e 30be dd56 a5bc
00000080: 671f 38bd 6a1b cdbe 9bc3 ffbb 0b35 afbd
00000090: f5e0 a53d 2755 a73d e581 00bd b194 dd3e
000000a0: 0c68 933d 8719 eb3e d3e4 d6be 91f9 e93e
000000b0: 2a8b 09be 29a5 6dbe 04fe 31be bed0 343e
000000c0: 3e24 143e 8372 83bd c6b8 9f3e 74a9 c63e
000000d0: c1d2 1ebe 84de cdbe df78 843d 381f 2d3f
000000e0: 0b5e c6be f181 f73d 1815 453f 2146 8ebe
000000f0: 1b49 b3be e97c e3be 94d6 b23e d76f acbe
0.12568605 0.17053962 0.050047126 0.10440542 -0.34733412 0.15021221 -0.30231294 0.0500072
0.09857969 0.12344617 0.0493517 0.25800785 -0.24498574 0.08482683 0.064642034 -0.50138944
0.21462253 -0.17344439 -0.17193691 0.10147429 -0.13103251 -0.21354118 -0.2041124 -0.4998224
0.18539262 -0.3092472 -0.37652883 0.13799071 -0.12229587 0.03468903 -0.17229569 -0.020183021
-0.044951823 -0.40059978 -0.0078053004 -0.08555039 0.08099548 0.081705384 -0.031373877 0.43277505
0.0719758 0.45917913 -0.41971454 0.45698217 -0.13431993 -0.23207535 -0.17382056 0.17657754
0.1446695 -0.06418326 0.31195658 0.38801157 -0.15510084 -0.40208828 0.06468367 0.6762576
-0.38743624 0.12085331 0.7698531 -0.2778788 -0.35016713 -0.44431236 0.34929335 -0.33679077

nnECG.5.running_var f4 [64]
00000000: 01f0 873f fd3c 9e3f 1fe0 853f d8a6 df3f
00000010: 9271 583f 317a a53f d601 923f 300e 653f
00000020: 4256 7b3f 9c9e b23f dc8f 873f d992 c03f
00000030: 4ded 8d3f aef9 d33f c972 6d3f 3f39 a63f
00000040: fc5c 703f bc9a c93f f97e 703f d9d9 7a3f
00000050: a05c 963f 56bd b73f 7ec1 0c40 3e70 ab3f
00000060: 13f8 b43f 3390 c03f 86b7 6a3f bb82 783f
00000070: 8da0 c63f baf5 5d3f 7985 c33f b063 9b3f
00000080: 6b38 d23f 2538 d43f 9316 843f a26b a43f
00000090: 926a a43f f716 7a3f 70a8 833f dde3 683f
000000a0: 0704 923f 6b13 c83f cd7f 623f 8275 643f
000000b0: 164c 5e3f fcc4 7c3f a762 823f 7da2 903f
000000c0: 2a38 5b3f 38cf 893f 4bc2 583f fd24 933f
000000d0: fb15 c93f 2f7c db3f 7246 863f c30f dd3f
000000e0: 9069 8a3f 595e 803f 2fbc 6e3f b61d cb3f
000000f0: 4b30 c53f 6595 913f 66f8 593f bbe8 433f
1.0620118 1.2362362 1.0459021 1.7472792 0.84548295 1.2927915 1.140681 0.89474773
0.98178494 1.3954654 1.0590777 1.5044814 1.1088043 1.6560571 0.92753273 1.298622
0.9389188 1.5750346 0.93943745 0.9798866 1.1747017 1.4354656 2.1993098 1.3393629
1.4138206 1.5044006 0.91686285 0.9707448 1.5517746 0.86703074 1.5275108 1.2139797
1.6423467 1.6579634 1.0319389 1.2845347 1.2845023 0.9769129 1.0285778 0.9097269
1.1407479 1.5630926 0.8847626 0.892418 0.8683485 0.98738074 1.0186356 1.1299587
0.85632575 1.0766363 0.8467147 1.1495663 1.5709833 1.7147273 1.0490248 1.7270435
1.0813465 1.0028793 0.93255895 1.5868442 1.5405363 1.1373717 0.8514465 0.76526994

nnECG.8.weight f4 [16, 64]
00000000: 6412 7d3e c826 893d 02d7 48be 6fcc 1abe
00000010: 4d22 2bbe f131 90be 5d40 9e3d 6cb3 73bd
00000020: a50e 02be 40aa 8b3e b86c 05bd 4a54 083d
00000030: 280b e1bd d4bd 593e bdb3 4c3e aec8 c1bd
00000040: 53d5 50be 9cb6 de3d 5d15 a1bd 76e0 893e
00000050: 44e1 14be 2e24 4c3c c1ac 2f3d f2fb 623e
00000060: a0b5 0dbe 7929 1f3e 00f7 463e 7071 463e
00000070: d076 863e 634b dcbb ee2f eebd 2dbc 05be
00000080: be2c 303e 9250 d93d 4cab 1e3e 139e 843b
00000090: 71e5 96bd 21f9 0e3e 521d 9cbe 8d8f 2abe
000000a0: 18aa 2b3e 5a62 0dbd 4fa7 97be 2766 3f3e
000000b0: b5ea 49be cb65 1d3d f286 00be c51e 99be
000000c0: 1844 8dbe 45b9 0bbd 7d7c babc 0f81 323c
000000d0: a610 01bc 75b7 17be d91b 23bc fe29 173e
000000e0: a9a5 5d3e fa10 32be c093 743c c468 fb3d
000000f0: a453 df3d 8ff2 b0bb 5721 753e 9c33 5dbe
00000100: a728 04be 57a6 5abe 9b72 16be fbdf 183e
00000110: 8505 3ebe 3096 f43d ce59 0d3d 7a2c 5ebe
00000120: 5151 8cbe c669 7e3e db0b a5be f5c0 ab3e
00000130: c5ce 3f3e 3193 063e 5312 7c3e ef11 703e
00000140: 5c5f 183e 0c1d 793c 4a8c 3fbe 55bf 1f3e
00000150: 745f 323e e25b db3d 1f44 a73e 289c 6cbe
00000160: 95eb eebd 93ff d2bd 2a34 783e 36c3 163e
00000170: 8b7f 67bd 0387 4a3e 53d9 be3c deba cbbc
00000180: adb5 bc3d 3e59 3abd 3286 f63d 18d0 833e
00000190: b078 af3e 23f0 15be 2ba4 323d 64e7 803e
000001a0: d4c2 49be 5617 00be 6c66 82be d562 88be
000001b0: 41bc 583e 3434 323e ddb0 803e 1789 cbbc
000001c0: d175 5ebe 0a97 21be d565 78bc 2017 85be
000001d0: 6a54 1cbd c6be 1f3e 9201 f9bd 829a a5be
000001e0: 93d0 1e3e ffcb ac3d 9012 873d 4b82 00be
000001f0: e283 933c 6c5b 033d 3781 38be 8d35 6f3d
00000200: 9869 87bd b836 0a3e f3f5 79be 24c2 e83d
00000210: 4ca4 413e fd77 323e cb3b acbe d5bd 933e
00000220: acd0 203e 5bca 77be b8da c63e bbf8 3c3d
00000230: 171a 72be c33b 72be b5c6 91be 10f3 b9bc
00000240: 6826 97bb 88c3 2f3e 9f01 e6bd 8441 80be
00000250: a13d 4b3e 5c7a b43e 1f2f 41be 6d24 bb3d
00000260: 9f6b 993d 50c0 bf3a 8ffa aebb 3936 87be
00000270: 06ab 6bbe 25e7 58be 1c3e 7c3d 977f 293d
00000280: f756 653e e70f 31bd 67a7 7bbc 59e1 54be
00000290: 4e73 e6bd 258a ae3e 6a25 a23e 1089 87bd
000002a0: d06a 05bd 2748 9e3c c9b5 02be 8495 d3bd
000002b0: da28 3cbe bab3 853e dea2 dc3d 997e b43b
000002c0: 37ae 5dbe ce44 133c 3845 463e c478 fa3d
000002d0: c91a 123e 8c77 1fbe 7c49 503e 8ca9 d33d
000002e0: 4491 2ebe e24b af3e d1b3 86be 3bd7 3dbe
000002f0: 3f81 1a3e 74e8 39bd 89c6 74bd a588 b23e
00000300: bcf1 123e c683 373e 979d 8f3d 41cf b0bd
00000310: f2d7 d63d e293 73bd b863 16be 6f21 47bd
00000320: be7d 953d 5b2d 1cbd 7024 a1bd fd05 0b3e
00000330: 84ed 173c c0ca 6abd 5d1c 1dbe 818e bdbd
00000340: a446 fa3d 7388 46be 9560 213e 6290 92bd
00000350: a7d7 693e 217e 33be 7610 b6be 901c 4dbe
00000360: 6706 7e3e dfd2 41be 249c 7bbe 3846 debd
00000370: e71f 4d3e 7fc7 a23d e8da 2a3e d456 d5bd
00000380: 13c3 7a3e ac2d bbbd bbe4 fcbd 34d3 51be
00000390: 8eae 55be 040c 823e 8197 86be f4d1 893e
000003a0: e19f 8fbd 7791 823e 5f82 12be 50c0 d2bd
000003b0: 746a fd3d 8bc0 5b3e 978e 423e ffd9 af3d
000003c0: e4f9 1ebe 3cfb c4bd b95b 283d 7ae8 a03e
000003d0: e7ca 41be d5e8 34be 3853 833e c2c2 a53b
000003e0: 8f0a 2fbe 88c8 583d 7f68 0dbe 6505 d2bd
000003f0: c9f0 eb3d cd88 80be 9f8b 1cbe 9aa5 123d
0.24714047 0.0669685 -0.19613269 -0.15117048 -0.16712303 -0.28163102 0.0772712 -0.059497282
-0.12700899 0.27278328 -0.032574385 0.03328351 -0.10988456 0.2126382 0.1999044 -0.09462105
-0.20393877 0.10874674 -0.07865403 0.26929063 -0.14539057 0.012459798 0.04288936 0.22166422
-0.13838816 0.15543164 0.1943016 0.1937921 0.26262522 -0.006722854 -0.116302356 -0.13060065
0.17204568 0.10611071 0.15495032 0.004047164 -0.07367981 0.13962223 -0.3049112 -0.16656323
0.16764104 -0.034517623 -0.29619834 0.18691312 -0.1971844 0.038427155 -0.12551478 -0.29906288
-0.27591014 -0.034112234 -0.022764439 0.010895028 -0.007877504 -0.14816077 -0.00995537 0.14762112
0.21645226 -0.17389289 0.0149278045 0.12275842 0.10904625 -0.005400009 0.239385 -0.21601719
-0.12906133 -0.21352516 -0.14692156 0.14929192 -0.18556793 0.119427085 0.034509473 -0.21696654
-0.2740579 0.24845037 -0.32235608 0.33545652 0.1873122 0.13142087 0.24616365 0.23444341
0.14880127 0.015204679 -0.1870586 0.15600331 0.17419225 0.10710885 0.3266916 -0.23106444
-0.116660275 -0.10302653 0.24238649 0.14722905 -0.05651812 0.19778065 0.023296988 -0.024869379
0.092143394 -0.045495264 0.120373145 0.257447 0.34271765 -0.14642386 0.043613594 0.25176537
-0.19703227 -0.12508902 -0.25468767 -0.26637903 0.21165563 0.17402726 0.25134936 -0.024845643
-0.21724631 -0.15780273 -0.015160997 -0.25994205 -0.03816644 0.15600118 -0.12158503 -0.32344443
0.15509252 0.08437347 0.065953374 -0.12549703 0.018007223 0.03206961 -0.18018042 0.05840068
-0.06611937 0.13497436 -0.24410228 0.113651544 0.1891033 0.17428584 -0.33639368 0.28855768
0.15704602 -0.24198286 0.38838744 0.046135645 -0.23642765 -0.2365561 -0.28471914 -0.022698909
-0.0046127327 0.17164433 -0.11230778 -0.25049984 0.19847728 0.35249603 -0.18865632 0.09137807
0.0749123 0.0014629457 -0.0053399275 -0.26408556 -0.23014459 -0.21181925 0.06158267 0.041381445
0.22396456 -0.043228056 -0.015359736 -0.20789088 -0.112524614 0.3408977 0.3166917 -0.066179395
-0.032572567 0.019321514 -0.12764658 -0.10331252 -0.18374959 0.26113683 0.10773252 0.0055082557
-0.21648489 0.008988572 0.19362342 0.122300655 0.1426803 -0.15572947 0.20340532 0.10335073
-0.17047602 0.34237581 -0.26309064 -0.18539135 0.15088366 -0.0453877 -0.05975965 0.34869877
0.14350027 0.17921361 0.0701248 -0.086332805 0.10490407 -0.059467204 -0.14686477 -0.04861587
0.07299374 -0.03812919 -0.07868278 0.13576503 0.009272937 -0.057322264 -0.15342851 -0.09255696
0.12220505 -0.19387989 0.157595 -0.07156445 0.22836171 -0.17528583 -0.35559434 -0.20030427
0.2480713 -0.18928097 -0.24571282 -0.10853237 0.20031701 0.07948207 0.16685069 -0.10416952
0.24488477 -0.091395706 -0.123483144 -0.20490724 -0.20867369 0.25399792 -0.26287463 0.26917994
-0.07012916 0.25501606 -0.14307545 -0.10290587 0.1237382 0.21460168 0.18999706 0.08586501
-0.15525013 -0.09618232 0.0411031 0.31427366 -0.18925057 -0.17666943 0.25649428 0.0050586173
-0.17093872 0.052925617 -0.13809393 -0.10254935 0.115205355 -0.2510437 -0.15287636 0.03580246

nnECG.8.bias f4 [16]
00000000: 0d14 57bc 2d2a 183d 3c61 ec3c e008 b9bc
00000010: 521d 983d 2d44 4c3b b51e 86ba 1da5 303d
00000020: 096c 50bc 232d 91bb 9a24 b1bc 9dcb 323d
00000030: 2083 0d3c 9507 0c3d abe9 4fbd de96 b93c
-0.013127339 0.037149597 0.028854959 -0.02258724 0.074274674 0.0031168566 -0.001023254 0.043126214
-0.01272107 -0.0044304295 -0.021623898 0.043651212 0.00863722 0.03418692 -0.050759953 0.022654947

nnECG.9.weight f4 [16]
00000000: 719f 7e3f 1609 883f dc6d 8d3f fec1 853f
00000010: d016 913f dc65 8b3f 03c4 793f 7a70 8d3f
00000020: 207b 893f 008b 823f bc3d 8a3f 62bd 8a3f
00000030: cb9a 823f f1fc 863f 2d09 873f a447 8a3f
0.9946204 1.0627773 1.1049151 1.0449827 1.1335087 1.089046 0.97564715 1.104995
1.07407 1.019867 1.080009 1.0839045 1.0203489 1.0545942 1.0549675 1.0803113

nnECG.9.bias f4 [16]
00000000: a794 c8bc da5b a83c f373 e63c 4bf9 a0bc
00000010: e4a6 773d c8bb 4bbc a257 f3bb 0d04 a93c
00000020: ffd8 dcbc 8a99 8abc 102f b0bc f16b f63c
00000030: 3365 b5bc 095d 6f3c 821a 83bd 11fa 7ebb
-0.024484945 0.02055161 0.02813146 -0.019650122 0.060461894 -0.012434907 -0.007426218 0.020631814
-0.02695894 -0.016918916 -0.021506816 0.030080767 -0.022142982 0.014609584 -0.0640154 -0.0038906375

nnECG.9.running_mean f4 [16]
00000000: d4e7 6bbd 2ab9 0e3d 1280 92bd 0bd0 94bd
00000010: 5d9f 3bbd 80ff b83e f727 9cbd c97b 5abd
00000020: add1 bbbd 17f1 d8bc b97b 7c3e b74f 54be
00000030: f315 4e3e 03e8 0a3e 94e4 383d 2459 8dbd
-0.057594135 0.034844555 -0.07153334 -0.072662435 -0.045806278 0.3613243 -0.0762481 -0.053340707
-0.09170852 -0.026482148 0.24656571 -0.20733534 0.2012556 0.13565068 0.045139864 -0.06901768

nnECG.9.running_var f4 [16]
00000000: dccd be3f 7c70 ab3f 7f3d ca3f 82c7 a43f
00000010: 2b8e a63f 1f3e a03f fc53 eb3f 076b c13f
00000020: 6821 893f d229 a43f 741d c73f 5475 b63f
00000030: 395f 9b3f cd6e a93f 1766 c53f 9e32 b13f
1.4906573 1.3393703 1.5800017 1.2873385 1.3012136 1.2518958 1.8385005 1.5110787
1.071332 1.2825263 1.5555863 1.4254556 1.2138435 1.3236939 1.542178 1.3843572

nnECG.12.weight f4 [4, 16]
00000000: ff5c fd3b f5de 59be b3b2 8e3e 97dd 923e
00000010: 8e56 82be 5edc 933e a9b6 ff3e a2a3 c33e
00000020: 7e13 90be bae1 123c 20e2 b7be ab7b d03e
00000030: c13c 9e3e 13cf 883d 2bd0 333e 9ad3 0cbf
00000040: 8613 003e 19b1 efbe d618 153f 0a05 e6bd
00000050: 6ec5 9e3e 7230 c53e 6744 0dbb a010 26bf
00000060: 00ec e5bd 937c 323e 2df5 05bf 80cf d73e
00000070: 1959 c9bd 26cb c63e 85ab 07bf bb50 993e
00000080: 7f4d 0f3e ad13 e93e c173 8e3e c3da 12bf
00000090: 7c9b 923e 4083 e1be 6449 b8be 651d 00be
000000a0: 6583 a1be 0b4c d13d 7d22 f7bd f73c 143f
000000b0: 5ce1 a83e 7acf 0e3f 3616 fbbe 231d a1bd
000000c0: baf6 82be 0f56 9a3e 7667 033f 7de0 943e
000000d0: f8db 633d 3692 cd3d 58e4 ae3e 492b 83be
000000e0: 0895 1e3d 7641 7dbe 0ca4 55be 10ec 6f3d
000000f0: fb28 2a3e e19b 15bf 08e8 2bbc 2010 aa3e
0.0077320333 -0.21276458 0.27870712 0.28684685 -0.2545666 0.28879064 0.49944046 0.3821078
-0.2813987 0.00896495 -0.35914707 0.4071935 0.30905727 0.06680121 0.17559879 -0.5501038
0.12507448 -0.46814802 0.5824102 -0.1123143 0.31010002 0.38513523 -0.0021555664 -0.6486912
-0.11226654 0.17430334 -0.52327234 0.42150497 -0.09831447 0.38826865 -0.52996093 0.29944405
0.13994406 0.45522824 0.27822688 -0.57365054 0.2863425 -0.44045448 -0.35993493 -0.12511213
-0.3154556 0.10219582 -0.12067125 0.57905525 0.32984436 0.55785334 -0.49040383 -0.078668855
-0.25578862 0.30143782 0.51329744 0.2907752 0.0556297 0.10037653 0.34158587 -0.2561896
0.038716346 -0.24732003 -0.2086336 0.058574736 0.16617195 -0.5844098 -0.010492332 0.33215427

nnECG.12.bias f4 [4]
00000000: 32c2 823c 8d9d f43b e708 d73c 6037 a33c
0.01596174 0.0074650706 0.026249362 0.019923866

nnECG.13.weight f4 [4]
00000000: 805b 823f f3cd 863f b11d 853f 371e 8d3f
1.0184174 1.0531601 1.0399686 1.1024846

nnECG.13.bias f4 [4]
00000000: 91e2 2fbb 6d99 47bb 1ad7 4b3c e18d 083c
-0.0026837925 -0.003045644 0.012441421 0.008334608

nnECG.13.running_mean f4 [4]
00000000: 4f8e a23e 6309 543c ef25 ac3d e4f1 0d3e
0.31749198 0.012941691 0.08405673 0.13861805

nnECG.13.running_var f4 [4]
00000000: c7e3 ae3f 50dd f73f 2447 f73f 377d 6a3f
1.3663262 1.9364414 1.9318585 0.9159731

nnECG.16.weight f4 [1, 4]
00000000: 4e03 25bf 83eb 2f3f 903f 27bf 7227 d63e
-0.6445817 0.6871874 -0.65331364 0.4182697
